data-3/rl_model_0.pth (torch_old, 93650 bytes, 18 tensors)

w_a f4 [32, 32]
000000 32 bb 3a c0 d0 24 53 3e ed 15 39 40 fa 1b de bf
       -2.9176755 0.20619512 2.8919632 -1.7352288
000010 11 63 67 3f 1d d8 8f bf 60 88 53 c0 3d d7 67 40
       0.9038554 -1.1237828 -3.3051987 3.622512
000020 08 8a d8 3f d8 88 16 40 96 7d 69 bf 9f 81 cc 40
       1.6917124 2.3521023 -0.91207254 6.390823
000030 e7 c0 6d 3d 20 f8 19 40 91 51 ab 3f 08 fc b6 bf
       0.058045294 2.4057693 1.3384267 -1.4295664
000040 42 cd 4f c0 3a 74 e0 bf 3d 1b 86 c0 15 39 59 c0
       -3.246903 -1.753547 -4.190825 -3.394109
000050 5f 2a d6 3d 0d 35 47 c0 9f 40 21 c0 02 e3 d3 be
       0.104573004 -3.112613 -2.5195692 -0.4138413
000060 ce fb 71 3f 22 cf 8e bf 6a 7d f1 3f db 49 92 bf
       0.9452485 -1.1156962 1.8866398 -1.1428789
000070 73 23 1c 3f 7d 32 90 bf 47 b5 41 c0 af 9a cc 3f
       0.6099159 -1.1265408 -3.0266893 1.5984706
000080 ad 9d bb bf f8 0d 7a 3f f6 41 ad bf 94 b9 d9 3e
       -1.4657494 0.97677565 -1.3535755 0.42524397
000090 28 ac 51 be e8 53 4e be d0 bb 5d bf ee 38 84 3d
       -0.20475829 -0.20149195 -0.86614704 0.06456171
0000a0 9b 4d ab bf 72 2e b3 be e6 57 e4 3e b8 40 b5 bf
       -1.3383058 -0.34996372 0.4459831 -1.4160376
0000b0 3c 6d 6a 3e ea db ee 3d c5 3a 4d c0 05 54 f8 bf
       0.22893232 0.11663039 -3.206712 -1.9400641
0000c0 cd 0c 84 3f c4 37 86 3f 6c 3e aa 3d 95 fe 49 3f
       1.0316406 1.0485768 0.08312687 0.78904086
0000d0 02 21 4c bf 6e 7a 47 c0 1e 4f 15 c0 a1 c8 08 3f
       -0.79737866 -3.1168475 -2.332954 0.53431135
0000e0 3b 12 e5 be e6 5c ca bf 23 2d c9 3d 3a 6f 5c 3f
       -0.4474047 -1.58096 0.09823062 0.8610722
0000f0 a1 97 81 bf c7 da 12 3f 4b 04 1f 3f 5f 0d e0 be
       -1.0124398 0.5736508 0.62115926 -0.437602
000100 c0 fe 3c be 5d 23 98 be d5 70 19 40 bc 09 40 c0
       -0.18456554 -0.2971448 2.3975117 -3.0005941
000110 be 99 92 bf 67 33 fe bf d6 c6 6e 3f 0e f8 1d bf
       -1.1453168 -1.9859437 0.9327215 -0.61706626
000120 49 b4 99 3f 03 2b fb 3f f6 cd 9b bf ad 6f 8e 3d
       1.2008144 1.9622501 -1.2172229 0.06954894
000130 7d 7e 10 bf e0 c7 0e c0 35 48 89 bf 3a e9 bc 3e
       -0.56443006 -2.2309494 -1.0725161 0.36896688
000140 ee 8e d8 bf 5e 8a 43 bf e7 04 84 bf 79 d5 82 3e
       -1.6918619 -0.76383007 -1.0313996 0.25553492
000150 b5 11 0c 40 21 84 c8 be 3f ab 9b 3f 4d 9e 10 be
       2.1885808 -0.39163306 1.2161635 -0.14122887
000160 99 20 81 bf b7 d8 a2 3e 81 68 8f bf b8 f9 6c be
       -1.0088073 0.31805965 -1.1203767 -0.23142135
000170 03 21 04 c0 c4 5c 0d bf 2b 42 b6 bf 2d ec c4 3f
       -2.0645149 -0.55219674 -1.4238943 1.5384575
000180 a8 50 56 c0 f8 bc 02 40 86 c0 0d 40 da a9 40 c0
       -3.3486729 2.0427837 2.2148757 -3.010367
000190 5d f4 cd 3f 44 f1 a0 bf 8d f5 44 bf 5c e1 9b bf
       1.6090199 -1.2573628 -0.7693718 -1.2178149
0001a0 6b 48 21 40 64 01 fb 3f d8 12 d6 3f e3 1a 92 40
       2.520045 1.9609799 1.6724501 4.565782
0001b0 cb 42 0a 40 c8 56 a1 be f1 a7 50 bf b3 30 93 bf
       2.1603267 -0.3151152 -0.8150626 -1.1499237
0001c0 ff 19 6a c0 1b 1b ce bf b6 66 e1 bf 01 7d bb 3f
       -3.6578367 -1.6102022 -1.760947 1.4647523
0001d0 23 c5 17 40 40 59 10 c0 5d b7 09 c0 48 8a d1 bf
       2.3714073 -2.2554474 -2.1518166 -1.6370325
0001e0 2f 59 44 3f da 84 ce 3e f9 4c 88 3d 32 3d 23 bf
       0.76698583 0.40335733 0.06655306 -0.6376525
0001f0 66 56 31 40 b6 d5 56 40 9c 14 45 bc 4e d8 08 40
       2.7708983 3.3567939 -0.012028839 2.1382022
000200 02 76 98 be 5f 93 d5 be 20 66 14 c0 30 d6 53 3e
       -0.29777533 -0.41713998 -2.3187332 0.20687175
000210 83 28 c1 bf e0 de 71 be 47 69 8a be aa 7f 05 c0
       -1.5090488 -0.23620176 -0.27033445 -2.085917
000220 6a 81 94 bf 97 c4 88 3e 13 c3 1d 3f ff 6d 38 be
       -1.1601994 0.26712486 0.61625785 -0.1801071
000230 4f c1 14 bf 8c 4f 83 bf 80 5f cc bf bb 82 6b be
       -0.58107466 -1.0258651 -1.5966644 -0.22999088
000240 3b 31 33 be 8a a6 9d be 7f c8 96 bf 61 24 ef 3d
       -0.17499249 -0.30791122 -1.1779937 0.116768606
000250 3f 55 71 bf e4 93 8a 3e c9 11 ed bd 67 5e 8e bf
       -0.942707 0.27065957 -0.11575658 -1.1122559
000260 e9 9d 56 bf ee 9e 14 40 7e 2f 9a bf cd d2 3b 40
       -0.838347 2.3222003 -1.2045743 2.9347413
000270 be 5c 0d 40 40 42 15 bf 2c 8b 9f 40 ca 40 09 c0
       2.2087855 -0.58304214 4.9857388 -2.1445794
000280 30 5d 93 3e fb 3e 02 40 1d 27 d3 3f ba 6a 26 bf
       0.28782034 2.035094 1.6496311 -0.650066
000290 31 32 2f 3f c3 43 80 3f f7 57 73 40 22 f7 96 3f
       0.6843596 1.0020679 3.802244 1.1794169
0002a0 ef b4 8c bf 03 44 80 3f fb 03 b4 3e b5 fb a0 3f
       -1.0992717 1.0020756 0.35159287 1.2576815
0002b0 4d 09 e4 3f ab c2 1a 3f d4 60 99 3f ee 04 e6 bf
       1.7815338 0.6045329 1.1982675 -1.7970254
0002c0 9f 78 36 3f d7 4e fd 3f a1 4f 57 3f bd 3b 26 3f
       0.71277803 1.9789685 0.8410588 0.64934903
0002d0 75 13 99 be 09 f3 f5 3f 81 ed 94 3e 5e 9a ec be
       -0.29897657 1.9214793 0.2908745 -0.46211523
0002e0 e3 2c b7 3f 91 d9 6f 3f 88 54 a5 3d f9 4d 3c 3c
       1.4310573 0.93691355 0.08072764 0.0114931995
0002f0 d6 eb 1b be 37 fa b2 3f 5f 98 42 3e 1e f2 4b be
       -0.15226683 1.398261 0.19003437 -0.19916579
000300 aa c9 96 3e c5 1c 13 3e c0 24 0f 3f 89 90 06 c0
       0.29450732 0.14366443 0.5591545 -2.1025717
000310 66 f3 cf bf cf e8 3f bf ff 3a 67 bf de c2 47 c0
       -1.6246154 -0.7496461 -0.90324396 -3.1212687
000320 34 ed 4f 3f 30 a5 34 3f 6f b3 a1 be 18 db b5 3e
       0.8122132 0.70564556 -0.3158221 0.35518718
000330 5d 4e b3 bf 18 d7 93 3f 3e 1e 04 bf 63 f8 4d 40
       -1.400829 1.1550016 -0.51608646 3.2182853
000340 59 6e 36 c0 f6 ad 06 bf e8 82 19 c0 00 92 42 be
       -2.850485 -0.52609193 -2.398615 -0.19001007
000350 0c 83 f4 3f 38 16 25 bf 3e dd ca bf a8 25 e2 bf
       1.9102492 -0.6448703 -1.5848768 -1.7667742
000360 3c f6 ce bf 68 40 a0 3f a1 c9 91 3e 78 85 df bf
       -1.6168895 1.2519655 0.28474143 -1.7462606
000370 c5 90 a8 3d 1a 59 b3 3e 41 16 b8 3e 52 1e 16 3f
       0.082307376 0.35028917 0.35954478 0.58640015
000380 c5 03 35 bf a6 a4 1d 40 81 ad 50 3f 97 49 5f 3f
       -0.70708877 2.4631743 0.81514746 0.87221664
000390 2c c4 c8 3d 96 4f ba 3f 3c b5 55 bf 34 cd 47 3f
       0.09803042 1.4555538 -0.83479667 0.7804749
0003a0 af 51 0c 40 af 13 e0 3f 00 8b bc be 2b 38 05 40
       2.1924856 1.7506007 -0.368248 2.0815532
0003b0 86 75 1f 3f 00 bb 97 3f ea 21 a9 bd 37 4c 2f be
       0.622887 1.1853943 -0.08258422 -0.17118917
0003c0 86 bb b0 bd c8 18 8f 3f c0 03 dd bf 04 10 02 3f
       -0.08629517 1.1179438 -1.726677 0.5080569
0003d0 e6 07 89 3d b0 b3 db bf 6b 0e a9 3f 09 dc e1 3d
       0.0669096 -1.7164211 1.3207525 0.110282965
0003e0 94 63 c9 3e 60 19 75 bf 2a b5 82 3f 6b d3 78 be
       0.39333785 -0.95741844 1.0211537 -0.242994
0003f0 4f 90 b8 bf dc 67 04 bf d2 f1 b6 3f c2 fb a3 3f
       -1.441904 -0.51720977 1.4292548 1.2811205

w_group.0.weight f4 [64, 8]
000000 56 70 3b bd 3c b0 b3 3c 1d ea 67 3e fb 64 8f be
       -0.04576143 0.021934621 0.22647901 -0.2800673
000010 91 2b b1 be 00 11 0f 3d a4 07 ad bd f9 3f d4 3c
       -0.3460355 0.03492832 -0.08448723 0.02590941
000020 ba bc 27 bf 6b 72 32 bf fc 7f 07 c0 37 97 e9 3e
       -0.6552235 -0.6970584 -2.1171865 0.4562318
000030 40 fb a3 be a5 d4 5e be 37 19 2e bf 9c bc 47 bf
       -0.32027626 -0.21760805 -0.68007225 -0.7802217
000040 aa ae 53 bf 05 ff 9e bd ff 35 e6 be 76 69 c8 be
       -0.8268839 -0.07763485 -0.4496307 -0.3914296
000050 e9 e6 72 be 34 eb 91 be f4 c6 11 bf 2a 56 50 bf
       -0.23720898 -0.28499758 -0.56944203 -0.81381476
000060 4f f1 d5 be 2d 81 ff 3e 56 ac bb 3f b4 e1 02 c0
       -0.41785666 0.4990324 1.4661968 -2.0450258
000070 7d 7d f6 3e 3e 04 66 3e 6f d7 bd be b7 8a 40 3e
       0.48142615 0.22462556 -0.37078425 0.18802916
000080 a2 e8 b3 bd e5 4b 00 bd fc 9f 1f 3f 5e 79 bd 3e
       -0.087846056 -0.03132238 0.6235349 0.37006658
000090 8c a1 a5 3c 5a 00 27 3e e7 c9 6b be 84 7b ae be
       0.020218633 0.16308728 -0.23026238 -0.3407861
0000a0 5c 99 2a 3f 7f 5e e0 bd 29 83 88 bf 67 3c 9a be
       0.6664026 -0.10955524 -1.0665027 -0.30124208
0000b0 c1 0c 02 c0 17 4c 8e 3e 43 4a f6 3e ff f2 47 bb
       -2.0320284 0.27792427 0.48103532 -0.0030509827
0000c0 ff 34 60 bf 47 0c 48 3e b6 45 52 3f 73 a0 81 3f
       -0.87580866 0.19535933 0.8213762 1.012709
0000d0 b9 0f 05 bf 8e 80 23 be 2d 7d 45 bf 07 b9 02 bf
       -0.51977116 -0.15967008 -0.7714413 -0.5106358
0000e0 a5 86 07 bf 59 c9 ff 3e 0f 46 33 40 40 8e 12 c0
       -0.52939826 0.49958304 2.801151 -2.2899323
0000f0 14 78 53 be 26 a1 5a be 3e 7e 9e bd a8 b9 08 bf
       -0.20651275 -0.21350536 -0.077389225 -0.5340829
000100 f8 f3 f6 bd 8b 67 21 3e a0 2a e6 be 72 09 e0 3e
       -0.12058252 0.15762155 -0.44954395 0.43757206
000110 02 46 c6 be 28 8a 5e be 3e a2 b4 be a5 ca c9 be
       -0.38725287 -0.2173239 -0.3528003 -0.39412418
000120 d8 8a 88 bc f6 94 ad be 6d f2 d8 be fe dc 21 bf
       -0.016667768 -0.3390271 -0.42372456 -0.6322783
000130 17 31 3f 3f d8 21 fd 3d 8a ad e3 be 32 21 27 bf
       0.7468428 0.12359971 -0.44468337 -0.6528503
000140 43 75 2c 3f 69 a2 43 3e 61 eb 84 bf 72 b1 16 3f
       0.6736643 0.19104923 -1.0384332 0.5886451
000150 a5 44 9e bf c4 47 b3 bd e2 4c fa 3d 3b 5d 27 3e
       -1.2364699 -0.087539226 0.122216955 0.16344158
000160 42 1a 9f be 31 e0 8c 3e bf 57 cd 3d 5a b6 06 bf
       -0.3107472 0.27514794 0.10026502 -0.52621996
000170 25 5e 14 bf 40 49 1a 3d c8 8e 56 bf 96 c1 3c bf
       -0.57956153 0.037667513 -0.83811617 -0.7373289
000180 76 2d 8e 3f 14 01 0b bf 48 bf 04 40 25 3a 2b 3f
       1.1107624 -0.5429852 2.074175 0.66885597
000190 21 18 28 bf 76 c9 43 be 9f 43 1f bf 67 a5 70 bf
       -0.6566182 -0.1911982 -0.62212557 -0.94002384
0001a0 56 25 37 3f d6 27 a6 3f 60 85 00 40 53 19 30 3f
       0.71541345 1.2980907 2.0081406 0.6878864
0001b0 00 7c 1d be 30 66 fc bc 41 58 3e bf 8f 9b 51 bf
       -0.15379333 -0.030810446 -0.74353415 -0.8187799
0001c0 a9 ee ef bd 82 52 a5 be 80 a4 fd 3e 76 d2 99 3f
       -0.11715443 -0.3228951 0.49539566 1.2017353
0001d0 c8 a8 b9 be aa 89 22 be 29 68 15 bf 0d ed 44 bf
       -0.36261582 -0.15872827 -0.5836206 -0.7692421
0001e0 2f 86 d1 3f 06 de 04 bf 78 c8 4c 3f 6a 59 c7 bf
       1.6369075 -0.5190128 0.7999339 -1.5574162
0001f0 ed cc b1 be de e2 3b 3e 24 28 bb be 0f bc 0d bf
       -0.34726658 0.18348262 -0.36554062 -0.5536508
000200 31 2f cf 3e 86 37 9a be 07 51 1c c0 79 b3 ff be
       0.40465692 -0.30120486 -2.4424455 -0.49941614
000210 02 bf f3 3e 79 86 a3 be fa 60 05 be f1 8f 4e be
       0.47606665 -0.31938532 -0.13025275 -0.20172097
000220 7e 4c 09 3e 2f 1c 6c 3e 52 d5 e0 be 5a 2f 6c bd
       0.13408086 0.23057626 -0.4391275 -0.057662345
000230 68 1a 78 bf c0 29 c8 bd ce d9 e7 be f4 22 b8 be
       -0.9691529 -0.09773588 -0.4528336 -0.35964167
000240 96 dc bd bc 6e 8a dc 3c 9a 38 f9 be ab 04 22 3e
       -0.023176473 0.026921477 -0.48675996 0.15822093
000250 3b 9b 9d bf 80 6d 54 bb 9d 1a 86 bd 36 a4 36 be
       -1.2312998 -0.00324139 -0.06548045 -0.17836079
000260 36 d2 12 bd b3 9d a8 bc 69 4e 6b 3e 0f c5 c8 3e
       -0.035845004 -0.02058301 0.2297913 0.39212844
000270 ec 30 f5 3e aa 22 62 3e c7 6b 96 be 35 43 81 be
       0.47888887 0.22083536 -0.29379103 -0.25246587
000280 09 28 57 bf 06 eb 8d bf fe 6b 19 3f 66 dd c8 be
       -0.84045464 -1.1087348 0.5993041 -0.39231414
000290 d9 35 c4 be f6 45 2d 3e 82 62 e9 be 65 71 38 bf
       -0.38322333 0.16921219 -0.45582968 -0.72048026
0002a0 f5 70 7a be 3c 25 c2 be 00 fc 13 be 83 4f ed bd
       -0.24457152 -0.37919033 -0.14451599 -0.11587431
0002b0 da 67 1f bf fc fe d9 bd 86 73 44 bf 8e 85 5e bf
       -0.6226784 -0.106443375 -0.76738775 -0.8692254
0002c0 b7 3e 6a 3e ef 1d 90 bd 52 61 9f 3f ce 9a 91 bf
       0.22875486 -0.070369594 1.2451575 -1.1375368
0002d0 22 ac c4 bf 93 65 a4 be ef ca 30 be 44 4e e7 be
       -1.5365031 -0.32108745 -0.17264913 -0.451769
0002e0 78 49 34 3f cd eb 92 3e 8c c3 8a be 55 1c fc bf
       0.70424604 0.28695527 -0.27102315 -1.9696146
0002f0 e2 8e 19 bf a2 39 40 3e 39 17 04 bf 5b 36 8f be
       -0.59983647 0.18771985 -0.51597935 -0.27971157
000300 ef 8a 02 40 f6 6b 24 be c1 4a 3d 3f 9c 39 de be
       2.0397298 -0.16056809 0.7394219 -0.43403327
000310 1e 82 2d bf 47 1b 95 3e c4 c8 48 3e d0 eb 87 3d
       -0.6777667 0.29122373 0.19607836 0.066367745
000320 44 74 2b 3e 7c 3d 76 be 0f f0 69 3f 9e 7b b2 3e
       0.1674357 -0.24046892 0.91381925 0.34859937
000330 1d 23 0d bf d8 6e 68 3d d3 7b 09 bf b5 f6 d7 be
       -0.55131704 0.056746334 -0.53704566 -0.4218041
000340 80 a5 60 3e ee 11 16 3e 31 bb 25 3f d2 1d 3e 3f
       0.21938133 0.14655277 0.64738756 0.7426425
000350 25 5c d7 be 8e b7 5a 3e 2d 13 02 bf 25 31 2d be
       -0.42062488 0.21359083 -0.5081051 -0.16913278
000360 ed 4a c6 3e 13 1f a2 3f cc d0 ef be a0 48 6d 3e
       0.3872904 1.2665733 -0.46838987 0.23172235
000370 11 ea 29 bf e0 6f 50 bc 20 c0 c0 be dd d9 11 3d
       -0.6637278 -0.012721986 -0.3764658 0.03560816
000380 05 8f 46 be a3 ea bc be 56 95 61 be ed bd 9b bf
       -0.19390495 -0.36897764 -0.22029623 -1.2167336
000390 7b 8a 0e 3e 23 0e b1 be c2 6f 12 bf f8 f9 2e bf
       0.13920014 -0.34581098 -0.5720178 -0.6835017
0003a0 a3 ab d1 be ef cb af be e9 0a 44 3f d1 e9 86 bf
       -0.4095126 -0.34335276 0.7657915 -1.0540105
0003b0 6b e3 82 bf 62 bf 45 3e 24 21 3d bf 99 a9 43 bf
       -1.0225652 0.19311288 -0.73878694 -0.7643066
0003c0 fa 1b 79 bd bd 51 56 3e c3 5b 27 be 83 12 6d c0
       -0.060817696 0.20929618 -0.16343598 -3.7042549
0003d0 a7 4a f5 be ec fe 05 be fa 89 55 3e 39 8f 50 3e
       -0.47908518 -0.13085526 0.20853415 0.20367135
0003e0 90 a0 29 3d b1 90 ce be 4e 42 13 bf 0f 3b f1 bd
       0.04141289 -0.40344766 -0.5752305 -0.11778843
0003f0 36 3b f5 be d4 25 d2 bd 87 07 14 bf 76 c6 ee be
       -0.47896737 -0.102611214 -0.57823986 -0.4663579

w_group.0.bias f4 [64]
000000 34 a4 9a be 8e c7 57 bf 86 3e 52 bf 58 ee b9 be
       -0.30203402 -0.8428887 -0.82126653 -0.36314654
000010 52 20 eb be 44 44 1c be ad b5 06 bf 1c 2e 23 bf
       -0.45923096 -0.15260416 -0.52620965 -0.6374223
000020 8e 65 1b bf f2 2c ca be c9 a6 1a be 84 b7 7a bf
       -0.60701835 -0.39487416 -0.15102686 -0.9793627
000030 0d d9 66 bf b4 fe 14 bf 37 a4 07 bf 8f 29 a4 bb
       -0.90174943 -0.58201146 -0.52984947 -0.005009837
000040 e1 c4 7e be 9e c4 0d be d3 65 12 bf 77 b8 ae 3d
       -0.24879791 -0.13844535 -0.5718662 0.085312776
000050 b7 d8 35 bf be b1 61 bf 48 a5 48 bf dd 40 22 bf
       -0.71033806 -0.8816184 -0.783772 -0.63380224
000060 81 a3 14 be cd 7d 41 bf 1f a6 f4 be bb 48 f7 bb
       -0.14515497 -0.7558258 -0.4778299 -0.007546512
000070 a4 0a 08 be 0b 0d 19 bf ee 25 29 3e a9 d6 03 bf
       -0.13285309 -0.59785527 0.16518375 -0.5149942
000080 5f ff 8a be e8 0e 2a bf f1 5b 95 bb e4 26 97 be
       -0.27147958 -0.66428995 -0.0045580794 -0.2952186
000090 8a f3 1a bf f1 7e b9 3e 10 82 d7 be ed af 06 bf
       -0.6052786 0.3622966 -0.42091417 -0.5261219
0000a0 26 11 c3 3d 6c 3f 19 bf 2a dc d7 be 78 3c 8b be
       0.09524755 -0.598624 -0.4216016 -0.27194571
0000b0 52 9a 06 bc 39 51 24 be e0 35 33 3d 15 32 01 3e
       -0.008215504 -0.16046609 0.04375255 0.12616761
0000c0 c9 f5 44 bc 3b 62 48 bd 45 00 1a bf 92 33 0d 3e
       -0.01202149 -0.048921805 -0.6015666 0.13789204
0000d0 df 0b d3 be b8 9b e2 be 72 26 a5 be b7 fb 88 be
       -0.41219994 -0.4425943 -0.32255894 -0.26754543
0000e0 68 ab 4b bf 5e ee 9c be db 8f f1 bd fc 86 aa 3c
       -0.7955842 -0.3065061 -0.117950164 0.020816319
0000f0 14 e0 a9 be 26 c9 fb be 06 8c c5 bd b6 55 39 3d
       -0.3317877 -0.49176902 -0.09645848 0.045247756

w_group.2.weight f4 [32, 64]
000000 04 69 bb 3d 31 13 df bd da 39 57 bd 54 f6 ee bd
       0.091508895 -0.10892332 -0.052545406 -0.11668077
000010 f6 14 b9 3c 98 0e ff 3c ec 60 21 be 8f bf de 3b
       0.022593003 0.031134889 -0.15759629 0.006797738
000020 47 4e 5a bd 69 35 95 bc 1c e9 88 bd 3e 8d 86 3d
       -0.053297307 -0.018213945 -0.06685087 0.065699086
000030 2c f5 be bd 28 d2 de bc 35 63 f3 bc 76 be 97 3d
       -0.093241066 -0.02719982 -0.029710392 0.074093744
000040 57 b4 72 bd dd 50 1c be 9f 89 3e 3d 9c 59 0f be
       -0.059254017 -0.15265222 0.046517964 -0.13999027
000050 a5 9c fb bd 34 39 1a be ba ce b7 bd aa 9a f8 bc
       -0.12285737 -0.15060884 -0.08974977 -0.030347187
000060 b3 fb c3 bb 1e 07 9d 3d f0 0d fc bd d2 25 ad 3d
       -0.0059809326 0.07667373 -0.12307346 0.08454479
000070 51 ab 44 3d ef d9 37 bd aa 95 37 3d 5a 3f a4 3d
       0.048014943 -0.044885572 0.044820465 0.08019896
000080 68 24 a4 3c 40 f8 66 bd 96 33 a2 3c 84 1b cf 3c
       0.020036891 -0.056389093 0.019799989 0.025281675
000090 aa f7 45 bd 17 e0 03 3d 31 f3 b3 3d 0a 8e 05 be
       -0.048331894 0.03219613 0.087866195 -0.13042465
0000a0 ae 4f f7 bd 8c 47 c8 3c 5a 45 5f bd 8b 8c 40 be
       -0.120757446 0.024448179 -0.0545095 -0.18803613
0000b0 35 a3 be 3d 91 d6 06 bc 22 e8 43 be c0 07 fe bd
       0.09308473 -0.008229868 -0.1913152 -0.12403822
0000c0 d6 bc 5f be 3b 96 a0 3c 82 e8 cd bb e8 a7 84 3d
       -0.21849379 0.019602885 -0.0062838206 0.06477338
0000d0 3d a4 c3 bc 25 6f b8 3d 20 20 80 bd f1 c2 5a bd
       -0.023882026 0.09005574 -0.06256127 -0.053408567
0000e0 4c de ae 3d bb 50 e4 bd 31 67 8e bd 08 97 dd bd
       0.085384935 -0.111482106 -0.06953276 -0.108198225
0000f0 36 d9 a5 bd 2b 26 1e be 84 f5 92 bd 87 c4 23 be
       -0.0809807 -0.15444247 -0.07175735 -0.15992938
000100 c3 91 08 3d 2a 36 74 3e 74 c1 f1 3e 3f 04 30 3e
       0.033342134 0.23848787 0.47217906 0.1718912
000110 32 7a c0 bd 47 86 b8 3e 06 6b 35 bf 12 91 99 be
       -0.09398307 0.36039945 -0.7086643 -0.29993492
000120 b0 de 7b be 12 a0 45 3e 14 b5 63 3e 9f ae a3 3e
       -0.24596667 0.19299343 0.22237045 0.31969163
000130 2e 19 12 3f 92 ad 7b 3f 4c d0 f1 3d ba 5f 35 3f
       0.5706967 0.9831172 0.118073076 0.7084919
000140 e6 98 bf 3d 2a cc e0 be 90 63 88 bd b9 6f 02 3c
       0.09355335 -0.43905765 -0.06659615 0.007961207
000150 c0 63 13 3f 9c 42 3a be 41 3f 28 3e 3e fe 36 bc
       0.5757408 -0.18189472 0.1643038 -0.0111690145
000160 bb cc 49 bf 85 75 53 bd 14 d8 d9 3e d6 ba 47 3e
       -0.7882802 -0.051625747 0.42547667 0.19504866
000170 54 dc d5 bc 80 80 b0 bc 96 20 b3 bd 10 f6 1c 3e
       -0.026106037 -0.021545649 -0.0874645 0.1532824
000180 9b 09 1e bf 32 00 e2 3e 29 cf 95 bf 2a 78 7a 3d
       -0.61733407 0.44140774 -1.1703845 0.061149754
000190 a5 ac 32 bd 97 1c 9a bf 04 7d 49 3e 93 a1 56 3c
       -0.043621678 -1.2039975 0.19676596 0.013100046
0001a0 e4 1f 9f be bd 74 41 3f d6 b5 00 3e 7c 2e 06 bf
       -0.31079018 0.75568753 0.12569365 -0.5241468
0001b0 a1 bc 3e be b3 f6 cf bd d4 49 c2 bf 48 06 c3 3d
       -0.18626644 -0.10154476 -1.517878 0.095226824
0001c0 09 f0 94 be dc f0 60 3d 84 0a 54 be ea e2 31 3f
       -0.29089382 0.0549172 -0.20707136 0.6948687
0001d0 ba 3e 03 be c7 4b 31 3f af de 04 bf 78 c8 75 bf
       -0.12816897 0.6925625 -0.5190229 -0.96009016
0001e0 4d 8b 26 bf 91 ef ab 3d c9 ea 95 bf ce 02 91 be
       -0.65056306 0.08395303 -1.1712276 -0.28322452
0001f0 b6 81 6e 3c a7 86 65 bf ca 98 cb bf f9 79 23 bf
       0.014557293 -0.8965859 -1.5906003 -0.6385799
000200 f1 f4 11 be cb 30 97 bf 40 81 1d bd 02 45 cb bd
       -0.14253594 -1.1811765 -0.03845334 -0.099252716
000210 55 e9 22 bd 99 ae 16 3e ea 8f 30 be be fc 0b be
       -0.039773304 0.14715041 -0.17242399 -0.13670632
000220 00 d2 15 3d c7 74 d8 3d e2 70 81 bd 63 be 4d 3f
       0.036577225 0.105691485 -0.06320359 0.8036863
000230 18 43 d2 3d e2 a7 fc 3e 68 7d 96 be 52 35 0d bf
       0.10266703 0.49346834 -0.29392552 -0.55159485
000240 e9 bb c2 3d aa 46 2d be 94 8d 53 3e d9 2b 5f be
       0.09508497 -0.16921487 0.20659477 -0.2179407
000250 6d e0 2c c0 52 19 e3 be 8a 6e 26 bf 83 56 5d bf
       -2.7011979 -0.44355255 -0.6501242 -0.8646013
000260 8b 08 d2 3e 94 bf 92 be a7 dc f0 bc 4e 44 11 3e
       0.41022143 -0.28661788 -0.02940209 0.14186212
000270 aa 3d 5b 3e 52 13 c2 3d b1 4e a7 bd 0a 91 57 bf
       0.21410242 0.09476341 -0.08169306 -0.8420569
000280 f1 56 06 bb 7d fe d7 be 89 05 36 3d f2 38 c3 be
       -0.0020498598 -0.42186347 0.044438872 -0.38129383
000290 ab f5 d3 bd 49 45 bc 3d b8 d5 00 3a dc 94 ba bd
       -0.10349592 0.091929026 0.0004914659 -0.09110424
0002a0 4e 04 a9 be 9d 64 0f 3e 03 de 02 3e f1 48 db be
       -0.33011097 0.14003225 0.12780003 -0.42829087
0002b0 ce 24 a7 3e d5 8f 03 be 22 b1 03 3e 65 c4 d6 3c
       0.32645267 -0.12847836 0.1286054 0.026216695
0002c0 ef 6d 9d 3e 36 1f 64 bf 19 cf ad bd 96 61 02 bf
       0.30747935 -0.89110124 -0.08486766 -0.50930154
0002d0 9a 29 aa bd 68 0f e3 3e e4 6b 0e 3b e5 08 2a bd
       -0.08308716 0.44347692 0.0021731788 -0.04151239
0002e0 3e 1f 04 3f 74 e2 d7 3b 2e 06 89 3e 42 3f df be
       0.5161017 0.0065882746 0.26762527 -0.4360295
0002f0 f4 08 82 be 75 71 a9 bf f4 49 54 3c da 8b af be
       -0.25397456 -1.3237749 0.012957085 -0.34286386
000300 ec 95 6c 3d 94 fb c8 bd fc a9 fa 3d af 06 a3 bb
       0.057760164 -0.0981361 0.12239453 -0.004975162
000310 2d 7c 68 bc 46 f1 01 be e9 a1 06 be 8e dd 11 be
       -0.014189762 -0.12689695 -0.13147701 -0.14244673
000320 97 47 eb bd eb 4b 13 be 3a 1d c8 bd 42 5c 72 3b
       -0.11488264 -0.14384429 -0.097711995 0.003698126
000330 ef 62 98 bd af d8 10 bd 4a 42 e8 bd ae e8 03 bd
       -0.07440745 -0.035362896 -0.11340769 -0.032204323
000340 01 56 4b bd 62 9c 10 36 6a 41 47 bd 14 81 a9 bd
       -0.049642567 2.15487e-06 -0.048646368 -0.08276573
000350 c6 00 85 3d 58 15 4e 3d 41 9d 29 be b4 3b 18 be
       0.06494288 0.050313324 -0.16563894 -0.14866525
000360 d5 1e e6 3c 17 11 38 be 41 88 7f bd b3 0a a1 3c
       0.028090874 -0.1797527 -0.0623858 0.019658422
000370 5f 2c de 3d 71 6d 21 bd 37 b7 ee bd ee 1b 83 3d
       0.10848307 -0.039411012 -0.11656039 0.064018115
000380 7c 78 c7 3c 63 19 ce 3d f8 19 b3 bc ae cb a6 bd
       0.024349444 0.10063436 -0.021862969 -0.081443176
000390 a0 9e 34 3d d4 b4 15 be c9 7d 51 3c 6f 96 1f be
       0.04409659 -0.14619762 0.012786337 -0.1558473
0003a0 b2 4d e1 bd 10 99 ae bd ea 54 2d 3d c3 a2 0e 3c
       -0.11001147 -0.08525288 0.04231731 0.008705798
0003b0 8b 5d 19 bd 9b bd 92 3d ba 8d 29 be 94 58 fe 3d
       -0.037442725 0.071650706 -0.1655797 0.12419239
0003c0 4e 33 74 bd ea ff 96 3d 62 75 b7 3d 90 34 98 ba
       -0.05961924 0.073730305 0.08957936 -0.0011612345
0003d0 97 88 af 3c 77 94 81 3d cb 32 1f be 26 4b 5f bc
       0.021427436 0.063271455 -0.1554672 -0.013628757
0003e0 f8 9d 4a 3d a0 6f 0b 3c b9 b9 11 bd 3a 9a 8e 3c
       0.049467057 0.0085105 -0.03557751 0.017407525
0003f0 fe eb b8 3c c2 76 2f be 00 74 43 3c 7f b1 10 be
       0.022573467 -0.17135146 0.011929512 -0.1413021

w_group.2.bias f4 [32]
000000 a2 34 5b be 8a 0e c9 bf ba e2 4e 3f f4 94 48 be
       -0.21406797 -1.5707562 0.8081471 -0.19588071
000010 ff ce 82 3f c4 c3 4e 3e 8d 35 d3 be 3b 57 f6 3d
       1.021942 0.20191866 -0.41251794 0.12028357
000020 9c 1b eb be 9c 02 02 c0 66 b3 c5 3e 54 a6 a5 3f
       -0.45919502 -2.0314093 0.38613433 1.2941384
000030 d4 b5 dd 3e 58 82 82 bc 0f 3b b0 bf 43 b2 ad bf
       0.43302786 -0.015931293 -1.3768023 -1.3570026
000040 74 bd 41 bf 47 6e 02 3f 3e 20 d1 3e 1d d9 d7 3e
       -0.7567971 0.5094952 0.4084491 0.42157832
000050 2f 7c cd 3d 77 1a 20 3f 57 7f f9 3f 85 5a 36 bf
       0.10033452 0.6254038 1.9491986 -0.7123187
000060 5a d6 37 bf a0 4e 75 be 41 4e a5 bf 20 03 c4 bd
       -0.7181145 -0.23955774 -1.2914506 -0.095709085
000070 6b 36 b0 bd 68 0d 5e 3f 99 60 58 be 2b 9f bf 3e
       -0.086041294 0.86739206 -0.21130599 0.37426123

w_agents.0.weight f4 [64, 5]
000000 8f cb d4 3d 65 46 4e bd c6 c5 0a 3f 7f ac 3f bc
       0.10390388 -0.050360102 0.5420803 -0.011698841
000010 52 b4 0b 3f 5d 1a a8 be cf 41 c2 3d de 4c 93 3e
       0.5457202 -0.32832614 0.09485208 0.28769583
000020 30 36 35 3e 45 bd 10 bf d7 e3 63 3d 1f 9c f7 3c
       0.17696452 -0.565388 0.055637207 0.030225812
000030 17 4e b3 3c 4d c9 79 bf 36 73 61 be 04 d2 ac ba
       0.021887822 -0.97572786 -0.22016606 -0.0013185148
000040 ca 6d 0c be 37 7e 2c bf 0d d5 ac 3f 54 0e bc bf
       -0.13713756 -0.6738009 1.3502518 -1.4691873
000050 7e 6c a4 3b 8b aa 30 bd dc a0 38 3f 1a 71 1b bf
       0.005017816 -0.043131392 0.7212045 -0.60719454
000060 7f 44 3e be 35 69 d9 bd cb 32 97 be 14 de ef 3c
       -0.18580817 -0.1061577 -0.2953094 0.0292807
000070 0c ce 96 3d 02 ba 20 3e 56 c4 bd 3e 5f c9 be 3d
       0.07363519 0.15695956 0.37063855 0.09315752
000080 44 f7 37 bf 00 4e 45 3f 1c b8 b7 bd bc 05 c9 3e
       -0.7186167 0.77072144 -0.08970663 0.39262187
000090 2a 93 ef 3d 29 77 6e bf 24 5d aa 3e 88 16 5d bf
       0.11697991 -0.93150574 0.33274186 -0.86362505
0000a0 f5 a5 b7 3b 02 b0 32 3c 2f c3 f7 3b b2 9d da be
       0.0056045004 0.010906221 0.0075611095 -0.42698437
0000b0 00 28 2b bf fc a8 e4 bb 35 fc 01 bc 04 9c 9c bd
       -0.6685791 -0.0069781523 -0.007933666 -0.07646945
0000c0 7b 11 7a be b5 94 dc be c1 5f 96 3a 94 67 f1 bb
       -0.24420731 -0.43082204 0.0011472629 -0.007367084
0000d0 f5 95 e9 3d d2 60 94 3d fc 41 02 be 43 6f a4 bd
       0.11405555 0.072450295 -0.12720484 -0.08029034
0000e0 4a 55 ee 3c 76 88 97 3e 02 48 40 be 27 5b 04 bf
       0.029093403 0.295963 -0.18777469 -0.5170159
0000f0 7b 5a cb 3e bc a3 f9 be 10 a8 0a bf c2 a5 2f bf
       0.3971747 -0.48757732 -0.54162693 -0.686123
000100 d7 4a 65 bf 70 fe bf bc bf ed 02 3b 33 74 90 be
       -0.8956732 -0.023436755 0.0019978133 -0.28213653
000110 02 c5 f4 bd a3 96 99 bd 42 cd 46 bc 9e 6b a3 3c
       -0.11951639 -0.07499435 -0.012133898 0.019948777
000120 96 21 19 3e 6a c3 ae 3e de d2 20 bf 60 ee 72 bd
       0.14954218 0.34133464 -0.6282176 -0.059309363
000130 97 ec a4 bd c8 2c 7e 3e c8 ae 9b 3e 7e 7e 52 bf
       -0.080529384 0.2482177 0.30406785 -0.8222426
000140 f7 c4 01 3d bd 16 a1 bd 40 ed f6 be 4e 75 a0 3f
       0.03168198 -0.07865665 -0.48227882 1.2535799
000150 40 c6 a9 bf fb 96 97 bc 67 50 88 bb 1e c5 d9 3d
       -1.3263626 -0.01850461 -0.0041599753 0.106333
000160 1c 73 d2 3e d3 7a f3 be 31 e3 8c 3e 5b 47 9a be
       0.41103446 -0.47554645 0.27517083 -0.30132565
000170 7f c0 df 3f 70 a0 50 40 be 32 ff bf ab 5f 89 3b
       1.748062 3.2597923 -1.993736 0.0041923127
000180 61 79 22 bb 54 27 c7 bd dd 49 fd bd fd 18 20 bf
       -0.0024791586 -0.09724298 -0.12367604 -0.6253813
000190 53 d4 0f be 5a ca 26 be bb c0 2b 3e 04 92 72 3e
       -0.14045839 -0.16288128 0.1677274 0.23688513
0001a0 1e f0 f9 bf fc 3f 99 3c 4c 3e d3 3d 49 8b da 3b
       -1.9526403 0.018707268 0.103146166 0.006669436
0001b0 1d d8 8e 3f 53 9e 88 bf 57 53 ca bc cc 73 b2 bc
       1.1159703 -1.0673317 -0.024697943 -0.021783732
0001c0 91 3c c5 3d ae 9d 30 be 94 f2 43 bd e3 1a b5 bc
       0.09630693 -0.1724765 -0.047838762 -0.022107547
0001d0 b3 34 38 bb eb 37 81 be e7 09 94 bd e2 83 3c bf
       -0.0028107583 -0.25237975 -0.07228451 -0.7363874
0001e0 61 6d 84 bd fc f3 01 3e b1 4e 87 bf e4 90 51 3e
       -0.06466175 0.12690729 -1.057089 0.20465428
0001f0 a3 0f a8 bc 73 2e 91 3c f1 60 44 3c df ff b2 3d
       -0.020515269 0.017722344 0.011986003 0.0874021
000200 07 8e 03 3f 45 ef e8 be ba 3e 9e bc 7a b4 28 bc
       0.5138859 -0.45495048 -0.01931702 -0.010296935
000210 18 62 dd 3c dd 58 1e be 76 40 76 be 1e 62 b3 3e
       0.027024314 -0.15463586 -0.24048027 0.35035795
000220 36 85 40 3d d5 eb 5d bf 34 3d 12 3f dd f5 58 bf
       0.04700204 -0.86687976 0.5712464 -0.8475016
000230 24 1e b8 be 51 81 82 3e bc 63 38 3f 61 80 a3 3e
       -0.35960495 0.25489286 0.7202718 0.31933883
000240 50 53 e2 bf d1 a4 af 3e ff eb cf 3b 32 43 1b 3f
       -1.7681675 0.34305432 0.0063452716 0.60649407
000250 cc 04 8a bc 06 d1 86 bf b4 42 92 bd 66 1d 6b bd
       -0.01684799 -1.0532539 -0.07141629 -0.057401083
000260 3e d1 4f bf 77 c2 13 3e 8e 8a 6b bf 3c 7a ff 3d
       -0.81178653 0.14429651 -0.9200829 0.12474486
000270 ee 0e 3c bc 3f 5d 33 be 34 84 87 3e dd 4b 71 bf
       -0.011478169 -0.1751604 0.2646805 -0.94256383
000280 62 c1 5d 3b d6 fe e6 3d d1 b1 8e bf f6 38 9a 3f
       0.003383719 0.11279075 -1.1148015 1.2048633
000290 c2 8d 29 bf e0 58 62 3d f8 04 92 3d cb 3b db be
       -0.6623193 0.05526054 0.07129854 -0.42819056
0002a0 83 ad 29 3f 83 ea 27 bf 84 84 d1 3b 52 b6 3c 3d
       0.6628038 -0.6559221 0.006393971 0.04607231
0002b0 2b bb bc 3d 1b 2b b6 3d 9a ec 6a bd 47 b7 17 3e
       0.09215387 0.088949405 -0.057354547 0.14816009
0002c0 2e 3c 91 bc 6e 4e ab 3e 51 44 c6 be 82 3f 80 bf
       -0.017728891 0.33458275 -0.38723996 -1.0019381
0002d0 b7 ce 9d 3c 0e 75 9f 3c a7 6a f2 bc 1d f1 0c 3f
       0.019263608 0.019464996 -0.029591871 0.5505541
0002e0 ce 97 da be c9 0b 85 3d 0c cd 82 3e 7c 21 d2 bf
       -0.42693943 0.064963885 0.25547063 -1.6416469
0002f0 ba c7 6a be dc c4 9b bf 08 6c c6 bb 56 11 7a bc
       -0.22927752 -1.2169452 -0.006055359 -0.015262922
000300 a7 c8 65 bd b8 e9 c5 be 66 81 45 bf 3a 67 8d 3e
       -0.05609956 -0.38654876 -0.7715057 0.27617818
000310 83 b7 a1 3e e4 a7 04 3f c8 b9 cc 3e c0 e9 c9 bf
       0.3158532 0.5181868 0.3998549 -1.577446
000320 fe b8 88 3c 69 e9 3a bd 28 35 0e bf f5 28 a2 be
       0.016689774 -0.045632754 -0.5554986 -0.31671873
000330 4e e2 3f bf f7 54 c9 3e 05 48 ef 3d 21 ed 16 bf
       -0.7495469 0.39322636 0.116836585 -0.5895558
000340 f6 a2 b7 3f 6c 5d d2 bf 09 9d 44 3d ec 8d 45 bf
       1.4346607 -1.643476 0.048001323 -0.7716968
000350 45 62 96 3f 13 0e 11 40 78 e3 8c bf a8 61 00 3f
       1.174874 2.266484 -1.1006918 0.5014901
000360 ca 50 15 be cc 84 fe be 00 b3 14 40 45 ea fa be
       -0.145816 -0.4971069 2.3234253 -0.49006858
000370 92 b3 ae 3e 2b 45 ed 3e 01 bb 16 be 10 6b 8c 3f
       0.34121376 0.46341833 -0.14719774 1.0970173
000380 8a 3b 83 bf 24 6f 8c be 4c e5 dc 3e 7c 15 74 be
       -1.0252545 -0.27428544 0.4314369 -0.2383632
000390 fc c1 63 3f 37 2f 3a bf 87 03 e0 be 9b d5 d3 bd
       0.8896787 -0.72728294 -0.4375269 -0.103434764
0003a0 d1 3e ff be dd db 13 40 a1 62 f7 bf 45 1a 37 3d
       -0.49852613 2.3102944 -1.9326974 0.044702787
0003b0 c9 92 75 3d 7a 87 20 bf 05 89 4b 3f 40 c7 80 bf
       0.05995444 -0.6270672 0.7950595 -1.0060806
0003c0 99 79 28 be fa 62 0c bd 4e 84 ec be 98 58 1e 40
       -0.16452636 -0.03427408 -0.4619469 2.4741573
0003d0 85 e4 bd bf 1a 20 c8 bd eb e3 57 be 6a 03 dc 3e
       -1.4835364 -0.09771748 -0.21083038 0.42971355
0003e0 94 f5 29 bf 77 a9 80 bf 0b 98 22 3e 6d 8a f9 bc
       -0.6639035 -1.0051717 0.15878312 -0.030461514
0003f0 cb b7 8b 3e eb bd 8e bf 95 f9 81 bd e1 21 8a bd
       0.2728866 -1.1151708 -0.06346432 -0.06744743

w_agents.0.bias f4 [64]
000000 92 2c 90 be b2 3f fd be 4d 8c ad be 8e 0e 82 bf
       -0.28159004 -0.49462658 -0.33896104 -1.0160692
000010 c4 13 3e bf 48 a1 90 bd 1e 8c 13 be b8 e9 03 bf
       -0.7424891 -0.07062012 -0.14408919 -0.515285
000020 01 9e cb be ea f6 4c be 6f e2 1d be 7a 8a 53 bf
       -0.39768985 -0.20016065 -0.15418409 -0.82633173
000030 ca 0e 98 bf e3 78 dd be 9e 3e b1 be 28 c2 61 bf
       -1.1879513 -0.43256292 -0.34618086 -0.88186884
000040 5a 34 c6 bf 52 5d d1 be 87 0c e0 bf 5b 91 ea bd
       -1.5484726 -0.4089151 -1.7503823 -0.114535056
000050 9c 31 b3 bf 3e 09 80 bf 35 76 03 bf 12 80 46 be
       -1.3999515 -1.000282 -0.51352245 -0.19384792
000060 f0 85 27 be 49 2f e9 be c5 4a b0 be ad f5 2d bf
       -0.16359687 -0.45543888 -0.34432045 -0.67952996
000070 1c 3a e4 bf e0 78 43 bf e4 26 a0 bf ab 91 6d bf
       -1.7830234 -0.76356316 -1.2511868 -0.92800397
000080 77 12 e3 be 25 ef 57 bf 84 a1 b3 be 15 56 97 bf
       -0.44350025 -0.8434928 -0.35084164 -1.1823145
000090 e7 8d 14 bf ef f2 c1 bf 68 4f 99 be ed 48 a3 bf
       -0.58029026 -1.5152262 -0.29943395 -1.275663
0000a0 58 b1 36 bf 2b 59 a8 bf 34 84 c5 bf 44 09 5f bf
       -0.71364355 -1.3152212 -1.543097 -0.87123513
0000b0 b8 fe aa bf af 7f a9 bf bb 98 b7 bf fb e3 ba be
       -1.3358984 -1.3242091 -1.4343485 -0.3650206
0000c0 4b bf 5b bf a5 63 96 bf c5 99 5a bf a0 66 74 be
       -0.85838765 -1.1749159 -0.85390884 -0.23867273
0000d0 a0 8f 2a be 73 35 07 3d 01 8f fe bc 6d 67 d3 bf
       -0.16656351 0.033009958 -0.031074049 -1.6515938
0000e0 dd 7c 85 bf 19 d5 35 bf 05 ee 6c bf 2e 75 0a bf
       -1.042873 -0.71028286 -0.9255069 -0.5408505
0000f0 21 ea f4 be a4 eb be bf 4e 6e 5a bf 59 b2 41 be
       -0.47834876 -1.4915662 -0.8532456 -0.1891569

w_agents.2.weight f4 [32, 64]
000000 0a 95 ce 3b 53 8c 16 bd 79 07 45 bd d3 c4 61 bd
       0.006304388 -0.036754917 -0.04810283 -0.055119347
000010 ab b2 b7 bd 65 2b 99 3b c3 2c 03 be 5c c9 81 3d
       -0.08969625 0.0046743625 -0.12810044 0.063372344
000020 3f 0e 58 3d 12 e6 8b bd 69 04 eb bc 7c a7 2b 3d
       0.05274796 -0.06830992 -0.028688626 0.041907772
000030 04 2a 8e bd 39 e4 6c 3d 64 ce 69 3b de 4c f7 3b
       -0.069416076 0.057834838 0.0035675997 0.007547005
000040 e1 74 a2 bd 0e 82 b3 bc c1 e4 d2 bd ed 76 21 be
       -0.07932449 -0.0219126 -0.102975376 -0.15768023
000050 9b c0 40 be c5 0b 08 3c be a3 4e be 75 11 bf bd
       -0.18823473 0.008303587 -0.2017965 -0.093295015
000060 3d e2 1b be f3 d5 50 bb 5a b4 9f bb f8 de a6 bd
       -0.15223022 -0.0031865805 -0.0048737945 -0.08147997
000070 6e 53 b9 bd 81 e5 3f 3d f1 66 a6 3c 9c d3 e6 bc
       -0.09049116 0.04684973 0.020312758 -0.028177075
000080 38 a0 90 b8 e9 0a df bd c1 fc 2c bd ce 54 13 be
       -6.896298e-05 -0.10890753 -0.042233232 -0.14387819
000090 b5 5a e1 bd ca c6 88 bd ba 44 38 be 77 ad 26 bd
       -0.11003629 -0.06678541 -0.17994967 -0.040692773
0000a0 58 65 66 bd 92 32 8a bd 5c 38 2d 3d 28 26 22 3d
       -0.056248993 -0.06747927 0.042290077 0.03958717
0000b0 ac 8e 49 3d bd a1 c5 3c 9b 23 bb bd 7b ca 07 bd
       0.049208328 0.024124974 -0.091376506 -0.033152085
0000c0 f0 3c c9 bd b5 21 1f bb 8e 12 8b bd 9a ed 0e be
       -0.09826076 -0.0024281566 -0.067906484 -0.13957825
0000d0 51 bf c7 bc 5d 2c 05 be 49 16 f1 bc 70 68 c6 bd
       -0.024383219 -0.13005204 -0.029429572 -0.096878886
0000e0 50 98 66 bc 15 0b 50 bd 00 9e a4 bd ca ed 7e 3d
       -0.0140744 -0.05079182 -0.080379486 0.062238492
0000f0 dd 78 eb 3b bb 06 ba 3b 8a 5e ab bd cc 74 97 bd
       0.007186039 0.005677072 -0.08367641 -0.07395324
000100 a9 8d 65 c0 82 93 d0 be b7 55 34 bf 3b c6 ba bf
       -3.5867712 -0.4073754 -0.7044329 -1.4591745
000110 79 13 f2 be f1 fa 44 bf 34 70 fa be 30 e4 97 be
       -0.4728048 -0.76945406 -0.4891373 -0.2966628
000120 0d b9 c4 3d 72 79 82 be ed 67 1f be ac 1e e8 3c
       0.09605608 -0.2548328 -0.15566988 0.028334938
000130 95 ee 41 bf 28 7d d6 bd a1 c8 39 3e 24 f6 ce bd
       -0.7575467 -0.104730904 0.1814294 -0.10105541
000140 a2 73 58 3e 91 e2 c9 be b7 bf a3 3f 70 c9 f1 bd
       0.2113786 -0.3943067 1.2792882 -0.11805999
000150 5c fc 06 3d 3c e6 18 3f 79 a8 35 be 21 60 83 3d
       0.032955512 0.5972631 -0.17740048 0.064148195
000160 5d c7 98 bd 1b 8d f5 bc 15 f1 19 be 1d dd 82 3a
       -0.074599005 -0.02997451 -0.15033372 0.000998411
000170 39 bc 6f bf af 4c 12 bf d1 d9 b6 bd 33 96 86 be
       -0.9364658 -0.5714826 -0.08928264 -0.26286468
000180 93 b1 20 c0 78 51 e3 bd b9 ff 89 be 5e 1a 48 bf
       -2.5108383 -0.11099523 -0.26952913 -0.78165233
000190 cf 55 7b 39 bb 87 c1 3e 7c bf 98 be 83 60 86 3f
       0.00023969192 0.37798867 -0.2983359 1.0498203
0001a0 c8 41 22 bd 4a 49 34 3f 9f 1a 4b bf e0 5e e1 bd
       -0.039613515 0.7042433 -0.79337496 -0.11004424
0001b0 cf 0c 9b 3e 13 48 c2 3d dd 54 29 bf d7 76 b1 bc
       0.3028321 0.09486403 -0.66145116 -0.021663113
0001c0 5a a5 7e bf 47 d5 94 bf 35 96 bc be e8 ce ab bd
       -0.99471056 -1.1627587 -0.3683335 -0.083890736
0001d0 dd 40 9c be 28 0e cb 3c b8 05 46 be 42 81 a5 be
       -0.30518237 0.024787024 -0.19338119 -0.32325178
0001e0 a0 29 13 be cc fa c6 3e 74 bd f1 be de 93 87 3d
       -0.14371347 0.38863218 -0.47214854 0.0662
0001f0 67 ac 2a 3e de 58 fe 3e 04 37 bc bd 7e 68 4d be
       0.16667329 0.49677175 -0.09190181 -0.20059392
000200 6b 54 0b be 81 c2 c7 bd b9 3c 3b bd a8 40 89 3d
       -0.13606422 -0.097538956 -0.045712207 0.06701785
000210 33 42 96 bd d4 cb 80 bd c7 df d3 bd 95 34 13 be
       -0.07336845 -0.06288877 -0.103454165 -0.14375527
000220 db 67 ea bd c4 0f 71 3d 9a ad a0 bc 19 4d 56 bd
       -0.1144559 0.058852926 -0.01961403 -0.05231962
000230 e4 45 a1 bd 14 52 cc bd b5 3a b7 bc 8a a1 50 bc
       -0.07874659 -0.09976593 -0.02236686 -0.012733826
000240 32 0c ac bd 4b 2c 02 be 82 f4 6b 3d f3 f5 63 3d
       -0.084007636 -0.12712209 0.057606228 0.055654477
000250 10 1a 0f 3d 36 c2 11 be 4a d9 b5 3c 32 d5 a7 bd
       0.034936965 -0.14234242 0.022198338 -0.08194961
000260 02 55 98 3d d4 7a 1f bd 4c b5 15 be 48 63 53 3c
       0.07438089 -0.038935497 -0.1461994 0.012902088
000270 8f b7 49 bd 06 b9 3c be ce ce 9f bd 7e a5 e6 3d
       -0.04924732 -0.18429956 -0.07803117 0.11262034
000280 ed 4c fc bd 96 68 e6 bd 82 e7 88 3c ce dd 6e 3d
       -0.1231936 -0.11250417 0.016711954 0.058317
000290 cf 2b 4f be d7 bb 86 bc f1 4e a9 bd 76 36 68 3b
       -0.20231555 -0.01644699 -0.0826701 0.0035432852
0002a0 41 8d ad bd e7 58 b1 3c c5 69 9e 3c 15 73 1b bd
       -0.08474208 0.021648837 0.019337544 -0.037951548
0002b0 3b e1 f7 3d e3 b0 ac bb 32 34 43 bd 4a 54 c8 bc
       0.12103506 -0.00527011 -0.0476572 -0.024454255
0002c0 e9 08 92 bc ff 43 05 bc ca c7 58 3c a5 24 32 3c
       -0.017826514 -0.008133887 0.013231227 0.010872995
0002d0 94 ae 00 be 90 46 db bd 2c 92 ea bd 6e cb c1 3b
       -0.12566596 -0.10706818 -0.11453661 0.0059141433
0002e0 57 83 82 bc c3 9b 0c bd 9d 20 8d 3b 70 fc d9 3a
       -0.015931768 -0.034328233 0.0043068663 0.0016631018
0002f0 38 17 a0 bc bc 7b 40 3d 20 5b 06 bd 7b ea 62 3d
       -0.019542322 0.046993002 -0.032801747 0.0553994
000300 24 53 7c be e5 fd 83 be 35 2b 1a be 4f 4a 1c 3d
       -0.2464109 -0.25779644 -0.15055545 0.038156804
000310 9f a7 03 bd 3d f7 73 3d 76 29 51 be 7f 19 e1 3b
       -0.032142278 0.059561957 -0.20425972 0.0068694944
000320 af 5b 81 be 45 6d 7a be 4c 1e 74 be e5 af 2c bd
       -0.25265262 -0.24455746 -0.23839682 -0.042159934
000330 ec 9e 28 be 51 22 48 be 63 24 77 be 5a ff f5 3c
       -0.16466874 -0.1954434 -0.24134974 0.030028988
000340 ff 17 15 bd 4a e6 88 be 8c a5 c5 3d 03 21 33 3d
       -0.036399838 -0.26738197 0.09650716 0.043732654
000350 9e f2 9c 3d a1 e4 3f be f5 65 8b bd 39 ea 29 be
       0.07663463 -0.18739559 -0.06806556 -0.16593255
000360 cf 8f c4 bd 99 73 aa bd 6b f8 1a be c3 73 06 be
       -0.09597742 -0.0832283 -0.15133826 -0.13130097
000370 04 18 88 3d 61 a6 27 be 99 25 9d 3d 3c 30 05 be
       0.066452056 -0.16372062 0.07673187 -0.13006681
000380 65 7b 05 3e 28 cf 65 be 51 2e f0 bd ba 5d 21 be
       0.13035353 -0.22442305 -0.11727584 -0.1575841
000390 97 00 3c 3a d3 4f d2 bc ea ef 32 be 36 f9 b3 bd
       0.0007171719 -0.025672829 -0.17474332 -0.087877676
0003a0 85 b5 04 be 26 3f f3 3d 6b ce bf bd 7f 28 9f ba
       -0.12959869 0.11877279 -0.09365543 -0.0012142806
0003b0 89 05 27 3e 6c 18 b7 3d 59 36 2d bd fe 80 18 bc
       0.16310705 0.08940205 -0.042288158 -0.009308098
0003c0 49 3a 66 be fe ff 72 be 0b e4 99 be 1b e4 04 bd
       -0.22483172 -0.23730466 -0.30056795 -0.0324441
0003d0 8f 4a 8a be 98 4d da bd 95 e6 83 bd b3 f0 dc bd
       -0.2701001 -0.10659331 -0.064404644 -0.10788097
0003e0 e5 ea c8 bc 27 c2 06 bd 78 6b 05 bd 4d a6 0e be
       -0.024526069 -0.0329 -0.032573193 -0.13930626
0003f0 d0 3b a0 bd 80 bd 2a 3e 9b 30 2e be 2e e4 32 bd
       -0.07823908 0.16673851 -0.17010729 -0.04367464

w_agents.2.bias f4 [32]
000000 19 b8 48 be a1 3e 10 bf 97 9d ef bd 32 d4 a4 be
       -0.19601478 -0.56345564 -0.1169998 -0.32193142
000010 58 23 2f be 8a da 35 bf 7e 9a 4c be 0b fe d3 be
       -0.17103326 -0.7103659 -0.19980809 -0.41404757
000020 21 9b 86 3e 76 fa 6b be 14 0f 48 bd c3 42 e4 be
       0.2629023 -0.23044762 -0.048842505 -0.44582185
000030 fd 11 a7 be 10 bb 05 bf 86 4c eb bd af 88 99 bd
       -0.3263091 -0.5223856 -0.11489205 -0.074967735
000040 61 b7 39 be ce c2 58 bd d8 3a e1 bd c0 50 d8 be
       -0.1813636 -0.052920155 -0.10997552 -0.42249107
000050 a6 80 bd 3b eb 4e 90 bc ae 5d ae bf 01 06 15 be
       0.0057831584 -0.017615756 -1.3622339 -0.14553072
000060 e2 39 f4 be 5e 38 b3 bd 0a df b0 bd 26 8c 03 3c
       -0.4770041 -0.087509856 -0.08636291 0.008029019
000070 95 86 f4 3d c6 59 45 bd b0 7c 2f 3e b1 80 cb 3e
       0.11939732 -0.048181318 0.17137408 0.3974662

Ws.0 f4 [32, 32]
000000 d4 ef eb be 20 61 df be e0 97 15 3f 06 5a 79 3f
       -0.46081412 -0.43628788 0.5843487 0.9740299
000010 48 96 76 bf 53 42 b4 bc 48 99 6c bf c9 14 a6 be
       -0.9632306 -0.022004282 -0.9242139 -0.32437733
000020 df 3b b4 bf ee 29 a9 3f 60 e8 9c 3f 7e 14 55 3d
       -1.4080771 1.3215921 1.2258415 0.052021496
000030 97 7d cb 3f 82 9a 37 3f da f3 2e 3f 25 c3 f6 3d
       1.5897702 0.71720135 0.6834084 0.120489396
000040 5a 00 c3 3e d6 ba 80 3d 17 0e 8d be 72 26 82 3f
       0.38086206 0.06285636 -0.27549812 1.0167983
000050 79 c0 03 bf f8 30 0e bf 1e ad 16 3e 0c fe 4d 3f
       -0.51465565 -0.5554347 0.14714476 0.8046577
000060 40 3b 2d bf 16 3e c7 bf a8 ef 9a bf 59 c3 7d 3f
       -0.67668533 -1.5565822 -1.2104387 0.991262
000070 e5 fb 84 3f 57 2a 03 40 20 7b 50 3f db ba e7 be
       1.0389372 2.0494592 0.81437874 -0.45259747
000080 d4 b5 b9 bd 5b 23 13 3f 76 96 11 c0 39 fc 99 3e
       -0.09067884 0.57475823 -2.2748084 0.30075243
000090 da 29 f4 bf f0 55 a9 be 1a 45 28 c0 f5 5b ca 3f
       -1.9075272 -0.33073378 -2.6292176 1.5809313
0000a0 d2 26 70 be 5f 35 19 bf 0b 98 47 be 5a 35 5d c0
       -0.23452309 -0.5984706 -0.19491594 -3.4563813
0000b0 13 2e 18 be ee d4 b8 bf 8d f6 73 bf 5f 1b fd bf
       -0.14861326 -1.4439981 -0.9529808 -1.9773978
0000c0 7f c2 15 3f 5a be b3 bf 93 ac b0 bf e5 d6 73 c0
       0.584999 -1.4042466 -1.3802665 -3.8099911
0000d0 cd 3c de be 7e 5d 69 bf df 0f bb 3e 6e 28 71 3d
       -0.43405762 -0.9115828 0.36535546 0.058876447
0000e0 47 03 32 be 72 d8 9d bf 60 7a 24 3f 7b ca d6 bf
       -0.17384063 -1.2331679 0.6424923 -1.6780542
0000f0 6b 7c 53 3f 50 af cd 3f 3e 15 36 3f e2 3f e8 3f
       0.8261172 1.6069126 0.71126163 1.8144495
000100 63 12 bd bf 01 6e 5a 3f 7a 1e f0 3d 0b 02 a0 bf
       -1.4771236 0.853241 0.11724563 -1.2500623
000110 5e 4c 02 40 2d 99 d6 bd 5e 98 0f be 7f f6 d6 3f
       2.035911 -0.10478435 -0.14022967 1.6793975
000120 17 ba 46 3e 14 69 dd 3f c3 fc 0c c0 27 3e dc bf
       0.19406925 1.7297692 -2.2029274 -1.7206467
000130 8f fd 5a 3f e0 f2 b0 be 2b 4d 3b 3f 94 1b 8f 3f
       0.8554315 -0.345603 0.73164624 1.1180291
000140 bb f4 38 be 3b d5 1b c0 c6 90 84 3f f6 f8 8a 3f
       -0.18062107 -2.4348896 1.0356681 1.0857227
000150 81 95 09 3f 90 a9 1a 3f 25 d4 91 bf 77 07 c6 be
       0.5374375 0.6041498 -1.1392866 -0.3867757
000160 57 53 0e c0 5e 80 b3 bf 6f cc a3 3e e8 4a 91 3f
       -2.2238367 -1.402355 0.31991908 1.1350985
000170 34 5d 03 3f 07 40 08 bf 93 14 0e c1 c1 69 14 3f
       0.5131409 -0.532227 -8.880023 0.5797387
000180 52 64 9d bf ee df 03 3e 63 25 50 3d 41 87 d3 3f
       -1.229624 0.12878391 0.050816905 1.6525651
000190 a9 a3 f2 bf cd b8 86 3f 81 86 99 be df 87 56 3e
       -1.8956195 1.0525147 -0.2998543 0.20950268
0001a0 19 21 d6 3d a3 b0 84 bf 03 8b 93 3e 07 13 9a 3e
       0.104555316 -1.0366405 0.28816995 0.30092642
0001b0 a6 ea 03 bf 85 78 86 be 02 88 20 3f eb 66 f0 be
       -0.5152992 -0.26263824 0.6270753 -0.4695352
0001c0 0b 32 05 bf 82 c7 df 3f be 3e 01 bf bf 0f 9c 3f
       -0.52029485 1.748276 -0.5048636 1.2192305
0001d0 8b 4a f8 bf 6e 50 b1 bf c3 89 55 3f 6f 8f b9 3c
       -1.9397749 -1.385267 0.8341333 0.022651402
0001e0 10 f7 68 3e 7a 78 ab 3f 7a 79 d0 3f 41 57 9a 3e
       0.22750497 1.3396142 1.6287072 0.30144694
0001f0 eb 09 53 3e 60 f3 ef bf b0 8f 7b 3f 7f d0 1e 3f
       0.20609252 -1.8746147 0.98266125 0.6203689
000200 3e 4c 17 be cf 51 d1 bf da f5 9c bf 15 7b 2b c0
       -0.14775178 -1.6353091 -1.2262528 -2.6793873
000210 01 84 68 3e c6 fb dc 3f 1f 8d 2a be 96 b2 6e bf
       0.22706605 1.7264335 -0.16655396 -0.9324125
000220 96 ac ec bf 31 a8 7e 3f a5 ad 5b 3f 93 c7 8f 3f
       -1.8490169 0.9947539 0.85811836 1.123278
000230 75 2c f0 be dc 72 46 bc 13 8e 1b 3f 70 8d ea 3f
       -0.46908918 -0.012112346 0.60763663 1.8324413
000240 7a 28 77 3f 4f 3d 2c 3f c3 e4 8c 3e 4e 85 3e be
       0.9654614 0.6728105 0.2751828 -0.18605539
000250 d7 f0 66 3f 93 66 dd be 2b 0d 89 be 8c 4c a7 bf
       0.9021124 -0.4324232 -0.2676786 -1.3070235
000260 63 3d 51 40 ca d6 d1 3e 02 04 84 bf 10 5e 29 c0
       3.2693717 0.40984184 -1.0313723 -2.6463661
000270 d8 cd 98 bf 8e 69 08 40 66 ca 23 3f 92 b7 52 bf
       -1.1937819 2.1314425 0.6398071 -0.82311356
000280 70 db e9 bf bb ed 8f be fe 31 3a 3f 74 d8 84 c0
       -1.8270092 -0.2811106 0.7273253 -4.1514225
000290 5c 1d 73 bf e1 3f 07 3e 8d ab d4 bf 13 d3 9a bf
       -0.94966674 0.13207962 -1.6614853 -1.2095665
0002a0 9e a7 63 3f d2 a3 96 3f a2 02 9f 3d d9 81 41 be
       0.8892764 1.1768744 0.07764174 -0.18897189
0002b0 73 32 4d 3f 8b 7c 01 3f d5 9f f8 3e a8 2e 11 3f
       0.80155104 0.5058066 0.48559442 0.56711817
0002c0 7f 74 67 bf 00 11 23 3f 61 51 87 bd 1e fc 21 3f
       -0.90412134 0.63697815 -0.06607319 0.63275325
0002d0 d0 c4 28 3e 25 77 f7 be cc ac c3 bf 55 77 44 c0
       0.16481328 -0.48333088 -1.5287108 -3.0697834
0002e0 d8 53 12 3f bd f9 84 be ac 74 e9 bd 69 03 58 bc
       0.57159185 -0.25971785 -0.113992065 -0.013184407
0002f0 0d 2f 1f be ca 1b 25 bc 3b 59 ba bf f4 1e 43 bf
       -0.15545292 -0.010077426 -1.4558481 -0.76219106
000300 fc 3a c5 3d 19 bf ae bf 3d 08 ec bf d6 05 b7 bf
       0.09630391 -1.3652068 -1.8440014 -1.4298656
000310 60 27 04 c0 9c 0f 2c c0 87 79 13 3f 3c 5e 80 bf
       -2.0649033 -2.6884527 0.5760731 -1.0028758
000320 92 e8 a1 bf 2d df 8c be 07 f7 ce be 8a 93 ed 3d
       -1.26491 -0.2751402 -0.40422842 0.116004065
000330 6c d8 c9 3e b1 20 b6 bf b5 bc 0e 40 a3 52 aa 3f
       0.3942293 -1.4228727 2.2302678 1.3306469
000340 23 c4 09 40 e0 8b a1 3f a5 71 22 3e 3d 58 85 3f
       2.1525962 1.2620811 0.15863664 1.0417553
000350 48 57 96 3e 0c 52 8c bd 88 e4 6b bf 67 7e 23 3f
       0.29363465 -0.06851587 -0.92145586 0.6386475
000360 eb d5 47 3f 59 d6 eb bf 65 4c cc bf ad ec 45 bf
       0.7806079 -1.8424789 -1.5960814 -0.77314264
000370 ae 0b f0 3f 68 67 0a bf 68 63 01 c0 00 10 f3 be
       1.8753564 -0.54064035 -2.0216923 -0.47473145
000380 b7 1c 4f be ad ed cc 3d d8 1c 21 bf 84 85 12 3f
       -0.20225798 0.100062706 -0.6293464 0.5723498
000390 25 f0 36 bf 9d 72 e3 bf b1 be 27 3f 01 9d e2 be
       -0.7146018 -1.7769352 0.65525347 -0.4426041
0003a0 ee 5e 88 3e 6b 4e de 3e 00 36 87 be 9c 9a 32 bf
       0.26634926 0.43419203 -0.26408386 -0.69767165
0003b0 33 94 c8 3e 05 1e 6b 3d 4b f8 b0 3f 9b a0 62 bf
       0.39175567 0.057401676 1.3825773 -0.88526314
0003c0 a5 10 3f 3f 5d 98 40 3f 48 dc 86 bd e2 95 3f 3f
       0.7463477 0.7523249 -0.06584984 0.7483808
0003d0 27 f4 ea bf e1 79 bc bf f5 2c 5e 3f 0e 9f fc bf
       -1.8355759 -1.4724694 0.8678735 -1.973604
0003e0 ce 38 c5 bf 91 45 0b bf 51 a5 12 3e 00 90 23 3e
       -1.540796 -0.54403025 0.14320876 0.159729
0003f0 99 fb 14 bf cb 13 ac 3e cb 9f 7a 3f 3b 31 93 3d
       -0.5819641 0.3360885 0.97900075 0.07187124
