data-3/rl_model_8.pth (torch_old, 93650 bytes, 18 tensors)

w_a f4 [32, 32]
-1.6236967 -0.5614614 2.3016496 -1.8877635 0.67063415 -1.2565348 -3.6100886 3.8358505
-0.21052156 -1.1605515 -3.4283977 2.0700111 -1.1759012 2.763375 0.90207064 -2.8776808
-2.652825 0.094206184 -3.9202247 -3.3034396 -2.0680194 -2.6563811 -3.272519 0.39810202
2.618138 -2.1768365 2.5983737 -1.3529204 0.07252092 -2.4749274 -3.3805437 3.2340019
-3.6219513 1.8974562 -0.600394 0.10126561 0.4213772 -3.3115785 -0.69309366 -0.1732813
-0.9240694 0.083799 1.7755919 0.6870301 2.3326867 1.0708181 -2.4422543 -0.9854313
0.010422854 0.09788642 0.40350765 1.1162366 0.46133724 -4.8464274 -3.0455658 0.54469573
-0.5860871 -1.6193818 -0.21189108 1.1815337 0.69603306 0.075662926 0.3388185 0.55452335
0.6365822 -0.386658 1.1977359 -3.8780622 -1.5581062 -2.8462322 0.7722554 -0.7918054
1.7239625 2.2013285 -1.8516892 -0.64921224 -1.6520638 -3.1722865 -0.85719913 -0.66294724
-2.197187 -1.1058975 -1.4827871 -0.49119806 1.750548 -2.2135396 -0.14231703 -1.5970886
0.024904247 -0.3806722 -0.97793365 1.0651199 -0.93937516 -1.1274987 -0.4243618 1.6714866
-2.9492085 0.7580115 1.4556473 -3.1097221 1.1238961 -0.63072354 -1.7903858 -0.5656853
-1.029335 -1.3247449 -0.4442103 0.85836667 0.74000937 1.3068398 -1.722312 -1.850128
-3.2255623 0.057168365 -1.6458595 1.0649464 1.3456966 -3.1413298 -2.28868 -1.5021716
1.4827414 -0.46664885 -0.03208059 0.05395375 1.1834507 2.0151908 0.00587985 2.1597404
0.8455972 -0.68143654 -1.7634193 -0.48488945 -2.5923655 -0.1780152 0.87558573 -2.5272853
-1.2594972 0.07080886 0.9342896 -2.030648 0.7785778 -0.49515474 -0.91008776 -0.52588445
-0.44333702 -0.023405457 0.035449035 0.41719362 1.0202458 -0.042701736 -2.4679253 -2.4557798
1.0613396 1.967893 -2.2318738 4.010381 1.6320326 -0.41129628 4.5374737 -1.9003329
-1.7634846 -0.15904465 0.40028617 -0.095891714 -0.0934182 0.32837886 1.4345452 0.8860074
-0.9106821 1.4658271 -0.76719195 0.2594149 1.5839418 0.40380028 -0.078272015 -1.4559175
0.4115607 1.5319965 0.6248057 -0.8351718 -0.49789685 2.6807413 -0.8621108 -1.5073882
2.1330416 0.16385826 0.41499844 -0.45776767 -0.1228409 0.17100988 0.6092674 0.82573766
-0.41392076 -0.854166 -0.13051507 -3.5642734 -1.4831405 -0.3259244 -1.7301251 -3.4309318
-0.25432682 -1.1684601 -1.2681886 -0.03158398 -0.8392179 1.2351103 0.046433482 2.618856
-3.4394104 1.607882 -1.4154735 -1.4503362 1.294258 -2.677268 -2.8316882 -3.289804
-1.6614496 -0.18953282 0.07951644 -0.99857104 -0.8506703 0.09500901 0.88340795 0.65636796
0.16339055 2.1407077 0.28605577 0.5753148 -0.33970067 1.28872 -1.9657856 0.007572349
1.0423373 0.051121723 -2.1946514 0.67170906 -0.028912183 1.2213573 0.030709008 -0.69811374
-0.53837234 1.342558 -3.1025534 -0.9082177 -1.2175827 -2.7206633 0.8073182 -0.2540903
1.9855511 -1.220287 1.6206278 -1.0662378 -1.1166942 -1.2154143 1.3964182 2.980436
00000000: 4bd5 cfbf efbb 0fbf 3a4e 1340 3ca2 f1bf
00000010: aeae 2b3f 22d6 a0bf b10b 67c0 937e 7540
00000020: f792 57be f48c 94bf de6a 5bc0 107b 0440
00000030: ee83 96bf 23db 3040 1aee 663f ec2b 38c0
00000040: e3c7 29c0 2cef c03d f6e4 7ac0 8e6b 53c0
00000050: 6e5a 04c0 2602 2ac0 f470 51c0 07d4 cb3e
00000060: 938f 2740 4a51 0bc0 c14b 2640 7f2c adbf
00000070: d985 943d 3665 1ec0 d45a 58c0 e3f9 4e40
00000080: 0dce 67c0 d8df f23f 6cb3 19bf 5864 cf3d
00000090: c1be d73e e7f0 53c0 966e 31bf a770 31be
000000a0: d08f 6cbf cf9e ab3d 9846 e33f 34e1 2f3f
000000b0: bd4a 1540 9110 893f e54d 1cc0 3a45 7cbf
000000c0: 9ec4 2a3c ad78 c83d 8e98 ce3e d7e0 8e3f
000000d0: 6534 ec3e ef15 9bc0 8dea 42c0 2e71 0b3f
000000e0: ce09 16bf e747 cfbf faf9 58be 7f3c 973f
000000f0: 392f 323f 2af5 9a3d 9e79 ad3e 3ef5 0d3f
00000100: 0df7 223f 0af8 c5be 694f 993f 2c32 78c0
00000110: 0670 c7bf ab28 36c0 88b2 453f c2b3 4abf
00000120: ceaa dc3f 91e2 0c40 2704 edbf c632 26bf
00000130: d476 d3bf be06 4bc0 6771 5bbf e9b6 29bf
00000140: b69e 0cc0 0d8e 8dbf f8cb bdbf 507e fbbe
00000150: f511 e03f a2aa 0dc0 8ebb 11be 666d ccbf
00000160: fe03 cc3c 77e7 c2be dc59 7abf d955 883f
00000170: e47a 70bf e151 90bf f345 d9be 46f3 d53f
00000180: d5bf 3cc0 0b0d 423f a752 ba3f b005 47c0
00000190: d4db 8f3f 1977 21bf 5d2b e5bf c0d0 10bf
000001a0: 40c1 83bf 3e91 a9bf 886f e3be ebbd 5b3f
000001b0: 4171 3d3f 8746 a73f b874 dcbf ffd0 ecbf
000001c0: 9d6f 4ec0 6029 6a3d 86ab d2bf 2a50 883f
000001d0: c93f ac3f 8c0b 49c0 bc79 12c0 2947 c0bf
000001e0: 78ca bd3f 99ec eebe f066 03bd 9bfe 5c3d
000001f0: 507b 973f e3f8 0040 c2ab c03b 3039 0a40
00000200: 0f79 583f a072 2ebf b9b7 e1bf 6e43 f8be
00000210: 51e9 25c0 9e49 36be 6326 603f 0bbf 21c0
00000220: 3437 a1bf 3c04 913d 9a2d 6f3f 23f6 01c0
00000230: e050 473f ec84 fdbe 83fb 68bf 5da0 06bf
00000240: 12fd e2be cdbc bfbc 0233 113d 679a d53e
00000250: 6a97 823f 04e8 2ebd 7df2 1dc0 7f2b 1dc0
00000260: fad9 873f ebe3 fb3f 05d7 0ec0 0b55 8040
00000270: 72e6 d03f 6d95 d2be fc32 9140 1c3e f3bf
00000280: ddb9 e1bf 9adc 22be 4ff2 cc3e e062 c4bd
00000290: 0b52 bfbd 4621 a83e 2d9f b73f 62d1 623f
000002a0: 7622 69bf 39a0 bb3f b166 44bf 08d2 843e
000002b0: 9bbe ca3f e9be ce3e 144d a0bd 815b babf
000002c0: 16b8 d23e 7618 c43f 44f3 1f3f d2cd 55bf
000002d0: 56ec febe 4491 2b40 4bb3 5cbf 19f2 c0bf
000002e0: c183 0840 76ca 273e ad7a d43e 8660 eabe
000002f0: 0394 fbbd 371d 2f3e f3f8 1b3f 8b63 533f
00000300: 6ced d3be 9faa 5abf bea5 05be 0e1d 64c0
00000310: 8cd7 bdbf 90df a6be bd74 ddbf 6394 5bc0
00000320: 2037 82be 1a90 95bf 0154 a2bf 345e 01bd
00000330: fcd6 56bf 1818 9e3f 0931 3e3d 569b 2740
00000340: 4d1f 5cc0 14cf cd3f 3c2e b5bf 9ea4 b9bf
00000350: 3faa a53f 5c58 2bc0 613a 35c0 268c 52c0
00000360: 61aa d4bf e414 42be 84d9 a23d 5aa2 7fbf
00000370: 87c5 59bf 1594 c23d 0627 623f bb07 283f
00000380: da4f 273e 5b01 0940 e775 923e d547 133f
00000390: 3fed adbe c7f4 a43f dd9e fbbf 7821 f83b
000003a0: 4f6b 853f 0365 513d 2b75 0cc0 20f5 2b3f
000003b0: 3ed9 ecbc 7055 9c3f 7591 fb3c 95b7 32bf
000003c0: c5d2 09bf f1d8 ab3f 3c90 46c0 f580 68bf
000003d0: c0d9 9bbf 591f 2ec0 68ac 4e3f 2018 82be
000003e0: 8a26 fe3f 5d32 9cbf bb70 cf3f 7b7a 88bf
000003f0: d6ef 8ebf b292 9bbf d5bd b23f 77bf 3e40

w_group.0.weight f4 [64, 8]
-0.04576143 0.021934621 0.22647901 -0.2800673 -0.3460355 0.03492832 -0.08448723 0.02590941
-0.65795577 -0.72044575 -1.3015728 0.0016507066 -0.25159037 -0.21760805 -0.9025529 -1.0038422
-0.74977636 -0.15432619 -0.47088605 -0.3416982 -0.30671912 -0.28499758 -0.6469279 -0.89002186
-1.4613614 1.0101213 1.0145844 -3.4783807 -0.22923477 0.22462556 -0.9284923 -0.3702241
-0.087846056 -0.03132238 0.6235349 0.37006658 0.020218633 0.16308728 -0.23026238 -0.3407861
0.63585985 -0.10820294 -1.5258315 -0.61880714 -2.8272183 0.27792427 0.48056856 -0.0035256518
-1.3287579 1.0014484 -0.9902645 0.8603283 -0.5029774 -0.15967008 -0.85076535 -0.59184736
-1.0714138 0.4294429 2.3909743 -2.881947 0.5197271 -0.21350536 -0.014656637 -0.47146627
-0.12058252 0.15762155 -0.44954395 0.43757206 -0.38725287 -0.2173239 -0.3528003 -0.39412418
-0.019588036 -0.29399082 -1.2514637 -1.209812 0.4652341 0.12359971 -0.59401536 -0.7993365
1.3975401 0.26923275 1.1437047 1.8727231 -2.219067 -0.087539226 -0.06136136 -0.0203197
-0.3107472 0.27514794 0.10026502 -0.52621996 -0.57956153 0.037667513 -0.83811617 -0.7373289
2.0902827 -0.5030783 2.6307566 -0.99425966 -0.13940494 -0.1911982 -0.6144876 -0.93517995
1.3106178 1.7010784 1.8371702 0.81496394 -0.04347893 -0.030810446 -0.53126425 -0.6065452
-0.11715443 -0.3228951 0.49539566 1.2017353 -0.36261582 -0.15872827 -0.5836206 -0.7692421
1.6346965 -0.45754832 -2.3595176 -2.828175 -0.8974861 0.18348262 -0.7962378 -0.9807853
1.996046 -0.13266599 -2.738059 0.11463678 0.2731568 -0.31938532 -0.13911857 -0.2106813
-0.29008517 0.35629374 -1.7229979 -0.112693325 -1.7318116 -0.09773588 -0.61604786 -0.51655954
-0.023176473 0.026921477 -0.48675996 0.15822093 -1.2312998 -0.00324139 -0.06548045 -0.17836079
-0.035845004 -0.02058301 0.2297913 0.39212844 0.47888887 0.22083536 -0.29379103 -0.25246587
-2.5549676 -1.1789417 0.10160001 -0.4755811 -0.6058147 0.16921219 -0.4414628 -0.706128
-0.24457152 -0.37919033 -0.14451599 -0.11587431 -0.6226784 -0.106443375 -0.76738775 -0.8692254
0.22875486 -0.070369594 1.2451575 -1.1375368 -1.5365031 -0.32108745 -0.17264913 -0.451769
0.8448172 1.0788797 0.59155124 -0.7271586 -0.046097923 0.18771985 -0.7574491 -0.5213735
4.6203365 -0.22680299 0.8796065 -0.16341472 -1.276092 0.29122373 0.2088042 0.07908144
0.1674357 -0.24046892 0.91381925 0.34859937 -0.55131704 0.056746334 -0.53704566 -0.4218041
0.21938133 0.14655277 0.64738756 0.7426425 -0.42062488 0.21359083 -0.5081051 -0.16913278
0.87534815 1.311947 0.6438441 0.10661848 -0.29525396 -0.012721986 -0.013268528 0.39879543
-0.08481614 -0.63275796 0.14893168 -1.5712649 0.3429916 -0.34581098 -0.60602903 -0.72427773
-0.4095126 -0.34335276 0.7657915 -1.0540105 -1.0225652 0.19311288 -0.73878694 -0.7643066
-0.24103302 0.026244817 -0.40548787 -5.1037483 -0.22609924 -0.13085526 0.20531397 0.200344
0.37400407 -0.6436181 -0.3635078 -0.91356057 -0.569763 -0.102611214 -0.4369728 -0.33034444
00000000: 5670 3bbd 3cb0 b33c 1dea 673e fb64 8fbe
00000010: 912b b1be 0011 0f3d a407 adbd f93f d43c
00000020: ca6f 28bf 226f 38bf f099 a6bf 865c d83a
00000030: 74d0 80be a5d4 5ebe b50d 67bf e77d 80bf
00000040: 58f1 3fbf af07 1ebe fa17 f1be 11f3 aebe
00000050: 4a0a 9dbe 34eb 91be 119d 25bf 79d8 63bf
00000060: e40d bbbf a84b 813f e7dd 813f ca9d 5ec0
00000070: 85bc 6abe 3e04 663e acb1 6dbf 038e bdbe
00000080: a2e8 b3bd e54b 00bd fc9f 1f3f 5e79 bd3e
00000090: 8ca1 a53c 5a00 273e e7c9 6bbe 847b aebe
000000a0: b6c7 223f 8199 ddbd 724e c3bf 256a 1ebf
000000b0: 25f1 34c0 174c 8e3e 150d f63e 9f0e 67bb
000000c0: bd14 aabf 762f 803f f981 7dbf 7a3e 5c3f
000000d0: 20c3 00bf 8e80 23be c2cb 59bf 4f83 17bf
000000e0: 1624 89bf f1df db3e b905 1940 d271 38c0
000000f0: d60c 053f 26a1 5abe 6422 70bc 0764 f1be
00000100: f8f3 f6bd 8b67 213e a02a e6be 7209 e03e
00000110: 0246 c6be 288a 5ebe 3ea2 b4be a5ca c9be
00000120: 1777 a0bc f785 96be f62f a0bf 1fdb 9abf
00000130: 2a33 ee3e d821 fd3d 6411 18bf 51a1 4cbf
00000140: 98e2 b23f e0d8 893e ea64 923f 64b5 ef3f
00000150: 3205 0ec0 c447 b3bd 0d56 7bbd 8075 a6bc
00000160: 421a 9fbe 31e0 8c3e bf57 cd3d 5ab6 06bf
00000170: 255e 14bf 4049 1a3d c88e 56bf 96c1 3cbf
00000180: 31c7 0540 bdc9 00bf 515e 2840 cd87 7ebf
00000190: 2bc0 0ebe 76c9 43be 0f4f 1dbf f467 6fbf
000001a0: 53c2 a73f f0bc d93f 6528 eb3f 7aa1 503f
000001b0: f616 32bd 3066 fcbc ef00 08bf 8c46 1bbf
000001c0: a9ee efbd 8252 a5be 80a4 fd3e 76d2 993f
000001d0: c8a8 b9be aa89 22be 2968 15bf 0ded 44bf
000001e0: bc3d d13f c643 eabe 5602 17c0 d200 35c0
000001f0: a6c1 65bf dee2 3b3e 3ed6 4bbf bf14 7bbf
00000200: 6f7e ff3f 98d9 07be 5c3c 2fc0 b0c6 ea3d
00000210: 35db 8b3e 7986 a3be 1975 0ebe d7bc 57be
00000220: 0b86 94be 226c b63e 328b dcbf c2cb e6bd
00000230: 01ac ddbf c029 c8bd 50b5 1dbf 3f3d 04bf
00000240: 96dc bdbc 6e8a dc3c 9a38 f9be ab04 223e
00000250: 3b9b 9dbf 806d 54bb 9d1a 86bd 36a4 36be
00000260: 36d2 12bd b39d a8bc 694e 6b3e 0fc5 c83e
00000270: ec30 f53e aa22 623e c76b 96be 3543 81be
00000280: 9784 23c0 90e7 96bf ab13 d03d 5e7f f3be
00000290: ac16 1bbf f645 2d3e 6a07 e2be cec4 34bf
000002a0: f570 7abe 3c25 c2be 00fc 13be 834f edbd
000002b0: da67 1fbf fcfe d9bd 8673 44bf 8e85 5ebf
000002c0: b73e 6a3e ef1d 90bd 5261 9f3f ce9a 91bf
000002d0: 22ac c4bf 9365 a4be efca 30be 444e e7be
000002e0: f145 583f bb18 8a3f e76f 173f 1127 3abf
000002f0: 2dd1 3cbd a239 403e 2fe8 41bf bc78 05bf
00000300: ccd9 9340 0b3f 68be e42d 613f 3056 27be
00000310: fc56 a3bf 471b 953e c5d0 553e 73f5 a13d
00000320: 4474 2b3e 7c3d 76be 0ff0 693f 9e7b b23e
00000330: 1d23 0dbf d86e 683d d37b 09bf b5f6 d7be
00000340: 80a5 603e ee11 163e 31bb 253f d21d 3e3f
00000350: 255c d7be 8eb7 5a3e 2d13 02bf 2531 2dbe
00000360: d116 603f e1ed a73f f8d2 243f ca5a da3d
00000370: 872b 97be e06f 50bc 3d64 59bc ea2e cc3e
00000380: 16b4 adbd 6dfc 21bf 8c81 183e 351f c9bf
00000390: 989c af3e 230e b1be b824 1bbf 446a 39bf
000003a0: a3ab d1be efcb afbe e90a 443f d1e9 86bf
000003b0: 6be3 82bf 62bf 453e 2421 3dbf 99a9 43bf
000003c0: 5cd1 76be 5fff d63c 1b9c cfbe e851 a3c0
000003d0: 8f86 67be ecfe 05be d33d 523e fa26 4d3e
000003e0: 767d bf3e 28c4 24bf b21d babe 1bdf 69bf
000003f0: fddb 11bf d425 d2bd e6ba dfbe e822 a9be

w_group.0.bias f4 [64]
-0.30203402 -1.0665058 -0.89747363 -0.92140645 -0.45923096 -0.15307716 -0.6074211 -0.57481337
-0.60701835 -0.5413592 -0.33478618 -0.9793627 -0.8969022 -0.36979342 -0.52984947 -0.43216425
-0.25776222 -0.29536754 -0.5718662 0.085312776 -0.69598776 -0.8816184 -0.783772 -0.8754995
-0.13244236 -0.7558258 -0.4778299 0.35563883 -0.17361258 -0.59785527 0.16185442 -0.3789845
-0.49703434 -0.66428995 -0.26755762 -0.4440121 -0.6052786 0.3969237 -0.42091417 -0.5261219
-0.019610735 -0.598624 -0.6715338 -0.20067349 -0.101513244 -0.16046609 -0.10463541 0.12616761
-0.022564843 -0.048921805 -0.85337496 0.26432428 -0.41219994 -0.4425943 -0.19081661 -0.3685033
-0.7955842 -0.3065061 -0.051590957 0.23034835 -0.53408855 -1.0851036 -0.032629672 0.17390458
00000000: 34a4 9abe 4383 88bf d5c0 65bf 4be1 6bbf
00000010: 5220 ebbe 42c0 1cbe f37f 1bbf f826 13bf
00000020: 8e65 1bbf 8496 0abf 1869 abbe 84b7 7abf
00000030: 629b 65bf 9055 bdbe 37a4 07bf a244 ddbe
00000040: 69f9 83be 6a3a 97be d365 12bf 77b8 ae3d
00000050: 412c 32bf beb1 61bf 48a5 48bf bc20 60bf
00000060: f89e 07be cd7d 41bf 1fa6 f4be 4b16 b63e
00000070: 7fc7 31be 0b0d 19bf 2abd 253e 420a c2be
00000080: 497b febe e80e 2abf 50fd 88be 8e55 e3be
00000090: 8af3 1abf 9539 cb3e 1082 d7be edaf 06bf
000000a0: b1a6 a0bc 6c3f 19bf a4e9 2bbf 5a7d 4dbe
000000b0: 2de6 cfbd 3951 24be 174b d6bd 1532 013e
000000c0: e8d9 b8bc 3b62 48bd c876 5abf 8355 873e
000000d0: df0b d3be b89b e2be 6e65 43be 77ac bcbe
000000e0: 68ab 4bbf 5eee 9cbe 0a51 53bd 70e0 6b3e
000000f0: 07ba 08bf ade4 8abf b1a6 05bd 0b14 323e

w_group.2.weight f4 [32, 64]
0.091508895 -0.10892332 -0.052545406 -0.11668077 0.022593003 0.031134889 -0.15759629 0.006797738
-0.053297307 -0.018213945 -0.06685087 0.065699086 -0.093241066 -0.02719982 -0.029710392 0.074093744
-0.059254017 -0.15265222 0.046517964 -0.13999027 -0.12285737 -0.15060884 -0.08974977 -0.030347187
-0.0059809326 0.07667373 -0.12307346 0.08454479 0.048014943 -0.044885572 0.044820465 0.08019896
0.020036891 -0.056389093 0.019799989 0.025281675 -0.048331894 0.03219613 0.087866195 -0.13042465
-0.120757446 0.024448179 -0.0545095 -0.18803613 0.09308473 -0.008229868 -0.1913152 -0.12403822
-0.21849379 0.019602885 -0.0062838206 0.06477338 -0.023882026 0.09005574 -0.06256127 -0.053408567
0.085384935 -0.111482106 -0.06953276 -0.108198225 -0.0809807 -0.15444247 -0.07175735 -0.15992938
0.033342134 0.23848787 0.47217906 0.1718912 -0.09398307 0.32998362 -0.7086643 -0.29993492
-0.24596667 0.19299343 0.22237045 0.31969163 0.5706967 0.9831172 0.118073076 0.7084919
0.09355335 -0.43905765 -0.06659615 0.007961207 0.54445 -0.18189472 0.1643038 -0.0111690145
-0.7882802 -0.051625747 0.42547667 0.19504866 -0.026106037 -0.021545649 -0.0874645 0.1532824
-0.61733407 0.44140774 -1.1703845 0.061149754 -0.043621678 -1.2039975 0.19676596 0.013100046
-0.34207177 0.75568753 0.12569365 -0.5241468 -0.21683294 -0.10154476 -1.517878 0.095226824
-0.32185405 0.0549172 -0.2294417 0.66385204 -0.12816897 0.6925625 -0.5190229 -0.96009016
-0.65056306 0.08395303 -1.1712276 -0.28322452 0.014557293 -0.8965859 -1.5906003 -0.6385799
-0.14253594 -1.1811765 -0.03845334 -0.6392833 -0.039773304 0.45924714 -0.14188448 0.27525464
0.036577225 -0.1837059 0.10637203 0.8036863 -1.9230675 0.43187225 -0.29392552 -1.0116755
0.2220202 -0.08957346 0.20659477 -0.2179407 -3.382158 -0.44355255 -0.6501242 -2.2703354
0.29476494 -0.28661788 -0.02940209 -0.56886566 -0.3202924 0.09476341 -0.8029269 -0.70049644
-0.618111 -0.42186347 -0.099435136 -1.6405243 -0.10349592 0.31825116 0.0004914659 -0.09110424
-0.6889276 0.14003225 0.55804 -1.5341246 -1.577132 -0.12847836 0.33888003 0.026216695
0.86152107 -0.89110124 -0.08486766 -0.42300528 -0.08308716 0.44347692 -0.62693256 0.24194907
0.5161017 0.0065882746 0.2382707 0.044010255 -0.8534899 -0.82490784 0.16218881 -0.60327965
0.057760164 -0.0981361 0.12239453 -0.004975162 -0.014189762 -0.1398343 -0.13147701 -0.14244673
-0.11488264 -0.14384429 -0.097711995 0.003698126 -0.09997027 -0.035362896 -0.11340769 -0.04774377
-0.07410622 2.15487e-06 -0.048646368 -0.08276573 0.036654875 0.050313324 -0.16563894 -0.14866525
-0.00085553294 -0.1797527 -0.0623858 0.019658422 0.083213024 -0.039411012 -0.11656039 0.037420314
0.024349444 0.10063436 -0.021862969 -0.081443176 0.04409659 -0.14619762 0.012786337 -0.1558473
-0.13370647 -0.08525288 0.04231731 0.008705798 -0.037442725 0.071650706 -0.1655797 0.12419239
-0.07923787 0.073730305 0.08957936 -0.0011612345 0.021427436 0.063271455 -0.1554672 -0.034878317
0.049467057 0.0085105 -0.06126866 0.017407525 0.022573467 -0.18221313 0.011929512 -0.1413021
00000000: 0469 bb3d 3113 dfbd da39 57bd 54f6 eebd
00000010: f614 b93c 980e ff3c ec60 21be 8fbf de3b
00000020: 474e 5abd 6935 95bc 1ce9 88bd 3e8d 863d
00000030: 2cf5 bebd 28d2 debc 3563 f3bc 76be 973d
00000040: 57b4 72bd dd50 1cbe 9f89 3e3d 9c59 0fbe
00000050: a59c fbbd 3439 1abe bace b7bd aa9a f8bc
00000060: b3fb c3bb 1e07 9d3d f00d fcbd d225 ad3d
00000070: 51ab 443d efd9 37bd aa95 373d 5a3f a43d
00000080: 6824 a43c 40f8 66bd 9633 a23c 841b cf3c
00000090: aaf7 45bd 17e0 033d 31f3 b33d 0a8e 05be
000000a0: ae4f f7bd 8c47 c83c 5a45 5fbd 8b8c 40be
000000b0: 35a3 be3d 91d6 06bc 22e8 43be c007 febd
000000c0: d6bc 5fbe 3b96 a03c 82e8 cdbb e8a7 843d
000000d0: 3da4 c3bc 256f b83d 2020 80bd f1c2 5abd
000000e0: 4cde ae3d bb50 e4bd 3167 8ebd 0897 ddbd
000000f0: 36d9 a5bd 2b26 1ebe 84f5 92bd 87c4 23be
00000100: c391 083d 2a36 743e 74c1 f13e 3f04 303e
00000110: 327a c0bd 9df3 a83e 066b 35bf 1291 99be
00000120: b0de 7bbe 12a0 453e 14b5 633e 9fae a33e
00000130: 2e19 123f 92ad 7b3f 4cd0 f13d ba5f 353f
00000140: e698 bf3d 2acc e0be 9063 88bd b96f 023c
00000150: 1361 0b3f 9c42 3abe 413f 283e 3efe 36bc
00000160: bbcc 49bf 8575 53bd 14d8 d93e d6ba 473e
00000170: 54dc d5bc 8080 b0bc 9620 b3bd 10f6 1c3e
00000180: 9b09 1ebf 3200 e23e 29cf 95bf 2a78 7a3d
00000190: a5ac 32bd 971c 9abf 047d 493e 93a1 563c
000001a0: 0824 afbe bd74 413f d6b5 003e 7c2e 06bf
000001b0: 7409 5ebe b3f6 cfbd d449 c2bf 4806 c33d
000001c0: 0eca a4be dcf0 603d c4f2 6abe 35f2 293f
000001d0: ba3e 03be c74b 313f afde 04bf 78c8 75bf
000001e0: 4d8b 26bf 91ef ab3d c9ea 95bf ce02 91be
000001f0: b681 6e3c a786 65bf ca98 cbbf f979 23bf
00000200: f1f4 11be cb30 97bf 4081 1dbd 12a8 23bf
00000210: 55e9 22bd 7122 eb3e 2a4a 11be 2dee 8c3e
00000220: 00d2 153d 661d 3cbe 94d9 d93d 63be 4d3f
00000230: 1327 f6bf 5c1e dd3e 687d 96be 957e 81bf
00000240: 4359 633e 4a72 b7bd 948d 533e d92b 5fbe
00000250: 4775 58c0 5219 e3be 8a6e 26bf 2d4d 11c0
00000260: 6eeb 963e 94bf 92be a7dc f0bc 2ea1 11bf
00000270: 5efd a3be 5213 c23d 9e8c 4dbf bc53 33bf
00000280: 863c 1ebf 7dfe d7be a6a4 cbbd b3fc d1bf
00000290: abf5 d3bd d1f1 a23e b8d5 003a dc94 babd
000002a0: 8f5d 30bf 9d64 0f3e b6db 0e3f 325e c4bf
000002b0: 76df c9bf d58f 03be af81 ad3e 65c4 d63c
000002c0: a58c 5c3f 361f 64bf 19cf adbd 2694 d8be
000002d0: 9a29 aabd 680f e33e a77e 20bf 7fc1 773e
000002e0: 3e1f 043f 74e2 d73b 3cfd 733e 1944 343d
000002f0: 507e 5abf 292d 53bf d314 263e 8970 1abf
00000300: ec95 6c3d 94fb c8bd fca9 fa3d af06 a3bb
00000310: 2d7c 68bc b930 0fbe e9a1 06be 8edd 11be
00000320: 9747 ebbd eb4b 13be 3a1d c8bd 425c 723b
00000330: 37bd ccbd afd8 10bd 4a42 e8bd f98e 43bd
00000340: 00c5 97bd 629c 1036 6a41 47bd 1481 a9bd
00000350: 6c23 163d 5815 4e3d 419d 29be b43b 18be
00000360: d845 60ba 1711 38be 4188 7fbd b30a a13c
00000370: 976b aa3d 716d 21bd 37b7 eebd 0b46 193d
00000380: 7c78 c73c 6319 ce3d f819 b3bc aecb a6bd
00000390: a09e 343d d4b4 15be c97d 513c 6f96 1fbe
000003a0: 59ea 08be 1099 aebd ea54 2d3d c3a2 0e3c
000003b0: 8b5d 19bd 9bbd 923d ba8d 29be 9458 fe3d
000003c0: 7747 a2bd eaff 963d 6275 b73d 9034 98ba
000003d0: 9788 af3c 7794 813d cb32 1fbe 91dc 0ebd
000003e0: f89d 4a3d a06f 0b3c d9f4 7abd 3a9a 8e3c
000003f0: feeb b83c 1496 3abe 0074 433c 7fb1 10be

w_group.2.bias f4 [32]
-0.21406797 -1.6012363 0.5950051 -0.21417774 1.1517624 0.12485056 -0.93119687 -0.68637854
-0.031618424 -2.5543253 -0.12477406 1.6153446 -0.25713575 -0.69489217 -2.6093829 -1.6974945
-0.9217975 1.1603723 0.77138036 0.02564252 0.9031778 0.73497105 2.996962 -1.2248
-0.7181145 -0.7634728 -1.7885585 -0.095709085 -0.086041294 0.49953267 -0.21130599 0.47091126
00000000: a234 5bbe 50f5 ccbf 4152 183f 6951 5bbe
00000010: f36c 933f a7b1 ff3d eb62 6ebf 81b6 2fbf
00000020: 5282 01bd 117a 23c0 8b89 ffbd 9dc3 ce3f
00000030: 4ca7 83be 74e4 31bf 2100 27c0 8047 d9bf
00000040: ecfa 6bbf 1487 943f 2f79 453f 4310 d23c
00000050: a936 673f 1027 3c3f 3ace 3f40 3fc6 9cbf
00000060: 5ad6 37bf f472 43bf 7cef e4bf 2003 c4bd
00000070: 6b36 b0bd bfc2 ff3e 9960 58be 481b f13e

w_agents.0.weight f4 [64, 5]
-0.124932416 0.07492791 0.82087755 0.5380814 0.6225879 -0.38231692 -0.19086623 1.2850527
0.88517797 -0.9930309 0.25084284 -0.049191043 -0.08386572 -1.073564 -0.47702476 -0.025981886
-0.0032636193 -0.67144686 1.183769 -1.6230474 0.24464692 -0.17200619 0.91948056 -0.815906
-0.32559073 -0.17585647 -0.54172844 0.054104645 0.06819572 0.051803563 -0.011652046 0.16049495
-0.88865334 0.5124083 -0.8032603 0.040941723 -0.09497938 -1.3329376 1.4394015 -1.1918546
0.0056045004 0.010906221 0.0075611095 -0.42698437 -0.6685791 -0.0069781523 -0.007933666 -0.07646945
-0.24420731 -0.43082204 0.0011472629 -0.007367084 0.11405555 0.072450295 -0.12720484 -0.08029034
0.029093403 0.295963 -0.18777469 -0.5170159 0.42020768 -0.7608658 0.28861254 -0.00020311373
-0.8976633 -0.023436755 0.0019978133 -0.28213653 -0.11951639 -0.07499435 -0.012133898 0.019948777
0.14954218 0.34133464 -0.6282176 -0.059309363 -0.080529384 0.2482177 0.30406785 -0.8222426
0.03168198 -0.07865665 -0.48227882 1.2535799 -1.3263626 -0.01850461 -0.0041599753 0.106333
0.41103446 -0.47554645 -0.27723956 -0.24930367 1.5703546 3.3656688 -2.4646695 0.0041923127
-0.0024791586 -0.09724298 -0.12367604 -0.6253813 -0.14045839 -0.16288128 0.1677274 0.23688513
-1.9526403 0.036786746 0.034139745 0.008832491 1.0532022 -1.1231658 -0.024697943 -0.021783732
0.09630693 -0.1724765 -0.047838762 -0.022107547 -0.0028107583 -0.25237975 -0.07228451 -0.7363874
0.084842905 -0.017834844 -1.3037405 0.41304022 0.050165392 0.2041999 0.38962162 0.7690664
1.2173748 -1.0282812 -0.01931702 -0.010296935 0.027024314 -0.15463586 -0.24048027 0.7191093
-0.056742363 -0.5269087 0.7842226 -0.9708771 -0.26061895 0.070028394 -0.028172985 1.3637702
-2.1193962 0.6693611 -0.10326662 0.89760286 0.69661033 -1.3581834 -0.07141629 -0.057401083
-0.81178653 0.14429651 -0.9200829 0.12474486 -0.011478169 -0.1751604 0.2646805 -0.94256383
-0.06937612 0.20230854 -1.2041309 1.7779217 -0.75072896 0.02413084 0.060073797 -0.40164933
0.6350276 -0.67882836 0.006393971 0.04607231 0.09215387 0.088949405 -0.057354547 0.1432978
-0.0143505875 0.33409813 -0.38647106 -1.0022141 0.019263608 0.019464996 -0.029591871 0.5505541
-0.42693943 0.032499522 0.005674052 -1.5930648 0.05077737 -1.3705341 -0.006055359 -0.015262922
-0.05609956 -0.38654876 -0.7715057 0.06734542 0.18795739 0.07145969 1.1222546 -2.032787
0.016689774 -0.045632754 -0.5554986 -0.31671873 -0.7495469 0.30858457 -0.015711868 -0.3177266
1.432965 -2.341762 0.23899256 -0.51074874 1.530254 2.1892095 -1.1706785 -0.48951915
0.44336906 -1.2389989 1.6712579 -0.88268995 0.54943544 0.24353203 1.1423826 2.4242458
-1.6132581 -0.40295994 0.8746453 -0.2849503 0.4930537 -1.1558859 0.068109095 -0.23735717
-0.5446714 2.7458253 -2.5350332 0.025256915 -0.15811302 -1.1299729 1.1782755 -1.975664
-0.45227197 -0.38985068 -0.6282023 2.252766 -2.1283689 -0.03288301 -0.21668655 0.08433097
-0.64424694 -1.5400965 -0.0861289 0.06548987 0.3341432 -1.4037673 -0.29192868 -0.08698911
00000000: 91dc ffbd ce73 993d 0825 523f b4bf 093f
00000010: ec61 1f3f 0bbf c3be 7072 43be 9b7c a43f
00000020: 069b 623f 4637 7ebf 796e 803e 8c7c 49bd
00000030: cac1 abbd 8c6a 89bf 973c f4be f7d7 d4bc
00000040: 72e2 55bb f1e3 2bbf be85 973f 04c0 cfbf
00000050: b984 7a3e 6422 30be 1463 6b3f 37df 50bf
00000060: d4b3 a6be b813 34be b7ae 0abf d59c 5d3d
00000070: 33aa 8b3d f92f 543d 39e8 3ebc ca58 243e
00000080: c97e 63bf 312d 033f 78a2 4dbf 82b2 273d
00000090: 8d84 c2bd b39d aabf 4f3e b83f b18e 98bf
000000a0: f5a5 b73b 02b0 323c 2fc3 f73b b29d dabe
000000b0: 0028 2bbf fca8 e4bb 35fc 01bc 049c 9cbd
000000c0: 7b11 7abe b594 dcbe c15f 963a 9467 f1bb
000000d0: f595 e93d d260 943d fc41 02be 436f a4bd
000000e0: 4a55 ee3c 7688 973e 0248 40be 275b 04bf
000000f0: 7625 d73e 1ac8 42bf 06c5 933e edfa 54b9
00000100: 43cd 65bf 70fe bfbc bfed 023b 3374 90be
00000110: 02c5 f4bd a396 99bd 42cd 46bc 9e6b a33c
00000120: 9621 193e 6ac3 ae3e ded2 20bf 60ee 72bd
00000130: 97ec a4bd c82c 7e3e c8ae 9b3e 7e7e 52bf
00000140: f7c4 013d bd16 a1bd 40ed f6be 4e75 a03f
00000150: 40c6 a9bf fb96 97bc 6750 88bb 1ec5 d93d
00000160: 1c73 d23e d37a f3be 58f2 8dbe 7649 7fbe
00000170: 6101 c93f 1e67 5740 25bd 1dc0 ab5f 893b
00000180: 6179 22bb 5427 c7bd dd49 fdbd fd18 20bf
00000190: 53d4 0fbe 5aca 26be bbc0 2b3e 0492 723e
000001a0: 1ef0 f9bf b3ad 163d 1ed6 0b3d 27b6 103c
000001b0: 54cf 863f e6c3 8fbf 5753 cabc cc73 b2bc
000001c0: 913c c53d ae9d 30be 94f2 43bd e31a b5bc
000001d0: b334 38bb eb37 81be e709 94bd e283 3cbf
000001e0: 1ec2 ad3d 611a 92bc f8e0 a6bf 027a d33e
000001f0: 3a7a 4d3d c719 513e 7c7c c73e 89e1 443f
00000200: f0d2 9b3f b89e 83bf ba3e 9ebc 7ab4 28bc
00000210: 1862 dd3c dd58 1ebe 7640 76be 8c17 383f
00000220: ae6a 68bd 7de3 06bf d0c2 483f 678b 78bf
00000230: d96f 85be 0c6b 8f3d 08cb e6bc 0690 ae3f
00000240: 30a4 07c0 405b 2b3f 737d d3bd 4dc9 653f
00000250: 0e55 323f f4d8 adbf b442 92bd 661d 6bbd
00000260: 3ed1 4fbf 77c2 133e 8e8a 6bbf 3c7a ff3d
00000270: ee0e 3cbc 3f5d 33be 3484 873e dd4b 71bf
00000280: 1115 8ebd f829 4f3e f620 9abf f092 e33f
00000290: c62f 40bf 0aae c53c f10f 763d fba4 cdbe
000002a0: 2b91 223f b2c7 2dbf 8484 d13b 52b6 3c3d
000002b0: 2bbb bc3d 1b2b b63d 9aec 6abd a9bc 123e
000002c0: ba1e 6bbc e90e ab3e 89df c5be 8d48 80bf
000002d0: b7ce 9d3c 0e75 9f3c a76a f2bc 1df1 0c3f
000002e0: ce97 dabe 381e 053d 66ed b93b 8ce9 cbbf
000002f0: eefb 4f3d a96d afbf 086c c6bb 5611 7abc
00000300: a7c8 65bd b8e9 c5be 6681 45bf 65ec 893d
00000310: e777 403e 7559 923d 0aa6 8f3f 2f19 02c0
00000320: feb8 883c 69e9 3abd 2835 0ebf f528 a2be
00000330: 4ee2 3fbf ccfe 9d3e 2db6 80bc 10ad a2be
00000340: 666b b73f 6edf 15c0 77ba 743e 6ec0 02bf
00000350: 5ddf c33f 021c 0c40 cbd8 95bf 41a2 fabe
00000360: 4501 e33e 8497 9ebf c7eb d53f f8f7 61bf
00000370: cda7 0c3f 7660 793e 9839 923f d826 1b40
00000380: 3e7f cebf c450 cebe c1e8 5f3f 01e5 91be
00000390: 8971 fc3e 12f4 93bf c87c 8b3d c20d 73be
000003a0: 966f 0bbf 9abb 2f40 fc3d 22c0 97e7 ce3c
000003b0: 61e8 21be f4a2 90bf bbd1 963f 8fe2 fcbf
000003c0: 3190 e7be 829a c7be ded1 20bf 512d 1040
000003d0: 3237 08c0 56b0 06bd 14e3 5dbe b7b5 ac3d
000003e0: 5eed 24bf e221 c5bf 5964 b0bd 8e1f 863d
000003f0: d114 ab3e a6ae b3bf ad77 95be 5927 b2bd

w_agents.0.bias f4 [64]
-0.20469104 -0.9216737 -0.5958494 -1.1703191 -0.88227296 -0.17560683 -0.859956 -0.8429032
-0.39768985 -0.20016065 -0.15418409 -0.82633173 -1.1898695 -0.43256292 -0.34618086 -0.88186884
-1.5484726 -0.4089151 -2.2190514 -0.114535056 -1.3999515 -1.0661281 -0.51352245 -0.19384792
-0.092886366 -1.013576 -0.34432045 -0.80338985 -2.165559 -1.0682522 -1.2511868 -0.92800397
-0.53175235 -0.87195575 -0.35084164 -1.1832167 -0.58029026 -1.6730804 -0.29943395 -1.7599027
-0.71364355 -2.035592 -1.6119922 -1.2641543 -1.9130566 -1.7526139 -2.0493646 -1.3160057
-1.502966 -1.7145808 -1.0824021 -0.37613934 -0.20068344 0.2401513 -0.093918 -1.6515938
-1.2446197 -1.5328588 -1.6762681 -0.8309273 -0.53442216 -1.5249985 -2.0341814 -0.13006704
00000000: 879a 51be cff2 6bbf 9689 18bf 04cd 95bf
00000010: a4dc 61bf 47d2 33be 1426 5cbf 81c8 57bf
00000020: 019e cbbe eaf6 4cbe 6fe2 1dbe 7a8a 53bf
00000030: a54d 98bf e378 ddbe 9e3e b1be 28c2 61bf
00000040: 5a34 c6bf 525d d1be f004 0ec0 5b91 eabd
00000050: 9c31 b3bf e376 88bf 3576 03bf 1280 46be
00000060: 353b bebd dcbc 81bf c54a b0be f5aa 4dbf
00000070: 8598 0ac0 7dbc 88bf e426 a0bf ab91 6dbf
00000080: ec20 08bf 7e38 5fbf 84a1 b3be a573 97bf
00000090: e78d 14bf 8027 d6bf 684f 99be 7e44 e1bf
000000a0: 58b1 36bf 2447 02c0 c355 cebf cfcf a1bf
000000b0: 0adf f4bf a755 e0bf ca28 03c0 e072 a8bf
000000c0: 3161 c0bf 6277 dbbf 278c 8abf 5695 c0be
000000d0: f67f 4dbe 39ea 753e 1558 c0bd 6d67 d3bf
000000e0: b34f 9fbf b834 c4bf f48f d6bf a7b7 54bf
000000f0: e4cf 08bf 2733 c3bf 0730 02c0 4b30 05be

w_agents.2.weight f4 [32, 64]
0.006304388 -0.036754917 -0.04810283 -0.055119347 -0.08969625 0.0046743625 -0.12810044 0.063372344
0.05274796 -0.06830992 -0.028688626 0.041907772 -0.069416076 0.057834838 0.0035675997 0.007547005
-0.07932449 -0.0219126 -0.102975376 -0.15768023 -0.18823473 0.008303587 -0.2017965 -0.093295015
-0.15223022 -0.0031865805 -0.0048737945 -0.08147997 -0.09049116 0.04684973 0.020312758 -0.028177075
-6.896298e-05 -0.10890753 -0.042233232 -0.14387819 -0.11003629 -0.06678541 -0.17994967 -0.040692773
-0.056248993 -0.06747927 0.042290077 0.03958717 0.049208328 0.024124974 -0.091376506 -0.033152085
-0.09826076 -0.0024281566 -0.067906484 -0.13957825 -0.024383219 -0.13005204 -0.029429572 -0.096878886
-0.0140744 -0.05079182 -0.080379486 0.062238492 0.007186039 0.005677072 -0.08367641 -0.07395324
-3.65714 -0.4073754 -0.7044329 -1.4591745 -0.4728048 -0.76945406 -0.59797746 -0.3833512
0.09605608 -0.2548328 -0.15566988 0.028334938 -0.9028305 -0.104730904 0.1814294 -0.10105541
0.2113786 -0.3943067 1.1578802 -0.11805999 0.032955512 0.5972631 -0.17740048 0.064148195
-0.07553782 -0.11080751 -0.15033372 -0.10636542 -0.9364658 -0.6787753 -0.08928264 -0.26286468
-2.5443776 -0.11099523 -0.26952913 -0.78165233 0.00023969192 0.37798867 -0.2983359 1.0085729
-0.039613515 0.61944234 -0.98303974 -0.2286075 0.19222729 0.09486403 -0.66145116 -0.021663113
-0.99471056 -1.1627587 -0.3683335 -0.19659996 -0.30518237 -0.09964676 -0.20007236 -0.32325178
-0.14371347 0.34758875 -0.53497064 0.0662 0.16667329 0.49677175 -0.118125506 -0.3185391
-0.16590253 -0.097538956 -0.088673495 0.06701785 -0.07336845 -0.06288877 -0.11579497 -0.15244949
-0.1144559 0.058852926 -0.01961403 -0.05231962 -0.11049609 -0.09976593 -0.02236686 -0.012733826
-0.084007636 -0.12712209 0.025853055 0.055654477 0.034936965 -0.14234242 0.022198338 -0.08194961
0.031282023 -0.038935497 -0.1461994 -0.031206788 -0.04924732 -0.18429956 -0.07803117 0.11262034
-0.1231936 -0.11250417 0.016711954 0.058317 -0.20231555 -0.01644699 -0.0826701 0.0035432852
-0.08474208 -0.011927463 -0.012408992 -0.036796376 0.10982974 -0.00527011 -0.0476572 -0.024454255
-0.017826514 -0.008133887 0.013231227 0.010872995 -0.12566596 -0.13879701 -0.12524268 0.0059141433
-0.015931768 -0.034328233 0.0043068663 -0.009944642 -0.019542322 0.046993002 -0.032801747 0.01065911
-0.2464109 -0.25779644 -0.15055545 0.038156804 -0.032142278 0.059561957 -0.20425972 0.0068694944
-0.25265262 -0.24455746 -0.23839682 -0.042159934 -0.16466874 -0.1954434 -0.24134974 0.030028988
-0.036399838 -0.26738197 0.09650716 0.043732654 0.07663463 -0.18739559 -0.06806556 -0.16593255
-0.09597742 -0.0832283 -0.15133826 -0.13130097 0.066452056 -0.16372062 0.07673187 -0.13006681
0.13035353 -0.22442305 -0.11727584 -0.1575841 0.0007171719 -0.025672829 -0.17474332 -0.087877676
-0.12959869 0.11877279 -0.09365543 -0.0012142806 0.16310705 0.08940205 -0.042288158 -0.009308098
-0.22483172 -0.23730466 -0.30056795 -0.0324441 -0.2701001 -0.10659331 -0.064404644 -0.10788097
-0.024526069 -0.0329 -0.032573193 -0.13930626 -0.07823908 0.16673851 -0.17010729 -0.04367464
00000000: 0a95 ce3b 538c 16bd 7907 45bd d3c4 61bd
00000010: abb2 b7bd 652b 993b c32c 03be 5cc9 813d
00000020: 3f0e 583d 12e6 8bbd 6904 ebbc 7ca7 2b3d
00000030: 042a 8ebd 39e4 6c3d 64ce 693b de4c f73b
00000040: e174 a2bd 0e82 b3bc c1e4 d2bd ed76 21be
00000050: 9bc0 40be c50b 083c bea3 4ebe 7511 bfbd
00000060: 3de2 1bbe f3d5 50bb 5ab4 9fbb f8de a6bd
00000070: 6e53 b9bd 81e5 3f3d f166 a63c 9cd3 e6bc
00000080: 38a0 90b8 e90a dfbd c1fc 2cbd ce54 13be
00000090: b55a e1bd cac6 88bd ba44 38be 77ad 26bd
000000a0: 5865 66bd 9232 8abd 5c38 2d3d 2826 223d
000000b0: ac8e 493d bda1 c53c 9b23 bbbd 7bca 07bd
000000c0: f03c c9bd b521 1fbb 8e12 8bbd 9aed 0ebe
000000d0: 51bf c7bc 5d2c 05be 4916 f1bc 7068 c6bd
000000e0: 5098 66bc 150b 50bd 009e a4bd caed 7e3d
000000f0: dd78 eb3b bb06 ba3b 8a5e abbd cc74 97bd
00000100: 950e 6ac0 8293 d0be b755 34bf 3bc6 babf
00000110: 7913 f2be f1fa 44bf 0d15 19bf 9c46 c4be
00000120: 0db9 c43d 7279 82be ed67 1fbe ac1e e83c
00000130: e61f 67bf 287d d6bd a1c8 393e 24f6 cebd
00000140: a273 583e 91e2 c9be 6b35 943f 70c9 f1bd
00000150: 5cfc 063d 3ce6 183f 79a8 35be 2160 833d
00000160: 93b3 9abd 0cef e2bd 15f1 19be 1dd6 d9bd
00000170: 39bc 6fbf 38c4 2dbf d1d9 b6bd 3396 86be
00000180: 15d7 22c0 7851 e3bd b9ff 89be 5e1a 48bf
00000190: cf55 7b39 bb87 c13e 7cbf 98be eb18 813f
000001a0: c841 22bd c693 1e3f 7ea8 7bbf 1618 6abe
000001b0: 3bd7 443e 1348 c23d dd54 29bf d776 b1bc
000001c0: 5aa5 7ebf 47d5 94bf 3596 bcbe 8051 49be
000001d0: dd40 9cbe 9a13 ccbd c5df 4cbe 4281 a5be
000001e0: a029 13be 27f7 b13e d6f3 08bf de93 873d
000001f0: 67ac 2a3e de58 fe3e c9eb f1bd 8f17 a3be
00000200: 5ae2 29be 81c2 c7bd 739a b5bd a840 893d
00000210: 3342 96bd d4cb 80bd ea25 edbd b81b 1cbe
00000220: db67 eabd c40f 713d 9aad a0bc 194d 56bd
00000230: c64b e2bd 1452 ccbd b53a b7bc 8aa1 50bc
00000240: 320c acbd 4b2c 02be c9c9 d33c f3f5 633d
00000250: 101a 0f3d 36c2 11be 4ad9 b53c 32d5 a7bd
00000260: 9421 003d d47a 1fbd 4cb5 15be 61a5 ffbc
00000270: 8fb7 49bd 06b9 3cbe cece 9fbd 7ea5 e63d
00000280: ed4c fcbd 9668 e6bd 82e7 883c cedd 6e3d
00000290: cf2b 4fbe d7bb 86bc f14e a9bd 7636 683b
000002a0: 418d adbd 686b 43bc 164f 4bbc ccb7 16bd
000002b0: 6aee e03d e3b0 acbb 3234 43bd 4a54 c8bc
000002c0: e908 92bc ff43 05bc cac7 583c a524 323c
000002d0: 94ae 00be ce20 0ebe 9e3f 00be 6ecb c13b
000002e0: 5783 82bc c39b 0cbd 9d20 8d3b daee 22bc
000002f0: 3817 a0bc bc7b 403d 205b 06bd 8ca3 2e3c
00000300: 2453 7cbe e5fd 83be 352b 1abe 4f4a 1c3d
00000310: 9fa7 03bd 3df7 733d 7629 51be 7f19 e13b
00000320: af5b 81be 456d 7abe 4c1e 74be e5af 2cbd
00000330: ec9e 28be 5122 48be 6324 77be 5aff f53c
00000340: ff17 15bd 4ae6 88be 8ca5 c53d 0321 333d
00000350: 9ef2 9c3d a1e4 3fbe f565 8bbd 39ea 29be
00000360: cf8f c4bd 9973 aabd 6bf8 1abe c373 06be
00000370: 0418 883d 61a6 27be 9925 9d3d 3c30 05be
00000380: 657b 053e 28cf 65be 512e f0bd ba5d 21be
00000390: 9700 3c3a d34f d2bc eaef 32be 36f9 b3bd
000003a0: 85b5 04be 263f f33d 6bce bfbd 7f28 9fba
000003b0: 8905 273e 6c18 b73d 5936 2dbd fe80 18bc
000003c0: 493a 66be feff 72be 0be4 99be 1be4 04bd
000003d0: 8f4a 8abe 984d dabd 95e6 83bd b3f0 dcbd
000003e0: e5ea c8bc 27c2 06bd 786b 05bd 4da6 0ebe
000003f0: d03b a0bd 80bd 2a3e 9b30 2ebe 2ee4 32bd

w_agents.2.bias f4 [32]
-0.19601478 -0.68419856 -0.16133396 -0.32193142 -0.17103326 -0.7103659 -0.23429424 -0.47378352
0.12121692 -0.28179812 -0.03795918 -0.44582185 -0.48886937 -0.6202204 -0.13946924 0.07503716
-0.1813636 -0.47475564 -0.18265626 -0.42249107 -0.21367492 0.14704202 -1.41683 -0.25471336
-0.5417243 0.08594177 -0.1488886 -0.051400602 0.099567555 -0.3997402 0.18876983 0.14592314
00000000: 19b8 48be a327 2fbf bb34 25be 32d4 a4be
00000010: 5823 2fbe 8ada 35bf d4ea 6fbe c193 f2be
00000020: 9440 f83d d847 90be 167b 1bbd c342 e4be
00000030: 164d fabe c4c6 1ebf 06d1 0ebe 15ad 993d
00000040: 61b7 39be 2c13 f3be 3e0a 3bbe c050 d8be
00000050: 99cd 5abe 2f92 163e af5a b5bf ca69 82be
00000060: 72ae 0abf 3d02 b03d 4176 18be 7089 52bd
00000070: 13ea cb3d bfaa ccbe e14c 413e e06c 153e

Ws.0 f4 [32, 32]
-0.46081412 -0.43628788 0.5843487 0.9740299 -0.9632306 -0.022004282 -0.9242139 -0.32437733
-1.4080771 1.3215921 1.2258415 0.052021496 1.5897702 0.71720135 0.6834084 0.120489396
0.38086206 0.06285636 -0.27549812 1.0167983 -0.51465565 -0.5554347 0.14714476 0.8046577
-0.67668533 -1.5565822 -1.2104387 0.991262 1.0389372 2.0494592 0.81437874 -0.45259747
-0.082215816 0.71788955 -2.4232836 0.26184583 -2.033733 -0.13071766 -2.6615844 1.4988347
-0.27656868 -0.5926041 -0.14022739 -3.5735507 -0.20787044 -1.4590505 -0.88562393 -1.8458087
0.5849863 -1.4195008 -1.4042994 -3.7834866 -0.4234264 -0.9115828 0.3506524 0.058879886
-0.1969066 -1.2331679 0.593113 -1.5130247 0.8241238 1.4338146 0.7112614 1.916877
1.3239986 1.0216397 -0.21648274 -0.905494 1.6638919 -0.846431 0.45744175 1.6177905
-0.4499099 1.6615465 -1.1454325 -1.4449204 1.0248209 -0.47409472 -0.18750462 1.1862079
-0.04705087 -1.7891712 1.6969628 1.0961027 0.44746864 1.0315434 -1.2567192 -0.042978343
-6.3157387 -1.560341 -0.8818444 0.7944855 -0.13843437 0.39346796 -7.6312966 1.4874469
-1.229624 0.12878391 0.050231103 1.6528599 -1.8949665 1.0524751 -0.2998543 0.2089871
0.104555316 -1.036779 0.2878417 0.30092642 -0.51535124 -0.26263824 0.62729627 -0.4695352
-0.52029485 1.7479292 -0.5048636 1.2182534 -1.9397749 -1.385382 0.8341333 0.022488484
0.22750497 1.3396142 1.6290104 0.30144694 0.20630237 -1.8751222 0.98266125 0.6207236
0.63912666 -1.2893116 -0.040048674 -2.474589 -0.34092355 1.3400131 0.13601205 0.67823946
0.4306577 0.028449621 0.43633395 0.62145185 0.19528186 0.5301716 0.6540733 -1.6799634
0.28952265 0.7741772 -0.04274013 -0.7505486 0.87641263 0.045155235 -1.830588 0.060507342
3.004022 0.18260978 -0.16232823 -2.303093 -1.4521905 1.335211 0.4222848 -0.6994191
-2.5110567 -0.07190101 1.5840131 -5.047927 -0.6275633 -1.3253179 -2.6289454 -2.3137407
0.8673373 1.5094134 -0.49127686 -0.5216013 0.48662513 -0.021253051 0.43139717 1.0676773
-4.2612653 0.8714962 0.8498334 1.1727467 0.5415909 -1.7022642 -1.9875795 -2.3240356
-0.79150695 0.3805749 -1.5552417 -0.72834027 -1.4444985 0.17318131 -1.9746462 -0.9220843
1.2645627 -3.390314 -2.3450553 -2.453406 -1.4157225 -5.358121 1.7126372 -0.15899786
1.5477192 0.15312044 -0.18178746 0.57545257 1.4206144 -1.6839505 1.8666002 1.6820513
2.4926574 1.9187111 0.9660751 1.909553 -0.43297198 1.4573555 1.0715867 -2.703001
-1.4877431 -2.3405533 -0.747486 -2.5594592 0.13680597 -0.083439715 -1.7140148 -3.199733
-0.5486913 0.035338234 -0.4456245 0.5276187 0.7868457 -1.4999275 0.43466416 -2.024518
0.38529712 1.263706 0.22282755 -0.2180174 0.4586379 0.5022053 0.7688326 -0.10127137
-1.8711557 0.7447602 -1.2329392 0.32115614 -3.1742294 -0.6770462 1.8750929 -1.4285532
-2.0067065 0.59107953 0.32012826 -0.4145821 -0.5556433 0.056014378 1.3590137 1.4174068
00000000: d4ef ebbe 2061 dfbe e097 153f 065a 793f
00000010: 4896 76bf 5342 b4bc 4899 6cbf c914 a6be
00000020: df3b b4bf ee29 a93f 60e8 9c3f 7e14 553d
00000030: 977d cb3f 829a 373f daf3 2e3f 25c3 f63d
00000040: 5a00 c33e d6ba 803d 170e 8dbe 7226 823f
00000050: 79c0 03bf f830 0ebf 1ead 163e 0cfe 4d3f
00000060: 403b 2dbf 163e c7bf a8ef 9abf 59c3 7d3f
00000070: e5fb 843f 572a 0340 207b 503f dbba e7be
00000080: c460 a8bd 9cc7 373f 1417 1bc0 a810 863e
00000090: ae28 02c0 dada 05be 6657 2ac0 d1d9 bf3f
000000a0: 699a 8dbe e7b4 17bf c597 0fbe 0eb5 64c0
000000b0: fddb 54be 2bc2 babf 40b8 62bf 7643 ecbf
000000c0: aac1 153f 34b2 b5bf 15c0 b3bf a524 72c0
000000d0: 58cb d8be 7e5d 69bf b688 b33e 092c 713d
000000e0: e2a1 49be 72d8 9dbf 41d6 173f cbaa c1bf
000000f0: c7f9 523f 3d87 b73f 3a15 363f 3a5c f53f
00000100: c978 a93f 17c5 823f a7ad 5dbe 74ce 67bf
00000110: 69fa d43f b4af 58bf ce35 ea3e c213 cf3f
00000120: 975a e6be 8ead d43f 889d 92bf 27f3 b8bf
00000130: 552d 833f 8bbc f2be 3601 40be a9d5 973f
00000140: 6ab8 40bd 9003 e5bf 1436 d93f 184d 8c3f
00000150: 9c1a e53e 9d09 843f 2ddc a0bf 0f0a 30bd
00000160: 881a cac0 41b9 c7bf 8ec0 61bf 6763 4b3f
00000170: bdc1 0dbe a274 c93e 9533 f4c0 a964 be3f
00000180: 5264 9dbf eedf 033e 21bf 4d3d ea90 d33f
00000190: 438e f2bf 81b7 863f 8186 99be b700 563e
000001a0: 1921 d63d 2db5 84bf fd5f 933e 0713 9a3e
000001b0: 0fee 03bf 8578 86be 7d96 203f eb66 f0be
000001c0: 0b32 05bf 25bc df3f be3e 01bf baef 9b3f
000001d0: 8b4a f8bf 3354 b1bf c389 553f c539 b83c
000001e0: 10f7 683e 7a78 ab3f 6a83 d03f 4157 9a3e
000001f0: ee40 533e 0104 f0bf b08f 7b3f bee7 1e3f
00000200: ce9d 233f 2a08 a5bf 140a 24bd ab5f 1ec0
00000210: 888d aebe 8d85 ab3f be46 0b3e 1aa1 2d3f
00000220: 2b7f dc3e 2e0f e93c 2a67 df3e 7817 1f3f
00000230: f8f7 473e 53b9 073f 5971 273f 0a09 d7bf
00000240: 503c 943e 7a30 463f 4610 2fbd f423 40bf
00000250: 945c 603f b2f4 383d b550 eabf 8cd6 773d
00000260: e541 4040 0ffe 3a3e 5f39 26be e065 13c0
00000270: 61e1 b9bf 32e8 aa3f b735 d83e 210d 33bf
00000280: 27b5 20c0 d640 93bd f1c0 ca3f 9e88 a1c0
00000290: fda7 20bf 04a4 a9bf a440 28c0 5414 14c0
000002a0: d109 5e3f 7534 c13f a488 fbbe aa87 05bf
000002b0: ee26 f93e e11a aebc 17e0 dc3e a6a9 883f
000002c0: 495c 88c0 601a 5f3f af8e 593f 901c 963f
000002d0: b4a5 0a3f cbe3 d9bf 0169 febf 00bd 14c0
000002e0: 33a0 4abf b7da c23e 2912 c7bf 8274 3abf
000002f0: 54e5 b8bf 7156 313e 35c1 fcbf b70d 6cbf
00000300: 31dd a13f e8fa 58c0 6315 16c0 9b04 1dc0
00000310: 6536 b5bf ba75 abc0 b237 db3f 56d0 22be
00000320: aa1b c63f 9bcb 1c3e 7e26 3abe dc50 133f
00000330: b1d6 b53f b18b d7bf c1ec ee3f 754d d73f
00000340: b387 1f40 5398 f53f b350 773f 3c6c f43f
00000350: 81ae ddbe a08a ba3f c129 893f f8fd 2cc0
00000360: 5e6e bebf a0cb 15c0 3e5b 3fbf 2ece 23c0
00000370: dd16 0c3e 71e2 aabd d664 dbbf 6dc8 4cc0
00000380: 0877 0cbf d3be 103d e528 e4be 0512 073f
00000390: b86e 493f a0fd bfbf 4d8c de3e b491 01c0
000003a0: aa45 c53e 1ec1 a13f e82c 643e f43f 5fbe
000003b0: 96d2 ea3e 8790 003f 37d2 443f 5d67 cfbd
000003c0: 0882 efbf 9ba8 3e3f f4d0 9dbf 946e a43e
000003d0: 9326 4bc0 e652 2dbf 0b03 f03f d5da b6bf
000003e0: e16d 00c0 fd50 173f dae7 a33e 1b44 d4be
000003f0: a43e 0ebf 556f 653d 29f4 ad3f 966d b53f

Ws.1 f4 [32, 32]
0.9609333 -0.033061296 0.27272254 -2.009187 -0.4187974 1.2085693 -2.6467378 -0.5404995
0.5706151 -1.5404975 -0.6207675 2.0590537 -0.8471347 -1.5033898 -0.97598904 1.6041666
-0.5463321 0.21462741 -0.86868584 -0.74412984 -0.5522436 -0.5405799 0.2425296 0.89635396
-2.5121665 0.92689735 1.9781437 0.11125471 -0.76976275 -0.25411966 1.745542 -0.7853658
2.0010567 0.55732363 1.119956 -0.0149046825 -0.11020557 0.22793455 -0.16095641 -0.08613403
1.47204 1.8510282 0.51449114 1.0892558 1.1743069 -1.0802242 -1.5408201 -1.4144365
0.88365585 0.14783843 -0.30627677 -0.32935295 -1.3866915 -0.6637509 -0.24462008 -0.58203954
-1.3424613 -1.1753439 -2.205598 -0.60196435 -1.8494055 -1.7992499 1.0871352 1.6713991
-2.95502 0.09241023 -2.6197393 -0.07730511 0.29357806 1.1105139 -0.07341099 0.10102592
-1.325854 0.4476857 0.3653705 -2.2282147 0.26266006 -0.9076005 -0.14541991 -0.42074993
2.122719 -0.6943149 -2.3104627 -0.9552931 -1.9115101 -0.67760986 0.03439811 0.3223987
0.8343961 3.4123492 -2.7083585 -1.7382973 -0.734066 0.2580341 0.4412082 -1.8011764
-1.4505849 0.32921353 1.2421589 1.0833071 -1.1581504 0.99753094 1.5225725 1.9345875
0.89923537 1.7310607 2.7469835 -0.23202465 1.2020524 -0.043596607 0.4947487 0.28552115
-0.10293681 -0.38083088 1.2992108 -0.76976144 1.0898318 0.6087561 1.3053976 -0.1935095
0.0689957 -0.50021297 -1.6076921 1.894334 -2.1320102 0.41290158 -0.329511 0.16733357
2.787238 -0.81034315 -0.33476868 -0.74937284 -1.8428055 1.26855 -1.3111526 0.2506432
-0.7043299 -1.0482879 1.0634649 -0.5047833 1.23463 0.45932618 0.6508275 -1.0623502
-0.17434944 1.9063379 -1.7393274 2.874058 1.4573435 -0.24350956 -1.2927506 -3.3100233
0.23713382 -1.110969 -1.8687336 2.182048 -0.61812365 -3.0807965 -1.5990902 -4.2154
2.2055569 2.0811918 -1.4304476 0.7974967 -0.8049727 -1.5919743 -0.24733074 0.03692235
1.4493825 -0.6336901 -2.3646653 -1.32606 -0.23978707 1.2968435 0.30175722 -0.5509377
-0.6386985 -0.4639162 -2.230356 -0.26865083 0.21136092 -0.63977474 0.67014456 0.19337168
-0.48074767 -0.16041015 -0.79245424 0.53378505 0.7303192 -0.15956295 -2.0853179 -3.1675498
-2.9327579 0.47697797 -2.4346628 0.6730448 -0.77615064 -0.12843427 0.18418686 -0.535264
0.8945345 -0.53279155 2.4097054 1.368545 -1.7194537 -0.20521282 -0.69663906 1.7520541
-0.23640603 -0.22870025 -1.2532493 -5.000158 1.0590308 0.12466638 1.2486682 -0.947805
-0.663407 -0.21271533 -0.093718685 -2.0981736 1.9361668 1.4632505 0.87128013 -2.0958154
-0.35667378 -0.34045196 1.921685 1.7609044 0.39462703 -0.30722368 1.8563664 -2.5694792
0.4077787 -1.3136774 -0.0034914382 0.8235313 -0.99370897 -0.042152237 -0.81185925 -0.51229125
0.34880695 -0.84874576 1.3824463 0.85864824 1.8396107 -0.626757 0.38989443 -0.41504705
0.5651334 1.2223328 -1.643811 -1.3270601 1.0956261 -1.2588567 -0.94023824 -0.94812244
00000000: baff 753f 486b 07bd 4aa2 8b3e 8596 00c0
00000010: 9d6c d6be 66b2 9a3f 2764 29c0 2d5e 0abf
00000020: d513 123f 062f c5bf 9eea 1ebf 89c7 0340
00000030: d2dd 58bf 146f c0bf 6bda 79bf 5555 cd3f
00000040: 6cdc 0bbf 4ac7 5b3e 3262 5ebf 4b7f 3ebf
00000050: d65f 0dbf 7263 0abf ae59 783e 7477 653f
00000060: 56c7 20c0 2549 6d3f d033 fd3f 82d9 e33d
00000070: 2c0f 45bf f91b 82be ec6d df3f bc0d 49bf
00000080: 5011 0040 c3ac 0e3f b85a 8f3f c532 74bc
00000090: 75b3 e1bd ad67 693e c2d1 24be 0a67 b0bd
000000a0: cf6b bc3f 7eee ec3f b1b5 033f bc6c 8b3f
000000b0: b04f 963f c944 8abf 9839 c5bf 410c b5bf
000000c0: 4537 623f f562 173e 4fd0 9cbe f3a0 a8be
000000d0: 1b7f b1bf 94eb 29bf b07d 7abe 8b00 15bf
000000e0: c6d5 abbf ab71 96bf 8528 0dc0 561a 1abf
000000f0: 52b9 ecbf d24d e6bf 3f27 8b3f 68f0 d53f
00000100: 0c1f 3dc0 9341 bd3d cfa9 27c0 2452 9ebd
00000110: dd4f 963e 5225 8e3f 8058 96bd ade6 ce3d
00000120: 95b5 a9bf 0f37 e53e d811 bb3e 129b 0ec0
00000130: 617b 863e 8258 68bf f5e8 14be 896c d7be
00000140: a1da 0740 9fbe 31bf 9fde 13c0 178e 74bf
00000150: 5dac f4bf d777 2dbf 08e5 0c3d 7111 a53e
00000160: fc9a 553f ee63 5a40 bf55 2dc0 8780 debf
00000170: c0eb 3bbf 0c1d 843e 0be6 e13e f38c e6bf
00000180: c4ac b9bf ad8e a83e 10ff 9e3f cfa9 8a3f
00000190: 463e 94bf 305e 7f3f a8e3 c23f 90a0 f73f
000001a0: 4a34 663f 6693 dd3f 94ce 2f40 df97 6dbe
000001b0: dadc 993f 5b92 32bd b44f fd3e d42f 923e
000001c0: 89d0 d2bd 44fc c2be 8a4c a63f 160f 45bf
000001d0: 9c7f 8b3f 71d7 1b3f 4517 a73f 5b27 46be
000001e0: 9e4d 8d3d f50d 00bf dbc8 cdbf 8979 f23f
000001f0: db72 08c0 d667 d33e aab5 a8be 7e59 2b3e
00000200: 1b62 3240 a672 4fbf cd66 abbe e6d6 3fbf
00000210: 0de1 ebbf d95f a23f d9d3 a7bf 4e54 803e
00000220: f74e 34bf 4c2e 86bf 9e1f 883f 7a39 01bf
00000230: 5b08 9e3f cd2c eb3e a29c 263f 17fb 87bf
00000240: a988 32be e102 f43f 48a2 debf 91f0 3740
00000250: 3b8a ba3f 925a 79be da78 a5bf 6cd7 53c0
00000260: 35d3 723e 3b34 8ebf aa32 efbf ada6 0b40
00000270: 5a3d 1ebf c52b 45c0 fdae ccbf 8fe4 86c0
00000280: d827 0d40 3f32 0540 e818 b7bf be28 4c3f
00000290: b112 4ebf d0c5 cbbf 4544 7dbe e43b 173d
000002a0: 5e85 b93f 8439 22bf ad56 17c0 56bc a9bf
000002b0: be8a 75be f8fe a53f ec7f 9a3e 410a 0dbf
000002c0: bf81 23bf 6d86 edbe 27be 0ec0 9a8c 89be
000002d0: ff6e 583e 47c8 23bf 988e 2b3f 3a03 463e
000002e0: 8f24 f6be 8f42 24be 48de 4abf 23a6 083f
000002f0: 33f6 3a3f 7864 23be d975 05c0 23b9 4ac0
00000300: 4eb2 3bc0 7536 f43e 84d1 1bc0 aa4c 2c3f
00000310: cfb1 46bf 4684 03be 7b9b 3c3e 1007 09bf
00000320: 3700 653f 0765 08bf 9d38 1a40 7c2c af3f
00000330: 0f17 dcbf 4f23 52be f056 32bf 4f43 e03f
00000340: 6c14 72be 6630 6abe 796a a0bf 4b01 a0c0
00000350: 528e 873f 1651 ff3d 5cd4 9f3f 59a3 72bf
00000360: 0bd5 29bf 0cd2 59be 95ef bfbd 7a48 06c0
00000370: 50d4 f73f cb4b bb3f 370c 5f3f d721 06c0
00000380: f29d b6be b84f aebe c6f9 f53f 5165 e13f
00000390: 8e0c ca3e 6c4c 9dbe 6a9d ed3f 5972 24c0
000003a0: 5fc8 d03e 9526 a8bf 9dd0 64bb f3d2 523f
000003b0: b663 7ebf d3a7 2cbd 02d6 4fbf 8525 03bf
000003c0: d396 b23e 6747 59bf 00f4 b03f 5fd0 5b3f
000003d0: 5d78 eb3f 2673 20bf 3ea0 c73e 0c81 d4be
000003e0: 95ac 103f 6775 9c3f 6668 d2bf 1bdd a9bf
000003f0: 7a3d 8c3f 3722 a1bf 74b3 70bf 27b8 72bf
