data-3/rl_model_3.pth (torch_old, 93650 bytes, 18 tensors)

w_a f4 [32, 32]
000000 6d 1f 0b c0 d1 fa af be be a2 44 40 50 84 b5 bf
       -2.173793 -0.34371045 3.072433 -1.4181004
000010 f9 c8 78 3e 52 6f 09 c0 18 39 43 c0 27 fb 70 40
       0.24295415 -2.1474195 -3.0503597 3.7653291
000020 a4 a8 6a 3f 84 f8 2b 3f b3 e1 0b c0 08 f5 58 40
       0.91663575 0.6717608 -2.1856506 3.3899555
000030 9a 93 91 bf 3d 5b 23 40 b8 42 3c 3f 70 47 2d c0
       -1.137317 2.5524437 0.73539305 -2.7074852
000040 c6 59 13 c0 0a e6 4b bf 59 4d 88 c0 08 4c 39 c0
       -2.3023543 -0.79647887 -4.259442 -2.8952656
000050 00 fe 96 bf ea 25 5e c0 4f 8d 72 c0 58 d5 a5 3e
       -1.1796265 -3.471064 -3.7898748 0.3238933
000060 9e ae a9 3e dd 5f 64 bf 37 11 c0 3f 78 53 44 bf
       0.33141035 -0.89208776 1.5005254 -0.76689863
000070 69 67 1a 3d 1a 66 03 c0 06 e1 54 c0 0b 98 f3 3f
       0.037696276 -2.0531068 -3.3262343 1.9030775
000080 ec 64 1c c0 6f 40 c6 3f f9 35 04 bf 0f 75 5b 3e
       -2.4436598 1.5488414 -0.51644856 0.21431373
000090 aa 6d 6b 3f 70 41 5a bf dc 09 59 bf bb 88 cd be
       0.9196421 -0.852561 -0.8478067 -0.4014338
0000a0 26 78 42 bf f3 4f e7 3e 39 d1 7b 3f 09 a5 88 bf
       -0.7596458 0.45178184 0.98366123 -1.0675365
0000b0 f6 7f d2 3f cd a8 25 bf 5c 5e 19 c0 fa 54 d2 bf
       1.64453 -0.64710695 -2.3963842 -1.6432183
0000c0 6f cb c6 3f 9c dd c0 3f 58 93 46 be f7 81 0f 3f
       1.5530833 1.506763 -0.19392145 0.56057686
0000d0 4c bb c9 be d6 d3 96 c0 5c b1 33 c0 f8 f8 a4 3f
       -0.3940071 -4.713359 -2.8077002 1.2888479
0000e0 7f da 42 bf b8 bb 99 bf 8b 32 ac 3e 03 81 54 3f
       -0.7611465 -1.2010412 0.3363231 0.83009356
0000f0 92 eb 4e be ea 4f ab 3f 7f d3 15 3f 1e 6c 17 3e
       -0.2020705 1.3383763 0.5852584 0.14787337
000100 fc db 1f be a4 0c d0 be 2e 5c fb 3f 68 d9 55 c0
       -0.15611261 -0.40634644 1.9637506 -3.3413944
000110 27 b5 cc bf da ec 39 c0 2b 1f 1c 3f b8 c3 27 bf
       -1.5992783 -2.9050813 0.6098506 -0.6553302
000120 ad 95 9c 3f 1a 05 10 40 b7 6d 00 c0 fd 11 2a bf
       1.2233177 2.2503114 -2.0066965 -0.664337
000130 db 78 88 bf 2a 43 2d c0 9d e2 82 bf 7e 5c d1 3e
       -1.0661882 -2.7072244 -1.0225407 0.40890878
000140 18 ab d7 bf 42 4c b1 bf fc 1b 89 bf f5 20 1a bf
       -1.6849089 -1.3851397 -1.0711665 -0.6020654
000150 ce 55 09 40 10 c7 ac bf eb 11 a5 3e b2 2f 3e bc
       2.145862 -1.3498249 0.32240233 -0.011608051
000160 21 a2 c6 bf d7 2e 49 be 7c 7e da bf 0a f9 22 3f
       -1.5518228 -0.19646774 -1.706985 0.63661253
000170 2d 49 f8 bf 27 17 4b bf 1e 32 3a bf d0 a0 db 3f
       -1.9397331 -0.793322 -0.7273272 1.7158451
000180 9f fe 49 c0 d2 19 59 3f 05 8a 00 40 23 67 25 c0
       -3.1561658 0.84805024 2.008424 -2.58442
000190 ee 97 82 3f 3f 7c ec bf 22 07 b8 bf 9a c7 4d bf
       1.0202615 -1.8475417 -1.4377177 -0.8038269
0001a0 0f e4 33 3f 9a 8b 22 3f c7 73 09 3f ed 17 eb 3f
       0.70269865 0.63494265 0.5369229 1.8366677
0001b0 8c 66 ab 3e 7b 75 c3 bd ff 12 b5 bf 61 a6 08 c0
       0.33476675 -0.09543892 -1.4146422 -2.135155
0001c0 cb 25 32 c0 9b 0c 37 bf db 41 12 c0 ef ff a3 3f
       -2.7835567 -0.7150361 -2.2852695 1.281248
0001d0 00 8d 8b 3f 41 34 5f c0 59 0f 1d c0 0a 18 80 bf
       1.0902405 -3.4875643 -2.4540617 -1.0007336
0001e0 48 5d 9e 3e fd 79 5d 3f 47 c7 53 bf c5 ef a1 be
       0.30930543 0.86514264 -0.8272595 -0.31628242
0001f0 d8 e7 ae 3f f5 13 17 40 c5 dd 75 3c 2c 27 ad 3f
       1.3664503 2.360593 0.015006487 1.3527579
000200 fd ac 9b 3e 67 58 8b be 2b 2a 0e c0 6c 7c b6 bb
       0.30405417 -0.27215883 -2.2213237 -0.0055690315
000210 f0 e6 e1 bf d2 ca fc be 5b 98 35 3e ab bc 22 c0
       -1.7648602 -0.4937349 0.177339 -2.5427654
000220 c1 02 a2 bf 4d 6d 4b 3f 64 41 9e 3e fa 14 00 c0
       -1.265709 0.79463655 0.30909264 -2.0012803
000230 96 54 07 bf 6f b8 cd bf c6 c1 b0 bf 93 50 4f be
       -0.5286344 -1.607191 -1.3809135 -0.2024558
000240 d4 7e 1b 3f 6f 32 49 bf 3f de b9 bf af e7 b9 be
       0.607404 -0.7859258 -1.4520949 -0.36309573
000250 65 ad 8b bf eb 3f 8e 3d b2 a9 cb bf 0b 28 95 bf
       -1.0912291 0.06945785 -1.5911162 -1.1652845
000260 1c 96 40 be cb 94 c3 3f 96 ae cd bf 51 e9 50 40
       -0.18807262 1.5279783 -1.6068904 3.2642405
000270 d8 bc 40 40 44 19 54 bf 23 a6 ac 40 48 b1 c5 bf
       3.011526 -0.8285105 5.3952804 -1.5444727
000280 5a f2 83 bf c3 2d 8e 3e dd 34 2f 3f 55 4b e1 3d
       -1.0308335 0.27769288 0.6844004 0.110006966
000290 20 37 f6 be 39 07 1f 3e ce c4 28 40 6d e6 7b 3f
       -0.48088932 0.15530099 2.637012 0.98398477
0002a0 2c b2 3a bf d1 32 8e 3f 42 42 81 3e 47 4f b2 3e
       -0.7292812 1.1109258 0.25245863 0.3482611
0002b0 c8 c5 ba 3f b8 0b ab 3d 46 20 8b 3d a0 d6 c9 bf
       1.4591608 0.083518445 0.06793265 -1.5768623
0002c0 a9 4d 3a 3f 74 8f 8e 3f e4 c7 97 3f db 2d a8 bd
       0.7277475 1.1137528 1.1857877 -0.08211871
0002d0 a7 6a 55 bf ad 18 28 40 3b a5 94 bf c6 25 13 bf
       -0.83365864 2.626506 -1.1612924 -0.5747951
0002e0 ea 54 cb 3f 2d 5b 8e 3f bf 4d 45 bf a3 a4 06 3e
       1.5885289 1.1121575 -0.77071756 0.13148741
0002f0 ff f1 c0 bb 4a 46 d6 3e 64 9f 90 3f 17 a3 e5 3e
       -0.005888223 0.418505 1.1298642 0.4485099
000300 03 2b d1 3e 69 57 f1 be 31 72 82 3e 52 a0 2c c0
       0.40853128 -0.47137 0.25477746 -2.6972852
000310 f1 a5 be bf 09 28 91 bf c2 39 58 bf 71 b2 66 c0
       -1.4894391 -1.1340343 -0.8446313 -3.6046412
000320 5b 26 8f 3e 09 6a 2e 3e 47 d0 ac bf 98 c4 eb 3e
       0.2795895 0.17032637 -1.3501061 0.46048427
000330 bf 8d b2 bf 16 18 9c 3f 79 01 79 be ab f9 0b 40
       -1.3949507 1.219485 -0.24316968 2.1871135
000340 98 98 45 c0 66 11 d4 bd a2 8c e9 bf d0 a7 72 bf
       -3.0874386 -0.10354881 -1.8246043 -0.9478731
000350 2a fc d3 3f 1a 1a ee bf 27 a3 01 c0 6d e0 21 c0
       1.6561329 -1.8601716 -2.025583 -2.5293229
000360 35 0b eb bf 2f c9 99 3f f8 bb b3 be 4d 7c dc bf
       -1.8362795 1.2014521 -0.35104346 -1.7225434
000370 05 81 94 be a6 3f d3 3e b9 5a 11 3f 61 f4 fb 3e
       -0.29004684 0.41259497 0.56779057 0.49209884
000380 c1 c8 22 bf 36 98 ea 3f cc 2f 4a 3f ac 9f 6d 3f
       -0.63587576 1.8327701 0.7897918 0.92821765
000390 7c 26 0b bf 11 09 61 3f f2 16 d8 bf 16 c8 d5 3e
       -0.543556 0.8790446 -1.6882002 0.41754216
0003a0 fe 71 1c 40 cb dc c1 bc a5 d4 aa bf a3 5d 86 3f
       2.4444575 -0.023664853 -1.3346144 1.0497326
0003b0 bf 6d be 3e b6 e4 88 3f 3a b3 43 3c c6 29 8d be
       0.37193105 1.0694797 0.011944586 -0.27570933
0003c0 77 a0 00 3f 4c 3d 62 3f 3e ab 06 c0 1d 8f 01 bf
       0.5024485 0.8837478 -2.1042018 -0.50609
0003d0 76 09 10 bd ef d6 3d c0 0b 16 28 3f 9b d9 04 bd
       -0.035165273 -2.9662435 0.65658635 -0.032434087
0003e0 27 43 48 be 15 ce 7c bf 0d f7 6b 3d 14 df ac be
       -0.19556867 -0.98751956 0.057608653 -0.33763945
0003f0 46 ca a2 bf 92 8a 87 bf 3d f0 da 3f ba bd cd 3f
       -1.2717979 -1.0589163 1.7104565 1.6073525

w_group.0.weight f4 [64, 8]
000000 56 70 3b bd 3c b0 b3 3c 1d ea 67 3e fb 64 8f be
       -0.04576143 0.021934621 0.22647901 -0.2800673
000010 91 2b b1 be 00 11 0f 3d a4 07 ad bd f9 3f d4 3c
       -0.3460355 0.03492832 -0.08448723 0.02590941
000020 1a bf 06 bf a6 cc 55 bf 63 0a ad bf 73 47 8e 3d
       -0.5263535 -0.83515394 -1.3518795 0.069472216
000030 2f a0 33 be a5 d4 5e be 72 97 4c bf f8 6d 66 bf
       -0.17541574 -0.21760805 -0.7991859 -0.9001155
000040 58 f1 3f bf af 07 1e be fa 17 f1 be 11 f3 ae be
       -0.74977636 -0.15432619 -0.47088605 -0.3416982
000050 4a 0a 9d be 34 eb 91 be 11 9d 25 bf 79 d8 63 bf
       -0.30671912 -0.28499758 -0.6469279 -0.89002186
000060 97 46 0d bf 88 ea 4e 3f 53 77 1e 3f a8 1c 48 c0
       -0.55185837 0.80826616 0.61900824 -3.126749
000070 e6 27 03 3f 3e 04 66 3e 94 4e 09 bf 1b c1 b7 3c
       0.51232755 0.22462556 -0.53635526 0.022430947
000080 a2 e8 b3 bd e5 4b 00 bd fc 9f 1f 3f 5e 79 bd 3e
       -0.087846056 -0.03132238 0.6235349 0.37006658
000090 8c a1 a5 3c 5a 00 27 3e e7 c9 6b be 84 7b ae be
       0.020218633 0.16308728 -0.23026238 -0.3407861
0000a0 b5 97 d7 3e 57 55 e2 bc 28 82 82 bf 1a 92 a8 be
       0.4210793 -0.027628584 -1.019597 -0.32923967
0000b0 26 ac 1a c0 17 4c 8e 3e 10 17 fa 3e 91 e2 8e 3b
       -2.416757 0.27792427 0.4884572 0.004360505
0000c0 bc ef 88 bf 2f df c4 3e cf da 3e 3f 19 e1 a1 3f
       -1.0698161 0.38451526 0.74552625 1.2646819
0000d0 6b d9 ca be 8e 80 23 be a5 f8 12 bf 6d 1b a1 be
       -0.39619002 -0.15967008 -0.5741065 -0.31466237
0000e0 ce fe 4c bf b5 db 08 3f 84 71 38 40 04 0b 18 c0
       -0.800763 0.53460246 2.8819284 -2.3756723
0000f0 b7 f5 01 3f 26 a1 5a be e5 eb 2b be d9 e5 1f bf
       0.50765556 -0.21350536 -0.16789205 -0.62460095
000100 f8 f3 f6 bd 8b 67 21 3e a0 2a e6 be 72 09 e0 3e
       -0.12058252 0.15762155 -0.44954395 0.43757206
000110 02 46 c6 be 28 8a 5e be 3e a2 b4 be a5 ca c9 be
       -0.38725287 -0.2173239 -0.3528003 -0.39412418
000120 38 e0 83 3c 27 e7 ae be 66 19 a3 bf 8f 3d a0 bf
       0.016098127 -0.3416073 -1.2742126 -1.2518786
000130 67 c6 02 3f d8 21 fd 3d a3 ce 0a bf 80 62 40 bf
       0.5108399 0.12359971 -0.5422155 -0.751503
000140 9e e6 4a 3f dd ab c2 3d d1 93 1d 3e e3 f3 ae 3f
       0.79258144 0.095054366 0.15388419 1.3668178
000150 b8 7b e3 bf c4 47 b3 bd ad a8 b2 3d 87 80 03 3e
       -1.7772131 -0.087539226 0.087235786 0.12841998
000160 42 1a 9f be 31 e0 8c 3e bf 57 cd 3d 5a b6 06 bf
       -0.3107472 0.27514794 0.10026502 -0.52621996
000170 25 5e 14 bf 40 49 1a 3d c8 8e 56 bf 96 c1 3c bf
       -0.57956153 0.037667513 -0.83811617 -0.7373289
000180 46 ed cf 3f 05 8e 2e bf 0f 2c 23 40 8f 1f 87 bd
       1.6244285 -0.68185455 2.5495641 -0.06597816
000190 33 62 b7 be 76 c9 43 be 04 ef 1f bf b4 88 71 bf
       -0.35817108 -0.1911982 -0.62474084 -0.9434922
0001a0 97 bf 7c 3f 21 a0 bb 3f 85 99 f4 3f 6c 95 a0 3f
       0.9872984 1.4658242 1.910935 1.25456
0001b0 1a 3c 31 be 30 66 fc bc ca c4 3d bf 9a 08 51 bf
       -0.17308083 -0.030810446 -0.741284 -0.8165375
0001c0 a9 ee ef bd 82 52 a5 be 80 a4 fd 3e 76 d2 99 3f
       -0.11715443 -0.3228951 0.49539566 1.2017353
0001d0 c8 a8 b9 be aa 89 22 be 29 68 15 bf 0d ed 44 bf
       -0.36261582 -0.15872827 -0.5836206 -0.7692421
0001e0 5d aa db 3f 90 fd 1b bf 4c 31 63 3f b3 25 0a c0
       1.7161366 -0.6093378 0.88747096 -2.158551
0001f0 d9 78 15 bf de e2 3b 3e 21 2c 00 bf 68 5c 30 bf
       -0.58387524 0.18348262 -0.50067335 -0.68891
000200 c5 b4 3c 3f 62 0d 03 be 11 29 2e c0 6d 3e 87 bd
       0.7371333 -0.12798074 -2.7212565 -0.06603704
000210 d0 02 79 3e 79 86 a3 be 1a 83 d6 bd d4 7d 34 be
       0.24317479 -0.31938532 -0.104742244 -0.17626125
000220 7e 4c 09 3e 2f 1c 6c 3e 52 d5 e0 be 5a 2f 6c bd
       0.13408086 0.23057626 -0.4391275 -0.057662345
000230 68 1a 78 bf c0 29 c8 bd ce d9 e7 be f4 22 b8 be
       -0.9691529 -0.09773588 -0.4528336 -0.35964167
000240 96 dc bd bc 6e 8a dc 3c 9a 38 f9 be ab 04 22 3e
       -0.023176473 0.026921477 -0.48675996 0.15822093
000250 3b 9b 9d bf 80 6d 54 bb 9d 1a 86 bd 36 a4 36 be
       -1.2312998 -0.00324139 -0.06548045 -0.17836079
000260 36 d2 12 bd b3 9d a8 bc 69 4e 6b 3e 0f c5 c8 3e
       -0.035845004 -0.02058301 0.2297913 0.39212844
000270 ec 30 f5 3e aa 22 62 3e c7 6b 96 be 35 43 81 be
       0.47888887 0.22083536 -0.29379103 -0.25246587
000280 f5 d6 90 bf a0 31 92 bf a1 28 8c 3f 76 8a 2d bf
       -1.13156 -1.1421394 1.0949899 -0.677894
000290 c7 30 aa be f6 45 2d 3e 1e 36 08 bf 0d f6 4b bf
       -0.3324034 0.16921219 -0.53207576 -0.7967232
0002a0 f5 70 7a be 3c 25 c2 be 00 fc 13 be 83 4f ed bd
       -0.24457152 -0.37919033 -0.14451599 -0.11587431
0002b0 da 67 1f bf fc fe d9 bd 86 73 44 bf 8e 85 5e bf
       -0.6226784 -0.106443375 -0.76738775 -0.8692254
0002c0 b7 3e 6a 3e ef 1d 90 bd 52 61 9f 3f ce 9a 91 bf
       0.22875486 -0.070369594 1.2451575 -1.1375368
0002d0 22 ac c4 bf 93 65 a4 be ef ca 30 be 44 4e e7 be
       -1.5365031 -0.32108745 -0.17264913 -0.451769
0002e0 90 a2 93 3f 5c 1c 24 3f 6d 1f c9 bf a3 e7 92 bf
       1.1533985 0.6410577 -1.5712715 -1.147694
0002f0 1f 20 23 bf a2 39 40 3e fd 63 f3 be 0b 37 75 be
       -0.6372089 0.18771985 -0.47537223 -0.23946778
000300 0f 31 34 40 2f ba 11 be 26 cc 02 3f 19 58 cb be
       2.8154943 -0.1423118 0.51092756 -0.3971565
000310 1a e6 47 bf 47 1b 95 3e 28 ca 49 3e ee ed 89 3d
       -0.7808548 0.29122373 0.19706023 0.067348346
000320 44 74 2b 3e 7c 3d 76 be 0f f0 69 3f 9e 7b b2 3e
       0.1674357 -0.24046892 0.91381925 0.34859937
000330 1d 23 0d bf d8 6e 68 3d d3 7b 09 bf b5 f6 d7 be
       -0.55131704 0.056746334 -0.53704566 -0.4218041
000340 80 a5 60 3e ee 11 16 3e 31 bb 25 3f d2 1d 3e 3f
       0.21938133 0.14655277 0.64738756 0.7426425
000350 25 5c d7 be 8e b7 5a 3e 2d 13 02 bf 25 31 2d be
       -0.42062488 0.21359083 -0.5081051 -0.16913278
000360 38 c6 16 3f f1 b8 9e 3f e7 87 5d be 66 7e b9 3e
       0.5889621 1.240019 -0.21633874 0.36229247
000370 d4 8f d5 be e0 6f 50 bc 53 df a1 be 67 6b c4 3d
       -0.41711295 -0.012721986 -0.31615695 0.09590798
000380 f9 60 8c 3d f1 0d 14 bf 5f ed 5b bf 42 24 cd bf
       0.068544336 -0.5783377 -0.85909075 -1.602669
000390 f6 ec cc 3e 23 0e b1 be bf 9e 05 bf a3 78 23 bf
       0.40024537 -0.34581098 -0.5219535 -0.6385595
0003a0 a3 ab d1 be ef cb af be e9 0a 44 3f d1 e9 86 bf
       -0.4095126 -0.34335276 0.7657915 -1.0540105
0003b0 6b e3 82 bf 62 bf 45 3e 24 21 3d bf 99 a9 43 bf
       -1.0225652 0.19311288 -0.73878694 -0.7643066
0003c0 5f 16 9e be fd 7d 34 3e 7b d9 45 bf 83 6e 8f c0
       -0.30876443 0.17626186 -0.77284974 -4.48224
0003d0 35 bc d8 be ec fe 05 be 75 ba 54 3e 49 bc 4f 3e
       -0.4233109 -0.13085526 0.20774253 0.20286669
0003e0 54 7a 9d 3d 35 ac e5 be e5 2c 92 bf f4 fd 62 be
       0.07689348 -0.44857946 -1.1419951 -0.22167188
0003f0 41 bb 38 bf d4 25 d2 bd d0 f8 0f bf 40 9b e7 be
       -0.72160727 -0.102611214 -0.5623903 -0.45235634

w_group.0.bias f4 [64]
000000 34 a4 9a be ad 78 76 bf d5 c0 65 bf 50 5b 07 bf
       -0.30203402 -0.96277887 -0.89747363 -0.52873707
000010 52 20 eb be e7 ac 14 be c7 14 a9 be 54 5a 3a bf
       -0.45923096 -0.14519082 -0.33023664 -0.7279408
000020 8e 65 1b bf 73 af fc be 7d 83 3e be 84 b7 7a bf
       -0.60701835 -0.49352607 -0.18604846 -0.9793627
000030 2c bc 67 bf c7 6b 14 bf 37 a4 07 bf 03 a5 0f be
       -0.905215 -0.57976955 -0.52984947 -0.1402779
000040 0d b3 64 be 9e c4 0d be d3 65 12 bf 77 b8 ae 3d
       -0.22333927 -0.13844535 -0.5718662 0.085312776
000050 65 5d 49 bf be b1 61 bf 48 a5 48 bf 29 f4 17 bf
       -0.78658134 -0.8816184 -0.783772 -0.59356934
000060 a5 a2 13 be cd 7d 41 bf 1f a6 f4 be 77 13 58 3d
       -0.14417513 -0.7558258 -0.4778299 0.052752938
000070 c2 03 b4 bd 0b 0d 19 bf ba 52 28 3e 49 41 00 bf
       -0.08789779 -0.59785527 0.16437808 -0.5009962
000080 9d af e9 be e8 0e 2a bf 58 a5 96 be 9e 97 a9 be
       -0.45641795 -0.66428995 -0.29423022 -0.33123487
000090 8a f3 1a bf de 85 d9 3e 10 82 d7 be ed af 06 bf
       -0.6052786 0.42484945 -0.42091417 -0.5261219
0000a0 60 2f 87 3d 6c 3f 19 bf 1a b0 bb be 01 cf a5 be
       0.06600833 -0.598624 -0.36657792 -0.32384494
0000b0 9a ac 5c bb 39 51 24 be a3 f3 96 3c 15 32 01 3e
       -0.0033672214 -0.16046609 0.018426722 0.12616761
0000c0 33 45 8f 3c 3b 62 48 bd c8 76 5a bf 44 f6 35 3e
       0.017489051 -0.048921805 -0.85337496 0.17769724
0000d0 df 0b d3 be b8 9b e2 be cf 48 a7 be 9f 84 a9 be
       -0.41219994 -0.4425943 -0.32672736 -0.33108994
0000e0 68 ab 4b bf 5e ee 9c be ca 27 c1 bc 96 da a6 3d
       -0.7955842 -0.3065061 -0.023578543 0.08147161
0000f0 67 18 82 be 45 e5 ec be de 65 76 bd bd 1b 86 3d
       -0.25409243 -0.4626867 -0.060155742 0.065482594

w_group.2.weight f4 [32, 64]
000000 04 69 bb 3d 31 13 df bd da 39 57 bd 54 f6 ee bd
       0.091508895 -0.10892332 -0.052545406 -0.11668077
000010 f6 14 b9 3c 98 0e ff 3c ec 60 21 be 8f bf de 3b
       0.022593003 0.031134889 -0.15759629 0.006797738
000020 47 4e 5a bd 69 35 95 bc 1c e9 88 bd 3e 8d 86 3d
       -0.053297307 -0.018213945 -0.06685087 0.065699086
000030 2c f5 be bd 28 d2 de bc 35 63 f3 bc 76 be 97 3d
       -0.093241066 -0.02719982 -0.029710392 0.074093744
000040 57 b4 72 bd dd 50 1c be 9f 89 3e 3d 9c 59 0f be
       -0.059254017 -0.15265222 0.046517964 -0.13999027
000050 a5 9c fb bd 34 39 1a be ba ce b7 bd aa 9a f8 bc
       -0.12285737 -0.15060884 -0.08974977 -0.030347187
000060 b3 fb c3 bb 1e 07 9d 3d f0 0d fc bd d2 25 ad 3d
       -0.0059809326 0.07667373 -0.12307346 0.08454479
000070 51 ab 44 3d ef d9 37 bd aa 95 37 3d 5a 3f a4 3d
       0.048014943 -0.044885572 0.044820465 0.08019896
000080 68 24 a4 3c 40 f8 66 bd 96 33 a2 3c 84 1b cf 3c
       0.020036891 -0.056389093 0.019799989 0.025281675
000090 aa f7 45 bd 17 e0 03 3d 31 f3 b3 3d 0a 8e 05 be
       -0.048331894 0.03219613 0.087866195 -0.13042465
0000a0 ae 4f f7 bd 8c 47 c8 3c 5a 45 5f bd 8b 8c 40 be
       -0.120757446 0.024448179 -0.0545095 -0.18803613
0000b0 35 a3 be 3d 91 d6 06 bc 22 e8 43 be c0 07 fe bd
       0.09308473 -0.008229868 -0.1913152 -0.12403822
0000c0 d6 bc 5f be 3b 96 a0 3c 82 e8 cd bb e8 a7 84 3d
       -0.21849379 0.019602885 -0.0062838206 0.06477338
0000d0 3d a4 c3 bc 25 6f b8 3d 20 20 80 bd f1 c2 5a bd
       -0.023882026 0.09005574 -0.06256127 -0.053408567
0000e0 4c de ae 3d bb 50 e4 bd 31 67 8e bd 08 97 dd bd
       0.085384935 -0.111482106 -0.06953276 -0.108198225
0000f0 36 d9 a5 bd 2b 26 1e be 84 f5 92 bd 87 c4 23 be
       -0.0809807 -0.15444247 -0.07175735 -0.15992938
000100 c3 91 08 3d 2a 36 74 3e 74 c1 f1 3e 3f 04 30 3e
       0.033342134 0.23848787 0.47217906 0.1718912
000110 32 7a c0 bd 9d f3 a8 3e 06 6b 35 bf 12 91 99 be
       -0.09398307 0.32998362 -0.7086643 -0.29993492
000120 b0 de 7b be 12 a0 45 3e 14 b5 63 3e 9f ae a3 3e
       -0.24596667 0.19299343 0.22237045 0.31969163
000130 2e 19 12 3f 92 ad 7b 3f 4c d0 f1 3d ba 5f 35 3f
       0.5706967 0.9831172 0.118073076 0.7084919
000140 e6 98 bf 3d 2a cc e0 be 90 63 88 bd b9 6f 02 3c
       0.09355335 -0.43905765 -0.06659615 0.007961207
000150 13 61 0b 3f 9c 42 3a be 41 3f 28 3e 3e fe 36 bc
       0.54445 -0.18189472 0.1643038 -0.0111690145
000160 bb cc 49 bf 85 75 53 bd 14 d8 d9 3e d6 ba 47 3e
       -0.7882802 -0.051625747 0.42547667 0.19504866
000170 54 dc d5 bc 80 80 b0 bc 96 20 b3 bd 10 f6 1c 3e
       -0.026106037 -0.021545649 -0.0874645 0.1532824
000180 9b 09 1e bf 32 00 e2 3e 29 cf 95 bf 2a 78 7a 3d
       -0.61733407 0.44140774 -1.1703845 0.061149754
000190 a5 ac 32 bd 97 1c 9a bf 04 7d 49 3e 93 a1 56 3c
       -0.043621678 -1.2039975 0.19676596 0.013100046
0001a0 08 24 af be bd 74 41 3f d6 b5 00 3e 7c 2e 06 bf
       -0.34207177 0.75568753 0.12569365 -0.5241468
0001b0 74 09 5e be b3 f6 cf bd d4 49 c2 bf 48 06 c3 3d
       -0.21683294 -0.10154476 -1.517878 0.095226824
0001c0 0e ca a4 be dc f0 60 3d c4 f2 6a be 35 f2 29 3f
       -0.32185405 0.0549172 -0.2294417 0.66385204
0001d0 ba 3e 03 be c7 4b 31 3f af de 04 bf 78 c8 75 bf
       -0.12816897 0.6925625 -0.5190229 -0.96009016
0001e0 4d 8b 26 bf 91 ef ab 3d c9 ea 95 bf ce 02 91 be
       -0.65056306 0.08395303 -1.1712276 -0.28322452
0001f0 b6 81 6e 3c a7 86 65 bf ca 98 cb bf f9 79 23 bf
       0.014557293 -0.8965859 -1.5906003 -0.6385799
000200 f1 f4 11 be cb 30 97 bf 40 81 1d bd 2a 06 14 bf
       -0.14253594 -1.1811765 -0.03845334 -0.57821906
000210 55 e9 22 bd c3 4a 25 3d 3a 75 0c be 2d a9 84 be
       -0.039773304 0.0403545 -0.13716593 -0.2591032
000220 00 d2 15 3d 66 1d 3c be 92 d6 4f bd 63 be 4d 3f
       0.036577225 -0.1837059 -0.05074174 0.8036863
000230 ac 98 67 bf 2b 1e 95 3f 68 7d 96 be 56 ea 89 bf
       -0.90467334 1.1649832 -0.29392552 -1.0774639
000240 16 87 a3 3e aa 46 2d be 94 8d 53 3e d9 2b 5f be
       0.31939 -0.16921487 0.20659477 -0.2179407
000250 0b ad 6c c0 52 19 e3 be 8a 6e 26 bf a3 ea fb bf
       -3.6980617 -0.44355255 -0.6501242 -1.968098
000260 98 0c ad 3e 94 bf 92 be a7 dc f0 bc 8d 64 24 3d
       0.3379867 -0.28661788 -0.02940209 0.040134955
000270 0e 51 c6 3d 52 13 c2 3d 02 01 c1 bc 0f a8 58 bf
       0.09683429 0.09476341 -0.02356005 -0.8463144
000280 86 3c 1e bf 7d fe d7 be 28 d8 35 bf 7a 8e a9 bf
       -0.618111 -0.42186347 -0.71032953 -1.3246605
000290 ab f5 d3 bd 81 c9 15 3f b8 d5 00 3a dc 94 ba bd
       -0.10349592 0.58510596 0.0004914659 -0.09110424
0002a0 0f 05 e4 be 9d 64 0f 3e 3b f9 60 3b 54 5b 99 bf
       -0.4453511 0.14003225 0.003432824 -1.1980996
0002b0 71 8e 90 3e d5 8f 03 be 6f 89 93 3e 65 c4 d6 3c
       0.28233674 -0.12847836 0.2881579 0.026216695
0002c0 76 6a 3e 3f 36 1f 64 bf 19 cf ad bd bf 7c 62 bf
       0.74381196 -0.89110124 -0.08486766 -0.884716
0002d0 9a 29 aa bd 68 0f e3 3e 28 d0 cb 3e 20 f1 46 3e
       -0.08308716 0.44347692 0.39807248 0.1942792
0002e0 3e 1f 04 3f 74 e2 d7 3b 6d ce 7a 3e 4a 73 26 bf
       0.5161017 0.0065882746 0.24492808 -0.6501967
0002f0 f1 10 b1 be cb 62 8e bf 46 38 df bd 7f 86 d7 be
       -0.34583238 -1.1123899 -0.10899405 -0.420948
000300 ec 95 6c 3d 94 fb c8 bd fc a9 fa 3d af 06 a3 bb
       0.057760164 -0.0981361 0.12239453 -0.004975162
000310 2d 7c 68 bc 46 f1 01 be e9 a1 06 be 8e dd 11 be
       -0.014189762 -0.12689695 -0.13147701 -0.14244673
000320 97 47 eb bd eb 4b 13 be 3a 1d c8 bd 42 5c 72 3b
       -0.11488264 -0.14384429 -0.097711995 0.003698126
000330 ef 62 98 bd af d8 10 bd 4a 42 e8 bd ae e8 03 bd
       -0.07440745 -0.035362896 -0.11340769 -0.032204323
000340 01 56 4b bd 62 9c 10 36 6a 41 47 bd 14 81 a9 bd
       -0.049642567 2.15487e-06 -0.048646368 -0.08276573
000350 c6 00 85 3d 58 15 4e 3d 41 9d 29 be b4 3b 18 be
       0.06494288 0.050313324 -0.16563894 -0.14866525
000360 d5 1e e6 3c 17 11 38 be 41 88 7f bd b3 0a a1 3c
       0.028090874 -0.1797527 -0.0623858 0.019658422
000370 5f 2c de 3d 71 6d 21 bd 37 b7 ee bd ee 1b 83 3d
       0.10848307 -0.039411012 -0.11656039 0.064018115
000380 7c 78 c7 3c 63 19 ce 3d f8 19 b3 bc ae cb a6 bd
       0.024349444 0.10063436 -0.021862969 -0.081443176
000390 a0 9e 34 3d d4 b4 15 be c9 7d 51 3c 6f 96 1f be
       0.04409659 -0.14619762 0.012786337 -0.1558473
0003a0 b2 4d e1 bd 10 99 ae bd ea 54 2d 3d c3 a2 0e 3c
       -0.11001147 -0.08525288 0.04231731 0.008705798
0003b0 8b 5d 19 bd 9b bd 92 3d ba 8d 29 be 94 58 fe 3d
       -0.037442725 0.071650706 -0.1655797 0.12419239
0003c0 4e 33 74 bd ea ff 96 3d 62 75 b7 3d 90 34 98 ba
       -0.05961924 0.073730305 0.08957936 -0.0011612345
0003d0 97 88 af 3c 77 94 81 3d cb 32 1f be 26 4b 5f bc
       0.021427436 0.063271455 -0.1554672 -0.013628757
0003e0 f8 9d 4a 3d a0 6f 0b 3c b9 b9 11 bd 3a 9a 8e 3c
       0.049467057 0.0085105 -0.03557751 0.017407525
0003f0 fe eb b8 3c c2 76 2f be 00 74 43 3c 7f b1 10 be
       0.022573467 -0.17135146 0.011929512 -0.1413021

w_group.2.bias f4 [32]
000000 a2 34 5b be 50 f5 cc bf 0e 5a 6e 3f f4 94 48 be
       -0.21406797 -1.6012363 0.9310616 -0.19588071
000010 95 e2 9d 3f 9f c9 2c 3d 30 0f 06 bf 59 69 91 bd
       1.2334772 0.04218447 -0.52366924 -0.071001716
000020 ca 23 9c be c9 88 22 c0 82 55 c0 3e 27 bf c9 3f
       -0.30496055 -2.5395987 0.37565237 1.576146
000030 7c 4d f8 3e 1b ce 0e bf 3e 48 09 c0 23 39 cd bf
       0.48496616 -0.5578324 -2.1450343 -1.6033062
000040 26 b1 68 bf 61 fa 54 3f 9b 22 e3 3e 6b 68 17 3d
       -0.9089531 0.8319455 0.4436234 0.036964815
000050 13 35 a7 3d ce 34 4f 3f 1c c2 20 40 bb ce 80 bf
       0.0816442 0.8093995 2.5118475 -1.0063089
000060 5a d6 37 bf b4 fc a9 be 01 fa d2 bf 20 03 c4 bd
       -0.7181145 -0.3320061 -1.6482545 -0.095709085
000070 6b 36 b0 bd 3c 39 27 3f 99 60 58 be de 7a e5 3e
       -0.086041294 0.6532171 -0.21130599 0.44820303

w_agents.0.weight f4 [64, 5]
000000 e9 08 cb 3d 4b e3 84 3d 69 67 3e 3f c3 01 2f 3e
       0.09913809 0.06488665 0.7437654 0.17090516
000010 26 5f 01 3f e0 f1 bb be 8d 11 c4 bd 04 66 3d 3f
       0.5053581 -0.36707973 -0.0957366 0.7398379
000020 ac cd aa 3e d0 44 79 bf 27 63 d4 3d b7 f1 35 bc
       0.3336004 -0.97370625 0.10370474 -0.011104993
000030 6d a2 7b bd ce 17 83 bf f6 66 a2 be f7 d7 d4 bc
       -0.0614342 -1.024164 -0.31719178 -0.025981886
000040 72 e2 55 bb f1 e3 2b bf be 85 97 3f 04 c0 cf bf
       -0.0032636193 -0.67144686 1.183769 -1.6230474
000050 f5 99 86 bd 05 d6 ad bd 3e e0 6c 3f a3 d5 37 bf
       -0.06572334 -0.084880866 0.92529666 -0.7181036
000060 98 02 59 be 09 81 d0 be f1 ca e0 be d2 31 eb 3d
       -0.21192396 -0.40723446 -0.43904832 0.11484112
000070 b1 cf 1e 3d 47 f8 b3 3d 78 04 7c 3e 9e f8 e7 3d
       0.03877229 0.087875895 0.2461108 0.11326717
000080 46 61 51 bf bb 22 06 3f 5e 4a cb be fb 4d e7 3d
       -0.8178905 0.52396744 -0.39705175 0.112941705
000090 58 c2 33 3e 71 2e 86 bf 5a 03 59 3f db a1 7b bf
       0.17554605 -1.0482923 0.8477074 -0.98293847
0000a0 f5 a5 b7 3b 02 b0 32 3c 2f c3 f7 3b b2 9d da be
       0.0056045004 0.010906221 0.0075611095 -0.42698437
0000b0 00 28 2b bf fc a8 e4 bb 35 fc 01 bc 04 9c 9c bd
       -0.6685791 -0.0069781523 -0.007933666 -0.07646945
0000c0 7b 11 7a be b5 94 dc be c1 5f 96 3a 94 67 f1 bb
       -0.24420731 -0.43082204 0.0011472629 -0.007367084
0000d0 f5 95 e9 3d d2 60 94 3d fc 41 02 be 43 6f a4 bd
       0.11405555 0.072450295 -0.12720484 -0.08029034
0000e0 4a 55 ee 3c 76 88 97 3e 02 48 40 be 27 5b 04 bf
       0.029093403 0.295963 -0.18777469 -0.5170159
0000f0 2c 36 a0 3e 11 eb b3 be 04 42 a4 3e 4f c3 c2 be
       0.3129133 -0.3514028 0.32081616 -0.38039634
000100 e3 ee 8a bf 70 fe bf bc bf ed 02 3b 33 74 90 be
       -1.0854152 -0.023436755 0.0019978133 -0.28213653
000110 02 c5 f4 bd a3 96 99 bd 42 cd 46 bc 9e 6b a3 3c
       -0.11951639 -0.07499435 -0.012133898 0.019948777
000120 96 21 19 3e 6a c3 ae 3e de d2 20 bf 60 ee 72 bd
       0.14954218 0.34133464 -0.6282176 -0.059309363
000130 97 ec a4 bd c8 2c 7e 3e c8 ae 9b 3e 7e 7e 52 bf
       -0.080529384 0.2482177 0.30406785 -0.8222426
000140 f7 c4 01 3d bd 16 a1 bd 40 ed f6 be 4e 75 a0 3f
       0.03168198 -0.07865665 -0.48227882 1.2535799
000150 40 c6 a9 bf fb 96 97 bc 67 50 88 bb 1e c5 d9 3d
       -1.3263626 -0.01850461 -0.0041599753 0.106333
000160 1c 73 d2 3e d3 7a f3 be 24 ad fa 3e 3c 37 a2 be
       0.41103446 -0.47554645 0.4896022 -0.31682765
000170 c8 48 b5 3f ec c2 3d 40 20 9d 17 c0 ab 5f 89 3b
       1.4162836 2.965022 -2.3689651 0.0041923127
000180 61 79 22 bb 54 27 c7 bd dd 49 fd bd fd 18 20 bf
       -0.0024791586 -0.09724298 -0.12367604 -0.6253813
000190 53 d4 0f be 5a ca 26 be bb c0 2b 3e 04 92 72 3e
       -0.14045839 -0.16288128 0.1677274 0.23688513
0001a0 1e f0 f9 bf b3 ad 16 3d 1e d6 0b 3d 27 b6 10 3c
       -1.9526403 0.036786746 0.034139745 0.008832491
0001b0 54 cf 86 3f e6 c3 8f bf 57 53 ca bc cc 73 b2 bc
       1.0532022 -1.1231658 -0.024697943 -0.021783732
0001c0 91 3c c5 3d ae 9d 30 be 94 f2 43 bd e3 1a b5 bc
       0.09630693 -0.1724765 -0.047838762 -0.022107547
0001d0 b3 34 38 bb eb 37 81 be e7 09 94 bd e2 83 3c bf
       -0.0028107583 -0.25237975 -0.07228451 -0.7363874
0001e0 44 25 2c 3d f8 72 c0 3c a5 8f a7 bf f6 ee 8f 3e
       0.042027727 0.023492321 -1.3090712 0.28112
0001f0 1d 81 20 bd e5 96 d2 3d b0 79 6c 3e 8c ee 02 3f
       -0.039185632 0.10282687 0.23093295 0.51145244
000200 61 51 9b 3f a7 79 10 bf ba 3e 9e bc 7a b4 28 bc
       1.213421 -0.56435627 -0.01931702 -0.010296935
000210 18 62 dd 3c dd 58 1e be 76 40 76 be ac ab d0 3e
       0.027024314 -0.15463586 -0.24048027 0.40755975
000220 8b b0 0f 3e 6f dd 81 bf fb 2b 32 3f 72 fc 89 bf
       0.1403219 -1.0145701 0.6959836 -1.0780165
000230 63 da ef be f9 fb 98 3e b8 96 29 3f 30 40 a8 3f
       -0.46846303 0.2987974 0.66245604 1.3144588
000240 5b 2f ef bf 0b 86 ac 3e 0d c2 1d bd 1d 3e 60 3f
       -1.8686327 0.33696017 -0.03851514 0.8759478
000250 84 0c 28 3e 3a 4b a1 bf b4 42 92 bd 66 1d 6b bd
       0.16411024 -1.2601082 -0.07141629 -0.057401083
000260 3e d1 4f bf 77 c2 13 3e 8e 8a 6b bf 3c 7a ff 3d
       -0.81178653 0.14429651 -0.9200829 0.12474486
000270 ee 0e 3c bc 3f 5d 33 be 34 84 87 3e dd 4b 71 bf
       -0.011478169 -0.1751604 0.2646805 -0.94256383
000280 32 54 af 3c 25 29 c5 3d f0 02 94 bf 27 19 b7 3f
       0.021402452 0.09626988 -1.1563396 1.4304551
000290 1f e5 24 bf 0a ae c5 3c f1 0f 76 3d fb a4 cd be
       -0.6441211 0.02413084 0.060073797 -0.40164933
0002a0 2b 91 22 3f b2 c7 2d bf 84 84 d1 3b 52 b6 3c 3d
       0.6350276 -0.67882836 0.006393971 0.04607231
0002b0 2b bb bc 3d 1b 2b b6 3d 9a ec 6a bd a9 bc 12 3e
       0.09215387 0.088949405 -0.057354547 0.1432978
0002c0 ba 1e 6b bc e9 0e ab 3e 89 df c5 be 8d 48 80 bf
       -0.0143505875 0.33409813 -0.38647106 -1.0022141
0002d0 b7 ce 9d 3c 0e 75 9f 3c a7 6a f2 bc 1d f1 0c 3f
       0.019263608 0.019464996 -0.029591871 0.5505541
0002e0 ce 97 da be 38 1e 05 3d 66 ed b9 3b 8c e9 cb bf
       -0.42693943 0.032499522 0.005674052 -1.5930648
0002f0 ee fb 4f 3d a9 6d af bf 08 6c c6 bb 56 11 7a bc
       0.05077737 -1.3705341 -0.006055359 -0.015262922
000300 a7 c8 65 bd b8 e9 c5 be 66 81 45 bf 65 ec 89 3d
       -0.05609956 -0.38654876 -0.7715057 0.06734542
000310 e7 77 40 3e 75 59 92 3d 0a a6 8f 3f 2f 19 02 c0
       0.18795739 0.07145969 1.1222546 -2.032787
000320 fe b8 88 3c 69 e9 3a bd 28 35 0e bf f5 28 a2 be
       0.016689774 -0.045632754 -0.5554986 -0.31671873
000330 4e e2 3f bf bc fa ef 3e 35 bf 03 bd 0f 51 e9 be
       -0.7495469 0.46870983 -0.03216477 -0.45569655
000340 8f 08 60 3f 0d 59 07 c0 da 97 06 3e b9 cb 4c bf
       0.8751306 -2.1148102 0.13143864 -0.79998356
000350 c0 03 be 3f 58 b4 00 40 30 d0 86 bf 98 ca ed 3e
       1.4844894 2.0110073 -1.0532284 0.4644363
000360 4d d8 a7 bd 47 41 b7 be 17 7e 28 40 26 37 21 bf
       -0.08195553 -0.3579199 2.632696 -0.62974775
000370 68 8f 7b 3e f8 e3 ea 3d 56 39 8c be 3d 5c cb 3f
       0.24566424 0.11469263 -0.27387494 1.5887524
000380 c0 e9 9b bf 7a 1f aa be 8e 76 12 3f 96 d6 e8 be
       -1.218071 -0.3322714 0.5721215 -0.45476216
000390 db ec 8d 3f 42 54 89 bf c1 e6 d8 be 6b a9 0d be
       1.1087908 -1.0728838 -0.4236355 -0.13834159
0003a0 bc ca 4b bf 61 73 2d 40 a1 54 f8 bf 2b d7 ab bc
       -0.79606223 2.7101672 -1.9400827 -0.020976624
0003b0 e9 05 04 be 2d 76 a5 bf a9 7d a7 3f 74 a2 ca bf
       -0.1289288 -1.2926689 1.3085223 -1.5830827
0003c0 ae 2f f3 be a0 ec 25 bd 8a 0d 1b bf 4a 75 0d 40
       -0.47497314 -0.040508866 -0.60567534 2.2102838
0003d0 1d a1 da bf 7c d9 75 be c3 65 b8 be 20 9c ad 3e
       -1.7080418 -0.24008745 -0.36015138 0.33908176
0003e0 fe a9 4e bf 4b e2 a5 bf 36 ea d7 bc 1a 7f 20 3b
       -0.8072814 -1.2959684 -0.026356798 0.002448982
0003f0 37 c5 cc 3e 64 11 a3 bf e9 f8 5f be 43 ee 1f be
       0.39994213 -1.2739682 -0.21872295 -0.15618233

w_agents.0.bias f4 [64]
000000 cd d5 a4 be d4 33 67 bf 2d 3b df be 04 cd 95 bf
       -0.32194367 -0.9031346 -0.43599835 -1.1703191
000010 69 c2 44 bf 89 02 0f be 89 27 e7 be 3a 60 22 bf
       -0.76859146 -0.13965811 -0.4514735 -0.6342808
000020 01 9e cb be ea f6 4c be 6f e2 1d be 7a 8a 53 bf
       -0.39768985 -0.20016065 -0.15418409 -0.82633173
000030 19 5c b0 bf e3 78 dd be 9e 3e b1 be 28 c2 61 bf
       -1.3778106 -0.43256292 -0.34618086 -0.88186884
000040 5a 34 c6 bf 52 5d d1 be a2 fc 07 c0 5b 91 ea bd
       -1.5484726 -0.4089151 -2.1247945 -0.114535056
000050 9c 31 b3 bf e3 76 88 bf 35 76 03 bf 12 80 46 be
       -1.3999515 -1.0661281 -0.51352245 -0.19384792
000060 d1 a3 3a be af df 0c bf c5 4a b0 be 24 fa 68 bf
       -0.18226553 -0.55028814 -0.34432045 -0.91006684
000070 61 e2 f0 bf f3 59 78 bf e4 26 a0 bf ab 91 6d bf
       -1.8819085 -0.9701225 -1.2511868 -0.92800397
000080 67 b8 d9 be 7e 38 5f bf 84 a1 b3 be a5 73 97 bf
       -0.425235 -0.87195575 -0.35084164 -1.1832167
000090 e7 8d 14 bf 80 27 d6 bf 68 4f 99 be 7e 44 e1 bf
       -0.58029026 -1.6730804 -0.29943395 -1.7599027
0000a0 58 b1 36 bf 49 95 e4 bf d0 6d bf bf e5 64 81 bf
       -0.71364355 -1.7858058 -1.4955387 -1.0108916
0000b0 62 6c c3 bf f8 b4 d5 bf 5d 82 b8 bf ea d2 70 bf
       -1.5267451 -1.6695852 -1.4414784 -0.9407183
0000c0 5e aa 8a bf f3 97 bb bf c0 2d 81 bf f5 6e 9e be
       -1.0833242 -1.4655746 -1.0092087 -0.30944028
0000d0 a0 8f 2a be 16 d4 f2 3d 31 4a 64 bd 6d 67 d3 bf
       -0.16656351 0.118568584 -0.055734817 -1.6515938
0000e0 67 6e 99 bf 77 28 a1 bf 08 5a a9 bf 6f 62 2f bf
       -1.1986817 -1.2590474 -1.32306 -0.6850957
0000f0 e4 cf 08 bf 27 33 c3 bf a1 2d d6 bf 29 0f c8 bd
       -0.53442216 -1.5249985 -1.6732675 -0.097685166

w_agents.2.weight f4 [32, 64]
000000 0a 95 ce 3b 53 8c 16 bd 79 07 45 bd d3 c4 61 bd
       0.006304388 -0.036754917 -0.04810283 -0.055119347
000010 ab b2 b7 bd 65 2b 99 3b c3 2c 03 be 5c c9 81 3d
       -0.08969625 0.0046743625 -0.12810044 0.063372344
000020 3f 0e 58 3d 12 e6 8b bd 69 04 eb bc 7c a7 2b 3d
       0.05274796 -0.06830992 -0.028688626 0.041907772
000030 04 2a 8e bd 39 e4 6c 3d 64 ce 69 3b de 4c f7 3b
       -0.069416076 0.057834838 0.0035675997 0.007547005
000040 e1 74 a2 bd 0e 82 b3 bc c1 e4 d2 bd ed 76 21 be
       -0.07932449 -0.0219126 -0.102975376 -0.15768023
000050 9b c0 40 be c5 0b 08 3c be a3 4e be 75 11 bf bd
       -0.18823473 0.008303587 -0.2017965 -0.093295015
000060 3d e2 1b be f3 d5 50 bb 5a b4 9f bb f8 de a6 bd
       -0.15223022 -0.0031865805 -0.0048737945 -0.08147997
000070 6e 53 b9 bd 81 e5 3f 3d f1 66 a6 3c 9c d3 e6 bc
       -0.09049116 0.04684973 0.020312758 -0.028177075
000080 38 a0 90 b8 e9 0a df bd c1 fc 2c bd ce 54 13 be
       -6.896298e-05 -0.10890753 -0.042233232 -0.14387819
000090 b5 5a e1 bd ca c6 88 bd ba 44 38 be 77 ad 26 bd
       -0.11003629 -0.06678541 -0.17994967 -0.040692773
0000a0 58 65 66 bd 92 32 8a bd 5c 38 2d 3d 28 26 22 3d
       -0.056248993 -0.06747927 0.042290077 0.03958717
0000b0 ac 8e 49 3d bd a1 c5 3c 9b 23 bb bd 7b ca 07 bd
       0.049208328 0.024124974 -0.091376506 -0.033152085
0000c0 f0 3c c9 bd b5 21 1f bb 8e 12 8b bd 9a ed 0e be
       -0.09826076 -0.0024281566 -0.067906484 -0.13957825
0000d0 51 bf c7 bc 5d 2c 05 be 49 16 f1 bc 70 68 c6 bd
       -0.024383219 -0.13005204 -0.029429572 -0.096878886
0000e0 50 98 66 bc 15 0b 50 bd 00 9e a4 bd ca ed 7e 3d
       -0.0140744 -0.05079182 -0.080379486 0.062238492
0000f0 dd 78 eb 3b bb 06 ba 3b 8a 5e ab bd cc 74 97 bd
       0.007186039 0.005677072 -0.08367641 -0.07395324
000100 f1 ef 65 c0 82 93 d0 be b7 55 34 bf 3b c6 ba bf
       -3.5927699 -0.4073754 -0.7044329 -1.4591745
000110 79 13 f2 be f1 fa 44 bf 31 6d 06 bf 8d 61 a0 be
       -0.4728048 -0.76945406 -0.5251036 -0.31324425
000120 0d b9 c4 3d 72 79 82 be ed 67 1f be ac 1e e8 3c
       0.09605608 -0.2548328 -0.15566988 0.028334938
000130 d5 ef 55 bf 28 7d d6 bd a1 c8 39 3e 24 f6 ce bd
       -0.8356908 -0.104730904 0.1814294 -0.10105541
000140 a2 73 58 3e 91 e2 c9 be 63 bf 9f 3f 70 c9 f1 bd
       0.2113786 -0.3943067 1.2480282 -0.11805999
000150 5c fc 06 3d 3c e6 18 3f 79 a8 35 be 21 60 83 3d
       0.032955512 0.5972631 -0.17740048 0.064148195
000160 5d c7 98 bd 1b 8d f5 bc 15 f1 19 be 55 ed c2 bc
       -0.074599005 -0.02997451 -0.15033372 -0.02379481
000170 39 bc 6f bf 8e ca 1b bf d1 d9 b6 bd 33 96 86 be
       -0.9364658 -0.6085595 -0.08928264 -0.26286468
000180 93 b1 20 c0 78 51 e3 bd b9 ff 89 be 5e 1a 48 bf
       -2.5108383 -0.11099523 -0.26952913 -0.78165233
000190 cf 55 7b 39 bb 87 c1 3e 7c bf 98 be eb 18 81 3f
       0.00023969192 0.37798867 -0.2983359 1.0085729
0001a0 c8 41 22 bd 2c f7 34 3f 58 31 65 bf b1 70 10 be
       -0.039613515 0.70689654 -0.8952842 -0.14105488
0001b0 00 78 8a 3e 13 48 c2 3d dd 54 29 bf d7 76 b1 bc
       0.27044678 0.09486403 -0.66145116 -0.021663113
0001c0 5a a5 7e bf 47 d5 94 bf 35 96 bc be 36 c9 0c be
       -0.99471056 -1.1627587 -0.3683335 -0.13748631
0001d0 dd 40 9c be 6b 27 44 bc c5 df 4c be 42 81 a5 be
       -0.30518237 -0.011972289 -0.20007236 -0.32325178
0001e0 a0 29 13 be cc fa c6 3e d6 f3 08 bf de 93 87 3d
       -0.14371347 0.38863218 -0.53497064 0.0662
0001f0 67 ac 2a 3e de 58 fe 3e 73 e9 c6 bd da 1f 6b be
       0.16667329 0.49677175 -0.09712496 -0.22961369
000200 6b 54 0b be 81 c2 c7 bd df 87 69 bd a8 40 89 3d
       -0.13606422 -0.097538956 -0.057014342 0.06701785
000210 33 42 96 bd d4 cb 80 bd ea 25 ed bd b8 1b 1c be
       -0.07336845 -0.06288877 -0.11579497 -0.15244949
000220 db 67 ea bd c4 0f 71 3d 9a ad a0 bc 19 4d 56 bd
       -0.1144559 0.058852926 -0.01961403 -0.05231962
000230 e4 45 a1 bd 14 52 cc bd b5 3a b7 bc 8a a1 50 bc
       -0.07874659 -0.09976593 -0.02236686 -0.012733826
000240 32 0c ac bd 4b 2c 02 be 82 f4 6b 3d f3 f5 63 3d
       -0.084007636 -0.12712209 0.057606228 0.055654477
000250 10 1a 0f 3d 36 c2 11 be 4a d9 b5 3c 32 d5 a7 bd
       0.034936965 -0.14234242 0.022198338 -0.08194961
000260 a7 92 7f 3d d4 7a 1f bd 4c b5 15 be df df 06 3a
       0.062395718 -0.038935497 -0.1461994 0.0005145054
000270 8f b7 49 bd 06 b9 3c be ce ce 9f bd 7e a5 e6 3d
       -0.04924732 -0.18429956 -0.07803117 0.11262034
000280 ed 4c fc bd 96 68 e6 bd 82 e7 88 3c ce dd 6e 3d
       -0.1231936 -0.11250417 0.016711954 0.058317
000290 cf 2b 4f be d7 bb 86 bc f1 4e a9 bd 76 36 68 3b
       -0.20231555 -0.01644699 -0.0826701 0.0035432852
0002a0 41 8d ad bd 11 66 a2 3c c5 69 9e 3c cc b7 16 bd
       -0.08474208 0.01982406 0.019337544 -0.036796376
0002b0 6a ee e0 3d e3 b0 ac bb 32 34 43 bd 4a 54 c8 bc
       0.10982974 -0.00527011 -0.0476572 -0.024454255
0002c0 e9 08 92 bc ff 43 05 bc ca c7 58 3c a5 24 32 3c
       -0.017826514 -0.008133887 0.013231227 0.010872995
0002d0 94 ae 00 be 90 46 db bd 9e 3f 00 be 6e cb c1 3b
       -0.12566596 -0.10706818 -0.12524268 0.0059141433
0002e0 57 83 82 bc c3 9b 0c bd 9d 20 8d 3b da ee 22 bc
       -0.015931768 -0.034328233 0.0043068663 -0.009944642
0002f0 38 17 a0 bc bc 7b 40 3d 20 5b 06 bd 1e c0 2d 3d
       -0.019542322 0.046993002 -0.032801747 0.042419545
000300 24 53 7c be e5 fd 83 be 35 2b 1a be 4f 4a 1c 3d
       -0.2464109 -0.25779644 -0.15055545 0.038156804
000310 9f a7 03 bd 3d f7 73 3d 76 29 51 be 7f 19 e1 3b
       -0.032142278 0.059561957 -0.20425972 0.0068694944
000320 af 5b 81 be 45 6d 7a be 4c 1e 74 be e5 af 2c bd
       -0.25265262 -0.24455746 -0.23839682 -0.042159934
000330 ec 9e 28 be 51 22 48 be 63 24 77 be 5a ff f5 3c
       -0.16466874 -0.1954434 -0.24134974 0.030028988
000340 ff 17 15 bd 4a e6 88 be 8c a5 c5 3d 03 21 33 3d
       -0.036399838 -0.26738197 0.09650716 0.043732654
000350 9e f2 9c 3d a1 e4 3f be f5 65 8b bd 39 ea 29 be
       0.07663463 -0.18739559 -0.06806556 -0.16593255
000360 cf 8f c4 bd 99 73 aa bd 6b f8 1a be c3 73 06 be
       -0.09597742 -0.0832283 -0.15133826 -0.13130097
000370 04 18 88 3d 61 a6 27 be 99 25 9d 3d 3c 30 05 be
       0.066452056 -0.16372062 0.07673187 -0.13006681
000380 65 7b 05 3e 28 cf 65 be 51 2e f0 bd ba 5d 21 be
       0.13035353 -0.22442305 -0.11727584 -0.1575841
000390 97 00 3c 3a d3 4f d2 bc ea ef 32 be 36 f9 b3 bd
       0.0007171719 -0.025672829 -0.17474332 -0.087877676
0003a0 85 b5 04 be 26 3f f3 3d 6b ce bf bd 7f 28 9f ba
       -0.12959869 0.11877279 -0.09365543 -0.0012142806
0003b0 89 05 27 3e 6c 18 b7 3d 59 36 2d bd fe 80 18 bc
       0.16310705 0.08940205 -0.042288158 -0.009308098
0003c0 49 3a 66 be fe ff 72 be 0b e4 99 be 1b e4 04 bd
       -0.22483172 -0.23730466 -0.30056795 -0.0324441
0003d0 8f 4a 8a be 98 4d da bd 95 e6 83 bd b3 f0 dc bd
       -0.2701001 -0.10659331 -0.064404644 -0.10788097
0003e0 e5 ea c8 bc 27 c2 06 bd 78 6b 05 bd 4d a6 0e be
       -0.024526069 -0.0329 -0.032573193 -0.13930626
0003f0 d0 3b a0 bd 80 bd 2a 3e 9b 30 2e be 2e e4 32 bd
       -0.07823908 0.16673851 -0.17010729 -0.04367464

w_agents.2.bias f4 [32]
000000 19 b8 48 be 02 a0 1a bf cf b2 04 be 32 d4 a4 be
       -0.19601478 -0.604004 -0.12958835 -0.32193142
000010 58 23 2f be 8a da 35 bf 7e 9a 4c be a9 03 de be
       -0.17103326 -0.7103659 -0.19980809 -0.43362167
000020 92 99 68 3e 49 b4 7b be 40 02 95 bd c3 42 e4 be
       0.22714832 -0.24580492 -0.0727582 -0.44582185
000030 f3 55 bd be 8a 81 08 bf 06 d1 0e be 27 b9 a5 bc
       -0.36979637 -0.5332266 -0.13946924 -0.02022989
000040 61 b7 39 be 4c ac 2a bd 3e 0a 3b be c0 50 d8 be
       -0.1813636 -0.04166822 -0.18265626 -0.42249107
000050 d2 fe b1 bd eb 8c 8c 3d af 5a b5 bf 45 78 49 bd
       -0.08691181 0.068628155 -1.41683 -0.049186964
000060 72 ae 0a bf cd a9 54 bd b1 76 f0 bd ef fe 01 3d
       -0.5417243 -0.051919747 -0.117413886 0.031737264
000070 0e ad d3 3d 39 f6 a6 be 8f 64 4b 3e b8 97 c6 3e
       0.10335742 -0.32609728 0.19862579 0.38787627

Ws.0 f4 [32, 32]
000000 d4 ef eb be 20 61 df be e0 97 15 3f 06 5a 79 3f
       -0.46081412 -0.43628788 0.5843487 0.9740299
000010 48 96 76 bf 53 42 b4 bc 48 99 6c bf c9 14 a6 be
       -0.9632306 -0.022004282 -0.9242139 -0.32437733
000020 df 3b b4 bf ee 29 a9 3f 60 e8 9c 3f 7e 14 55 3d
       -1.4080771 1.3215921 1.2258415 0.052021496
000030 97 7d cb 3f 82 9a 37 3f da f3 2e 3f 25 c3 f6 3d
       1.5897702 0.71720135 0.6834084 0.120489396
000040 5a 00 c3 3e d6 ba 80 3d 17 0e 8d be 72 26 82 3f
       0.38086206 0.06285636 -0.27549812 1.0167983
000050 79 c0 03 bf f8 30 0e bf 1e ad 16 3e 0c fe 4d 3f
       -0.51465565 -0.5554347 0.14714476 0.8046577
000060 40 3b 2d bf 16 3e c7 bf a8 ef 9a bf 59 c3 7d 3f
       -0.67668533 -1.5565822 -1.2104387 0.991262
000070 e5 fb 84 3f 57 2a 03 40 20 7b 50 3f db ba e7 be
       1.0389372 2.0494592 0.81437874 -0.45259747
000080 c4 60 a8 bd 34 3b 2c 3f 0e 07 17 c0 a8 10 86 3e
       -0.082215816 0.67277837 -2.3598056 0.26184583
000090 ae 28 02 c0 a0 81 4b be 66 57 2a c0 b3 40 bf 3f
       -2.033733 -0.19873667 -2.6615844 1.494162
0000a0 07 33 6b be d1 6e 1e bf c5 97 0f be 0e b5 64 c0
       -0.22968684 -0.6188784 -0.14022739 -3.5735507
0000b0 d0 58 0d be 2b c2 ba bf 87 f5 53 bf 29 c7 f2 bf
       -0.1380341 -1.4590505 -0.8279652 -1.8967029
0000c0 aa c1 15 3f 34 b2 b5 bf 15 c0 b3 bf 65 4e 74 c0
       0.5849863 -1.4195008 -1.4042994 -3.8172848
0000d0 58 cb d8 be 7e 5d 69 bf b6 88 b3 3e 09 2c 71 3d
       -0.4234264 -0.9115828 0.3506524 0.058879886
0000e0 e2 a1 49 be 72 d8 9d bf 7d af 19 3f 9c 19 c8 bf
       -0.1969066 -1.2331679 0.600334 -1.5632815
0000f0 c7 f9 52 3f 98 07 c1 3f 3a 15 36 3f 6a d6 eb 3f
       0.8241238 1.5080442 0.7112614 1.8424809
000100 36 10 b9 be 47 cc 65 3f 7d 47 aa bd 8e ad 86 bf
       -0.3614518 0.8976483 -0.083144166 -1.0521715
000110 57 79 ac 3f 5a 21 14 bf 89 60 13 bb 77 79 dc 3f
       1.347453 -0.5786339 -0.002248796 1.7224568
000120 a6 b7 73 bf 0f 7e 00 40 6e 33 06 c0 bf b2 14 c0
       -0.952021 2.007694 -2.096889 -2.3234098
000130 2b 1c 80 3f 44 90 79 3d 0c 00 cc 3e f1 ab c6 3f
       1.0008596 0.060928598 0.39843786 1.5521222
000140 a8 65 9a bf 80 57 0f c0 52 c8 90 3f 72 5f 94 3f
       -1.2062273 -2.2397156 1.1311133 1.1591628
000150 65 d7 16 3d 2e 68 57 3f 26 7d 97 bf 6a 8a 90 3d
       0.03682651 0.8414334 -1.1835067 0.070576504
000160 eb 23 78 c0 32 16 f0 be 79 56 7f bd 9c 7d aa 3f
       -3.8771923 -0.46891934 -0.062338326 1.3319583
000170 93 a9 97 bd 46 03 65 ba a2 ab fa c0 f6 09 8d 3f
       -0.074053906 -0.00087361445 -7.8334513 1.1018665
000180 52 64 9d bf ee df 03 3e 63 25 50 3d 41 87 d3 3f
       -1.229624 0.12878391 0.050816905 1.6525651
000190 a9 a3 f2 bf cd b8 86 3f 81 86 99 be df 87 56 3e
       -1.8956195 1.0525147 -0.2998543 0.20950268
0001a0 19 21 d6 3d a3 b0 84 bf 03 8b 93 3e 07 13 9a 3e
       0.104555316 -1.0366405 0.28816995 0.30092642
0001b0 a6 ea 03 bf 85 78 86 be 02 88 20 3f eb 66 f0 be
       -0.5152992 -0.26263824 0.6270753 -0.4695352
0001c0 0b 32 05 bf 82 c7 df 3f be 3e 01 bf bf 0f 9c 3f
       -0.52029485 1.748276 -0.5048636 1.2192305
0001d0 8b 4a f8 bf 6e 50 b1 bf c3 89 55 3f 6f 8f b9 3c
       -1.9397749 -1.385267 0.8341333 0.022651402
0001e0 10 f7 68 3e 7a 78 ab 3f 7a 79 d0 3f 41 57 9a 3e
       0.22750497 1.3396142 1.6287072 0.30144694
0001f0 eb 09 53 3e 60 f3 ef bf b0 8f 7b 3f 7f d0 1e 3f
       0.20609252 -1.8746147 0.98266125 0.6203689
000200 60 c5 4d 3e f4 17 89 bf bf 53 38 bf f2 85 3c c0
       0.20094824 -1.0710435 -0.72002786 -2.9456754
000210 47 8a 51 be 1e 7a 84 3f be a1 95 bd e8 a1 78 be
       -0.20462905 1.0349767 -0.073062405 -0.24280512
000220 81 98 71 bf d6 19 50 3f 7c 13 56 be 2d 00 85 3f
       -0.9437333 0.8128942 -0.2090587 1.0390679
000230 8a 49 3e 3c 84 10 f7 bd 19 e3 05 3f 34 4b 56 bf
       0.011614213 -0.12063697 0.5229965 -0.837085
000240 c9 6a df 3e 5e 72 d5 3e cf 00 97 3d 00 18 89 be
       0.43636158 0.41688818 0.07373201 -0.26776123
000250 a8 77 b3 3f ab 8d 3c 3d f3 a8 0d bf 10 3f 56 bf
       1.4020891 0.046033543 -0.5533592 -0.83689976
000260 95 76 61 40 b9 f4 88 3f 36 41 39 bf 0f d5 fe bf
       3.5228627 1.0699683 -0.7236513 -1.990877
000270 97 9a 9a bf 8c c5 bb 3f 4b 08 0b 3f 3a c1 ad bf
       -1.2078427 1.4669662 0.5430953 -1.3574593
000280 91 51 e2 bf 26 45 3e be 49 00 5c 3f 34 a4 7a c0
       -1.7681142 -0.18581066 0.85937935 -3.9162722
000290 a8 07 d8 bf 5b 1a 48 bb 2a a5 20 c0 31 e8 06 c0
       -1.6877337 -0.0030533287 -2.5100808 -2.1079218
0002a0 3d 71 8e 3f 9e b6 b2 3f bc 6b 02 3f a0 74 25 bf
       1.1128308 1.396198 0.5094564 -0.6463108
0002b0 09 ae 5f 3f cb fa 15 3e c1 27 d3 3e 87 e8 3e 3f
       0.8737493 0.14646451 0.41241267 0.7457356
0002c0 da 02 fa bf 2c d0 4d 3f e6 c8 fd 3e 0b 72 4f 3f
       -1.953212 0.8039577 0.49567336 0.8103339
0002d0 1e a5 6f 3e 06 48 bc bf 98 37 b4 bf 33 28 20 c0
       0.23402831 -1.470948 -1.4079466 -2.5024536
0002e0 ea a4 28 3f 06 bc 32 3b de ca 24 bf 41 43 10 bf
       0.6587664 0.0027272715 -0.6437205 -0.5635262
0002f0 92 15 c1 be 21 e9 de 3e a3 69 aa bf 8a 78 59 bf
       -0.3771177 0.43537238 -1.3313488 -0.84949553
000300 f7 4f fe be 25 4b 2d c0 b5 5c c6 bf 30 79 41 bf
       -0.49670383 -2.7077115 -1.5497042 -0.7557554
000310 59 78 36 bf fa 9a 90 c0 c2 24 ad 3e ae 32 a0 bf
       -0.71277386 -4.518918 0.33817106 -1.2515466
000320 9b 05 69 be 9b 34 ad bc 7c ca b5 3f 6a 86 5e 3f
       -0.22756045 -0.021143248 1.4202418 0.8692385
000330 f9 3e b1 3f 5f 1a 4b c0 f7 76 b7 3f da 6b 03 40
       1.3847343 -3.1734846 1.433318 2.0534577
000340 84 1e 0a 40 2e 93 68 3f 50 45 2c be 59 13 be 3f
       2.1581125 0.9084958 -0.16823316 1.4849654
000350 95 ca e1 3e cd fe 09 40 93 aa a3 3f 93 23 a6 bd
       0.4409987 2.1561768 1.278643 -0.08112254
000360 93 0e 16 bf 7a 3b f3 bf 8c 79 47 bf 73 4b 65 c0
       -0.5861599 -1.9002526 -0.7791984 -3.58273
000370 ff 2a ca 3e 6c 7b 83 be d2 4f 55 c0 f1 89 4b c0
       0.39485928 -0.256801 -3.3329968 -3.1802943
000380 ee 5d 3d 3e 23 b1 c4 3e ea 0f 3b bd 4e df 01 3f
       0.18492863 0.38416395 -0.045669474 0.5073136
000390 d5 a1 87 bf 90 d4 c1 bf ea 94 2d 3f 5f 60 92 bf
       -1.0596262 -1.5142994 0.6780535 -1.143566
0003a0 1e 48 c2 3e 79 53 3d 3f ea 9b 14 3d d6 bf 74 be
       0.37945646 0.73955494 0.036281504 -0.23901305
0003b0 87 80 24 3f c1 6b 39 3e e0 bd 94 3f 32 75 54 bf
       0.6425862 0.18107511 1.1620445 -0.82991326
0003c0 84 49 80 bf ff 6b fa 3e ce c8 0d 3e 6c 9e 4e 3d
       -1.0022435 0.4891052 0.13846132 0.05044405
0003d0 23 1a 33 c0 0b f2 fd bf e3 3f 00 40 66 d4 0f c0
       -2.7984703 -1.9839491 2.0038993 -2.2473388
0003e0 b7 79 08 c0 b0 cd 70 bf 7d ab 3d 3e dd 05 8f be
       -2.132429 -0.94063854 0.18522449 -0.2793416
0003f0 d5 6a 6f bf 81 e5 c0 3e ae 4e 4b 3f 91 66 cf 3e
       -0.9352239 0.37675098 0.7941693 0.4050794
