data-3/rl_model_5.pth (torch_old, 93650 bytes, 18 tensors)

w_a f4 [32, 32]
-1.674653 -0.54548985 2.6849513 -1.9371525 0.4796755 -2.2079248 -2.9582949 4.0609746
0.23059258 -0.5445158 -3.639065 2.9821568 -0.86562604 3.0015059 0.70514774 -3.243994
-2.5196779 -0.57838166 -3.8860066 -3.6963365 -1.3933103 -3.2783115 -3.9556603 0.07776066
0.75874895 -1.4771777 1.6710113 -0.5749287 -0.25059128 -2.5393372 -3.1526976 2.047741
-3.389003 1.3431646 -1.1651338 0.30029294 1.2605476 -1.844725 -0.8805932 0.09846134
-1.1917148 0.1535597 0.8176889 -0.29631838 1.809517 0.056167565 -2.5831714 -2.0955758
1.5948666 0.046383336 0.26466173 0.2450785 -0.104344994 -5.0059814 -2.677118 1.0924572
-0.79848313 -1.5581229 -0.7641744 1.747546 0.42429984 0.5772387 0.22478804 -0.17226571
0.29465392 -0.2596674 1.5453966 -4.077467 -1.1654513 -2.9762762 0.5891875 -0.60296595
1.4581711 2.4885921 -1.8278608 -0.56262404 -1.2337831 -3.0593843 -0.7147142 -0.42891505
-1.778439 -1.5234953 -0.7185505 -0.85180306 1.8756927 -1.5639323 0.19601987 -0.87038016
-1.4483914 -0.46460718 -1.9795458 0.9875728 -1.197046 -0.89174056 -0.15262498 1.5608718
-2.856727 0.7004862 1.7735184 -2.923557 1.0131055 -1.386213 -1.5570967 -0.65016013
-0.07404188 -0.14252149 -0.9265255 1.7105881 1.2194272 0.70702577 -1.4627533 -2.395545
-3.0350757 -0.77325183 -1.3448517 0.7312404 1.0627596 -3.4003723 -2.526571 -1.3894012
0.5788938 0.20170332 -0.88955384 0.4044448 1.0568364 2.2993696 -0.00041777617 1.2717597
0.81069225 -0.83514196 -2.5591776 -0.5921322 -1.8520337 -0.18755539 0.5905107 -2.3476467
-2.3478215 0.13241798 0.8705616 -2.4375975 0.24430603 -0.8194113 -1.507237 -1.1831868
0.27739415 -1.0629417 0.056497797 -0.77726007 -0.6143074 0.1337071 -1.901148 -1.6422733
-0.14071473 1.1113281 -2.229771 3.2860723 2.616739 -0.62271446 5.188827 -1.7305546
-0.8924805 -0.054076623 0.38425958 0.11269541 -0.3461684 0.07270346 3.0251179 0.71046287
-0.7279972 1.2847857 -0.0338888 0.21739028 1.4819248 0.2753552 0.2744652 -1.1287242
0.73299253 1.1978985 0.93330336 -0.7881183 -0.6027534 3.080035 -1.4689775 -1.1228682
1.9091955 0.64848256 -0.14622587 -0.33835247 -0.13820378 0.36692446 0.9959105 0.78616446
0.58104146 -0.64125603 0.020033317 -2.673815 -1.5443869 -0.796357 -1.0350335 -3.6540792
-0.16829294 -0.85516596 -2.1693635 0.30522302 -0.9132719 1.6325167 -0.5518975 1.6129842
-3.2662482 1.0313162 -1.3053334 -1.3557035 1.3591908 -1.794703 -2.2352023 -2.5541224
-1.791921 0.8067569 -0.014391827 -1.2620844 -0.7971074 0.40193757 0.09291515 0.1842819
-0.1650595 1.9270909 0.49073997 0.16301641 -0.08922594 0.6640341 -1.4033843 0.64857864
2.1702392 -0.44517604 -1.725828 1.0309103 0.42678547 1.1622359 0.29551587 0.16121013
0.19099411 0.8445323 -2.4474363 -1.0428244 -0.72194374 -3.1869054 0.45176002 -0.0087270485
0.4982221 -0.7670967 0.7410301 -0.2411247 -1.2110199 -1.2627213 2.1168084 2.2548053
00000000: 085b d6bf 39a5 0bbf 3ed6 2b40 9df4 f7bf
00000010: 0798 f53e a44e 0dc0 b454 3dc0 81f3 8140
00000020: 7620 6c3e 6365 0bbf 71e6 68c0 a8db 3e40
00000030: ab99 5dbf ac18 4040 9084 343f 999d 4fc0
00000040: 6742 21c0 d210 14bf 55b4 78c0 c790 6cc0
00000050: fe57 b2bf dbcf 51c0 8a29 7dc0 fb40 9f3d
00000060: 5f3d 423f 2914 bdbf b3e3 d53f 872e 13bf
00000070: 804d 80be 8084 22c0 ccc5 49c0 300e 0340
00000080: 6de5 58c0 d1ec ab3f 1b23 95bf ffbf 993e
00000090: a059 a13f f31f ecbf 8e6e 61bf 19a6 c93d
000000a0: 1c8a 98bf c13e 1d3e 0f54 513f 0bb7 97be
000000b0: 419e e73f f60f 663d ae52 25c0 ea1d 06c0
000000c0: 9724 cc3f 74fc 3d3d be81 873e dcf5 7a3e
000000d0: d4b2 d5bd 0031 a0c0 e755 2bc0 a3d5 8b3f
000000e0: 6469 4cbf 9270 c7bf efa0 43bf 96af df3f
000000f0: d43d d93e eac5 133f d62e 663e 6c66 30be
00000100: e1dc 963e 20f3 84be 8ecf c53f 9c7a 82c0
00000110: 822d 95bf 4f7b 3ec0 fed4 163f fa5b 1abf
00000120: 5aa5 ba3f 1845 1f40 58f7 e9bf 2108 10bf
00000130: 9bec 9dbf f4cc 43c0 83f7 36bf c19a dbbe
00000140: e4a3 e3bf e501 c3bf edf2 37bf c40f 5abf
00000150: b316 f03f ef2e c8bf 6fb9 483e 3cd1 5ebf
00000160: e464 b9bf fee0 edbe c261 fdbf 92d1 7c3f
00000170: ce38 99bf 1c49 64bf b949 1cbe a6ca c73f
00000180: 9dd4 36c0 1053 333f a702 e33f 8f1b 3bc0
00000190: 71ad 813f 6d6f b1bf f24e c7bf e570 26bf
000001a0: 45a3 97bd 27f1 11be c630 6dbf 8df4 da3f
000001b0: 3116 9c3f a4ff 343f 803b bbbf 9c50 19c0
000001c0: ae3e 42c0 d5f3 45bf 1a24 acbf 9232 3b3f
000001d0: 8208 883f b39f 59c0 57b3 21c0 e6d7 b1bf
000001e0: 6232 143f 518b 4e3e cdb9 63bf 6413 cf3e
000001f0: 6a46 873f df28 1340 f808 dbb9 06c9 a23f
00000200: 8789 4f3f ddcb 55bf 91c9 23c0 fa95 17bf
00000210: 710f edbf 850e 40be b62b 173f d83f 16c0
00000220: b542 16c0 9498 073e 20dd 5e3f 9901 1cc0
00000230: 5c2b 7a3e f0c4 51bf 24ed c0bf aa72 97bf
00000240: 9b06 8e3e 790e 88bf 3c6a 673d 84fa 46bf
00000250: 4043 1dbf 84ea 083e d158 f3bf 0336 d2bf
00000260: 8617 10be 0040 8e3f 91b4 0ec0 024f 5240
00000270: a778 2740 376a 1fbf df0a a640 d082 ddbf
00000280: 9a79 64bf 737f 5dbd acbd c43e dacc e63d
00000290: fc3c b1be 8de5 943d 889b 4140 e5e0 353f
000002a0: 065e 3abf dc73 a43f fbce 0abd 8f9b 5e3e
000002b0: b6af bd3f 5bfb 8c3e b486 8c3e 097a 90bf
000002c0: 66a5 3b3f bd54 993f f8ec 6e3f 1fc2 49bf
000002d0: 0c4e 1abf 4b1f 4540 7407 bcbf 25ba 8fbf
000002e0: 8560 f43f f402 263f 3cbc 15be 893c adbe
000002f0: 4b85 0dbe 86dd bb3e fef3 7e3f 1342 493f
00000300: 22bf 143f 5b29 24bf e91c a43c c91f 2bc0
00000310: 78ae c5bf 0dde 4bbf fa7b 84bf 6fdc 69c0
00000320: fc54 2cbe 28ec 5abf dad6 0ac0 3146 9c3e
00000330: 30cc 69bf 4ff6 d03f 2849 0dbf 4476 ce3f
00000340: 360a 51c0 2b02 843f 2a15 a7bf b187 adbf
00000350: f7f9 ad3f d4b8 e5bf 8e0d 0fc0 be76 23c0
00000360: ab5d e5bf 9f87 4e3f b3cb 6bbc fb8b a1bf
00000370: 3b0f 4cbf c3ca cd3e 4c4a be3d 65b4 3c3e
00000380: 5c05 29be eaaa f63f 4542 fb3e c6ed 263e
00000390: 17bc b6bd 24fe 293f 19a2 b3bf 4009 263f
000003a0: 33e5 0a40 1dee e3be efe7 dcbf def4 833f
000003b0: a083 da3e 25c4 943f db4d 973e 4514 253e
000003c0: f693 433e 4533 583f cca2 1cc0 457b 85bf
000003d0: 4ed1 38bf 42f6 4bc0 174d e73e e5fb 0ebc
000003e0: f816 ff3e 7360 44bf 26b4 3d3f 65e9 76be
000003f0: b302 9bbf daa0 a1bf ca79 0740 bb4e 1040

w_group.0.weight f4 [64, 8]
-0.04576143 0.021934621 0.22647901 -0.2800673 -0.3460355 0.03492832 -0.08448723 0.02590941
-0.5263535 -0.83515394 -1.3518795 0.069472216 -0.17541574 -0.21760805 -0.7991859 -0.9001155
-0.74977636 -0.15432619 -0.47088605 -0.3416982 -0.30671912 -0.28499758 -0.6469279 -0.89002186
-1.2834073 0.87691224 0.7977425 -3.3251562 0.04889548 0.22462556 -0.8218442 -0.26314163
-0.087846056 -0.03132238 0.6235349 0.37006658 0.020218633 0.16308728 -0.23026238 -0.3407861
0.5733032 0.0092598945 -1.181163 -0.5418083 -2.687282 0.27792427 0.52997303 0.045875113
-1.2578925 0.68333733 -0.656688 0.45546722 -0.43540847 -0.15967008 -0.7381898 -0.4792685
-1.044526 0.39848107 2.3980548 -2.422054 0.6298295 -0.21350536 -0.08747159 -0.54423463
-0.12058252 0.15762155 -0.44954395 0.43757206 -0.38725287 -0.2173239 -0.3528003 -0.39412418
0.016098127 -0.3416073 -1.2742126 -1.2518786 0.5108399 0.12359971 -0.5422155 -0.751503
1.3247036 -0.017471913 -0.112785645 1.3913388 -2.1117277 -0.087539226 0.015978286 0.057120096
-0.3107472 0.27514794 0.10026502 -0.52621996 -0.57956153 0.037667513 -0.83811617 -0.7373289
1.9310368 -0.552714 2.987264 -0.19322912 -0.15229467 -0.1911982 -0.5419742 -0.8621214
1.0714682 1.5361085 1.7511109 1.1179051 -0.030806506 -0.030810446 -0.6422593 -0.7175349
-0.11715443 -0.3228951 0.49539566 1.2017353 -0.36261582 -0.15872827 -0.5836206 -0.7692421
1.577587 -0.47707385 0.67844534 -2.2057862 -0.7816604 0.18348262 -0.6944398 -0.8791982
1.5858653 -0.07117713 -2.550071 -0.07880548 0.21284798 -0.31938532 -0.07995963 -0.15151669
-0.5786635 0.32084823 -0.87834775 -0.02974337 -0.8773463 -0.09773588 -0.43370843 -0.34087613
-0.023176473 0.026921477 -0.48675996 0.15822093 -1.2312998 -0.00324139 -0.06548045 -0.17836079
-0.035845004 -0.02058301 0.2297913 0.39212844 0.47888887 0.22083536 -0.29379103 -0.25246587
-1.6983491 -1.2069765 0.08210432 -0.67508495 -0.47775438 0.16921219 -0.44514462 -0.70981586
-0.24457152 -0.37919033 -0.14451599 -0.11587431 -0.6226784 -0.106443375 -0.76738775 -0.8692254
0.22875486 -0.070369594 1.2451575 -1.1375368 -1.5365031 -0.32108745 -0.17264913 -0.451769
1.153221 0.7589706 -0.9730228 -1.263774 -0.41373572 0.18771985 -0.58575195 -0.34974512
3.6695495 -0.1482779 0.5335517 -0.2677763 -1.1033652 0.29122373 0.22168955 0.09197259
0.1674357 -0.24046892 0.91381925 0.34859937 -0.55131704 0.056746334 -0.53704566 -0.4218041
0.21938133 0.14655277 0.64738756 0.7426425 -0.42062488 0.21359083 -0.5081051 -0.16913278
1.0369536 1.1762128 0.12343005 0.15799372 -0.5279636 -0.012721986 -0.13317426 0.27888262
0.13457282 -0.5769604 -0.7405021 -1.6683985 0.33044368 -0.34581098 -0.5610816 -0.67786604
-0.4095126 -0.34335276 0.7657915 -1.0540105 -1.0225652 0.19311288 -0.73878694 -0.7643066
-0.54776293 0.14399526 -0.60237896 -4.7935543 -0.3558611 -0.13085526 0.1977321 0.19283332
0.07689348 -0.44857946 -1.1419951 -0.22167188 -0.72160727 -0.102611214 -0.5623903 -0.45235634
00000000: 5670 3bbd 3cb0 b33c 1dea 673e fb64 8fbe
00000010: 912b b1be 0011 0f3d a407 adbd f93f d43c
00000020: 1abf 06bf a6cc 55bf 630a adbf 7347 8e3d
00000030: 2fa0 33be a5d4 5ebe 7297 4cbf f86d 66bf
00000040: 58f1 3fbf af07 1ebe fa17 f1be 11f3 aebe
00000050: 4a0a 9dbe 34eb 91be 119d 25bf 79d8 63bf
00000060: b146 a4bf 527d 603f da38 4c3f 5ccf 54c0
00000070: a046 483d 3e04 663e 6264 52bf 80ba 86be
00000080: a2e8 b3bd e54b 00bd fc9f 1f3f 5e79 bd3e
00000090: 8ca1 a53c 5a00 273e e7c9 6bbe 847b aebe
000000a0: 00c4 123f d0b6 173c 5930 97bf f3b3 0abf
000000b0: 6efc 2bc0 174c 8e3e 50ac 073f 8be7 3b3d
000000c0: 9f02 a1bf 32ef 2e3f b41c 28bf 0033 e93e
000000d0: dced debe 8e80 23be 02fa 3cbf ae62 f5be
000000e0: 07b3 85bf b605 cc3e bb79 1940 ef02 1bc0
000000f0: 823c 213f 26a1 5abe 4e24 b3bd f652 0bbf
00000100: f8f3 f6bd 8b67 213e a02a e6be 7209 e03e
00000110: 0246 c6be 288a 5ebe 3ea2 b4be a5ca c9be
00000120: 38e0 833c 27e7 aebe 6619 a3bf 8f3d a0bf
00000130: 67c6 023f d821 fd3d a3ce 0abf 8062 40bf
00000140: e38f a93f 4221 8fbc 29fc e6bd 6417 b23f
00000150: 8c26 07c0 c447 b3bd e5e4 823c c3f6 693d
00000160: 421a 9fbe 31e0 8c3e bf57 cd3d 5ab6 06bf
00000170: 255e 14bf 4049 1a3d c88e 56bf 96c1 3cbf
00000180: 372c f73f aa7e 0dbf 552f 3f40 dbdd 45be
00000190: 22f3 1bbe 76c9 43be d2be 0abf fdb3 5cbf
000001a0: df25 893f 349f c43f 6724 e03f 8417 8f3f
000001b0: ed5d fcbc 3066 fcbc 1b6b 24bf 5eb0 37bf
000001c0: a9ee efbd 8252 a5be 80a4 fd3e 76d2 993f
000001d0: c8a8 b9be aa89 22be 2968 15bf 0ded 44bf
000001e0: 5fee c93f 0643 f4be 98ae 2d3f 9a2b 0dc0
000001f0: e51a 48bf dee2 3b3e cfc6 31bf 2213 61bf
00000200: a2fd ca3f 51c5 91bd 5d34 23c0 c464 a1bd
00000210: d2f4 593e 7986 a3be e0c1 a3bd 3127 1bbe
00000220: 4b23 14bf 3846 a43e 66db 60bf 5ea8 f3bc
00000230: c499 60bf c029 c8bd 080f debe 5187 aebe
00000240: 96dc bdbc 6e8a dc3c 9a38 f9be ab04 223e
00000250: 3b9b 9dbf 806d 54bb 9d1a 86bd 36a4 36be
00000260: 36d2 12bd b39d a8bc 694e 6b3e 0fc5 c83e
00000270: ec30 f53e aa22 623e c76b 96be 3543 81be
00000280: 8163 d9bf 357e 9abf 4f26 a83d 5ed2 2cbf
00000290: 399c f4be f645 2d3e ffe9 e3be 7eb6 35bf
000002a0: f570 7abe 3c25 c2be 00fc 13be 834f edbd
000002b0: da67 1fbf fcfe d9bd 8673 44bf 8e85 5ebf
000002c0: b73e 6a3e ef1d 90bd 5261 9f3f ce9a 91bf
000002d0: 22ac c4bf 9365 a4be efca 30be 444e e7be
000002e0: bf9c 933f e64b 423f 0618 79bf 59c3 a1bf
000002f0: 2bd5 d3be a239 403e d7f3 15bf cb11 b3be
00000300: e6d9 6a40 29d6 17be d896 083f fa19 89be
00000310: 123b 8dbf 471b 953e 9602 633e 205c bc3d
00000320: 4474 2b3e 7c3d 76be 0ff0 693f 9e7b b23e
00000330: 1d23 0dbf d86e 683d d37b 09bf b5f6 d7be
00000340: 80a5 603e ee11 163e 31bb 253f d21d 3e3f
00000350: 255c d7be 8eb7 5a3e 2d13 02bf 2531 2dbe
00000360: e5ba 843f 248e 963f e5c8 fc3d 1bc9 213e
00000370: 9f28 07bf e06f 50bc d55e 08be b4c9 8e3e
00000380: 75cd 093e adb3 13bf 8c91 3dbf 158e d5bf
00000390: ea2f a93e 230e b1be 0ba3 0fbf a188 2dbf
000003a0: a3ab d1be efcb afbe e90a 443f d1e9 86bf
000003b0: 6be3 82bf 62bf 453e 2421 3dbf 99a9 43bf
000003c0: 313a 0cbf 7e73 133e 8235 1abf cc64 99c0
000003d0: 6d33 b6be ecfe 05be 497a 4a3e 1976 453e
000003e0: 547a 9d3d 35ac e5be e52c 92bf f4fd 62be
000003f0: 41bb 38bf d425 d2bd d0f8 0fbf 409b e7be

w_group.0.bias f4 [64]
-0.30203402 -0.96277887 -0.89747363 -0.81431514 -0.45923096 -0.103678465 -0.49484283 -0.64757735
-0.60701835 -0.49352607 -0.25734878 -0.9793627 -0.82384354 -0.48076713 -0.52984947 -0.33056986
-0.19859599 -0.119681194 -0.5718662 0.085312776 -0.6996745 -0.8816184 -0.783772 -0.7038628
-0.119550385 -0.7558258 -0.4778299 0.23572789 -0.12720726 -0.59785527 0.15434442 -0.5009962
-0.45641795 -0.66428995 -0.26168466 -0.41076088 -0.6052786 0.48384693 -0.42091417 -0.5261219
0.050153095 -0.598624 -0.5189987 -0.28231117 -0.033369515 -0.16046609 -0.06357757 0.12616761
-0.018078571 -0.048921805 -0.85337496 0.19681177 -0.41219994 -0.4425943 -0.24190144 -0.3066106
-0.7955842 -0.3065061 0.0015518814 0.07416414 -0.42082813 -0.65364844 -0.06024094 0.18555051
00000000: 34a4 9abe ad78 76bf d5c0 65bf f576 50bf
00000010: 5220 ebbe 6055 d4bd 0a5c fdbe a1c7 25bf
00000020: 8e65 1bbf 73af fcbe 38c3 83be 84b7 7abf
00000030: 69e7 52bf 1c27 f6be 37a4 07bf 7440 a9be
00000040: bf5c 4bbe 6a1b f5bd d365 12bf 77b8 ae3d
00000050: de1d 33bf beb1 61bf 48a5 48bf 5a30 34bf
00000060: d5d6 f4bd cd7d 41bf 1fa6 f4be a762 713e
00000070: 9f42 02be 0b0d 19bf 770c 1e3e 4941 00bf
00000080: 9daf e9be e80e 2abf 88fb 85be 404f d2be
00000090: 8af3 1abf c9ba f73e 1082 d7be edaf 06bf
000000a0: 556d 4d3d 6c3f 19bf 19dd 04bf 178b 90be
000000b0: 79ae 08bd 3951 24be f534 82bd 1532 013e
000000c0: 8319 94bc 3b62 48bd c876 5abf 0689 493e
000000d0: df0b d3be b89b e2be 03b5 77be 11fc 9cbe
000000e0: 68ab 4bbf 5eee 9cbe 8068 cb3a 5ee3 973d
000000f0: c976 d7be 8155 27bf 34bf 76bd f400 3e3e

w_group.2.weight f4 [32, 64]
0.091508895 -0.10892332 -0.052545406 -0.11668077 0.022593003 0.031134889 -0.15759629 0.006797738
-0.053297307 -0.018213945 -0.06685087 0.065699086 -0.093241066 -0.02719982 -0.029710392 0.074093744
-0.059254017 -0.15265222 0.046517964 -0.13999027 -0.12285737 -0.15060884 -0.08974977 -0.030347187
-0.0059809326 0.07667373 -0.12307346 0.08454479 0.048014943 -0.044885572 0.044820465 0.08019896
0.020036891 -0.056389093 0.019799989 0.025281675 -0.048331894 0.03219613 0.087866195 -0.13042465
-0.120757446 0.024448179 -0.0545095 -0.18803613 0.09308473 -0.008229868 -0.1913152 -0.12403822
-0.21849379 0.019602885 -0.0062838206 0.06477338 -0.023882026 0.09005574 -0.06256127 -0.053408567
0.085384935 -0.111482106 -0.06953276 -0.108198225 -0.0809807 -0.15444247 -0.07175735 -0.15992938
0.033342134 0.23848787 0.47217906 0.1718912 -0.09398307 0.32998362 -0.7086643 -0.29993492
-0.24596667 0.19299343 0.22237045 0.31969163 0.5706967 0.9831172 0.118073076 0.7084919
0.09355335 -0.43905765 -0.06659615 0.007961207 0.54445 -0.18189472 0.1643038 -0.0111690145
-0.7882802 -0.051625747 0.42547667 0.19504866 -0.026106037 -0.021545649 -0.0874645 0.1532824
-0.61733407 0.44140774 -1.1703845 0.061149754 -0.043621678 -1.2039975 0.19676596 0.013100046
-0.34207177 0.75568753 0.12569365 -0.5241468 -0.21683294 -0.10154476 -1.517878 0.095226824
-0.32185405 0.0549172 -0.2294417 0.66385204 -0.12816897 0.6925625 -0.5190229 -0.96009016
-0.65056306 0.08395303 -1.1712276 -0.28322452 0.014557293 -0.8965859 -1.5906003 -0.6385799
-0.14253594 -1.1811765 -0.03845334 -0.6392833 -0.039773304 0.09646001 -0.14188448 -0.30726138
0.036577225 -0.1837059 -0.117508724 0.8036863 -1.4407214 0.8124534 -0.29392552 -1.0179809
-0.010171392 -0.08957346 0.20659477 -0.2179407 -4.045617 -0.44355255 -0.6501242 -2.166558
0.35515305 -0.28661788 -0.02940209 -0.14885959 0.016204406 0.09476341 -0.43214014 -0.8463144
-0.618111 -0.42186347 -0.52964544 -1.8327142 -0.10349592 0.4347915 0.0004914659 -0.09110424
-0.37288955 0.14003225 -0.10131045 -1.4118986 -0.31675482 -0.12847836 0.11384647 0.026216695
0.711225 -0.89110124 -0.08486766 -0.5602539 -0.08308716 0.44347692 0.0036612211 0.27426395
0.5161017 0.0065882746 0.35028195 -0.1980428 -0.8534899 -0.68685985 -0.045050275 -0.5212314
0.057760164 -0.0981361 0.12239453 -0.004975162 -0.014189762 -0.12689695 -0.13147701 -0.14244673
-0.11488264 -0.14384429 -0.097711995 0.003698126 -0.07440745 -0.035362896 -0.11340769 -0.032204323
-0.049642567 2.15487e-06 -0.048646368 -0.08276573 0.06494288 0.050313324 -0.16563894 -0.14866525
0.028090874 -0.1797527 -0.0623858 0.019658422 0.10848307 -0.039411012 -0.11656039 0.064018115
0.024349444 0.10063436 -0.021862969 -0.081443176 0.04409659 -0.14619762 0.012786337 -0.1558473
-0.11001147 -0.08525288 0.04231731 0.008705798 -0.037442725 0.071650706 -0.1655797 0.12419239
-0.05961924 0.073730305 0.08957936 -0.0011612345 0.021427436 0.063271455 -0.1554672 -0.013628757
0.049467057 0.0085105 -0.03557751 0.017407525 0.022573467 -0.17135146 0.011929512 -0.1413021
00000000: 0469 bb3d 3113 dfbd da39 57bd 54f6 eebd
00000010: f614 b93c 980e ff3c ec60 21be 8fbf de3b
00000020: 474e 5abd 6935 95bc 1ce9 88bd 3e8d 863d
00000030: 2cf5 bebd 28d2 debc 3563 f3bc 76be 973d
00000040: 57b4 72bd dd50 1cbe 9f89 3e3d 9c59 0fbe
00000050: a59c fbbd 3439 1abe bace b7bd aa9a f8bc
00000060: b3fb c3bb 1e07 9d3d f00d fcbd d225 ad3d
00000070: 51ab 443d efd9 37bd aa95 373d 5a3f a43d
00000080: 6824 a43c 40f8 66bd 9633 a23c 841b cf3c
00000090: aaf7 45bd 17e0 033d 31f3 b33d 0a8e 05be
000000a0: ae4f f7bd 8c47 c83c 5a45 5fbd 8b8c 40be
000000b0: 35a3 be3d 91d6 06bc 22e8 43be c007 febd
000000c0: d6bc 5fbe 3b96 a03c 82e8 cdbb e8a7 843d
000000d0: 3da4 c3bc 256f b83d 2020 80bd f1c2 5abd
000000e0: 4cde ae3d bb50 e4bd 3167 8ebd 0897 ddbd
000000f0: 36d9 a5bd 2b26 1ebe 84f5 92bd 87c4 23be
00000100: c391 083d 2a36 743e 74c1 f13e 3f04 303e
00000110: 327a c0bd 9df3 a83e 066b 35bf 1291 99be
00000120: b0de 7bbe 12a0 453e 14b5 633e 9fae a33e
00000130: 2e19 123f 92ad 7b3f 4cd0 f13d ba5f 353f
00000140: e698 bf3d 2acc e0be 9063 88bd b96f 023c
00000150: 1361 0b3f 9c42 3abe 413f 283e 3efe 36bc
00000160: bbcc 49bf 8575 53bd 14d8 d93e d6ba 473e
00000170: 54dc d5bc 8080 b0bc 9620 b3bd 10f6 1c3e
00000180: 9b09 1ebf 3200 e23e 29cf 95bf 2a78 7a3d
00000190: a5ac 32bd 971c 9abf 047d 493e 93a1 563c
000001a0: 0824 afbe bd74 413f d6b5 003e 7c2e 06bf
000001b0: 7409 5ebe b3f6 cfbd d449 c2bf 4806 c33d
000001c0: 0eca a4be dcf0 603d c4f2 6abe 35f2 293f
000001d0: ba3e 03be c74b 313f afde 04bf 78c8 75bf
000001e0: 4d8b 26bf 91ef ab3d c9ea 95bf ce02 91be
000001f0: b681 6e3c a786 65bf ca98 cbbf f979 23bf
00000200: f1f4 11be cb30 97bf 4081 1dbd 12a8 23bf
00000210: 55e9 22bd d38c c53d 2a4a 11be 5d51 9dbe
00000220: 00d2 153d 661d 3cbe 6aa8 f0bd 63be 4d3f
00000230: 8f69 b8bf f2fc 4f3f 687d 96be 334d 82bf
00000240: e9a5 26bc 4a72 b7bd 948d 533e d92b 5fbe
00000250: b275 81c0 5219 e3be 8a6e 26bf e3a8 0ac0
00000260: 9fd6 b53e 94bf 92be a7dc f0bc a66e 18be
00000270: 1abf 843c 5213 c23d 7941 ddbe 0fa8 58bf
00000280: 863c 1ebf 7dfe d7be d896 07bf 6196 eabf
00000290: abf5 d3bd fe9c de3e b8d5 003a dc94 babd
000002a0: 61eb bebe 9d64 0f3e da7b cfbd 18b9 b4bf
000002b0: b02d a2be d58f 03be 5728 e93d 65c4 d63c
000002c0: d712 363f 361f 64bf 19cf adbd cd6c 0fbf
000002d0: 9a29 aabd 680f e33e 19f1 6f3b 536c 8c3e
000002e0: 3e1f 043f 74e2 d73b 2858 b33e bbcb 4abe
000002f0: 507e 5abf 0cd6 2fbf a386 38bd 6c6f 05bf
00000300: ec95 6c3d 94fb c8bd fca9 fa3d af06 a3bb
00000310: 2d7c 68bc 46f1 01be e9a1 06be 8edd 11be
00000320: 9747 ebbd eb4b 13be 3a1d c8bd 425c 723b
00000330: ef62 98bd afd8 10bd 4a42 e8bd aee8 03bd
00000340: 0156 4bbd 629c 1036 6a41 47bd 1481 a9bd
00000350: c600 853d 5815 4e3d 419d 29be b43b 18be
00000360: d51e e63c 1711 38be 4188 7fbd b30a a13c
00000370: 5f2c de3d 716d 21bd 37b7 eebd ee1b 833d
00000380: 7c78 c73c 6319 ce3d f819 b3bc aecb a6bd
00000390: a09e 343d d4b4 15be c97d 513c 6f96 1fbe
000003a0: b24d e1bd 1099 aebd ea54 2d3d c3a2 0e3c
000003b0: 8b5d 19bd 9bbd 923d ba8d 29be 9458 fe3d
000003c0: 4e33 74bd eaff 963d 6275 b73d 9034 98ba
000003d0: 9788 af3c 7794 813d cb32 1fbe 264b 5fbc
000003e0: f89d 4a3d a06f 0b3c b9b9 11bd 3a9a 8e3c
000003f0: feeb b83c c276 2fbe 0074 433c 7fb1 10be

w_group.2.bias f4 [32]
-0.21406797 -1.6012363 0.6852719 -0.19588071 1.1748025 0.23935 -0.61575663 -0.17056331
-0.24490878 -2.5875392 0.32787353 1.6369355 0.31442645 -0.59081316 -2.5596569 -1.6169031
-0.9846342 0.9564887 0.49507555 -0.047527175 0.40266892 0.89998925 2.4897819 -0.9389148
-0.7181145 -0.699089 -1.7613206 -0.095709085 -0.086041294 0.4993799 -0.21130599 0.50962573
00000000: a234 5bbe 50f5 ccbf fb6d 2f3f f494 48be
00000010: ee5f 963f 2b18 753e 3aa2 1dbf 26a8 2ebe
00000020: 5ec9 7abe 3e9a 25c0 0adf a73e 1a87 d13f
00000030: 81fc a03e 883f 17bf 6bd1 23c0 aef6 cebf
00000040: fd10 7cbf 72dc 743f 8b7a fd3e dbab 42bd
00000050: 9f2a ce3e b265 663f 9658 1f40 b85c 70bf
00000060: 5ad6 37bf 7ff7 32bf f472 e1bf 2003 c4bd
00000070: 6b36 b0bd b9ae ff3e 9960 58be d576 023f

w_agents.0.weight f4 [64, 5]
-0.006149594 0.035778172 0.6315306 0.33387598 0.62986076 -0.42962968 -0.3272476 1.0869049
0.35399753 -0.93841815 0.10755593 0.003050884 0.019433055 -1.0189441 -0.41500404 -0.025981886
-0.0032636193 -0.67144686 1.183769 -1.6230474 0.042136207 -0.15076983 0.9831638 -0.70880187
-0.24974395 -0.28500518 -0.3477665 0.08559248 0.0726965 0.041356266 0.048709698 0.16123393
-0.99148935 0.469656 -0.47484794 0.119645625 0.14749528 -1.201477 1.279519 -1.0693791
0.0056045004 0.010906221 0.0075611095 -0.42698437 -0.6685791 -0.0069781523 -0.007933666 -0.07646945
-0.24420731 -0.43082204 0.0011472629 -0.007367084 0.11405555 0.072450295 -0.12720484 -0.08029034
0.029093403 0.295963 -0.18777469 -0.5170159 0.3743138 -0.63961154 0.2453621 -0.19949977
-1.0732303 -0.023436755 0.0019978133 -0.28213653 -0.11951639 -0.07499435 -0.012133898 0.019948777
0.14954218 0.34133464 -0.6282176 -0.059309363 -0.080529384 0.2482177 0.30406785 -0.8222426
0.03168198 -0.07865665 -0.48227882 1.2535799 -1.3263626 -0.01850461 -0.0041599753 0.106333
0.41103446 -0.47554645 0.12845153 0.016712585 1.837505 3.42005 -2.1331844 0.0041923127
-0.0024791586 -0.09724298 -0.12367604 -0.6253813 -0.14045839 -0.16288128 0.1677274 0.23688513
-1.9526403 0.036786746 0.034139745 0.008832491 1.0532022 -1.1231658 -0.024697943 -0.021783732
0.09630693 -0.1724765 -0.047838762 -0.022107547 -0.0028107583 -0.25237975 -0.07228451 -0.7363874
0.07446575 0.041282456 -1.307147 0.401221 0.1015262 0.075150415 0.0732035 0.5990768
1.2263372 -0.72732735 -0.01931702 -0.010296935 0.027024314 -0.15463586 -0.24048027 0.54566735
0.102444656 -0.7593517 0.7426132 -1.1108927 -0.26061895 0.070028394 -0.028172985 1.3637702
-2.1193962 0.473533 0.01632007 0.7981218 0.25819436 -1.2153757 -0.07141629 -0.057401083
-0.81178653 0.14429651 -0.9200829 0.12474486 -0.011478169 -0.1751604 0.2646805 -0.94256383
-0.05794148 0.16203216 -1.2361902 1.5005059 -0.8057732 0.02413084 0.060073797 -0.40164933
0.6350276 -0.67882836 0.006393971 0.04607231 0.09215387 0.088949405 -0.057354547 0.1432978
-0.0143505875 0.33409813 -0.38647106 -1.0022141 0.019263608 0.019464996 -0.029591871 0.5505541
-0.42693943 0.032499522 0.005674052 -1.5930648 0.05077737 -1.3705341 -0.006055359 -0.015262922
-0.05609956 -0.38654876 -0.7715057 0.06734542 0.18795739 0.07145969 1.1222546 -2.032787
0.016689774 -0.045632754 -0.5554986 -0.31671873 -0.7495469 0.50111526 -0.085089825 -0.409238
1.6708747 -2.179118 0.21696454 -0.65732634 1.4851453 1.9366581 -1.1354074 0.0063687656
0.4398356 -0.6110704 2.5413163 -0.75824445 0.3411733 0.5845997 1.2119801 1.8154987
-1.4986788 -0.37587687 0.76809907 -0.19098684 0.7676626 -1.19106 -0.34460285 -0.18037862
-1.213193 2.9036329 -1.7860975 0.033758886 -0.11024948 -1.1444532 1.1676662 -1.9692408
-0.4353499 -0.08000456 -0.59230864 2.184206 -1.9516846 -0.042214762 -0.23423916 0.074258916
-0.66183066 -1.5281484 0.049843933 0.03324832 0.17170085 -1.3739337 -0.21746956 -0.10845363
00000000: 8982 c9bb 228c 123d fdab 213f cbf1 aa3e
00000010: 8e3e 213f 6cf8 dbbe ff8c a7be b31f 8b3f
00000020: 2a3f b53e 2c3c 70bf 4946 dc3d 57f1 473b
00000030: 1232 9f3c c36c 82bf 697b d4be f7d7 d4bc
00000040: 72e2 55bb f1e3 2bbf be85 973f 04c0 cfbf
00000050: 0497 2c3d 6863 1abe 9fb0 7b3f 0a74 35bf
00000060: e1bc 7fbe 33ec 91be 730e b2be 1c4b af3d
00000070: e7e1 943d 3065 293d d283 473d 821a 253e
00000080: 3fd2 7dbf c076 f03e 451f f3be c408 f53d
00000090: 0109 173e 00ca 99bf 47c7 a33f 6ae1 88bf
000000a0: f5a5 b73b 02b0 323c 2fc3 f73b b29d dabe
000000b0: 0028 2bbf fca8 e4bb 35fc 01bc 049c 9cbd
000000c0: 7b11 7abe b594 dcbe c15f 963a 9467 f1bb
000000d0: f595 e93d d260 943d fc41 02be 436f a4bd
000000e0: 4a55 ee3c 7688 973e 0248 40be 275b 04bf
000000f0: 0fa6 bf3e 95bd 23bf 3440 7b3e ab49 4cbe
00000100: 9c5f 89bf 70fe bfbc bfed 023b 3374 90be
00000110: 02c5 f4bd a396 99bd 42cd 46bc 9e6b a33c
00000120: 9621 193e 6ac3 ae3e ded2 20bf 60ee 72bd
00000130: 97ec a4bd c82c 7e3e c8ae 9b3e 7e7e 52bf
00000140: f7c4 013d bd16 a1bd 40ed f6be 4e75 a03f
00000150: 40c6 a9bf fb96 97bc 6750 88bb 1ec5 d93d
00000160: 1c73 d23e d37a f3be cc88 033e d5e8 883c
00000170: 5d33 eb3f 19e2 5a40 1886 08c0 ab5f 893b
00000180: 6179 22bb 5427 c7bd dd49 fdbd fd18 20bf
00000190: 53d4 0fbe 5aca 26be bbc0 2b3e 0492 723e
000001a0: 1ef0 f9bf b3ad 163d 1ed6 0b3d 27b6 103c
000001b0: 54cf 863f e6c3 8fbf 5753 cabc cc73 b2bc
000001c0: 913c c53d ae9d 30be 94f2 43bd e31a b5bc
000001d0: b334 38bb eb37 81be e709 94bd e283 3cbf
000001e0: 8081 983d cb17 293d 9850 a7bf d76c cd3e
000001f0: f8ec cf3d 76e8 993d b7eb 953d 195d 193f
00000200: 9ef8 9c3f 2032 3abf ba3e 9ebc 7ab4 28bc
00000210: 1862 dd3c dd58 1ebe 7640 76be dbb0 0b3f
00000220: 81ce d13d df64 42bf e61b 3e3f bb31 8ebf
00000230: d96f 85be 0c6b 8f3d 08cb e6bc 0690 ae3f
00000240: 30a4 07c0 eb72 f23e abb1 853c b651 4c3f
00000250: 0d32 843e 6e91 9bbf b442 92bd 661d 6bbd
00000260: 3ed1 4fbf 77c2 133e 8e8a 6bbf 3c7a ff3d
00000270: ee0e 3cbc 3f5d 33be 3484 873e dd4b 71bf
00000280: 0c54 6dbd c2eb 253e 7b3b 9ebf 9410 c03f
00000290: 2747 4ebf 0aae c53c f10f 763d fba4 cdbe
000002a0: 2b91 223f b2c7 2dbf 8484 d13b 52b6 3c3d
000002b0: 2bbb bc3d 1b2b b63d 9aec 6abd a9bc 123e
000002c0: ba1e 6bbc e90e ab3e 89df c5be 8d48 80bf
000002d0: b7ce 9d3c 0e75 9f3c a76a f2bc 1df1 0c3f
000002e0: ce97 dabe 381e 053d 66ed b93b 8ce9 cbbf
000002f0: eefb 4f3d a96d afbf 086c c6bb 5611 7abc
00000300: a7c8 65bd b8e9 c5be 6681 45bf 65ec 893d
00000310: e777 403e 7559 923d 0aa6 8f3f 2f19 02c0
00000320: feb8 883c 69e9 3abd 2835 0ebf f528 a2be
00000330: 4ee2 3fbf 1749 003f 9343 aebd a587 d1be
00000340: 39df d53f ab76 0bc0 f42b 5e3e 8a46 28bf
00000350: 3e19 be3f 6ae4 f73f 0855 91bf 14b1 d03b
00000360: 2232 e13e 1c6f 1cbf eda4 2240 4f1c 42bf
00000370: 44ae ae3e 53a8 153f 2a22 9b3f 4362 e83f
00000380: b5d4 bfbf ef72 c0be 24a2 443f 0e92 43be
00000390: 8985 443f a774 98bf c96f b0be 2cb5 38be
000003a0: e949 9bbf 1fd5 3940 d89e e4bf c246 0a3d
000003b0: 7bca e1bd 717d 92bf 1676 953f 1510 fcbf
000003c0: 2fe6 debe 6ed9 a3bd 8aa1 17bf 08ca 0b40
000003d0: cdd0 f9bf 63e9 2cbd 64dc 6fbe 0f15 983d
000003e0: bc6d 29bf 5e9a c3bf 2729 4c3d 642f 083d
000003f0: 59d2 2f3e 0fdd afbf 57b0 5ebe f01c debd

w_agents.0.bias f4 [64]
-0.1974108 -0.8676313 -0.5338342 -1.1703191 -0.8064265 -0.18613376 -0.529194 -0.7206604
-0.39768985 -0.20016065 -0.15418409 -0.82633173 -1.3655684 -0.43256292 -0.34618086 -0.88186884
-1.5484726 -0.4089151 -1.8872887 -0.114535056 -1.3999515 -1.0661281 -0.51352245 -0.19384792
-0.04153643 -0.71242577 -0.34432045 -0.9433766 -2.165559 -0.92521966 -1.2511868 -0.92800397
-0.58689475 -0.87195575 -0.35084164 -1.1832167 -0.58029026 -1.6730804 -0.29943395 -1.7599027
-0.71364355 -1.8481437 -1.577712 -1.1400782 -1.7996556 -1.7878388 -1.2871155 -1.3263443
-1.3271985 -1.6969529 -1.007957 -0.38653448 -0.16656351 0.21344644 -0.05046922 -1.6515938
-1.2497659 -1.4306694 -1.5616122 -0.7374895 -0.53442216 -1.5249985 -1.4880278 -0.09394271
00000000: 0f26 4abe 161d 5ebf 5ca9 08bf 04cd 95bf
00000010: f871 4ebf d999 3ebe 4279 07bf 337d 38bf
00000020: 019e cbbe eaf6 4cbe 6fe2 1dbe 7a8a 53bf
00000030: f2ca aebf e378 ddbe 9e3e b1be 28c2 61bf
00000040: 5a34 c6bf 525d d1be ad92 f1bf 5b91 eabd
00000050: 9c31 b3bf e376 88bf 3576 03bf 1280 46be
00000060: 1b22 2abd 8961 36bf c54a b0be 2181 71bf
00000070: 8598 0ac0 32db 6cbf e426 a0bf ab91 6dbf
00000080: bc3e 16bf 7e38 5fbf 84a1 b3be a573 97bf
00000090: e78d 14bf 8027 d6bf 684f 99be 7e44 e1bf
000000a0: 58b1 36bf f98f ecbf 78f2 c9bf 15ee 91bf
000000b0: 1d5b e6bf e7d7 e4bf 33c0 a4bf a6c5 a9bf
000000c0: a4e1 a9bf c135 d9bf bc04 81bf d9e7 c5be
000000d0: a08f 2abe b491 5a3e d0b8 4ebd 6d67 d3bf
000000e0: 54f8 9fbf 2d20 b7bf e9e2 c7bf 1dcc 3cbf
000000f0: e4cf 08bf 2733 c3bf b277 bebf 0965 c0bd

w_agents.2.weight f4 [32, 64]
0.006304388 -0.036754917 -0.04810283 -0.055119347 -0.08969625 0.0046743625 -0.12810044 0.063372344
0.05274796 -0.06830992 -0.028688626 0.041907772 -0.069416076 0.057834838 0.0035675997 0.007547005
-0.07932449 -0.0219126 -0.102975376 -0.15768023 -0.18823473 0.008303587 -0.2017965 -0.093295015
-0.15223022 -0.0031865805 -0.0048737945 -0.08147997 -0.09049116 0.04684973 0.020312758 -0.028177075
-6.896298e-05 -0.10890753 -0.042233232 -0.14387819 -0.11003629 -0.06678541 -0.17994967 -0.040692773
-0.056248993 -0.06747927 0.042290077 0.03958717 0.049208328 0.024124974 -0.091376506 -0.033152085
-0.09826076 -0.0024281566 -0.067906484 -0.13957825 -0.024383219 -0.13005204 -0.029429572 -0.096878886
-0.0140744 -0.05079182 -0.080379486 0.062238492 0.007186039 0.005677072 -0.08367641 -0.07395324
-3.65714 -0.4073754 -0.7044329 -1.4591745 -0.4728048 -0.76945406 -0.59797746 -0.3833512
0.09605608 -0.2548328 -0.15566988 0.028334938 -0.9028305 -0.104730904 0.1814294 -0.10105541
0.2113786 -0.3943067 1.1578802 -0.11805999 0.032955512 0.5972631 -0.17740048 0.064148195
-0.07553782 -0.11080751 -0.15033372 -0.10636542 -0.9364658 -0.6787753 -0.08928264 -0.26286468
-2.5443776 -0.11099523 -0.26952913 -0.78165233 0.00023969192 0.37798867 -0.2983359 1.0085729
-0.039613515 0.61944234 -0.98303974 -0.2286075 0.19222729 0.09486403 -0.66145116 -0.021663113
-0.99471056 -1.1627587 -0.3683335 -0.19659996 -0.30518237 -0.09964676 -0.20007236 -0.32325178
-0.14371347 0.34758875 -0.53497064 0.0662 0.16667329 0.49677175 -0.118125506 -0.3185391
-0.16590253 -0.097538956 -0.088673495 0.06701785 -0.07336845 -0.06288877 -0.11579497 -0.15244949
-0.1144559 0.058852926 -0.01961403 -0.05231962 -0.11049609 -0.09976593 -0.02236686 -0.012733826
-0.084007636 -0.12712209 0.025853055 0.055654477 0.034936965 -0.14234242 0.022198338 -0.08194961
0.031282023 -0.038935497 -0.1461994 -0.031206788 -0.04924732 -0.18429956 -0.07803117 0.11262034
-0.1231936 -0.11250417 0.016711954 0.058317 -0.20231555 -0.01644699 -0.0826701 0.0035432852
-0.08474208 -0.011927463 -0.012408992 -0.036796376 0.10982974 -0.00527011 -0.0476572 -0.024454255
-0.017826514 -0.008133887 0.013231227 0.010872995 -0.12566596 -0.13879701 -0.12524268 0.0059141433
-0.015931768 -0.034328233 0.0043068663 -0.009944642 -0.019542322 0.046993002 -0.032801747 0.01065911
-0.2464109 -0.25779644 -0.15055545 0.038156804 -0.032142278 0.059561957 -0.20425972 0.0068694944
-0.25265262 -0.24455746 -0.23839682 -0.042159934 -0.16466874 -0.1954434 -0.24134974 0.030028988
-0.036399838 -0.26738197 0.09650716 0.043732654 0.07663463 -0.18739559 -0.06806556 -0.16593255
-0.09597742 -0.0832283 -0.15133826 -0.13130097 0.066452056 -0.16372062 0.07673187 -0.13006681
0.13035353 -0.22442305 -0.11727584 -0.1575841 0.0007171719 -0.025672829 -0.17474332 -0.087877676
-0.12959869 0.11877279 -0.09365543 -0.0012142806 0.16310705 0.08940205 -0.042288158 -0.009308098
-0.22483172 -0.23730466 -0.30056795 -0.0324441 -0.2701001 -0.10659331 -0.064404644 -0.10788097
-0.024526069 -0.0329 -0.032573193 -0.13930626 -0.07823908 0.16673851 -0.17010729 -0.04367464
00000000: 0a95 ce3b 538c 16bd 7907 45bd d3c4 61bd
00000010: abb2 b7bd 652b 993b c32c 03be 5cc9 813d
00000020: 3f0e 583d 12e6 8bbd 6904 ebbc 7ca7 2b3d
00000030: 042a 8ebd 39e4 6c3d 64ce 693b de4c f73b
00000040: e174 a2bd 0e82 b3bc c1e4 d2bd ed76 21be
00000050: 9bc0 40be c50b 083c bea3 4ebe 7511 bfbd
00000060: 3de2 1bbe f3d5 50bb 5ab4 9fbb f8de a6bd
00000070: 6e53 b9bd 81e5 3f3d f166 a63c 9cd3 e6bc
00000080: 38a0 90b8 e90a dfbd c1fc 2cbd ce54 13be
00000090: b55a e1bd cac6 88bd ba44 38be 77ad 26bd
000000a0: 5865 66bd 9232 8abd 5c38 2d3d 2826 223d
000000b0: ac8e 493d bda1 c53c 9b23 bbbd 7bca 07bd
000000c0: f03c c9bd b521 1fbb 8e12 8bbd 9aed 0ebe
000000d0: 51bf c7bc 5d2c 05be 4916 f1bc 7068 c6bd
000000e0: 5098 66bc 150b 50bd 009e a4bd caed 7e3d
000000f0: dd78 eb3b bb06 ba3b 8a5e abbd cc74 97bd
00000100: 950e 6ac0 8293 d0be b755 34bf 3bc6 babf
00000110: 7913 f2be f1fa 44bf 0d15 19bf 9c46 c4be
00000120: 0db9 c43d 7279 82be ed67 1fbe ac1e e83c
00000130: e61f 67bf 287d d6bd a1c8 393e 24f6 cebd
00000140: a273 583e 91e2 c9be 6b35 943f 70c9 f1bd
00000150: 5cfc 063d 3ce6 183f 79a8 35be 2160 833d
00000160: 93b3 9abd 0cef e2bd 15f1 19be 1dd6 d9bd
00000170: 39bc 6fbf 38c4 2dbf d1d9 b6bd 3396 86be
00000180: 15d7 22c0 7851 e3bd b9ff 89be 5e1a 48bf
00000190: cf55 7b39 bb87 c13e 7cbf 98be eb18 813f
000001a0: c841 22bd c693 1e3f 7ea8 7bbf 1618 6abe
000001b0: 3bd7 443e 1348 c23d dd54 29bf d776 b1bc
000001c0: 5aa5 7ebf 47d5 94bf 3596 bcbe 8051 49be
000001d0: dd40 9cbe 9a13 ccbd c5df 4cbe 4281 a5be
000001e0: a029 13be 27f7 b13e d6f3 08bf de93 873d
000001f0: 67ac 2a3e de58 fe3e c9eb f1bd 8f17 a3be
00000200: 5ae2 29be 81c2 c7bd 739a b5bd a840 893d
00000210: 3342 96bd d4cb 80bd ea25 edbd b81b 1cbe
00000220: db67 eabd c40f 713d 9aad a0bc 194d 56bd
00000230: c64b e2bd 1452 ccbd b53a b7bc 8aa1 50bc
00000240: 320c acbd 4b2c 02be c9c9 d33c f3f5 633d
00000250: 101a 0f3d 36c2 11be 4ad9 b53c 32d5 a7bd
00000260: 9421 003d d47a 1fbd 4cb5 15be 61a5 ffbc
00000270: 8fb7 49bd 06b9 3cbe cece 9fbd 7ea5 e63d
00000280: ed4c fcbd 9668 e6bd 82e7 883c cedd 6e3d
00000290: cf2b 4fbe d7bb 86bc f14e a9bd 7636 683b
000002a0: 418d adbd 686b 43bc 164f 4bbc ccb7 16bd
000002b0: 6aee e03d e3b0 acbb 3234 43bd 4a54 c8bc
000002c0: e908 92bc ff43 05bc cac7 583c a524 323c
000002d0: 94ae 00be ce20 0ebe 9e3f 00be 6ecb c13b
000002e0: 5783 82bc c39b 0cbd 9d20 8d3b daee 22bc
000002f0: 3817 a0bc bc7b 403d 205b 06bd 8ca3 2e3c
00000300: 2453 7cbe e5fd 83be 352b 1abe 4f4a 1c3d
00000310: 9fa7 03bd 3df7 733d 7629 51be 7f19 e13b
00000320: af5b 81be 456d 7abe 4c1e 74be e5af 2cbd
00000330: ec9e 28be 5122 48be 6324 77be 5aff f53c
00000340: ff17 15bd 4ae6 88be 8ca5 c53d 0321 333d
00000350: 9ef2 9c3d a1e4 3fbe f565 8bbd 39ea 29be
00000360: cf8f c4bd 9973 aabd 6bf8 1abe c373 06be
00000370: 0418 883d 61a6 27be 9925 9d3d 3c30 05be
00000380: 657b 053e 28cf 65be 512e f0bd ba5d 21be
00000390: 9700 3c3a d34f d2bc eaef 32be 36f9 b3bd
000003a0: 85b5 04be 263f f33d 6bce bfbd 7f28 9fba
000003b0: 8905 273e 6c18 b73d 5936 2dbd fe80 18bc
000003c0: 493a 66be feff 72be 0be4 99be 1be4 04bd
000003d0: 8f4a 8abe 984d dabd 95e6 83bd b3f0 dcbd
000003e0: e5ea c8bc 27c2 06bd 786b 05bd 4da6 0ebe
000003f0: d03b a0bd 80bd 2a3e 9b30 2ebe 2ee4 32bd

w_agents.2.bias f4 [32]
-0.19601478 -0.68419856 -0.16133396 -0.32193142 -0.17103326 -0.7103659 -0.19980809 -0.47378352
0.13252744 -0.24580492 -0.04499041 -0.44582185 -0.48886937 -0.5888225 -0.13946924 0.048600625
-0.1813636 -0.34705514 -0.18265626 -0.42249107 -0.07307179 0.099538736 -1.41683 -0.04337134
-0.5417243 -0.02080427 -0.1488886 -0.008680431 0.12208252 -0.3997402 0.14235805 0.15810138
00000000: 19b8 48be a327 2fbf bb34 25be 32d4 a4be
00000010: 5823 2fbe 8ada 35bf 7e9a 4cbe c193 f2be
00000020: 46b5 073e 49b4 7bbe dd47 38bd c342 e4be
00000030: 164d fabe 12bd 16bf 06d1 0ebe 7311 473d
00000040: 61b7 39be 36b1 b1be 3e0a 3bbe c050 d8be
00000050: aaa6 95bd f7da cb3d af5a b5bf 25a6 31bd
00000060: 72ae 0abf b76d aabc 4176 18be 5e38 0ebc
00000070: 6606 fa3d bfaa ccbe 4fc6 113e 54e5 213e

Ws.0 f4 [32, 32]
-0.46081412 -0.43628788 0.5843487 0.9740299 -0.9632306 -0.022004282 -0.9242139 -0.32437733
-1.4080771 1.3215921 1.2258415 0.052021496 1.5897702 0.71720135 0.6834084 0.120489396
0.38086206 0.06285636 -0.27549812 1.0167983 -0.51465565 -0.5554347 0.14714476 0.8046577
-0.67668533 -1.5565822 -1.2104387 0.991262 1.0389372 2.0494592 0.81437874 -0.45259747
-0.082215816 0.71788955 -2.4232836 0.26184583 -2.033733 -0.13071766 -2.6615844 1.4988347
-0.27656868 -0.5926041 -0.14022739 -3.5735507 -0.20787044 -1.4590505 -0.88562393 -1.8458087
0.5849863 -1.4195008 -1.4042994 -3.7834866 -0.4234264 -0.9115828 0.3506524 0.058879886
-0.1969066 -1.2331679 0.593113 -1.5130247 0.8241238 1.4338146 0.7112614 1.916877
0.21156909 1.2391626 -0.24391344 -0.77834094 1.4218574 -0.752099 0.39268467 1.8883251
-0.2624512 1.7397882 -1.850606 -1.5517306 1.1032243 0.18994677 0.14917976 0.95366424
-0.47491902 -2.0863175 0.881674 0.7825104 0.30870375 1.1400374 -1.7118255 0.10542965
-6.049649 -1.1884592 -0.517081 1.4144541 0.07171739 -0.035919372 -8.519972 1.248609
-1.229624 0.12878391 0.050816905 1.6525651 -1.8956195 1.0525147 -0.2998543 0.20950268
0.104555316 -1.0366405 0.28816995 0.30092642 -0.5152992 -0.26263824 0.6270753 -0.4695352
-0.52029485 1.748276 -0.5048636 1.2192305 -1.9397749 -1.385267 0.8341333 0.022651402
0.22750497 1.3396142 1.6287072 0.30144694 0.20609252 -1.8746147 0.98266125 0.6203689
0.31619203 -1.4143375 -0.25720868 -2.3763046 -0.23795436 1.1558188 0.022717018 -0.20162539
-0.6034532 0.6055966 0.8254737 1.0231473 -0.27165878 0.21949665 0.4621236 -1.430135
0.5102277 0.50377697 0.32038572 -0.573617 1.1138732 -0.27660492 -1.2262484 -0.7341695
3.403146 0.69992 -0.75345826 -2.55832 -1.1145747 2.0811114 0.7316481 -1.0769778
-2.1516216 0.13737491 1.0879275 -4.9670486 -1.5987558 -0.27207053 -1.570171 -2.470018
1.4270566 1.5493845 0.07582086 -0.94956154 0.77603483 -0.018316824 0.4961725 0.63706505
-3.215952 0.7404415 0.77273375 0.8895412 0.2930343 -1.4293739 -1.4996376 -2.5724273
0.18283528 0.22741158 -0.7756474 -0.4315274 -0.5451777 0.25792158 -1.2588573 -0.82022864
-0.38306147 -3.0127811 -2.006479 -1.6173028 -1.1617471 -4.331362 1.0149422 -0.6036912
1.2025455 -0.24179177 1.133422 0.92572385 0.5488537 -3.1660757 0.93029916 1.434565
3.8220906 1.0264609 -0.16805291 2.3502383 -0.16541126 2.2000105 0.40274873 -0.85861856
-0.6835497 -1.9901931 -0.7722139 -3.8491013 -0.33115926 -0.64450234 -2.476696 -2.8043559
-0.2647284 0.059820313 -0.37081313 0.22479744 -0.0374555 -1.2745184 0.8696293 -2.0510755
0.28173867 0.9746447 -0.45838752 -0.024535196 0.75466615 0.26760855 1.0035853 0.44767547
-0.8612877 0.7443831 -0.5846835 -0.18825866 -2.5335197 -1.5433785 2.1310155 -1.2989677
-1.761929 -0.2785961 0.41390643 -0.87439066 -0.9276323 0.31382778 1.0655104 0.70449775
00000000: d4ef ebbe 2061 dfbe e097 153f 065a 793f
00000010: 4896 76bf 5342 b4bc 4899 6cbf c914 a6be
00000020: df3b b4bf ee29 a93f 60e8 9c3f 7e14 553d
00000030: 977d cb3f 829a 373f daf3 2e3f 25c3 f63d
00000040: 5a00 c33e d6ba 803d 170e 8dbe 7226 823f
00000050: 79c0 03bf f830 0ebf 1ead 163e 0cfe 4d3f
00000060: 403b 2dbf 163e c7bf a8ef 9abf 59c3 7d3f
00000070: e5fb 843f 572a 0340 207b 503f dbba e7be
00000080: c460 a8bd 9cc7 373f 1417 1bc0 a810 863e
00000090: ae28 02c0 dada 05be 6657 2ac0 d1d9 bf3f
000000a0: 699a 8dbe e7b4 17bf c597 0fbe 0eb5 64c0
000000b0: fddb 54be 2bc2 babf 40b8 62bf 7643 ecbf
000000c0: aac1 153f 34b2 b5bf 15c0 b3bf a524 72c0
000000d0: 58cb d8be 7e5d 69bf b688 b33e 092c 713d
000000e0: e2a1 49be 72d8 9dbf 41d6 173f cbaa c1bf
000000f0: c7f9 523f 3d87 b73f 3a15 363f 3a5c f53f
00000100: 91a5 583e e19c 9e3f 72c4 79be 5a41 47bf
00000110: 6cff b53f 8f89 40bf f70d c93e a3b4 f13f
00000120: 0160 86be 61b1 de3f a8e0 ecbf 1c9f c6bf
00000130: 7436 8d3f 6881 423e 94c2 183e 5723 743f
00000140: 9628 f3be 3a86 05c0 63b5 613f 9a52 483f
00000150: 6b0e 9e3e bfec 913f 191d dbbf 80eb d73d
00000160: b996 c1c0 6e1f 98bf 6c5f 04bf d50c b53f
00000170: 91e0 923d 3120 13bd ce51 08c1 6bd2 9f3f
00000180: 5264 9dbf eedf 033e 6325 503d 4187 d33f
00000190: a9a3 f2bf cdb8 863f 8186 99be df87 563e
000001a0: 1921 d63d a3b0 84bf 038b 933e 0713 9a3e
000001b0: a6ea 03bf 8578 86be 0288 203f eb66 f0be
000001c0: 0b32 05bf 82c7 df3f be3e 01bf bf0f 9c3f
000001d0: 8b4a f8bf 6e50 b1bf c389 553f 6f8f b93c
000001e0: 10f7 683e 7a78 ab3f 7a79 d03f 4157 9a3e
000001f0: eb09 533e 60f3 efbf b08f 7b3f 7fd0 1e3f
00000200: ece3 a13e 0309 b5bf dbb0 83be 6015 18c0
00000210: 4faa 73be dff1 933f 0a19 ba3c e376 4ebe
00000220: e97b 1abf 6108 1b3f 3f52 533f 7ef6 823f
00000230: dc16 8bbe bbc3 603e 779b ec3e aa0e b7bf
00000240: 489e 023f 87f7 003f 9909 a43e 90d8 12bf
00000250: 6693 8e3f 299f 8dbe b5f5 9cbf 88f2 3bbf
00000260: 25cd 5940 f52d 333f a4e2 40bf 84bb 23c0
00000270: 62aa 8ebf ee30 0540 4a4d 3b3f 69da 89bf
00000280: 2bb4 09c0 02ac 0c3e 3541 8b3f 10f2 9ec0
00000290: 08a4 ccbf d44c 8bbe 5dfb c8bf c614 1ec0
000002a0: caa9 b63f 3b52 c63f f847 9b3d 7716 73bf
000002b0: 38aa 463f 2a0d 96bc 520a fe3e b216 233f
000002c0: 28d2 4dc0 938d 3d3f e1d1 453f f9b8 633f
000002d0: 9708 963e b9f5 b6bf 20f4 bfbf a6a2 24c0
000002e0: 2c39 3b3e 95de 683e d490 46bf 29f1 dcbe
000002f0: c490 0bbf 4c0e 843e 3c22 a1bf 81fa 51bf
00000300: a220 c4be 68d1 40c0 276a 00c0 c703 cfbf
00000310: 21b4 94bf 849a 8ac0 a0e9 813f 828b 1abf
00000320: 03ed 993f 4398 77be f913 913f 3dfc 6c3f
00000330: ad81 0c3f fca0 4ac0 1628 6e3f d39f b73f
00000340: 229d 7440 1263 833f 1016 2cbe 4e6a 1640
00000350: 9261 29be f9cc 0c40 1535 ce3e 6dce 5bbf
00000360: 1dfd 2ebf a6be febf cfaf 45bf ad57 76c0
00000370: b58d a9be 1bfe 24bf 3082 1ec0 917a 33c0
00000380: 7b8a 87be 2506 753d 38db bdbe 4d31 663e
00000390: f06a 19bd 6b23 a3bf 07a0 5e3f d244 03c0
000003a0: 0d40 903e 5182 793f c5b1 eabe 09fe c8bc
000003b0: cd31 413f fd03 893e 7c75 803f b835 e53e
000003c0: 5a7d 5cbf e48f 3e3f d1ad 15bf e1c6 40be
000003d0: 3025 22c0 6d8d c5bf 8f62 0840 9344 a6bf
000003e0: e486 e1bf 26a4 8ebe 8beb d33e 11d8 5fbf
000003f0: 4f79 6dbf 09ae a03e a562 883f f759 343f

Ws.1 f4 [32, 32]
1.4187814 -1.2005564 -0.5395964 -2.0134063 -0.32484517 0.2683983 -2.5814521 -0.58230317
-0.14551583 -2.1374745 0.688089 1.6204621 -1.4490088 -1.3540974 -0.38905448 1.0077447
0.76909477 0.17562374 0.22374111 0.61385053 -1.001287 -0.33113012 0.5766175 2.1319678
-2.2549624 0.15081826 2.2478027 -0.6622938 -0.7289084 1.691948 1.2975198 -0.16059658
1.8985344 0.4111397 0.729267 -0.121882044 0.038144503 0.21812512 -0.197602 -0.4691963
0.976042 1.2130696 0.2902378 -0.24436882 1.187103 0.48766708 -1.888634 -0.7841807
0.42890167 0.16078903 -1.7299769 -0.75009906 -0.4883571 -0.108280554 0.21677858 0.31677932
-0.44406325 -1.5716958 -2.463199 0.07006992 -1.5275533 -1.0986621 0.6178637 1.2380775
-2.590491 -0.02880389 -2.1948433 -0.3473425 0.26322502 0.75522 -0.23694706 0.038857922
-0.86970305 -0.031333327 0.7904568 -2.7952003 0.19997706 -0.9721138 -0.31163025 -0.9445342
2.0960891 -0.67038363 -2.6028922 -0.92042124 -1.9477721 -0.41219875 -0.24987264 -0.01906429
0.88807863 3.4884918 -3.2216973 -1.3203434 -0.65987146 -0.002235723 0.13920751 -1.2031267
-1.2876006 -0.7068966 1.0656143 0.90634274 0.42869863 1.2186805 1.5287467 1.8547051
1.1745547 1.3166622 3.0323176 -0.55513835 1.0789514 0.53928524 0.04911251 0.24028131
-0.19562909 -1.0393207 0.43465382 -0.6557962 1.2070196 -0.024301829 1.2692261 -0.26905173
-0.22523841 -0.60900146 -1.239699 1.8121809 -1.797254 0.36731955 0.6685248 0.8063113
2.5989919 -1.2196578 -1.332573 -0.3684104 -1.8702115 1.2822505 -1.6708592 0.63981205
-0.4492838 -0.6477839 0.80467606 -0.540994 1.2285422 0.34150395 1.084712 -0.21891387
0.2098103 1.3457253 -2.8589106 2.4822118 1.8750753 -0.30244878 -1.1604946 -3.0253825
0.030372988 -0.9230238 -1.3563997 1.5516822 0.004605695 -2.2923717 -2.2454162 -2.778964
1.9056939 1.6356015 -1.4250146 0.33300892 -1.0131897 -1.906441 -0.68418235 -0.06760559
0.88154465 -0.40940735 -2.6554275 -0.1515185 -0.11023315 1.599887 0.57583797 -0.23171629
-0.6064515 -0.121454306 -2.4953282 -0.4544707 -0.1729942 0.013098958 1.1371841 0.4666156
0.7631904 0.15024863 -0.42083815 -0.8954812 0.5679996 -0.3674224 -2.529424 -3.5734024
-2.6184258 -0.1587744 -1.5354689 0.73339576 -0.8364054 0.28102717 0.4073548 -0.6408838
0.7812999 -0.71738225 2.1594198 0.5767054 -1.6463721 0.32102388 -0.7330173 1.865695
-0.12556772 -0.07956847 -1.005711 -4.134701 1.6162901 0.5873969 1.4551369 -2.2112343
-1.2341794 0.028378168 -1.099229 -2.7455516 1.5626799 1.5719095 0.59639657 -1.8100251
-0.93118465 -0.80188376 1.7269835 1.738286 0.24067394 -0.27556524 1.9445792 -2.028524
0.58631545 -0.53722024 0.011776537 0.5939081 -0.81292677 0.51174045 -1.033933 0.26468506
-0.20756051 -0.70445424 0.9544093 1.358113 1.8006812 -1.3099163 0.6860322 -0.002188956
0.2726378 0.8863578 -2.3083105 -1.855596 0.83627033 -1.1623694 -1.3627218 -1.09607
00000000: a19a b53f d5ab 99bf fd22 0abf a6db 00c0
00000010: 1b52 a6be 816b 893e 8336 25c0 d211 15bf
00000020: 1a02 15be 62cc 08c0 9a26 303f 4d6b cf3f
00000030: 1f79 b9bf 1053 adbf 2632 c7be c7fd 803f
00000040: 65e3 443f b6d6 333e 641c 653e 4f25 1d3f
00000050: 2c2a 80bf e389 a9be 349d 133f 2972 0840
00000060: 4e51 10c0 1a70 1a3e 00dc 0f40 168c 29bf
00000070: be99 3abf c191 d83f 2115 a63f 6e73 24be
00000080: 2d03 f33f e780 d23e 3eb1 3a3f 4b9d f9bd
00000090: 693d 1c3d 315c 5f3e 2e58 4abe 7f3a f0be
000000a0: e3dd 793f dd45 9b3f 0d9a 943e d23b 7abe
000000b0: fef2 973f 80af f93e c2be f1bf 11c0 48bf
000000c0: 0099 db3e e1a5 243e e26f ddbf 7e06 40bf
000000d0: f109 fabe 32c2 ddbd 34fb 5d3e e630 a23e
000000e0: 425c e3be 542d c9bf 0da5 1dc0 d180 8f3d
000000f0: de86 c3bf f6a0 8cbf 512c 1e3f 5379 9e3f
00000100: 9bca 25c0 23f6 ebbc 5078 0cc0 e0d6 b1be
00000110: 6ec5 863e 1956 413f 40a2 72be 7c29 1f3d
00000120: dca4 5ebf 6057 00bd 605b 4a3f 90e4 32c0
00000130: c9c6 4c3e 73dc 78bf 008e 9fbe fecc 71bf
00000140: 5326 0640 439e 2bbf c995 26c0 baa0 6bbf
00000150: 9950 f9bf b70b d3be 9dde 7fbe b72c 9cbc
00000160: 1f59 633f 7343 5f40 4a30 4ec0 0301 a9bf
00000170: 56ed 28bf 3585 12bb 6a8c 0e3e 0e00 9abf
00000180: 19d0 a4bf 2df7 34bf 0d66 883f 1406 683f
00000190: 637e db3e b9fd 9b3f f9ad c33f fa66 ed3f
000001a0: cf57 963f 6388 a83f 7e11 4240 8c1d 0ebf
000001b0: 141b 8a3f 990e 0a3f 332a 493d 4e0c 763e
000001c0: fe52 48be 7608 85bf f28a de3e 42e2 27bf
000001d0: 9e7f 9a3f a114 c7bc 0076 a23f 26c1 89be
000001e0: e6a4 66be 85e7 1bbf 75ae 9ebf 8bf5 e73f
000001f0: 6b0c e6bf 4f11 bc3e 7124 2b3f 6b6a 4e3f
00000200: e255 2640 bf1d 9cbf c191 aabf 4aa0 bcbe
00000210: 1763 efbf c920 a43f b7de d5bf b9ca 233f
00000220: 8708 e6be 2ad5 25bf 40ff 4d3f 957e 0abf
00000230: df40 9d3f 9bd9 ae3e d8d7 8a3f f52a 60be
00000240: 83d8 563e ba40 ac3f 64f8 36c0 8fdc 1e40
00000250: 7802 f03f 91da 9abe 168b 94bf de9f 41c0
00000260: c6d0 f83c 4a4b 6cbf 819e adbf 869d c63f
00000270: 5feb 963b 38b6 12c0 e6b4 0fc0 8cda 31c0
00000280: c7ed f33f 645b d13f e166 b6bf 2580 aa3e
00000290: 33b0 81bf 4206 f4bf 9326 2fbf cd74 8abd
000002a0: e9ac 613f d79d d1be 86f2 29c0 aa27 1bbe
000002b0: ebc1 e1bd 19c9 cc3f 1e6a 133f 0947 6dbe
000002c0: 6840 1bbf 09bd f8bd 75b3 1fc0 62b0 e8be
000002d0: 6425 31be 039d 563c 408f 913f 3de8 ee3e
000002e0: 7260 433f c7da 193e 1978 d7be 423e 65bf
000002f0: 6c68 113f ca1e bcbe 15e2 21c0 a0b2 64c0
00000300: 4a94 27c0 c295 22be 3f8a c4bf d3bf 3b3f
00000310: aa1e 56bf cbe2 8f3e cf90 d03e f610 24bf
00000320: 4503 483f 5da6 37bf ef33 0a40 f7a2 133f
00000330: 52bc d2bf 3e5d a43e 06a7 3bbf 18cf ee3f
00000340: d394 00be cbf4 a2bd 23bb 80bf 784f 84c0
00000350: 98e2 ce3f a55f 163f ed41 ba3f dd84 0dc0
00000360: 97f9 9dbf 5579 e83c 89b3 8cbf 1eb7 2fc0
00000370: e505 c83f 5534 c93f 72ad 183f e7ae e7bf
00000380: 1e62 6ebf 4148 4dbf cc0d dd3f 2880 de3f
00000390: 3b73 763e e316 8dbe f9e7 f83f 56d3 01c0
000003a0: c518 163f 4487 09bf 60f2 403c 5c0a 183f
000003b0: f81b 50bf 6c01 033f eb57 84bf cd84 873e
000003c0: be8a 54be 1d57 34bf 2b54 743f a6d6 ad3f
000003d0: b97c e63f 56ab a7bf ce9f 2f3f 9674 0fbb
000003e0: 2f97 8b3e 58e8 623f 5cbb 13c0 2b84 edbf
000003f0: d015 563f 85c8 94bf ab6d aebf 064c 8cbf
