data-3/rl_model_2.pth (torch_old, 93650 bytes, 18 tensors)

w_a f4 [32, 32]
0	0xc02f6f8e	-2.7411838
1	0xbdfd2581	-0.12360669
2	0x404eaef2	3.2294278
3	0xbf9b8d59	-1.2152511
4	0x3f296ee0	0.66184807
5	0xbf9e1a06	-1.2351692
6	0xc04c20ff	-3.189514
7	0x406e0a89	3.719393
8	0x3fb76048	1.4326258
9	0x3fafba1f	1.3728675
10	0xbfbf4bbd	-1.4944988
11	0x40761f23	3.8456504
12	0xbf9ff2c8	-1.2495966
13	0x401ea164	2.4786005
14	0x3f5c4279	0.8603893
15	0xc0143837	-2.315931
16	0xc0230b50	-2.5475655
17	0xbf4d55a8	-0.80208826
18	0xc0975d51	-4.730141
19	0xc0266f8c	-2.6005583
20	0xbf8dec4e	-1.108774
21	0xc048fc37	-3.140394
22	0xc0483599	-3.1282713
23	0x3f1a8135	0.60353404
24	0x3e945abf	0.28975484
25	0xbf780bb8	-0.9689288
26	0x3ff7d1d0	1.9360905
27	0xbf6d7e30	-0.9277067
28	0x3e6d6742	0.23183921
29	0xbfb077fc	-1.3786616
30	0xc063eb52	-3.5612378
31	0x3fd65613	1.6745018
32	0xc007deac	-2.1229658
33	0x3f8748bd	1.0569073
34	0xbf85142a	-1.0396779
35	0x3f13b8ec	0.57704043
36	0x3f388c18	0.72088766
37	0xbe942451	-0.28933957
38	0xbf308f28	-0.6896844
39	0xbf0d09ce	-0.55093086
40	0xbf9b2de3	-1.2123379
41	0xbe7049da	-0.23465672
42	0x3f896e95	1.0736872
43	0xbf87ef46	-1.0619895
44	0x3fa103c8	1.2579279
45	0x3e72f9ca	0.237281
46	0xc0446d9f	-3.0691907
47	0xbfe234c3	-1.7672352
48	0x3fc37f5a	1.527324
49	0x3fdfd958	1.7488203
50	0xbf1eeae3	-0.6207716
51	0x3ed4c669	0.41557625
52	0xbf0a35bd	-0.5398825
53	0xc0994714	-4.7899265
54	0xc017aad4	-2.3698015
55	0x3fa2c67b	1.2716821
56	0xbf7c28b0	-0.98499584
57	0xbf9cb392	-1.22423
58	0x3e8e75ac	0.27824152
59	0x3f453660	0.77036095
60	0xbf1af1fd	-0.60525495
61	0x3fcc67f9	1.596923
62	0x3ee431ac	0.44569147
63	0xbe540bf8	-0.2070769
64	0xbe9456ba	-0.28972417
65	0xbf0e073b	-0.5547978
66	0x3ff7ebc4	1.9368825
67	0xc0464eb0	-3.0985527
68	0xbfaea04b	-1.3642668
69	0xc0273607	-2.6126726
70	0x3f5005ad	0.8125866
71	0xbf38df1a	-0.72215426
72	0x3f7ac362	0.9795438
73	0x40004474	2.004178
74	0xbffb9568	-1.965497
75	0xbf03fcc0	-0.5155754
76	0xbf92c5bc	-1.1466594
77	0xc02adb91	-2.6696513
78	0xbf9db2a9	-1.2320148
79	0x3eda5713	0.42644557
80	0xbfd59df9	-1.6688834
81	0xbfa3a43d	-1.2784497
82	0xbf9eb9bb	-1.240043
83	0xbe237d97	-0.15965877
84	0x400dc662	2.2152333
85	0xbfa6c567	-1.3028992
86	0x3f3aa5b9	0.7290912
87	0xbdee88f4	-0.116472155
88	0xbfdbc707	-1.7170113
89	0x3ea9fec9	0.33202198
90	0xbfc3a982	-1.5286105
91	0xbe1fe178	-0.15613353
92	0xbfe1ba0b	-1.7634901
93	0xbf07d847	-0.5306439
94	0xbf8405ad	-1.0314232
95	0x3fdfd0ec	1.7485633
96	0xc06992e9	-3.6495917
97	0x3f784ddb	0.969938
98	0x3ff7e2d7	1.9366101
99	0xc01b0997	-2.4224603
100	0x3f94ae85	1.1615759
101	0xbfad722b	-1.3550466
102	0xbfb2d342	-1.3970721
103	0xbf751106	-0.957291
104	0x3fa92b0f	1.3216265
105	0x3f70c3b2	0.9404861
106	0x3f974e82	1.1820834
107	0x4021c6bb	2.5277545
108	0x3ef33ef0	0.47508955
109	0xbda9ab1f	-0.08284592
110	0xbfaebf4d	-1.365213
111	0xc000a4a5	-2.010049
112	0xc03c26ca	-2.9398675
113	0xbf6eaff4	-0.93237233
114	0xc0289f6c	-2.6347303
115	0x3fdab20d	1.7085587
116	0x3fa23f3f	1.2675551
117	0xc04cb8c4	-3.1987772
118	0xc001a0f6	-2.0254493
119	0xbf355d7d	-0.70845777
120	0x3e58f411	0.21186854
121	0x3f594fec	0.84887576
122	0xbead0007	-0.33789083
123	0xbf1926d8	-0.59824896
124	0x3fc14b33	1.5101074
125	0x403cc19b	2.9493167
126	0xbe9ab02b	-0.3021253
127	0x3fbe7311	1.4878865
128	0xbf6dc554	-0.92879224
129	0xbdd1186d	-0.10209737
130	0xc01ba236	-2.4317756
131	0x3e6cb74a	0.23116794
132	0xbfd93d3a	-1.697181
133	0xbe56c338	-0.20972908
134	0x3eaef4b4	0.3417107
135	0xc00b7a7e	-2.1793513
136	0xbed69591	-0.41910985
137	0xbe284349	-0.16431917
138	0x3eb75775	0.35808912
139	0xbf77eab1	-0.96842486
140	0xbf4f422e	-0.8096036
141	0xbf96a6f1	-1.1769696
142	0xbfc1ae88	-1.5131388
143	0xbe86a785	-0.26299682
144	0x3cf9990d	0.030468488
145	0xbf09440d	-0.5361946
146	0xbfbb1bb3	-1.4617828
147	0xbe1b6acc	-0.15177459
148	0xbf8b7e84	-1.0897985
149	0x3bf5a6a6	0.0074966727
150	0xbf458a09	-0.7716375
151	0xbf4e3b92	-0.8055965
152	0xbf1430a2	-0.5788671
153	0x4002bbaa	2.042704
154	0xbfaa59a0	-1.3308601
155	0x405f339e	3.4875255
156	0x406e5fb1	3.7245905
157	0xbf25f8fa	-0.64833033
158	0x40a89951	5.2687154
159	0xbfe88ff5	-1.8168932
160	0xbef98f16	-0.48741978
161	0x3f1e7c69	0.61908585
162	0x3f7cde47	0.9877667
163	0xbe16b780	-0.14718437
164	0x3dc860e9	0.09784109
165	0x3f054f9b	0.52074593
166	0x4038e1fb	2.8887928
167	0x3f80efc4	1.0073171
168	0xbf97f6d4	-1.1872201
169	0x3f567630	0.8377409
170	0x3ee27faf	0.4423804
171	0x3f428b99	0.7599426
172	0x3fcd0613	1.6017479
173	0x3e8e07cf	0.27740332
174	0x3c0274a8	0.007962383
175	0xc0042bbe	-2.0651698
176	0x3f5d9fce	0.8657197
177	0x3fb4bdf0	1.4120464
178	0x3f2aa120	0.6665211
179	0x3eea62ee	0.45778602
180	0xbf34250c	-0.7036903
181	0x40102614	2.252324
182	0xbf09b3be	-0.5378989
183	0xbf3101e7	-0.6914353
184	0x3fed2105	1.8525702
185	0x3fb0c3f6	1.3809803
186	0xbf3f5019	-0.74731594
187	0xbea3922f	-0.31947467
188	0xbea501ce	-0.3222794
189	0x3f93517a	1.150924
190	0x3f59c3b5	0.8506425
191	0x3e3f6b16	0.18693194
192	0x3dccdf42	0.100035205
193	0xbf11b2dc	-0.5691354
194	0x3e9abe21	0.30223182
195	0xc01ec9cf	-2.4810674
196	0xbfbb958a	-1.4655011
197	0xbf5b160c	-0.85580516
198	0xbf4f6fa6	-0.81029737
199	0xc071d3ae	-3.778545
200	0x3ec82816	0.39093083
201	0x3f7bc414	0.98346066
202	0xbf734418	-0.9502578
203	0x3efe67bf	0.49688527
204	0xbfad15ac	-1.3522239
205	0x3fa0cd48	1.2562647
206	0x3c05ec06	0.008173948
207	0x401d51e5	2.4581234
208	0xc030753b	-2.7571552
209	0xbf1a978c	-0.6038749
210	0xc004afbc	-2.073226
211	0xbf262a85	-0.6490863
212	0x3fe91e40	1.8212357
213	0xbff47ca0	-1.9100533
214	0xbfd6db33	-1.6785644
215	0xc00e5c1b	-2.2243717
216	0xbfd4b6c0	-1.6618271
217	0x3fa91839	1.3210517
218	0xbd7119e5	-0.058862586
219	0xbffaf08a	-1.9604657
220	0xbf082bf2	-0.53192055
221	0x3f625b2b	0.8842036
222	0x3f0b3fa1	0.54393965
223	0x3f483058	0.78198767
224	0xbf2ae5d1	-0.6675692
225	0x3fe38e7e	1.777786
226	0x3f3eea12	0.7457591
227	0x3f915615	1.1354395
228	0xbe17cf1e	-0.14825103
229	0x3f933cd1	1.1502935
230	0xbfef325d	-1.8687245
231	0x3eec064a	0.46098548
232	0x400e151e	2.220039
233	0x3f16abef	0.588561
234	0xbf6fcd54	-0.9367268
235	0x3f9d62f5	1.2295824
236	0x3ed65a22	0.4186564
237	0x3f8b0d9d	1.086353
238	0xbe1590b9	-0.14605989
239	0xbee1ae02	-0.4407807
240	0x3ec4f341	0.38466838
241	0x3f35b297	0.7097563
242	0xc0225890	-2.5366554
243	0xbdb33204	-0.08749774
244	0xbe48e787	-0.1961957
245	0xc051cc15	-3.2780812
246	0x3f6550c0	0.8957634
247	0xbe17b582	-0.14815333
248	0xbdfb59b8	-0.12272972
249	0xbeb86b9a	-0.36019593
250	0x3e9ae902	0.30255896
251	0xbea2a2b9	-0.31764773
252	0xbfd25759	-1.6432906
253	0xbf31ccae	-0.6945294
254	0x3fae6d0c	1.3627028
255	0x3fb8f025	1.4448286

w_group.0.weight f4 [64, 8]
0	0xbd3b7056	-0.04576143
1	0x3cb3b03c	0.021934621
2	0x3e67ea1d	0.22647901
3	0xbe8f64fb	-0.2800673
4	0xbeb12b91	-0.3460355
5	0x3d0f1100	0.03492832
6	0xbdad07a4	-0.08448723
7	0x3cd43ff9	0.02590941
8	0xbf06bf1a	-0.5263535
9	0xbf55cca6	-0.83515394
10	0xbfad0a63	-1.3518795
11	0x3d8e4773	0.069472216
12	0xbe33a02f	-0.17541574
13	0xbe5ed4a5	-0.21760805
14	0xbf4c9772	-0.7991859
15	0xbf666df8	-0.9001155
16	0xbf53aeaa	-0.8268839
17	0xbd9eff05	-0.07763485
18	0xbee635ff	-0.4496307
19	0xbec86976	-0.3914296
20	0xbe72e6e9	-0.23720898
21	0xbe91eb34	-0.28499758
22	0xbf11c6f4	-0.56944203
23	0xbf50562a	-0.81381476
24	0xbef29d8e	-0.4738583
25	0x3f31b468	0.69415903
26	0x3f712f3e	0.9421271
27	0xc0436144	-3.0528116
28	0x3f1d2bb3	0.61394805
29	0x3e66043e	0.22462556
30	0xbee712ed	-0.45131627
31	0x3ddc2e9c	0.107510775
32	0xbdb3e8a2	-0.087846056
33	0xbd004be5	-0.03132238
34	0x3f1f9ffc	0.6235349
35	0x3ebd795e	0.37006658
36	0x3ca5a18c	0.020218633
37	0x3e27005a	0.16308728
38	0xbe6bc9e7	-0.23026238
39	0xbeae7b84	-0.3407861
40	0x3f195a39	0.59903294
41	0xbd8ad1a2	-0.067782655
42	0xbf74b436	-0.9558748
43	0xbe0c0419	-0.13673438
44	0xc012a236	-2.2911506
45	0x3e8e4c17	0.27792427
46	0x3eecd2d9	0.46254614
47	0xbcb08062	-0.021545593
48	0xbf6034ff	-0.87580866
49	0x3e480c47	0.19535933
50	0x3f5245b6	0.8213762
51	0x3f81a073	1.012709
52	0xbf050fb9	-0.51977116
53	0xbe23808e	-0.15967008
54	0xbf457d2d	-0.7714413
55	0xbf02b907	-0.5106358
56	0xbf52492d	-0.8214291
57	0x3f268628	0.65048456
58	0x403057f5	2.7553685
59	0xbfecdc6f	-1.8504771
60	0x3eac6045	0.33667198
61	0xbe5aa126	-0.21350536
62	0xbe826632	-0.25468594
63	0xbf361b59	-0.7113548
64	0xbdf6f3f8	-0.12058252
65	0x3e21678b	0.15762155
66	0xbee62aa0	-0.44954395
67	0x3ee00972	0.43757206
68	0xbec64602	-0.38725287
69	0xbe5e8a28	-0.2173239
70	0xbeb4a23e	-0.3528003
71	0xbec9caa5	-0.39412418
72	0xbddef20a	-0.10886009
73	0xbedbef59	-0.42956045
74	0xbf99da1f	-1.201969
75	0xbfaf538e	-1.3697374
76	0x3f1edc1f	0.6205463
77	0x3dfd21d8	0.12359971
78	0xbee69e61	-0.4504271
79	0xbf2928ce	-0.6607789
80	0x3f43c527	0.76472706
81	0x3e15f072	0.14642504
82	0xbe1dec00	-0.15422058
83	0x3f732110	0.94972324
84	0xbfc96011	-1.5732442
85	0xbdb347c4	-0.087539226
86	0x3dd025f4	0.10163489
87	0x3e124314	0.14283401
88	0xbe9f1a42	-0.3107472
89	0x3e8ce031	0.27514794
90	0x3dcd57bf	0.10026502
91	0xbf06b65a	-0.52621996
92	0xbf145e25	-0.57956153
93	0x3d1a4940	0.037667513
94	0xbf568ec8	-0.83811617
95	0xbf3cc196	-0.7373289
96	0x3fb55e4e	1.4169405
97	0xbf02e663	-0.5113279
98	0x4029d938	2.653883
99	0xbca65b0c	-0.020307086
100	0xbee19cef	-0.44065043
101	0xbe43c976	-0.1911982
102	0xbf1dbac9	-0.61613137
103	0xbf6f3488	-0.9343953
104	0x3f6a26a4	0.9146521
105	0x3fb2a69f	1.3957099
106	0x3fec512d	1.8462273
107	0x3f9e11f7	1.2349232
108	0xbe88b817	-0.2670295
109	0xbcfc6630	-0.030810446
110	0xbf45bbb7	-0.77239555
111	0xbf58fe94	-0.84763455
112	0xbdefeea9	-0.11715443
113	0xbea55282	-0.3228951
114	0x3efda480	0.49539566
115	0x3f99d276	1.2017353
116	0xbeb9a8c8	-0.36261582
117	0xbe2289aa	-0.15872827
118	0xbf156829	-0.5836206
119	0xbf44ed0d	-0.7692421
120	0x3fba2038	1.4541082
121	0xbf2ca156	-0.6743368
122	0x3f802cf3	1.0013717
123	0xbfea3348	-1.82969
124	0xbf0be109	-0.5464025
125	0x3e3be2de	0.18348262
126	0xbedc21f3	-0.4299465
127	0xbf1e3dda	-0.6181313
128	0x3f1a2cda	0.6022469
129	0xbe42a7cc	-0.19009322
130	0xc02758c2	-2.6147923
131	0xbe5d33cf	-0.21601795
132	0x3e982daf	0.29722354
133	0xbea38679	-0.31938532
134	0xbe111204	-0.14167029
135	0xbe5a46ed	-0.21316119
136	0x3e094c7e	0.13408086
137	0x3e6c1c2f	0.23057626
138	0xbee0d552	-0.4391275
139	0xbd6c2f5a	-0.057662345
140	0xbf781a68	-0.9691529
141	0xbdc829c0	-0.09773588
142	0xbee7d9ce	-0.4528336
143	0xbeb822f4	-0.35964167
144	0xbcbddc96	-0.023176473
145	0x3cdc8a6e	0.026921477
146	0xbef9389a	-0.48675996
147	0x3e2204ab	0.15822093
148	0xbf9d9b3b	-1.2312998
149	0xbb546d80	-0.00324139
150	0xbd861a9d	-0.06548045
151	0xbe36a436	-0.17836079
152	0xbd12d236	-0.035845004
153	0xbca89db3	-0.02058301
154	0x3e6b4e69	0.2297913
155	0x3ec8c50f	0.39212844
156	0x3ef530ec	0.47888887
157	0x3e6222aa	0.22083536
158	0xbe966bc7	-0.29379103
159	0xbe814335	-0.25246587
160	0xbf9703a5	-1.1797987
161	0xbf8c3462	-1.0953486
162	0x3f72e8d1	0.948865
163	0xbf279169	-0.65456253
164	0xbeb3ec3f	-0.3514118
165	0x3e2d45f6	0.16921219
166	0xbf01094b	-0.50404805
167	0xbf44ca14	-0.76870847
168	0xbe7a70f5	-0.24457152
169	0xbec2253c	-0.37919033
170	0xbe13fc00	-0.14451599
171	0xbded4f83	-0.11587431
172	0xbf1f67da	-0.6226784
173	0xbdd9fefc	-0.106443375
174	0xbf447386	-0.76738775
175	0xbf5e858e	-0.8692254
176	0x3e6a3eb7	0.22875486
177	0xbd901def	-0.070369594
178	0x3f9f6152	1.2451575
179	0xbf919ace	-1.1375368
180	0xbfc4ac22	-1.5365031
181	0xbea46593	-0.32108745
182	0xbe30caef	-0.17264913
183	0xbee74e44	-0.451769
184	0x3f67dd1f	0.9057178
185	0x3f0e15fa	0.55502284
186	0xbfa40b79	-1.2816001
187	0xbf9aff50	-1.2109165
188	0xbefb6bca	-0.49105674
189	0x3e4039a2	0.18771985
190	0xbebcc966	-0.36872405
191	0xbe080146	-0.13281736
192	0x401c12d6	2.4386497
193	0xbe13e414	-0.14442474
194	0x3f2c3979	0.67275196
195	0xbf15d01c	-0.58520675
196	0xbf3c5cea	-0.73579276
197	0x3e951b47	0.29122373
198	0x3e47870c	0.1948511
199	0x3d85689b	0.065140925
200	0x3e2b7444	0.1674357
201	0xbe763d7c	-0.24046892
202	0x3f69f00f	0.91381925
203	0x3eb27b9e	0.34859937
204	0xbf0d231d	-0.55131704
205	0x3d686ed8	0.056746334
206	0xbf097bd3	-0.53704566
207	0xbed7f6b5	-0.4218041
208	0x3e60a580	0.21938133
209	0x3e1611ee	0.14655277
210	0x3f25bb31	0.64738756
211	0x3f3e1dd2	0.7426425
212	0xbed75c25	-0.42062488
213	0x3e5ab78e	0.21359083
214	0xbf02132d	-0.5081051
215	0xbe2d3125	-0.16913278
216	0x3f1905e2	0.597746
217	0x3fa7817b	1.3086389
218	0xbd8fae1f	-0.07015633
219	0x3e248089	0.16064657
220	0xbee8b705	-0.45452133
221	0xbc506fe0	-0.012721986
222	0xbea774df	-0.32706353
223	0x3dae17ea	0.08500655
224	0xbe226759	-0.15859737
225	0xbf0be961	-0.5465298
226	0xbf16b98b	-0.58876866
227	0xbf950c9c	-1.1644473
228	0x3f062fd6	0.5241674
229	0xbeb10e23	-0.34581098
230	0xbf074d21	-0.52852064
231	0xbf24da0f	-0.6439523
232	0xbed1aba3	-0.4095126
233	0xbeafcbef	-0.34335276
234	0x3f440ae9	0.7657915
235	0xbf86e9d1	-1.0540105
236	0xbf82e36b	-1.0225652
237	0x3e45bf62	0.19311288
238	0xbf3d2124	-0.73878694
239	0xbf43a999	-0.7643066
240	0xbdfeca55	-0.124409355
241	0x3e147852	0.14499024
242	0xbf0fe6e0	-0.5621166
243	0xc089f58e	-4.311225
244	0xbf09fee7	-0.53904575
245	0xbe05feec	-0.13085526
246	0x3e796305	0.24354179
247	0x3e7469ad	0.23868437
248	0x3d9d7a54	0.07689348
249	0xbee5ac35	-0.44857946
250	0xbf922ce5	-1.1419951
251	0xbe62fdf4	-0.22167188
252	0xbf38bb41	-0.72160727
253	0xbdd225d4	-0.102611214
254	0xbf0ff8d0	-0.5623903
255	0xbee79b40	-0.45235634

w_group.0.bias f4 [64]
0	0xbe9aa434	-0.30203402
1	0xbf7678ad	-0.96277887
2	0xbf523e86	-0.82126653
3	0xbee3277b	-0.4436606
4	0xbeeb2052	-0.45923096
5	0xbe2f3406	-0.17109689
6	0xbf06b5ad	-0.52620965
7	0xbf508fcf	-0.81469434
8	0xbf1b658e	-0.60701835
9	0xbece3be8	-0.4028008
10	0xbe2fc0ea	-0.17163435
11	0xbf7ab784	-0.9793627
12	0xbf65680a	-0.89611876
13	0xbf1c61c2	-0.61086667
14	0xbf07a437	-0.52984947
15	0xbd8e56d7	-0.06950157
16	0xbe853db5	-0.2602364
17	0xbe0dc49e	-0.13844535
18	0xbf1265d3	-0.5718662
19	0x3daeb877	0.085312776
20	0xbf42316e	-0.75856674
21	0xbf61b1be	-0.8816184
22	0xbf48a548	-0.783772
23	0xbef94cf7	-0.48691532
24	0xbe15e593	-0.14638357
25	0xbf417dcd	-0.7558258
26	0xbef4a61f	-0.4778299
27	0x3d2b6d09	0.04185203
28	0xbdbf1542	-0.093302265
29	0xbf190d0b	-0.59785527
30	0x3e4d000a	0.20019546
31	0xbf004149	-0.5009962
32	0xbebd4170	-0.36963987
33	0xbf2a0ee8	-0.66428995
34	0xbe8c7fac	-0.27441156
35	0xbea579f8	-0.32319617
36	0xbf1af38a	-0.6052786
37	0x3ec449cc	0.38337553
38	0xbed78210	-0.42091417
39	0xbf06afed	-0.5261219
40	0x3d308043	0.04309107
41	0xbf193f6c	-0.598624
42	0xbec2f814	-0.38079894
43	0xbe9acb15	-0.30233064
44	0xbce8c7f4	-0.028415658
45	0xbe245139	-0.16046609
46	0xbc11276b	-0.008859496
47	0x3e013215	0.12616761
48	0x3cd0af49	0.025474207
49	0xbd48623b	-0.048921805
50	0xbf5a76c8	-0.85337496
51	0x3e1592e9	0.14606823
52	0xbed30bdf	-0.41219994
53	0xbee29bb8	-0.4425943
54	0xbebd82bf	-0.37013814
55	0xbe98a95c	-0.2981671
56	0xbf4bab68	-0.7955842
57	0xbe9cee5e	-0.3065061
58	0xbc97157b	-0.01844286
59	0x3d55a660	0.05216062
60	0xbe68d703	-0.2273827
61	0xbefb1405	-0.4903871
62	0xbda3c834	-0.0799717
63	0x3d87e82f	0.066360824

w_group.2.weight f4 [32, 64]
0	0x3dbb6904	0.091508895
1	0xbddf1331	-0.10892332
2	0xbd5739da	-0.052545406
3	0xbdeef654	-0.11668077
4	0x3cb914f6	0.022593003
5	0x3cff0e98	0.031134889
6	0xbe2160ec	-0.15759629
7	0x3bdebf8f	0.006797738
8	0xbd5a4e47	-0.053297307
9	0xbc953569	-0.018213945
10	0xbd88e91c	-0.06685087
11	0x3d868d3e	0.065699086
12	0xbdbef52c	-0.093241066
13	0xbcded228	-0.02719982
14	0xbcf36335	-0.029710392
15	0x3d97be76	0.074093744
16	0xbd72b457	-0.059254017
17	0xbe1c50dd	-0.15265222
18	0x3d3e899f	0.046517964
19	0xbe0f599c	-0.13999027
20	0xbdfb9ca5	-0.12285737
21	0xbe1a3934	-0.15060884
22	0xbdb7ceba	-0.08974977
23	0xbcf89aaa	-0.030347187
24	0xbbc3fbb3	-0.0059809326
25	0x3d9d071e	0.07667373
26	0xbdfc0df0	-0.12307346
27	0x3dad25d2	0.08454479
28	0x3d44ab51	0.048014943
29	0xbd37d9ef	-0.044885572
30	0x3d3795aa	0.044820465
31	0x3da43f5a	0.08019896
32	0x3ca42468	0.020036891
33	0xbd66f840	-0.056389093
34	0x3ca23396	0.019799989
35	0x3ccf1b84	0.025281675
36	0xbd45f7aa	-0.048331894
37	0x3d03e017	0.03219613
38	0x3db3f331	0.087866195
39	0xbe058e0a	-0.13042465
40	0xbdf74fae	-0.120757446
41	0x3cc8478c	0.024448179
42	0xbd5f455a	-0.0545095
43	0xbe408c8b	-0.18803613
44	0x3dbea335	0.09308473
45	0xbc06d691	-0.008229868
46	0xbe43e822	-0.1913152
47	0xbdfe07c0	-0.12403822
48	0xbe5fbcd6	-0.21849379
49	0x3ca0963b	0.019602885
50	0xbbcde882	-0.0062838206
51	0x3d84a7e8	0.06477338
52	0xbcc3a43d	-0.023882026
53	0x3db86f25	0.09005574
54	0xbd802020	-0.06256127
55	0xbd5ac2f1	-0.053408567
56	0x3daede4c	0.085384935
57	0xbde450bb	-0.111482106
58	0xbd8e6731	-0.06953276
59	0xbddd9708	-0.108198225
60	0xbda5d936	-0.0809807
61	0xbe1e262b	-0.15444247
62	0xbd92f584	-0.07175735
63	0xbe23c487	-0.15992938
64	0x3d0891c3	0.033342134
65	0x3e74362a	0.23848787
66	0x3ef1c174	0.47217906
67	0x3e30043f	0.1718912
68	0xbdc07a32	-0.09398307
69	0x3ea8f39d	0.32998362
70	0xbf356b06	-0.7086643
71	0xbe999112	-0.29993492
72	0xbe7bdeb0	-0.24596667
73	0x3e45a012	0.19299343
74	0x3e63b514	0.22237045
75	0x3ea3ae9f	0.31969163
76	0x3f12192e	0.5706967
77	0x3f7bad92	0.9831172
78	0x3df1d04c	0.118073076
79	0x3f355fba	0.7084919
80	0x3dbf98e6	0.09355335
81	0xbee0cc2a	-0.43905765
82	0xbd886390	-0.06659615
83	0x3c026fb9	0.007961207
84	0x3f0b6113	0.54445
85	0xbe3a429c	-0.18189472
86	0x3e283f41	0.1643038
87	0xbc36fe3e	-0.0111690145
88	0xbf49ccbb	-0.7882802
89	0xbd537585	-0.051625747
90	0x3ed9d814	0.42547667
91	0x3e47bad6	0.19504866
92	0xbcd5dc54	-0.026106037
93	0xbcb08080	-0.021545649
94	0xbdb32096	-0.0874645
95	0x3e1cf610	0.1532824
96	0xbf1e099b	-0.61733407
97	0x3ee20032	0.44140774
98	0xbf95cf29	-1.1703845
99	0x3d7a782a	0.061149754
100	0xbd32aca5	-0.043621678
101	0xbf9a1c97	-1.2039975
102	0x3e497d04	0.19676596
103	0x3c56a193	0.013100046
104	0xbeaf2408	-0.34207177
105	0x3f4174bd	0.75568753
106	0x3e00b5d6	0.12569365
107	0xbf062e7c	-0.5241468
108	0xbe5e0974	-0.21683294
109	0xbdcff6b3	-0.10154476
110	0xbfc249d4	-1.517878
111	0x3dc30648	0.095226824
112	0xbea4ca0e	-0.32185405
113	0x3d60f0dc	0.0549172
114	0xbe6af2c4	-0.2294417
115	0x3f29f235	0.66385204
116	0xbe033eba	-0.12816897
117	0x3f314bc7	0.6925625
118	0xbf04deaf	-0.5190229
119	0xbf75c878	-0.96009016
120	0xbf268b4d	-0.65056306
121	0x3dabef91	0.08395303
122	0xbf95eac9	-1.1712276
123	0xbe9102ce	-0.28322452
124	0x3c6e81b6	0.014557293
125	0xbf6586a7	-0.8965859
126	0xbfcb98ca	-1.5906003
127	0xbf2379f9	-0.6385799
128	0xbe11f4f1	-0.14253594
129	0xbf9730cb	-1.1811765
130	0xbd1d8140	-0.03845334
131	0xba84ed8a	-0.0010141593
132	0xbd22e955	-0.039773304
133	0x3e4e692b	0.20157306
134	0xbe308fea	-0.17242399
135	0xbe451396	-0.19245753
136	0x3d15d200	0.036577225
137	0xbe4eaa20	-0.20182085
138	0xbe090d30	-0.13383937
139	0x3f4dbe63	0.8036863
140	0xbf022613	-0.50839347
141	0x3f713c0b	0.94232243
142	0xbe967d68	-0.29392552
143	0xbf8b16db	-1.086635
144	0x3e6b0524	0.2295118
145	0xbe2d46aa	-0.16921487
146	0x3e538d94	0.20659477
147	0xbe5f2bd9	-0.2179407
148	0xc0575917	-3.3648126
149	0xbee31952	-0.44355255
150	0xbf266e8a	-0.6501242
151	0xbf842d32	-1.0326293
152	0x3eaeb15c	0.3411969
153	0xbe92bf94	-0.28661788
154	0xbcf0dca7	-0.02940209
155	0x3d4a9131	0.04945487
156	0x3e74beff	0.23900984
157	0x3dc21352	0.09476341
158	0xbde5c285	-0.11218742
159	0xbf58a80f	-0.8463144
160	0xbf20151e	-0.6253222
161	0xbed7fe7d	-0.42186347
162	0xbf37b31a	-0.7175766
163	0xbf6f576e	-0.9349278
164	0xbdd3f5ab	-0.10349592
165	0x3efb5ff0	0.49096632
166	0x3a00d5b8	0.0004914659
167	0xbdba94dc	-0.09110424
168	0xbeb9a4fd	-0.3625869
169	0x3e0f649d	0.14003225
170	0xbd2af390	-0.041736186
171	0xbf8128e1	-1.00906
172	0x3e8ba982	0.27277762
173	0xbe038fd5	-0.12847836
174	0x3ea32bb7	0.3186929
175	0x3cd6c465	0.026216695
176	0x3f3cdc5c	0.7377374
177	0xbf641f36	-0.89110124
178	0xbdadcf19	-0.08486766
179	0xbf5b380b	-0.8563239
180	0xbdaa299a	-0.08308716
181	0x3ee30f68	0.44347692
182	0xbd454076	-0.048157178
183	0x3cc16b67	0.023610784
184	0x3f041f3e	0.5161017
185	0x3bd7e274	0.0065882746
186	0x3dfd7a63	0.12376859
187	0xbf30016f	-0.6875219
188	0x3e5e0406	0.21681222
189	0xbf92ad44	-1.1459126
190	0x3d9b65fb	0.075878106
191	0xbedfa2af	-0.43678805
192	0x3d6c95ec	0.057760164
193	0xbdc8fb94	-0.0981361
194	0x3dfaa9fc	0.12239453
195	0xbba306af	-0.004975162
196	0xbc687c2d	-0.014189762
197	0xbe01f146	-0.12689695
198	0xbe06a1e9	-0.13147701
199	0xbe11dd8e	-0.14244673
200	0xbdeb4797	-0.11488264
201	0xbe134beb	-0.14384429
202	0xbdc81d3a	-0.097711995
203	0x3b725c42	0.003698126
204	0xbd9862ef	-0.07440745
205	0xbd10d8af	-0.035362896
206	0xbde8424a	-0.11340769
207	0xbd03e8ae	-0.032204323
208	0xbd4b5601	-0.049642567
209	0x36109c62	2.15487e-06
210	0xbd47416a	-0.048646368
211	0xbda98114	-0.08276573
212	0x3d8500c6	0.06494288
213	0x3d4e1558	0.050313324
214	0xbe299d41	-0.16563894
215	0xbe183bb4	-0.14866525
216	0x3ce61ed5	0.028090874
217	0xbe381117	-0.1797527
218	0xbd7f8841	-0.0623858
219	0x3ca10ab3	0.019658422
220	0x3dde2c5f	0.10848307
221	0xbd216d71	-0.039411012
222	0xbdeeb737	-0.11656039
223	0x3d831bee	0.064018115
224	0x3cc7787c	0.024349444
225	0x3dce1963	0.10063436
226	0xbcb319f8	-0.021862969
227	0xbda6cbae	-0.081443176
228	0x3d349ea0	0.04409659
229	0xbe15b4d4	-0.14619762
230	0x3c517dc9	0.012786337
231	0xbe1f966f	-0.1558473
232	0xbde14db2	-0.11001147
233	0xbdae9910	-0.08525288
234	0x3d2d54ea	0.04231731
235	0x3c0ea2c3	0.008705798
236	0xbd195d8b	-0.037442725
237	0x3d92bd9b	0.071650706
238	0xbe298dba	-0.1655797
239	0x3dfe5894	0.12419239
240	0xbd74334e	-0.05961924
241	0x3d96ffea	0.073730305
242	0x3db77562	0.08957936
243	0xba983490	-0.0011612345
244	0x3caf8897	0.021427436
245	0x3d819477	0.063271455
246	0xbe1f32cb	-0.1554672
247	0xbc5f4b26	-0.013628757
248	0x3d4a9df8	0.049467057
249	0x3c0b6fa0	0.0085105
250	0xbd11b9b9	-0.03557751
251	0x3c8e9a3a	0.017407525
252	0x3cb8ebfe	0.022573467
253	0xbe2f76c2	-0.17135146
254	0x3c437400	0.011929512
255	0xbe10b17f	-0.1413021

w_group.2.bias f4 [32]
0	0xbe5b34a2	-0.21406797
1	0xbfccf550	-1.6012363
2	0x3f6b15fd	0.91830426
3	0xbe4894f4	-0.19588071
4	0x3f964d99	1.1742431
5	0x3e3469a6	0.17618427
6	0xbee71bf3	-0.4513851
7	0xbd87b43c	-0.06626174
8	0xbe8fad69	-0.2806199
9	0xc01c02cb	-2.4376705
10	0x3eadf4a1	0.339757
11	0x3fbe8883	1.488541
12	0x3edd3782	0.43206412
13	0xbea1fd27	-0.31638452
14	0xbffcb068	-1.9741335
15	0xbfc127fb	-1.5090326
16	0xbf65ec2c	-0.89813495
17	0x3f4cafab	0.7995555
18	0x3eb739d8	0.3578632
19	0x3e81e26a	0.25368053
20	0x3d93b150	0.07211554
21	0x3f5efb7c	0.87102485
22	0x401638ca	2.3472161
23	0xbf89118d	-1.0708481
24	0xbf37d65a	-0.7181145
25	0xbeddac99	-0.43295744
26	0xbfc8443f	-1.5645827
27	0xbdc40320	-0.095709085
28	0xbdb0366b	-0.086041294
29	0x3f39b1f8	0.72537184
30	0xbe586099	-0.21130599
31	0x3ee397a0	0.44451618

w_agents.0.weight f4 [64, 5]
0	0xbd365409	-0.044513736
1	0xbd31a09a	-0.043366052
2	0x3f2ab752	0.66685975
3	0x3da884fc	0.0822849
4	0x3ef1ca62	0.47224718
5	0xbe9eb7db	-0.30999646
6	0xbdade9f4	-0.08491889
7	0x3f16a820	0.5885029
8	0x3e34fc43	0.17674355
9	0xbf6a6b3e	-0.9156989
10	0x3e103ea3	0.14086394
11	0xbb5594a5	-0.003258982
12	0x3bbf0ba5	0.0058302456
13	0xbf7e6697	-0.9937529
14	0xbea7086f	-0.32623622
15	0xbcd4d7f7	-0.025981886
16	0xbb55e272	-0.0032636193
17	0xbf2be3f1	-0.67144686
18	0x3f9785be	1.183769
19	0xbfcfc004	-1.6230474
20	0x3d0aedf0	0.03391832
21	0x3cdf5864	0.027263828
22	0x3f66b04b	0.9011275
23	0xbf37050f	-0.71492094
24	0xbe1bad09	-0.15202726
25	0xbe985e84	-0.2975961
26	0xbec115d2	-0.3771196
27	0x3dac7f74	0.08422747
28	0x3da37524	0.07981327
29	0x3e12e0c8	0.1434356
30	0x3e9fe361	0.31228164
31	0x3e28b824	0.16476494
32	0xbf423b49	-0.7587171
33	0x3f0aeb7b	0.54265565
34	0xbec05d10	-0.37571
35	0x3e0ba3fb	0.13636772
36	0x3e155900	0.14584732
37	0xbf81fca2	-1.0155222
38	0x3f4c7ee9	0.7988115
39	0xbf66c1e5	-0.9013961
40	0x3bb7a5f5	0.0056045004
41	0x3c32b002	0.010906221
42	0x3bf7c32f	0.0075611095
43	0xbeda9db2	-0.42698437
44	0xbf2b2800	-0.6685791
45	0xbbe4a8fc	-0.0069781523
46	0xbc01fc35	-0.007933666
47	0xbd9c9c04	-0.07646945
48	0xbe7a117b	-0.24420731
49	0xbedc94b5	-0.43082204
50	0x3a965fc1	0.0011472629
51	0xbbf16794	-0.007367084
52	0x3de995f5	0.11405555
53	0x3d9460d2	0.072450295
54	0xbe0241fc	-0.12720484
55	0xbda46f43	-0.08029034
56	0x3cee554a	0.029093403
57	0x3e978876	0.295963
58	0xbe404802	-0.18777469
59	0xbf045b27	-0.5170159
60	0x3e90c91e	0.2827844
61	0xbed22ac8	-0.41048265
62	0x3e92064c	0.2852043
63	0xbf31569c	-0.6927278
64	0xbf71f233	-0.9451019
65	0xbcbffe70	-0.023436755
66	0x3b02edbf	0.0019978133
67	0xbe907433	-0.28213653
68	0xbdf4c502	-0.11951639
69	0xbd9996a3	-0.07499435
70	0xbc46cd42	-0.012133898
71	0x3ca36b9e	0.019948777
72	0x3e192196	0.14954218
73	0x3eaec36a	0.34133464
74	0xbf20d2de	-0.6282176
75	0xbd72ee60	-0.059309363
76	0xbda4ec97	-0.080529384
77	0x3e7e2cc8	0.2482177
78	0x3e9baec8	0.30406785
79	0xbf527e7e	-0.8222426
80	0x3d01c4f7	0.03168198
81	0xbda116bd	-0.07865665
82	0xbef6ed40	-0.48227882
83	0x3fa0754e	1.2535799
84	0xbfa9c640	-1.3263626
85	0xbc9796fb	-0.01850461
86	0xbb885067	-0.0041599753
87	0x3dd9c51e	0.106333
88	0x3ed2731c	0.41103446
89	0xbef37ad3	-0.47554645
90	0x3ec9d93c	0.3942355
91	0xbea8109c	-0.32825172
92	0x3fa0ed48	1.2572412
93	0x40381d1a	2.8767762
94	0xc01ae4a1	-2.4202044
95	0x3b895fab	0.0041923127
96	0xbb227961	-0.0024791586
97	0xbdc72754	-0.09724298
98	0xbdfd49dd	-0.12367604
99	0xbf2018fd	-0.6253813
100	0xbe0fd453	-0.14045839
101	0xbe26ca5a	-0.16288128
102	0x3e2bc0bb	0.1677274
103	0x3e729204	0.23688513
104	0xbff9f01e	-1.9526403
105	0x3d81f509	0.06345565
106	0x3d66fc1f	0.056392785
107	0xb966b3fc	-0.00022001559
108	0x3f893ca5	1.0721632
109	0xbf8d9d14	-1.1063561
110	0xbcca5357	-0.024697943
111	0xbcb273cc	-0.021783732
112	0x3dc53c91	0.09630693
113	0xbe309dae	-0.1724765
114	0xbd43f294	-0.047838762
115	0xbcb51ae3	-0.022107547
116	0xbb3834b3	-0.0028107583
117	0xbe8137eb	-0.25237975
118	0xbd9409e7	-0.07228451
119	0xbf3c83e2	-0.7363874
120	0x3c88b0ff	0.01668596
121	0x3d682387	0.056674507
122	0xbf9b1257	-1.2114972
123	0x3e8b8ac6	0.27254313
124	0xbd1214fc	-0.035664544
125	0x3dafa52f	0.08576428
126	0x3d5b04ae	0.05347126
127	0x3e91151a	0.28336412
128	0x3f19d89d	0.6009615
129	0xbedb8ef8	-0.42882514
130	0xbc9e3eba	-0.01931702
131	0xbc28b47a	-0.010296935
132	0x3cdd6218	0.027024314
133	0xbe1e58dd	-0.15463586
134	0xbe764076	-0.24048027
135	0x3ee8b2de	0.45448965
136	0x3da118df	0.07866072
137	0xbf8f7a6b	-1.1209234
138	0x3f4f5f27	0.81004566
139	0xbf6c883f	-0.92395395
140	0xbef27014	-0.47351134
141	0x3e18ec16	0.1493381
142	0x3f2926e3	0.6607496
143	0x3f52a75b	0.82286614
144	0xbff3a51d	-1.9034764
145	0x3ea2ce48	0.31798005
146	0x3e2dbc2d	0.16966315
147	0x3f7d556d	0.98958474
148	0x3e45c406	0.19313058
149	0xbf8a2858	-1.0793562
150	0xbd9242b4	-0.07141629
151	0xbd6b1d66	-0.057401083
152	0xbf4fd13e	-0.81178653
153	0x3e13c277	0.14429651
154	0xbf6b8a8e	-0.9200829
155	0x3dff7a3c	0.12474486
156	0xbc3c0eee	-0.011478169
157	0xbe335d3f	-0.1751604
158	0x3e878434	0.2646805
159	0xbf714bdd	-0.94256383
160	0xbd15c65c	-0.036566123
161	0x3e538b80	0.20658684
162	0xbf91a466	-1.1378295
163	0x3fb5b775	1.4196612
164	0xbf25184b	-0.64490193
165	0x3cc5ae0a	0.02413084
166	0x3d760ff1	0.060073797
167	0xbecda4fb	-0.40164933
168	0x3f22912b	0.6350276
169	0xbf2dc7b2	-0.67882836
170	0x3bd18484	0.006393971
171	0x3d3cb652	0.04607231
172	0x3dbcbb2b	0.09215387
173	0x3db62b1b	0.088949405
174	0xbd6aec9a	-0.057354547
175	0x3e12bca9	0.1432978
176	0xbc6b1eba	-0.0143505875
177	0x3eab0ee9	0.33409813
178	0xbec5df89	-0.38647106
179	0xbf80488d	-1.0022141
180	0x3c9dceb7	0.019263608
181	0x3c9f750e	0.019464996
182	0xbcf26aa7	-0.029591871
183	0x3f0cf11d	0.5505541
184	0xbeda97ce	-0.42693943
185	0x3d051e38	0.032499522
186	0x3bb9ed66	0.005674052
187	0xbfcbe98c	-1.5930648
188	0x3d4ffbee	0.05077737
189	0xbfaf6da9	-1.3705341
190	0xbbc66c08	-0.006055359
191	0xbc7a1156	-0.015262922
192	0xbd65c8a7	-0.05609956
193	0xbec5e9b8	-0.38654876
194	0xbf458166	-0.7715057
195	0x3dc63f48	0.09680039
196	0x3eb2ccf1	0.34921983
197	0x3de419b5	0.11137716
198	0x3fa262f9	1.2686454
199	0xbff520da	-1.915065
200	0x3c88b8fe	0.016689774
201	0xbd3ae969	-0.045632754
202	0xbf0e3528	-0.5554986
203	0xbea228f5	-0.31671873
204	0xbf3fe24e	-0.7495469
205	0x3edd9ecd	0.43285218
206	0xbd16d0a6	-0.036820076
207	0xbf0dc30c	-0.5537574
208	0x3e72b7ff	0.23703001
209	0xc005606a	-2.0840096
210	0x3da32192	0.079653874
211	0xbf44b994	-0.7684567
212	0x3fa8c010	1.3183613
213	0x40058529	2.0862525
214	0xbf8eecb0	-1.1165981
215	0x3ed0dd72	0.4079395
216	0xbde09221	-0.10965372
217	0xbe04fdbc	-0.12987417
218	0x40205bd6	2.5056052
219	0xbf247d48	-0.64253664
220	0x3eb08086	0.34473056
221	0x3ed7104d	0.42004624
222	0xbe830676	-0.25590867
223	0x3fb62dd8	1.423274
224	0xbf812fa2	-1.0092661
225	0xbe7d72c2	-0.24750808
226	0x3f0f627d	0.56009656
227	0xbee4cf91	-0.4468961
228	0x3f8be512	1.0929282
229	0xbf809a02	-1.0047
230	0xbed5f0a0	-0.41785145
231	0xbc2c8ea6	-0.010532057
232	0xbf33ca7a	-0.7023083
233	0x4032e0ed	2.7949784
234	0xbffe839d	-1.9883915
235	0xbc216912	-0.009851711
236	0x3ac0411f	0.0014667845
237	0xbf39baa6	-0.7255043
238	0x3fab8f8f	1.3403186
239	0xbfa821a9	-1.3135272
240	0xbe9bb964	-0.3041488
241	0xbdbe8f1b	-0.09304639
242	0xbf535172	-0.8254615
243	0x400d42ed	2.2072098
244	0xbfe0f10a	-1.7573559
245	0xbde28c1b	-0.11061879
246	0xbe91ba1d	-0.28462306
247	0x3eeb79ed	0.4599146
248	0xbf60dfe7	-0.8784165
249	0xbfa0cfdb	-1.2563432
250	0xbce48b34	-0.027898408
251	0x3cc9742d	0.02459153
252	0x3eb74bc2	0.35799986
253	0xbf98b1ba	-1.1929238
254	0xbe25d0a3	-0.1619287
255	0xbcd8fb80	-0.026487112

w_agents.0.bias f4 [64]
0	0xbeb5ca6b	-0.35505995
1	0xbf5856aa	-0.8450724
2	0xbee3dc01	-0.44503787
3	0xbf95cd04	-1.1703191
4	0xbf356ca8	-0.7086892
5	0xbdac4394	-0.08411327
6	0xbedc3bfc	-0.43014514
7	0xbf0d80de	-0.5527476
8	0xbecb9e01	-0.39768985
9	0xbe4cf6ea	-0.20016065
10	0xbe1de26f	-0.15418409
11	0xbf538a7a	-0.82633173
12	0xbf9e637a	-1.2374108
13	0xbedd78e3	-0.43256292
14	0xbeb13e9e	-0.34618086
15	0xbf61c228	-0.88186884
16	0xbfc6345a	-1.5484726
17	0xbed15d52	-0.4089151
18	0xc00b517f	-2.1768491
19	0xbdea915b	-0.114535056
20	0xbfb3319c	-1.3999515
21	0xbf85a49a	-1.0440857
22	0xbf037635	-0.51352245
23	0xbe468012	-0.19384792
24	0xbe3708a5	-0.17874391
25	0xbed50b61	-0.41610244
26	0xbeb04ac5	-0.34432045
27	0xbf418359	-0.75591046
28	0xbff586c0	-1.9181747
29	0xbf4a1079	-0.78931385
30	0xbfa026e4	-1.2511868
31	0xbf6d91ab	-0.92800397
32	0xbeda2358	-0.4260509
33	0xbf5f387e	-0.87195575
34	0xbeb3a184	-0.35084164
35	0xbf9773a5	-1.1832167
36	0xbf148de7	-0.58029026
37	0xbfd62780	-1.6730804
38	0xbe994f68	-0.29943395
39	0xbfce887b	-1.61354
40	0xbf36b158	-0.71364355
41	0xbfe0c65c	-1.7560534
42	0xbfc78fb1	-1.5590726
43	0xbf8307d4	-1.0236764
44	0xbfa8d9ba	-1.3191445
45	0xbfcd029a	-1.6016419
46	0xbfbeb8d9	-1.4900161
47	0xbf2bf1b2	-0.6716567
48	0xbf90fcf6	-1.1327198
49	0xbfb68974	-1.4260697
50	0xbf73d07b	-0.9523999
51	0xbeacaaaa	-0.33723956
52	0xbe2a8fa0	-0.16656351
53	0x3d7c2d51	0.061566655
54	0xbdc8aad2	-0.097982064
55	0xbfd3676d	-1.6515938
56	0xbf9b4248	-1.2129602
57	0xbf846de9	-1.0346042
58	0xbf97d13b	-1.1860727
59	0xbf2f035c	-0.683645
60	0xbf07dbf7	-0.53070015
61	0xbfbeeba4	-1.4915662
62	0xbfab5934	-1.3386598
63	0xbdc2a47e	-0.09504031

w_agents.2.weight f4 [32, 64]
0	0x3bce950a	0.006304388
1	0xbd168c53	-0.036754917
2	0xbd450779	-0.04810283
3	0xbd61c4d3	-0.055119347
4	0xbdb7b2ab	-0.08969625
5	0x3b992b65	0.0046743625
6	0xbe032cc3	-0.12810044
7	0x3d81c95c	0.063372344
8	0x3d580e3f	0.05274796
9	0xbd8be612	-0.06830992
10	0xbceb0469	-0.028688626
11	0x3d2ba77c	0.041907772
12	0xbd8e2a04	-0.069416076
13	0x3d6ce439	0.057834838
14	0x3b69ce64	0.0035675997
15	0x3bf74cde	0.007547005
16	0xbda274e1	-0.07932449
17	0xbcb3820e	-0.0219126
18	0xbdd2e4c1	-0.102975376
19	0xbe2176ed	-0.15768023
20	0xbe40c09b	-0.18823473
21	0x3c080bc5	0.008303587
22	0xbe4ea3be	-0.2017965
23	0xbdbf1175	-0.093295015
24	0xbe1be23d	-0.15223022
25	0xbb50d5f3	-0.0031865805
26	0xbb9fb45a	-0.0048737945
27	0xbda6def8	-0.08147997
28	0xbdb9536e	-0.09049116
29	0x3d3fe581	0.04684973
30	0x3ca666f1	0.020312758
31	0xbce6d39c	-0.028177075
32	0xb890a038	-6.896298e-05
33	0xbddf0ae9	-0.10890753
34	0xbd2cfcc1	-0.042233232
35	0xbe1354ce	-0.14387819
36	0xbde15ab5	-0.11003629
37	0xbd88c6ca	-0.06678541
38	0xbe3844ba	-0.17994967
39	0xbd26ad77	-0.040692773
40	0xbd666558	-0.056248993
41	0xbd8a3292	-0.06747927
42	0x3d2d385c	0.042290077
43	0x3d222628	0.03958717
44	0x3d498eac	0.049208328
45	0x3cc5a1bd	0.024124974
46	0xbdbb239b	-0.091376506
47	0xbd07ca7b	-0.033152085
48	0xbdc93cf0	-0.09826076
49	0xbb1f21b5	-0.0024281566
50	0xbd8b128e	-0.067906484
51	0xbe0eed9a	-0.13957825
52	0xbcc7bf51	-0.024383219
53	0xbe052c5d	-0.13005204
54	0xbcf11649	-0.029429572
55	0xbdc66870	-0.096878886
56	0xbc669850	-0.0140744
57	0xbd500b15	-0.05079182
58	0xbda49e00	-0.080379486
59	0x3d7eedca	0.062238492
60	0x3beb78dd	0.007186039
61	0x3bba06bb	0.005677072
62	0xbdab5e8a	-0.08367641
63	0xbd9774cc	-0.07395324
64	0xc065eff1	-3.5927699
65	0xbed09382	-0.4073754
66	0xbf3455b7	-0.7044329
67	0xbfbac63b	-1.4591745
68	0xbef21379	-0.4728048
69	0xbf44faf1	-0.76945406
70	0xbf066d31	-0.5251036
71	0xbea0618d	-0.31324425
72	0x3dc4b90d	0.09605608
73	0xbe827972	-0.2548328
74	0xbe1f67ed	-0.15566988
75	0x3ce81eac	0.028334938
76	0xbf55efd5	-0.8356908
77	0xbdd67d28	-0.104730904
78	0x3e39c8a1	0.1814294
79	0xbdcef624	-0.10105541
80	0x3e5873a2	0.2113786
81	0xbec9e291	-0.3943067
82	0x3f9fbf63	1.2480282
83	0xbdf1c970	-0.11805999
84	0x3d06fc5c	0.032955512
85	0x3f18e63c	0.5972631
86	0xbe35a879	-0.17740048
87	0x3d836021	0.064148195
88	0xbd98c75d	-0.074599005
89	0xbcf58d1b	-0.02997451
90	0xbe19f115	-0.15033372
91	0xbcc2ed55	-0.02379481
92	0xbf6fbc39	-0.9364658
93	0xbf1bca8e	-0.6085595
94	0xbdb6d9d1	-0.08928264
95	0xbe869633	-0.26286468
96	0xc020b193	-2.5108383
97	0xbde35178	-0.11099523
98	0xbe89ffb9	-0.26952913
99	0xbf481a5e	-0.78165233
100	0x397b55cf	0.00023969192
101	0x3ec187bb	0.37798867
102	0xbe98bf7c	-0.2983359
103	0x3f8118eb	1.0085729
104	0xbd2241c8	-0.039613515
105	0x3f34f72c	0.70689654
106	0xbf653158	-0.8952842
107	0xbe1070b1	-0.14105488
108	0x3e8a7800	0.27044678
109	0x3dc24813	0.09486403
110	0xbf2954dd	-0.66145116
111	0xbcb176d7	-0.021663113
112	0xbf7ea55a	-0.99471056
113	0xbf94d547	-1.1627587
114	0xbebc9635	-0.3683335
115	0xbe0cc936	-0.13748631
116	0xbe9c40dd	-0.30518237
117	0xbc44276b	-0.011972289
118	0xbe4cdfc5	-0.20007236
119	0xbea58142	-0.32325178
120	0xbe1329a0	-0.14371347
121	0x3ec6facc	0.38863218
122	0xbf08f3d6	-0.53497064
123	0x3d8793de	0.0662
124	0x3e2aac67	0.16667329
125	0x3efe58de	0.49677175
126	0xbdc6e973	-0.09712496
127	0xbe6b1fda	-0.22961369
128	0xbe0b546b	-0.13606422
129	0xbdc7c281	-0.097538956
130	0xbd3b3cb9	-0.045712207
131	0x3d8940a8	0.06701785
132	0xbd964233	-0.07336845
133	0xbd80cbd4	-0.06288877
134	0xbdd3dfc7	-0.103454165
135	0xbe133495	-0.14375527
136	0xbdea67db	-0.1144559
137	0x3d710fc4	0.058852926
138	0xbca0ad9a	-0.01961403
139	0xbd564d19	-0.05231962
140	0xbda145e4	-0.07874659
141	0xbdcc5214	-0.09976593
142	0xbcb73ab5	-0.02236686
143	0xbc50a18a	-0.012733826
144	0xbdac0c32	-0.084007636
145	0xbe022c4b	-0.12712209
146	0x3d6bf482	0.057606228
147	0x3d63f5f3	0.055654477
148	0x3d0f1a10	0.034936965
149	0xbe11c236	-0.14234242
150	0x3cb5d94a	0.022198338
151	0xbda7d532	-0.08194961
152	0x3d985502	0.07438089
153	0xbd1f7ad4	-0.038935497
154	0xbe15b54c	-0.1461994
155	0x3c536348	0.012902088
156	0xbd49b78f	-0.04924732
157	0xbe3cb906	-0.18429956
158	0xbd9fcece	-0.07803117
159	0x3de6a57e	0.11262034
160	0xbdfc4ced	-0.1231936
161	0xbde66896	-0.11250417
162	0x3c88e782	0.016711954
163	0x3d6eddce	0.058317
164	0xbe4f2bcf	-0.20231555
165	0xbc86bbd7	-0.01644699
166	0xbda94ef1	-0.0826701
167	0x3b683676	0.0035432852
168	0xbdad8d41	-0.08474208
169	0x3cb158e7	0.021648837
170	0x3c9e69c5	0.019337544
171	0xbd1b7315	-0.037951548
172	0x3df7e13b	0.12103506
173	0xbbacb0e3	-0.00527011
174	0xbd433432	-0.0476572
175	0xbcc8544a	-0.024454255
176	0xbc9208e9	-0.017826514
177	0xbc0543ff	-0.008133887
178	0x3c58c7ca	0.013231227
179	0x3c3224a5	0.010872995
180	0xbe00ae94	-0.12566596
181	0xbddb4690	-0.10706818
182	0xbdea922c	-0.11453661
183	0x3bc1cb6e	0.0059141433
184	0xbc828357	-0.015931768
185	0xbd0c9bc3	-0.034328233
186	0x3b8d209d	0.0043068663
187	0x3ad9fc70	0.0016631018
188	0xbca01738	-0.019542322
189	0x3d407bbc	0.046993002
190	0xbd065b20	-0.032801747
191	0x3d62ea7b	0.0553994
192	0xbe7c5324	-0.2464109
193	0xbe83fde5	-0.25779644
194	0xbe1a2b35	-0.15055545
195	0x3d1c4a4f	0.038156804
196	0xbd03a79f	-0.032142278
197	0x3d73f73d	0.059561957
198	0xbe512976	-0.20425972
199	0x3be1197f	0.0068694944
200	0xbe815baf	-0.25265262
201	0xbe7a6d45	-0.24455746
202	0xbe741e4c	-0.23839682
203	0xbd2cafe5	-0.042159934
204	0xbe289eec	-0.16466874
205	0xbe482251	-0.1954434
206	0xbe772463	-0.24134974
207	0x3cf5ff5a	0.030028988
208	0xbd1517ff	-0.036399838
209	0xbe88e64a	-0.26738197
210	0x3dc5a58c	0.09650716
211	0x3d332103	0.043732654
212	0x3d9cf29e	0.07663463
213	0xbe3fe4a1	-0.18739559
214	0xbd8b65f5	-0.06806556
215	0xbe29ea39	-0.16593255
216	0xbdc48fcf	-0.09597742
217	0xbdaa7399	-0.0832283
218	0xbe1af86b	-0.15133826
219	0xbe0673c3	-0.13130097
220	0x3d881804	0.066452056
221	0xbe27a661	-0.16372062
222	0x3d9d2599	0.07673187
223	0xbe05303c	-0.13006681
224	0x3e057b65	0.13035353
225	0xbe65cf28	-0.22442305
226	0xbdf02e51	-0.11727584
227	0xbe215dba	-0.1575841
228	0x3a3c0097	0.0007171719
229	0xbcd24fd3	-0.025672829
230	0xbe32efea	-0.17474332
231	0xbdb3f936	-0.087877676
232	0xbe04b585	-0.12959869
233	0x3df33f26	0.11877279
234	0xbdbfce6b	-0.09365543
235	0xba9f287f	-0.0012142806
236	0x3e270589	0.16310705
237	0x3db7186c	0.08940205
238	0xbd2d3659	-0.042288158
239	0xbc1880fe	-0.009308098
240	0xbe663a49	-0.22483172
241	0xbe72fffe	-0.23730466
242	0xbe99e40b	-0.30056795
243	0xbd04e41b	-0.0324441
244	0xbe8a4a8f	-0.2701001
245	0xbdda4d98	-0.10659331
246	0xbd83e695	-0.064404644
247	0xbddcf0b3	-0.10788097
248	0xbcc8eae5	-0.024526069
249	0xbd06c227	-0.0329
250	0xbd056b78	-0.032573193
251	0xbe0ea64d	-0.13930626
252	0xbda03bd0	-0.07823908
253	0x3e2abd80	0.16673851
254	0xbe2e309b	-0.17010729
255	0xbd32e42e	-0.04367464

w_agents.2.bias f4 [32]
0	0xbe48b819	-0.19601478
1	0xbf1aa002	-0.604004
2	0xbdef9d97	-0.1169998
3	0xbea4d432	-0.32193142
4	0xbe2f2358	-0.17103326
5	0xbf35da8a	-0.7103659
6	0xbe4c9a7e	-0.19980809
7	0xbede03a9	-0.43362167
8	0x3e46a241	0.19397832
9	0xbe7bb449	-0.24580492
10	0xbce7bd95	-0.028288642
11	0xbee442c3	-0.44582185
12	0xbea711fd	-0.3263091
13	0xbf05bb10	-0.5223856
14	0xbe0ed106	-0.13946924
15	0xbc975eae	-0.018477764
16	0xbe39b761	-0.1813636
17	0xbd8f32ba	-0.06992097
18	0xbde13ad8	-0.10997552
19	0xbed850c0	-0.42249107
20	0xbd83fc40	-0.06444597
21	0x3d39b2f3	0.045336675
22	0xbfae5dae	-1.3622339
23	0xbde1c7a4	-0.110244066
24	0xbef439e2	-0.4770041
25	0xbd93b9e1	-0.07213188
26	0xbdf076b1	-0.117413886
27	0x3c953622	0.01821429
28	0x3dada2e7	0.08478337
29	0xbdac1eee	-0.08404337
30	0x3e35c259	0.17749919
31	0x3eb17d39	0.3466585

Ws.0 f4 [32, 32]
0	0xbeebefd4	-0.46081412
1	0xbedf6120	-0.43628788
2	0x3f1597e0	0.5843487
3	0x3f795a06	0.9740299
4	0xbf769648	-0.9632306
5	0xbcb44253	-0.022004282
6	0xbf6c9948	-0.9242139
7	0xbea614c9	-0.32437733
8	0xbfb43bdf	-1.4080771
9	0x3fa929ee	1.3215921
10	0x3f9ce860	1.2258415
11	0x3d55147e	0.052021496
12	0x3fcb7d97	1.5897702
13	0x3f379a82	0.71720135
14	0x3f2ef3da	0.6834084
15	0x3df6c325	0.120489396
16	0x3ec3005a	0.38086206
17	0x3d80bad6	0.06285636
18	0xbe8d0e17	-0.27549812
19	0x3f822672	1.0167983
20	0xbf03c079	-0.51465565
21	0xbf0e30f8	-0.5554347
22	0x3e16ad1e	0.14714476
23	0x3f4dfe0c	0.8046577
24	0xbf2d3b40	-0.67668533
25	0xbfc73e16	-1.5565822
26	0xbf9aefa8	-1.2104387
27	0x3f7dc359	0.991262
28	0x3f84fbe5	1.0389372
29	0x40032a57	2.0494592
30	0x3f507b20	0.81437874
31	0xbee7badb	-0.45259747
32	0xbda860c4	-0.082215816
33	0x3f2c3b34	0.67277837
34	0xc017070e	-2.3598056
35	0x3e8610a8	0.26184583
36	0xc00228ae	-2.033733
37	0xbe4b81a0	-0.19873667
38	0xc02a5766	-2.6615844
39	0x3fbf40b3	1.494162
40	0xbe6b3307	-0.22968684
41	0xbf1e6ed1	-0.6188784
42	0xbe0f97c5	-0.14022739
43	0xc064b50e	-3.5735507
44	0xbe0d58d0	-0.1380341
45	0xbfbac22b	-1.4590505
46	0xbf53f587	-0.8279652
47	0xbff2c729	-1.8967029
48	0x3f15c1aa	0.5849863
49	0xbfb5b234	-1.4195008
50	0xbfb3c015	-1.4042994
51	0xc0744e65	-3.8172848
52	0xbed8cb58	-0.4234264
53	0xbf695d7e	-0.9115828
54	0x3eb388b6	0.3506524
55	0x3d712c09	0.058879886
56	0xbe49a1e2	-0.1969066
57	0xbf9dd872	-1.2331679
58	0x3f19af7d	0.600334
59	0xbfc8199c	-1.5632815
60	0x3f52f9c7	0.8241238
61	0x3fc10798	1.5080442
62	0x3f36153a	0.7112614
63	0x3febd66a	1.8424809
64	0xbedba57c	-0.42899692
65	0x3f6fe76f	0.93712515
66	0x3e3de7ac	0.18545407
67	0xbf8a4034	-1.0800843
68	0x3fe3f28b	1.7808393
69	0xbe9ae627	-0.30253717
70	0x3e643b7e	0.2228832
71	0x3ff7d1b3	1.936087
72	0xbf75481b	-0.9581315
73	0x40012dc2	2.0184178
74	0xc018f329	-2.3898413
75	0xc00d3e2d	-2.20692
76	0x3f67a295	0.90482455
77	0x3e80d75b	0.25164303
78	0x3f1bf95b	0.6092736
79	0x3fc13387	1.509385
80	0xbf4e25c4	-0.80526376
81	0xc00a7d79	-2.1639082
82	0x3fbe681b	1.487552
83	0x3f81a508	1.0128489
84	0x3ec5eab8	0.3865564
85	0x3f4de9d1	0.804349
86	0xbfc6bb0c	-1.5525832
87	0xbe6a2146	-0.22864255
88	0xc024f468	-2.5774174
89	0xbf8ea0ee	-1.1142862
90	0x3d2141d4	0.03936942
91	0x3f9a649a	1.2061951
92	0x3eb28912	0.348702
93	0xbec0fe1e	-0.37693876
94	0xc0fa32bf	-7.8186946
95	0x3f8abe32	1.0839293
96	0xbf9d6452	-1.229624
97	0x3e03dfee	0.12878391
98	0x3d502563	0.050816905
99	0x3fd38741	1.6525651
100	0xbff2a3a9	-1.8956195
101	0x3f86b8cd	1.0525147
102	0xbe998681	-0.2998543
103	0x3e5687df	0.20950268
104	0x3dd62119	0.104555316
105	0xbf84b0a3	-1.0366405
106	0x3e938b03	0.28816995
107	0x3e9a1307	0.30092642
108	0xbf03eaa6	-0.5152992
109	0xbe867885	-0.26263824
110	0x3f208802	0.6270753
111	0xbef066eb	-0.4695352
112	0xbf05320b	-0.52029485
113	0x3fdfc782	1.748276
114	0xbf013ebe	-0.5048636
115	0x3f9c0fbf	1.2192305
116	0xbff84a8b	-1.9397749
117	0xbfb1506e	-1.385267
118	0x3f5589c3	0.8341333
119	0x3cb98f6f	0.022651402
120	0x3e68f710	0.22750497
121	0x3fab787a	1.3396142
122	0x3fd0797a	1.6287072
123	0x3e9a5741	0.30144694
124	0x3e5309eb	0.20609252
125	0xbfeff360	-1.8746147
126	0x3f7b8fb0	0.98266125
127	0x3f1ed07f	0.6203689
128	0x3dbc3eaa	0.0919164
129	0xbf8c6640	-1.0968704
130	0xbf48aac6	-0.7838558
131	0xc023f5b4	-2.5618715
132	0x3d2d1801	0.04225922
133	0x3fb68eeb	1.4262365
134	0xbd5d5608	-0.054037124
135	0xbec40274	-0.38283122
136	0xbfa152e1	-1.2603418
137	0x3f721ab5	0.94572
138	0xbe0c90d4	-0.13727123
139	0x3f9163aa	1.135854
140	0x3b842729	0.0040329886
141	0xbe42e9f5	-0.1903456
142	0x3f092196	0.53566873
143	0xbe0dffa0	-0.13867044
144	0x3f0f754c	0.56038356
145	0x3f03f3a3	0.51543635
146	0xbe11238d	-0.14173718
147	0xbe3909af	-0.180701
148	0x3fbef0e5	1.4917265
149	0xbe444555	-0.19167073
150	0xbf13a0a5	-0.57667
151	0xbf3a9ba0	-0.72893715
152	0x4063ad44	3.5574503
153	0x3f69df14	0.91356015
154	0xbf5400a3	-0.8281347
155	0xc0105769	-2.255335
156	0xbf9ce745	-1.2258078
157	0x3fc0297b	1.5012659
158	0x3f174d34	0.5910218
159	0xbf979ade	-1.1844137
160	0xc0244a5b	-2.5670383
161	0xbe54d672	-0.2078493
162	0x3f31f3c0	0.6951256
163	0xc0693874	-3.6440706
164	0xbfbdf388	-1.4839945
165	0xbe19750d	-0.14986058
166	0xc01927ad	-2.3930466
167	0xbfa87952	-1.3162024
168	0x3f7f3c4e	0.9970139
169	0x3fae79e4	1.3630948
170	0x3e687da1	0.22704174
171	0xbeef6096	-0.46753377
172	0x3f366c6f	0.71259207
173	0x3e86a3f3	0.26296958
174	0x3edcd587	0.43131658
175	0x3f4e1d68	0.8051362
176	0xbfcef096	-1.6167171
177	0x3f433db3	0.7626602
178	0x3e2b1474	0.16707021
179	0x3f24f89c	0.6444185
180	0x3e08a453	0.13343935
181	0xbfd50e16	-1.6644924
182	0xbfb62e8a	-1.4232953
183	0xc0251b1a	-2.5797791
184	0x3f332848	0.6998334
185	0xbe065ceb	-0.13121383
186	0xbf0fb118	-0.561296
187	0xbeecbd82	-0.46238333
188	0xbdcb6b88	-0.09932619
189	0x3e211774	0.15731603
190	0xbfaaf221	-1.3355142
191	0xbf7c306d	-0.9851139
192	0xbf4eedd9	-0.80831677
193	0xc01427f2	-2.314938
194	0xbfbee75e	-1.4914358
195	0xbffc272c	-1.9699454
196	0xbfdd6689	-1.7296916
197	0xc0451148	-3.0791798
198	0x3f7ad48f	0.9798059
199	0xbf6d2460	-0.9263363
200	0xbc0bb953	-0.008528071
201	0xbf20b9dd	-0.62783605
202	0x3f9fee5e	1.2494619
203	0x3f3cac3e	0.7370032
204	0x3fa3be2d	1.2792412
205	0xc02c83f1	-2.695553
206	0x3fa9aeb9	1.3256446
207	0x3fdcfca8	1.7264605
208	0x40287654	2.6322222
209	0x3f6f1e49	0.93405586
210	0xbf5c837e	-0.8613814
211	0x3fbaef03	1.460419
212	0xbd712021	-0.05886853
213	0x3f8ba20c	1.0908828
214	0x3f9c7ca8	1.2225542
215	0x3ebe4993	0.37165508
216	0xbe3d62e8	-0.18494761
217	0xbff81b38	-1.9383307
218	0xbf963628	-1.1735277
219	0xbfbc3bb9	-1.4705726
220	0x3f60ac78	0.87763166
221	0xbd87d4be	-0.06632374
222	0xc0692a95	-3.643224
223	0xbff3731f	-1.9019507
224	0x3ef9a6d7	0.487601
225	0x3eb34bef	0.3501887
226	0xbe6a79f9	-0.22898091
227	0x3f3af32e	0.7302731
228	0xbf7b6bca	-0.9821135
229	0xbfccc3d9	-1.5997268
230	0x3f381752	0.71910584
231	0xbf043185	-0.5163806
232	0x3f09c7c5	0.5382045
233	0x3ef999a7	0.4875004
234	0x3ddc1454	0.10746065
235	0xbe244a5b	-0.1604399
236	0x3eb528a5	0.35382572
237	0xbeb87a58	-0.3603084
238	0x3fb1d17d	1.3892056
239	0xbf7e8569	-0.9942232
240	0xbcbe2788	-0.02321221
241	0x3f130594	0.57430387
242	0xbe17d074	-0.14825612
243	0x3e3da749	0.18520845
244	0xc008efe3	-2.1396415
245	0xbfcac7dd	-1.5842243
246	0x3fbae5f5	1.4601427
247	0xc00b4803	-2.1762702
248	0xc01da0e4	-2.462945
249	0xbf3f7a75	-0.7479623
250	0x3e8e9f20	0.27855778
251	0x3b7cf9c2	0.0038601016
252	0xbf578b00	-0.8419647
253	0x3e88926b	0.26674208
254	0x3f61178c	0.87926555
255	0x3dd4a1da	0.10382433
