crowd_nav/data-3/best_val.pth (torch_old, 93696 bytes, 18 tensors)

w_a f4 [32, 32]
0	0xbfed6c78	-1.8548727
1	0xc022fd14	-2.5466967
2	0x3f5f9cf8	0.8734889
3	0xbf21571a	-0.6302353
4	0x3e04e0ef	0.1297643
5	0x3e8b24b2	0.27176434
6	0x3b4a267e	0.0030845697
7	0xbe87d338	-0.26528335
8	0xbea118f3	-0.31464347
9	0xbe2fe608	-0.17177594
10	0xbeab4a63	-0.3345519
11	0xbed33704	-0.4125291
12	0xbf5d8f64	-0.8654692
13	0x3f970efe	1.180145
14	0xbf88230c	-1.0635695
15	0xbd3fbb51	-0.0468095
16	0x40009c08	2.0095234
17	0x401b952a	2.4309793
18	0x3d4d9753	0.050193142
19	0x40a3b54e	5.115882
20	0xbf661ba2	-0.89885914
21	0xc033cb7f	-2.8092954
22	0xbf99e108	-1.2021799
23	0x3f3602e1	0.7109814
24	0x40293bac	2.644267
25	0xbfa920be	-1.3213117
26	0x3f31e210	0.6948557
27	0xbf180122	-0.5937673
28	0xbf29095b	-0.660299
29	0x3f4426a8	0.76621485
30	0xbfa5ec00	-1.2962646
31	0xbe0d9e39	-0.13829888
32	0x3d7b13cc	0.061298177
33	0xbe95251d	-0.29129878
34	0xc03ceef5	-2.9520848
35	0x3f88ebf5	1.0697008
36	0x3d475af7	0.048670735
37	0x3f96a404	1.1768804
38	0xbf99d904	-1.2019353
39	0xbf05051e	-0.51960933
40	0xbff324d6	-1.8995616
41	0xbe908502	-0.28226477
42	0x3ef762d3	0.48317584
43	0xc00ff0fb	-2.2490833
44	0x3f0eb1d8	0.5574012
45	0x3f2ab2aa	0.6667887
46	0xbe7ccc72	-0.24687365
47	0x404fd5ae	3.247417
48	0x3edeb2eb	0.4349588
49	0x3e8f8d16	0.28037328
50	0x3dc5b85a	0.09654303
51	0x3cb610bf	0.022224782
52	0xbf05bf16	-0.522447
53	0xc00a1218	-2.1573544
54	0x3f94326f	1.1577891
55	0x3f3be4c1	0.73395926
56	0x3edc7cf4	0.43064082
57	0x3e9c79d3	0.30561695
58	0x3f6fb832	0.93640435
59	0x3f893a7e	1.0720975
60	0x3eda2268	0.42604375
61	0x3f54340c	0.8289192
62	0x3dcaf3fe	0.09909819
63	0x3ee5b7e3	0.44866857
64	0xbf93dad4	-1.1551156
65	0xbeb21e42	-0.3478871
66	0x403291f2	2.7901578
67	0xc010afd1	-2.260731
68	0xc00976aa	-2.1478677
69	0xc010d074	-2.262723
70	0x4054dd9a	3.3260255
71	0xc010e91b	-2.2642276
72	0xbf32f955	-0.699117
73	0x40037651	2.0540965
74	0x3f81a25b	1.0127672
75	0x3fc139fe	1.5095823
76	0xbf93d385	-1.1548926
77	0xc01c8911	-2.4458659
78	0x3f261ef4	0.6489098
79	0x408192af	4.0491557
80	0x3fcb084f	1.586191
81	0xc0322811	-2.7836955
82	0xbc916b4f	-0.017751364
83	0x4091039a	4.5316896
84	0x3f3e25af	0.7427625
85	0x3f2a8b12	0.66618454
86	0x3fb1f03d	1.390144
87	0xbc3615d4	-0.011113603
88	0x3faad4ba	1.3346169
89	0x3f9b69e7	1.2141694
90	0x3fc97eb7	1.5741795
91	0xbede697e	-0.4343986
92	0xc014cef4	-2.3251314
93	0x3b569e49	0.0032748154
94	0xbe9476bd	-0.2899684
95	0x3ffcb6f7	1.9743336
96	0x3e784019	0.24243201
97	0x3e20ec77	0.15715204
98	0xc023c690	-2.5589943
99	0xbe69388a	-0.22775474
100	0xbf0ae985	-0.5426257
101	0xbe999b1d	-0.30001155
102	0x3d8ca64c	0.06867656
103	0x3e2cd7fe	0.1687927
104	0x3e15f0ed	0.14642687
105	0xc0172b87	-2.3620317
106	0xbef6d29f	-0.48207566
107	0xbdde5d40	-0.1085763
108	0x3fd79dd2	1.6845038
109	0xbf4d3de1	-0.80172545
110	0x3deb6e8d	0.11495695
111	0xc00e777c	-2.2260427
112	0xbf7ff7ac	-0.9998729
113	0x3fcb40f2	1.5879195
114	0xbe2615ba	-0.16219226
115	0xbe945eaf	-0.28978488
116	0x3d515b30	0.051112354
117	0xbe10a424	-0.14125115
118	0xbf2bc936	-0.671039
119	0xbffe0f81	-1.9848481
120	0xbe0ac420	-0.13551378
121	0x3fa3e1c5	1.2803274
122	0xbfb61063	-1.4223751
123	0xbf1ee863	-0.62073344
124	0x3eb537e6	0.3539421
125	0xbcf07243	-0.02935136
126	0x3e9f000a	0.31054717
127	0x3dc637e7	0.09678631
128	0x3fe6b8ac	1.8025107
129	0x3f3e81a1	0.7441655
130	0xbffa94fa	-1.9576714
131	0xbeb3c5dc	-0.35111892
132	0xbd0a0354	-0.03369458
133	0x3e5dfc4c	0.21678275
134	0xbe94330a	-0.2894519
135	0x3da106bd	0.07862613
136	0x401308fc	2.2974234
137	0xbf12ac47	-0.57294124
138	0x3f4853c6	0.7825283
139	0xbe645ad1	-0.22300269
140	0x3f87167d	1.0553738
141	0xbf2c20da	-0.6723763
142	0xbece44c9	-0.40286854
143	0x3f1ce719	0.6129013
144	0xbf0ec68d	-0.55771714
145	0xbe8c3944	-0.2738744
146	0x3d93efe9	0.072234936
147	0xbe2b8a13	-0.1675189
148	0xbeb17f90	-0.34667635
149	0x3ead91a7	0.33900186
150	0x3f88f874	1.0700822
151	0xbf1d3d2d	-0.6142147
152	0x3ef704e6	0.48245925
153	0xbeac1d42	-0.33616072
154	0x3e941b4d	0.2892708
155	0xbe0093b6	-0.12556347
156	0x3eb16b18	0.3465202
157	0xbe465b4e	-0.19370767
158	0x3f0f2115	0.55909854
159	0xbec8a564	-0.39188683
160	0xbfdb228c	-1.7119918
161	0xbf5b94d8	-0.8577399
162	0xbf0887d3	-0.5333225
163	0x3b82ed90	0.003995605
164	0xbf2db9c7	-0.678616
165	0xbf50680e	-0.81408775
166	0x3fa34811	1.2756368
167	0xbfe7389a	-1.8064148
168	0x4040bcc9	3.0115225
169	0xbecda694	-0.40166152
170	0xbc7fc5b9	-0.015611106
171	0x3fbde674	1.4835954
172	0x3eb74ace	0.3579926
173	0x3f04c2c1	0.5185967
174	0x3f153b75	0.5829385
175	0xbeed7f51	-0.46386197
176	0x3ee7d306	0.45278186
177	0xbfd70c79	-1.6800681
178	0xbfb3b641	-1.4039994
179	0x3cede1ad	0.029038275
180	0xc0379e6d	-2.8690445
181	0xbda03b26	-0.07823782
182	0xbf8fca1a	-1.1233552
183	0x3d5525d5	0.052038033
184	0xbed1a4bc	-0.40945995
185	0xbf046a9e	-0.51725185
186	0xbcc926da	-0.024554659
187	0x3cdb3df6	0.026762944
188	0xbf81ae4d	-1.0131317
189	0x3f340738	0.70323515
190	0xbfb88bc3	-1.4417652
191	0xbe2714c2	-0.16316512
192	0x3f3d2654	0.7388661
193	0xbff053d9	-1.8775588
194	0xbf58a178	-0.8462138
195	0xbe279405	-0.16365059
196	0x3d824ac3	0.06361916
197	0xbf2b99c4	-0.670315
198	0x3d9a4000	0.07531738
199	0x3f145b75	0.5795205
200	0xbfc85903	-1.5652164
201	0x3fd1c1ab	1.6387228
202	0x3f4cf20f	0.8005685
203	0x3ed1084f	0.4082665
204	0xbfdf8c3e	-1.7464674
205	0x3f0912be	0.53544223
206	0x3f0ab5ba	0.5418354
207	0x3f45cec8	0.7726865
208	0xbef320e4	-0.4748603
209	0x3f23bf20	0.6396351
210	0x3ecfd2aa	0.4059041
211	0x3f5de2c6	0.86674154
212	0xbff6dfe2	-1.9287074
213	0x3e1407d3	0.1445611
214	0xc026d1d3	-2.6065567
215	0xbf209f97	-0.62743515
216	0xbf195163	-0.5988981
217	0xbfef8a93	-1.8714164
218	0x3ee036ba	0.43791753
219	0x3f5ddb65	0.86662894
220	0x3e5e3e57	0.21703468
221	0xbf433c8a	-0.7626425
222	0xbf06f168	-0.52712107
223	0xbf22796e	-0.63466537
224	0xbf8b0e43	-1.0863727
225	0x3f76e1db	0.9643838
226	0xc0156ae7	-2.3346498
227	0x3e8aea17	0.2713172
228	0xbdbaf148	-0.09128052
229	0xbd851f3f	-0.065001
230	0xbef1eb35	-0.4724976
231	0xbde2fd6d	-0.110834934
232	0xbebe1aa3	-0.37129697
233	0xba3345fd	-0.0006838737
234	0x3f5e6461	0.86871916
235	0x3eb6a6a1	0.35674003
236	0x3d5d721c	0.0540639
237	0x3f69c8e0	0.91322136
238	0x3dcb5365	0.099280156
239	0xbfcda231	-1.6065122
240	0xbf342fab	-0.70385236
241	0xbf153378	-0.5828166
242	0xbe873c16	-0.2641303
243	0xbea1b2b9	-0.31581667
244	0xbdc9d126	-0.09854345
245	0xbf6d4cdf	-0.9269542
246	0xbeb84e19	-0.35997084
247	0xbf389fb0	-0.72118664
248	0x3e279ffe	0.16369626
249	0x3e1ed253	0.1550992
250	0x3e121efd	0.14269634
251	0xbe9e0c8f	-0.30868956
252	0xbe835aaf	-0.25655124
253	0xbe2abc5d	-0.16673417
254	0x3e9c9811	0.30584767
255	0x3e09dd7f	0.134634

w_group.0.weight f4 [64, 8]
0	0xbdcda20c	-0.100406736
1	0xbc32a9a7	-0.010904706
2	0x3f913aa4	1.1346021
3	0xbf75df1a	-0.9604355
4	0xbeaa676b	-0.33282027
5	0xbedd2a72	-0.43196446
6	0xbe257126	-0.16156444
7	0xbede4b90	-0.43417025
8	0xbe48bdf6	-0.19603714
9	0xbe10de7a	-0.14147368
10	0xbf284335	-0.6572755
11	0xbf8541de	-1.0410726
12	0xbe55596a	-0.2083489
13	0xbf18036f	-0.5938024
14	0xbf79bb51	-0.9755145
15	0xbf13612c	-0.5757015
16	0xbe90c9ff	-0.2827911
17	0xbe7233c8	-0.23652565
18	0x3f982658	1.1886702
19	0xbd643f4b	-0.055724423
20	0xbe92a9e6	-0.28645247
21	0xbf3f7492	-0.7478725
22	0x3d29f060	0.041489005
23	0xbf4cb5db	-0.7996499
24	0x3e1de87a	0.15420714
25	0x3dafd8f8	0.085863054
26	0x3f8294a2	1.0201609
27	0x3daceb66	0.08443336
28	0xbe8ecbc8	-0.27889848
29	0x3f24ad20	0.6432667
30	0xc007bf83	-2.121064
31	0x3f23c6f2	0.6397544
32	0x3e0dc70c	0.13845462
33	0x3eda6f7e	0.42663187
34	0x3e96bd1b	0.2944115
35	0x3df49e6e	0.119442806
36	0x3e4d2696	0.2003425
37	0x3d21b178	0.039475888
38	0x3fc0188c	1.5007491
39	0xbe8c26ee	-0.2737345
40	0xbd1db212	-0.0384999
41	0xbc55e06b	-0.013053994
42	0xbd5f5cc8	-0.054531842
43	0xbddf560d	-0.10905085
44	0xbda1fbb8	-0.0790934
45	0x3d42ee97	0.04759082
46	0xbeb07ab6	-0.3446862
47	0xbeda3e64	-0.42625725
48	0xbe81a807	-0.25323507
49	0xbcbb98d7	-0.022900028
50	0x3f9b7686	1.2145545
51	0x3f879735	1.059302
52	0x3dbf5260	0.09341884
53	0xbf210cdd	-0.6291025
54	0xbf36c468	-0.7139344
55	0xbeec7637	-0.4618394
56	0x3e38dca6	0.1805292
57	0xbd8b487b	-0.06800934
58	0x3eac6c37	0.3367631
59	0xbf84dd7f	-1.0380095
60	0x3e8bc99b	0.2730225
61	0xbf2eb7fc	-0.6824949
62	0xbe6548f3	-0.22391109
63	0xbf314ddd	-0.69259435
64	0xbde52b85	-0.11189941
65	0xbd630c29	-0.05543152
66	0xbf21cb95	-0.63201267
67	0x3f38fb29	0.7225824
68	0x3c637960	0.0138839185
69	0xbf1ecb84	-0.6202929
70	0xbe8a87fa	-0.27056867
71	0xbe9c9a02	-0.3058625
72	0xbd7eb7b0	-0.062186897
73	0xbc2f2295	-0.010689397
74	0xbef75fbe	-0.48315233
75	0x3c7aee13	0.01531555
76	0x3e97b101	0.2962723
77	0xbe37a4c5	-0.17933948
78	0xbeb0b527	-0.34513208
79	0xbf243ae1	-0.6415234
80	0xbf97299e	-1.1809576
81	0x3f367469	0.7127138
82	0xbf895d87	-1.0731667
83	0x3c846d6c	0.016165458
84	0x3ea723ef	0.32644603
85	0xbef22a8c	-0.47298086
86	0x3fd77cf8	1.6835012
87	0xbe26b259	-0.16278972
88	0xbe95178d	-0.2911953
89	0x3e03b419	0.1286167
90	0x3e46f882	0.19430736
91	0x3ed7c413	0.4214178
92	0xbe2d6964	-0.16934735
93	0xbeef19a5	-0.46699253
94	0xbf484966	-0.78237
95	0xbf0d366d	-0.5516117
96	0x3e1ff7f2	0.15621927
97	0xbd4e8e1e	-0.050428502
98	0xbec33e05	-0.38133255
99	0x3f451add	0.76994115
100	0xbe0f5a2b	-0.1399924
101	0xbf381330	-0.7190428
102	0x3e542394	0.20716697
103	0xbf5d8282	-0.86527264
104	0x3e661c90	0.22471833
105	0x3ea41397	0.32046196
106	0xbe81b198	-0.25330806
107	0x3c83ecca	0.01610412
108	0xbe1d6e4a	-0.15374103
109	0xbf053dae	-0.5204724
110	0xbfa21bd3	-1.2664741
111	0xbf4b5471	-0.7942572
112	0xbe2fc7a2	-0.17165998
113	0xbe30c15b	-0.1726126
114	0xbfbac49a	-1.4591248
115	0x3e2665e1	0.16249801
116	0x3e678e72	0.22612932
117	0xbed69402	-0.41909796
118	0xbfd873d7	-1.6910352
119	0xbf1720f8	-0.5903468
120	0xbef71504	-0.4825822
121	0x3ea57ac7	0.32320234
122	0xc023f4e7	-2.5618227
123	0xbfc7cb41	-1.5608903
124	0x3d041740	0.032248735
125	0xbe1af010	-0.15130639
126	0xc028a329	-2.6349585
127	0xbf23d50f	-0.63996977
128	0xbdcefb0f	-0.101064794
129	0xbd807fe8	-0.06274396
130	0xbead00cf	-0.3378968
131	0xbf4e72bb	-0.80643815
132	0x3df969f4	0.12178412
133	0xbf4e176b	-0.80504483
134	0x3f2d718b	0.6775138
135	0xbee4752d	-0.44620648
136	0xbfb5d4b3	-1.4205536
137	0x3f9ed324	1.2408185
138	0x3f016faa	0.5056101
139	0xbf8e4180	-1.1113739
140	0xbe92330c	-0.2855457
141	0xbf23c712	-0.6397563
142	0xbf0e37de	-0.55553997
143	0xbee39a13	-0.44453487
144	0x3f9944ae	1.1974084
145	0x3f6204b9	0.88288456
146	0xbe3d1859	-0.18466319
147	0x3eb6988a	0.35663253
148	0xbe677f6d	-0.22607203
149	0x3e1bc40b	0.15211503
150	0x3efc8794	0.49322188
151	0x3eaec461	0.341342
152	0xbec8b930	-0.39203787
153	0x3ee872d8	0.4540012
154	0xc017bbae	-2.37083
155	0x3e8250b5	0.254522
156	0x3eae4b55	0.3404185
157	0x3b91dd77	0.0044514495
158	0xbf869a0b	-1.051576
159	0xbe5c6b5d	-0.21525331
160	0x3d91e72b	0.0712417
161	0xbe59e929	-0.2128035
162	0x3f7b4fef	0.98168844
163	0x3f12d23d	0.5735205
164	0xbe4c79bc	-0.19968313
165	0xbe4474b1	-0.19185139
166	0xbfcf76aa	-1.6208088
167	0xbf2e5612	-0.6810008
168	0xbdd7416e	-0.105105266
169	0xbd7755de	-0.060384624
170	0x3f79db81	0.9760056
171	0xbe81fff0	-0.25390577
172	0xbe9ddd4d	-0.30832902
173	0xbee4c387	-0.44680426
174	0xbf35c05c	-0.7099664
175	0xbf2b4880	-0.669075
176	0x3dab1a68	0.08354646
177	0xbd742b18	-0.05961141
178	0x3f33e0a4	0.7026465
179	0xbf472d97	-0.7780394
180	0xbeafde3d	-0.34349242
181	0xbf3e599c	-0.74355483
182	0x3f0905ec	0.5352466
183	0xbedf59fa	-0.43623334
184	0x3d26ab1e	0.040690534
185	0x3e09bd64	0.13451153
186	0xbd8de896	-0.06929128
187	0xc00b7549	-2.1790335
188	0x3c8f8fd0	0.01752463
189	0x3e20a929	0.1568953
190	0x3f01aa44	0.5065043
191	0x3e60270d	0.21889897
192	0x3e52911a	0.20563164
193	0x3df5b44e	0.11997281
194	0x3e306c1f	0.17228745
195	0x3d4a0754	0.049323395
196	0xbd65b8d8	-0.056084484
197	0xbedd131a	-0.43178636
198	0xbe8d90cb	-0.2764953
199	0xbf198aa7	-0.5997719
200	0xbe477838	-0.19479454
201	0xbedfe134	-0.43726504
202	0xbeb74b10	-0.35799456
203	0x3fce2ec2	1.6108019
204	0x3e3f90e2	0.18707612
205	0x3d3bef23	0.045882355
206	0xc0330185	-2.7969677
207	0x3e82f1d5	0.25575128
208	0x3fc39652	1.5280249
209	0x3eea5030	0.45764303
210	0x3ffccb36	1.9749515
211	0xbf6aacda	-0.9167
212	0x3d363a50	0.044489205
213	0x3d1fb541	0.038991217
214	0xbe3cd2a8	-0.18439734
215	0x3d8d86e5	0.06910495
216	0xbebdfdbd	-0.3710765
217	0x3ff11043	1.8833088
218	0x3d4dd4f1	0.050251905
219	0x3e8565cb	0.26054224
220	0xbe4075cc	-0.18794936
221	0xbe300edc	-0.17193168
222	0xbf2f8eda	-0.6857735
223	0x3b39e3a3	0.0028364442
224	0x3f452e67	0.7702393
225	0xbcb672f0	-0.022271603
226	0xc019ae4c	-2.4012632
227	0x3fa601eb	1.2969335
228	0x3df3b674	0.119000345
229	0xbf864b32	-1.0491698
230	0x3ecb3d59	0.39695242
231	0xbf7750d2	-0.96607697
232	0xbd4cfab1	-0.050043765
233	0xbd9228c3	-0.07136681
234	0x3f97ff33	1.1874756
235	0xbe896b18	-0.2683952
236	0xbe950ae8	-0.29109883
237	0xbe33f579	-0.17574109
238	0xbf9cac32	-1.224005
239	0xbed7e273	-0.42164955
240	0xbee4f089	-0.44714764
241	0x3efb6b32	0.4910522
242	0x3ffa77b6	1.9567783
243	0xbe1b398b	-0.1515867
244	0xbe9f2e0d	-0.3108982
245	0xbf6dc1ac	-0.92873645
246	0x3eb6637c	0.35622776
247	0xbee77f86	-0.4521448
248	0xbdcdd3ca	-0.10050161
249	0xbdc04825	-0.093887605
250	0xbf7c95f1	-0.9866629
251	0x3f8fa160	1.1221123
252	0xbe211102	-0.15729144
253	0xbee28bae	-0.44247192
254	0xbf6952d7	-0.9114203
255	0xbee1b080	-0.4407997

w_group.0.bias f4 [64]
0	0xbf431a2f	-0.7621183
1	0xbf236cbd	-0.63837796
2	0xbf4e9e13	-0.8070995
3	0x3db56efa	0.08859058
4	0xbec8c99f	-0.39216325
5	0xbf136857	-0.57581085
6	0xbef46fa5	-0.47741428
7	0xbf4bc26f	-0.7959356
8	0xbf04cd4d	-0.51875764
9	0xbec4601c	-0.38354576
10	0xbef45a8c	-0.47725332
11	0xbf4b2bb8	-0.79363585
12	0xbf53b59e	-0.82699
13	0xbf0eb7a4	-0.55748963
14	0xbeb3b0e3	-0.3509589
15	0xbdbb10e8	-0.09134084
16	0xbefc8da1	-0.49326804
17	0xbe64b068	-0.22332919
18	0xbd559b6b	-0.05215017
19	0x3dfaf02c	0.122528404
20	0xbf2bbd74	-0.6708596
21	0xbf2e74b0	-0.681468
22	0xbf44ab54	-0.76823926
23	0xbe0a716f	-0.13519834
24	0xbf4fb143	-0.81129855
25	0xbda04325	-0.07825307
26	0xbe75563b	-0.23958676
27	0xbd251ddf	-0.04031169
28	0xbed4b06a	-0.41540843
29	0xbe82a811	-0.2551885
30	0xbefb341c	-0.49063194
31	0xbefa97cc	-0.48943937
32	0x3e6c1257	0.23053871
33	0xbe0cbb85	-0.13743408
34	0x3db3cbc2	0.08779098
35	0x3d370795	0.044684965
36	0xbf5b5d7f	-0.8568954
37	0xbb8623b1	-0.00409361
38	0xbe522ccd	-0.20524903
39	0xbf31f1c6	-0.6950954
40	0xbeb7780d	-0.3583378
41	0xbe5b77da	-0.21432438
42	0xbedbe346	-0.42946833
43	0xbdc80c84	-0.09768012
44	0xbeaabd5a	-0.3334759
45	0xbf0ed468	-0.55792856
46	0xbe18f3af	-0.14936708
47	0xbe9abd82	-0.30222708
48	0xbf5ab025	-0.85425025
49	0x3d68b4d2	0.05681307
50	0xbe5b215c	-0.21399444
51	0xbf3062c8	-0.6890073
52	0xbf0e0201	-0.5547181
53	0xbf178d89	-0.5920034
54	0x3cb20caa	0.021734554
55	0xbf3ec8fb	-0.7452542
56	0xbe72da61	-0.23716117
57	0xbf13a036	-0.5766634
58	0xbe8d2b72	-0.2757221
59	0x3d53a732	0.05167312
60	0xbc80982c	-0.015697561
61	0xbf0fed72	-0.5622169
62	0xbe978679	-0.29594782
63	0xbebc1427	-0.36734125

w_group.2.weight f4 [32, 64]
0	0x3d8a87ab	0.06764158
1	0xbe9e1858	-0.30877948
2	0xbdbaa291	-0.09113038
3	0xbf311ed2	-0.69187653
4	0xbe62a2c1	-0.22132398
5	0x3d8d9fe4	0.06915262
6	0xbdb2640a	-0.08710487
7	0x3de1e017	0.1102907
8	0xbe14d1cf	-0.1453316
9	0xbcff2d00	-0.031149387
10	0x3e2beefb	0.16790383
11	0x3dcea931	0.100908644
12	0xbe1c1360	-0.15241766
13	0x3eb04a65	0.3443176
14	0x3eb66dc9	0.35630634
15	0xbb760299	-0.003753817
16	0x3d5c345c	0.05376087
17	0xbe4cacaa	-0.19987741
18	0x3e2a2713	0.16616468
19	0xbe0352ef	-0.12824605
20	0xbf25a236	-0.6470064
21	0xbe790b0c	-0.2432062
22	0xbe39162b	-0.18074863
23	0xbeeba78f	-0.46026275
24	0x3ea4a72f	0.321588
25	0xbe937547	-0.28800413
26	0xbd9e0316	-0.07715432
27	0x3f2d87a7	0.67785114
28	0x3eda2ec5	0.42613807
29	0xbf01505d	-0.5051325
30	0x3f21da95	0.63224155
31	0x3c81f0b5	0.015861848
32	0xbf0c720d	-0.5486153
33	0xbf3a93ea	-0.7288195
34	0xbeb75a9b	-0.35811314
35	0xbf170a68	-0.59000254
36	0xbd689b2e	-0.056788616
37	0xbd3fc11b	-0.04681502
38	0x3c3ad6b2	0.011403726
39	0x3cebb188	0.028771177
40	0xbe7c0b56	-0.246137
41	0xbe4ca895	-0.19986184
42	0xbaef2de0	-0.0018247925
43	0xbf682b39	-0.9069095
44	0x3e165b4e	0.14683267
45	0xbe2dc3ec	-0.1696927
46	0x3da9e1a1	0.082949884
47	0x3e9f8b6c	0.31161058
48	0x3f2be13d	0.6714056
49	0xbe4a84a3	-0.1977716
50	0xbd1f7d89	-0.03893808
51	0x3e107543	0.14107232
52	0xbf72337a	-0.94609797
53	0x3f540588	0.8282094
54	0xbd93177f	-0.07182216
55	0x3c1e163f	0.009648859
56	0x3e4160ee	0.18884632
57	0x3e9f0e20	0.31065464
58	0xbdcd051a	-0.10010739
59	0xbea75980	-0.3268547
60	0xbe206b97	-0.15666042
61	0xbe2023c5	-0.15638645
62	0xbddc68de	-0.10762189
63	0xbdfc0607	-0.12305837
64	0x3f156a49	0.58365303
65	0x3eeb5bcc	0.45968473
66	0x3e87d94d	0.26532975
67	0xbebbce8e	-0.36681026
68	0xbf22e86f	-0.63635916
69	0x3e01a91e	0.1266217
70	0xbdf32afd	-0.11873434
71	0x3eaa1573	0.3321949
72	0x3d08843c	0.033329234
73	0xbc482ce0	-0.01221773
74	0x3e58cda7	0.211722
75	0x3dc616ec	0.09672341
76	0xbe16d169	-0.14728321
77	0x3ca9acc7	0.02071227
78	0x3e573015	0.21014436
79	0xbe15e158	-0.14636743
80	0x3ec1910b	0.37805972
81	0x3e2c30a6	0.16815433
82	0xbe00b2a1	-0.12568142
83	0xbf1eedf7	-0.62081856
84	0xbe933774	-0.28753245
85	0x3e82f2d2	0.25575882
86	0x3e96a3e6	0.2942192
87	0xbee500be	-0.4472713
88	0xbc06aa84	-0.008219365
89	0x3dd5056d	0.104014255
90	0x3d34c26d	0.04413073
91	0xbd93a6d6	-0.07209556
92	0xbe3d2a0e	-0.18473074
93	0x3ea99b37	0.33126232
94	0xbf16d6f9	-0.5892177
95	0xbc43313f	-0.011913597
96	0xbeb2c94f	-0.3491921
97	0xbf138691	-0.5762721
98	0xbe6c3b8d	-0.23069592
99	0x3c3b0894	0.011415619
100	0xbe554bc5	-0.20829685
101	0x3eab3ea8	0.3344624
102	0x3b00a487	0.0019629316
103	0x3cf4c19a	0.029877473
104	0xbbdd36eb	-0.0067509315
105	0x3dd4b6c3	0.103864215
106	0xbda490fc	-0.08035466
107	0xbec58f92	-0.38586098
108	0xbf98d329	-1.1939441
109	0xbe5d1151	-0.21588637
110	0x3c63606b	0.013877968
111	0xbf144f6f	-0.57933706
112	0x3e9802c2	0.29689604
113	0xbdb06047	-0.086121134
114	0xbaaa038d	-0.0012971029
115	0x3e2b1d6b	0.16710441
116	0xbfd3036b	-1.6485418
117	0x3ec90c2e	0.39267105
118	0x3e1a3b3d	0.1506166
119	0xbd9bc61a	-0.07606144
120	0xbd2c76b1	-0.04210538
121	0xbf23a6be	-0.63926303
122	0x3d6aab15	0.057292063
123	0xbf777e4f	-0.96677107
124	0xbdb6f72b	-0.08933862
125	0x3d36b042	0.044601686
126	0x3d692980	0.056924343
127	0xbe052108	-0.13000882
128	0xbddf5f9e	-0.109069094
129	0x3dd6c767	0.10487252
130	0xbd7b0eb1	-0.061293308
131	0xbee13b6d	-0.4399065
132	0xbdd1c3b7	-0.10242408
133	0x3d98a62f	0.07453572
134	0x3cef7edd	0.029235298
135	0x3d4cc623	0.049993645
136	0x3de78ada	0.11305781
137	0xbdf1bfaf	-0.11804139
138	0x3d13a8bd	0.036049593
139	0xbe31f741	-0.17379476
140	0xbdecee4f	-0.11568891
141	0xbde7598f	-0.11296379
142	0x3e1cc6ba	0.15310183
143	0xbe6da578	-0.23207653
144	0xbcc86bc1	-0.024465444
145	0xbdc21979	-0.09477515
146	0xbcbb8e32	-0.022894952
147	0xbd55825e	-0.05212628
148	0xbe224c92	-0.15849522
149	0x3e0a741b	0.13520853
150	0x3df3d20e	0.11905299
151	0xbd00ba7f	-0.031427857
152	0xbe2a98df	-0.16659878
153	0xbdeda004	-0.11602786
154	0x3d8aebf6	0.06783287
155	0xbe43f799	-0.1913742
156	0xbd23a869	-0.03995553
157	0xbdc70085	-0.09716896
158	0x3cf16441	0.02946675
159	0xbe0a5f34	-0.1351288
160	0xbdddc0ae	-0.10827766
161	0xbdb67f0b	-0.0891095
162	0xbc9cf751	-0.019160898
163	0xbdd9206e	-0.106018886
164	0xbdbfd4f5	-0.0936679
165	0xbe6e2a19	-0.23258246
166	0xbe232a3e	-0.15934083
167	0xbe325493	-0.17415075
168	0xbe1751fa	-0.14777365
169	0xbba00e5d	-0.0048845247
170	0x3de2c726	0.11073141
171	0x3d208fa9	0.039199505
172	0xbe483b83	-0.19553952
173	0x3d8460b8	0.0646376
174	0xbdcc3a26	-0.099720284
175	0x3e3e67ee	0.18594334
176	0xbc9dd592	-0.019266877
177	0xbb2eb9f9	-0.0026661141
178	0xbcee6b2a	-0.029103834
179	0xbe67ad24	-0.22624642
180	0x3d4564bb	0.048191767
181	0x3c93dc3c	0.018049352
182	0xbec86a07	-0.39143392
183	0x3d9fbda8	0.07799846
184	0x3d2d911c	0.042374715
185	0xbd6a437d	-0.057193268
186	0x3d04c4a9	0.032414112
187	0xbe90ff98	-0.28320003
188	0x3dabbaf1	0.083852656
189	0xbd5c8cb0	-0.053845108
190	0xbda1ed70	-0.07906616
191	0xbd20ed28	-0.03928867
192	0x3d6c95ec	0.057760164
193	0xbe53fac8	-0.20701134
194	0x3d989c7c	0.07451722
195	0xbf84daec	-1.037931
196	0xbeaf6ed6	-0.3426425
197	0xbd98f36e	-0.074683055
198	0xbde20570	-0.11036193
199	0xbe225815	-0.15853913
200	0xbdd65f97	-0.10467451
201	0xbe02d8b8	-0.12777984
202	0xbea1acaa	-0.31577045
203	0x3b9921be	0.004673212
204	0x3d929558	0.07157391
205	0xbe52b866	-0.20578155
206	0xbea00458	-0.31253314
207	0xbe624c43	-0.22099404
208	0xbd922208	-0.07135397
209	0x3cf72caa	0.030172665
210	0x3dfc27fa	0.123123124
211	0xbdb0622f	-0.08612477
212	0xbc284743	-0.010270896
213	0x3c54e9f6	0.012995234
214	0xbd6b50de	-0.057450168
215	0xbea8229a	-0.328389
216	0xbc8987c4	-0.01678837
217	0xbc5f8ec0	-0.013644874
218	0xbe47be19	-0.1950611
219	0xbea86aef	-0.32894084
220	0x3f7109c9	0.94155556
221	0xbe597531	-0.21236111
222	0xbd857420	-0.0651629
223	0x3d8e9321	0.06961656
224	0xbe07da64	-0.13266903
225	0xbd9e7bd0	-0.07738459
226	0x3e42f702	0.19039539
227	0xbd20c3ee	-0.039249353
228	0x3dd1bcdb	0.102410994
229	0xbdf13bcc	-0.117789835
230	0x3cae698a	0.02129056
231	0x3dc07da4	0.09398964
232	0xbd379ab9	-0.04482529
233	0xbe348eca	-0.17632595
234	0x3d4db5b4	0.050222114
235	0xbccfa65c	-0.025347881
236	0x3e867f56	0.26269025
237	0x3dbf14ed	0.09330163
238	0xbe9b9bf5	-0.30392423
239	0x3d9bf314	0.07614723
240	0x3e2d4dc7	0.16924201
241	0x3ddfbaac	0.10924277
242	0x3dc5e9e3	0.09663751
243	0x3e606a4f	0.21915554
244	0xbdbf617d	-0.09344766
245	0x3ebbb709	0.36663082
246	0xbe37b460	-0.17939901
247	0x3caa66f0	0.020801038
248	0x3d69d20d	0.057085086
249	0x3d6316ba	0.055441596
250	0x3ad30166	0.0016098439
251	0xbe854606	-0.26029986
252	0x3d6e5083	0.05818225
253	0xbe1eeae5	-0.15519293
254	0x3da2a220	0.07941079
255	0xbdc757ed	-0.097335674

w_group.2.bias f4 [32]
0	0xbf80a8ad	-1.0051476
1	0xbf112a37	-0.5670504
2	0xbd737f90	-0.059447825
3	0xbef9d3ff	-0.48794553
4	0x3df59e18	0.119930446
5	0xbf785f4f	-0.9702043
6	0xbe8e1385	-0.27749267
7	0x3d95a644	0.07307103
8	0x3d0196b3	0.03163786
9	0xbe0449f1	-0.12918831
10	0x3eac0ad7	0.3360202
11	0x3d8b2718	0.06794566
12	0xbdac1e84	-0.08404258
13	0xbe0eb1dc	-0.13935035
14	0xbd1f07e3	-0.03882588
15	0xbe86037b	-0.2617453
16	0xbf1242b0	-0.5713301
17	0xbee87ab3	-0.45406112
18	0xbf9f9f2e	-1.2470453
19	0x3ed2c493	0.411656
20	0xbe194c8c	-0.14970607
21	0xbd2bae7f	-0.04191446
22	0xbe3aa86a	-0.18228307
23	0xbc89fd79	-0.016844498
24	0xbdc6a8b9	-0.0970015
25	0xbf9904b1	-1.1954557
26	0xbf04cbe8	-0.51873636
27	0xbe1fc900	-0.15604019
28	0xbd905fc2	-0.07049514
29	0xbf63e4e8	-0.8902116
30	0xbe752127	-0.23938428
31	0x3e15c628	0.14626372

w_agents.0.weight f4 [64, 5]
0	0x3da260f6	0.0792865
1	0xbd34d106	-0.044144653
2	0x3dc89aef	0.09795176
3	0x3db1d606	0.086834
4	0x3da145cf	0.07874643
5	0x3d0d53fc	0.034503922
6	0x3c139e7c	0.009009954
7	0xbeb31d5e	-0.34983343
8	0xbe1456f3	-0.14486293
9	0xbef00239	-0.46876696
10	0x3bff943c	0.0077996533
11	0x3d8249ff	0.0636177
12	0x3d805f20	0.06268144
13	0x3e0ca66f	0.13735364
14	0xbe7613c2	-0.24030975
15	0xbcf392b1	-0.029733034
16	0x3d9e2f23	0.07723834
17	0x3e420a36	0.18949208
18	0x3df223c3	0.11823227
19	0xbf397fa7	-0.72460407
20	0xba755f93	-0.000936025
21	0x3dab01f0	0.08349979
22	0x3f8f13cc	1.1177917
23	0xbfbbf7d7	-1.468501
24	0xbf043291	-0.5163966
25	0xbe7af615	-0.24507935
26	0xbf0cc682	-0.549904
27	0x3dceeb31	0.10103453
28	0x3f9a15ef	1.2037944
29	0xbf75552b	-0.9583308
30	0x3c32dd48	0.010917015
31	0x3e63eded	0.2225873
32	0xbe40332a	-0.18769518
33	0x3f08c221	0.5342122
34	0xbf345596	-0.70443094
35	0x3b9a1814	0.0047025774
36	0xbd4952df	-0.049151298
37	0xbd267d9f	-0.040647145
38	0x3e0463a9	0.12928642
39	0xbf3c7288	-0.7361226
40	0xbdb8ba23	-0.09019878
41	0xbee09b5f	-0.4386854
42	0xbe95ed45	-0.29282585
43	0xbeca1ae7	-0.3947365
44	0xbea8a58b	-0.329388
45	0xbe99edfa	-0.30064374
46	0x3dd525df	0.10407614
47	0xbdf18587	-0.117930464
48	0x3df5e245	0.12006048
49	0xbfd3367e	-1.6501005
50	0x3c9834bf	0.018579839
51	0x3f8a82cb	1.0821165
52	0x3fbbfca0	1.468647
53	0x3ef9d09a	0.48791963
54	0xbf2b4a30	-0.66910076
55	0xbe1e5039	-0.1546029
56	0xbe9e440a	-0.30911285
57	0x3fdedf2a	1.7411854
58	0x402d690c	2.7095366
59	0xbf5b46a5	-0.8565467
60	0x3df4d106	0.119539306
61	0xbe75eaf8	-0.24015415
62	0xbfd0838a	-1.6290143
63	0x3fc1e939	1.5149299
64	0xbf1c96ca	-0.61167586
65	0xbc0200d0	-0.007934764
66	0x3ccbc192	0.024872575
67	0xbc8f6924	-0.01750619
68	0x3e6fddc3	0.23424439
69	0x3d029632	0.03188152
70	0x3f1444dc	0.5791757
71	0x3f4e7dad	0.80660516
72	0x3f786d16	0.9704145
73	0x3fe3f7f5	1.7810045
74	0xbff0c9d4	-1.8811593
75	0x3c8bd18f	0.017067699
76	0x3e9258fa	0.2858351
77	0x3eb70186	0.3574335
78	0x3f30ac58	0.69012976
79	0xbf866f1d	-1.0502659
80	0x3e7ab84f	0.2448437
81	0xbe7c5508	-0.24641812
82	0xbfcb7eda	-1.5898087
83	0x3fa714ea	1.3053257
84	0xbf959b27	-1.1687974
85	0xbf1e8b2c	-0.6193111
86	0x3e9f937f	0.31167218
87	0x3fb28e52	1.3949683
88	0x3f81f5c9	1.0153133
89	0xbf644eb3	-0.89182585
90	0xbf268f67	-0.65062565
91	0x3ed90734	0.42388308
92	0x3f865a1f	1.0496253
93	0x400e8a38	2.2271862
94	0xc00ec39e	-2.2306895
95	0xbc369f31	-0.011146353
96	0x3da12bd6	0.07869689
97	0xbcab1f1b	-0.020888856
98	0x3e9d0c1a	0.30673295
99	0xbf2cc765	-0.6749175
100	0x3c2e396f	0.01063381
101	0xbc62a8b9	-0.013834172
102	0xbe111be5	-0.14170797
103	0x3ed790c8	0.42102647
104	0xbf697061	-0.911871
105	0xbee10649	-0.43950108
106	0x3fa32492	1.2745535
107	0x3d96096b	0.07326015
108	0x3fee2d92	1.8607657
109	0xbf4533ae	-0.7703198
110	0xbdcaad03	-0.098962806
111	0x3e7e851b	0.24855463
112	0xbdd26367	-0.10272866
113	0x3f187239	0.5954929
114	0xbefc93a1	-0.49331382
115	0xbe81427d	-0.2524604
116	0x3f6db5f7	0.9285578
117	0x3ed5ac08	0.41732812
118	0x40280147	2.625078
119	0xbff7e9f1	-1.9368268
120	0x3d03adad	0.032148052
121	0xbc8e0608	-0.01733686
122	0x3e1dffe2	0.15429643
123	0x3fca6047	1.5810632
124	0xbf9e626f	-1.237379
125	0x3d9f58cd	0.07780609
126	0x3e123ccb	0.14281003
127	0xbd016cfc	-0.031598076
128	0x3e919fa2	0.28442103
129	0xbf05a3b0	-0.5220289
130	0x3db8ca70	0.09022987
131	0x3e3f33cb	0.18672101
132	0xbd90fcf6	-0.070794985
133	0x3ec46541	0.383585
134	0xbf1c7992	-0.61123
135	0xbe23093c	-0.15921491
136	0x3f9a16d5	1.2038218
137	0x3f2ab004	0.6667483
138	0x3ed3bad3	0.41353473
139	0xbfade7ec	-1.3586402
140	0xbd26f35e	-0.040759437
141	0x3f61b8d3	0.88172644
142	0xbeedb321	-0.46425727
143	0x3e419b02	0.18906787
144	0xbfbea040	-1.4892654
145	0x3eef713c	0.46766078
146	0x3d161068	0.03663674
147	0xbf109c0e	-0.5648812
148	0x3fdab690	1.7086964
149	0xbf264a49	-0.649571
150	0xbe082932	-0.13296965
151	0x3fa08259	1.2539779
152	0xbeb4628c	-0.35231435
153	0x3fbe0a27	1.4846848
154	0xbf946ec7	-1.1596307
155	0x3da42718	0.08015269
156	0x3d972eff	0.07382011
157	0x3e4b0b50	0.19828534
158	0x3c07c931	0.008287714
159	0xbf145236	-0.57937944
160	0xbddc2e2a	-0.107509926
161	0x3f84f2cd	1.0386597
162	0xbfa426f2	-1.2824385
163	0x3fecbfad	1.8495995
164	0xbf818629	-1.0119067
165	0xbe874942	-0.2642308
166	0x3f90caf0	1.1311932
167	0x3fa47038	1.2846746
168	0x40094fd8	2.1454983
169	0xbf8f10b7	-1.1176976
170	0xbe2083fa	-0.15675345
171	0x3f96461d	1.1740147
172	0x3e21e6d2	0.15810707
173	0x3f8a5548	1.0807276
174	0xbed478ba	-0.41498357
175	0xbd657403	-0.05601884
176	0xbf0e8fb4	-0.55688024
177	0xbfe8cc7e	-1.8187406
178	0x3fe7bea9	1.810506
179	0xbfb68df7	-1.4262074
180	0xbf1749bd	-0.5909689
181	0x3fa1683a	1.2609932
182	0x3ef78c6d	0.48349324
183	0xbd7394a0	-0.05946791
184	0xbeeaede0	-0.4588461
185	0xbe0bee3f	-0.13665102
186	0x3f96196a	1.1726506
187	0xbd17ee38	-0.037092417
188	0x3f9ed01b	1.2407259
189	0xbfafacb2	-1.3724577
190	0x3e32bf41	0.1745577
191	0x3ec9cf48	0.39415956
192	0x3e2c0de6	0.16802177
193	0xbf49ffc2	-0.7890588
194	0xbed49220	-0.41517735
195	0x3c884909	0.016636388
196	0x3e916f26	0.28405112
197	0x3f210ff8	0.6291499
198	0x3e9f155e	0.3107099
199	0xbfcf7812	-1.6208518
200	0xbc61f525	-0.013791357
201	0x3e040cd0	0.12895513
202	0x3e39931a	0.18122521
203	0x3ef9c6af	0.48784396
204	0xbf198a04	-0.5997622
205	0xbe7ba0c2	-0.24573043
206	0x3f8e0741	1.1095964
207	0x3e557af2	0.20847681
208	0xbf1153cc	-0.5676849
209	0xbe8f8121	-0.28028205
210	0xbef307f3	-0.47467002
211	0x3f8af46c	1.0855842
212	0xbec72568	-0.38895726
213	0xbfc26155	-1.5185953
214	0xbf42e7df	-0.7613506
215	0x3f47ade5	0.77999717
216	0xbe5b6367	-0.21424638
217	0xbf7595ff	-0.95932
218	0xbf6defb7	-0.929439
219	0xbf2fff50	-0.6874895
220	0xbd4f665c	-0.050634727
221	0x3f10cd87	0.5656361
222	0xbf591aef	-0.8480672
223	0x401de453	2.4670608
224	0xbf617db1	-0.88082415
225	0x3ed8a704	0.42314923
226	0x3fa02f2e	1.2514398
227	0xbe9cfdd6	-0.3066241
228	0x4006afbb	2.1044757
229	0xbeb00457	-0.3437831
230	0xbeae36cf	-0.3402619
231	0x3f8739d3	1.0564522
232	0xbee74c5e	-0.4517545
233	0x40358ff8	2.8369122
234	0xbfbb6428	-1.463994
235	0x3d1637c2	0.03667427
236	0x3e84c255	0.25929514
237	0xbf84e055	-1.0380961
238	0x3dbe31bd	0.092868306
239	0xbf847815	-1.0349146
240	0x3f305337	0.68876976
241	0x3f5aee3a	0.85519755
242	0xbe93c49f	-0.28860947
243	0x40153070	2.3310814
244	0xbfb8a131	-1.4424192
245	0x3e088cb4	0.13334924
246	0xbf361f9f	-0.71142
247	0xbfb9c3eb	-1.4512914
248	0x3f40f14a	0.7536818
249	0xbf9e49a1	-1.236622
250	0xbe0c64d7	-0.13710342
251	0xbc23df15	-0.010001917
252	0x3eb98643	0.36235246
253	0xbfd8bf1c	-1.6933322
254	0xbe9f2ed7	-0.31090423
255	0xbdac5779	-0.084151216

w_agents.0.bias f4 [64]
0	0xbf406ea3	-0.7516882
1	0xbecf0bf7	-0.40438816
2	0xbebedf07	-0.3727953
3	0xbe9351b8	-0.28773284
4	0xbf895eb5	-1.0732027
5	0xbf97cf4e	-1.1860139
6	0xbf46de3a	-0.7768284
7	0xbec72b49	-0.3890021
8	0xbd56ade6	-0.052411936
9	0xbfb68990	-1.4260731
10	0xbf323a95	-0.6962064
11	0xbf951f27	-1.1650132
12	0xbf675795	-0.90368015
13	0xbea6aa7b	-0.3255194
14	0xbfca5454	-1.5806985
15	0xbf8ba5eb	-1.0910009
16	0xbfb231eb	-1.3921484
17	0xbf545830	-0.82947063
18	0xbffc19a8	-1.969533
19	0xbe26b9e2	-0.16281846
20	0xbeb60a4a	-0.35554725
21	0xbf2dbe78	-0.6786876
22	0xbf789f2b	-0.9711787
23	0xbfb2d021	-1.3969766
24	0xbfb0c327	-1.3809556
25	0xbf04a59c	-0.518152
26	0xbf35d10d	-0.7102211
27	0xbf980fa6	-1.1879776
28	0xbfc0dd04	-1.5067449
29	0xbeb861d2	-0.3601213
30	0xbfbcf895	-1.4763361
31	0xbf107e10	-0.56442356
32	0xbf4b0834	-0.7930939
33	0xbfa698fd	-1.3015438
34	0xbf3554e4	-0.7083266
35	0xbfcd4c85	-1.6038977
36	0xbf1b943c	-0.6077306
37	0xbfd3213e	-1.649452
38	0x3d8748fe	0.06605719
39	0xbfa8e460	-1.3194695
40	0xbf143447	-0.5789227
41	0x3d481cfe	0.048855774
42	0xbf9ad403	-1.2095951
43	0xbf88dd42	-1.0692523
44	0xbf994f8e	-1.1977403
45	0xbf701bf2	-0.9379264
46	0xbf7693de	-0.9631938
47	0xbecb4f45	-0.39708915
48	0xbf512c8e	-0.8170861
49	0xbfb41759	-1.4069625
50	0xbf8cfa34	-1.1013856
51	0xbf4333b1	-0.7625075
52	0xbe3e2997	-0.18570553
53	0xbf7afc71	-0.98041445
54	0xbf204303	-0.6260225
55	0xbfd2c68d	-1.6466843
56	0xbf358ef1	-0.70921236
57	0xbe82032a	-0.2539304
58	0xbf55f461	-0.8357602
59	0xbea40a08	-0.32038903
60	0x3cb24c90	0.021765023
61	0xbf917634	-1.1364198
62	0xbfd56c26	-1.6673629
63	0xbee45e52	-0.4460321

w_agents.2.weight f4 [32, 64]
0	0x3d234816	0.03986367
1	0xbe01b31a	-0.12665978
2	0xbcd933f7	-0.026514037
3	0xbd0b1fcf	-0.033965882
4	0xbe041b56	-0.12901053
5	0x3c1fdf66	0.009757852
6	0xbd976649	-0.07392556
7	0x3cdfb275	0.027306775
8	0x3c2fcabb	0.010729487
9	0xbe17b68a	-0.14815727
10	0x3cc542cc	0.024079703
11	0x3dff2dd3	0.12459912
12	0xbcb1bd2d	-0.021696651
13	0x3cecbc6f	0.028898446
14	0x3c4082bb	0.011749919
15	0xbd76dd44	-0.06026961
16	0xbdb28423	-0.08716609
17	0xbda49908	-0.08037001
18	0xbe08ba18	-0.13352239
19	0xbd9001a7	-0.07031565
20	0xbdfd5555	-0.123697914
21	0xbddafd41	-0.106928356
22	0xbe6fb0ae	-0.23407242
23	0xbe36a4a1	-0.17836238
24	0xbda5162f	-0.08060872
25	0x3d87341c	0.06601736
26	0x3b68ee4e	0.0035542431
27	0xbdf261cc	-0.118350595
28	0xbe4935da	-0.19649449
29	0x3c1ec9d8	0.009691678
30	0x3ca52e39	0.020163642
31	0xbbe947c0	-0.007119149
32	0x3d4a9aa5	0.049463887
33	0xbdd1a181	-0.102358826
34	0xbcf39d74	-0.029738165
35	0xbdc83b72	-0.09776963
36	0xbe568d5e	-0.20952365
37	0xbe08b325	-0.13349588
38	0xbdf90fab	-0.121611916
39	0xbe2756e6	-0.16341743
40	0xbd8db888	-0.06919962
41	0xbe0beefb	-0.13665383
42	0xbc85222c	-0.016251646
43	0x3d803fe7	0.062621884
44	0x3c881dce	0.016615774
45	0xbd85ebd9	-0.06539125
46	0xbe5430cd	-0.20721741
47	0xbc8e29f3	-0.017353987
48	0xbcb84d6d	-0.022497857
49	0x3b90dd0e	0.004420883
50	0xbe09d204	-0.13459021
51	0xbe6fad94	-0.23406059
52	0xbc8cc46f	-0.01718351
53	0xbcb198c8	-0.021679297
54	0xbb8489d5	-0.004044751
55	0xbe290d1e	-0.1650891
56	0x3c87bfeb	0.016571006
57	0xbda63f3c	-0.0811753
58	0xbe5046dd	-0.20339532
59	0x3d68ce11	0.056837145
60	0xbc993a4f	-0.018704562
61	0xbc89bc19	-0.016813325
62	0xbd3eeb34	-0.046611026
63	0xbe421d63	-0.18956523
64	0x3d5c1867	0.05373421
65	0xbe64de0d	-0.2235033
66	0xbf027b03	-0.5096895
67	0xbe44c28f	-0.19214843
68	0xbf33e4ba	-0.70270884
69	0xbe46a9ff	-0.19400786
70	0x3ebdbfd8	0.37060428
71	0x3caef38f	0.021356372
72	0xbc1ac723	-0.009446892
73	0xbe16a7b3	-0.1471241
74	0x3f3fb789	0.7488943
75	0x3f386404	0.7202761
76	0xbeee8eb7	-0.46593258
77	0x3cacd466	0.021097373
78	0xbf8a9176	-1.0825641
79	0xbe19eb28	-0.15031111
80	0x3dba4c52	0.09096588
81	0x3ec3ce62	0.38243395
82	0x3ecb4f63	0.39709005
83	0x3e1ba7e4	0.15200764
84	0xbd559d0c	-0.052151725
85	0xbf1553d3	-0.5833103
86	0x3e41a664	0.18911129
87	0xbea810c7	-0.328253
88	0x3fbcb063	1.4741329
89	0xbddc2212	-0.10748686
90	0x3b0b4833	0.002125275
91	0xbec8b5f9	-0.39201334
92	0x3da5b77f	0.0809164
93	0x3e539029	0.20660461
94	0xbf5768d8	-0.84144354
95	0xbd9b689b	-0.07588311
96	0xbf5de354	-0.86675
97	0xc055a063	-3.3379142
98	0xbe8180a8	-0.2529347
99	0xbf45d670	-0.7728033
100	0x3f76d94d	0.96425325
101	0xc004d36c	-2.0754042
102	0xbf5c9cbb	-0.8617665
103	0xbebb76da	-0.36614114
104	0xbdecc370	-0.11560714
105	0xbfb88638	-1.441596
106	0xc065b662	-3.5892568
107	0x3e82b83a	0.2553118
108	0x3e3243d6	0.1740869
109	0xbf6a4fb3	-0.9152786
110	0xbe88b797	-0.26702568
111	0x3fd40a7c	1.65657
112	0x3f28ce03	0.6593935
113	0x3e1ca4fb	0.1529731
114	0x38aa3e9a	8.117892e-05
115	0x3f07990a	0.52967894
116	0x3a0ff1ac	0.0005491029
117	0x3ec523eb	0.38503966
118	0x3d1dfaf2	0.0385694
119	0x3f473731	0.7781859
120	0xbfba3b29	-1.4549304
121	0x3c5009d3	0.012697655
122	0xbfeacdc5	-1.8344046
123	0xbf44d236	-0.76883256
124	0xbcbf9251	-0.023385199
125	0x3e89e7a1	0.2693453
126	0x3e02649a	0.12733689
127	0x3f1ee3ec	0.6206653
128	0xbda5d48b	-0.0809718
129	0xbe940671	-0.28911164
130	0xbcab047b	-0.02087616
131	0x3ecedf17	0.4040458
132	0xbe554961	-0.20828773
133	0xbc73dc90	-0.014884129
134	0xbc69fca2	-0.014281424
135	0xbf114d7a	-0.56758845
136	0xbd0f07fa	-0.034919716
137	0x3e2abcd0	0.16673589
138	0xbd06eb6c	-0.03293936
139	0xbd83c1cf	-0.064334504
140	0x3e851550	0.25992823
141	0xbea331d5	-0.31873956
142	0xbd92c26b	-0.071659885
143	0x3e7f1b4d	0.24912758
144	0xbdd238da	-0.1026475
145	0xbf1063b3	-0.5640213
146	0xbd39c207	-0.045351055
147	0x3e5d17ee	0.2159116
148	0xbeb3b0e7	-0.35095903
149	0xbe9498fe	-0.29022974
150	0xbe1381e7	-0.14405023
151	0xbdcfaea9	-0.10140736
152	0x3d881453	0.066445015
153	0xbed696e2	-0.4191199
154	0xbd8143c9	-0.06311757
155	0x3cc08885	0.023502598
156	0x3d58f296	0.052965723
157	0xbed4c6af	-0.41557834
158	0xbe8979fd	-0.26850882
159	0x3dad14d1	0.08451236
160	0x3d10270c	0.035193488
161	0xbeab3550	-0.33439112
162	0xbc4399ed	-0.011938554
163	0x3c32052f	0.010865494
164	0xbcf89306	-0.030343544
165	0xbe573bcb	-0.21018903
166	0xbe269848	-0.16269028
167	0x3b0e3787	0.0021700577
168	0x3e38d344	0.18049341
169	0x3d1caa53	0.03824837
170	0xbe0aa228	-0.1353842
171	0xbf08162e	-0.53158844
172	0xbeab3995	-0.3344237
173	0xbe8f2e2b	-0.2796491
174	0xbeddb1f2	-0.43299824
175	0xbe1e3272	-0.15448931
176	0x3cad2457	0.021135492
177	0xbd2022a0	-0.03909552
178	0xbe0e373f	-0.13888262
179	0xbd2ec6ea	-0.042670168
180	0xbdff7e14	-0.12475219
181	0x3d5bc5f4	0.05365558
182	0xbde798cc	-0.113084406
183	0x3d5e79f8	0.054315537
184	0xbd242578	-0.040074795
185	0x3db2b6ad	0.08726249
186	0xbcf3fe22	-0.029784266
187	0x3e66a718	0.22524679
188	0x3d40376a	0.046927847
189	0x3e466a9e	0.19376609
190	0xbe583bc2	-0.21116546
191	0xbe2634cb	-0.16231076
192	0xbd403687	-0.046927
193	0xbb8b0cbf	-0.004243463
194	0xbc3aec27	-0.011408842
195	0x3e715224	0.2356649
196	0xbf4eefbd	-0.8083456
197	0xbd91f3b6	-0.07126562
198	0x3e64087a	0.22268859
199	0x3cf2f074	0.029655673
200	0xbe1b0f7b	-0.15142624
201	0xbd4b75ed	-0.04967301
202	0xbf043744	-0.5164683
203	0xbf1bd252	-0.608678
204	0xbe09f35a	-0.13471738
205	0xbd2abc20	-0.041683316
206	0xc057cc5e	-3.3718486
207	0x3e4d3122	0.20038274
208	0x3e88748c	0.26651418
209	0x3dd76521	0.10517336
210	0xbf479e7c	-0.779762
211	0x3cf6880e	0.030094173
212	0x3d74f682	0.0598054
213	0x3deba060	0.115051985
214	0x3e93a8b3	0.28839645
215	0x3f6dd869	0.9290834
216	0xbf176492	-0.59137833
217	0x3d02e2bc	0.031954512
218	0x3e5a0b28	0.21293318
219	0xbf6074fd	-0.8767851
220	0xbfe87c3e	-1.8162916
221	0x3d400641	0.046880964
222	0x3f1d49ea	0.6144091
223	0x3d05556a	0.03255216
224	0x3d3bf684	0.045889392
225	0x3f3fed84	0.74971795
226	0xbf04941d	-0.517885
227	0xbf37024a	-0.7148787
228	0x3e6de03b	0.23230068
229	0xbe29009c	-0.16504139
230	0xbe6643a1	-0.22486736
231	0xbf47ec94	-0.78095365
232	0x3c916314	0.01774744
233	0xbddc5ea6	-0.1076024
234	0x3dc9e052	0.09857239
235	0xb800feb3	-3.0754785e-05
236	0xbf582e2e	-0.84445465
237	0x3f08df08	0.5346532
238	0x3e9d0f91	0.3067594
239	0xbee286d5	-0.44243494
240	0x3edf8ec8	0.4366362
241	0x3eff93dc	0.49917495
242	0xbee35afd	-0.44405356
243	0x3f768a98	0.9630523
244	0x3dbe3f1d	0.09289382
245	0x3e0cddcd	0.13756485
246	0x3d205b74	0.039149716
247	0xbd43fde5	-0.047849555
248	0xbe31b1ca	-0.17352977
249	0xbd3de0a1	-0.0463568
250	0xbda6693c	-0.081255406
251	0x3de6a2a6	0.112614915
252	0x3d6cd20e	0.05781751
253	0x3eb98fa7	0.3624241
254	0xbfaf256a	-1.3683293
255	0x3d84af74	0.064787775

w_agents.2.bias f4 [32]
0	0xbe85448d	-0.26028863
1	0xbf002ce5	-0.50068504
2	0xbefad78c	-0.48992574
3	0x3f19dd80	0.6010361
4	0x3c508648	0.012727328
5	0xbe0f761a	-0.14009896
6	0xbee36060	-0.44409466
7	0x3e2153b6	0.1575459
8	0xbda2bbad	-0.079459526
9	0xbe88bf98	-0.26708674
10	0xbe31c7b4	-0.17361337
11	0xbe35648d	-0.17714138
12	0x3ed3e4f1	0.41385606
13	0xbe9ec8ec	-0.31012666
14	0xbd963bd5	-0.07335631
15	0x3eb6781a	0.35638505
16	0x3e0f8317	0.1401485
17	0xbe7a8c50	-0.24467587
18	0xbe33d8cd	-0.17563172
19	0xbe2b0876	-0.16702446
20	0xbf13d2c4	-0.5774348
21	0xbeaa455c	-0.33256042
22	0xbe6fbbe4	-0.23411518
23	0x3d873269	0.06601412
24	0xbf06abea	-0.5260607
25	0x3d62148d	0.05519538
26	0xbf4425dd	-0.76620275
27	0xbebb7365	-0.36611477
28	0x3d861dda	0.065486625
29	0xbd0ee6d4	-0.034888104
30	0x3e2067cd	0.15664597
31	0xbf4f240e	-0.8091439

Ws.0 f4 [32, 32]
0	0xbf2d8874	-0.67786336
1	0x3ea29f08	0.31761956
2	0x3e199ffa	0.15002432
3	0x3f34d6e6	0.7064041
4	0xbf324df5	-0.69650203
5	0x3f8392a4	1.0279126
6	0xbf6b5f4f	-0.91942304
7	0xbf9ac1fc	-1.2090449
8	0xbfe7af4b	-1.810037
9	0x3febfe97	1.843707
10	0x3f8b0ba2	1.0862925
11	0xbf1222db	-0.57084435
12	0x3fa2fb1c	1.2732882
13	0x3f4a3a65	0.78995353
14	0x3f09ce17	0.53830093
15	0x3e8b3131	0.27185968
16	0x3f2ca54d	0.6743973
17	0x3e893dcc	0.2680496
18	0xbf2301ba	-0.6367451
19	0x3f76c014	0.9638684
20	0xbe8a2a91	-0.269856
21	0xbf4f1d5a	-0.8090416
22	0xc009d1cb	-2.1534297
23	0x3f334431	0.70025927
24	0xbfa14f60	-1.2602348
25	0xbfc89cdc	-1.567287
26	0xbf938a91	-1.1526662
27	0x3f28bf96	0.65917337
28	0x3f37aa89	0.7174459
29	0x3fd84686	1.6896522
30	0x3e8ce206	0.27516192
31	0xbe8865da	-0.26640207
32	0x4061469f	3.5199354
33	0xc02deced	-2.7175858
34	0xbdd3e96d	-0.10347257
35	0xc02c170b	-2.6889064
36	0xbf69de15	-0.91354495
37	0x3f4d8203	0.8027651
38	0xbf05d644	-0.5228007
39	0xbed92b1b	-0.424157
40	0xbee72338	-0.45144057
41	0xbf665fd3	-0.89989966
42	0x3f35dae7	0.71037143
43	0x3fb966f4	1.4484544
44	0x3f20fba0	0.6288395
45	0x3fe4a0f7	1.7861623
46	0xbf15761a	-0.58383334
47	0x3e5a98db	0.21347372
48	0x3c153c8a	0.009108672
49	0x3f04b414	0.5183728
50	0x3e942fe2	0.28942782
51	0xc06211d1	-3.5323374
52	0x3ec1eb58	0.37874866
53	0x3d99f89a	0.0751812
54	0x3f53ae41	0.82687765
55	0x3e845c43	0.2585164
56	0x3d52e5ae	0.05148857
57	0xc086fc25	-4.2182794
58	0xbf8009ec	-1.0003028
59	0xbf863291	-1.0484182
60	0x3f13bc03	0.5770876
61	0xc0a926ca	-5.285985
62	0x3fcc77d1	1.5974065
63	0xbfaf4637	-1.3693303
64	0x3f18cb58	0.5968528
65	0x3ed41f2f	0.4143004
66	0x3c4a4669	0.012345889
67	0x3f2f6a84	0.68521905
68	0x3fa4a9a8	1.2864275
69	0x3e42b35b	0.19013731
70	0xbfbe03e3	-1.4844936
71	0x40295fd2	2.6464734
72	0xbe4c3d37	-0.19945227
73	0x3feec34f	1.8653353
74	0xbf40182a	-0.7503687
75	0xbd0128bb	-0.031532984
76	0xbdd35bb0	-0.103202224
77	0x3f6e984e	0.9320115
78	0xbe4aecbd	-0.19816871
79	0xbff3f922	-1.9060404
80	0xbee7ea89	-0.45296124
81	0x3ed74f85	0.42052856
82	0x3d22d3a5	0.03975262
83	0x4020421a	2.5040345
84	0xbf8ca209	-1.0986949
85	0xbf0d114f	-0.55104536
86	0xbf8e701d	-1.1127964
87	0x3f916c62	1.1361201
88	0x3df471b7	0.11935752
89	0x3eaf8729	0.34282807
90	0xbe7c91e4	-0.24665028
91	0x3f8b48cd	1.0881592
92	0x3da58e3e	0.08083771
93	0xc02ebf2f	-2.730419
94	0xbf859f5e	-1.043926
95	0xbf012429	-0.504458
96	0xbfb73078	-1.4311666
97	0x3eb9fdca	0.36326438
98	0x3f45ad16	0.77217233
99	0xbd52b701	-0.051444057
100	0xbf284089	-0.6572347
101	0x3f6216ab	0.8831584
102	0x3f3d71f0	0.7400198
103	0xbf642c7c	-0.8913038
104	0x3f5f1268	0.8713746
105	0xbe8e066c	-0.27739275
106	0x3d96878e	0.07350074
107	0x3e0bf69e	0.13668296
108	0xbddae248	-0.10687691
109	0xbfae1558	-1.3600264
110	0x3ec18b04	0.37801373
111	0xbf263ef0	-0.64939785
112	0xbf54b9dd	-0.83096105
113	0x3fe4d8b5	1.7878634
114	0xbf0c04a7	-0.546946
115	0xbfbb388a	-1.4626629
116	0xbebaa09c	-0.3645066
117	0xbe95e4ae	-0.2927603
118	0x400ca89f	2.1977918
119	0xbdc2b8f0	-0.0950793
120	0x3eb4a5c8	0.3528273
121	0xbe3bcb0c	-0.18339175
122	0x3f52a517	0.8228316
123	0x3f3b5f51	0.73192316
124	0x3f9a9519	1.2076751
125	0xbf6ef779	-0.93346363
126	0x3d309712	0.043112822
127	0x3f775f8a	0.96630156
128	0x3e0f549f	0.13997124
129	0xc096bc5e	-4.710494
130	0xbfff0eaf	-1.9926356
131	0x3d3160db	0.04330526
132	0xbf855e21	-1.0419351
133	0x3f6e6786	0.93126714
134	0xbf9ba702	-1.2160342
135	0xbfa96db3	-1.3236603
136	0x3d5a8cc2	0.053356893
137	0x3f997ca0	1.1991158
138	0x3fd05df3	1.6278671
139	0x3e9552c6	0.29164714
140	0xbeb9c5ed	-0.36283818
141	0xbef627a0	-0.48077106
142	0xbe0d8b9d	-0.1382279
143	0x3f98642b	1.1905569
144	0x3f8729f5	1.0559679
145	0x3e7a1740	0.24422932
146	0xbef7c9fe	-0.48396295
147	0x40154dfe	2.3328853
148	0x3f934fb5	1.15087
149	0xbf777fc5	-0.96679336
150	0xbf949a4c	-1.1609588
151	0xbfbabc08	-1.4588633
152	0x3f8cdb35	1.1004397
153	0x3f7743ce	0.96587837
154	0xbf46204f	-0.7739305
155	0xbec534bd	-0.385168
156	0xbf4fb7e3	-0.81139964
157	0x3fccdfb3	1.6005768
158	0xbf3eaeab	-0.7448527
159	0xbe0079fb	-0.12546532
160	0xbf9a0e8b	-1.2035688
161	0xbfb42e87	-1.4076699
162	0x3f1d0943	0.6134226
163	0xbf51aa43	-0.81900424
164	0xbf5f0ceb	-0.87129086
165	0x3f8ac15a	1.0840256
166	0x3f6094ba	0.8772694
167	0xbe639ffd	-0.22229
168	0xc010ad82	-2.26059
169	0x3fd06f78	1.6284018
170	0x3e82f7d6	0.2557971
171	0xbd90e798	-0.07075423
172	0x3fa5acd7	1.2943372
173	0xbf273599	-0.6531616
174	0xbfb9aed6	-1.4506481
175	0xc000dafe	-2.0133662
176	0xbf8d4291	-1.103594
177	0x3f27a915	0.65492374
178	0x3e529a3e	0.20566651
179	0x3f897809	1.0739757
180	0x3fa173d0	1.2613468
181	0xbde4e34a	-0.111761644
182	0xc01186ed	-2.2738602
183	0xbf137a11	-0.57608134
184	0x3b2477c1	0.0025095793
185	0xbfe6b3d9	-1.8023635
186	0x3e6aa3dc	0.2291407
187	0xbf6ff96c	-0.9373996
188	0xc07b7ce5	-3.929498
189	0xc01a0250	-2.4063911
190	0x3f8333b0	1.0250149
191	0xbfba5011	-1.4555684
192	0x3ecf298c	0.40461385
193	0xbf42b6fe	-0.76060474
194	0xc01d5f2a	-2.4589334
195	0xc09a9fed	-4.832022
196	0xbf5eceda	-0.8703438
197	0xbff76459	-1.9327499
198	0xbf2c6894	-0.67347074
199	0xbe808767	-0.25103304
200	0x3f35b330	0.70976543
201	0xbdbad794	-0.091231495
202	0x3f3f3f5f	0.7470607
203	0x3e5cbdc6	0.21556768
204	0xc093725f	-4.6077113
205	0xbeea4444	-0.45755208
206	0x3fe7a70b	1.8097852
207	0xc0b4dba1	-5.65181
208	0xc07fdfbb	-3.9980304
209	0x3e479db0	0.19493747
210	0xbf2dcd18	-0.67891073
211	0xc0581f8a	-3.376925
212	0x3f856c1f	1.0423621
213	0xc05ee398	-3.4826412
214	0xbedb6de3	-0.42857274
215	0x3fc67c53	1.5506691
216	0x3f871ccb	1.0555662
217	0xbeec01e9	-0.46095207
218	0xbf5f9b2f	-0.87346166
219	0xc070c92a	-3.762278
220	0x3ec1b8ff	0.37836453
221	0xbeec480a	-0.4614871
222	0xbf538d48	-0.82637453
223	0xbfd98bf5	-1.6995836
224	0x3eda0b80	0.425869
225	0xbf1a8fc6	-0.6037563
226	0xbff74a5b	-1.9319566
227	0xbd1a9920	-0.037743688
228	0x3db21c46	0.08696799
229	0xbf9e7a07	-1.238099
230	0xbc9080c4	-0.017639525
231	0x3ec98d9b	0.3936585
232	0x3f9bfcb9	1.21865
233	0x3e6641aa	0.22485986
234	0x3f07d1a1	0.53054243
235	0x3e2d9bd2	0.16953972
236	0xbfbcb887	-1.4743813
237	0x3f1656ca	0.5872618
238	0x3fb85206	1.4400032
239	0xc02c6fc4	-2.6943216
240	0xbff990d4	-1.9497323
241	0xbfd3f8e1	-1.6560327
242	0xbe4aeed2	-0.19817665
243	0x3de83a2c	0.113392204
244	0xbffdc845	-1.9826742
245	0x3fb2e7a4	1.3976941
246	0xbe598987	-0.21243869
247	0xbfb4522e	-1.4087579
248	0xbfb2f5d0	-1.3981266
249	0x3f694e7b	0.91135377
250	0x3eed812c	0.46387613
251	0xbea66cd6	-0.3250491
252	0x3faccbac	1.3499656
253	0xbff97db6	-1.9491489
254	0xbe2cfb26	-0.1689268
255	0xbf425949	-0.7591749
