crowd_nav/data-3/rl_model_9.pth (torch_old, 93650 bytes, 18 tensors)

w_a f4 [32, 32]
0	0xc0051ee3	-2.0800102
1	0xc01f5ea4	-2.4901514
2	0x3e88696a	0.26642925
3	0xbfac1384	-1.3443456
4	0xbe2eeba1	-0.17082073
5	0x3f6b2871	0.91858584
6	0xbe5ae6a9	-0.21377052
7	0xbe302944	-0.17203242
8	0x3e273447	0.16328536
9	0xbe87805f	-0.26465127
10	0xbf025ba9	-0.5092111
11	0xbfac1dd6	-1.3446605
12	0xbf422d39	-0.75850254
13	0x3fc1b1fc	1.5132442
14	0xbe0769b1	-0.13223912
15	0xbf35e57b	-0.71053284
16	0x40018ba5	2.0241482
17	0x4031070c	2.766055
18	0xbebd2b73	-0.36947212
19	0x408aeddb	4.341535
20	0xbfa85a99	-1.3152648
21	0xc03f43ee	-2.988521
22	0xbfce48a5	-1.6115919
23	0x3ede643b	0.43435845
24	0x40173a27	2.3629243
25	0xbf95b575	-1.1696001
26	0x3f0334bb	0.51252335
27	0xbf2096b2	-0.6272994
28	0xbe7037fe	-0.2345886
29	0x3e9c843c	0.30569637
30	0xbfb5f9c8	-1.4216852
31	0xbf7acc67	-0.97968143
32	0x3f1bd08f	0.6086511
33	0xbe0ffd8c	-0.14061564
34	0xc05ec306	-3.4806533
35	0x3f912ed2	1.1342413
36	0x3e518668	0.20461428
37	0x3fa3ef2d	1.2807366
38	0xbf940833	-1.1565002
39	0xbf30962c	-0.68979144
40	0xbfdce9a4	-1.7258801
41	0x3d58e0f1	0.052948896
42	0x3f9a9635	1.207709
43	0xbffed405	-1.9908453
44	0x3e8f2949	0.27961186
45	0x3e36b7bf	0.17843531
46	0xbeb32b3e	-0.3499393
47	0x4060f327	3.5148408
48	0xbebff908	-0.37494683
49	0x3ec3c2f0	0.38234663
50	0x3e01b664	0.12667233
51	0xbba8ff50	-0.0051573887
52	0xbe4d7fd4	-0.20068294
53	0xc02b2e62	-2.674706
54	0x3fe81cbc	1.8133769
55	0x3f04a37f	0.51811975
56	0x3ef578d1	0.47943738
57	0xbdae3f9c	-0.08508226
58	0x3f943607	1.1578988
59	0x3f813b01	1.0096132
60	0x3f20cace	0.62809455
61	0x3f52abc6	0.82293355
62	0x3d97f3fe	0.07419585
63	0x3eab167b	0.3341559
64	0xbf99f086	-1.2026527
65	0xbf335c44	-0.7006266
66	0x4041f8a5	3.030801
67	0xc0288bc7	-2.6335313
68	0xc00ddefb	-2.2167346
69	0xc008d403	-2.1379402
70	0x40465319	3.0988219
71	0xc004b2ab	-2.073405
72	0xbee8e131	-0.45484307
73	0x3fc68ff4	1.5512681
74	0x3f89a039	1.0752021
75	0x3faee243	1.36628
76	0xbf444cae	-0.76679504
77	0xc01be515	-2.435857
78	0x3dafe057	0.08587711
79	0x4070230a	3.7521386
80	0x3ed3a64d	0.41337815
81	0xc03a946e	-2.9153094
82	0xbf03b9d7	-0.51455444
83	0x40a4a2e0	5.144882
84	0x3f3b283c	0.7310827
85	0x3e900de8	0.2813561
86	0x3fc4775a	1.5348923
87	0xbe28f702	-0.16500476
88	0x3f3c4c9e	0.7355441
89	0x3f5acf88	0.8547292
90	0x3fe19781	1.762436
91	0xbedc8c0f	-0.43075606
92	0xbffdb444	-1.9820638
93	0xbf35e83f	-0.71057504
94	0xbf5e0552	-0.8672687
95	0x3fd5f70c	1.6716018
96	0x3f50a06b	0.8149478
97	0xbe23b559	-0.15987147
98	0xc006cf32	-2.1063962
99	0xbd53c383	-0.051700126
100	0xbed8b807	-0.42327902
101	0xbee2a388	-0.4426539
102	0x3d206d50	0.03916675
103	0x3e8bd83c	0.2731341
104	0x3d3a8a84	0.045542255
105	0xc0188842	-2.3833165
106	0xbeb4199a	-0.35175782
107	0xbdad3aa9	-0.08458454
108	0x3fac50f4	1.3462205
109	0xbf362806	-0.7115482
110	0x3e1a16ac	0.15047711
111	0xc0024f35	-2.0360844
112	0xbf927da1	-1.1444589
113	0x3fa230b2	1.2671111
114	0xbc9f68cc	-0.01945915
115	0xbe4643f6	-0.19361863
116	0xbeb8dbe3	-0.3610526
117	0xbef646bc	-0.4810084
118	0xbf46f672	-0.77719796
119	0xbfc47181	-1.5347139
120	0xbe6e95ae	-0.23299286
121	0x3faa5870	1.3308239
122	0xbfb332c6	-1.399987
123	0xbf4a48da	-0.7901741
124	0x3f2eb9f2	0.6825248
125	0xbe31f7d9	-0.17379703
126	0x3e98a6b0	0.29814672
127	0xbd49255b	-0.04910789
128	0x401cf07f	2.4521787
129	0x3edb6391	0.428494
130	0xbf88b01b	-1.0678743
131	0xbf0087e4	-0.5020735
132	0x3e29fc47	0.16600142
133	0xbe7e8058	-0.24853647
134	0xbebf706a	-0.37390453
135	0xbd12a9c4	-0.035806432
136	0x40189859	2.3842986
137	0xbed3cc29	-0.413667
138	0x3f4f4835	0.80969554
139	0xbe9d26fe	-0.3069381
140	0x3f221989	0.63320214
141	0xbf71a8ad	-0.94398004
142	0xbf3dbd90	-0.74117374
143	0x3eb61ee8	0.35570455
144	0xbe9891c4	-0.2979871
145	0xbee9bfe2	-0.45654207
146	0x3e520bdc	0.20512336
147	0xbdcf2d5e	-0.10116075
148	0xbebfcef3	-0.37462577
149	0x3f0fb0ff	0.5612945
150	0x3fabd497	1.3424252
151	0xbee8a4d8	-0.45438266
152	0x3f46a0a3	0.7758886
153	0xbee26123	-0.44214734
154	0x3ced0ca9	0.0289367
155	0xbdf8ec92	-0.12154497
156	0x3ec8d662	0.3922606
157	0xbe917ba8	-0.28414655
158	0x3ed63248	0.41835237
159	0xbe6a0bea	-0.22856107
160	0xc0175c99	-2.3650267
161	0xbf43fd75	-0.7655862
162	0xbf1f9f59	-0.6235252
163	0x3ea910d6	0.33020657
164	0xbf72ed25	-0.94893104
165	0xbf90a346	-1.1299827
166	0x3faf6523	1.370274
167	0xbfc97f52	-1.574198
168	0x4045ba4f	3.0894964
169	0xbf058078	-0.5214915
170	0xbe6462d6	-0.22303328
171	0x3fd62553	1.673014
172	0xbecb6192	-0.39722878
173	0x3f13e128	0.57765436
174	0x3df0d342	0.11759044
175	0x3e118912	0.14212444
176	0x3ea99607	0.33122274
177	0xbff084d2	-1.8790534
178	0xbfc6a3eb	-1.5518774
179	0x3da36846	0.07978873
180	0xc0426b55	-3.037801
181	0xbdef1602	-0.116741195
182	0xbf4a5c22	-0.79046834
183	0xbe941043	-0.28918657
184	0x3cef26cb	0.029193303
185	0xbe44e0c8	-0.19226372
186	0xbe967cac	-0.29391992
187	0xbf131a7c	-0.57462287
188	0xbf9d24f7	-1.2276906
189	0x3ed694fe	0.41910547
190	0xbfc21b0e	-1.5164506
191	0xbdb8f190	-0.090304494
192	0x3f8bc895	1.0920588
193	0xbf8e399f	-1.1111335
194	0xbf4de750	-0.8043108
195	0xbef81ec1	-0.48460963
196	0xbd3e1473	-0.04640622
197	0xbf602a17	-0.87564224
198	0x3d92f08a	0.071747854
199	0x3f312bc8	0.6920743
200	0xbfa4629f	-1.2842597
201	0x3ff87dc4	1.9413381
202	0x3f46baf1	0.77629
203	0x3e923c81	0.28561786
204	0xbfbafa51	-1.460764
205	0x3eda6fea	0.4266351
206	0x3f189ab1	0.5961104
207	0x3f62f227	0.88650745
208	0xbf37185f	-0.7152156
209	0x3ec4705a	0.38366967
210	0x3e987660	0.29777813
211	0x3f002fec	0.5007312
212	0xbfe5e6ba	-1.7961037
213	0x3e9c561a	0.3053444
214	0xc009a9b2	-2.1509824
215	0xbf81aa97	-1.0130185
216	0x3ca90aa0	0.02063495
217	0xc008a44a	-2.1350274
218	0x3f2193a1	0.6311589
219	0x3fa8e413	1.3194603
220	0x3f2f35a9	0.68441254
221	0xbf2b7de5	-0.66988975
222	0xbf126956	-0.5719198
223	0xbe5fabd1	-0.21842887
224	0xbfa0a506	-1.2550361
225	0x3e948901	0.29010776
226	0xbfde56e2	-1.7370265
227	0x3e3eb0f3	0.18622188
228	0xbe478053	-0.19482546
229	0x3d7f43ed	0.06232064
230	0xbf3c2b09	-0.73503166
231	0xbd5c1913	-0.05373485
232	0xbeebfee8	-0.46092916
233	0xbdd3f3f9	-0.103492685
234	0x3ee3cc05	0.44491592
235	0x3e4031b3	0.18768959
236	0x3e86c277	0.2632024
237	0x3f7b5461	0.98175627
238	0x3e33adf7	0.17546831
239	0xbfc99fe4	-1.575192
240	0xbf84cf76	-1.0375812
241	0xbebe6fb2	-0.37194592
242	0xbea71e1c	-0.3264016
243	0xbf0cf85d	-0.5506647
244	0xbd3f03f7	-0.04663464
245	0xbf765ab4	-0.9623215
246	0xbe5e89c1	-0.21732236
247	0xbf760087	-0.96094555
248	0x3ec49e98	0.38402247
249	0x3e1f181e	0.15536544
250	0x3e541316	0.20710406
251	0xbf0b72e7	-0.544722
252	0xbec9cd57	-0.39414474
253	0xbe2aa476	-0.166643
254	0x3ea09685	0.31364837
255	0x3d6d387a	0.05791519

w_group.0.weight f4 [64, 8]
0	0xbdcda20c	-0.100406736
1	0xbc32a9a7	-0.010904706
2	0x3f913aa4	1.1346021
3	0xbf75df1a	-0.9604355
4	0xbeaa676b	-0.33282027
5	0xbedd2a72	-0.43196446
6	0xbe257126	-0.16156444
7	0xbede4b90	-0.43417025
8	0xbe48bdf6	-0.19603714
9	0xbe10de7a	-0.14147368
10	0xbf284335	-0.6572755
11	0xbf8541de	-1.0410726
12	0xbe55596a	-0.2083489
13	0xbf18036f	-0.5938024
14	0xbf79bb51	-0.9755145
15	0xbf13612c	-0.5757015
16	0xbe90c9ff	-0.2827911
17	0xbe7233c8	-0.23652565
18	0x3f982658	1.1886702
19	0xbd643f4b	-0.055724423
20	0xbe92a9e6	-0.28645247
21	0xbf3f7492	-0.7478725
22	0x3d29f060	0.041489005
23	0xbf4cb5db	-0.7996499
24	0x3e231750	0.15926862
25	0x3d7b77bd	0.06139349
26	0x3f838ead	1.0277916
27	0x3d232c6f	0.039837297
28	0xbe8ecbc8	-0.27889848
29	0x3f295b5c	0.6615503
30	0xc00d969d	-2.2123177
31	0x3f287553	0.6580402
32	0x3e75b14f	0.23993419
33	0x3ef3f8b5	0.47650686
34	0x3eb25b8e	0.34835476
35	0x3db3a0a1	0.08770872
36	0x3e4d2696	0.2003425
37	0x3d575f15	0.05258091
38	0x3fcb6cfb	1.5892633
39	0xbe85717e	-0.2606315
40	0xbd1db212	-0.0384999
41	0xbc55e06b	-0.013053994
42	0xbd5f5cc8	-0.054531842
43	0xbddf560d	-0.10905085
44	0xbda1fbb8	-0.0790934
45	0x3d42ee97	0.04759082
46	0xbeb07ab6	-0.3446862
47	0xbeda3e64	-0.42625725
48	0xbe81a807	-0.25323507
49	0xbcbb98d7	-0.022900028
50	0x3f9b7686	1.2145545
51	0x3f879735	1.059302
52	0x3dbf5260	0.09341884
53	0xbf210cdd	-0.6291025
54	0xbf36c468	-0.7139344
55	0xbeec7637	-0.4618394
56	0x3e38dca6	0.1805292
57	0xbd8b487b	-0.06800934
58	0x3eac6c37	0.3367631
59	0xbf84dd7f	-1.0380095
60	0x3e8bc99b	0.2730225
61	0xbf2eb7fc	-0.6824949
62	0xbe6548f3	-0.22391109
63	0xbf314ddd	-0.69259435
64	0xbde52b85	-0.11189941
65	0xbd630c29	-0.05543152
66	0xbf21cb95	-0.63201267
67	0x3f38fb29	0.7225824
68	0x3c637960	0.0138839185
69	0xbf1ecb84	-0.6202929
70	0xbe8a87fa	-0.27056867
71	0xbe9c9a02	-0.3058625
72	0xbd7eb7b0	-0.062186897
73	0xbc2f2295	-0.010689397
74	0xbef75fbe	-0.48315233
75	0x3c7aee13	0.01531555
76	0x3e97b101	0.2962723
77	0xbe37a4c5	-0.17933948
78	0xbeb0b527	-0.34513208
79	0xbf243ae1	-0.6415234
80	0xbf9a714a	-1.2065823
81	0x3f48ebe5	0.78484946
82	0xbf8334d3	-1.0250496
83	0x3d66e351	0.05636913
84	0x3ea723ef	0.32644603
85	0xbeef8d5a	-0.4678753
86	0x3fdf63ed	1.745237
87	0xbe217881	-0.15768625
88	0xbe95178d	-0.2911953
89	0x3e03b419	0.1286167
90	0x3e46f882	0.19430736
91	0x3ed7c413	0.4214178
92	0xbe2d6964	-0.16934735
93	0xbeef19a5	-0.46699253
94	0xbf484966	-0.78237
95	0xbf0d366d	-0.5516117
96	0x3e1ff7f2	0.15621927
97	0xbd4e8e1e	-0.050428502
98	0xbec33e05	-0.38133255
99	0x3f451add	0.76994115
100	0xbe0f5a2b	-0.1399924
101	0xbf381330	-0.7190428
102	0x3e542394	0.20716697
103	0xbf5d8282	-0.86527264
104	0x3ea1a837	0.3157365
105	0x3ef30d68	0.47471166
106	0x3ec2254b	0.37919077
107	0x3ecd7f0b	0.4013599
108	0xbe1d6e4a	-0.15374103
109	0xbecbfdc4	-0.39842045
110	0xbf8d9be9	-1.1063205
111	0xbf2e0181	-0.67971045
112	0xbe2fc7a2	-0.17165998
113	0xbe30c15b	-0.1726126
114	0xbfbac49a	-1.4591248
115	0x3e2665e1	0.16249801
116	0x3e678e72	0.22612932
117	0xbed69402	-0.41909796
118	0xbfd873d7	-1.6910352
119	0xbf1720f8	-0.5903468
120	0xbeee385c	-0.46527374
121	0x3e9db8cb	0.30805048
122	0xc0243dd8	-2.5662746
123	0xbfc5c326	-1.545018
124	0x3d041740	0.032248735
125	0xbe28e6c4	-0.1649428
126	0xc0295c52	-2.6462598
127	0xbf274f49	-0.65355355
128	0xbdcefb0f	-0.101064794
129	0xbd807fe8	-0.06274396
130	0xbead00cf	-0.3378968
131	0xbf4e72bb	-0.80643815
132	0x3df969f4	0.12178412
133	0xbf4e176b	-0.80504483
134	0x3f2d718b	0.6775138
135	0xbee4752d	-0.44620648
136	0xbfdba33c	-1.715919
137	0x3f8d8633	1.1056579
138	0x3f0dc202	0.5537416
139	0xbfe24b8f	-1.7679309
140	0xbe92330c	-0.2855457
141	0xbf1b2792	-0.60607255
142	0xbefb0463	-0.49026784
143	0xbed26145	-0.41089836
144	0x3f99a84a	1.2004483
145	0x3f55a106	0.8344883
146	0xbe16c763	-0.14724497
147	0x3e2fa6b2	0.17153433
148	0xbe677f6d	-0.22607203
149	0x3e30845a	0.17237988
150	0x3f02ba9b	0.5106599
151	0x3eb92423	0.36160383
152	0xbe5ce891	-0.21573092
153	0x3f044e4a	0.5168196
154	0xc01a284c	-2.4087095
155	0x3e8ff2df	0.28114983
156	0x3eae4b55	0.3404185
157	0x3cca9640	0.024729848
158	0xbf995c28	-1.1981249
159	0xbe47aa3b	-0.19498532
160	0x3d91e72b	0.0712417
161	0xbe59e929	-0.2128035
162	0x3f7b4fef	0.98168844
163	0x3f12d23d	0.5735205
164	0xbe4c79bc	-0.19968313
165	0xbe4474b1	-0.19185139
166	0xbfcf76aa	-1.6208088
167	0xbf2e5612	-0.6810008
168	0xbdd7416e	-0.105105266
169	0xbd7755de	-0.060384624
170	0x3f79db81	0.9760056
171	0xbe81fff0	-0.25390577
172	0xbe9ddd4d	-0.30832902
173	0xbee4c387	-0.44680426
174	0xbf35c05c	-0.7099664
175	0xbf2b4880	-0.669075
176	0x3dab1a68	0.08354646
177	0xbd742b18	-0.05961141
178	0x3f33e0a4	0.7026465
179	0xbf472d97	-0.7780394
180	0xbeafde3d	-0.34349242
181	0xbf3e599c	-0.74355483
182	0x3f0905ec	0.5352466
183	0xbedf59fa	-0.43623334
184	0x3dd26f0f	0.10275089
185	0x3e0c18d3	0.13681345
186	0x3d2b0586	0.041753314
187	0xc01cf95f	-2.4527204
188	0x3c8f8fd0	0.01752463
189	0x3e3d88ea	0.1850926
190	0x3f0ae064	0.5424864
191	0x3e7d04e1	0.24708892
192	0x3e52911a	0.20563164
193	0x3df5b44e	0.11997281
194	0x3e306c1f	0.17228745
195	0x3d4a0754	0.049323395
196	0xbd65b8d8	-0.056084484
197	0xbedd131a	-0.43178636
198	0xbe8d90cb	-0.2764953
199	0xbf198aa7	-0.5997719
200	0xbe42e682	-0.19033244
201	0xbeec31a6	-0.4613163
202	0xbef0dc07	-0.47042868
203	0x3fd29d41	1.645424
204	0x3e3f90e2	0.18707612
205	0x3d547d83	0.05187751
206	0xc037d630	-2.872448
207	0x3e8602c1	0.26173976
208	0x3fc67fc0	1.5507736
209	0x3eee986e	0.4660067
210	0x4018005d	2.3750222
211	0xbf0a8130	-0.54103374
212	0x3d363a50	0.044489205
213	0xbc9225ed	-0.01784035
214	0xbe359ed2	-0.17736366
215	0x3c49290c	0.012277853
216	0xbed31828	-0.41229367
217	0x3ff7354f	1.9313143
218	0x3e19d621	0.1502309
219	0x3eb28de5	0.34873882
220	0xbe4075cc	-0.18794936
221	0xbe1479d7	-0.14499603
222	0xbf037ad9	-0.51359326
223	0x3cf3de37	0.029769046
224	0x3f3d3452	0.7390796
225	0xbd5b7962	-0.053582557
226	0xc01b3eac	-2.4257002
227	0x3fa2e128	1.2724962
228	0x3df3b674	0.119000345
229	0xbf8a31bb	-1.0796427
230	0x3ebcf958	0.36908984
231	0xbf7e44b0	-0.9932356
232	0xbd4cfab1	-0.050043765
233	0xbd9228c3	-0.07136681
234	0x3f97ff33	1.1874756
235	0xbe896b18	-0.2683952
236	0xbe950ae8	-0.29109883
237	0xbe33f579	-0.17574109
238	0xbf9cac32	-1.224005
239	0xbed7e273	-0.42164955
240	0xbed965ff	-0.4246063
241	0x3eee7d7c	0.46580112
242	0x3ffea7a4	1.989491
243	0xbe478001	-0.19482423
244	0xbe9f2e0d	-0.3108982
245	0xbf749cc5	-0.9555171
246	0x3ea766c2	0.32695585
247	0xbef52762	-0.4788161
248	0xbdcdd3ca	-0.10050161
249	0xbdc04825	-0.093887605
250	0xbf7c95f1	-0.9866629
251	0x3f8fa160	1.1221123
252	0xbe211102	-0.15729144
253	0xbee28bae	-0.44247192
254	0xbf6952d7	-0.9114203
255	0xbee1b080	-0.4407997

w_group.0.bias f4 [64]
0	0xbf431a2f	-0.7621183
1	0xbf236cbd	-0.63837796
2	0xbf4e9e13	-0.8070995
3	0x3ddae292	0.10687746
4	0xbec2143b	-0.3790606
5	0xbf136857	-0.57581085
6	0xbef46fa5	-0.47741428
7	0xbf4bc26f	-0.7959356
8	0xbf04cd4d	-0.51875764
9	0xbec4601c	-0.38354576
10	0xbef1be3c	-0.4721545
11	0xbf4b2bb8	-0.79363585
12	0xbf53b59e	-0.82699
13	0xbee2c900	-0.44293976
14	0xbeb3b0e3	-0.3509589
15	0xbdd6e251	-0.10492385
16	0xbefc8da1	-0.49326804
17	0xbe423e4b	-0.18969075
18	0xbd029f99	-0.031890485
19	0x3e12393f	0.1427965
20	0xbf2bbd74	-0.6708596
21	0xbf2e74b0	-0.681468
22	0xbf44ab54	-0.76823926
23	0xbddb26dd	-0.10700772
24	0xbf4fb143	-0.81129855
25	0xbd93fcd0	-0.072259545
26	0xbe97c320	-0.29641056
27	0xbc5b34cd	-0.013379288
28	0xbee29831	-0.44256738
29	0xbe82a811	-0.2551885
30	0xbf046e00	-0.51730347
31	0xbefa97cc	-0.48943937
32	0x3e5035c2	0.20333007
33	0xbdac733b	-0.08420416
34	0x3d7dee16	0.061994635
35	0x3dbfb02b	0.09359773
36	0xbf5b5d7f	-0.8568954
37	0xbc0a607b	-0.008445854
38	0xbe522ccd	-0.20524903
39	0xbf139ac9	-0.5765806
40	0xbeb17da7	-0.34666178
41	0xbe2d4598	-0.16921079
42	0xbedbe346	-0.42946833
43	0xbd91333d	-0.07089851
44	0xbeaff55c	-0.34366882
45	0xbf12ab50	-0.5729265
46	0xbdc40162	-0.09570576
47	0xbe9abd82	-0.30222708
48	0xbf5ab025	-0.85425025
49	0x3d68b4d2	0.05681307
50	0xbe5b215c	-0.21399444
51	0xbf356b6e	-0.7086705
52	0xbf1424ff	-0.5786895
53	0xbf178d89	-0.5920034
54	0x3d3191b9	0.043351863
55	0xbf3e43ac	-0.7432201
56	0xbe72da61	-0.23716117
57	0xbf13a036	-0.5766634
58	0xbe8d2b72	-0.2757221
59	0xbd299891	-0.041405264
60	0xbc80982c	-0.015697561
61	0xbf0fed72	-0.5622169
62	0xbe6001a1	-0.21875621
63	0xbebc1427	-0.36734125

w_group.2.weight f4 [32, 64]
0	0x3d8a87ab	0.06764158
1	0xbe9e1858	-0.30877948
2	0xbdbaa291	-0.09113038
3	0xbf311ed2	-0.69187653
4	0xbe62a2c1	-0.22132398
5	0x3d8d9fe4	0.06915262
6	0xbdb2640a	-0.08710487
7	0x3de1e017	0.1102907
8	0xbe14d1cf	-0.1453316
9	0xbcff2d00	-0.031149387
10	0x3e2beefb	0.16790383
11	0x3dcea931	0.100908644
12	0xbe1c1360	-0.15241766
13	0x3eb04a65	0.3443176
14	0x3eb66dc9	0.35630634
15	0xbb760299	-0.003753817
16	0x3d5c345c	0.05376087
17	0xbe4cacaa	-0.19987741
18	0x3e2a2713	0.16616468
19	0xbe0352ef	-0.12824605
20	0xbf25a236	-0.6470064
21	0xbe790b0c	-0.2432062
22	0xbe39162b	-0.18074863
23	0xbeeba78f	-0.46026275
24	0x3ea4a72f	0.321588
25	0xbe937547	-0.28800413
26	0xbd9e0316	-0.07715432
27	0x3f2d87a7	0.67785114
28	0x3eda2ec5	0.42613807
29	0xbf01505d	-0.5051325
30	0x3f21da95	0.63224155
31	0x3c81f0b5	0.015861848
32	0xbf0c720d	-0.5486153
33	0xbf3a93ea	-0.7288195
34	0xbeb75a9b	-0.35811314
35	0xbf170a68	-0.59000254
36	0xbd689b2e	-0.056788616
37	0xbd3fc11b	-0.04681502
38	0x3c3ad6b2	0.011403726
39	0x3cebb188	0.028771177
40	0xbe7c0b56	-0.246137
41	0xbe4ca895	-0.19986184
42	0xbaef2de0	-0.0018247925
43	0xbf682b39	-0.9069095
44	0x3e165b4e	0.14683267
45	0xbe2dc3ec	-0.1696927
46	0x3da9e1a1	0.082949884
47	0x3e9f8b6c	0.31161058
48	0x3f2be13d	0.6714056
49	0xbe4a84a3	-0.1977716
50	0xbd1f7d89	-0.03893808
51	0x3e107543	0.14107232
52	0xbf72337a	-0.94609797
53	0x3f540588	0.8282094
54	0xbd93177f	-0.07182216
55	0x3c1e163f	0.009648859
56	0x3e4160ee	0.18884632
57	0x3e9f0e20	0.31065464
58	0xbdcd051a	-0.10010739
59	0xbea75980	-0.3268547
60	0xbe206b97	-0.15666042
61	0xbe2023c5	-0.15638645
62	0xbddc68de	-0.10762189
63	0xbdfc0607	-0.12305837
64	0x3f156a49	0.58365303
65	0x3eeb5bcc	0.45968473
66	0x3e87d94d	0.26532975
67	0xbeca1195	-0.3946654
68	0xbf22e86f	-0.63635916
69	0x3e01a91e	0.1266217
70	0xbdf32afd	-0.11873434
71	0x3eaa1573	0.3321949
72	0x3d08843c	0.033329234
73	0xbc482ce0	-0.01221773
74	0x3e43b152	0.19110611
75	0x3dc616ec	0.09672341
76	0xbe16d169	-0.14728321
77	0x3ca9acc7	0.02071227
78	0x3e573015	0.21014436
79	0xbe15e158	-0.14636743
80	0x3ec1910b	0.37805972
81	0x3e2c30a6	0.16815433
82	0xbe00b2a1	-0.12568142
83	0xbf0c99bb	-0.54922074
84	0xbe933774	-0.28753245
85	0x3e82f2d2	0.25575882
86	0x3e96a3e6	0.2942192
87	0xbf054a0f	-0.5206613
88	0xbc06aa84	-0.008219365
89	0x3d65df44	0.056121126
90	0x3d34c26d	0.04413073
91	0xbd93a6d6	-0.07209556
92	0xbe3d2a0e	-0.18473074
93	0x3ea99b37	0.33126232
94	0xbf16d6f9	-0.5892177
95	0xbc43313f	-0.011913597
96	0xbeb2c94f	-0.3491921
97	0xbf1f6985	-0.62270385
98	0xbe6c3b8d	-0.23069592
99	0x3c3b0894	0.011415619
100	0xbe554bc5	-0.20829685
101	0x3eab3ea8	0.3344624
102	0x3b00a487	0.0019629316
103	0x3cf4c19a	0.029877473
104	0xb63244a8	-2.656403e-06
105	0x3d8dc3c5	0.06922106
106	0xbda490fc	-0.08035466
107	0xbec58f92	-0.38586098
108	0xbf98d329	-1.1939441
109	0xbe5d1151	-0.21588637
110	0x3c63606b	0.013877968
111	0xbf144f6f	-0.57933706
112	0x3e9802c2	0.29689604
113	0xbdb06047	-0.086121134
114	0xbaaa038d	-0.0012971029
115	0x3e2b1d6b	0.16710441
116	0xbfd3036b	-1.6485418
117	0x3ec90c2e	0.39267105
118	0x3dd24546	0.10267119
119	0xbd9bc61a	-0.07606144
120	0xbd2c76b1	-0.04210538
121	0xbf23a6be	-0.63926303
122	0x3d6aab15	0.057292063
123	0xbf777e4f	-0.96677107
124	0xbdb6f72b	-0.08933862
125	0x3d36b042	0.044601686
126	0x3d692980	0.056924343
127	0xbe052108	-0.13000882
128	0xbddf5f9e	-0.109069094
129	0x3dd6c767	0.10487252
130	0xbd7b0eb1	-0.061293308
131	0xbee13b6d	-0.4399065
132	0xbdd1c3b7	-0.10242408
133	0x3d98a62f	0.07453572
134	0x3cef7edd	0.029235298
135	0x3d4cc623	0.049993645
136	0x3de78ada	0.11305781
137	0xbdf1bfaf	-0.11804139
138	0x3d13a8bd	0.036049593
139	0xbe31f741	-0.17379476
140	0xbdecee4f	-0.11568891
141	0xbde7598f	-0.11296379
142	0x3e1cc6ba	0.15310183
143	0xbe6da578	-0.23207653
144	0xbcc86bc1	-0.024465444
145	0xbdc21979	-0.09477515
146	0xbcbb8e32	-0.022894952
147	0xbd55825e	-0.05212628
148	0xbe224c92	-0.15849522
149	0x3e0a741b	0.13520853
150	0x3df3d20e	0.11905299
151	0xbd00ba7f	-0.031427857
152	0xbe2a98df	-0.16659878
153	0xbdeda004	-0.11602786
154	0x3d8aebf6	0.06783287
155	0xbe43f799	-0.1913742
156	0xbd23a869	-0.03995553
157	0xbdc70085	-0.09716896
158	0x3cf16441	0.02946675
159	0xbe0a5f34	-0.1351288
160	0xbdddc0ae	-0.10827766
161	0xbdb67f0b	-0.0891095
162	0xbc9cf751	-0.019160898
163	0xbdd9206e	-0.106018886
164	0xbdbfd4f5	-0.0936679
165	0xbe6e2a19	-0.23258246
166	0xbe232a3e	-0.15934083
167	0xbe325493	-0.17415075
168	0xbe1751fa	-0.14777365
169	0xbba00e5d	-0.0048845247
170	0x3de2c726	0.11073141
171	0x3d208fa9	0.039199505
172	0xbe483b83	-0.19553952
173	0x3d8460b8	0.0646376
174	0xbdcc3a26	-0.099720284
175	0x3e3e67ee	0.18594334
176	0xbc9dd592	-0.019266877
177	0xbb2eb9f9	-0.0026661141
178	0xbcee6b2a	-0.029103834
179	0xbe67ad24	-0.22624642
180	0x3d4564bb	0.048191767
181	0x3c93dc3c	0.018049352
182	0xbec86a07	-0.39143392
183	0x3d9fbda8	0.07799846
184	0x3d2d911c	0.042374715
185	0xbd6a437d	-0.057193268
186	0x3d04c4a9	0.032414112
187	0xbe90ff98	-0.28320003
188	0x3dabbaf1	0.083852656
189	0xbd5c8cb0	-0.053845108
190	0xbda1ed70	-0.07906616
191	0xbd20ed28	-0.03928867
192	0x3d6c95ec	0.057760164
193	0xbe53fac8	-0.20701134
194	0x3d989c7c	0.07451722
195	0xbf91f615	-1.1403223
196	0xbeaa2a15	-0.3323523
197	0xbd98f36e	-0.074683055
198	0xbde20570	-0.11036193
199	0xbe225815	-0.15853913
200	0xbdd65f97	-0.10467451
201	0xbe02d8b8	-0.12777984
202	0xbea1acaa	-0.31577045
203	0x3b9921be	0.004673212
204	0x3d929558	0.07157391
205	0xbe52b866	-0.20578155
206	0xbea00458	-0.31253314
207	0xbe624c43	-0.22099404
208	0xbd922208	-0.07135397
209	0x3cf72caa	0.030172665
210	0x3df659fc	0.12028882
211	0xbdb0622f	-0.08612477
212	0xbc284743	-0.010270896
213	0x3c54e9f6	0.012995234
214	0xbd6b50de	-0.057450168
215	0xbed4111e	-0.4141931
216	0xbc8987c4	-0.01678837
217	0xbc5f8ec0	-0.013644874
218	0xbe404434	-0.18776017
219	0xbea86aef	-0.32894084
220	0x3f7109c9	0.94155556
221	0xbe597531	-0.21236111
222	0xbd857420	-0.0651629
223	0x3d8e9321	0.06961656
224	0xbe0f5986	-0.13998994
225	0xbd84d79d	-0.064864375
226	0x3e388aa8	0.18021643
227	0xbd44d819	-0.04805765
228	0x3dd1bcdb	0.102410994
229	0xbe03e7f3	-0.1288145
230	0x3cae698a	0.02129056
231	0x3dc07da4	0.09398964
232	0xbd379ab9	-0.04482529
233	0xbe348eca	-0.17632595
234	0x3d4db5b4	0.050222114
235	0x3c6c9ef1	0.014442191
236	0x3e85ad19	0.26108626
237	0x3dbf14ed	0.09330163
238	0xbea0b744	-0.3138982
239	0x3d9bf314	0.07614723
240	0x3e2d4dc7	0.16924201
241	0x3ddfbaac	0.10924277
242	0x3dc5e9e3	0.09663751
243	0x3e606a4f	0.21915554
244	0xbdcf13c8	-0.10111195
245	0x3ebbb709	0.36663082
246	0xbe37b460	-0.17939901
247	0x3caa66f0	0.020801038
248	0x3d69d20d	0.057085086
249	0x3d6316ba	0.055441596
250	0x3ad30166	0.0016098439
251	0xbe8778ae	-0.2645926
252	0x3d6e5083	0.05818225
253	0xbe1eeae5	-0.15519293
254	0x3da2a220	0.07941079
255	0xbdc757ed	-0.097335674

w_group.2.bias f4 [32]
0	0xbf80a8ad	-1.0051476
1	0xbf1e2dac	-0.6178844
2	0xbd737f90	-0.059447825
3	0xbefd6111	-0.49488118
4	0x3e47b5d4	0.19502956
5	0xbf6343ab	-0.8877513
6	0xbe8e1385	-0.27749267
7	0x3e113c7b	0.14183228
8	0x3d0196b3	0.03163786
9	0xbe0449f1	-0.12918831
10	0x3eaed672	0.34147984
11	0x3d7e86af	0.062140163
12	0xbdac1e84	-0.08404258
13	0xbe0eb1dc	-0.13935035
14	0x3e278bc1	0.16361906
15	0xbe86037b	-0.2617453
16	0xbf1242b0	-0.5713301
17	0xbee87ab3	-0.45406112
18	0xbfa41efe	-1.2821958
19	0x3ee37bb7	0.44430324
20	0xbe194c8c	-0.14970607
21	0xbd2bae7f	-0.04191446
22	0xbeab64f7	-0.33475468
23	0xbc89fd79	-0.016844498
24	0xbdc6a8b9	-0.0970015
25	0xbf9904b1	-1.1954557
26	0xbf04cbe8	-0.51873636
27	0xbe1fc900	-0.15604019
28	0xbd905fc2	-0.07049514
29	0xbf59e375	-0.85112697
30	0xbea5fb7a	-0.32418424
31	0x3da36227	0.079777054

w_agents.0.weight f4 [64, 5]
0	0x3da260f6	0.0792865
1	0xbd34d106	-0.044144653
2	0x3dc89aef	0.09795176
3	0x3db1d606	0.086834
4	0x3da145cf	0.07874643
5	0x3d0d53fc	0.034503922
6	0x3c139e7c	0.009009954
7	0xbeb31d5e	-0.34983343
8	0xbe1456f3	-0.14486293
9	0xbef00239	-0.46876696
10	0x3bff943c	0.0077996533
11	0x3d8249ff	0.0636177
12	0x3d805f20	0.06268144
13	0x3e0ca66f	0.13735364
14	0xbe7613c2	-0.24030975
15	0xbcf392b1	-0.029733034
16	0x3d9e2f23	0.07723834
17	0x3e420a36	0.18949208
18	0x3df223c3	0.11823227
19	0xbf397fa7	-0.72460407
20	0xbd8ef9f4	-0.069812685
21	0x3dd4f35f	0.10397982
22	0x3f99ef03	1.2026066
23	0xbfc1c588	-1.5138407
24	0xbf0c89f8	-0.54898024
25	0xbebdde64	-0.37083733
26	0xbf3b6160	-0.7319546
27	0x3d8ebca2	0.069695726
28	0x3f8b4cd5	1.0882822
29	0xbf57f933	-0.8436462
30	0x3c32dd48	0.010917015
31	0x3e63eded	0.2225873
32	0xbe40332a	-0.18769518
33	0x3f08c221	0.5342122
34	0xbf345596	-0.70443094
35	0x3b9a1814	0.0047025774
36	0xbd4952df	-0.049151298
37	0xbd267d9f	-0.040647145
38	0x3e0463a9	0.12928642
39	0xbf3c7288	-0.7361226
40	0xbde68e55	-0.112576164
41	0xbef8bde6	-0.4858238
42	0xbe9bb359	-0.3041027
43	0xbeceadfa	-0.4036711
44	0xbeaa245f	-0.33230874
45	0xbe99edfa	-0.30064374
46	0x3dd525df	0.10407614
47	0xbdf18587	-0.117930464
48	0x3df5e245	0.12006048
49	0xbfd3367e	-1.6501005
50	0x3d50aff9	0.05094907
51	0x3f91328b	1.134355
52	0x3fba104e	1.4536226
53	0x3f0803c9	0.53130776
54	0xbf483e75	-0.782203
55	0xbdaee3b9	-0.085395284
56	0xbe7c94b8	-0.24666107
57	0x3feb8dc2	1.8402636
58	0x4027b8b6	2.6206489
59	0xbf636154	-0.88820386
60	0x3e077ac0	0.13230419
61	0xbed4343e	-0.41446108
62	0xbfd0ff6b	-1.6327947
63	0x3fb949c1	1.4475633
64	0xbf1ad2b0	-0.60477734
65	0xbc0200d0	-0.007934764
66	0x3ccbc192	0.024872575
67	0xbc8f6924	-0.01750619
68	0x3e6fddc3	0.23424439
69	0x3d029632	0.03188152
70	0x3f1ef43f	0.6209144
71	0x3f916187	1.1357888
72	0x3f93b82c	1.154058
73	0x3ff22dd8	1.892024
74	0xbfd8aa9a	-1.6927063
75	0x3c8bd18f	0.017067699
76	0x3e9258fa	0.2858351
77	0x3eb70186	0.3574335
78	0x3f30ac58	0.69012976
79	0xbf866f1d	-1.0502659
80	0x3edc6415	0.43045107
81	0xbcdffce3	-0.027342265
82	0xbfc7847e	-1.5587308
83	0x3fc6ca54	1.5530496
84	0xbfa97203	-1.3237919
85	0xbf5418d9	-0.82850415
86	0x3eac23e1	0.33621123
87	0x3fb0811c	1.3789401
88	0x3f9129f8	1.1340933
89	0xbf61d435	-0.8821443
90	0xbf395b98	-0.72405386
91	0x3f086f56	0.53294885
92	0x3f6cf31b	0.9255845
93	0x401cc032	2.4492307
94	0xc00e4b9c	-2.2233648
95	0xbc369f31	-0.011146353
96	0x3da12bd6	0.07869689
97	0xbcab1f1b	-0.020888856
98	0x3e9d0c1a	0.30673295
99	0xbf2cc765	-0.6749175
100	0x3c2e396f	0.01063381
101	0xbc62a8b9	-0.013834172
102	0xbe111be5	-0.14170797
103	0x3ed790c8	0.42102647
104	0xbf697061	-0.911871
105	0xbf0be8eb	-0.5465228
106	0x3fa8c7c7	1.3185967
107	0xbd6c8cf2	-0.057751603
108	0x3fd48678	1.6603537
109	0xbf67167c	-0.90268683
110	0xbdee5c2a	-0.11638673
111	0x3ec4f7e6	0.38470381
112	0xbdc5be55	-0.096554436
113	0x3f020305	0.5078586
114	0xbf0fe772	-0.5621253
115	0xbebb6863	-0.36603078
116	0x3f9228aa	1.141866
117	0x3f27b81b	0.655153
118	0x40132781	2.2992861
119	0xc01216dd	-2.2826455
120	0x3d03adad	0.032148052
121	0xbc8e0608	-0.01733686
122	0x3e1dffe2	0.15429643
123	0x3fca6047	1.5810632
124	0xbf9e626f	-1.237379
125	0x3d9f58cd	0.07780609
126	0x3e123ccb	0.14281003
127	0xbd016cfc	-0.031598076
128	0x3e919fa2	0.28442103
129	0xbf05a3b0	-0.5220289
130	0x3db8ca70	0.09022987
131	0x3e3f33cb	0.18672101
132	0xbd90fcf6	-0.070794985
133	0x3ec46541	0.383585
134	0xbf1c7992	-0.61123
135	0xbe94425c	-0.28956878
136	0x3f8e9da5	1.1141859
137	0x3f0f3f92	0.55956376
138	0x3f16c8bd	0.5890005
139	0xbfc14466	-1.5098999
140	0xbd6be34e	-0.05758982
141	0x3f680ffa	0.9064938
142	0xbef3e987	-0.47639105
143	0x3ea7b4dd	0.32755175
144	0xbfc59d43	-1.5438617
145	0x3ee5f15c	0.44910705
146	0x3de7d88f	0.11320602
147	0xbf1d01fe	-0.61331165
148	0x3fe648ba	1.7990944
149	0xbf3aac33	-0.72919005
150	0x3e666516	0.22499499
151	0x3f9fc4bf	1.2481917
152	0xbf55436b	-0.83305997
153	0x3fc2cf63	1.5219539
154	0xbf8b78e0	-1.0896263
155	0x3da42718	0.08015269
156	0x3d972eff	0.07382011
157	0x3e4b0b50	0.19828534
158	0x3c07c931	0.008287714
159	0xbf145236	-0.57937944
160	0x3aacc78f	0.0013182032
161	0x3f4f1289	0.8088766
162	0xbfaca60f	-1.3488177
163	0x401401e0	2.3126144
164	0xbf70049b	-0.9375703
165	0xbece8116	-0.4033286
166	0x3f85ea06	1.0462043
167	0x3f9b0bca	1.2112973
168	0x400ad4da	2.1692414
169	0xbf9ab9b4	-1.2087922
170	0xbe749a04	-0.23886877
171	0x3f8c793c	1.0974498
172	0x3e1e1524	0.15437752
173	0x3f9be3bb	1.2178873
174	0xbf1ec5d9	-0.6202064
175	0xbdb2bb11	-0.08727086
176	0xbf1a9c20	-0.6039448
177	0xbfe6e095	-1.8037287
178	0x4016d4a8	2.3567295
179	0xbfb624df	-1.4230002
180	0xbf0c1f86	-0.547356
181	0x3fa2ea0e	1.2727678
182	0x3f064cb6	0.524608
183	0xbd3521e1	-0.044221763
184	0xbf03a2ee	-0.51420486
185	0xbe21690a	-0.15762725
186	0x3fa851cc	1.3149962
187	0xbc3cc13c	-0.01152068
188	0x3f8d5ccd	1.1043946
189	0xbfa65184	-1.2993627
190	0x3e71e302	0.23621753
191	0x3f072764	0.5279448
192	0x3da441f4	0.08020392
193	0xbf42de0f	-0.76120085
194	0xbee95ca8	-0.45578504
195	0x3c884909	0.016636388
196	0x3e916f26	0.28405112
197	0x3f210ff8	0.6291499
198	0x3e9f155e	0.3107099
199	0xbfcf7812	-1.6208518
200	0xbc61f525	-0.013791357
201	0x3e040cd0	0.12895513
202	0x3e39931a	0.18122521
203	0x3ef9c6af	0.48784396
204	0xbf198a04	-0.5997622
205	0xbe8f830e	-0.28029674
206	0x3f8b35ec	1.0875831
207	0x3e3edbfe	0.18638608
208	0xbee7b8d7	-0.4525821
209	0xbe826e4d	-0.25474778
210	0xbee9759b	-0.45597538
211	0x3f940028	1.1562548
212	0xbe833bea	-0.25631648
213	0xbfc9753d	-1.5738903
214	0xbf3ea50d	-0.744706
215	0x3f5f5012	0.8723155
216	0xbe403bb9	-0.18772782
217	0xbf8896c9	-1.0671016
218	0xbf59e69d	-0.8511751
219	0xbf448c05	-0.7677615
220	0x3d1a51fe	0.03767585
221	0x3ef19d94	0.47190535
222	0xbf5f2607	-0.871674
223	0x40275aa4	2.6149073
224	0xbf7044bc	-0.9385488
225	0x3ee85cc1	0.45383266
226	0x3fac05cb	1.3439268
227	0xbeb92831	-0.36163476
228	0x4005cbe9	2.0905707
229	0xbe935aee	-0.2878031
230	0xbe259e8e	-0.16173765
231	0x3f93d883	1.1550449
232	0xbf2d9a04	-0.67813134
233	0x403ae85b	2.9204319
234	0xbfae1f6c	-1.3603339
235	0x3e3897ec	0.18026704
236	0x3ebf4fa7	0.37365457
237	0xbf894221	-1.0723306
238	0x3d6953d8	0.056964725
239	0xbf844f24	-1.0336652
240	0x3f3bb0c0	0.73316574
241	0x3f6d51b6	0.92702806
242	0xbebfdfe4	-0.37475502
243	0x4008c947	2.137285
244	0xbfbabda9	-1.458913
245	0x3e592598	0.21205747
246	0xbf629bfa	-0.8851925
247	0xbfb3ae77	-1.4037617
248	0x3f61ad96	0.88155496
249	0xbf9a7396	-1.2066524
250	0xbd21a21a	-0.039461233
251	0x3bd58f5b	0.0065173334
252	0x3eb79f9c	0.3586396
253	0xbfdd981e	-1.7312047
254	0xbec15cc6	-0.37766093
255	0xbe143629	-0.14473785

w_agents.0.bias f4 [64]
0	0xbf406ea3	-0.7516882
1	0xbecf0bf7	-0.40438816
2	0xbebedf07	-0.3727953
3	0xbe9351b8	-0.28773284
4	0xbf8d89b2	-1.1057646
5	0xbf8915b8	-1.0709753
6	0xbf46de3a	-0.7768284
7	0xbec72b49	-0.3890021
8	0xbd62a0fb	-0.055329304
9	0xbfb68990	-1.4260731
10	0xbf4f2f66	-0.809317
11	0xbf992d02	-1.196686
12	0xbf6591cd	-0.896756
13	0xbea6aa7b	-0.3255194
14	0xbfb22573	-1.3917679
15	0xbf8ba5eb	-1.0910009
16	0xbfc60915	-1.5471522
17	0xbf51de5b	-0.8197991
18	0xbffb2209	-1.9619762
19	0xbe26b9e2	-0.16281846
20	0xbeb60a4a	-0.35554725
21	0xbf4fa926	-0.81117475
22	0xbf80c808	-1.0061045
23	0xbfdf081b	-1.7424349
24	0xbfb0c327	-1.3809556
25	0xbf04a59c	-0.518152
26	0xbf35d10d	-0.7102211
27	0xbfab6f99	-1.3393432
28	0xbfc7d1c1	-1.5610887
29	0xbee12a26	-0.4397747
30	0xbfb3ebde	-1.4056356
31	0xbf107e10	-0.56442356
32	0xbf37fe96	-0.7187284
33	0xbfb23ecb	-1.3925413
34	0xbf69e8d6	-0.91370904
35	0xbfcce2bb	-1.6006693
36	0xbf29c154	-0.6631062
37	0xbfc808fc	-1.5627742
38	0x3cd080fb	0.025452128
39	0xbfa8e460	-1.3194695
40	0xbf143447	-0.5789227
41	0x3d98541e	0.07437919
42	0xbf98b12d	-1.192907
43	0xbf93228a	-1.1494915
44	0xbfa0a3a4	-1.2549939
45	0xbf61bd28	-0.88179255
46	0xbf5bf899	-0.85926205
47	0xbecaacb2	-0.3958488
48	0xbf555f0d	-0.8334816
49	0xbfb03f1d	-1.3769261
50	0xbf95863f	-1.1681594
51	0xbf687562	-0.9080411
52	0xbe3e2997	-0.18570553
53	0xbf8f92f2	-1.1216719
54	0xbf38b5fa	-0.72152674
55	0xbfd2c68d	-1.6466843
56	0xbf1c124a	-0.60965407
57	0xbe8c3e2e	-0.2739119
58	0xbf5aeb76	-0.85515535
59	0xbe82b846	-0.25531214
60	0x3cb24c90	0.021765023
61	0xbf95633b	-1.1670908
62	0xbfde2ecc	-1.7358031
63	0xbec92c11	-0.39291432

w_agents.2.weight f4 [32, 64]
0	0x3d234816	0.03986367
1	0xbe01b31a	-0.12665978
2	0xbcd933f7	-0.026514037
3	0xbd0b1fcf	-0.033965882
4	0xbe041b56	-0.12901053
5	0x3c1fdf66	0.009757852
6	0xbd976649	-0.07392556
7	0x3cdfb275	0.027306775
8	0x3c2fcabb	0.010729487
9	0xbe17b68a	-0.14815727
10	0x3cc542cc	0.024079703
11	0x3dff2dd3	0.12459912
12	0xbcb1bd2d	-0.021696651
13	0x3cecbc6f	0.028898446
14	0x3c4082bb	0.011749919
15	0xbd76dd44	-0.06026961
16	0xbdb28423	-0.08716609
17	0xbda49908	-0.08037001
18	0xbe08ba18	-0.13352239
19	0xbd9001a7	-0.07031565
20	0xbdfd5555	-0.123697914
21	0xbddafd41	-0.106928356
22	0xbe6fb0ae	-0.23407242
23	0xbe36a4a1	-0.17836238
24	0xbda5162f	-0.08060872
25	0x3d87341c	0.06601736
26	0x3b68ee4e	0.0035542431
27	0xbdf261cc	-0.118350595
28	0xbe4935da	-0.19649449
29	0x3c1ec9d8	0.009691678
30	0x3ca52e39	0.020163642
31	0xbbe947c0	-0.007119149
32	0x3d4a9aa5	0.049463887
33	0xbdd1a181	-0.102358826
34	0xbcf39d74	-0.029738165
35	0xbdc83b72	-0.09776963
36	0xbe568d5e	-0.20952365
37	0xbe08b325	-0.13349588
38	0xbdf90fab	-0.121611916
39	0xbe2756e6	-0.16341743
40	0xbd8db888	-0.06919962
41	0xbe0beefb	-0.13665383
42	0xbc85222c	-0.016251646
43	0x3d803fe7	0.062621884
44	0x3c881dce	0.016615774
45	0xbd85ebd9	-0.06539125
46	0xbe5430cd	-0.20721741
47	0xbc8e29f3	-0.017353987
48	0xbcb84d6d	-0.022497857
49	0x3b90dd0e	0.004420883
50	0xbe09d204	-0.13459021
51	0xbe6fad94	-0.23406059
52	0xbc8cc46f	-0.01718351
53	0xbcb198c8	-0.021679297
54	0xbb8489d5	-0.004044751
55	0xbe290d1e	-0.1650891
56	0x3c87bfeb	0.016571006
57	0xbda63f3c	-0.0811753
58	0xbe5046dd	-0.20339532
59	0x3d68ce11	0.056837145
60	0xbc993a4f	-0.018704562
61	0xbc89bc19	-0.016813325
62	0xbd3eeb34	-0.046611026
63	0xbe421d63	-0.18956523
64	0x3d5c1867	0.05373421
65	0xbe64de0d	-0.2235033
66	0xbf027b03	-0.5096895
67	0xbe44c28f	-0.19214843
68	0xbe897738	-0.2684877
69	0x3da8ffa8	0.082518876
70	0x3ebdbfd8	0.37060428
71	0x3caef38f	0.021356372
72	0xbcbd71ed	-0.023125613
73	0xbe16a7b3	-0.1471241
74	0x3fa71aaa	1.3055012
75	0x3f4bf60c	0.7967231
76	0xbf2bf0a3	-0.6716406
77	0x3cacd466	0.021097373
78	0xbfdedb26	-1.7410629
79	0xbe19eb28	-0.15031111
80	0xbee79fff	-0.45239255
81	0x3ec51ff7	0.3850095
82	0x3f281e40	0.6567116
83	0x3e1ba7e4	0.15200764
84	0xbd559d0c	-0.052151725
85	0xbf1bffe4	-0.60937333
86	0x3e8a7830	0.2704482
87	0xbe24285a	-0.16031018
88	0x3fbcb063	1.4741329
89	0xbddc2212	-0.10748686
90	0x3b0b4833	0.002125275
91	0xbedaa500	-0.4270401
92	0x3da5b77f	0.0809164
93	0x3e2baa83	0.16764264
94	0xbf4b4a0c	-0.7940986
95	0xbd9b689b	-0.07588311
96	0xbf48ef7e	-0.78490436
97	0xc050573a	-3.255324
98	0xbee95966	-0.45576018
99	0xbf4df8df	-0.8045787
100	0x3f34a2a5	0.70560676
101	0xc004d36c	-2.0754042
102	0xbf93f653	-1.1559547
103	0xbebb76da	-0.36614114
104	0xbdecc370	-0.11560714
105	0xbf9ee16d	-1.2412544
106	0xc0654170	-3.582119
107	0x3de26382	0.11054136
108	0x3f2afb1f	0.6678943
109	0xbf7a1932	-0.97694695
110	0x3cf58e56	0.029975098
111	0x3f912458	1.1339216
112	0x3f23cd72	0.6398536
113	0x3e8ac0b4	0.27100146
114	0x3e8393c7	0.25698683
115	0x3e1804ee	0.1484563
116	0x3a0ff1ac	0.0005491029
117	0x3e4b6b89	0.1986524
118	0x3df82b06	0.12117581
119	0x3f473731	0.7781859
120	0xbff3a550	-1.9034824
121	0xbe43d325	-0.19123514
122	0xc026d4c9	-2.6067374
123	0xbeb07a1f	-0.3446817
124	0xbcbf9251	-0.023385199
125	0x3f0017ea	0.5003649
126	0x3eb706bb	0.35747322
127	0x3f0a0b2a	0.53923285
128	0xbda5d48b	-0.0809718
129	0xbe940671	-0.28911164
130	0xbcab047b	-0.02087616
131	0x3ecedf17	0.4040458
132	0xbe554961	-0.20828773
133	0xbc73dc90	-0.014884129
134	0xbc69fca2	-0.014281424
135	0xbf114d7a	-0.56758845
136	0xbd0f07fa	-0.034919716
137	0x3e2abcd0	0.16673589
138	0xbd06eb6c	-0.03293936
139	0xbd83c1cf	-0.064334504
140	0x3e851550	0.25992823
141	0xbea331d5	-0.31873956
142	0xbd92c26b	-0.071659885
143	0x3e7f1b4d	0.24912758
144	0xbdd238da	-0.1026475
145	0xbf1063b3	-0.5640213
146	0xbd39c207	-0.045351055
147	0x3e5d17ee	0.2159116
148	0xbeb3b0e7	-0.35095903
149	0xbe9498fe	-0.29022974
150	0xbe1381e7	-0.14405023
151	0xbdcfaea9	-0.10140736
152	0x3d881453	0.066445015
153	0xbed696e2	-0.4191199
154	0xbd8143c9	-0.06311757
155	0x3cc08885	0.023502598
156	0x3d58f296	0.052965723
157	0xbed4c6af	-0.41557834
158	0xbe8979fd	-0.26850882
159	0x3dad14d1	0.08451236
160	0x3d10270c	0.035193488
161	0xbeab3550	-0.33439112
162	0xbc4399ed	-0.011938554
163	0x3c32052f	0.010865494
164	0xbcf89306	-0.030343544
165	0xbe573bcb	-0.21018903
166	0xbe269848	-0.16269028
167	0x3b0e3787	0.0021700577
168	0x3e38d344	0.18049341
169	0x3d1caa53	0.03824837
170	0xbe0aa228	-0.1353842
171	0xbf08162e	-0.53158844
172	0xbeab3995	-0.3344237
173	0xbe8f2e2b	-0.2796491
174	0xbeddb1f2	-0.43299824
175	0xbe1e3272	-0.15448931
176	0x3cad2457	0.021135492
177	0xbd2022a0	-0.03909552
178	0xbe0e373f	-0.13888262
179	0xbd2ec6ea	-0.042670168
180	0xbdff7e14	-0.12475219
181	0x3d5bc5f4	0.05365558
182	0xbde798cc	-0.113084406
183	0x3d5e79f8	0.054315537
184	0xbd242578	-0.040074795
185	0x3db2b6ad	0.08726249
186	0xbcf3fe22	-0.029784266
187	0x3e66a718	0.22524679
188	0x3d40376a	0.046927847
189	0x3e466a9e	0.19376609
190	0xbe583bc2	-0.21116546
191	0xbe2634cb	-0.16231076
192	0xbd403687	-0.046927
193	0xbb8b0cbf	-0.004243463
194	0xbc3aec27	-0.011408842
195	0x3e715224	0.2356649
196	0xbf7a4fec	-0.977782
197	0xbe867a5d	-0.2626523
198	0x3e64087a	0.22268859
199	0x3cf2f074	0.029655673
200	0xbdf1fe8d	-0.1181613
201	0xbd4b75ed	-0.04967301
202	0xbebaa176	-0.3645131
203	0xbf8ac05f	-1.0839957
204	0xbe79e818	-0.24404943
205	0xbd2abc20	-0.041683316
206	0xc072c0f2	-3.7930264
207	0x3e4d3122	0.20038274
208	0x3f20888e	0.62708366
209	0x3e3ca429	0.18421997
210	0xbea35bf7	-0.319061
211	0x3cf6880e	0.030094173
212	0x3d74f682	0.0598054
213	0x3b451011	0.003006939
214	0x3e474b17	0.19462238
215	0x3f662ebc	0.8991506
216	0xbf176492	-0.59137833
217	0x3d02e2bc	0.031954512
218	0x3e5a0b28	0.21293318
219	0xbf1d10af	-0.6135358
220	0xc00cae83	-2.1981514
221	0x3db4b90f	0.088243596
222	0xbe9b101b	-0.30285725
223	0x3d05556a	0.03255216
224	0x3e8d4211	0.27589467
225	0x3f2bb51a	0.67073214
226	0xbf03cc78	-0.5148387
227	0xbea44cbe	-0.320898
228	0x3e42998a	0.19003883
229	0xbf241d52	-0.6410724
230	0xbe333a7e	-0.17502782
231	0xbf47ec94	-0.78095365
232	0x3c916314	0.01774744
233	0xbd394a9d	-0.045237172
234	0x3dc3b9fa	0.095569566
235	0x3d4166d9	0.047217224
236	0xbf755660	-0.9583492
237	0x3ed1b03a	0.40954763
238	0x3ee6cc0c	0.4507755
239	0xbed8a0d6	-0.42310208
240	0x3ed8e877	0.42364857
241	0x3ed91afb	0.42403397
242	0xbed16ae4	-0.40901864
243	0x3f932b18	1.1497526
244	0x3dbe3f1d	0.09289382
245	0xbd70175d	-0.05861603
246	0x3c6bdc47	0.01439578
247	0xbd43fde5	-0.047849555
248	0xbe26059b	-0.16213076
249	0xbda5e0a9	-0.08099491
250	0xbb735de6	-0.0037134825
251	0x3dc65249	0.096836634
252	0x3d6cd20e	0.05781751
253	0x3e557a3f	0.20847414
254	0xbf8a81ec	-1.0820899
255	0xbcb6a797	-0.02229671

w_agents.2.bias f4 [32]
0	0xbe85448d	-0.26028863
1	0xbeba04e4	-0.36331856
2	0xbefad78c	-0.48992574
3	0x3f14e0ba	0.58155406
4	0x3c11778c	0.0088786
5	0xbe0f761a	-0.14009896
6	0xbef6c3aa	-0.48196155
7	0x3e0fc8f5	0.14041503
8	0xbda2bbad	-0.079459526
9	0xbe88bf98	-0.26708674
10	0xbe31c7b4	-0.17361337
11	0xbe35648d	-0.17714138
12	0x3ee59530	0.44840384
13	0xbea8cf0d	-0.32970467
14	0xbd963bd5	-0.07335631
15	0x3ed342da	0.4126194
16	0x3de17560	0.11008716
17	0xbe7a8c50	-0.24467587
18	0xbe33d8cd	-0.17563172
19	0xbe2b0876	-0.16702446
20	0xbf176505	-0.5913852
21	0xbe8f7d27	-0.2802517
22	0xbe6fbbe4	-0.23411518
23	0xbb007650	-0.001960177
24	0xbf29f4b2	-0.66389
25	0x3d054de5	0.03254499
26	0xbf3e8f71	-0.74437624
27	0xbe9b370b	-0.30315432
28	0x3ddeaf47	0.10873275
29	0xba9d3728	-0.0011994587
30	0x3df8785e	0.12132333
31	0xbf3b7b5d	-0.7323511

Ws.0 f4 [32, 32]
0	0xbf2d8874	-0.67786336
1	0x3ea29f08	0.31761956
2	0x3e199ffa	0.15002432
3	0x3f34d6e6	0.7064041
4	0xbf324df5	-0.69650203
5	0x3f8392a4	1.0279126
6	0xbf6b5f4f	-0.91942304
7	0xbf9ac1fc	-1.2090449
8	0xbfe7af4b	-1.810037
9	0x3febfe97	1.843707
10	0x3f8b0ba2	1.0862925
11	0xbf1222db	-0.57084435
12	0x3fa2fb1c	1.2732882
13	0x3f4a3a65	0.78995353
14	0x3f09ce17	0.53830093
15	0x3e8b3131	0.27185968
16	0x3f2ca54d	0.6743973
17	0x3e893dcc	0.2680496
18	0xbf2301ba	-0.6367451
19	0x3f76c014	0.9638684
20	0xbe8a2a91	-0.269856
21	0xbf4f1d5a	-0.8090416
22	0xc009d1cb	-2.1534297
23	0x3f334431	0.70025927
24	0xbfa14f60	-1.2602348
25	0xbfc89cdc	-1.567287
26	0xbf938a91	-1.1526662
27	0x3f28bf96	0.65917337
28	0x3f37aa89	0.7174459
29	0x3fd84686	1.6896522
30	0x3e8ce206	0.27516192
31	0xbe8865da	-0.26640207
32	0x40672c1b	3.612067
33	0xc030c973	-2.7622955
34	0xbea5e43d	-0.32400694
35	0xc031146f	-2.7668722
36	0xbf6a9df1	-0.9164725
37	0x3f1c7e56	0.61130273
38	0xbed21344	-0.41030324
39	0xbf3caef1	-0.7370444
40	0xbf2aa3d5	-0.6665624
41	0xbecb9007	-0.39758322
42	0x3f218587	0.6309437
43	0x3fafaa5b	1.3723863
44	0x3f1a4b0a	0.6027075
45	0x3fc5fda3	1.5468029
46	0x3e3f9ff4	0.18713361
47	0xbf32c146	-0.6982616
48	0xbf279e40	-0.65475845
49	0xbe339495	-0.17537148
50	0x3de60bfc	0.112327546
51	0xc04ec32c	-3.2306623
52	0xbe4ab429	-0.19795288
53	0x3f12aaa1	0.5729161
54	0x3e4ff688	0.20308888
55	0xbd45679d	-0.048194516
56	0xbea61498	-0.32437587
57	0xc0aab6bb	-5.334806
58	0xbf61008f	-0.8789148
59	0xbf53a6df	-0.826765
60	0x3fb51581	1.4147187
61	0xc09c08e6	-4.876086
62	0x4004d0fc	2.0752554
63	0xbf740704	-0.95323205
64	0x3f18cb58	0.5968528
65	0x3ed41f2f	0.4143004
66	0x3c4a4669	0.012345889
67	0x3f2f6a84	0.68521905
68	0x3fa4a9a8	1.2864275
69	0x3e42b35b	0.19013731
70	0xbfbe03e3	-1.4844936
71	0x40295fd2	2.6464734
72	0xbe4c3d37	-0.19945227
73	0x3feec34f	1.8653353
74	0xbf40182a	-0.7503687
75	0xbd0128bb	-0.031532984
76	0xbdd35bb0	-0.103202224
77	0x3f6e984e	0.9320115
78	0xbe4aecbd	-0.19816871
79	0xbff3f922	-1.9060404
80	0xbee7ea89	-0.45296124
81	0x3ed74f85	0.42052856
82	0x3d22d3a5	0.03975262
83	0x4020421a	2.5040345
84	0xbf8ca209	-1.0986949
85	0xbf0d114f	-0.55104536
86	0xbf8e701d	-1.1127964
87	0x3f916c62	1.1361201
88	0x3df471b7	0.11935752
89	0x3eaf8729	0.34282807
90	0xbe7c91e4	-0.24665028
91	0x3f8b48cd	1.0881592
92	0x3da58e3e	0.08083771
93	0xc02ebf2f	-2.730419
94	0xbf859f5e	-1.043926
95	0xbf012429	-0.504458
96	0xbfb5dfe1	-1.4208947
97	0x3ef0e854	0.47052252
98	0x3f2e3b3b	0.6805913
99	0x3e501c24	0.20323235
100	0xbf4f7710	-0.8104105
101	0x3f3e5354	0.743459
102	0x3efe6b4b	0.49691233
103	0xbfa0cc99	-1.2562438
104	0x3f2f85f3	0.68563765
105	0x3dc90229	0.09814865
106	0x3e156c81	0.14592172
107	0x3dfa1e66	0.12212829
108	0xbe345fb9	-0.1761464
109	0xbfc57933	-1.5427612
110	0x3f264bbb	0.64959306
111	0xbf018a5a	-0.5060173
112	0xbf4afb58	-0.7928977
113	0x3fdc5def	1.7216166
114	0xbef307c6	-0.47466868
115	0xbf8134b1	-1.0094205
116	0xbe38b2a0	-0.1803689
117	0xbe99f208	-0.30067468
118	0x40091cbb	2.1423786
119	0x3dc6ea23	0.09712627
120	0x3f30a729	0.69005066
121	0xbe19d26f	-0.1502168
122	0x3f659562	0.89681065
123	0x3ed0e7ae	0.40801758
124	0x3faaf575	1.3356158
125	0xbf6d421a	-0.9267899
126	0xbe26cf3f	-0.16289996
127	0x3f916012	1.1357443
128	0x3e2fbca6	0.17161807
129	0xc09d6383	-4.9183974
130	0xbf94e52c	-1.1632438
131	0xbd9b0929	-0.075701065
132	0xbfa50a45	-1.2893759
133	0x3f5f06b3	0.871196
134	0xbf8aeec9	-1.0854121
135	0xbf95c92a	-1.1702015
136	0x3e4ac285	0.19800766
137	0x3fa708a8	1.3049517
138	0x3fb8c9df	1.4436606
139	0x3e09e001	0.13464357
140	0xbe0ec80f	-0.13943504
141	0xbefcd5f0	-0.4938197
142	0xbe841fc4	-0.25805485
143	0x3f55546f	0.8333196
144	0x3fd00175	1.6250445
145	0x3e9299ac	0.28632867
146	0xbea0196b	-0.31269392
147	0x400c0ccc	2.188281
148	0x3fa36176	1.2764118
149	0xbf9fe7c9	-1.249261
150	0xbfcefe19	-1.6171294
151	0xbff2f3f0	-1.8980694
152	0x3f87cfe5	1.0610319
153	0x3f7c3182	0.9851304
154	0xbf55dd0e	-0.8354043
155	0xbefcd942	-0.49384505
156	0xbf2bc08d	-0.67090684
157	0x3ff2f12b	1.8979849
158	0xbf8e1de1	-1.1102868
159	0xbe9cf73b	-0.30657372
160	0xbfb65f95	-1.4247919
161	0xbfb26e8b	-1.3939985
162	0x3f448485	0.7676471
163	0xbe74511a	-0.23859063
164	0xbf7ca2ef	-0.98686117
165	0x3f6ead24	0.9323294
166	0x3f3a2262	0.72708714
167	0x3b5ae3c4	0.003339992
168	0xc00af4c2	-2.1711888
169	0x3fd3c7f9	1.6545402
170	0x3f2ee357	0.68315643
171	0xbecaccdf	-0.3960943
172	0x3fbd758a	1.4801495
173	0xbec794f1	-0.3898082
174	0xbfcb579c	-1.5886111
175	0xbf269d2f	-0.65083593
176	0xbf8d5b07	-1.1043404
177	0x3f42257a	0.75838435
178	0xbe87d316	-0.26528233
179	0x3f17e84c	0.5933883
180	0x3f6d3ca3	0.9267065
181	0x3d74ea8a	0.059793986
182	0xc0209283	-2.5089424
183	0xbef799a8	-0.48359418
184	0x3df12263	0.11774137
185	0xbffc28a3	-1.9699901
186	0x3edd4be3	0.4322196
187	0xbf65afcb	-0.89721364
188	0xc095a55c	-4.6764355
189	0xbfdc41c4	-1.720757
190	0x3f3f7549	0.7478834
191	0xbfeee61a	-1.8663971
192	0x3ed617b3	0.41814956
193	0xbe4c7024	-0.19964653
194	0xc045f9a1	-3.0933611
195	0xc0b3096d	-5.5949006
196	0x3e45b83e	0.19308564
197	0xbf4798a2	-0.77967274
198	0xbf87857a	-1.0587609
199	0xbeee28df	-0.46515557
200	0x3f857489	1.0426189
201	0xbe302a8f	-0.17203735
202	0x3f8a5cd6	1.0809581
203	0x3ed8dfbf	0.42358205
204	0xc0b79f25	-5.738177
205	0xbe9f9ab7	-0.31172726
206	0x3fbdc323	1.4825176
207	0xc08b0643	-4.3445144
208	0xc0afe7b6	-5.497035
209	0x3e90449c	0.28177345
210	0xc0191b63	-2.3922966
211	0xc02de3df	-2.7170331
212	0x3f11078d	0.56652147
213	0xc05d6d91	-3.4598124
214	0xbf983c65	-1.1893431
215	0x3ffdeaf2	1.9837325
216	0x3f97c39e	1.1856573
217	0xbf4941b0	-0.78615856
218	0xbfc38f1e	-1.5278051
219	0xc056b4d3	-3.3547866
220	0x3f006085	0.5014728
221	0xbf379bea	-0.7172228
222	0xbf654644	-0.8956034
223	0xbfd4f85c	-1.6638293
224	0x3ecfa2bf	0.40553853
225	0xbf41fa35	-0.7577241
226	0xbff3b7c0	-1.9040451
227	0x3d48e2fe	0.0490446
228	0x3e1a89bb	0.15091603
229	0xbfabfa3f	-1.3435744
230	0xbd6c7c27	-0.05773559
231	0x3e42ccb7	0.19023405
232	0x3f924691	1.1427785
233	0x3dc7beff	0.097532265
234	0x3f1dd329	0.6165033
235	0x3dffc4cc	0.12488708
236	0xbebb5905	-0.36591354
237	0x3f0bb8f5	0.545791
238	0x3fc1c0c5	1.5136954
239	0xc03dc236	-2.9649787
240	0xbfa44fb1	-1.283682
241	0xbfe1a26b	-1.7627691
242	0xbe8e6b1e	-0.278161
243	0x3e62b9e3	0.22141223
244	0xbfd6b34b	-1.6773466
245	0x3fb3ff72	1.4062331
246	0xbe1d9192	-0.15387562
247	0xbfc80fb6	-1.5629795
248	0xbfab57a6	-1.3386123
249	0x3f584740	0.8448372
250	0x3f3d3ac9	0.73917824
251	0x3da0fb72	0.078604594
252	0x3fb76742	1.4328387
253	0xc00bc097	-2.1836298
254	0xbe8faa20	-0.28059483
255	0xbf37c2d2	-0.7178165
