crowd_nav/data-3/rl_model_5.pth (torch_old, 93650 bytes, 18 tensors)

w_a f4 [32, 32]
-1.4295646 -2.4234328 1.176503 0.28449866 0.9030638 0.030695338 0.1699314 -0.17408049
-1.5217608 0.3926341 0.33152795 -0.4753157 -0.38933948 1.1055416 -2.4686317 -0.65503407
2.789451 2.0861366 0.12507896 2.780544 -1.2886202 -3.4447174 -1.4647427 -0.060099393
2.014868 -1.4649643 0.9963754 -1.5605983 0.014643436 0.9750716 -1.1352637 0.3139759
0.75939333 -0.17411326 -1.840588 1.5692655 -0.17832428 1.2167293 -0.73204005 -0.03147276
-2.2222164 -0.6503112 0.49422607 -3.425339 0.7433159 -0.020227399 -0.024993695 3.5003507
1.4726799 1.0581479 0.37371695 0.55570555 -0.01787262 -1.1782684 1.7703612 -0.03511738
-0.48293224 0.36402243 0.3924531 0.99047124 0.4653177 -0.48998004 0.05348115 0.37276092
1.024423 0.014585144 2.493835 -1.2953808 -1.1036457 -3.095882 2.7521517 -1.8026706
0.43434554 2.2396662 0.73996323 1.7872562 -0.89082766 -2.6308243 0.42377096 2.5129585
0.011123234 -2.9404535 0.6003047 3.116376 1.3890767 0.2384542 0.83913636 0.09108733
-0.32275936 0.9329828 1.7038342 -0.7184672 -1.6126821 0.50125396 -1.2944951 1.4953651
1.1718853 0.17420831 -2.2872295 -0.13763107 -0.28388298 0.5070279 -0.3094394 -0.0006847777
0.1463051 -1.7201374 0.5058563 -0.15890981 2.2511384 -0.57726455 -0.06856099 -1.9727992
-1.2239503 2.1848216 -0.5480295 -0.36032563 0.58928794 -0.10758404 -1.2599199 -1.2588499
0.44976828 1.2097015 -1.602304 -0.2727281 0.42005095 0.2355151 0.5123215 0.10941478
1.1927238 0.14742686 -0.6743542 -0.08387775 -0.19924945 0.67070997 0.7834254 -0.11783078
2.0672872 -0.5002163 0.580204 -1.3829997 0.18247867 -0.0381569 -0.45669112 -0.07692541
-1.399584 0.65209234 -0.51915294 -0.03597861 -0.3457068 -0.86557 -0.61913115 -0.61053467
-0.8831354 0.94519264 0.047638614 0.26074028 -0.15965617 0.026816834 0.6450054 -0.47601947
-1.9938945 -1.0072113 -0.742777 -0.34133276 -0.044080127 0.07224538 0.16313526 -1.914685
3.4323223 -1.0672768 -0.20076011 0.9998221 1.5463667 0.8347874 0.57683545 -0.17272526
0.27586496 -1.1044523 -0.7869061 0.73858297 -2.0858755 0.07838643 -1.713137 -0.42828494
-0.2816468 -0.5049851 -0.53684413 -0.27624363 -1.1627774 -0.35720453 -0.78739184 -0.60612404
1.089926 -1.5978024 -0.7033846 -0.32383594 -0.29812342 -1.2376386 -0.15192804 0.0040512723
-1.6084865 1.420213 0.50218844 0.288253 -1.0352482 0.7300438 0.81766087 0.7611531
-0.76026195 -0.013675156 0.79442143 0.68503857 -1.4525435 -1.6729015 -2.9541452 0.31877527
-0.8815405 -1.3020762 0.26912704 0.3708796 0.085600056 -0.9030883 -0.46828637 -0.5961774
-0.5017171 1.7372425 -2.1113296 0.33367002 0.12811801 -0.78693575 -0.32048228 -0.16693501
-0.9242628 0.14889172 0.8226962 0.094160825 -0.4001275 0.4635103 -0.112927586 -1.5722699
-0.34640986 0.45196635 0.098256424 -0.23949198 -0.23738755 -0.07546258 -0.06350491 -0.6974532
-0.0048302393 -0.27697417 -0.05938027 -0.3576849 0.038367406 -0.11364154 0.47861364 0.149644
00000000: f9fb b6bf 8619 1bc0 a697 963f cfa9 913e
00000010: 302f 673f ca74 fb3c 7f02 2e3e 2842 32be
00000020: 0fc9 c2bf 5607 c93e 08be a93e 945c f3be
00000030: 8157 c7be 6382 8d3f 10fe 1dc0 50b0 27bf
00000040: 5d86 3240 4383 0540 b314 003e 6ff4 3140
00000050: 82f1 a4bf 4076 5cc0 b07c bbbf c82a 76bd
00000060: 99f3 0040 f383 bbbf 7512 7f3f afc1 c7bf
00000070: 06eb 6f3c 4b9e 793f 5250 91bf 73c1 a03e
00000080: 9a67 423f bf4a 32be 6398 ebbf b1dd c83f
00000090: a49a 36be c9bd 9b3f fa66 3bbf 95e9 00bd
000000a0: cb38 0ec0 cb7a 26bf 330b fd3e c138 5bc0
000000b0: f349 3e3f eeb3 a5bc 94bf ccbc bf05 6040
000000c0: c680 bc3f 6471 873f d457 bf3e b842 0e3f
000000d0: 9a69 92bc 80d1 96bf 329b e23f 3ed7 0fbd
000000e0: e542 f7be 2661 ba3e 9def c83e 868f 7d3f
000000f0: 1f3e ee3e aade fabe 0d0f 5b3d 85da be3e
00000100: 4b20 833f 87f6 6e3c fe9a 1f40 0acf a5bf
00000110: 4344 8dbf ee22 46c0 4123 3040 e9bd e6bf
00000120: 8a62 de3e b156 0f40 3b6e 3d3f d0c4 e43f
00000130: 480d 64bf 6d5f 28c0 82f8 d83e 50d4 2040
00000140: 3a3e 363c 6430 3cc0 92ad 193f b472 4740
00000150: 44cd b13f 562d 743e a4d1 563f fe8b ba3d
00000160: b740 a5be f6d7 6e3f 3d17 da3f 77ed 37bf
00000170: 5e6c cebf 2e52 003f 04b2 a5bf 2068 bf3f
00000180: 5600 963f aa63 323e f861 12c0 29ef 0cbe
00000190: 1c59 91be 95cc 013f d76e 9ebe a782 33ba
000001a0: 01d1 153e 762d dcbf cc7f 013f 41b9 22be
000001b0: a712 1040 9cc7 13bf b469 8cbd af84 fcbf
000001c0: 67aa 9cbf 1ed4 0b40 a94b 0cbf 9a7c b8be
000001d0: 93db 163f 0555 dcbd 0e45 a1bf fe21 a1bf
000001e0: 0748 e63e 80d7 9a3f 4c18 cdbf 04a3 8bbe
000001f0: eb10 d73e df2a 713e 8027 033f db14 e03d
00000200: 2cab 983f 11f7 163e 7aa2 2cbf 19c8 abbd
00000210: 0c08 4cbe a6b3 2b3f 918e 483f 4451 f1bd
00000220: 6f4e 0440 2d0e 00bf 4088 143f 2206 b1bf
00000230: b0db 3a3e 694a 1cbd 6bd3 e9be 128b 9dbd
00000240: 9225 b3bf 86ef 263f 35e7 04bf 4f5e 13bd
00000250: 7b00 b1be ff95 5dbf 617f 1ebf 004c 1cbf
00000260: 2915 62bf 25f8 713f b520 433d c07f 853e
00000270: e87c 23be faae db3c 131f 253f d3b8 f3be
00000280: ef37 ffbf 4dec 80bf a226 3ebf 2bc3 aebe
00000290: 5d8d 34bd 63f5 933d ee0c 273e 6614 f5bf
000002a0: 2bab 5b40 879c 88bf 0f94 4dbe 57f4 7f3f
000002b0: 58ef c53f a1b4 553f 7dab 133f e4de 30be
000002c0: 2c3e 8d3e b15e 8dbf ae72 49bf c613 3d3f
000002d0: fc7e 05c0 1189 a03d 1348 dbbf 2a48 dbbe
000002e0: 0234 90be b446 01bf 9e6e 09bf ce6f 8dbe
000002f0: e4d5 94bf 83e3 b6be 8392 49bf f22a 1bbf
00000300: b282 8b3f ca84 ccbf 0311 34bf d3cd a5be
00000310: a2a3 98be f16a 9ebf 0693 1bbe 89c0 843b
00000320: e3e2 cdbf 8ac9 b53f 6c8f 003f e695 933e
00000330: 0383 84bf 27e4 3a3f 3952 513f eeda 423f
00000340: 87a0 42bf c30d 60bc 345f 4b3f b05e 2f3f
00000350: f2ec b9bf a321 d6bf b710 3dc0 8336 a33e
00000360: a3ac 61bf 6faa a6bf 05cb 893e eee3 bd3e
00000370: 154f af3d cb30 67bf 3bc3 efbe 159f 18bf
00000380: 8870 00bf f65d de3f 0620 07c0 ccd6 aa3e
00000390: 5e31 033e 9f74 49bf 4116 a4be 03f1 2abe
000003a0: 7d9c 6cbf 1277 183e 389c 523f 64d7 c03d
000003b0: 83dd ccbe 3951 ed3e 9446 e7bd 2440 c9bf
000003c0: a25c b1be 2268 e73e aa3a c93d 633d 75be
000003d0: b915 73be 208c 9abd dd0e 82bd 4b8c 32bf
000003e0: fc46 9ebb 8fcf 8dbe ba38 73bd 7a22 b7be
000003f0: 2427 1d3d e5bc e8bd d90c f53e 473c 193e

w_group.0.weight f4 [64, 8]
-0.100406736 -0.010904706 1.1346021 -0.9604355 -0.33282027 -0.43196446 -0.16156444 -0.43417025
-0.19603714 -0.14147368 -0.6572755 -1.0410726 -0.2083489 -0.5938024 -0.9755145 -0.5757015
-0.2827911 -0.23652565 1.1886702 -0.055724423 -0.28645247 -0.7478725 0.041489005 -0.7996499
-0.03801022 0.16369501 1.143903 -0.03008073 -0.27889848 0.5876872 -1.7984612 0.5841751
-0.022630567 0.38726887 0.28590974 0.15780896 0.2003425 0.07137533 1.2208261 -0.24183078
-0.0384999 -0.013053994 -0.054531842 -0.10905085 -0.0790934 0.04759082 -0.3446862 -0.42625725
-0.25323507 -0.022900028 1.2145545 1.059302 0.09341884 -0.6291025 -0.7139344 -0.4618394
0.1805292 -0.06800934 0.3367631 -1.0380095 0.2730225 -0.6824949 -0.22391109 -0.69259435
-0.11189941 -0.05543152 -0.63201267 0.7225824 0.0138839185 -0.6202929 -0.27056867 -0.3058625
-0.062186897 -0.010689397 -0.48315233 0.01531555 0.2962723 -0.17933948 -0.34513208 -0.6415234
-0.9086413 0.62446696 -0.7303606 0.31340834 0.32644603 -0.49879178 1.5448086 -0.18859869
-0.2911953 0.1286167 0.19430736 0.4214178 -0.16934735 -0.46699253 -0.78237 -0.5516117
0.15621927 -0.050428502 -0.38133255 0.76994115 -0.1399924 -0.7190428 0.20716697 -0.86527264
0.22471833 0.32046196 -0.25330806 0.01610412 -0.15374103 -0.5204724 -1.2664741 -0.7942572
-0.17165998 -0.1726126 -1.4591248 0.16249801 0.22612932 -0.41909796 -1.6910352 -0.5903468
-0.34593844 0.16723774 -1.8130734 -0.24991475 0.032248735 -0.10006925 -2.5718791 -0.5882088
-0.101064794 -0.06274396 -0.3378968 -0.80643815 0.12178412 -0.80504483 0.6775138 -0.44620648
-0.65971804 1.2982558 0.0144608645 -1.0880604 -0.2855457 -0.6369392 -0.4430077 -0.44171715
0.9061081 0.84138286 -0.29670113 0.3055631 -0.22607203 0.046678558 0.6442579 0.23592776
-0.54578245 0.41792876 -2.0568523 0.06868179 0.3404185 -0.02895196 -0.7086468 -0.24863821
0.0712417 -0.2128035 0.98168844 0.5735205 -0.19968313 -0.19185139 -1.6208088 -0.6810008
-0.105105266 -0.060384624 0.9760056 -0.25390577 -0.30832902 -0.44680426 -0.7099664 -0.669075
0.08354646 -0.05961141 0.7026465 -0.7780394 -0.34349242 -0.74355483 0.5352466 -0.43623334
0.040623657 0.1570066 0.0010956246 -1.6783532 0.01752463 0.14512058 0.4427789 0.20715933
0.20563164 0.11997281 0.17228745 0.049323395 -0.056084484 -0.43178636 -0.2764953 -0.5997719
0.042030334 -0.3820965 -0.17941417 1.9931645 0.18707612 -0.051662426 -2.027 0.1582274
1.0509716 0.13971573 0.5534463 -2.0822496 0.044489205 0.20333984 -0.7175709 0.23347163
-0.1514691 1.6186705 0.35904863 0.50543255 -0.18794936 -0.31883752 -1.0535012 -0.1440499
0.7702393 -0.022271603 -2.4012632 1.2969335 0.119000345 -1.0491698 0.39695242 -0.96607697
-0.050043765 -0.07136681 1.1874756 -0.2683952 -0.29109883 -0.17574109 -1.224005 -0.42164955
-0.12694126 0.30831245 -0.98769224 -0.32944044 -0.3108982 -0.8116611 0.58088464 -0.3428593
-0.10050161 -0.093887605 -0.9866629 1.1221123 -0.15729144 -0.44247192 -0.9114203 -0.4407997
00000000: 0ca2 cdbd a7a9 32bc a43a 913f 1adf 75bf
00000010: 6b67 aabe 722a ddbe 2671 25be 904b debe
00000020: f6bd 48be 7ade 10be 3543 28bf de41 85bf
00000030: 6a59 55be 6f03 18bf 51bb 79bf 2c61 13bf
00000040: ffc9 90be c833 72be 5826 983f 4b3f 64bd
00000050: e6a9 92be 9274 3fbf 60f0 293d dbb5 4cbf
00000060: 9bb0 1bbd aa9f 273e 6a6b 923f dd6b f6bc
00000070: c8cb 8ebe ab72 163f fa33 e6bf 808c 153f
00000080: bd63 b9bc 1b48 c63e c362 923e ac98 213e
00000090: 9626 4d3e 3b2d 923d 0844 9c3f 7da2 77be
000000a0: 12b2 1dbd 6be0 55bc c85c 5fbd 0d56 dfbd
000000b0: b8fb a1bd 97ee 423d b67a b0be 643e dabe
000000c0: 07a8 81be d798 bbbc 8676 9b3f 3597 873f
000000d0: 6052 bf3d dd0c 21bf 68c4 36bf 3776 ecbe
000000e0: a6dc 383e 7b48 8bbd 376c ac3e 7fdd 84bf
000000f0: 9bc9 8b3e fcb7 2ebf f348 65be dd4d 31bf
00000100: 852b e5bd 290c 63bd 95cb 21bf 29fb 383f
00000110: 6079 633c 84cb 1ebf fa87 8abe 029a 9cbe
00000120: b0b7 7ebd 9522 2fbc be5f f7be 13ee 7a3c
00000130: 01b1 973e c5a4 37be 27b5 b0be e13a 24bf
00000140: b79c 68bf 11dd 1f3f eaf8 3abf 0f77 a03e
00000150: ef23 a73e a361 ffbe 4abc c53f 0420 41be
00000160: 8d17 95be 19b4 033e 82f8 463e 13c4 d73e
00000170: 6469 2dbe a519 efbe 6649 48bf 6d36 0dbf
00000180: f2f7 1f3e 1e8e 4ebd 053e c3be dd1a 453f
00000190: 2b5a 0fbe 3013 38bf 9423 543e 8282 5dbf
000001a0: 901c 663e 9713 a43e 98b1 81be caec 833c
000001b0: 4a6e 1dbe ae3d 05bf d31b a2bf 7154 4bbf
000001c0: a2c7 2fbe 5bc1 30be 9ac4 babf e165 263e
000001d0: 728e 673e 0294 d6be d773 d8bf f820 17bf
000001e0: d81e b1be 5f40 2b3e ca12 e8bf a7e9 7fbe
000001f0: 4017 043d 1bf1 ccbd ab99 24c0 da94 16bf
00000200: 0ffb cebd e87f 80bd cf00 adbe bb72 4ebf
00000210: f469 f93d 6b17 4ebf 8b71 2d3f 2d75 e4be
00000220: 48e3 28bf 3f2d a63f 43ed 6c3c 9045 8bbf
00000230: 0c33 92be 730e 23bf e8d1 e2be c028 e2be
00000240: b3f6 673f de64 573f 36e9 97be c472 9c3e
00000250: 6d7f 67be 0432 3f3d 16ee 243f 0c97 713e
00000260: 66b8 0bbf c2fa d53e 78a3 03c0 0aa9 8c3d
00000270: 554b ae3e a92c edbc e069 35bf 049b 7ebe
00000280: 2be7 913d 29e9 59be ef4f 7b3f 3dd2 123f
00000290: bc79 4cbe b174 44be aa76 cfbf 1256 2ebf
000002a0: 6e41 d7bd de55 77bd 81db 793f f0ff 81be
000002b0: 4ddd 9dbe 87c3 e4be 5cc0 35bf 8048 2bbf
000002c0: 681a ab3d 182b 74bd a4e0 333f 972d 47bf
000002d0: 3dde afbe 9c59 3ebf ec05 093f fa59 dfbe
000002e0: fe64 263d 57c6 203e 109b 8f3a 47d4 d6bf
000002f0: d08f 8f3c 7d9a 143e eab3 e23e 9321 543e
00000300: 1a91 523e 4eb4 f53d 1f6c 303e 5407 4a3d
00000310: d8b8 65bd 1a13 ddbe cb90 8dbe a78a 19bf
00000320: 0028 2c3d 27a2 c3be 59b8 37be 0420 ff3f
00000330: e290 3f3e fb9b 53bd 5eba 01c0 5d06 223e
00000340: 3d86 863f a411 0f3e a8ae 0d3f 9443 05c0
00000350: 503a 363d 5238 503e bab2 37bf 3013 6f3e
00000360: b71a 1bbe 9830 cf3f 39d5 b73e 0764 013f
00000370: cc75 40be ac3e a3be 21d9 86bf d181 13be
00000380: 672e 453f f072 b6bc 4cae 19c0 eb01 a63f
00000390: 74b6 f33d 324b 86bf 593d cb3e d250 77bf
000003a0: b1fa 4cbd c328 92bd 33ff 973f 186b 89be
000003b0: e80a 95be 79f5 33be 32ac 9cbf 73e2 d7be
000003c0: e4fc 01be 21db 9d3e 66d9 7cbf 6bac a8be
000003d0: 0d2e 9fbe 06c9 4fbf dbb4 143f 418b afbe
000003e0: cad3 cdbd 2548 c0bd f195 7cbf 60a1 8f3f
000003f0: 0211 21be ae8b e2be d752 69bf 80b0 e1be

w_group.0.bias f4 [64]
-0.7621183 -0.63837796 -0.8070995 0.032995135 -0.36026645 -0.57581085 -0.47741428 -0.7959356
-0.51875764 -0.38354576 -0.5030713 -0.79363585 -0.82699 -0.55748963 -0.3509589 -0.039575193
-0.49326804 -0.22051696 -0.15757628 0.089143015 -0.6708596 -0.681468 -0.76823926 -0.14693771
-0.81129855 -0.1757792 -0.07522363 -0.18719941 -0.41540843 -0.2551885 -0.38134572 -0.48943937
0.17702757 -0.23771985 0.03431075 -0.12675563 -0.8568954 -0.16828649 -0.20524903 -0.6950954
-0.24049741 -0.2097415 -0.42946833 -0.1899226 -0.31139404 -0.42919594 -0.2734042 -0.30222708
-0.85425025 0.05681307 -0.21399444 -0.6890073 -0.60740256 -0.5920034 0.03601513 -0.80923796
-0.23716117 -0.5766634 -0.2757221 0.04502463 -0.015697561 -0.5622169 -0.29594782 -0.36734125
00000000: 2f1a 43bf bd6c 23bf 139e 4ebf e825 073d
00000010: d874 b8be 5768 13bf a56f f4be 6fc2 4bbf
00000020: 4dcd 04bf 1c60 c4be 48c9 00bf b82b 4bbf
00000030: 9eb5 53bf a4b7 0ebf e3b0 b3be 9919 22bd
00000040: a18d fcbe 33cf 61be ad5b 21be 9d90 b63d
00000050: 74bd 2bbf b074 2ebf 54ab 44bf d776 16be
00000060: 43b1 4fbf 76ff 33be d90e 9abd 34b1 3fbe
00000070: 6ab0 d4be 11a8 82be bf3f c3be cc97 fabe
00000080: b746 353e d56c 73be 6e89 0c3d 3acc 01be
00000090: 7f5d 5bbf 4b53 2cbe cd2c 52be c6f1 31bf
000000a0: f444 76be 7ac6 56be 46e3 dbbe 127b 42be
000000b0: 0a6f 9fbe 92bf dbbe a3fb 8bbe 82bd 9abe
000000c0: 25b0 5abf d2b4 683d 5c21 5bbe c862 30bf
000000d0: bc7e 1bbf 898d 17bf 9a84 133d 382a 4fbf
000000e0: 61da 72be 36a0 13bf 722b 8dbe bf6b 383d
000000f0: 2c98 80bc 72ed 0fbf 7986 97be 2714 bcbe

w_group.2.weight f4 [32, 64]
0.06764158 -0.30877948 -0.09113038 -0.69187653 -0.22132398 0.06915262 -0.08710487 0.1102907
-0.1453316 -0.031149387 0.16790383 0.100908644 -0.15241766 0.3443176 0.35630634 -0.003753817
0.05376087 -0.19987741 0.16616468 -0.12824605 -0.6470064 -0.2432062 -0.18074863 -0.46026275
0.321588 -0.28800413 -0.07715432 0.67785114 0.42613807 -0.5051325 0.63224155 0.015861848
-0.5486153 -0.7288195 -0.35811314 -0.59000254 -0.056788616 -0.04681502 0.011403726 0.028771177
-0.246137 -0.19986184 -0.0018247925 -0.9069095 0.14683267 -0.1696927 0.082949884 0.31161058
0.6714056 -0.1977716 -0.03893808 0.14107232 -0.94609797 0.8282094 -0.07182216 0.009648859
0.18884632 0.31065464 -0.10010739 -0.3268547 -0.15666042 -0.15638645 -0.10762189 -0.12305837
0.58365303 0.45968473 0.26532975 -0.36681026 -0.63635916 0.1266217 -0.11873434 0.3321949
0.033329234 -0.01221773 0.211722 0.09672341 -0.14728321 0.02071227 0.21014436 -0.14636743
0.37805972 0.16815433 -0.12568142 -0.62081856 -0.28753245 0.25575882 0.2942192 -0.4472713
-0.008219365 0.104014255 0.04413073 -0.07209556 -0.18473074 0.33126232 -0.5892177 -0.011913597
-0.3491921 -0.5762721 -0.23069592 0.011415619 -0.20829685 0.3344624 0.0019629316 0.029877473
-0.0067509315 0.103864215 -0.08035466 -0.38586098 -1.1939441 -0.21588637 0.013877968 -0.57933706
0.29689604 -0.086121134 -0.0012971029 0.16710441 -1.6485418 0.39267105 0.1506166 -0.07606144
-0.04210538 -0.63926303 0.057292063 -0.96677107 -0.08933862 0.044601686 0.056924343 -0.13000882
-0.109069094 0.10487252 -0.061293308 -0.4399065 -0.10242408 0.07453572 0.029235298 0.049993645
0.11305781 -0.11804139 0.036049593 -0.17379476 -0.11568891 -0.11296379 0.15310183 -0.23207653
-0.024465444 -0.09477515 -0.022894952 -0.05212628 -0.15849522 0.13520853 0.11905299 -0.031427857
-0.16659878 -0.11602786 0.06783287 -0.1913742 -0.03995553 -0.09716896 0.02946675 -0.1351288
-0.10827766 -0.0891095 -0.019160898 -0.106018886 -0.0936679 -0.23258246 -0.15934083 -0.17415075
-0.14777365 -0.0048845247 0.11073141 0.039199505 -0.19553952 0.0646376 -0.099720284 0.18594334
-0.019266877 -0.0026661141 -0.029103834 -0.22624642 0.048191767 0.018049352 -0.39143392 0.07799846
0.042374715 -0.057193268 0.032414112 -0.28320003 0.083852656 -0.053845108 -0.07906616 -0.03928867
0.057760164 -0.20701134 0.07451722 -1.037931 -0.3426425 -0.074683055 -0.11036193 -0.15853913
-0.10467451 -0.12777984 -0.31577045 0.004673212 0.07157391 -0.20578155 -0.31253314 -0.22099404
-0.07135397 0.030172665 0.123123124 -0.08612477 -0.010270896 0.012995234 -0.057450168 -0.328389
-0.01678837 -0.013644874 -0.1950611 -0.32894084 0.94155556 -0.21236111 -0.0651629 0.06961656
-0.13266903 -0.07738459 0.19039539 -0.039249353 0.102410994 -0.117789835 0.02129056 0.09398964
-0.04482529 -0.17632595 0.050222114 -0.025347881 0.26269025 0.09330163 -0.30392423 0.07614723
0.16924201 0.10924277 0.09663751 0.21915554 -0.09344766 0.36663082 -0.17939901 0.020801038
0.057085086 0.055441596 0.0016098439 -0.26029986 0.05818225 -0.15519293 0.07941079 -0.097335674
00000000: ab87 8a3d 5818 9ebe 91a2 babd d21e 31bf
00000010: c1a2 62be e49f 8d3d 0a64 b2bd 17e0 e13d
00000020: cfd1 14be 002d ffbc fbee 2b3e 31a9 ce3d
00000030: 6013 1cbe 654a b03e c96d b63e 9902 76bb
00000040: 5c34 5c3d aaac 4cbe 1327 2a3e ef52 03be
00000050: 36a2 25bf 0c0b 79be 2b16 39be 8fa7 ebbe
00000060: 2fa7 a43e 4775 93be 1603 9ebd a787 2d3f
00000070: c52e da3e 5d50 01bf 95da 213f b5f0 813c
00000080: 0d72 0cbf ea93 3abf 9b5a b7be 680a 17bf
00000090: 2e9b 68bd 1bc1 3fbd b2d6 3a3c 88b1 eb3c
000000a0: 560b 7cbe 95a8 4cbe e02d efba 392b 68bf
000000b0: 4e5b 163e ecc3 2dbe a1e1 a93d 6c8b 9f3e
000000c0: 3de1 2b3f a384 4abe 897d 1fbd 4375 103e
000000d0: 7a33 72bf 8805 543f 7f17 93bd 3f16 1e3c
000000e0: ee60 413e 200e 9f3e 1a05 cdbd 8059 a7be
000000f0: 976b 20be c523 20be de68 dcbd 0706 fcbd
00000100: 496a 153f cc5b eb3e 4dd9 873e 8ece bbbe
00000110: 6fe8 22bf 1ea9 013e fd2a f3bd 7315 aa3e
00000120: 3c84 083d e02c 48bc a7cd 583e ec16 c63d
00000130: 69d1 16be c7ac a93c 1530 573e 58e1 15be
00000140: 0b91 c13e a630 2c3e a1b2 00be f7ed 1ebf
00000150: 7437 93be d2f2 823e e6a3 963e be00 e5be
00000160: 84aa 06bc 6d05 d53d 6dc2 343d d6a6 93bd
00000170: 0e2a 3dbe 379b a93e f9d6 16bf 3f31 43bc
00000180: 4fc9 b2be 9186 13bf 8d3b 6cbe 9408 3b3c
00000190: c54b 55be a83e ab3e 87a4 003b 9ac1 f43c
000001a0: eb36 ddbb c3b6 d43d fc90 a4bd 928f c5be
000001b0: 29d3 98bf 5111 5dbe 6b60 633c 6f4f 14bf
000001c0: c202 983e 4760 b0bd 8d03 aaba 6b1d 2b3e
000001d0: 6b03 d3bf 2e0c c93e 3d3b 1a3e 1ac6 9bbd
000001e0: b176 2cbd bea6 23bf 15ab 6a3d 4f7e 77bf
000001f0: 2bf7 b6bd 42b0 363d 8029 693d 0821 05be
00000200: 9e5f dfbd 67c7 d63d b10e 7bbd 6d3b e1be
00000210: b7c3 d1bd 2fa6 983d dd7e ef3c 23c6 4c3d
00000220: da8a e73d afbf f1bd bda8 133d 41f7 31be
00000230: 4fee ecbd 8f59 e7bd bac6 1c3e 78a5 6dbe
00000240: c16b c8bc 7919 c2bd 328e bbbc 5e82 55bd
00000250: 924c 22be 1b74 0a3e 0ed2 f33d 7fba 00bd
00000260: df98 2abe 04a0 edbd f6eb 8a3d 99f7 43be
00000270: 69a8 23bd 8500 c7bd 4164 f13c 345f 0abe
00000280: aec0 ddbd 0b7f b6bd 51f7 9cbc 6e20 d9bd
00000290: f5d4 bfbd 192a 6ebe 3e2a 23be 9354 32be
000002a0: fa51 17be 5d0e a0bb 26c7 e23d a98f 203d
000002b0: 833b 48be b860 843d 263a ccbd ee67 3e3e
000002c0: 92d5 9dbc f9b9 2ebb 2a6b eebc 24ad 67be
000002d0: bb64 453d 3cdc 933c 076a c8be a8bd 9f3d
000002e0: 1c91 2d3d 7d43 6abd a9c4 043d 98ff 90be
000002f0: f1ba ab3d b08c 5cbd 70ed a1bd 28ed 20bd
00000300: ec95 6c3d c8fa 53be 7c9c 983d ecda 84bf
00000310: d66e afbe 6ef3 98bd 7005 e2bd 1558 22be
00000320: 975f d6bd b8d8 02be aaac a1be be21 993b
00000330: 5895 923d 66b8 52be 5804 a0be 434c 62be
00000340: 0822 92bd aa2c f73c fa27 fc3d 2f62 b0bd
00000350: 4347 28bc f6e9 543c de50 6bbd 9a22 a8be
00000360: c487 89bc c08e 5fbc 19be 47be ef6a a8be
00000370: c909 713f 3175 59be 2074 85bd 2193 8e3d
00000380: 64da 07be d07b 9ebd 02f7 423e eec3 20bd
00000390: dbbc d13d cc3b f1bd 8a69 ae3c a47d c03d
000003a0: b99a 37bd ca8e 34be b4b5 4d3d 5ca6 cfbc
000003b0: 567f 863e ed14 bf3d f59b 9bbe 14f3 9b3d
000003c0: c74d 2d3e acba df3d e3e9 c53d 4f6a 603e
000003d0: 7d61 bfbd 09b7 bb3e 60b4 37be f066 aa3c
000003e0: 0dd2 693d ba16 633d 6601 d33a 0646 85be
000003f0: 8350 6e3d e5ea 1ebe 20a2 a23d ed57 c7bd

w_group.2.bias f4 [32]
-1.0051476 -0.5670504 -0.059447825 -0.48794553 5.5125274e-06 -0.9827692 -0.27749267 0.13816595
0.03163786 -0.12918831 0.2847017 0.34469977 -0.052308932 -0.13935035 -0.11305486 -0.2617453
-0.5410165 -0.45406112 -1.4930716 0.24463825 -0.14970607 -0.0104907425 -0.23137183 -0.016844498
-0.0970015 -1.1640012 -0.51873636 -0.15604019 -0.03876416 -0.34831148 -0.38384733 0.18169987
00000000: ada8 80bf 372a 11bf 907f 73bd ffd3 f9be
00000010: 40f8 b836 c396 7bbf 8513 8ebe 607b 0d3e
00000020: b396 013d f149 04be 6cc4 913e 7d7c b03e
00000030: e441 56bd dcb1 0ebe 4e89 e7bd 7b03 86be
00000040: 0f80 0abf b37a e8be f81c bfbf 7382 7a3e
00000050: 8c4c 19be 5de1 2bbc bdec 6cbe 79fd 89bc
00000060: b9a8 c6bd fefd 94bf e8cb 04bf 00c9 1fbe
00000070: 2bc7 1ebd e255 b2be a387 c4be 880f 3a3e

w_agents.0.weight f4 [64, 5]
0.0792865 -0.044144653 0.09795176 0.086834 0.07874643 0.034503922 0.009009954 -0.34983343
-0.14486293 -0.46876696 0.0077996533 0.0636177 0.06268144 0.13735364 -0.24030975 -0.029733034
0.07723834 0.18949208 0.11823227 -0.72460407 0.009564629 -0.018818635 0.95612615 -1.3882277
-0.4125794 -0.27932784 -0.389559 0.13101687 1.4260396 -0.80219597 0.010917015 0.2225873
-0.18769518 0.5342122 -0.70443094 0.0047025774 -0.049151298 -0.040647145 0.12928642 -0.7361226
-0.1121163 -0.054819968 -0.25077963 -0.69501114 -0.38013917 -0.30064374 0.10407614 -0.117930464
0.12006048 -1.6501005 -0.1730831 0.73344797 1.3519269 0.22442222 -0.55614257 -0.046106122
-0.28871107 1.5042316 2.3530672 -0.8082798 0.2303475 -0.08798456 -1.5328295 1.2600881
-0.5628936 -0.007934764 0.024872575 -0.01750619 0.23424439 0.03188152 0.027977524 0.7973219
1.0596617 1.537655 -1.8070861 0.017067699 0.2858351 0.3574335 0.69012976 -1.0502659
0.29997018 -0.2627637 -1.5934927 0.54100174 -0.9993606 -0.33189112 0.36725923 1.2628996
1.254725 -0.7688132 -0.5927451 -0.20170513 0.4922304 2.242515 -1.9303396 -0.011146353
0.07869689 -0.020888856 0.30673295 -0.6749175 0.01063381 -0.013834172 -0.14170797 0.42102647
-0.911871 -0.43506223 1.065747 0.10637115 2.0034878 -0.7165463 -0.098962806 0.24855463
-0.10272866 0.5954929 -0.49331382 -0.26965168 1.0667288 0.37427306 2.5111926 -1.5472952
0.032148052 -0.01733686 0.15429643 1.5810632 -1.237379 0.07780609 0.14281003 -0.031598076
0.28442103 -0.5220289 0.09022987 0.18672101 -0.070794985 0.383585 -0.61123 -0.18569772
0.7874213 0.39623833 0.6476154 -1.4676116 -0.39909333 0.70540315 -0.008790753 0.18744415
-1.2742358 0.4141398 0.10626297 -0.4262898 1.3542837 -0.7141163 -0.4763096 1.027765
-0.5177021 2.0421894 -0.82083344 0.08015269 0.07382011 0.19828534 0.008287714 -0.57937944
0.02227345 0.5067085 -1.2577461 1.6611557 -0.823134 0.0994035 1.2701398 1.0259522
2.1360958 -0.9403598 0.08538792 0.8614791 0.07235492 1.5029354 0.06024284 0.021323606
-0.29867086 -1.6450585 1.1819975 -1.1709471 -0.35022295 1.2678999 0.90091187 -0.49545565
-0.5628275 -0.32087055 1.1749173 -0.25477213 0.8431302 -1.0433836 0.14627384 0.24231814
0.20944743 -0.9032752 -0.5067107 0.016636388 0.28405112 0.6291499 0.3107099 -1.6208518
-0.013791357 0.12895513 0.18122521 0.48784396 -0.5997622 -0.00418683 1.1186956 0.034603953
-0.48576358 -0.2073282 -0.420471 1.1047776 -0.27447844 -1.4717991 -0.56392854 0.48790634
-0.21918248 -0.65125895 -0.89672786 -0.7407541 0.26232007 0.26514167 -0.7366117 2.2133942
-0.5171626 0.31742388 1.3823246 -0.1958356 1.767344 0.11131831 -0.37362596 0.47129336
-0.76451284 2.5529554 -1.1765319 0.017631806 0.39142174 -0.94496673 0.27784523 -0.949891
0.719806 0.8071208 -0.27917087 1.9588574 -1.4631274 0.058169525 -0.5956277 -1.3182596
0.18566324 -1.2538881 -0.05098389 0.06344822 0.46669465 -1.6623436 -0.16134496 0.24435861
00000000: f660 a23d 06d1 34bd ef9a c83d 06d6 b13d
00000010: cf45 a13d fc53 0d3d 7c9e 133c 5e1d b3be
00000020: f356 14be 3902 f0be 3c94 ff3b ff49 823d
00000030: 205f 803d 6fa6 0c3e c213 76be b192 f3bc
00000040: 232f 9e3d 360a 423e c323 f23d a77f 39bf
00000050: f6b4 1c3c 8a29 9abc afc4 743f 72b1 b1bf
00000060: 9b3d d3be 0f04 8fbe 4774 c7be 4929 063e
00000070: 7788 b63f b75c 4dbf 48dd 323c eded 633e
00000080: 2a33 40be 21c2 083f 9655 34bf 1418 9a3b
00000090: df52 49bd 9f7d 26bd a963 043e 8872 3cbf
000000a0: 3b9d e5bd e78a 60bd 3066 80be 40ec 31bf
000000b0: 9aa1 c2be faed 99be df25 d53d 8785 f1bd
000000c0: 45e2 f53d 7e36 d3bf b23c 31be 3fc3 3b3f
000000d0: f10b ad3f f0ce 653e 5c5f 0ebf c6d9 3cbd
000000e0: f0d1 93be a98a c03f a798 1640 6deb 4ebf
000000f0: 37e0 6b3e 4031 b4bd c233 c4bf 914a a13f
00000100: cc19 10bf d000 02bc 92c1 cb3c 2469 8fbc
00000110: c3dd 6f3e 3296 023d 1f31 e53c 4a1d 4c3f
00000120: ffa2 873f e1d1 c43f 994e e7bf 8fd1 8b3c
00000130: fa58 923e 8601 b73e 58ac 303f 1d6f 86bf
00000140: b195 993e f788 86be 92f7 cbbf 177f 0a3f
00000150: 19d6 7fbf a2ed a9be 6709 bc3e b2a6 a13f
00000160: d49a a03f f1d0 44bf 25be 17bf ca8b 4ebe
00000170: 9f05 fc3e 5e85 0f40 5e15 f7bf 319f 36bc
00000180: d62b a13d 1b1f abbc 1a0c 9d3e 65c7 2cbf
00000190: 6f39 2e3c b9a8 62bc e51b 11be c890 d73e
000001a0: 6170 69bf 7ac0 debe 666a 883f 1ed9 d93d
000001b0: 2539 0040 946f 37bf 03ad cabd 1b85 7e3e
000001c0: 6763 d2bd 3972 183f a193 fcbe c90f 8abe
000001d0: 928a 883f b8a0 bf3e 61b7 2040 c50d c6bf
000001e0: adad 033d 0806 8ebc e2ff 1d3e 4760 ca3f
000001f0: 6f62 9ebf cd58 9f3d cb3c 123e fc6c 01bd
00000200: a29f 913e b0a3 05bf 70ca b83d cb33 3f3e
00000210: f6fc 90bd 4165 c43e 9279 1cbf 8b27 3ebe
00000220: 7194 493f c0df ca3e 1fca 253f b2da bbbf
00000230: f655 ccbe 4d95 343f 1707 10bc 5cf1 3f3e
00000240: 291a a3bf 220a d43e 66a0 d93d a842 dabe
00000250: 2b59 ad3f 53d0 36bf dade f3be ce8d 833f
00000260: 2088 04bf 3bb3 0240 2422 52bf 1827 a43d
00000270: ff2e 973d 500b 4b3e 31c9 073c 3652 14bf
00000280: cf76 b63c a6b7 013f d3fd a0bf c0a0 d43f
00000290: e9b8 52bf 1094 cb3d f193 a23f 6752 833f
000002a0: cbb5 0840 6bbb 70bf dddf ae3d e589 5c3f
000002b0: d12e 943d 3060 c03f 32c1 763d d8ae ae3c
000002c0: 63eb 98be 4791 d2bf b24b 973f 98e1 95bf
000002d0: 6c50 b3be 8b4a a23f 29a2 663f 5dac fdbe
000002e0: 7715 10bf 2549 a4be b163 963f 7e71 82be
000002f0: 61d7 573f 988d 85bf cfc8 153e 3f22 783e
00000300: 6379 563e 0b3d 67bf cbb7 01bf 0949 883c
00000310: 266f 913e f80f 213f 5e15 9f3e 1278 cfbf
00000320: 25f5 61bc d00c 043e 1a93 393e afc6 f93e
00000330: 048a 19bf ad31 89bb 6b31 8f3f e0bc 0d3d
00000340: 01b6 f8be d84d 54be fa47 d7be 5a69 8d3f
00000350: 7088 8cbe ea63 bcbf 9f5d 10bf dcce f93e
00000360: 5f71 60be e8b8 26bf f58f 65bf 10a2 3dbf
00000370: d14e 863e a6c0 873e 9692 3cbf 40a8 0d40
00000380: c564 04bf 6285 a23e 03f0 b03f 2189 48be
00000390: 5438 e23f dbfa e33d e74b bfbe 5d4d f13e
000003a0: 1db7 43bf 9f63 2340 9998 96bf 9470 903c
000003b0: 6e68 c83e 57e9 71bf bb41 8e3e 0e2c 73bf
000003c0: 3545 383f 789f 4e3f 7cef 8ebe d7bb fa3f
000003d0: c247 bbbf 2b43 6e3d 0f7b 18bf bbbc a8bf
000003e0: 811e 3e3e 687f a0bf 7cd4 50bd 24f1 813d
000003f0: 9af2 ee3e adc7 d4bf 9d37 25be 2539 7a3e

w_agents.0.bias f4 [64]
-0.7516882 -0.40438816 -0.3727953 -0.28773284 -0.9693776 -1.0302379 -0.7768284 -0.3890021
-0.10316793 -1.4260731 -0.5832205 -1.1169056 -0.8549185 -0.3255194 -1.4904822 -1.0910009
-1.2231582 -0.7064495 -1.696721 -0.16281846 -0.35554725 -0.6249994 -0.9711787 -1.0054436
-1.3809556 -0.518152 -0.7102211 -1.2997535 -1.2886049 -0.42497694 -1.1391118 -0.56442356
-0.6042548 -1.1252598 -0.23299968 -1.3489444 -0.71166533 -1.3402245 -0.025487723 -1.3194695
-0.5789227 0.12186257 -1.012181 -1.1226101 -0.8357994 -0.48270467 -0.67595273 -0.31208184
-0.8379713 -1.4245075 -0.951822 -0.6142674 -0.18570553 -0.8242706 -0.6540427 -1.2675861
-0.6588509 -0.3361389 -0.6643898 -0.29603085 0.021765023 -1.0437487 -1.4318881 -0.3692874
00000000: a36e 40bf f70b cfbe 07df bebe b851 93be
00000010: 2129 78bf d6de 83bf 3ade 46bf 492b c7be
00000020: b549 d3bd 9089 b6bf f04d 15bf c3f6 8ebf
00000030: f0db 5abf 7baa a6be 1fc8 bebf eba5 8bbf
00000040: 7390 9cbf e0d9 34bf 272e d9bf e2b9 26be
00000050: 4a0a b6be f6ff 1fbf 2b9f 78bf 60b2 80bf
00000060: 27c3 b0bf 9ca5 04bf 0dd1 35bf 535e a6bf
00000070: 01f1 a4bf 9496 d9be 6ace 91bf 107e 10bf
00000080: 71b0 1abf 8308 90bf 7897 6ebe 36aa acbf
00000090: b32f 36bf 7a8c abbf a1cb d0bc 60e4 a8bf
000000a0: 4734 14bf 1593 f93d 268f 81bf b0b1 8fbf
000000b0: f3f6 55bf 1125 f7be 3d0b 2dbf 31c9 9fbe
000000c0: 4a85 56bf 4356 b6bf 9baa 73bf a140 1dbf
000000d0: 9729 3ebe 6603 53bf 586f 27bf 4340 a2bf
000000e0: 74aa 28bf 661a acbe 7315 2abf 5b91 97be
000000f0: 904c b23c 8f99 85bf 1c48 b7bf 3d13 bdbe

w_agents.2.weight f4 [32, 64]
0.03986367 -0.12665978 -0.026514037 -0.033965882 -0.12901053 0.009757852 -0.07392556 0.027306775
0.010729487 -0.14815727 0.024079703 0.12459912 -0.021696651 0.028898446 0.011749919 -0.06026961
-0.08716609 -0.08037001 -0.13352239 -0.07031565 -0.123697914 -0.106928356 -0.23407242 -0.17836238
-0.08060872 0.06601736 0.0035542431 -0.118350595 -0.19649449 0.016279396 0.020163642 -0.007119149
0.049463887 -0.102358826 -0.029738165 -0.09776963 -0.20952365 -0.13349588 -0.113793865 -0.16341743
-0.06919962 -0.13665383 -0.016251646 0.08045979 0.016615774 -0.06539125 -0.20721741 -0.017353987
-0.013363493 0.004420883 -0.13459021 -0.23406059 -0.01718351 -0.021679297 0.013598085 -0.1650891
0.017165918 -0.075773865 -0.20339532 0.07233302 -0.018704562 -0.016813325 -0.046611026 -0.18335593
0.05373421 -0.2235033 -0.5096895 -0.19214843 -0.6755225 0.26543522 0.37060428 0.021356372
-0.14385669 -0.1471241 0.27896908 0.030989917 -0.1802365 0.021097373 -1.0605757 -0.15031111
0.22820172 -0.00200953 0.42944396 0.15200764 -0.052151725 -0.6584333 0.18911129 -0.2662446
1.4741329 -0.10748686 0.002125275 -0.45172673 -0.034452874 0.072393924 -0.7955306 -0.07588311
-1.6825924 -3.4061403 0.3361907 0.33524367 0.7571022 -2.1135478 -1.0090766 -0.36614114
-0.11560714 -1.4672556 -3.5175397 0.37770167 0.08531402 -1.9081365 0.04685817 1.3392501
0.0046271104 -0.113933794 -0.026897922 0.23751873 0.0005491029 0.7863701 0.75563455 -0.454541
-1.5764054 -0.1855027 -1.5378593 -0.64326257 -0.023385199 -1.0013134 -0.2516004 0.35589156
-0.0809718 -0.28911164 -0.02087616 0.4040458 -0.20828773 -0.014884129 -0.014281424 -0.56758845
-0.034919716 0.16673589 -0.03293936 -0.064334504 0.25992823 -0.31873956 -0.071659885 0.24912758
-0.1026475 -0.5640213 -0.045351055 0.2159116 -0.35095903 -0.29022974 -0.14405023 -0.10140736
0.066445015 -0.4191199 -0.06311757 0.023502598 0.052965723 -0.41557834 -0.26850882 0.08451236
0.035193488 -0.33439112 -0.011938554 0.010865494 -0.030343544 -0.21018903 -0.16269028 0.0021700577
0.18049341 0.03824837 -0.1353842 -0.53158844 -0.3344237 -0.2796491 -0.43299824 -0.15448931
0.021135492 -0.03909552 -0.13888262 -0.042670168 -0.12475219 0.05365558 -0.113084406 0.054315537
-0.040074795 0.08726249 -0.029784266 0.22524679 0.046927847 0.19376609 -0.21116546 -0.16231076
-0.046927 -0.004243463 -0.011408842 0.2356649 -0.7161358 -0.5831163 0.22268859 0.029655673
-0.3140105 -0.04967301 -0.25205508 -0.64517504 0.16192755 -0.041683316 -2.951277 0.20038274
0.8974967 0.24138735 -0.2716296 0.030094173 0.0598054 -0.03786547 0.28839645 0.24125065
-0.59137833 0.031954512 0.21293318 -0.23005389 -0.6311827 -0.3355284 -0.10137098 0.03255216
0.578051 0.72614694 -0.11830347 -0.7129262 -0.10196504 0.11914957 -0.2645689 -0.78095365
0.01774744 0.08054595 0.10640836 0.019796455 -0.09139424 0.09751881 -0.45718437 -0.23540004
0.22295788 -0.1063447 -0.36206427 0.50527155 0.09289382 -0.114936545 -0.22506016 -0.16752942
0.13779157 -0.1186072 -0.17641571 0.11439445 0.05781751 0.09575716 -0.88561654 -0.0032901391
00000000: 1648 233d 1ab3 01be f733 d9bc cf1f 0bbd
00000010: 561b 04be 66df 1f3c 4966 97bd 75b2 df3c
00000020: bbca 2f3c 8ab6 17be cc42 c53c d32d ff3d
00000030: 2dbd b1bc 6fbc ec3c bb82 403c 44dd 76bd
00000040: 2384 b2bd 0899 a4bd 18ba 08be a701 90bd
00000050: 5555 fdbd 41fd dabd aeb0 6fbe a1a4 36be
00000060: 2f16 a5bd 1c34 873d 4eee 683b cc61 f2bd
00000070: da35 49be 5e5c 853c 392e a53c c047 e9bb
00000080: a59a 4a3d 81a1 d1bd 749d f3bc 723b c8bd
00000090: 5e8d 56be 25b3 08be c20c e9bd e656 27be
000000a0: 88b8 8dbd fbee 0bbe 2c22 85bc 1ac8 a43d
000000b0: ce1d 883c d9eb 85bd cd30 54be f329 8ebc
000000c0: 8df2 5abc 0edd 903b 04d2 09be 94ad 6fbe
000000d0: 6fc4 8cbc c898 b1bc 81ca 5e3c 1e0d 29be
000000e0: 8a9f 8c3c 542f 9bbd dd46 50be 5623 943d
000000f0: 4f3a 99bc 19bc 89bc 34eb 3ebd a8c1 3bbe
00000100: 6718 5c3d 0dde 64be 037b 02bf 8fc2 44be
00000110: 0bef 2cbf 20e7 873e d8bf bd3e 8ff3 ae3c
00000120: 2b4f 13be b3a7 16be 09d5 8e3e 91de fd3c
00000130: eb8f 38be 66d4 ac3c f2c0 87bf 28eb 19be
00000140: b6ad 693e 52b2 03bb 14e0 db3e e4a7 1b3e
00000150: 0c9d 55bd 168f 28bf 64a6 413e 3651 88be
00000160: 63b0 bc3f 1222 dcbd 3348 0b3b ba48 e7be
00000170: 751e 0dbd 4443 943d e5a7 4bbf 9b68 9bbd
00000180: 305f d7bf 34fe 59c0 3021 ac3e 0fa5 ab3e
00000190: 73d1 413f 5e44 07c0 6c29 81bf da76 bbbe
000001a0: 70c3 ecbd 08cf bbbf 5f1f 61c0 1d62 c13e
000001b0: 1eb9 ae3d d13d f4bf 5aee 3f3d 8c6c ab3f
000001c0: 049f 973b 1f56 e9bd 0859 dcbc 1c38 733e
000001d0: acf1 0f3a 8d4f 493f 4471 413f 99b9 e8be
000001e0: a7c7 c9bf 6bf4 3dbe 93d8 c4bf dbac 24bf
000001f0: 5192 bfbc 0a2b 80bf c5d1 80be 6b37 b63e
00000200: 8bd4 a5bd 7106 94be 7b04 abbc 17df ce3e
00000210: 6149 55be 90dc 73bc a2fc 69bc 7a4d 11bf
00000220: fa07 0fbd d0bc 2a3e 6ceb 06bd cfc1 83bd
00000230: 5015 853e d531 a3be 6bc2 92bd 4d1b 7f3e
00000240: da38 d2bd b363 10bf 07c2 39bd ee17 5d3e
00000250: e7b0 b3be fe98 94be e781 13be a9ae cfbd
00000260: 5314 883d e296 d6be c943 81bd 8588 c03c
00000270: 96f2 583d afc6 d4be fd79 89be d114 ad3d
00000280: 0c27 103d 5035 abbe ed99 43bc 2f05 323c
00000290: 0693 f8bc cb3b 57be 4898 26be 8737 0e3b
000002a0: 44d3 383e 53aa 1c3d 28a2 0abe 2e16 08bf
000002b0: 9539 abbe 2b2e 8fbe f2b1 ddbe 7232 1ebe
000002c0: 5724 ad3c a022 20bd 3f37 0ebe eac6 2ebd
000002d0: 147e ffbd f4c5 5b3d cc98 e7bd f879 5e3d
000002e0: 7825 24bd adb6 b23d 22fe f3bc 18a7 663e
000002f0: 6a37 403d 9e6a 463e c23b 58be cb34 26be
00000300: 8736 40bd bf0c 8bbb 27ec 3abc 2452 713e
00000310: ad54 37bf 1c47 15bf 7a08 643e 74f0 f23c
00000320: fcc5 a0be ed75 4bbd 5d0d 81be 312a 25bf
00000330: 56d0 253e 20bc 2abd b9e1 3cc0 2231 4d3e
00000340: 58c2 653f 3f2e 773e 0913 8bbe 0e88 f63c
00000350: 82f6 743d d318 1bbd b3a8 933e 690a 773e
00000360: 9264 17bf bce2 023d 280b 5a3e 3f93 6bbe
00000370: 3095 21bf 61ca abbe 979b cfbd 6a55 053d
00000380: 26fb 133f c4e4 393f 1749 f2bd 5582 36bf
00000390: 0cd3 d0bd b104 f43d 9375 87be 94ec 47bf
000003a0: 1463 913c 46f5 a43d a0ec d93d 2d2c a23c
000003b0: e72c bbbd f1b7 c73d 1214 eabe b50c 71be
000003c0: 124f 643e 40cb d9bd 7d60 b9be 7a59 013f
000003d0: 1d3f be3d da63 ebbd 2c76 66be d58c 2bbe
000003e0: 3c19 0d3e 55e8 f2bd 52a6 34be a347 ea3d
000003f0: 0ed2 6c3d 541c c43d c4b7 62bf 609f 57bb

w_agents.2.bias f4 [32]
-0.25191534 -0.24831599 -0.48992574 0.71257454 0.114982665 -0.114253625 -0.28956926 -0.033938926
-0.079459526 -0.22358027 -0.17361337 -0.17714138 0.23832081 -0.21683586 -0.07335631 0.228979
0.32649168 -0.24467587 -0.17563172 -0.16702446 -0.32351282 -0.19312783 -0.23411518 -0.13949145
-0.2685308 -0.09998753 -0.556317 -0.29726303 -0.046553656 -0.11605069 0.16108349 -0.46630663
00000000: 0cfb 80be 8c46 7ebe 8cd7 fabe 496b 363f
00000010: 087c eb3d cefd e9bd 6c42 94be 8b03 0bbd
00000020: adbb a2bd 3af2 64be b4c7 31be 8d64 35be
00000030: 5f0a 743e 380a 5ebe d53b 96bd 7979 6a3e
00000040: eb29 a73e 508c 7abe cdd8 33be 7608 2bbe
00000050: 79a3 a5be 4dc3 45be e4bb 6fbe d9d6 0ebe
00000060: de7c 89be 43c6 ccbd ca6a 0ebf dc32 98be
00000070: 0caf 3ebd fcab edbd 12f3 243e bebf eebe

Ws.0 f4 [32, 32]
-0.67786336 0.31761956 0.15002432 0.7064041 -0.69650203 1.0279117 -0.91944444 -1.2090443
-1.8100237 1.8437109 1.0862815 -0.5708536 1.2732937 0.7899672 0.53830093 0.27185968
0.6743986 0.2680496 -0.6367451 0.9638684 -0.269856 -0.8090416 -2.1534297 0.70025927
-1.2602348 -1.5673046 -1.1526742 0.65917337 0.7174459 1.6896522 0.27516192 -0.26638794
2.5409791 -2.2478702 -0.101144165 -3.7055535 -1.013187 0.34052202 -0.5354819 0.01187482
0.6409944 -0.91636527 0.92115635 1.2344395 1.3760014 0.9909077 1.1604834 -0.43525034
-1.72217 -0.06531045 0.73508966 -3.7517824 1.0656277 -0.7039351 1.1274048 -0.071195155
0.6993534 -2.6977813 -1.160863 -1.3897942 0.3025044 -3.9710078 -0.15011749 -0.85877985
0.5968528 0.4143004 0.012345889 0.68521905 1.2864275 0.19013731 -1.4844936 2.6464734
-0.19945227 1.8653353 -0.7503687 -0.031532984 -0.103202224 0.9320115 -0.19816871 -1.9060404
-0.45296124 0.42052856 0.03975262 2.5040345 -1.0986949 -0.55104536 -1.1127964 1.1361201
0.11935752 0.34282807 -0.24665028 1.0881592 0.08083771 -2.730419 -1.043926 -0.504458
-1.1394712 0.47185683 0.8504299 -0.50897837 -0.944132 0.689488 0.7827583 -0.21066672
0.0010208108 -0.93414146 0.11487108 0.28500777 -0.013593462 -0.8257503 0.015769174 -1.8643608
-0.79135907 1.4053159 -1.4706552 -1.5304067 -0.94392705 -0.7791168 1.8581872 -0.58505946
0.13318813 0.11155997 0.3305163 0.68501204 0.86930823 -1.0285207 0.096745774 0.9505113
0.6745766 -5.116471 -1.1776582 0.22145477 -0.9335356 1.3594333 -1.0200217 -1.0397737
-0.3431169 0.87232715 2.2646666 0.25415272 -0.16326492 -0.8356619 -0.3432079 0.9015887
0.4004073 0.07154186 0.39029795 2.0261762 0.9651457 -0.89149123 -0.60743475 -0.49263215
0.939077 0.94661623 -0.19929804 -0.1946052 0.25815943 1.5641953 -0.77616 0.112027965
-0.34158897 -1.5223948 -1.496765 -1.1190953 -1.6230862 1.957432 1.4207029 0.23317982
-0.68422574 1.3648411 0.33247277 0.5010358 0.14966144 -1.1260917 -0.97885877 -3.6357512
-0.78419834 -0.22799614 1.2483546 0.73047113 0.4477927 0.14706858 -3.3955686 -0.29114565
0.01776414 -1.523252 0.58141845 -0.80297655 -2.3971956 -3.1143007 1.9188569 -1.5954971
0.006873015 -0.49930692 -0.84006006 -2.8168607 -1.1023448 -2.0144908 -0.7668621 -0.9096768
1.9500282 0.024643509 1.8175726 -0.67866516 -2.8974593 -0.19578357 2.0020819 -8.9275055
0.8453093 -0.88982904 0.4966791 -6.0301957 0.7562151 -3.4756565 0.12695247 1.5085902
1.6184968 -0.7003891 -0.8175699 -4.1310034 0.61308175 0.3782079 -2.6813612 -0.847628
0.31325886 -0.93403333 -2.519665 0.18745513 0.18622823 -1.3074808 0.114027865 0.42736083
1.0740757 0.54583645 0.4427566 0.21292643 -1.5003176 0.7622337 1.2539036 -1.6310002
-3.7468493 -1.2313889 -0.9023217 0.11332377 -1.3795797 1.2244622 0.15091053 -1.0606977
-0.7902896 0.6682765 0.5191196 0.025281614 0.5879951 -2.4646735 -0.6843675 -0.8290838
00000000: 7488 2dbf 089f a23e fa9f 193e e6d6 343f
00000010: f54d 32bf 9c92 833f b660 6bbf f7c1 9abf
00000020: dbae e7bf b8fe eb3f 460b 8b3f 7623 12bf
00000030: 4afb a23f 4a3b 4a3f 17ce 093f 3131 8b3e
00000040: 63a5 2c3f cc3d 893e ba01 23bf 14c0 763f
00000050: 912a 8abe 5a1d 4fbf cbd1 09c0 3144 333f
00000060: 604f a1bf 709d c8bf d48a 93bf 96bf 283f
00000070: 89aa 373f 8646 d83f 06e2 8c3e 0064 88be
00000080: 679f 2240 1bdd 0fc0 ac24 cfbd ca27 6dc0
00000090: 1db0 81bf e758 ae3e 5815 09bf 9b8e 423c
000000a0: 3618 243f ea96 6abf e7d0 6b3f 1d02 9e3f
000000b0: d020 b03f 21ac 7d3f b88a 943f 22d9 debe
000000c0: 1170 dcbf 7cc1 85bd d62e 3c3f 341d 70c0
000000d0: 7d66 883f 1735 34bf cd4e 903f c4ce 91bd
000000e0: d308 333f 73a8 2cc0 2997 94bf c7e4 b1bf
000000f0: dbe1 9a3e fe24 7ec0 66b8 19be ffd8 5bbf
00000100: 58cb 183f 2f1f d43e 6946 4a3c 846a 2f3f
00000110: a8a9 a43f 5bb3 423e e303 bebf d25f 2940
00000120: 373d 4cbe 4fc3 ee3f 2a18 40bf bb28 01bd
00000130: b05b d3bd 4e98 6e3f bdec 4abe 22f9 f3bf
00000140: 89ea e7be 854f d73e a5d3 223d 1a42 2040
00000150: 09a2 8cbf 4f11 0dbf 1d70 8ebf 626c 913f
00000160: b771 f43d 2987 af3e e491 7cbe cd48 8b3f
00000170: 3e8e a53d 2fbf 2ec0 5e9f 85bf 2924 01bf
00000180: 31da 91bf 3897 f13e c6b5 593f 684c 02bf
00000190: a2b2 71bf 4982 303f d962 483f 04b9 57be
000001a0: bacc 853a e523 6fbf 8741 eb3d 8aec 913e
000001b0: 1db7 5ebc 5f64 53bf 5b2e 813c 60a3 eebf
000001c0: 8296 4abf 64e1 b33f 6e3e bcbf 5ee4 c3bf
000001d0: 34a5 71bf 3374 47bf 14d9 ed3f 75c6 15bf
000001e0: 7862 083e 8e79 e43d 6f39 a93e f35c 2f3f
000001f0: fc8a 5e3f 91a6 83bf a622 c63d b554 733f
00000200: 0db1 2c3f 21ba a3c0 81bd 96bf 0ac5 623e
00000210: 30fc 6ebf e901 ae3f 1290 82bf 4e17 85bf
00000220: 05ad afbe d550 5f3f 4cf0 1040 4e20 823e
00000230: eb2e 27be f0ed 55bf f2b8 afbe 84ce 663f
00000240: 3002 cd3e 8a84 923d 22d5 c73e dfac 0140
00000250: ca13 773f c538 64bf d880 1bbf 483a fcbe
00000260: 5a67 703f 7155 723f c914 4cbe 9646 47be
00000270: 792d 843e 8d37 c83f 6cb2 46bf eb6e e53d
00000280: c0e4 aebe d5dd c2bf ff95 bfbf 843e 8fbf
00000290: 4ac1 cfbf 228d fa3f 98d9 b53f b1c6 6e3e
000002a0: 6b29 2fbf 1db3 ae3f df39 aa3e e243 003f
000002b0: d940 193e c623 90bf 7d96 7abf 26b0 68c0
000002c0: 39c1 48bf d277 69be 15ca 9f3f 2800 3b3f
000002d0: 1645 e53e 2599 163e ff50 59c0 0b11 95be
000002e0: 1a86 913c ecf9 c2bf d7d7 143f df8f 4dbf
000002f0: a76b 19c0 b450 47c0 1a9d f53f 4039 ccbf
00000300: 0737 e13b 28a5 ffbe 2d0e 57bf 7247 34c0
00000310: a219 8dbf 6bed 00c0 1351 44bf 94e0 68bf
00000320: 869a f93f 2fe1 c93c 38a6 e83f 00bd 2dbf
00000330: f96f 39c0 7d7b 48be 1c22 0040 10d7 0ec1
00000340: 3166 583f d6cb 63bf b94c fe3e 5df7 c0c0
00000350: 5097 413f 2871 5ec0 d4ff 013e 7c19 c13f
00000360: e72a cf3f b34c 33bf 434c 51bf 2e31 84c0
00000370: edf2 1c3f 77a4 c13e 6c9b 2bc0 26fe 58bf
00000380: 7763 a03e cf1c 6fbf 3142 21c0 3df4 3f3e
00000390: 9db2 3e3e 885b a7bf 7187 e93d 0acf da3e
000003a0: 507b 893f f0bb 0b3f feb0 e23e 6309 5a3e
000003b0: 680a c0bf bf21 433f ea7f a03f 9dc4 d0bf
000003c0: 61cc 6fc0 279e 9dbf 8efe 66bf 4b16 e83d
000003d0: 1196 b0bf 2dbb 9c3f 4a88 1a3e f1c4 87bf
000003e0: 6b50 4abf 2b14 2b3f 06e5 043f 631b cf3c
000003f0: d986 163f 36bd 1dc0 b532 2fbf d63e 54bf

Ws.1 f4 [32, 32]
0.44181874 0.20999718 -0.28971407 0.59984577 1.2129515 -0.9550767 -1.8347868 0.49725375
-1.3960245 -0.84928125 -2.898196 -0.8719949 -0.7565318 1.0397753 1.8062986 -0.928922
0.3463748 0.69216835 0.079014614 -4.8397264 -1.6462382 0.4127969 1.5881388 -0.5415196
-3.6222885 1.3035793 -1.1361082 -1.888987 -0.9727532 -2.6756024 -1.610644 1.8275204
-0.55556333 -0.053689227 -1.267072 -4.513624 -1.1307606 0.21863101 -0.19402473 -0.36458123
0.88022614 0.64295214 0.3870964 -2.4689784 1.3841393 -2.023615 -0.8220014 -0.71753937
-0.70619977 -1.7219191 -0.7585613 -0.39490288 0.22529621 -0.29020366 0.05319161 -0.9779308
-0.8875406 -1.9746826 -2.3161442 0.3534361 -1.4708626 0.3675816 -0.8893662 0.1853431
-2.284113 0.3735406 0.14887665 0.07589973 -0.9822528 0.52713865 1.1516792 1.091985
-0.6449503 -2.0664256 -1.93443 1.0796592 0.13042197 0.1573695 0.2168465 1.4022301
1.3770785 -0.7413181 -2.7535033 -2.6990812 0.38925326 2.1476934 -1.0663512 -1.2197392
1.9910624 4.246057 -1.1260976 0.48915675 0.1454203 -0.9827809 -0.0042168144 0.26900733
-1.3658038 -0.027820546 -1.220245 -0.67949295 0.91930497 -1.3851987 1.7304924 -3.39698
-0.9378861 -0.85967004 1.4689257 0.7135942 0.119728595 0.63190943 -1.872261 0.14573209
-1.5073285 0.32756186 0.0057196873 -3.9455068 -1.3364449 -1.3024267 1.0154302 -0.89694047
-3.7081685 1.2276576 1.8393108 0.7742961 1.0863479 -0.16137247 1.624142 -2.3221204
1.6775423 -0.6057544 -1.1707426 -0.052911714 0.16513737 1.1019527 0.40228882 -6.091956
-0.28913653 0.82857186 1.4551196 -1.7741511 0.2445649 -0.6254238 1.3006561 1.0456709
-0.50744563 0.5616937 -0.45887566 -2.246421 -1.9955208 -1.2143409 -1.5594063 -4.929094
2.0730171 -1.1731676 -1.0213686 1.5702457 -1.7028645 -3.5062795 -2.1170106 -0.14326882
-0.06637198 -0.08413885 0.9376371 -0.67314 -1.521267 -0.6235394 -1.2613095 1.1244291
-0.35129127 0.8667279 -4.634811 -1.7337242 -1.7579504 1.4201777 0.4063642 -0.11297742
-3.4683106 -0.14769118 -1.8605576 -0.499109 0.52583164 -1.3974813 0.5881192 -2.1344936
0.05204213 0.88614 -0.006495599 -0.5046262 1.1134874 0.58759373 -0.7262018 -1.824651
0.73838603 -0.64405334 -1.8259217 0.22915207 -0.6367668 0.18390152 -0.89542955 0.49404252
-1.0968404 0.33320594 0.21470733 1.1394674 -0.34956563 -0.11996004 -1.2810812 0.02282046
0.15438399 1.6548831 -1.4723223 1.1705822 0.14226858 -1.1593647 0.5189486 0.2862619
0.2591125 -2.6547637 -0.18549386 -0.5826325 1.108993 0.14001764 -1.717647 -1.5562958
-1.4085773 0.19339119 1.8717338 0.22904964 -0.012974711 0.50084364 0.6039707 -1.4322455
-0.45204458 -2.0689483 0.45071986 0.176172 0.08167108 -0.8166516 1.3544768 -1.3210721
-1.4159678 0.23800334 1.5656474 -2.3722634 0.5195604 -2.4425576 1.9605472 0.19229212
-0.85758674 -1.4211744 -0.120053776 0.7767213 0.27846092 -0.9724328 0.32783088 -0.7169861
00000000: 1136 e23e 8009 573e 6755 94be 7e8f 193f
00000010: ff41 9b3f e87f 74bf 4bda eabf 0b98 fe3e
00000020: eeb0 b2bf 7f6a 59bf 0b7c 39c0 0f3b 5fbf
00000030: 11ac 41bf 5b17 853f cb34 e73f d5cd 6dbf
00000040: 0a58 b13e f231 313f 6ad2 a13d 0adf 9ac0
00000050: efb7 d2bf 1e5a d33e 2248 cb3f 07a1 0abf
00000060: 93d3 67c0 b0db a63f fe6b 91bf 53ca f1bf
00000070: 5b06 79bf 123d 2bc0 9529 cebf 30ec e93f
00000080: 6639 0ebf 3ce9 5bbd 6a2f a2bf 9c6f 90c0
00000090: c3bc 90bf cfe0 5f3e 6bae 46be 64aa babe
000000a0: 8056 613f 8398 243f 8031 c63e be03 1ec0
000000b0: 7a2b b13f e882 01c0 af6e 52bf a9b0 37bf
000000c0: 82c9 34bf d867 dcbf 1331 42bf b630 cabe
000000d0: 0db4 663e 9395 94be 72df 593d ac59 7abf
000000e0: dc35 63bf 66c2 fcbf b53b 14c0 94f5 b43e
000000f0: 3a45 bcbf a833 bc3e 81ad 63bf 95ca 3d3e
00000100: e82e 12c0 b740 bf3e 1f73 183e 5171 9b3d
00000110: eb74 7bbf 8ff2 063f 396a 933f 2ac6 8b3f
00000120: 761b 25bf 5140 04c0 679b f7bf 4632 8a3f
00000130: 568d 053e 7825 213e 020d 5e3e 477c b33f
00000140: 1c44 b03f 06c7 3dbf 6639 30c0 bfbd 2cc0
00000150: 344c c73e cf73 0940 327e 88bf 6a20 9cbf
00000160: 22db fe3f b3df 8740 f723 90bf c172 fa3e
00000170: 0fe9 143e 8797 7bbf 342d 8abb 54bb 893e
00000180: a9d2 aebf eae7 e3bc fd30 9cbf 40f3 2dbf
00000190: 9257 6b3f 314e b1bf c680 dd3f 1f68 59c0
000001a0: 4e19 70bf 5613 5cbf c205 bc3f 1cae 363f
000001b0: 4434 f53d d1c4 213f 40a6 efbf cb3a 153e
000001c0: 24f0 c0bf 30b6 a73e 376c bb3b 2f83 7cc0
000001d0: a010 abbf ebb5 a6bf 9ef9 813f e49d 65bf
000001e0: a252 6dc0 e223 9d3f 896e eb3f 4538 463f
000001f0: 730d 8b3f d33e 25be e3e3 cf3f 9f9d 14c0
00000200: b5b9 d63f b812 1bbf e5da 95bf f4b9 58bd
00000210: c519 293e c90c 8d3f cdf8 cd3e 4ef1 c2c0
00000220: b409 94be 491d 543f 5c41 ba3f 6217 e3bf
00000230: 396f 7a3e c61b 20bf e67b a63f 8bd8 853f
00000240: f5e7 01bf 29cb 0f3f c0f1 eabe 5dc5 0fc0
00000250: 3a6d ffbf 866f 9bbf a09a c7bf 23bb 9dc0
00000260: 50ac 0440 5b2a 96bf 35bc 82bf d0fd c83f
00000270: 77f7 d9bf e266 60c0 1a7d 07c0 10b5 12be
00000280: 08ee 87bd fd50 acbd fc08 703f e752 2cbf
00000290: e1b8 c2bf 47a0 1fbf 9772 a1bf 4bed 8f3f
000002a0: 73dc b3be e1e1 5d3f 5f50 94c0 adea ddbf
000002b0: 8504 e1bf 62c8 b53f f80e d03e b560 e7bd
000002c0: cdf8 5dc0 5b3c 17be c026 eebf 378b ffbe
000002d0: e79c 063f abe0 b2bf fb8e 163f 8b9b 08c0
000002e0: 212a 553d 12da 623f 09d9 d4bb 2f2f 01bf
000002f0: c186 8e3f 8b6c 163f 5ce8 39bf 2a8e e9bf
00000300: de06 3d3f aee0 24bf cdb7 e9bf d7a6 6a3e
00000310: 2603 23bf ae50 3c3e df3a 65bf 24f3 fc3e
00000320: 4465 8cbf f899 aa3e 3ddc 5b3e 11da 913f
00000330: 44fa b2be 9cad f5bd 78fa a3bf f9f1 ba3c
00000340: d616 1e3e 36d3 d33f 0f75 bcbf a3d5 953f
00000350: dbae 113e 1066 94bf d1d9 043f eb90 923e
00000360: 65aa 843e a6e7 29c0 1af2 3dbe 6727 15bf
00000370: 7cf3 8d3f c960 0f3e dbdb dbbf b334 c7bf
00000380: 434c b4bf 5708 463e f994 ef3f fd8b 6a3e
00000390: e293 54bc 4a37 003f d39d 1a3f d253 b7bf
000003a0: 6372 e7be a669 04c0 c1c4 e63e 6f66 343e
000003b0: 2b43 a73d 1410 51bf 7f5f ad3f e418 a9bf
000003c0: 6f3e b5bf 26b7 733e 2267 c83f 2ad3 17c0
000003d0: e901 053f dd52 1cc0 36f3 fa3f 3ae8 443e
000003e0: ce8a 5bbf 0be9 b5bf c1de f5bd 35d7 463f
000003f0: 6e92 8e3e 5bf1 78bf 73d9 a73e 678c 37bf
