crowd_nav/data-3/rl_model_7.pth (torch_old, 93650 bytes, 18 tensors)

w_a f4 [32, 32]
-1.8901347 -2.46819 0.89826435 0.5240892 0.59341854 0.22756411 -0.03966417 -0.008242922
-0.3011196 0.09615762 -0.18914247 -0.2279361 -0.4824604 1.0253016 -1.5871589 0.13803591
2.7797685 2.8588169 0.34694925 5.115816 -0.9822491 -2.7621174 -1.061131 0.6752747
2.129252 -2.021494 0.96649235 -0.7008474 -0.9545887 1.2077363 -1.7080873 0.13215467
0.047196783 0.07845558 -2.582255 1.0834866 0.06171538 1.2745179 -0.96290874 -0.48275614
-2.2076533 -0.51970536 -0.2715702 -2.439503 0.008505335 0.62069154 -0.16897562 3.3244486
0.17169406 0.5023064 0.2697227 0.5641071 -0.39316124 -1.3697762 0.63647485 0.7768168
0.5741696 0.62696844 1.2166289 0.87909186 0.73686224 0.40446398 0.15556845 0.3666498
-1.1237129 -0.29435444 2.809639 -2.0729778 -1.8646839 -2.8620903 3.0146968 -1.9973624
-0.8962016 2.054242 0.8519362 1.4793099 -0.9485191 -3.0486813 0.10692647 3.9320014
0.7974307 -2.7075036 0.2270951 3.754406 0.39103574 0.28141388 0.98735046 0.09184091
1.8458555 1.0184077 1.3090875 -0.5904899 -2.2361944 -0.07257543 -0.17223093 1.9539057
0.1972183 0.40381464 -2.427771 -0.29566088 -0.44282603 0.046449214 -0.01056084 0.13251229
0.1498626 -2.206525 -0.18680017 -0.1370195 2.101004 -0.711358 0.113058805 -2.1216576
-1.2193675 1.9053764 -0.3105092 -0.2746406 0.029279249 -0.15189907 -0.91993964 -1.7494012
0.04677024 1.1388758 -1.6770211 -0.41342932 0.36158067 0.17549472 0.2601583 0.20011923
1.1851405 0.6719831 -1.7919598 -0.14136714 -0.04521519 0.9258441 -0.17354824 -0.10554816
2.3990235 -0.51888525 0.7724466 -0.6269124 0.7491506 -0.3148488 -0.12362175 0.20315099
-0.59991103 -0.16794945 0.23266947 -0.36267003 0.049982388 0.5262127 0.48969397 -0.44750166
-0.112432 0.3315449 0.15576191 -0.31721967 0.44307756 -0.32932976 0.7747627 -0.45131722
-1.185822 -0.9314586 -0.27597672 -0.05193193 -0.807259 -0.50497067 1.0006202 -1.5021648
2.8968165 -0.08184362 0.26681507 1.5805116 1.0458188 0.7433059 0.4364081 -0.26505557
0.75621766 -1.2922986 -1.1933998 0.27830026 -2.6879497 0.35084534 -1.6948578 -0.4795961
0.06312042 -0.39020866 0.2623724 0.39981073 -1.2961649 0.7154691 -1.0337042 -0.3106942
0.6538277 -2.275522 -0.77910566 -0.08674984 0.051821858 -1.0344675 -0.115324676 0.42504364
-1.7298186 1.4630138 0.6581379 0.3775138 -1.6318069 0.622283 0.67243165 0.76813954
-0.17707552 0.3965715 0.42417657 0.8738431 -1.9242382 -0.3680479 -2.5047703 0.14863895
-0.7190094 -1.8818485 0.21821404 0.55545306 0.025937604 -0.8538361 -0.64647716 -0.707294
-0.91599005 1.1993822 -3.171133 0.30952844 -0.09864599 -0.21307074 -0.42780435 -0.007840325
-0.40924358 -0.0010153458 1.1402485 0.42831853 -0.14761515 0.71942604 -0.023734063 -1.6856186
-0.7990251 -0.6030218 -0.056548085 -0.24253719 -0.1870223 -0.5414144 -0.41029736 -0.5776306
0.009929234 -0.22032784 -0.16012008 -0.16221997 -0.071350604 -0.18592787 0.29934883 0.032234218
00000000: efef f1bf d3f6 1dc0 a7f4 653f b62a 063f
00000010: 47ea 173f 9106 693e e676 22bd 520d 07bc
00000020: 592c 9abe 49ee c43d 90ae 41be 1568 69be
00000030: 0d05 f7be 153d 833f 0628 cbbf 4959 0d3e
00000040: bae7 3140 dbf6 3640 55a3 b13e c4b4 a340
00000050: ad74 7bbf 88c6 30c0 24d3 87bf cede 2c3f
00000060: aa45 0840 2860 01c0 0b6c 773f bc6a 33bf
00000070: ed5f 74bf 1a97 9a3f 9ba2 dabf 8e53 073e
00000080: 6a51 413d 52ad a03d aa43 25c0 b0af 8a3f
00000090: 44c9 7c3d 6723 a33f 3081 76bf d02b f7be
000000a0: 314a 0dc0 690b 05bf 400b 8bbe d120 1cc0
000000b0: f659 0b3c a4e5 1e3f f207 2dbe c4c3 5440
000000c0: 91d0 2f3e 2797 003f 1819 8a3e 5369 103f
000000d0: 6e4c c9be d454 afbf 04f0 223f 77dd 463f
000000e0: c7fc 123f 0181 203f 7fba 9b3f 2a0c 613f
000000f0: 01a3 3c3f e715 cf3e 564d 1f3e 86b9 bb3e
00000100: d3d5 8fbf a0b5 96be 20d1 3340 abab 04c0
00000110: f6ad eebf 7d2c 37c0 cbf0 4040 92a9 ffbf
00000120: 786d 65bf b378 0340 7e18 5a3f 075a bd3f
00000130: 26d2 72bf 981d 43c0 44fc da3d e9a5 7b40
00000140: 6b24 4c3f bd47 2dc0 9e8b 683e 3048 7040
00000150: d635 c83e 7b15 903e 00c3 7c3f 1617 bc3d
00000160: fe44 ec3f 2f5b 823f 2e90 a73f 592a 17bf
00000170: cf1d 0fc0 6da2 94bd 4e5d 30be 9519 fa3f
00000180: 98f3 493e cbc0 ce3e 9a60 1bc0 dd60 97be
00000190: 18ba e2be 8841 3e3d 6007 2dbc 4db1 073e
000001a0: 9575 193e b537 0dc0 8b48 3fbe d74e 0cbe
000001b0: d976 0640 8f1b 36bf 608b e73d 3dc9 07c0
000001c0: 3c14 9cbf 60e3 f33f 10fb 9ebe b19d 8cbe
000001d0: 09db ef3c 6e8b 1bbe 2a81 6bbf 61ec dfbf
000001e0: 2792 3f3d afc6 913f a1a8 d6bf 02ad d3be
000001f0: 1a21 b93e e3b4 333e 7833 853e 0eec 4c3e
00000200: afb2 973f 1607 2c3f f05e e5bf 8cc2 10be
00000210: 9033 39bd 1e04 6d3f a1b6 31be a229 d8bd
00000220: 9a89 1940 aad5 04bf 0fbf 453f 557d 20bf
00000230: 55c8 3f3f dd33 a1be 662d fdbd d006 503e
00000240: c593 19bf f1fa 2bbe e840 6e3e e3af b9be
00000250: 55ba 4c3d e0b5 063f 2bb9 fa3e f01e e5be
00000260: c042 e6bd 41c0 a93e 0d80 1f3e 9e6a a2be
00000270: 10db e23e e99d a8be d956 463f 0d13 e7be
00000280: 04c9 97bf 1274 6ebf d24c 8dbe 93b6 54bd
00000290: 87a8 4ebf c245 01bf 5314 803f f046 c0bf
000002a0: 7165 3940 a19d a7bd fc9b 883e 344e ca3f
000002b0: 64dd 853f 4c49 3e3f e270 df3e 5db5 87be
000002c0: 7b97 413f 0a6a a5bf 53c1 98bf 5f7d 8e3e
000002d0: 5e07 2cc0 00a2 b33e 1af1 d8bf 9f8d f5be
000002e0: 4745 813d 6ec9 c7be ad55 863e feb3 cc3e
000002f0: bbe8 a5bf fc28 373f 6b50 84bf 4f13 9fbe
00000300: 4161 273f 27a2 11c0 7873 47bf e6a9 b1bd
00000310: 2843 543d 6e69 84bf 582f ecbd 529f d93e
00000320: b26a ddbf 0944 bb3f ba7b 283f 7d49 c13e
00000330: 0cdf d0bf f04d 1f3f 7b24 2c3f cba4 443f
00000340: 4953 35be 6b0b cb3e ac2d d93e 2eb4 5f3f
00000350: 704d f6bf c670 bcbe 284e 20c0 cf34 183e
00000360: 0011 38bf 69e0 f0bf 8073 5f3e 2c32 0e3f
00000370: 197b d43c 0195 5abf 877f 25bf 3811 35bf
00000380: 537e 6abf 5b85 993f d8f3 4ac0 837a 9e3e
00000390: e906 cabd 372f 5abe 2c09 dbbe b574 00bc
000003a0: 6088 d1be 5a15 85ba aaf3 913f 914c db3e
000003b0: 6d28 17be 4e2c 383f f06d c2bc 5ac2 d7bf
000003c0: e98c 4cbf a35f 1abf f79e 67bd ab5b 78be
000003d0: c682 3fbe 229a 0abf 7f12 d2be 99df 13bf
000003e0: 3aae 223c 9f9d 61be 85f6 23be fe1c 26be
000003f0: 4420 92bd e063 3ebe 4044 993e 0708 043d

w_group.0.weight f4 [64, 8]
-0.100406736 -0.010904706 1.1346021 -0.9604355 -0.33282027 -0.43196446 -0.16156444 -0.43417025
-0.19603714 -0.14147368 -0.6572755 -1.0410726 -0.2083489 -0.5938024 -0.9755145 -0.5757015
-0.2827911 -0.23652565 1.1886702 -0.055724423 -0.28645247 -0.7478725 0.041489005 -0.7996499
0.07654032 0.1343542 1.0025374 -0.028042976 -0.27889848 0.6400337 -2.0140119 0.6365227
0.042593673 0.41192186 0.32258862 0.14627782 0.2003425 0.036214683 1.4254838 -0.27699295
-0.0384999 -0.013053994 -0.054531842 -0.10905085 -0.0790934 0.04759082 -0.3446862 -0.42625725
-0.25323507 -0.022900028 1.2145545 1.059302 0.09341884 -0.6291025 -0.7139344 -0.4618394
0.1805292 -0.06800934 0.3367631 -1.0380095 0.2730225 -0.6824949 -0.22391109 -0.69259435
-0.11189941 -0.05543152 -0.63201267 0.7225824 0.0138839185 -0.6202929 -0.27056867 -0.3058625
-0.062186897 -0.010689397 -0.48315233 0.01531555 0.2962723 -0.17933948 -0.34513208 -0.6415234
-1.1021715 0.6951327 -0.82588464 0.18798941 0.32644603 -0.4867593 1.6309047 -0.1765636
-0.2911953 0.1286167 0.19430736 0.4214178 -0.16934735 -0.46699253 -0.78237 -0.5516117
0.15621927 -0.050428502 -0.38133255 0.76994115 -0.1399924 -0.7190428 0.20716697 -0.86527264
0.22471833 0.32046196 -0.25330806 0.01610412 -0.15374103 -0.5204724 -1.2664741 -0.7942572
-0.17165998 -0.1726126 -1.4591248 0.16249801 0.22612932 -0.41909796 -1.6910352 -0.5903468
-0.44359633 0.273238 -2.405585 -1.042251 0.032248735 -0.12539391 -2.6096795 -0.6133481
-0.101064794 -0.06274396 -0.3378968 -0.80643815 0.12178412 -0.80504483 0.6775138 -0.44620648
-1.1918048 1.238748 0.6697694 -1.0078045 -0.2855457 -0.5704202 -0.86489725 -0.37523314
1.0488694 0.88430756 -0.2304211 0.46975416 -0.22607203 0.086357765 0.5652238 0.27559167
-0.46608034 0.36661384 -2.5130272 -0.013845491 0.3404185 -0.038827114 -0.75372255 -0.2585173
0.0712417 -0.2128035 0.98168844 0.5735205 -0.19968313 -0.19185139 -1.6208088 -0.6810008
-0.105105266 -0.060384624 0.9760056 -0.25390577 -0.30832902 -0.44680426 -0.7099664 -0.669075
0.08354646 -0.05961141 0.7026465 -0.7780394 -0.34349242 -0.74355483 0.5352466 -0.43623334
0.073203765 0.07461105 -0.20422547 -1.8726953 0.01752463 0.14153531 0.5083272 0.20354731
0.20563164 0.11997281 0.17228745 0.049323395 -0.056084484 -0.43178636 -0.2764953 -0.5997719
-0.15537818 -0.43399513 -0.33364338 1.7281569 0.18707612 0.002916872 -2.524734 0.21279572
1.6012672 0.43422592 1.3379505 -1.2687098 0.044489205 0.10306822 -0.30781126 0.13318396
-0.24368672 1.8518366 0.26517835 0.12124129 -0.18794936 -0.21748553 -0.68048626 -0.04271259
0.7702393 -0.022271603 -2.4012632 1.2969335 0.119000345 -1.0491698 0.39695242 -0.96607697
-0.050043765 -0.07136681 1.1874756 -0.2683952 -0.29109883 -0.17574109 -1.224005 -0.42164955
-0.40450275 0.51011664 0.9365306 -0.5415426 -0.3108982 -0.8553816 0.4221843 -0.37945282
-0.10050161 -0.093887605 -0.9866629 1.1221123 -0.15729144 -0.44247192 -0.9114203 -0.4407997
00000000: 0ca2 cdbd a7a9 32bc a43a 913f 1adf 75bf
00000010: 6b67 aabe 722a ddbe 2671 25be 904b debe
00000020: f6bd 48be 7ade 10be 3543 28bf de41 85bf
00000030: 6a59 55be 6f03 18bf 51bb 79bf 2c61 13bf
00000040: ffc9 90be c833 72be 5826 983f 4b3f 64bd
00000050: e6a9 92be 9274 3fbf 60f0 293d dbb5 4cbf
00000060: 2cc1 9c3d 2694 093e 2553 803f 62ba e5bc
00000070: c8cb 8ebe 40d9 233f 92e5 00c0 27f3 223f
00000080: b476 2e3d 6ce7 d23e 562a a53e dac9 153e
00000090: 9626 4d3e d955 143d 4176 b63f 05d2 8dbe
000000a0: 12b2 1dbd 6be0 55bc c85c 5fbd 0d56 dfbd
000000b0: b8fb a1bd 97ee 423d b67a b0be 643e dabe
000000c0: 07a8 81be d798 bbbc 8676 9b3f 3597 873f
000000d0: 6052 bf3d dd0c 21bf 68c4 36bf 3776 ecbe
000000e0: a6dc 383e 7b48 8bbd 376c ac3e 7fdd 84bf
000000f0: 9bc9 8b3e fcb7 2ebf f348 65be dd4d 31bf
00000100: 852b e5bd 290c 63bd 95cb 21bf 29fb 383f
00000110: 6079 633c 84cb 1ebf fa87 8abe 029a 9cbe
00000120: b0b7 7ebd 9522 2fbc be5f f7be 13ee 7a3c
00000130: 01b1 973e c5a4 37be 27b5 b0be e13a 24bf
00000140: f513 8dbf 37f4 313f 2d6d 53bf 4c80 403e
00000150: ef23 a73e 8438 f9be 7cc1 d03f 17cd 34be
00000160: 8d17 95be 19b4 033e 82f8 463e 13c4 d73e
00000170: 6469 2dbe a519 efbe 6649 48bf 6d36 0dbf
00000180: f2f7 1f3e 1e8e 4ebd 053e c3be dd1a 453f
00000190: 2b5a 0fbe 3013 38bf 9423 543e 8282 5dbf
000001a0: 901c 663e 9713 a43e 98b1 81be caec 833c
000001b0: 4a6e 1dbe ae3d 05bf d31b a2bf 7154 4bbf
000001c0: a2c7 2fbe 5bc1 30be 9ac4 babf e165 263e
000001d0: 728e 673e 0294 d6be d773 d8bf f820 17bf
000001e0: 0f1f e3be dae5 8b3e 1bf5 19c0 7b68 85bf
000001f0: 4017 043d 4367 00be fd04 27c0 6204 1dbf
00000200: 0ffb cebd e87f 80bd cf00 adbe bb72 4ebf
00000210: f469 f93d 6b17 4ebf 8b71 2d3f 2d75 e4be
00000220: 0f8d 98bf 4b8f 9e3f 0276 2b3f bdff 80bf
00000230: 0c33 92be 0f07 12bf e869 5dbf 8f1e c0be
00000240: 5a41 863f fb61 623f 82f3 6bbe 9e83 f03e
00000250: 6d7f 67be 57dc b03d 82b2 103f 5a1a 8d3e
00000260: 15a2 eebe cfb4 bb3e 70d5 20c0 33d8 62bc
00000270: 554b ae3e 2e09 1fbd f6f3 40bf 615c 84be
00000280: 2be7 913d 29e9 59be ef4f 7b3f 3dd2 123f
00000290: bc79 4cbe b174 44be aa76 cfbf 1256 2ebf
000002a0: 6e41 d7bd de55 77bd 81db 793f f0ff 81be
000002b0: 4ddd 9dbe 87c3 e4be 5cc0 35bf 8048 2bbf
000002c0: 681a ab3d 182b 74bd a4e0 333f 972d 47bf
000002d0: 3dde afbe 9c59 3ebf ec05 093f fa59 dfbe
000002e0: dbeb 953d aecd 983d 7b20 51be 7bb4 efbf
000002f0: d08f 8f3c a2ee 103e bb21 023f b56e 503e
00000300: 1a91 523e 4eb4 f53d 1f6c 303e 5407 4a3d
00000310: d8b8 65bd 1a13 ddbe cb90 8dbe a78a 19bf
00000320: 751b 1fbe 9c34 debe 4ed3 aabe 3f34 dd3f
00000330: e290 3f3e fe28 3f3b 3e95 21c0 1fe7 593e
00000340: 53f6 cc3f dc52 de3e f641 ab3f 1565 a2bf
00000350: 503a 363d 6e15 d33d 7099 9dbe 6061 083e
00000360: 0389 79be fb08 ed3f 75c5 873e 5a4d f83d
00000370: cc75 40be 87b4 5ebe 5934 2ebf 66f3 2ebd
00000380: 672e 453f f072 b6bc 4cae 19c0 eb01 a63f
00000390: 74b6 f33d 324b 86bf 593d cb3e d250 77bf
000003a0: b1fa 4cbd c328 92bd 33ff 973f 186b 89be
000003b0: e80a 95be 79f5 33be 32ac 9cbf 73e2 d7be
000003c0: fc1a cfbe 0197 023f 78c0 6f3f 89a2 0abf
000003d0: 0d2e 9fbe 4afa 5abf 8a28 d83e a447 c2be
000003e0: cad3 cdbd 2548 c0bd f195 7cbf 60a1 8f3f
000003f0: 0211 21be ae8b e2be d752 69bf 80b0 e1be

w_group.0.bias f4 [64]
-0.7621183 -0.63837796 -0.8070995 0.08535114 -0.39542118 -0.57581085 -0.47741428 -0.7959356
-0.51875764 -0.38354576 -0.4910227 -0.79363585 -0.82699 -0.55748963 -0.3509589 -0.064714886
-0.49326804 -0.15402508 -0.11790268 0.07926287 -0.6708596 -0.681468 -0.76823926 -0.1505496
-0.81129855 -0.12121116 -0.17550898 -0.08586 -0.41540843 -0.2551885 -0.41793638 -0.48943937
0.20860656 -0.18006094 0.06754586 -0.0013150278 -0.8568954 -0.08226489 -0.20524903 -0.6950954
-0.3335613 -0.2068616 -0.42946833 -0.07835839 -0.35010287 -0.5009364 -0.2065268 -0.30222708
-0.85425025 0.05681307 -0.21399444 -0.6890073 -0.60794544 -0.5920034 0.012211253 -0.7856244
-0.23716117 -0.5766634 -0.2757221 0.107024394 -0.015697561 -0.5622169 -0.29594782 -0.36734125
00000000: 2f1a 43bf bd6c 23bf 139e 4ebf 94cc ae3d
00000010: a574 cabe 5768 13bf a56f f4be 6fc2 4bbf
00000020: 4dcd 04bf 1c60 c4be 5467 fbbe b82b 4bbf
00000030: 9eb5 53bf a4b7 0ebf e3b0 b3be 3d89 84bd
00000040: a18d fcbe c0b8 1dbe f676 f1bd 9254 a23d
00000050: 74bd 2bbf b074 2ebf 54ab 44bf ad29 1abe
00000060: 43b1 4fbf 8f3d f8bd a0b8 33be 5ed7 afbd
00000070: 6ab0 d4be 11a8 82be c2fb d5be cc97 fabe
00000080: f59c 553e e561 38be 7c55 8a3d 035d acba
00000090: 7f5d 5bbf 7f7a a8bd cd2c 52be c6f1 31bf
000000a0: 8cc8 aabe 87d3 53be 46e3 dbbe 5d7a a0bd
000000b0: af40 b3be 5e3d 00bf c37b 53be 82bd 9abe
000000c0: 25b0 5abf d2b4 683d 5c21 5bbe c862 30bf
000000d0: 50a2 1bbf 898d 17bf b511 483c ae1e 49bf
000000e0: 61da 72be 36a0 13bf 722b 8dbe 9b2f db3d
000000f0: 2c98 80bc 72ed 0fbf 7986 97be 2714 bcbe

w_group.2.weight f4 [32, 64]
0.06764158 -0.30877948 -0.09113038 -0.69187653 -0.22132398 0.06915262 -0.08710487 0.1102907
-0.1453316 -0.031149387 0.16790383 0.100908644 -0.15241766 0.3443176 0.35630634 -0.003753817
0.05376087 -0.19987741 0.16616468 -0.12824605 -0.6470064 -0.2432062 -0.18074863 -0.46026275
0.321588 -0.28800413 -0.07715432 0.67785114 0.42613807 -0.5051325 0.63224155 0.015861848
-0.5486153 -0.7288195 -0.35811314 -0.59000254 -0.056788616 -0.04681502 0.011403726 0.028771177
-0.246137 -0.19986184 -0.0018247925 -0.9069095 0.14683267 -0.1696927 0.082949884 0.31161058
0.6714056 -0.1977716 -0.03893808 0.14107232 -0.94609797 0.8282094 -0.07182216 0.009648859
0.18884632 0.31065464 -0.10010739 -0.3268547 -0.15666042 -0.15638645 -0.10762189 -0.12305837
0.58365303 0.45968473 0.26532975 -0.36681026 -0.63635916 0.1266217 -0.11873434 0.3321949
0.033329234 -0.01221773 0.211722 0.09672341 -0.14728321 0.02071227 0.21014436 -0.14636743
0.37805972 0.16815433 -0.12568142 -0.62081856 -0.28753245 0.25575882 0.2942192 -0.4472713
-0.008219365 0.104014255 0.04413073 -0.07209556 -0.18473074 0.33126232 -0.5892177 -0.011913597
-0.3491921 -0.5762721 -0.23069592 0.011415619 -0.20829685 0.3344624 0.0019629316 0.029877473
-0.0067509315 0.103864215 -0.08035466 -0.38586098 -1.1939441 -0.21588637 0.013877968 -0.57933706
0.29689604 -0.086121134 -0.0012971029 0.16710441 -1.6485418 0.39267105 0.1506166 -0.07606144
-0.04210538 -0.63926303 0.057292063 -0.96677107 -0.08933862 0.044601686 0.056924343 -0.13000882
-0.109069094 0.10487252 -0.061293308 -0.4399065 -0.10242408 0.07453572 0.029235298 0.049993645
0.11305781 -0.11804139 0.036049593 -0.17379476 -0.11568891 -0.11296379 0.15310183 -0.23207653
-0.024465444 -0.09477515 -0.022894952 -0.05212628 -0.15849522 0.13520853 0.11905299 -0.031427857
-0.16659878 -0.11602786 0.06783287 -0.1913742 -0.03995553 -0.09716896 0.02946675 -0.1351288
-0.10827766 -0.0891095 -0.019160898 -0.106018886 -0.0936679 -0.23258246 -0.15934083 -0.17415075
-0.14777365 -0.0048845247 0.11073141 0.039199505 -0.19553952 0.0646376 -0.099720284 0.18594334
-0.019266877 -0.0026661141 -0.029103834 -0.22624642 0.048191767 0.018049352 -0.39143392 0.07799846
0.042374715 -0.057193268 0.032414112 -0.28320003 0.083852656 -0.053845108 -0.07906616 -0.03928867
0.057760164 -0.20701134 0.07451722 -1.037931 -0.3426425 -0.074683055 -0.11036193 -0.15853913
-0.10467451 -0.12777984 -0.31577045 0.004673212 0.07157391 -0.20578155 -0.31253314 -0.22099404
-0.07135397 0.030172665 0.123123124 -0.08612477 -0.010270896 0.012995234 -0.057450168 -0.328389
-0.01678837 -0.013644874 -0.1950611 -0.32894084 0.94155556 -0.21236111 -0.0651629 0.06961656
-0.13266903 -0.07738459 0.19039539 -0.039249353 0.102410994 -0.117789835 0.02129056 0.09398964
-0.04482529 -0.17632595 0.050222114 -0.025347881 0.26269025 0.09330163 -0.30392423 0.07614723
0.16924201 0.10924277 0.09663751 0.21915554 -0.09344766 0.36663082 -0.17939901 0.020801038
0.057085086 0.055441596 0.0016098439 -0.26029986 0.05818225 -0.15519293 0.07941079 -0.097335674
00000000: ab87 8a3d 5818 9ebe 91a2 babd d21e 31bf
00000010: c1a2 62be e49f 8d3d 0a64 b2bd 17e0 e13d
00000020: cfd1 14be 002d ffbc fbee 2b3e 31a9 ce3d
00000030: 6013 1cbe 654a b03e c96d b63e 9902 76bb
00000040: 5c34 5c3d aaac 4cbe 1327 2a3e ef52 03be
00000050: 36a2 25bf 0c0b 79be 2b16 39be 8fa7 ebbe
00000060: 2fa7 a43e 4775 93be 1603 9ebd a787 2d3f
00000070: c52e da3e 5d50 01bf 95da 213f b5f0 813c
00000080: 0d72 0cbf ea93 3abf 9b5a b7be 680a 17bf
00000090: 2e9b 68bd 1bc1 3fbd b2d6 3a3c 88b1 eb3c
000000a0: 560b 7cbe 95a8 4cbe e02d efba 392b 68bf
000000b0: 4e5b 163e ecc3 2dbe a1e1 a93d 6c8b 9f3e
000000c0: 3de1 2b3f a384 4abe 897d 1fbd 4375 103e
000000d0: 7a33 72bf 8805 543f 7f17 93bd 3f16 1e3c
000000e0: ee60 413e 200e 9f3e 1a05 cdbd 8059 a7be
000000f0: 976b 20be c523 20be de68 dcbd 0706 fcbd
00000100: 496a 153f cc5b eb3e 4dd9 873e 8ece bbbe
00000110: 6fe8 22bf 1ea9 013e fd2a f3bd 7315 aa3e
00000120: 3c84 083d e02c 48bc a7cd 583e ec16 c63d
00000130: 69d1 16be c7ac a93c 1530 573e 58e1 15be
00000140: 0b91 c13e a630 2c3e a1b2 00be f7ed 1ebf
00000150: 7437 93be d2f2 823e e6a3 963e be00 e5be
00000160: 84aa 06bc 6d05 d53d 6dc2 343d d6a6 93bd
00000170: 0e2a 3dbe 379b a93e f9d6 16bf 3f31 43bc
00000180: 4fc9 b2be 9186 13bf 8d3b 6cbe 9408 3b3c
00000190: c54b 55be a83e ab3e 87a4 003b 9ac1 f43c
000001a0: eb36 ddbb c3b6 d43d fc90 a4bd 928f c5be
000001b0: 29d3 98bf 5111 5dbe 6b60 633c 6f4f 14bf
000001c0: c202 983e 4760 b0bd 8d03 aaba 6b1d 2b3e
000001d0: 6b03 d3bf 2e0c c93e 3d3b 1a3e 1ac6 9bbd
000001e0: b176 2cbd bea6 23bf 15ab 6a3d 4f7e 77bf
000001f0: 2bf7 b6bd 42b0 363d 8029 693d 0821 05be
00000200: 9e5f dfbd 67c7 d63d b10e 7bbd 6d3b e1be
00000210: b7c3 d1bd 2fa6 983d dd7e ef3c 23c6 4c3d
00000220: da8a e73d afbf f1bd bda8 133d 41f7 31be
00000230: 4fee ecbd 8f59 e7bd bac6 1c3e 78a5 6dbe
00000240: c16b c8bc 7919 c2bd 328e bbbc 5e82 55bd
00000250: 924c 22be 1b74 0a3e 0ed2 f33d 7fba 00bd
00000260: df98 2abe 04a0 edbd f6eb 8a3d 99f7 43be
00000270: 69a8 23bd 8500 c7bd 4164 f13c 345f 0abe
00000280: aec0 ddbd 0b7f b6bd 51f7 9cbc 6e20 d9bd
00000290: f5d4 bfbd 192a 6ebe 3e2a 23be 9354 32be
000002a0: fa51 17be 5d0e a0bb 26c7 e23d a98f 203d
000002b0: 833b 48be b860 843d 263a ccbd ee67 3e3e
000002c0: 92d5 9dbc f9b9 2ebb 2a6b eebc 24ad 67be
000002d0: bb64 453d 3cdc 933c 076a c8be a8bd 9f3d
000002e0: 1c91 2d3d 7d43 6abd a9c4 043d 98ff 90be
000002f0: f1ba ab3d b08c 5cbd 70ed a1bd 28ed 20bd
00000300: ec95 6c3d c8fa 53be 7c9c 983d ecda 84bf
00000310: d66e afbe 6ef3 98bd 7005 e2bd 1558 22be
00000320: 975f d6bd b8d8 02be aaac a1be be21 993b
00000330: 5895 923d 66b8 52be 5804 a0be 434c 62be
00000340: 0822 92bd aa2c f73c fa27 fc3d 2f62 b0bd
00000350: 4347 28bc f6e9 543c de50 6bbd 9a22 a8be
00000360: c487 89bc c08e 5fbc 19be 47be ef6a a8be
00000370: c909 713f 3175 59be 2074 85bd 2193 8e3d
00000380: 64da 07be d07b 9ebd 02f7 423e eec3 20bd
00000390: dbbc d13d cc3b f1bd 8a69 ae3c a47d c03d
000003a0: b99a 37bd ca8e 34be b4b5 4d3d 5ca6 cfbc
000003b0: 567f 863e ed14 bf3d f59b 9bbe 14f3 9b3d
000003c0: c74d 2d3e acba df3d e3e9 c53d 4f6a 603e
000003d0: 7d61 bfbd 09b7 bb3e 60b4 37be f066 aa3c
000003e0: 0dd2 693d ba16 633d 6601 d33a 0646 85be
000003f0: 8350 6e3d e5ea 1ebe 20a2 a23d ed57 c7bd

w_group.2.bias f4 [32]
-1.0051476 -0.5670504 -0.059447825 -0.48794553 0.016181868 -0.99814147 -0.27749267 0.13038641
0.03163786 -0.12918831 0.232451 0.17794564 -0.08404258 -0.13935035 0.051872764 -0.2617453
-0.5410165 -0.45406112 -1.338206 0.33654943 -0.14970607 -0.0104907425 -0.13848965 -0.016844498
-0.0970015 -1.1954557 -0.51873636 -0.15604019 -0.07049514 -0.72716427 -0.2215161 0.18138413
00000000: ada8 80bf 372a 11bf 907f 73bd ffd3 f9be
00000010: d68f 843c 3386 7fbf 8513 8ebe 0484 053e
00000020: b396 013d f149 04be a307 6e3e 6237 363e
00000030: 841e acbd dcb1 0ebe 8978 543d 7b03 86be
00000040: 0f80 0abf b37a e8be 564a abbf 3550 ac3e
00000050: 8c4c 19be 5de1 2bbc 3bd0 0dbe 79fd 89bc
00000060: b9a8 c6bd b104 99bf e8cb 04bf 00c9 1fbe
00000070: c25f 90bd 7027 3abf 1ed5 62be c3bc 393e

w_agents.0.weight f4 [64, 5]
0.0792865 -0.044144653 0.09795176 0.086834 0.07874643 0.034503922 0.009009954 -0.34983343
-0.14486293 -0.46876696 0.0077996533 0.0636177 0.06268144 0.13735364 -0.24030975 -0.029733034
0.07723834 0.18949208 0.11823227 -0.72460407 -0.07462355 -0.05523123 1.0713272 -1.4377146
-0.5037366 -0.37585458 -0.4537138 0.0490884 1.0262514 -0.9225793 0.010917015 0.2225873
-0.18769518 0.5342122 -0.70443094 0.0047025774 -0.049151298 -0.040647145 0.12928642 -0.7361226
-0.20847993 -0.27310434 -0.26242828 -0.46914545 -0.29278085 -0.30064374 0.10407614 -0.117930464
0.12006048 -1.6501005 -0.022485022 0.99405384 1.4409424 0.31264606 -0.6620194 -0.045247745
-0.23681027 1.6623119 2.7641351 -0.76972705 0.08872583 -0.0908105 -1.6236632 1.4442803
-0.6223166 -0.007934764 0.024872575 -0.01750619 0.23424439 0.03188152 0.11229801 0.8460162
0.8465554 1.3631434 -1.9416465 0.017067699 0.2858351 0.3574335 0.69012976 -1.0502659
0.29035804 -0.37696576 -1.5276669 1.1285493 -1.1336439 -0.54535365 0.6810216 1.3550365
1.0857291 -0.7757746 -0.6047534 -0.10397901 0.7402167 2.5900414 -2.1524854 -0.011146353
0.07869689 -0.020888856 0.30673295 -0.6749175 0.01063381 -0.013834172 -0.14170797 0.42102647
-0.911871 -0.5336404 1.0677906 0.20452504 1.9428998 -0.84314525 -0.098962806 0.24855463
-0.10272866 0.5954929 -0.49331382 -0.018310137 1.0914061 0.20031828 2.6229846 -1.7295511
0.032148052 -0.01733686 0.15429643 1.5810632 -1.237379 0.07780609 0.14281003 -0.031598076
0.28442103 -0.5220289 0.09022987 0.18672101 -0.070794985 0.383585 -0.61123 0.013271279
1.1068003 0.6393627 0.42839214 -1.4308684 -0.31798208 0.75740606 -0.1043291 0.23732509
-1.5049376 0.4189753 -0.026785342 -0.4866871 1.688337 -0.71530616 -0.37398374 1.0484418
-0.5042776 1.8090342 -1.1457249 0.08015269 0.07382011 0.19828534 0.008287714 -0.57937944
0.048764482 0.6966588 -1.2837391 1.735528 -0.9516876 -0.20155841 1.0797353 1.1935238
2.247626 -1.094834 -0.1128028 1.0694829 0.08136187 1.2542696 -0.263096 0.14486507
-0.39424264 -1.8559242 1.2814035 -1.3465283 -0.44299132 1.1970804 0.76278406 -0.052101783
-0.5323994 -0.14983042 1.3656011 -0.33411783 0.9985631 -1.1329293 0.10812702 0.35467666
0.17658411 -0.84446263 -0.4463979 0.016636388 0.28405112 0.6291499 0.3107099 -1.6208518
-0.013791357 0.12895513 0.18122521 0.48784396 -0.5997622 -0.20933178 1.1490002 0.13246514
-0.51782745 -0.26522326 -0.3663715 1.1135596 -0.4908218 -1.4672248 -0.7051414 0.71705323
-0.19156322 -0.81909466 -1.037244 -0.7508258 0.30022332 0.24905986 -0.7789043 2.4109268
-0.8585334 0.32265472 1.477046 -0.25380853 1.8382139 -0.17892137 -0.25560996 1.0619652
-0.4244502 2.7434592 -1.4541125 0.09532739 0.33142668 -0.99617237 0.131381 -0.98227984
0.7123999 0.91747355 -0.1381244 2.2322834 -1.3858136 0.15782465 -0.5911954 -1.5376053
0.40028548 -1.256216 0.032778483 0.0014607981 0.3372038 -1.671279 -0.2775612 -0.17213565
00000000: f660 a23d 06d1 34bd ef9a c83d 06d6 b13d
00000010: cf45 a13d fc53 0d3d 7c9e 133c 5e1d b3be
00000020: f356 14be 3902 f0be 3c94 ff3b ff49 823d
00000030: 205f 803d 6fa6 0c3e c213 76be b192 f3bc
00000040: 232f 9e3d 360a 423e c323 f23d a77f 39bf
00000050: 3bd4 98bd 243a 62bd 4021 893f 0807 b8bf
00000060: e2f4 00bf 0370 c0be 2d4d e8be eb10 493d
00000070: 355c 833f 282e 6cbf 48dd 323c eded 633e
00000080: 2a33 40be 21c2 083f 9655 34bf 1418 9a3b
00000090: df52 49bd 9f7d 26bd a963 043e 8872 3cbf
000000a0: c37b 55be 55d4 8bbe 005d 86be d533 f0be
000000b0: 5fe7 95be faed 99be df25 d53d 8785 f1bd
000000c0: 45e2 f53d 7e36 d3bf 8232 b8bc 507a 7e3f
000000d0: cd70 b83f 2513 a03e 1a7a 29bf b355 39bd
000000e0: 647e 72be a3c6 d43f 97e7 3040 d50c 45bf
000000f0: e3b5 b53d dbfa b9bd 32d4 cfbf 2dde b83f
00000100: 2450 1fbf d000 02bc 92c1 cb3c 2469 8fbc
00000110: c3dd 6f3e 3296 023d 80fc e53d 8594 583f
00000120: dbb7 583f 7c7b ae3f df87 f8bf 8fd1 8b3c
00000130: fa58 923e 8601 b73e 58ac 303f 1d6f 86bf
00000140: cfa9 943e a801 c1be 978a c3bf 4e74 903f
00000150: 3e1b 91bf 4c9c 0bbf 6e57 2e3f d671 ad3f
00000160: 2cf9 8a3f 2a99 46bf 1ed1 1abf f2f2 d4bd
00000170: d77e 3d3f 3dc3 2540 52c2 09c0 319f 36bc
00000180: d62b a13d 1b1f abbc 1a0c 9d3e 65c7 2cbf
00000190: 6f39 2e3c b9a8 62bc e51b 11be c890 d73e
000001a0: 6170 69bf a89c 08bf 5dad 883f 036f 513e
000001b0: f1b0 f83f 5ed8 57bf 03ad cabd 1b85 7e3e
000001c0: 6763 d2bd 3972 183f a193 fcbe 24ff 95bc
000001d0: 32b3 8b3f 3c20 4d3e fbde 2740 ee61 ddbf
000001e0: adad 033d 0806 8ebc e2ff 1d3e 4760 ca3f
000001f0: 6f62 9ebf cd58 9f3d cb3c 123e fc6c 01bd
00000200: a29f 913e b0a3 05bf 70ca b83d cb33 3f3e
00000210: f6fc 90bd 4165 c43e 9279 1cbf c76f 593c
00000220: a2ab 8d3f 46ad 233f 3756 db3e b226 b7bf
00000230: 8cce a2be 5de5 413f 7faa d5bd 5905 733e
00000240: cca1 c0bf ee83 d63e ef6c dbbc 0d2f f9be
00000250: 6d1b d83f 4e1e 37bf cc7a bfbe 5733 863f
00000260: 5618 01bf 6f8e e73f 1da7 92bf 1827 a43d
00000270: ff2e 973d 500b 4b3e 31c9 073c 3652 14bf
00000280: 44bd 473d 3b58 323f 9051 a4bf c825 de3f
00000290: cca1 73bf 5465 4ebe c434 8a3f 63c5 983f
000002a0: 1bd9 0f40 8523 8cbf 2805 e7bd d1e4 883f
000002b0: 0da1 a63d e88b a03f 85b4 86be 8257 143e
000002c0: 2cda c9be ed8e edbf 0805 a43f 0a5b acbf
000002d0: c2cf e2be ee39 993f d145 433f ae68 55bd
000002e0: 544b 08bf 256d 19be 04cc ae3f 7e11 abbe
000002f0: d5a1 7f3f d403 91bf b371 dd3d 2e98 b53e
00000300: 77d2 343e b42e 58bf 448e e4be 0949 883c
00000310: 266f 913e f80f 213f 5e15 9f3e 1278 cfbf
00000320: 25f5 61bc d00c 043e 1a93 393e afc6 f93e
00000330: 048a 19bf 125b 56be 7012 933f f1a4 073e
00000340: 5790 04bf 58cb 87be 0c95 bbbe 1f89 8e3f
00000350: ff4c fbbe 06ce bbbf 2684 34bf cd90 373f
00000360: 2629 44be 30b0 51bf 69c4 84bf 1f36 40bf
00000370: dfb6 993e 8c09 7f3e 4666 47bf a04c 1a40
00000380: d8c8 5bbf 0033 a53e d80f bd3f 31f3 81be
00000390: 984a eb3f 2a37 37be 4fdf 82be 7aee 873f
000003a0: 8951 d9be d694 2f40 5c20 babf 023b c33d
000003b0: c2b0 a93e 2705 7fbf be88 063e b176 7bbf
000003c0: d75f 363f 8cdf 6a3f 7c70 0dbe bbdd 0e40
000003d0: 5762 b1bf c99c 213e 9558 17bf 40d0 c4bf
000003e0: 38f2 cc3e b0cb a0bf bb42 063d 4078 bf3a
000003f0: faa5 ac3e 78ec d5bf 801c 8ebe 5444 30be

w_agents.0.bias f4 [64]
-0.7516882 -0.40438816 -0.3727953 -0.28773284 -1.0605706 -1.1504859 -0.7768284 -0.3890021
-0.015800059 -1.4260731 -0.68912363 -1.0781777 -0.9143258 -0.3255194 -1.6373248 -1.0910009
-1.3573389 -0.7133577 -1.9160863 -0.16281846 -0.35554725 -0.7517046 -0.9711787 -1.1883124
-1.3809556 -0.518152 -0.7102211 -1.2606447 -1.5190064 -0.425969 -1.463463 -0.56442356
-0.7328573 -1.2787858 -0.5563323 -1.5243759 -0.6812718 -1.4291079 0.034833603 -1.3194695
-0.5789227 0.063951954 -1.1533856 -1.1326519 -1.1762402 -0.7730109 -0.9536646 -0.34446222
-0.7604981 -1.426653 -1.0680441 -0.6828079 -0.18570553 -0.98278517 -0.5906295 -1.4767635
-0.77120394 -0.23790963 -0.8048005 -0.3636691 0.021765023 -1.0979514 -1.6537489 -0.4362021
00000000: a36e 40bf f70b cfbe 07df bebe b851 93be
00000010: c7c0 87bf 1f43 93bf 3ade 46bf 492b c7be
00000020: 206f 81bc 9089 b6bf 686a 30bf ba01 8abf
00000030: 4111 6abf 7baa a6be dc93 d1bf eba5 8bbf
00000040: 48bd adbf 9c9e 36bf 5142 f5bf e2b9 26be
00000050: 4a0a b6be b66f 40bf 2b9f 78bf 9f1a 98bf
00000060: 27c3 b0bf 9ca5 04bf 0dd1 35bf ce5c a1bf
00000070: cd6e c2bf 9c18 dabe c152 bbbf 107e 10bf
00000080: 899c 3bbf 41af a3bf cb6b 0ebf c01e c3bf
00000090: d467 2ebf 02ed b6bf aead 0e3d 60e4 a8bf
000000a0: 4734 14bf 3ef9 823d 24a2 93bf bdfa 90bf
000000b0: 0a8f 96bf 0be4 45bf 5d23 74bf 5a5d b0be
000000c0: 01b0 42bf 919c b6bf abb5 88bf 80cc 2ebf
000000d0: 9729 3ebe cf97 7bbf 7f33 17bf 9606 bdbf
000000e0: 9f6d 45bf 959e 73be 6807 4ebf d632 babe
000000f0: 904c b23c ac89 8cbf 0bae d3bf e255 dfbe

w_agents.2.weight f4 [32, 64]
0.03986367 -0.12665978 -0.026514037 -0.033965882 -0.12901053 0.009757852 -0.07392556 0.027306775
0.010729487 -0.14815727 0.024079703 0.12459912 -0.021696651 0.028898446 0.011749919 -0.06026961
-0.08716609 -0.08037001 -0.13352239 -0.07031565 -0.123697914 -0.106928356 -0.23407242 -0.17836238
-0.08060872 0.06601736 0.0035542431 -0.118350595 -0.19649449 0.016279396 0.020163642 -0.007119149
0.049463887 -0.102358826 -0.029738165 -0.09776963 -0.20952365 -0.13349588 -0.113793865 -0.16341743
-0.06919962 -0.13665383 -0.016251646 0.08045979 0.016615774 -0.06539125 -0.20721741 -0.017353987
-0.013363493 0.004420883 -0.13459021 -0.23406059 -0.01718351 -0.021679297 0.013598085 -0.1650891
0.017165918 -0.075773865 -0.20339532 0.07233302 -0.018704562 -0.016813325 -0.046611026 -0.18335593
0.05373421 -0.2235033 -0.5096895 -0.19214843 -0.6830066 -0.03517188 0.37060428 0.021356372
-0.17412224 -0.1471241 0.355313 0.4331558 -0.29789943 0.021097373 -1.0648221 -0.15031111
0.15224 0.2933535 0.52181417 0.15200764 -0.052151725 -0.5611531 0.18911129 -0.30264527
1.4741329 -0.10748686 0.002125275 -0.39201334 0.0809164 0.20813327 -0.84190273 -0.07588311
-0.86029905 -3.5294821 -0.061398007 -0.68834615 1.0367806 -2.0754042 -0.8866489 -0.36614114
-0.11560714 -1.5582474 -3.6533797 0.32704604 0.18069182 -1.1057701 -0.42009437 1.7830218
0.72110647 -0.15328379 0.32756957 0.42996046 0.0005491029 0.48112455 0.06334585 0.7416237
-1.4222013 0.14715093 -1.5219891 -0.39999476 -0.023385199 0.20058362 -0.04410374 0.47359258
-0.0809718 -0.28911164 -0.02087616 0.4040458 -0.20828773 -0.014884129 -0.014281424 -0.56758845
-0.034919716 0.16673589 -0.03293936 -0.064334504 0.25992823 -0.31873956 -0.071659885 0.24912758
-0.1026475 -0.5640213 -0.045351055 0.2159116 -0.35095903 -0.29022974 -0.14405023 -0.10140736
0.066445015 -0.4191199 -0.06311757 0.023502598 0.052965723 -0.41557834 -0.26850882 0.08451236
0.035193488 -0.33439112 -0.011938554 0.010865494 -0.030343544 -0.21018903 -0.16269028 0.0021700577
0.18049341 0.03824837 -0.1353842 -0.53158844 -0.3344237 -0.2796491 -0.43299824 -0.15448931
0.021135492 -0.03909552 -0.13888262 -0.042670168 -0.12475219 0.05365558 -0.113084406 0.054315537
-0.040074795 0.08726249 -0.029784266 0.22524679 0.046927847 0.19376609 -0.21116546 -0.16231076
-0.046927 -0.004243463 -0.011408842 0.2356649 -0.7799178 -0.05259589 0.22268859 0.029655673
-0.19171995 -0.04967301 -0.5666662 -0.30754486 0.10959355 -0.041683316 -3.05731 0.20038274
0.5229331 0.11149818 -0.57331324 0.030094173 0.0598054 -0.037102632 0.28839645 0.20516819
-0.59137833 0.031954512 0.21293318 -0.663279 -0.96554065 0.045789935 0.7806043 0.03255216
0.060681183 0.70602334 -0.41282538 -0.6594957 0.27406022 0.2409368 -0.31047264 -0.78095365
0.01774744 -0.15827522 0.17907147 0.030724455 -0.19792801 0.31815174 0.3791899 -0.43330988
0.21851149 0.316575 -0.5111646 0.89798695 0.09289382 0.17029934 0.042917535 -0.23099239
0.0021058978 -0.08206876 -0.19413684 0.10706739 0.05781751 0.1815994 -1.3488216 0.047635254
00000000: 1648 233d 1ab3 01be f733 d9bc cf1f 0bbd
00000010: 561b 04be 66df 1f3c 4966 97bd 75b2 df3c
00000020: bbca 2f3c 8ab6 17be cc42 c53c d32d ff3d
00000030: 2dbd b1bc 6fbc ec3c bb82 403c 44dd 76bd
00000040: 2384 b2bd 0899 a4bd 18ba 08be a701 90bd
00000050: 5555 fdbd 41fd dabd aeb0 6fbe a1a4 36be
00000060: 2f16 a5bd 1c34 873d 4eee 683b cc61 f2bd
00000070: da35 49be 5e5c 853c 392e a53c c047 e9bb
00000080: a59a 4a3d 81a1 d1bd 749d f3bc 723b c8bd
00000090: 5e8d 56be 25b3 08be c20c e9bd e656 27be
000000a0: 88b8 8dbd fbee 0bbe 2c22 85bc 1ac8 a43d
000000b0: ce1d 883c d9eb 85bd cd30 54be f329 8ebc
000000c0: 8df2 5abc 0edd 903b 04d2 09be 94ad 6fbe
000000d0: 6fc4 8cbc c898 b1bc 81ca 5e3c 1e0d 29be
000000e0: 8a9f 8c3c 542f 9bbd dd46 50be 5623 943d
000000f0: 4f3a 99bc 19bc 89bc 34eb 3ebd a8c1 3bbe
00000100: 6718 5c3d 0dde 64be 037b 02bf 8fc2 44be
00000110: 85d9 2ebf 6410 10bd d8bf bd3e 8ff3 ae3c
00000120: 1a4d 32be b3a7 16be 96eb b53e 99c6 dd3e
00000130: 4686 98be 66d4 ac3c 174c 88bf 28eb 19be
00000140: cde4 1b3e 6e32 963e 9d95 053f e4a7 1b3e
00000150: 0c9d 55bd bba7 0fbf 64a6 413e 52f4 9abe
00000160: 63b0 bc3f 1222 dcbd 3348 0b3b f9b5 c8be
00000170: 7fb7 a53d e320 553e f086 57bf 9b68 9bbd
00000180: 8f3c 5cbf 09e3 61c0 7a7c 7bbd 7437 30bf
00000190: 3ab5 843f 6cd3 04c0 6cfb 62bf da76 bbbe
000001a0: 70c3 ecbd a774 c7bf f9d0 69c0 9472 a73e
000001b0: 4707 393e e089 8dbf 9c16 d7be 0f3a e43f
000001c0: 6f9a 383f 6df6 1cbe 33b7 a73e c723 dc3e
000001d0: acf1 0f3a f555 f63e 78bb 813d 0ddb 3d3f
000001e0: b10a b6bf bcae 163e 8ad0 c2bf 1dcc ccbe
000001f0: 5192 bfbc cb65 4d3e 20a6 34bd ba7a f23e
00000200: 8bd4 a5bd 7106 94be 7b04 abbc 17df ce3e
00000210: 6149 55be 90dc 73bc a2fc 69bc 7a4d 11bf
00000220: fa07 0fbd d0bc 2a3e 6ceb 06bd cfc1 83bd
00000230: 5015 853e d531 a3be 6bc2 92bd 4d1b 7f3e
00000240: da38 d2bd b363 10bf 07c2 39bd ee17 5d3e
00000250: e7b0 b3be fe98 94be e781 13be a9ae cfbd
00000260: 5314 883d e296 d6be c943 81bd 8588 c03c
00000270: 96f2 583d afc6 d4be fd79 89be d114 ad3d
00000280: 0c27 103d 5035 abbe ed99 43bc 2f05 323c
00000290: 0693 f8bc cb3b 57be 4898 26be 8737 0e3b
000002a0: 44d3 383e 53aa 1c3d 28a2 0abe 2e16 08bf
000002b0: 9539 abbe 2b2e 8fbe f2b1 ddbe 7232 1ebe
000002c0: 5724 ad3c a022 20bd 3f37 0ebe eac6 2ebd
000002d0: 147e ffbd f4c5 5b3d cc98 e7bd f879 5e3d
000002e0: 7825 24bd adb6 b23d 22fe f3bc 18a7 663e
000002f0: 6a37 403d 9e6a 463e c23b 58be cb34 26be
00000300: 8736 40bd bf0c 8bbb 27ec 3abc 2452 713e
00000310: b1a8 47bf ca6e 57bd 7a08 643e 74f0 f23c
00000320: 3c52 44be ed75 4bbd 0911 11bf 8576 9dbe
00000330: 9572 e03d 20bc 2abd f8aa 43c0 2231 4d3e
00000340: f2de 053f 2859 e43d a8c4 12bf 0e88 f63c
00000350: 82f6 743d eef8 17bd b3a8 933e 9c17 523e
00000360: 9264 17bf bce2 023d 280b 5a3e a7cc 29bf
00000370: ac2d 77bf 3a8e 3b3d afd5 473f 6a55 053d
00000380: d58c 783d f2bd 343f d95d d3be b6d4 28bf
00000390: 9f51 8c3e 23b8 763e 45f6 9ebe 94ec 47bf
000003a0: 1463 913c e612 22be 835e 373e dab1 fb3c
000003b0: a4ad 4abe c9e4 a23e 2e25 c23e cbda ddbe
000003c0: 7ac1 5f3e 1e16 a23e afdb 02bf 79e2 653f
000003d0: 1d3f be3d f362 2e3e 4cca 2f3d 4589 6cbe
000003e0: 1a03 0a3b ab13 a8bd cfcb 46be 2646 db3d
000003f0: 0ed2 6c3d 31f5 393e 30a6 acbf 2f1d 433d

w_agents.2.bias f4 [32]
-0.25191534 -0.49583986 -0.48992574 0.69590026 0.047049314 -0.14009896 -0.37415415 0.12054611
-0.079459526 -0.22358027 -0.17361337 -0.17714138 0.39013565 -0.25894094 -0.07335631 0.35952654
0.14967993 -0.24467587 -0.17563172 -0.16702446 -0.45452935 -0.3926522 -0.23411518 -0.01773652
-0.46220618 0.016671179 -0.7926263 -0.33372664 0.0964945 -0.011065777 0.15963879 -0.75437194
00000000: 0cfb 80be b9de fdbe 8cd7 fabe 8526 323f
00000010: c8b6 403d 1a76 0fbe 2291 bfbe e1e0 f63d
00000020: adbb a2bd 3af2 64be b4c7 31be 8d64 35be
00000030: dcbf c73e e893 84be d53b 96bd dd13 b83e
00000040: b245 193e 508c 7abe cdd8 33be 7608 2bbe
00000050: 12b8 e8be b609 c9be e4bb 6fbe 2e4c 91bc
00000060: 4aa6 ecbe ff91 883c 8fe9 4abf 38de aabe
00000070: e99e c53d 3c4d 35bc 5a78 233e 851e 41bf

Ws.0 f4 [32, 32]
-0.67786336 0.31761956 0.15002432 0.7064041 -0.69650203 1.0279117 -0.91944444 -1.2090443
-1.8100237 1.8437109 1.0862815 -0.5708536 1.2732937 0.7899672 0.53830093 0.27185968
0.6743986 0.2680496 -0.6367451 0.9638684 -0.269856 -0.8090416 -2.1534297 0.70025927
-1.2602348 -1.5673046 -1.1526742 0.65917337 0.7174459 1.6896522 0.27516192 -0.26638794
3.0366917 -2.6440115 0.08964348 -2.0917184 -0.34092182 0.63254887 -0.6233489 0.2060987
0.17420888 -1.0157652 0.8013261 1.4079957 0.3988085 1.7940295 -0.0422981 -0.07613468
-0.9948492 0.21860623 0.302003 -4.07195 1.005133 -0.12778692 1.0406572 0.09164365
0.34839463 -4.0399957 -1.464364 -1.2138474 0.32966697 -5.488555 0.28732517 -1.2720431
0.5968528 0.4143004 0.012345889 0.68521905 1.2864275 0.19013731 -1.4844936 2.6464734
-0.19945227 1.8653353 -0.7503687 -0.031532984 -0.103202224 0.9320115 -0.19816871 -1.9060404
-0.45296124 0.42052856 0.03975262 2.5040345 -1.0986949 -0.55104536 -1.1127964 1.1361201
0.11935752 0.34282807 -0.24665028 1.0881592 0.08083771 -2.730419 -1.043926 -0.504458
-1.1799675 0.2046923 0.7766139 -0.22932664 -0.6965376 0.69749093 0.6936525 -0.5520798
0.68426365 -0.71441036 0.03809493 0.13221641 0.06445864 -1.1307479 0.2887807 -1.2196695
-0.68457276 1.7178324 -0.64610803 -1.4539205 -0.81865907 -0.3340577 2.4024863 -0.10855671
0.30030382 -0.054521948 0.73342425 0.8706336 1.0772641 -0.9784238 0.23009782 0.58376074
0.43599114 -4.9302783 -2.2495892 0.15546863 -0.94788474 1.1811705 -1.228482 -1.360078
0.07212575 0.95916414 1.7895979 0.47401407 -0.41276428 -0.5994222 -0.2793398 1.1277704
1.0782698 0.14528288 0.00080814713 2.2398107 0.867783 -1.2343466 -1.3772258 -0.89410883
0.92945623 0.95047885 -0.6471516 -0.5175717 -0.49574122 1.5550104 -0.5965922 -0.067365244
-1.2606627 -1.4054466 0.7414874 -1.1924707 -1.4187741 1.5238636 1.243315 -0.22719416
-2.0351453 1.4985373 0.56878453 0.15750386 1.3480861 -1.0662837 -1.3315758 -3.8837047
-1.0828356 0.37135318 0.8100731 1.2145787 1.3599515 -0.44461107 -2.9983466 -0.57194865
0.4073691 -1.5476125 -0.18653958 -0.48157322 -3.5191963 -1.536942 1.0737709 -1.0831864
-0.21381994 0.20896824 -1.6495442 -4.340854 -1.3314763 -1.4866321 -1.1043204 0.047663886
0.78670347 -0.023266356 1.0137744 -0.10595004 -4.5746117 -0.26623046 1.5577735 -6.5587945
-2.0612133 0.15479837 0.4682949 -4.084444 1.1022114 -2.5938585 0.37301987 1.4230065
1.2625881 -0.24059686 -0.6841144 -4.777583 0.5675729 0.4114034 -0.90594554 -1.7718072
0.35238457 -0.4859927 -1.9109437 0.03589669 0.033352595 -1.4941518 0.0355021 0.3047081
1.1630751 0.36933556 0.5015094 0.098119564 -1.5383295 0.6021765 1.3998215 -2.4075582
-2.2624097 -1.481363 -0.28773776 -0.1099378 -2.0913494 1.4889042 -0.07175742 -1.0310929
-1.3092752 0.83784986 0.4511843 -0.15535063 1.1227069 -2.4486465 -0.43259495 -0.7023895
00000000: 7488 2dbf 089f a23e fa9f 193e e6d6 343f
00000010: f54d 32bf 9c92 833f b660 6bbf f7c1 9abf
00000020: dbae e7bf b8fe eb3f 460b 8b3f 7623 12bf
00000030: 4afb a23f 4a3b 4a3f 17ce 093f 3131 8b3e
00000040: 63a5 2c3f cc3d 893e ba01 23bf 14c0 763f
00000050: 912a 8abe 5a1d 4fbf cbd1 09c0 3144 333f
00000060: 604f a1bf 709d c8bf d48a 93bf 96bf 283f
00000070: 89aa 373f 8646 d83f 06e2 8c3e 0064 88be
00000080: 2859 4240 7c37 29c0 0097 b73d b7de 05c0
00000090: 4e8d aebe b9ee 213f cb93 1fbf 8a0b 533e
000000a0: d063 323e 9804 82bf b523 4d3f 3439 b43f
000000b0: a130 cc3e c2a2 e53f c640 2dbd 80ec 9bbd
000000c0: 70ae 7ebf 50da 5f3e 23a0 9a3e 6a4d 82c0
000000d0: 33a8 803f 93da 02be 4134 853f aaaf bb3d
000000e0: c860 b23e a547 81c0 4870 bbbf 5a5f 9bbf
000000f0: 1cca a83e 3ea2 afc0 491c 933e 4fd2 a2bf
00000100: 58cb 183f 2f1f d43e 6946 4a3c 846a 2f3f
00000110: a8a9 a43f 5bb3 423e e303 bebf d25f 2940
00000120: 373d 4cbe 4fc3 ee3f 2a18 40bf bb28 01bd
00000130: b05b d3bd 4e98 6e3f bdec 4abe 22f9 f3bf
00000140: 89ea e7be 854f d73e a5d3 223d 1a42 2040
00000150: 09a2 8cbf 4f11 0dbf 1d70 8ebf 626c 913f
00000160: b771 f43d 2987 af3e e491 7cbe cd48 8b3f
00000170: 3e8e a53d 2fbf 2ec0 5e9f 85bf 2924 01bf
00000180: 2d09 97bf dc9a 513e 2bd0 463f 9ad4 6abe
00000190: 4a50 32bf c48e 323f 3693 313f 1a55 0dbf
000001a0: e72b 2f3f 99e3 36bf 6e09 1c3d bd63 073e
000001b0: e402 843d 59bc 90bf 10db 933e 211e 9cbf
000001c0: 2940 2fbf efe1 db3f 5667 25bf 111a babf
000001d0: a493 51bf 9c09 abbe 56c2 1940 fb52 debd
000001e0: 6cc1 993e 6852 5fbd b1c1 3b3f d8e1 5e3f
000001f0: cae3 893f fb79 7abf c39e 6b3e 5871 153f
00000200: 3b3a df3e d7c4 9dc0 45f9 0fc0 2b33 1f3e
00000210: 93a8 72bf 9830 973f e63e 9dbf 0917 aebf
00000220: aab6 933d c88b 753f 8b11 e53f f9b1 f23e
00000230: d755 d3be bc73 19bf a005 8fbe c85a 903f
00000240: bf04 8a3f 09c5 143e d6d9 533a 0f59 0f40
00000250: 0727 5e3f 12ff 9dbf ef48 b0bf 51e4 64bf
00000260: d8f0 6d3f 9552 733f baab 25bf 947f 04bf
00000270: cbd1 fdbe 950a c73f 44ba 18bf caf6 89bd
00000280: 655d a1bf ade5 b3bf 1ed2 3d3f e1a2 98bf
00000290: 649a b5bf f60d c33f f224 9f3f 96a5 68be
000002a0: d23f 02c0 12d0 bf3f dd9b 113f b148 213e
000002b0: 168e ac3f fc7b 88bf 1371 aabf 9e8e 78c0
000002c0: 5b9a 8abf 0122 be3e f360 4f3f 5177 9b3f
000002d0: e412 ae3f 10a4 e3be e9e4 3fc0 3a6b 12bf
000002e0: af92 d03e 2b18 c6bf 3b04 3fbe c490 f6be
000002f0: 833a 61c0 84ba c4bf 5371 893f daa5 8abf
00000300: 9df3 5abe c5fb 553e 4424 d3bf 47e8 8ac0
00000310: d16d aabf f649 bebf 5f5a 8dbf 353b 433d
00000320: 6665 493f 1699 bebc 5cc3 813f 56fc d8bd
00000330: 3863 92c0 5c4f 88be 1f65 c73f a5e1 d1c0
00000340: ebea 03c0 7783 1e3e 59c4 ef3e c4b3 82c0
00000350: 4315 8d3f c701 26c0 76fc be3e 1425 b63f
00000360: 7d9c a13f 065f 76be 1f22 2fbf f6e1 98c0
00000370: 754c 113f 77a3 d23e 0cec 67bf 94ca e2bf
00000380: c06b b43e 09d4 f8be ce99 f4bf 6808 133d
00000390: bb9c 083d 5e40 bfbf a66a 113d b302 9c3e
000003a0: a5df 943f 8d19 bd3e ec62 003f e9f2 c83d
000003b0: fbe7 c4bf 3d28 1a3f 5a2d b33f 6f15 1ac0
000003c0: 52cb 10c0 4e9d bdbf 5d52 93be 1227 e1bd
000003d0: abd8 05c0 6a94 be3f 8ef5 92bd dafa 83bf
000003e0: 5496 a7bf 547d 563f a101 e73e 3c14 1fbe
000003f0: dcb4 8f3f a0b6 1cc0 167d ddbe cccf 33bf

Ws.1 f4 [32, 32]
-0.23701476 1.0352138 0.52355844 0.6224674 0.41550896 -1.2237782 -1.3211998 -0.44595
-1.3960648 0.03577233 -3.6682737 -0.51770586 -0.58688 1.4249246 1.3930079 -0.33982107
0.7316251 1.1163807 0.07871895 -2.411915 -1.6239675 1.1818117 0.8838078 -1.3220489
-3.570127 1.1031487 -1.8569355 -1.8972056 -1.7726997 -2.9611032 -1.6735681 0.94829935
-0.79482496 -0.23208477 -0.9588794 -4.795423 -1.3121848 -0.6961139 0.06505491 -0.33846238
0.88022614 0.64293706 0.2987472 -2.5450246 2.0141141 -2.053485 -0.8623871 -0.886721
-1.1461712 -1.2561842 -0.7585613 -0.7497701 0.19400056 0.006592185 -0.42167747 -1.2890453
-0.8063563 -2.4112868 -2.1876314 0.15047616 -1.6859615 -0.06440604 -0.8891515 -1.1959842
-2.6607404 0.41417295 0.5863106 0.64724755 -1.2682712 0.1272451 0.18958198 0.86090803
-0.70848197 -2.4647632 -1.4182214 1.6604049 -0.8144647 1.1454141 -0.56761134 0.5149355
0.49196193 -1.2958809 -2.7535033 -1.0204247 0.98147476 2.4557955 -0.48601714 -2.0489273
1.9942092 3.5101523 -1.123054 -0.76218224 -0.004243222 -1.0658638 -0.048060965 0.4896091
-0.8269557 -0.09008153 -0.9260419 -1.2551131 1.4382511 -1.120981 2.1023674 -2.772291
-0.93791795 -2.4178011 0.4083139 1.0920483 -0.35126477 1.1127074 -1.6488518 -0.20025685
-1.5732216 0.33892047 -0.021856131 -3.2456536 -2.4590254 -1.3700075 0.9359006 -1.0137815
-3.9741123 1.3655478 1.8977681 0.8769354 1.0640725 -0.74921274 1.5924847 -1.797758
1.7451079 -0.36701143 -0.99225175 -0.591722 1.212776 1.294283 0.77567166 -5.6796527
-0.3018411 0.9030455 1.6152531 -2.193803 0.85937387 -0.68500596 0.8377999 1.9112403
0.1919764 0.832368 -0.4795486 -2.9071429 -1.5318586 -0.010614865 -1.3118149 -6.0421724
2.0189903 -0.42824572 -1.1829726 1.5005271 -2.9835906 -3.7472844 -2.118992 -0.85609984
0.47561657 -0.3518147 0.7080962 -1.3443183 -2.271044 -0.8415786 -0.8507902 0.56114596
-0.3891614 0.3345317 -4.5695567 -2.2915046 -0.96235335 0.17754932 1.1311594 0.1915539
-2.8767154 -0.5266211 -1.8605576 -1.259053 0.08710665 -0.9176516 0.7461549 -2.432954
0.7087732 0.8343782 0.3405696 -0.56920475 1.0214318 1.3317561 -0.7816237 -2.55824
0.5130781 -0.7110136 -1.9826846 0.51322806 -0.30741948 0.05192292 -0.560569 0.46878222
-1.1597704 0.22524746 0.12432822 1.1803415 -0.45551822 -0.3261994 -1.8088164 0.033284817
0.06745673 1.6775894 -1.5007144 1.1231252 0.14298226 -0.76513505 0.43592444 -0.12196037
0.27198434 -1.8987533 -0.044749632 -0.7207968 1.0469253 0.13368495 -1.7332956 -1.1214569
-2.0536718 0.12576306 1.9230771 0.023933262 -0.6868742 0.11174101 -0.55583626 -1.9149088
-0.43746227 -2.3975964 0.42544332 -0.021284113 -0.3752472 -0.19981775 1.492981 -1.7085462
-1.6334858 0.039960165 1.5387608 -2.299222 0.48251793 -2.7870238 2.1778204 0.45099095
-0.29956996 -0.98123914 -0.028428996 0.4972075 0.78150254 -0.67240036 0.30960974 -0.07494458
00000000: ffb3 72be e381 843f ed07 063f 065a 1f3f
00000010: 97bd d43e c4a4 9cbf 131d a9bf 8f53 e4be
00000020: 40b2 b2bf 0286 123d ffc4 6ac0 5f88 04bf
00000030: c53d 16bf ee63 b63f 154e b23f 07fd adbe
00000040: c84b 3b3f 90e5 8e3f 6737 a13d d15c 1ac0
00000050: 2bde cfbf 9b45 973f 3a41 623f e638 a9bf
00000060: f67c 64c0 fa33 8d3f 10b0 edbf a2d7 f2bf
00000070: d3e7 e2bf b782 3dc0 7b37 d6bf bfc3 723f
00000080: a679 4bbf a1a7 6dbe 1f79 75bf 1b74 99c0
00000090: acf5 a7bf 8534 32bf 823b 853d f14a adbe
000000a0: 8056 613f 8697 243f 65f5 983e afe1 22c0
000000b0: 3fe7 0040 4c6c 03c0 67c5 5cbf 2600 63bf
000000c0: bdb5 92bf a5ca a0bf 1331 42bf eff0 3fbf
000000d0: 15a8 463e 4103 d83b 1ce6 d7be 70ff a4bf
000000e0: 5e6d 4ebf 8652 1ac0 2702 0cc0 6c16 1a3e
000000f0: 96cd d7bf 50e7 83bd 6f9f 63bf 0316 99bf
00000100: 9249 2ac0 7a0e d43e 7418 163f 04b2 253f
00000110: b656 a2bf 8a4c 023e c721 423e 7864 5c3f
00000120: 135f 35bf aebe 1dc0 4788 b5bf 2688 d43f
00000130: c280 50bf ee9c 923f fa4e 11bf d0d2 033f
00000140: 6fe2 fb3e 6ddf a5bf 6639 30c0 479d 82bf
00000150: ee41 7b3f c12b 1d40 3dd7 f8be a021 03c0
00000160: 3f42 ff3f 56a6 6040 3cc0 8fbf 601e 43bf
00000170: ba0a 8bbb 3a6e 88bf 93db 44bd 0bae fa3e
00000180: 5eb3 53bf aa7c b8bd 1511 6dbf 8ca7 a0bf
00000190: 9d18 b83f 4e7c 8fbf 308d 0640 376d 31c0
000001a0: 641b 70bf 41bd 1ac0 850e d13e 3dc8 8b3f
000001b0: fad8 b3be 326d 8e3f 930d d3bf 2210 4dbe
000001c0: 535f c9bf fc86 ad3e a10b b3bc cab8 4fc0
000001d0: ac60 1dc0 685c afbf 2f97 6f3f 98c3 81bf
000001e0: db57 7ec0 45ca ae3f 11ea f23f d77e 603f
000001f0: 8733 883f 68cc 3fbf 8ad6 cb3f ef1c e6bf
00000200: b25f df3f ece8 bbbe 3604 7ebf 187b 17bf
00000210: 3e3c 9b3f 11ab a53f 6b92 463f b7bf b5c0
00000220: eb8a 9abe fd2d 673f 9dc0 ce3f 4567 0cc0
00000230: edff 5b3f 8d5c 2fbf 0e7a 563f 86a3 f43f
00000240: 7695 443e 1216 553f 6587 f5be a10e 3ac0
00000250: f113 c4bf f9e9 2dbc 8de9 a7bf 7a59 c1c0
00000260: 2337 0140 0643 dbbe a56b 97bf 4611 c03f
00000270: 26f3 3ec0 82d3 6fc0 919d 07c0 5c29 5bbf
00000280: 0484 f33e 0e21 b4be cb45 353f 9f12 acbf
00000290: c958 11c0 b271 57bf 63cd 59bf 43a7 0f3f
000002a0: 2a40 c7be bd47 ab3e cf39 92c0 03a8 12c0
000002b0: ca5c 76bf 7dcf 353e d5c9 903f b526 443e
000002c0: 1b1c 38c0 a4d0 06bf c026 eebf a628 a1bf
000002d0: f964 b23d 37eb 6abf 0204 3f3f 85b5 1bc0
000002e0: 2972 353f cf99 553f 235f ae3e 67b7 11bf
000002f0: 47be 823f fc76 aa3f 7e18 48bf 34ba 23c0
00000300: 1659 033f fd04 36bf 9cc8 fdbf ea62 033f
00000310: 1666 9dbe 21ad 543d 7381 0fbf 3904 f03e
00000320: 5b73 94bf 45a7 663e cb9f fe3d 6e15 973f
00000330: af39 e9be 9c03 a7be 4c87 e7bf a955 083d
00000340: c126 8a3d 40bb d63f 6917 c0bf 91c2 8f3f
00000350: f169 123e e4df 43bf 7d31 df3e 5cc6 f9bd
00000360: 8841 8b3e 590a f3bf 644b 37bd 2486 38bf
00000370: a601 863f b5e4 083e a1dc ddbf e68b 8fbf
00000380: 5c6f 03c0 08c8 003e 6427 f63f b00f c43c
00000390: fdd6 2fbf 78d8 e43d 494b 0ebf bb1b f5bf
000003a0: 0efb dfbe 3872 19c0 b5d3 d93e 055c aebc
000003b0: 6720 c0be 069d 4cbe 001a bf3f a4b1 dabf
000003c0: 1016 d1bf 45ad 233d 1df6 c43f 7426 13c0
000003d0: 970c f73e 995e 32c0 6961 0b40 49e8 e63e
000003e0: 3c61 99be 7d32 7bbf ede3 e8bc fb91 fe3e
000003f0: 8d10 483f 6e22 2cbf 2b85 9e3e 8b7c 99bd
