crowd_nav/data-3/rl_model_6.pth (torch_old, 93650 bytes, 18 tensors)

w_a f4 [32, 32]
00000000: 9b9e d3bf f356 16c0 fd42 863f 33a9 243f
00000010: 508a d63e 91e6 e2bd 408d 243e 49b9 23be
00000020: 9c5e 15bf 4e7b a8bb 9c28 c1bc 712c 09bf
00000030: 189d d4be 5290 8d3f 59f6 ebbf 69ec 10bf
00000040: 7a96 3140 2219 2740 2e44 1c3e da41 5640
00000050: 14a7 a5bf ae97 3cc0 2d03 9abf 7b85 753e
00000060: c8fd 9d3f d6e4 d6bf 87d6 8e3f d075 a6bf
00000070: cd88 703d 6ace 9c3f 45d4 c0bf 58cc bc3e
00000080: 095d 50be cdd6 af3c 29ef 28c0 ddf1 9b3f
00000090: 92d2 5cbe 09a8 2f3f cec3 79bf dd59 ecbe
000000a0: 8a75 03c0 7a78 42bd da15 a83e 277c 2dc0
000000b0: d3e5 383f 39d5 cdbe 7112 61be 4f48 7740
000000c0: 59bb 4a3f 6ff8 183f d475 823e 4f93 3c3e
000000d0: 268d 1bbf 0c04 95bf 5d55 aa3f b18b 313f
000000e0: 6a16 fb3d 49a3 34bd a029 ce3e 473c 583f
000000f0: cf96 783f b02e 8d3e c692 a73e 2a4a c13e
00000100: 36eb 8b3f c4a9 0dbf 2ff8 1b40 ebb4 aebf
00000110: d3b9 ccbf 008d 3bc0 ff72 4540 4413 6fbf
00000120: 10ba fbbe 2602 0940 ead2 b53f e7e4 d93f
00000130: 0be0 bbbf 9db0 3bc0 785c 8e3e 1afd 4c40
00000140: 1b57 fe3d dc18 31c0 31b4 023f f6fc 6540
00000150: 6851 bb3e 1feb 9b3e 0e46 2f3f 10ea 03be
00000160: 04c6 d33e c94c 7f3f 2159 9b3f b1ea 4fbf
00000170: 55e9 dfbf 17d6 b2bd 72a8 2abf b03f e23f
00000180: 7a5c 133f 39e0 f53e 3143 1fc0 d4bc 88be
00000190: 5f4c b7be 65f2 143e 41a1 26be f356 763d
000001a0: bd61 ca3c a298 03c0 f77b 273e f92e 48be
000001b0: 5b4d 1040 fe2b 24bf e5e6 a3bc 9a55 00c0
000001c0: a22e babf e061 0b40 06cb a8be 83a6 9ebe
000001d0: 756f 3b3f 92e4 563e 1cac 77bf 5a5b 9cbf
000001e0: f381 133f 4508 853f 4755 e7bf 279f fcbd
000001f0: d6bf e63e 99b5 813e 5fd4 c03e 1b45 7a3e
00000200: 0d70 613f dd7b e33e f1c8 9cbf e72b 48be
00000210: bc80 983d 8941 8f3f fbc2 c93e afe2 c4bd
00000220: 2f1a 1e40 08f7 09bf 8477 3e3f 0c0c 83bf
00000230: ce1e 133f f570 07be b19e 5ebe 658e 073d
00000240: f695 92bf 99bf f13d c39f fbbd 7b1a 6fbe
00000250: b7ac f8bc c4f3 b53c 2e84 4abe c3a5 0dbf
00000260: 68a2 e1be f2ef 413f 1e3a 553e d472 0abd
00000270: 2107 213e 826e 133d 6eb5 413f 8915 03bf
00000280: 10a2 afbf c387 94bf 0f53 55bf 3ecd bfbe
00000290: 3434 0abe 8534 59be cebd 583f 3082 abbf
000002a0: e4fe 5040 6b70 34bf 54e0 c2bc 0b21 b23f
000002b0: 3bcf 973f ddb0 6d3f b058 393f a7c6 b9be
000002c0: 77cd 0f3f 62fa 80bf a41a 87bf 22f1 c23e
000002d0: 5159 18c0 9083 9e3d f02c edbf e033 15bf
000002e0: a958 88bc 8dcc 9dbe 0d5b 9c3d 5bb2 b7bd
000002f0: d5b2 5fbf 8fe5 d63e 3edb 37bf ce12 cebe
00000300: 9ce4 703f c7da 11c0 0717 4ebf d11d 9fbe
00000310: 2c42 933b 5c34 77bf 027a 8fbd 647f 023e
00000320: 3278 dbbf 7e49 cb3f 7e6c 363f 0a6e 7b3e
00000330: 369a a4bf f8ae 1a3f c4b3 523f 2d40 3e3f
00000340: 6c03 3fbf aa18 363e 497c 1f3f c34f 693f
00000350: cd4c 9ebf 64f9 b7bf 4cc9 2dc0 00b2 4d3e
00000360: 4522 69bf 566d cbbf 0001 923e 3ca1 4f3f
00000370: 768e c73e 55c7 35bf 32cb 19bf 4a3b 28bf
00000380: fae5 21bf 0acb b73f 91be 19c0 075e ec3e
00000390: 5c3d 193d 26ab e0be 05b6 f7be 078e b4bd
000003a0: 5d6e 17bf 633e 6d3d a90a 9b3f 5652 843e
000003b0: 7034 84be 5fe6 253f 7914 adbd a466 e9bf
000003c0: 67d3 3bbf 2943 6abe 0b48 61bd 74cb 70be
000003d0: a19d 083e 7626 babe 551c 33be f8ef 21bf
000003e0: 2d5d c63e 15f0 8cbe 9055 8fbd f249 0dbe
000003f0: 25c4 eebd 60c6 83be 2b13 d43e 8310 2b3e
-1.6532778 -2.349057 1.0489193 0.6432068 0.419024 -0.11079133 0.16069508 -0.1598865
-0.5834749 -0.005141652 -0.023578934 -0.5358344 -0.41526103 1.1059668 -1.8434554 -0.56610733
2.7748094 2.610909 0.15260383 3.3477693 -1.2941613 -2.9467578 -1.2032219 0.239767
1.2343073 -1.6788585 1.1159219 -1.3004704 0.058724213 1.2250493 -1.506478 0.36874652
-0.2034799 0.02146473 -2.6395972 1.2183186 -0.21564701 0.68615776 -0.975644 -0.4616231
-2.054049 -0.047478177 0.3282917 -2.7107027 0.72225684 -0.40201738 -0.21979691 3.8637884
0.7919212 0.5975408 0.2548052 0.18415569 -0.6076225 -1.164186 1.3307301 0.6935378
0.122601345 -0.044101033 0.40266132 0.84466976 0.97105116 0.27574682 0.32729167 0.37751895
1.0931156 -0.55337167 2.437023 -1.3648962 -1.5994209 -2.930481 3.0851438 -0.9338877
-0.49165392 2.1407561 1.4204991 1.702298 -1.4677747 -2.9326546 0.27804923 3.202948
0.12418958 -2.7671423 0.510562 3.5935645 0.36585546 0.3045282 0.6846627 -0.12882257
0.4136201 0.9972654 1.2136575 -0.81217486 -1.7493082 -0.08732241 -0.6666328 1.7675686
0.57562983 0.4802263 -2.488476 -0.26706564 -0.35800454 0.14545591 -0.16272451 0.060141515
0.024704808 -2.056191 0.16355883 -0.19549169 2.2547214 -0.64129627 -0.02000756 -2.0052247
-1.4545481 2.1778488 -0.32967395 -0.30986413 0.73216945 0.2098563 -0.96746993 -1.2215378
0.5762016 1.0393149 -1.80729 -0.123350434 0.45068234 0.2533386 0.37662026 0.24440424
0.880616 0.44430438 -1.2248822 -0.19547997 0.07446429 1.1191875 0.3940657 -0.09613549
2.4703481 -0.53892565 0.74401116 -1.0238051 0.5746888 -0.13226683 -0.21740223 0.033094782
-1.1452014 0.118041225 -0.122863315 -0.23349945 -0.030355794 0.022210963 -0.19776985 -0.5533106
-0.4406922 0.7575675 0.20822951 -0.033800915 0.15725376 0.03599406 0.75667465 -0.51204735
-1.3721333 -1.1603931 -0.8332986 -0.37461275 -0.13496476 -0.21211441 0.8466462 -1.3399105
3.2655573 -0.70484036 -0.023788609 1.3916334 1.1860117 0.92847997 0.7240095 -0.36284372
0.5617289 -1.0076411 -1.0555005 0.38074595 -2.3804514 0.07739937 -1.8529339 -0.5828228
-0.016643839 -0.30820122 0.07634554 -0.089695655 -0.8738225 0.41972014 -0.7181891 -0.40248722
0.9409883 -2.278978 -0.80503887 -0.31077436 0.0044939723 -0.9656427 -0.07005693 0.12743908
-1.7146056 1.5881803 0.71259296 0.24553695 -1.2859561 0.6042323 0.8230555 0.74316674
-0.74614596 0.17782846 0.6229902 0.9113733 -1.2367188 -1.4372983 -2.7154112 0.20087433
-0.91067916 -1.5892742 0.28516388 0.811054 0.38975877 -0.7100728 -0.60075676 -0.6571547
-0.6324154 1.4358838 -2.4022563 0.46165487 0.037412032 -0.43880576 -0.48381057 -0.08816152
-0.59152776 0.057920825 1.2112628 0.25844067 -0.25821257 0.64804643 -0.084511705 -1.8234448
-0.7336945 -0.22877182 -0.055000346 -0.23515111 0.1334138 -0.36357468 -0.17491277 -0.6325679
0.38742962 -0.27526918 -0.069987416 -0.13797739 -0.11658505 -0.25737286 0.41420874 0.16705517

w_group.0.weight f4 [64, 8]
00000000: 0ca2 cdbd a7a9 32bc a43a 913f 1adf 75bf
00000010: 6b67 aabe 722a ddbe 2671 25be 904b debe
00000020: f6bd 48be 7ade 10be 3543 28bf de41 85bf
00000030: 6a59 55be 6f03 18bf 51bb 79bf 2c61 13bf
00000040: ffc9 90be c833 72be 5826 983f 4b3f 64bd
00000050: e6a9 92be 9274 3fbf 60f0 293d dbb5 4cbf
00000060: 387a 40bd 27c3 1b3e 4caf 8e3f c835 aabd
00000070: c8cb 8ebe af58 1f3f b091 f0bf ae72 1e3f
00000080: bb13 45bd 3dab dd3e 1020 ba3e 5ce1 403e
00000090: 9626 4d3e e4f2 603d f979 ac3f 903e 84be
000000a0: 12b2 1dbd 6be0 55bc c85c 5fbd 0d56 dfbd
000000b0: b8fb a1bd 97ee 423d b67a b0be 643e dabe
000000c0: 07a8 81be d798 bbbc 8676 9b3f 3597 873f
000000d0: 6052 bf3d dd0c 21bf 68c4 36bf 3776 ecbe
000000e0: a6dc 383e 7b48 8bbd 376c ac3e 7fdd 84bf
000000f0: 9bc9 8b3e fcb7 2ebf f348 65be dd4d 31bf
00000100: 852b e5bd 290c 63bd 95cb 21bf 29fb 383f
00000110: 6079 633c 84cb 1ebf fa87 8abe 029a 9cbe
00000120: b0b7 7ebd 9522 2fbc be5f f7be 13ee 7a3c
00000130: 01b1 973e c5a4 37be 27b5 b0be e13a 24bf
00000140: 6c78 7bbf db80 303f 5e37 45bf a54d cf3e
00000150: ef23 a73e 62a0 01bf da8b cc3f a0de 48be
00000160: 8d17 95be 19b4 033e 82f8 463e 13c4 d73e
00000170: 6469 2dbe a519 efbe 6649 48bf 6d36 0dbf
00000180: f2f7 1f3e 1e8e 4ebd 053e c3be dd1a 453f
00000190: 2b5a 0fbe 3013 38bf 9423 543e 8282 5dbf
000001a0: 901c 663e 9713 a43e 98b1 81be caec 833c
000001b0: 4a6e 1dbe ae3d 05bf d31b a2bf 7154 4bbf
000001c0: a2c7 2fbe 5bc1 30be 9ac4 babf e165 263e
000001d0: 728e 673e 0294 d6be d773 d8bf f820 17bf
000001e0: ed19 d1be 1de5 053e f699 f7bf 119b 47bf
000001f0: 4017 043d 3314 ffbd c23e 25c0 6e4e 1cbf
00000200: 0ffb cebd e87f 80bd cf00 adbe bb72 4ebf
00000210: f469 f93d 6b17 4ebf 8b71 2d3f 2d75 e4be
00000220: d47c 66bf 65ea a63f 7753 153e fd29 59bf
00000230: 0c33 92be 6934 1dbf 90e5 30bf 3e76 d6be
00000240: faa1 813f e972 653f 5a97 3abe 80e1 a43e
00000250: 6d7f 67be 6da1 ac3d 0d83 203f 810c 8c3e
00000260: 9aa3 09bf 719c ca3e b7ad 13c0 b215 293e
00000270: 554b ae3e 8216 47bd 9d41 35bf 975d 89be
00000280: 2be7 913d 29e9 59be ef4f 7b3f 3dd2 123f
00000290: bc79 4cbe b174 44be aa76 cfbf 1256 2ebf
000002a0: 6e41 d7bd de55 77bd 81db 793f f0ff 81be
000002b0: 4ddd 9dbe 87c3 e4be 5cc0 35bf 8048 2bbf
000002c0: 681a ab3d 182b 74bd a4e0 333f 972d 47bf
000002d0: 3dde afbe 9c59 3ebf ec05 093f fa59 dfbe
000002e0: 8444 d1bd 7b3f 813d 4f32 13be 624d efbf
000002f0: d08f 8f3c 7cfc 033e 20ed f23e d57f 433e
00000300: 1a91 523e 4eb4 f53d 1f6c 303e 5407 4a3d
00000310: d8b8 65bd 1a13 ddbe cb90 8dbe a78a 19bf
00000320: e0b2 f2bd e878 d2be a838 73be ad45 fa3f
00000330: e290 3f3e bd69 59bd 3652 0fc0 4a92 203e
00000340: 9ad5 b43f 2060 933e bdab 4c3f ed78 d6bf
00000350: 503a 363d 532b 733e b28b 0ebf d1fe 883e
00000360: 3b6b 09be d7d7 df3f 8dbc 083f 1737 453e
00000370: cc75 40be a216 8ebe f53a 6bbf 3c67 d2bd
00000380: 672e 453f f072 b6bc 4cae 19c0 eb01 a63f
00000390: 74b6 f33d 324b 86bf 593d cb3e d250 77bf
000003a0: b1fa 4cbd c328 92bd 33ff 973f 186b 89be
000003b0: e80a 95be 79f5 33be 32ac 9cbf 73e2 d7be
000003c0: 7459 76be f472 d83e 212a 53bf 5854 23bf
000003d0: 0d2e 9fbe e839 42bf 5104 143f d7d9 90be
000003e0: cad3 cdbd 2548 c0bd f195 7cbf 60a1 8f3f
000003f0: 0211 21be ae8b e2be d752 69bf 80b0 e1be
-0.100406736 -0.010904706 1.1346021 -0.9604355 -0.33282027 -0.43196446 -0.16156444 -0.43417025
-0.19603714 -0.14147368 -0.6572755 -1.0410726 -0.2083489 -0.5938024 -0.9755145 -0.5757015
-0.2827911 -0.23652565 1.1886702 -0.055724423 -0.28645247 -0.7478725 0.041489005 -0.7996499
-0.046991557 0.15211163 1.1147246 -0.08311039 -0.27889848 0.62244695 -1.879446 0.6189374
-0.04811452 0.43294707 0.36352587 0.18835968 0.2003425 0.05491914 1.3474723 -0.2582898
-0.0384999 -0.013053994 -0.054531842 -0.10905085 -0.0790934 0.04759082 -0.3446862 -0.42625725
-0.25323507 -0.022900028 1.2145545 1.059302 0.09341884 -0.6291025 -0.7139344 -0.4618394
0.1805292 -0.06800934 0.3367631 -1.0380095 0.2730225 -0.6824949 -0.22391109 -0.69259435
-0.11189941 -0.05543152 -0.63201267 0.7225824 0.0138839185 -0.6202929 -0.27056867 -0.3058625
-0.062186897 -0.010689397 -0.48315233 0.01531555 0.2962723 -0.17933948 -0.34513208 -0.6415234
-0.98230624 0.6894662 -0.7703761 0.40488926 0.32644603 -0.5063535 1.5980179 -0.19616175
-0.2911953 0.1286167 0.19430736 0.4214178 -0.16934735 -0.46699253 -0.78237 -0.5516117
0.15621927 -0.050428502 -0.38133255 0.76994115 -0.1399924 -0.7190428 0.20716697 -0.86527264
0.22471833 0.32046196 -0.25330806 0.01610412 -0.15374103 -0.5204724 -1.2664741 -0.7942572
-0.17165998 -0.1726126 -1.4591248 0.16249801 0.22612932 -0.41909796 -1.6910352 -0.5903468
-0.40840092 0.13075681 -1.934386 -0.7797099 0.032248735 -0.124550246 -2.5819554 -0.61057174
-0.101064794 -0.06274396 -0.3378968 -0.80643815 0.12178412 -0.80504483 0.6775138 -0.44620648
-0.9003422 1.3040282 0.1458262 -0.84829694 -0.2855457 -0.61408097 -0.69100285 -0.41887087
1.0127556 0.89628464 -0.18221799 0.32203293 -0.22607203 0.08429227 0.6269997 0.2735329
-0.5376526 0.3957248 -2.3074777 0.16512182 0.3404185 -0.04860545 -0.7080324 -0.26829216
0.0712417 -0.2128035 0.98168844 0.5735205 -0.19968313 -0.19185139 -1.6208088 -0.6810008
-0.105105266 -0.060384624 0.9760056 -0.25390577 -0.30832902 -0.44680426 -0.7099664 -0.669075
0.08354646 -0.05961141 0.7026465 -0.7780394 -0.34349242 -0.74355483 0.5352466 -0.43623334
-0.102181464 0.06310936 -0.1437466 -1.869549 0.01752463 0.12889284 0.47446537 0.19091733
0.20563164 0.11997281 0.17228745 0.049323395 -0.056084484 -0.43178636 -0.2764953 -0.5997719
-0.11850524 -0.4110787 -0.23752081 1.9552513 0.18707612 -0.053079356 -2.2393928 0.15680805
1.4127686 0.28784275 0.7994955 -1.6755654 0.044489205 0.23746996 -0.5568191 0.2675691
-0.13419811 1.7487744 0.53412706 0.19259296 -0.18794936 -0.27751642 -0.91886836 -0.10273597
0.7702393 -0.022271603 -2.4012632 1.2969335 0.119000345 -1.0491698 0.39695242 -0.96607697
-0.050043765 -0.07136681 1.1874756 -0.2683952 -0.29109883 -0.17574109 -1.224005 -0.42164955
-0.24057561 0.42275202 -0.8248616 -0.63800573 -0.3108982 -0.7586961 0.57819086 -0.282912
-0.10050161 -0.093887605 -0.9866629 1.1221123 -0.15729144 -0.44247192 -0.9114203 -0.4407997

w_group.0.bias f4 [64]
00000000: 2f1a 43bf bd6c 23bf 139e 4ebf 7ec4 8a3d
00000010: 2be1 c0be 5768 13bf a56f f4be 6fc2 4bbf
00000020: 4dcd 04bf 1c60 c4be 7ab8 02bf b82b 4bbf
00000030: 9eb5 53bf a4b7 0ebf e3b0 b3be 20b2 7dbd
00000040: a18d fcbe 3e69 4abe d2b0 f5bd 6550 8e3d
00000050: 74bd 2bbf b074 2ebf 54ab 44bf 9118 27be
00000060: 43b1 4fbf 9c73 35be 2a73 28bd 7a62 15be
00000070: 6ab0 d4be 11a8 82be e98d a4be cc97 fabe
00000080: c400 4e3e f697 5cbe f046 543d b54f 93bd
00000090: 7f5d 5bbf e04a 16be cd2c 52be c6f1 31bf
000000a0: 1e9c a2be f771 6ebe 46e3 dbbe f517 e0bd
000000b0: 122c a9be eed8 00bf 6624 81be 82bd 9abe
000000c0: 25b0 5abf d2b4 683d 5c21 5bbe c862 30bf
000000d0: 1b03 20bf 898d 17bf 2e2f cf3c f745 4dbf
000000e0: 61da 72be 36a0 13bf 722b 8dbe 4eae ac3d
000000f0: 2c98 80bc 72ed 0fbf 7986 97be 2714 bcbe
-0.7621183 -0.63837796 -0.8070995 0.06775759 -0.3767179 -0.57581085 -0.47741428 -0.7959356
-0.51875764 -0.38354576 -0.5106274 -0.79363585 -0.82699 -0.55748963 -0.3509589 -0.06193745
-0.49326804 -0.19766709 -0.119966164 0.06948928 -0.6708596 -0.681468 -0.76823926 -0.16317965
-0.81129855 -0.17719883 -0.041125454 -0.14588347 -0.41540843 -0.2551885 -0.3213952 -0.48943937
0.2011748 -0.21542343 0.051825464 -0.07192937 -0.8568954 -0.14677 -0.20524903 -0.6950954
-0.31759733 -0.23285662 -0.42946833 -0.109420694 -0.33041435 -0.5033101 -0.25223082 -0.30222708
-0.85425025 0.05681307 -0.21399444 -0.6890073 -0.6250474 -0.5920034 0.025291052 -0.8018488
-0.23716117 -0.5766634 -0.2757221 0.084316835 -0.015697561 -0.5622169 -0.29594782 -0.36734125

w_group.2.weight f4 [32, 64]
00000000: ab87 8a3d 5818 9ebe 91a2 babd d21e 31bf
00000010: c1a2 62be e49f 8d3d 0a64 b2bd 17e0 e13d
00000020: cfd1 14be 002d ffbc fbee 2b3e 31a9 ce3d
00000030: 6013 1cbe 654a b03e c96d b63e 9902 76bb
00000040: 5c34 5c3d aaac 4cbe 1327 2a3e ef52 03be
00000050: 36a2 25bf 0c0b 79be 2b16 39be 8fa7 ebbe
00000060: 2fa7 a43e 4775 93be 1603 9ebd a787 2d3f
00000070: c52e da3e 5d50 01bf 95da 213f b5f0 813c
00000080: 0d72 0cbf ea93 3abf 9b5a b7be 680a 17bf
00000090: 2e9b 68bd 1bc1 3fbd b2d6 3a3c 88b1 eb3c
000000a0: 560b 7cbe 95a8 4cbe e02d efba 392b 68bf
000000b0: 4e5b 163e ecc3 2dbe a1e1 a93d 6c8b 9f3e
000000c0: 3de1 2b3f a384 4abe 897d 1fbd 4375 103e
000000d0: 7a33 72bf 8805 543f 7f17 93bd 3f16 1e3c
000000e0: ee60 413e 200e 9f3e 1a05 cdbd 8059 a7be
000000f0: 976b 20be c523 20be de68 dcbd 0706 fcbd
00000100: 496a 153f cc5b eb3e 4dd9 873e 8ece bbbe
00000110: 6fe8 22bf 1ea9 013e fd2a f3bd 7315 aa3e
00000120: 3c84 083d e02c 48bc a7cd 583e ec16 c63d
00000130: 69d1 16be c7ac a93c 1530 573e 58e1 15be
00000140: 0b91 c13e a630 2c3e a1b2 00be f7ed 1ebf
00000150: 7437 93be d2f2 823e e6a3 963e be00 e5be
00000160: 84aa 06bc 6d05 d53d 6dc2 343d d6a6 93bd
00000170: 0e2a 3dbe 379b a93e f9d6 16bf 3f31 43bc
00000180: 4fc9 b2be 9186 13bf 8d3b 6cbe 9408 3b3c
00000190: c54b 55be a83e ab3e 87a4 003b 9ac1 f43c
000001a0: eb36 ddbb c3b6 d43d fc90 a4bd 928f c5be
000001b0: 29d3 98bf 5111 5dbe 6b60 633c 6f4f 14bf
000001c0: c202 983e 4760 b0bd 8d03 aaba 6b1d 2b3e
000001d0: 6b03 d3bf 2e0c c93e 3d3b 1a3e 1ac6 9bbd
000001e0: b176 2cbd bea6 23bf 15ab 6a3d 4f7e 77bf
000001f0: 2bf7 b6bd 42b0 363d 8029 693d 0821 05be
00000200: 9e5f dfbd 67c7 d63d b10e 7bbd 6d3b e1be
00000210: b7c3 d1bd 2fa6 983d dd7e ef3c 23c6 4c3d
00000220: da8a e73d afbf f1bd bda8 133d 41f7 31be
00000230: 4fee ecbd 8f59 e7bd bac6 1c3e 78a5 6dbe
00000240: c16b c8bc 7919 c2bd 328e bbbc 5e82 55bd
00000250: 924c 22be 1b74 0a3e 0ed2 f33d 7fba 00bd
00000260: df98 2abe 04a0 edbd f6eb 8a3d 99f7 43be
00000270: 69a8 23bd 8500 c7bd 4164 f13c 345f 0abe
00000280: aec0 ddbd 0b7f b6bd 51f7 9cbc 6e20 d9bd
00000290: f5d4 bfbd 192a 6ebe 3e2a 23be 9354 32be
000002a0: fa51 17be 5d0e a0bb 26c7 e23d a98f 203d
000002b0: 833b 48be b860 843d 263a ccbd ee67 3e3e
000002c0: 92d5 9dbc f9b9 2ebb 2a6b eebc 24ad 67be
000002d0: bb64 453d 3cdc 933c 076a c8be a8bd 9f3d
000002e0: 1c91 2d3d 7d43 6abd a9c4 043d 98ff 90be
000002f0: f1ba ab3d b08c 5cbd 70ed a1bd 28ed 20bd
00000300: ec95 6c3d c8fa 53be 7c9c 983d ecda 84bf
00000310: d66e afbe 6ef3 98bd 7005 e2bd 1558 22be
00000320: 975f d6bd b8d8 02be aaac a1be be21 993b
00000330: 5895 923d 66b8 52be 5804 a0be 434c 62be
00000340: 0822 92bd aa2c f73c fa27 fc3d 2f62 b0bd
00000350: 4347 28bc f6e9 543c de50 6bbd 9a22 a8be
00000360: c487 89bc c08e 5fbc 19be 47be ef6a a8be
00000370: c909 713f 3175 59be 2074 85bd 2193 8e3d
00000380: 64da 07be d07b 9ebd 02f7 423e eec3 20bd
00000390: dbbc d13d cc3b f1bd 8a69 ae3c a47d c03d
000003a0: b99a 37bd ca8e 34be b4b5 4d3d 5ca6 cfbc
000003b0: 567f 863e ed14 bf3d f59b 9bbe 14f3 9b3d
000003c0: c74d 2d3e acba df3d e3e9 c53d 4f6a 603e
000003d0: 7d61 bfbd 09b7 bb3e 60b4 37be f066 aa3c
000003e0: 0dd2 693d ba16 633d 6601 d33a 0646 85be
000003f0: 8350 6e3d e5ea 1ebe 20a2 a23d ed57 c7bd
0.06764158 -0.30877948 -0.09113038 -0.69187653 -0.22132398 0.06915262 -0.08710487 0.1102907
-0.1453316 -0.031149387 0.16790383 0.100908644 -0.15241766 0.3443176 0.35630634 -0.003753817
0.05376087 -0.19987741 0.16616468 -0.12824605 -0.6470064 -0.2432062 -0.18074863 -0.46026275
0.321588 -0.28800413 -0.07715432 0.67785114 0.42613807 -0.5051325 0.63224155 0.015861848
-0.5486153 -0.7288195 -0.35811314 -0.59000254 -0.056788616 -0.04681502 0.011403726 0.028771177
-0.246137 -0.19986184 -0.0018247925 -0.9069095 0.14683267 -0.1696927 0.082949884 0.31161058
0.6714056 -0.1977716 -0.03893808 0.14107232 -0.94609797 0.8282094 -0.07182216 0.009648859
0.18884632 0.31065464 -0.10010739 -0.3268547 -0.15666042 -0.15638645 -0.10762189 -0.12305837
0.58365303 0.45968473 0.26532975 -0.36681026 -0.63635916 0.1266217 -0.11873434 0.3321949
0.033329234 -0.01221773 0.211722 0.09672341 -0.14728321 0.02071227 0.21014436 -0.14636743
0.37805972 0.16815433 -0.12568142 -0.62081856 -0.28753245 0.25575882 0.2942192 -0.4472713
-0.008219365 0.104014255 0.04413073 -0.07209556 -0.18473074 0.33126232 -0.5892177 -0.011913597
-0.3491921 -0.5762721 -0.23069592 0.011415619 -0.20829685 0.3344624 0.0019629316 0.029877473
-0.0067509315 0.103864215 -0.08035466 -0.38586098 -1.1939441 -0.21588637 0.013877968 -0.57933706
0.29689604 -0.086121134 -0.0012971029 0.16710441 -1.6485418 0.39267105 0.1506166 -0.07606144
-0.04210538 -0.63926303 0.057292063 -0.96677107 -0.08933862 0.044601686 0.056924343 -0.13000882
-0.109069094 0.10487252 -0.061293308 -0.4399065 -0.10242408 0.07453572 0.029235298 0.049993645
0.11305781 -0.11804139 0.036049593 -0.17379476 -0.11568891 -0.11296379 0.15310183 -0.23207653
-0.024465444 -0.09477515 -0.022894952 -0.05212628 -0.15849522 0.13520853 0.11905299 -0.031427857
-0.16659878 -0.11602786 0.06783287 -0.1913742 -0.03995553 -0.09716896 0.02946675 -0.1351288
-0.10827766 -0.0891095 -0.019160898 -0.106018886 -0.0936679 -0.23258246 -0.15934083 -0.17415075
-0.14777365 -0.0048845247 0.11073141 0.039199505 -0.19553952 0.0646376 -0.099720284 0.18594334
-0.019266877 -0.0026661141 -0.029103834 -0.22624642 0.048191767 0.018049352 -0.39143392 0.07799846
0.042374715 -0.057193268 0.032414112 -0.28320003 0.083852656 -0.053845108 -0.07906616 -0.03928867
0.057760164 -0.20701134 0.07451722 -1.037931 -0.3426425 -0.074683055 -0.11036193 -0.15853913
-0.10467451 -0.12777984 -0.31577045 0.004673212 0.07157391 -0.20578155 -0.31253314 -0.22099404
-0.07135397 0.030172665 0.123123124 -0.08612477 -0.010270896 0.012995234 -0.057450168 -0.328389
-0.01678837 -0.013644874 -0.1950611 -0.32894084 0.94155556 -0.21236111 -0.0651629 0.06961656
-0.13266903 -0.07738459 0.19039539 -0.039249353 0.102410994 -0.117789835 0.02129056 0.09398964
-0.04482529 -0.17632595 0.050222114 -0.025347881 0.26269025 0.09330163 -0.30392423 0.07614723
0.16924201 0.10924277 0.09663751 0.21915554 -0.09344766 0.36663082 -0.17939901 0.020801038
0.057085086 0.055441596 0.0016098439 -0.26029986 0.05818225 -0.15519293 0.07941079 -0.097335674

w_group.2.bias f4 [32]
00000000: ada8 80bf 372a 11bf 907f 73bd ffd3 f9be
00000010: c0ea d23c 5c14 7dbf 8513 8ebe a361 173e
00000020: b396 013d f149 04be 1656 883e 3a53 a83e
00000030: 841e acbd dcb1 0ebe a385 2cbd 7b03 86be
00000040: 0f80 0abf b37a e8be b306 b4bf 5065 933e
00000050: 8c4c 19be 5de1 2bbc af74 9ebe 79fd 89bc
00000060: b9a8 c6bd b104 99bf e8cb 04bf 00c9 1fbe
00000070: 2bc7 1ebd 4708 f2be d840 a8be ac1d 073e
-1.0051476 -0.5670504 -0.059447825 -0.48794553 0.025746703 -0.9885919 -0.27749267 0.14783339
0.03163786 -0.12918831 0.26628178 0.32875997 -0.08404258 -0.13935035 -0.042119633 -0.2617453
-0.5410165 -0.45406112 -1.4064544 0.28788233 -0.14970607 -0.0104907425 -0.30948398 -0.016844498
-0.0970015 -1.1954557 -0.51873636 -0.15604019 -0.03876416 -0.4727194 -0.32861972 0.13194913

w_agents.0.weight f4 [64, 5]
00000000: f660 a23d 06d1 34bd ef9a c83d 06d6 b13d
00000010: cf45 a13d fc53 0d3d 7c9e 133c 5e1d b3be
00000020: f356 14be 3902 f0be 3c94 ff3b ff49 823d
00000030: 205f 803d 6fa6 0c3e c213 76be b192 f3bc
00000040: 232f 9e3d 360a 423e c323 f23d a77f 39bf
00000050: a46c d2bd 2c75 38bd c64b 803f a596 b4bf
00000060: c46a eebe 4064 92be 357d dcbe f14f 593b
00000070: 6926 993f 5e2e 56bf 48dd 323c eded 633e
00000080: 2a33 40be 21c2 083f 9655 34bf 1418 9a3b
00000090: df52 49bd 9f7d 26bd a963 043e 8872 3cbf
000000a0: 21bb 13be 2955 f4bd 6387 8cbe 8fa7 20bf
000000b0: c539 9cbe faed 99be df25 d53d 8785 f1bd
000000c0: 45e2 f53d 7e36 d3bf 4ccb 76bd 5d30 6e3f
000000d0: 3416 b23f 9c8b 6c3e 91e0 1fbf b61b f8bd
000000e0: 9943 5fbe c0c7 d13f b5c2 2140 c999 33bf
000000f0: a112 2a3d e3dc 98bc b0af cabf 1745 a73f
00000100: 0e7f 19bf d000 02bc 92c1 cb3c 2469 8fbc
00000110: c3dd 6f3e 3296 023d 7a9b 0fbe 650f 6e3f
00000120: 4a33 8a3f b269 a53f f81d eebf 8fd1 8b3c
00000130: fa58 923e 8601 b73e 58ac 303f 1d6f 86bf
00000140: 52a9 963e aedc aabe 3130 dabf 0b71 383f
00000150: 59e6 87bf a6a3 dbbe 7a61 d73e 0e32 aa3f
00000160: 04eb ac3f 3745 46bf d978 d3be 5fa7 c4be
00000170: 2797 023f 1483 2240 6e25 02c0 319f 36bc
00000180: d62b a13d 1b1f abbc 1a0c 9d3e 65c7 2cbf
00000190: 6f39 2e3c b9a8 62bc e51b 11be c890 d73e
000001a0: 6170 69bf 48c9 ffbe 77bf 8d3f d239 0f3d
000001b0: 68c2 0940 ed2e 57bf 03ad cabd 1b85 7e3e
000001c0: 6763 d2bd 3972 183f a193 fcbe 3441 3abe
000001d0: 3a4f 713f 054a 9c3e eb0e 2e40 b3a8 c7bf
000001e0: adad 033d 0806 8ebc e2ff 1d3e 4760 ca3f
000001f0: 6f62 9ebf cd58 9f3d cb3c 123e fc6c 01bd
00000200: a29f 913e b0a3 05bf 70ca b83d cb33 3f3e
00000210: f6fc 90bd 4165 c43e 9279 1cbf 2721 81be
00000220: 378c 873f 85e0 033f 48e0 fd3e cb62 a8bf
00000230: 90d5 32be c197 383f 4fc8 43bd c502 943e
00000240: 3012 bebf c4dd c73e bcc7 b1bd 24b5 03bf
00000250: dcc7 c03f db7f 42bf 6fbd f0be 5a40 583f
00000260: 8984 e6be 5e58 f23f 7510 6cbf 1827 a43d
00000270: ff2e 973d 500b 4b3e 31c9 073c 3652 14bf
00000280: 5efc dc3d 05eb 493f 6bb0 a8bf a0e9 ce3f
00000290: d64a 54bf bc73 f73d 6650 ac3f e4bf 5e3f
000002a0: 9784 0240 6701 88bf 5b79 aabb 0d4f 7e3f
000002b0: 5e54 b33d e617 a33f ded4 2bbb 7207 833d
000002c0: 0055 b9be e3d3 e1bf 5fb6 943f d078 a1bf
000002d0: c7a8 ebbe f4dd a43f e4ac 593f 8f82 5cbe
000002e0: 7481 18bf 1b14 b8be 9b9a b03f 6902 fdbe
000002f0: b1fc 673f 5bdc 7dbf 2c9a 213e a517 8c3e
00000300: ba27 583e 6371 66bf 713b f3be 0949 883c
00000310: 266f 913e f80f 213f 5e15 9f3e 1278 cfbf
00000320: 25f5 61bc d00c 043e 1a93 393e afc6 f93e
00000330: 048a 19bf 2bd9 a4bc 20f8 8e3f f55f 223d
00000340: 0221 ecbe e8b9 49be c1b9 c5be ee5a 893f
00000350: e55f 96be 42cd babf b360 1bbf c718 173f
00000360: ca93 6fbe 2a98 2bbf 9a13 65bf 7a3d 31bf
00000370: 0ca4 9d3e c4e5 833e d920 febe 7ac4 1840
00000380: 3400 32bf eb47 5a3e 9b8a be3f 5cee cfbe
00000390: 075b df3f 0728 c5bd 043d 49be 9092 1c3f
000003a0: dfbd dfbe 17d1 2940 e19e bcbf 9965 6f3c
000003b0: 0ba9 b73e 45bd 7bbf c198 623e 893a 6ebf
000003c0: 139a 2d3f c3e2 8c3f 4a61 a3be 5896 fd3f
000003d0: a00a a4bf 6d85 023d 8fbb 0bbf 171c bcbf
000003e0: 2489 a93e c54d a4bf 238a 40bd 7707 40bd
000003f0: 4301 b03e 9951 d5bf 35ce 7bbe 702a 03bd
0.0792865 -0.044144653 0.09795176 0.086834 0.07874643 0.034503922 0.009009954 -0.34983343
-0.14486293 -0.46876696 0.0077996533 0.0636177 0.06268144 0.13735364 -0.24030975 -0.029733034
0.07723834 0.18949208 0.11823227 -0.72460407 -0.10274628 -0.04503362 1.0023124 -1.4108473
-0.4656583 -0.2859211 -0.43064275 0.003315922 1.1964847 -0.836645 0.010917015 0.2225873
-0.18769518 0.5342122 -0.70443094 0.0047025774 -0.049151298 -0.040647145 0.12928642 -0.7361226
-0.14426853 -0.119303055 -0.27447042 -0.62755674 -0.30512825 -0.30064374 0.10407614 -0.117930464
0.12006048 -1.6501005 -0.060252473 0.93042547 1.3913026 0.23100132 -0.62452036 -0.121146604
-0.2180313 1.6389084 2.527509 -0.7015653 0.041521672 -0.018660014 -1.5834866 1.306796
-0.59959495 -0.007934764 0.024872575 -0.01750619 0.23424439 0.03188152 -0.14024153 0.9299224
1.0796902 1.2922881 -1.8602896 0.017067699 0.2858351 0.3574335 0.69012976 -1.0502659
0.29426056 -0.3337149 -1.7045957 0.7204749 -1.0617172 -0.4289829 0.42066556 1.3296525
1.3509221 -0.77449363 -0.41303137 -0.38408944 0.5101189 2.5392504 -2.0335345 -0.011146353
0.07869689 -0.020888856 0.30673295 -0.6749175 0.01063381 -0.013834172 -0.14170797 0.42102647
-0.911871 -0.49958253 1.1074055 0.03496725 2.1524906 -0.8405598 -0.098962806 0.24855463
-0.10272866 0.5954929 -0.49331382 -0.18188936 0.94261515 0.30525222 2.7196605 -1.5598358
0.032148052 -0.01733686 0.15429643 1.5810632 -1.237379 0.07780609 0.14281003 -0.031598076
0.28442103 -0.5220289 0.09022987 0.18672101 -0.070794985 0.383585 -0.61123 -0.25220606
1.0589665 0.51514465 0.49585176 -1.3155149 -0.1746428 0.7210656 -0.04779845 0.28908363
-1.48493 0.3903638 -0.086806744 -0.51448274 1.5060992 -0.7597634 -0.47019526 0.8447319
-0.4502299 1.8933218 -0.9221261 0.08015269 0.07382011 0.19828534 0.008287714 -0.57937944
0.10790323 0.78874236 -1.3178838 1.6165047 -0.8292669 0.120826215 1.3462036 0.8701155
2.0393426 -1.0625428 -0.005202455 0.9933937 0.08756326 1.2741668 -0.0026219408 0.063979045
-0.36197662 -1.7642788 1.1618155 -1.2614994 -0.46027204 1.2880235 0.85029435 -0.21534179
-0.5957253 -0.3595284 1.3797182 -0.494159 0.9061995 -0.9916436 0.15781468 0.2736179
0.21108904 -0.90016764 -0.47506288 0.016636388 0.28405112 0.6291499 0.3107099 -1.6208518
-0.013791357 0.12895513 0.18122521 0.48784396 -0.5997622 -0.020123085 1.1169472 0.039642293
-0.46118933 -0.19699824 -0.3861828 1.0730875 -0.29370037 -1.459389 -0.60694426 0.5902218
-0.23396221 -0.6702906 -0.89483035 -0.6923443 0.3078922 0.25761235 -0.49634436 2.386992
-0.6953156 0.21316497 1.4886049 -0.4061154 1.7449654 -0.09626775 -0.19652182 0.61161137
-0.43699548 2.6533868 -1.4735986 0.014611625 0.35871157 -0.9833568 0.22128583 -0.9305807
0.67813224 1.1006702 -0.31910163 1.9811506 -1.2815742 0.031865526 -0.54583067 -1.4696072
0.33112442 -1.2836233 -0.047006737 -0.04688212 0.34375963 -1.6665527 -0.2459038 -0.032022893

w_agents.0.bias f4 [64]
00000000: a36e 40bf f70b cfbe 07df bebe b851 93be
00000010: 61e0 82bf ff46 88bf 3ade 46bf 492b c7be
00000020: 5399 e6bc 9089 b6bf c6d0 26bf 4a48 81bf
00000030: ae3f 64bf 7baa a6be 9f92 c5bf eba5 8bbf
00000040: b587 a4bf b34b 36bf 9449 e6bf e2b9 26be
00000050: 4a0a b6be 64c9 3fbf 2b9f 78bf bb42 82bf
00000060: 27c3 b0bf 9ca5 04bf 0dd1 35bf 1e9f 92bf
00000070: e5ef bfbf 48f5 f0be 2bc6 9ebf 107e 10bf
00000080: 5141 1cbf daad 9fbf 1369 97be 3d40 b8bf
00000090: 3d9e 3ebf fcdc a4bf f927 ca3b 60e4 a8bf
000000a0: 4734 14bf a05d 073e dc0f 87bf 157e 89bf
000000b0: dcc8 81bf 5abb 30bf 853d 79bf afe4 95be
000000c0: 1bff 27bf 5522 babf a1a8 84bf f248 2abf
000000d0: 9729 3ebe 1ebe 4fbf 10bb 30bf e9ac b2bf
000000e0: e8ec 32bf f9b7 8fbe 083a 41bf 70d5 b1be
000000f0: 904c b23c a52b 85bf 6cee d6bf 8fc9 c0be
-0.7516882 -0.40438816 -0.3727953 -0.28773284 -1.0224725 -1.0646666 -0.7768284 -0.3890021
-0.028149283 -1.4260731 -0.65162313 -1.0100186 -0.8915967 -0.3255194 -1.543537 -1.0910009
-1.2853914 -0.7120926 -1.7991204 -0.16281846 -0.35554725 -0.7491667 -0.9711787 -1.0176615
-1.3809556 -0.518152 -0.7102211 -1.1454809 -1.4995085 -0.47062135 -1.2404226 -0.56442356
-0.61037165 -1.247493 -0.29572353 -1.4394604 -0.744602 -1.2879939 0.006169316 -1.3194695
-0.5789227 0.13219309 -1.0551715 -1.0741602 -1.0139422 -0.69035876 -0.97359496 -0.29276034
-0.65623635 -1.4541727 -1.0363961 -0.66517556 -0.18570553 -0.8114947 -0.69035435 -1.3959018
-0.6989274 -0.28070047 -0.75479174 -0.34733152 0.021765023 -1.0403944 -1.679151 -0.37653777

w_agents.2.weight f4 [32, 64]
00000000: 1648 233d 1ab3 01be f733 d9bc cf1f 0bbd
00000010: 561b 04be 66df 1f3c 4966 97bd 75b2 df3c
00000020: bbca 2f3c 8ab6 17be cc42 c53c d32d ff3d
00000030: 2dbd b1bc 6fbc ec3c bb82 403c 44dd 76bd
00000040: 2384 b2bd 0899 a4bd 18ba 08be a701 90bd
00000050: 5555 fdbd 41fd dabd aeb0 6fbe a1a4 36be
00000060: 2f16 a5bd 1c34 873d 4eee 683b cc61 f2bd
00000070: da35 49be 5e5c 853c 392e a53c c047 e9bb
00000080: a59a 4a3d 81a1 d1bd 749d f3bc 723b c8bd
00000090: 5e8d 56be 25b3 08be c20c e9bd e656 27be
000000a0: 88b8 8dbd fbee 0bbe 2c22 85bc 1ac8 a43d
000000b0: ce1d 883c d9eb 85bd cd30 54be f329 8ebc
000000c0: 8df2 5abc 0edd 903b 04d2 09be 94ad 6fbe
000000d0: 6fc4 8cbc c898 b1bc 81ca 5e3c 1e0d 29be
000000e0: 8a9f 8c3c 542f 9bbd dd46 50be 5623 943d
000000f0: 4f3a 99bc 19bc 89bc 34eb 3ebd a8c1 3bbe
00000100: 6718 5c3d 0dde 64be 037b 02bf 8fc2 44be
00000110: 2b7e 54bf 0124 853d d8bf bd3e 8ff3 ae3c
00000120: 24de 8fbe b3a7 16be 31e0 c93e a200 923e
00000130: 412f fabe 66d4 ac3c 174c 88bf 28eb 19be
00000140: cdc3 793e 6c02 ed3d f198 8d3e e4a7 1b3e
00000150: 0c9d 55bd 4c93 58bf 64a6 413e f2e8 b0be
00000160: 63b0 bc3f 1222 dcbd 3348 0b3b ad77 d5be
00000170: 7fb7 a53d 3fa1 d03d 9450 82bf 9b68 9bbd
00000180: a633 b2bf bd31 5bc0 1566 253d 0211 5ebe
00000190: 01fb 413f 6cd3 04c0 054d 8dbf da76 bbbe
000001a0: 70c3 ecbd e6f6 cabf 7eda 69c0 926e af3e
000001b0: 47b8 803e 22eb a0bf 5ee9 4abe 395e ca3f
000001c0: 8921 993e 0d6f 00be cdb9 ab3e 8c47 0f3e
000001d0: acf1 0f3a 5433 963e 6e54 8d3e 17f8 c33e
000001e0: db16 e7bf 99a7 f63d 411c c4bf 686e 12bf
000001f0: 5192 bfbc 5e5a adbd 6abb 17be 415a e03e
00000200: 8bd4 a5bd 7106 94be 7b04 abbc 17df ce3e
00000210: 6149 55be 90dc 73bc a2fc 69bc 7a4d 11bf
00000220: fa07 0fbd d0bc 2a3e 6ceb 06bd cfc1 83bd
00000230: 5015 853e d531 a3be 6bc2 92bd 4d1b 7f3e
00000240: da38 d2bd b363 10bf 07c2 39bd ee17 5d3e
00000250: e7b0 b3be fe98 94be e781 13be a9ae cfbd
00000260: 5314 883d e296 d6be c943 81bd 8588 c03c
00000270: 96f2 583d afc6 d4be fd79 89be d114 ad3d
00000280: 0c27 103d 5035 abbe ed99 43bc 2f05 323c
00000290: 0693 f8bc cb3b 57be 4898 26be 8737 0e3b
000002a0: 44d3 383e 53aa 1c3d 28a2 0abe 2e16 08bf
000002b0: 9539 abbe 2b2e 8fbe f2b1 ddbe 7232 1ebe
000002c0: 5724 ad3c a022 20bd 3f37 0ebe eac6 2ebd
000002d0: 147e ffbd f4c5 5b3d cc98 e7bd f879 5e3d
000002e0: 7825 24bd adb6 b23d 22fe f3bc 18a7 663e
000002f0: 6a37 403d 9e6a 463e c23b 58be cb34 26be
00000300: 8736 40bd bf0c 8bbb 27ec 3abc 2452 713e
00000310: 03db 4abf 7689 fdbe 7a08 643e 74f0 f23c
00000320: e99e 63be ed75 4bbd 026b a7be c663 15bf
00000330: cf1f 333c 20bc 2abd a987 44c0 2231 4d3e
00000340: 11bd 133f d07b e03e ead4 653d 0e88 f63c
00000350: 82f6 743d 2fad 503d b3a8 933e 1218 9b3e
00000360: 9264 17bf bce2 023d 280b 5a3e 4f85 6ebe
00000370: c72d 54bf 8353 86be e708 91bc 6a55 053d
00000380: 20ec e73e 284f 513f 875a 7abe c687 5abf
00000390: fd34 b1bd 9cfd 9a3d b94a b2be 94ec 47bf
000003a0: 1463 913c 69ed 9ebd 3381 273e 8d87 9dbd
000003b0: e228 8ebd 3632 933e 0381 66be 4082 92be
000003c0: 5738 7c3e be72 60be 9b0a e7be 6957 303f
000003d0: 1d3f be3d a484 50be 8e89 3dbe de6d 16bf
000003e0: 3143 263d aed1 41bd 588e 01be 7830 093e
000003f0: 0ed2 6c3d 2def 313e 63ce cfbe 9a94 903d
0.03986367 -0.12665978 -0.026514037 -0.033965882 -0.12901053 0.009757852 -0.07392556 0.027306775
0.010729487 -0.14815727 0.024079703 0.12459912 -0.021696651 0.028898446 0.011749919 -0.06026961
-0.08716609 -0.08037001 -0.13352239 -0.07031565 -0.123697914 -0.106928356 -0.23407242 -0.17836238
-0.08060872 0.06601736 0.0035542431 -0.118350595 -0.19649449 0.016279396 0.020163642 -0.007119149
0.049463887 -0.102358826 -0.029738165 -0.09776963 -0.20952365 -0.13349588 -0.113793865 -0.16341743
-0.06919962 -0.13665383 -0.016251646 0.08045979 0.016615774 -0.06539125 -0.20721741 -0.017353987
-0.013363493 0.004420883 -0.13459021 -0.23406059 -0.01718351 -0.021679297 0.013598085 -0.1650891
0.017165918 -0.075773865 -0.20339532 0.07233302 -0.018704562 -0.016813325 -0.046611026 -0.18335593
0.05373421 -0.2235033 -0.5096895 -0.19214843 -0.8300502 0.06501008 0.37060428 0.021356372
-0.28099167 -0.1471241 0.39428857 0.28516108 -0.48864177 0.021097373 -1.0648221 -0.15031111
0.24391098 0.115727276 0.27655748 0.15200764 -0.052151725 -0.8459976 0.18911129 -0.34552723
1.4741329 -0.10748686 0.002125275 -0.41692868 0.0809164 0.10187005 -1.018084 -0.07588311
-1.3922012 -3.4249108 0.040380556 -0.21686175 0.75773627 -2.0754042 -1.103913 -0.36614114
-0.11560714 -1.5856597 -3.6539607 0.34264046 0.25140592 -1.2571757 -0.19815585 1.5810004
0.29908398 -0.12542363 0.33540192 0.13992137 0.0005491029 0.29336035 0.27603477 0.38275215
-1.805385 0.120436855 -1.5321122 -0.57199717 -0.023385199 -0.08464502 -0.14817587 0.43818858
-0.0809718 -0.28911164 -0.02087616 0.4040458 -0.20828773 -0.014884129 -0.014281424 -0.56758845
-0.034919716 0.16673589 -0.03293936 -0.064334504 0.25992823 -0.31873956 -0.071659885 0.24912758
-0.1026475 -0.5640213 -0.045351055 0.2159116 -0.35095903 -0.29022974 -0.14405023 -0.10140736
0.066445015 -0.4191199 -0.06311757 0.023502598 0.052965723 -0.41557834 -0.26850882 0.08451236
0.035193488 -0.33439112 -0.011938554 0.010865494 -0.030343544 -0.21018903 -0.16269028 0.0021700577
0.18049341 0.03824837 -0.1353842 -0.53158844 -0.3344237 -0.2796491 -0.43299824 -0.15448931
0.021135492 -0.03909552 -0.13888262 -0.042670168 -0.12475219 0.05365558 -0.113084406 0.054315537
-0.040074795 0.08726249 -0.029784266 0.22524679 0.046927847 0.19376609 -0.21116546 -0.16231076
-0.046927 -0.004243463 -0.011408842 0.2356649 -0.79240435 -0.49518937 0.22268859 0.029655673
-0.22228588 -0.04967301 -0.32698828 -0.5835537 0.010932877 -0.041683316 -3.07078 0.20038274
0.5771037 0.4384446 0.056111254 0.030094173 0.0598054 0.05094641 0.28839645 0.30291802
-0.59137833 0.031954512 0.21293318 -0.2329304 -0.8288235 -0.2623559 -0.01770444 0.03255216
0.45297337 0.8176141 -0.24448596 -0.85363424 -0.08652685 0.075679034 -0.34822634 -0.78095365
0.01774744 -0.07760126 0.1635788 -0.0769187 -0.069413915 0.28749245 -0.22510152 -0.28614998
0.24630867 -0.2191877 -0.4512528 0.6888338 0.09289382 -0.20363098 -0.18509504 -0.58761394
0.040591422 -0.047319107 -0.12651956 0.13397396 0.05781751 0.17376395 -0.40587148 0.070595935

w_agents.2.bias f4 [32]
00000000: 0cfb 80be 2388 fbbe 8cd7 fabe ad08 3d3f
00000010: 8109 053e cefd e9bd 58a0 a0be d300 c83d
00000020: adbb a2bd 3af2 64be b4c7 31be 8d64 35be
00000030: 361e 8b3e d032 85be d53b 96bd 2e8c 9a3e
00000040: f04a 883e 508c 7abe cdd8 33be 7608 2bbe
00000050: 9a44 cfbe de15 91be e4bb 6fbe ae77 99bd
00000060: cea6 b2be 7004 b4bd 1125 2fbf 3029 acbe
00000070: e19b 523d 0fd0 dfbd 66ed 233e e987 25bf
-0.25191534 -0.49127302 -0.48992574 0.73841363 0.12991907 -0.114253625 -0.31372333 0.09765782
-0.079459526 -0.22358027 -0.17361337 -0.17714138 0.27171487 -0.2601533 -0.07335631 0.30185074
0.26619673 -0.24467587 -0.17563172 -0.16702446 -0.40482026 -0.28336996 -0.23411518 -0.0749353
-0.34892887 -0.08789909 -0.68415934 -0.33625174 0.05141819 -0.10928356 0.16008529 -0.6466051

Ws.0 f4 [32, 32]
00000000: 7488 2dbf 089f a23e fa9f 193e e6d6 343f
00000010: f54d 32bf 9c92 833f b660 6bbf f7c1 9abf
00000020: dbae e7bf b8fe eb3f 460b 8b3f 7623 12bf
00000030: 4afb a23f 4a3b 4a3f 17ce 093f 3131 8b3e
00000040: 63a5 2c3f cc3d 893e ba01 23bf 14c0 763f
00000050: 912a 8abe 5a1d 4fbf cbd1 09c0 3144 333f
00000060: 604f a1bf 709d c8bf d48a 93bf 96bf 283f
00000070: 89aa 373f 8646 d83f 06e2 8c3e 0064 88be
00000080: 86e8 3040 5d05 1bc0 8501 5f3e 7360 32c0
00000090: 2712 603d 6ee6 2c3e 3940 0fbf 63ae ce3e
000000a0: ff51 9c3e 9c98 cabf 5c7f 163f d5d9 c23f
000000b0: 5057 9f3f b9c1 b83f 7ad3 f33c 9123 06bf
000000c0: 889f d3bf d5aa aebe 5288 7b3e ca2c 83c0
000000d0: c117 393f e19d 8abc 30b0 843f 694c 3f3e
000000e0: 028b 363e c47b 3cc0 f331 cabf f764 9fbf
000000f0: d75c 0e3e 1981 9dc0 f663 0f3c ea16 54bf
00000100: 58cb 183f 2f1f d43e 6946 4a3c 846a 2f3f
00000110: a8a9 a43f 5bb3 423e e303 bebf d25f 2940
00000120: 373d 4cbe 4fc3 ee3f 2a18 40bf bb28 01bd
00000130: b05b d3bd 4e98 6e3f bdec 4abe 22f9 f3bf
00000140: 89ea e7be 854f d73e a5d3 223d 1a42 2040
00000150: 09a2 8cbf 4f11 0dbf 1d70 8ebf 626c 913f
00000160: b771 f43d 2987 af3e e491 7cbe cd48 8b3f
00000170: 3e8e a53d 2fbf 2ec0 5e9f 85bf 2924 01bf
00000180: 415b 97bf 295e 283e 9fec 763f 48ef dfbe
00000190: 7594 6abf 5c62 f33e 3805 723f 2512 8bbe
000001a0: 817a aa3e 3411 61bf 269b d93b 5378 013e
000001b0: 6a68 813d d6fb 8cbf 62fd 923e 36c5 fdbf
000001c0: 5abf 22bf 8ae1 c83f 674d 79bf f2b3 81bf
000001d0: 80c4 73bf add7 bfbe be10 1440 bdde d7be
000001e0: 0b96 ce3b b9b5 d9bd 1cc8 0b3f 68cf 543f
000001f0: c0ff 673f 4a14 8abf 37a7 973e 31be 4d3f
00000200: 0c7b 1c3f 9862 aec0 6fdd e9bf db8d 6f3e
00000210: bb9d 69bf a9a3 ab3f 00f2 8fbf c57d 96bf
00000220: bcfc 01be 3d09 6b3f 67ba 0440 c5f9 d83e
00000230: 0ec1 66be a7fe 39bf 4769 8cbe cef6 583f
00000240: ef41 833f 78a4 303e 27ff 883e d2c0 0f40
00000250: b6a2 3f3f 01e9 57bf 1d28 95bf 0b8d 68bf
00000260: e96c 5d3f 302a 6d3f 16ca 8bbe 1660 fabe
00000270: f48e 8bbe bf30 d23f bc18 1ebf e311 4c3d
00000280: 6bea 85bf fe45 b2bf 83f3 25be b582 8dbf
00000290: cd6e 00c0 3526 f53f 977e b83f 3dac 153f
000002a0: 61ba 5dbf af01 823f bbff 003f b0ac 733e
000002b0: 2439 cc3e 0de3 9bbf 9bc6 8fbf fa06 7ac0
000002c0: c058 80bf ee44 b53e d916 a13f 8ee2 1b3f
000002d0: 20dc e13f 78bd 9ebd 06a7 4bc0 3593 febc
000002e0: 7bf9 323f 13f3 d8bf 884c 0f3e f29f 02bf
000002f0: b71a 3dc0 47a5 e6bf a36d 403f 2590 9bbf
00000300: 49f7 8dbe b58d 01bf 1c9e 54bf 0c14 7bc0
00000310: 6306 78bf 0174 05c0 1ce8 64bf 7947 0dbf
00000320: da49 a43f e2ff eabd c897 993f 5c81 bfbe
00000330: 02a0 5cc0 3284 c1be 9a0c 0f40 314c fac0
00000340: 4b14 003f 4e4d e5be e981 883f 2bc8 9fc0
00000350: caff 3a3f 479c 3fc0 3955 e0bc 3e25 d03f
00000360: 3e14 e73f a873 59be 3423 28bf a15f 82c0
00000370: 249e 313f 1fdc b33d 2ab0 a6bf dc48 9fbf
00000380: ba99 243e 31cc e2be 84e4 09c0 90cf c93d
00000390: 7018 853d a4f8 b8bf 247a cb3b 94a2 ca3e
000003a0: 930e 913f 164f f53e 7832 f83e 3c05 2a3e
000003b0: bf77 90bf 2ebf 243f 3a6b aa3f 4009 31c0
000003c0: d5f1 2bc0 67ff acbf ada4 29bf 5611 56bc
000003d0: 921d e5bf 1882 b43f 257a 92bd 341e 6dbf
000003e0: 35fe 86bf 582d 3e3f 31ee ea3e 86ac 18bd
000003f0: 42b0 733f e742 1ec0 fc37 33bf 916f 4cbf
-0.67786336 0.31761956 0.15002432 0.7064041 -0.69650203 1.0279117 -0.91944444 -1.2090443
-1.8100237 1.8437109 1.0862815 -0.5708536 1.2732937 0.7899672 0.53830093 0.27185968
0.6743986 0.2680496 -0.6367451 0.9638684 -0.269856 -0.8090416 -2.1534297 0.70025927
-1.2602348 -1.5673046 -1.1526742 0.65917337 0.7174459 1.6896522 0.27516192 -0.26638794
2.764192 -2.4222023 0.21777923 -2.7871368 0.05470481 0.16884777 -0.5595737 0.40367422
0.30531308 -1.5827823 0.58788085 1.5222727 1.2448521 1.443412 0.029763926 -0.5239802
-1.653306 -0.3411471 0.24563721 -4.0992174 0.7230187 -0.016920986 1.0366268 0.18681492
0.17826465 -2.945054 -1.5796493 -1.2452687 0.13902603 -4.922009 0.00875186 -0.82847464
0.5968528 0.4143004 0.012345889 0.68521905 1.2864275 0.19013731 -1.4844936 2.6464734
-0.19945227 1.8653353 -0.7503687 -0.031532984 -0.103202224 0.9320115 -0.19816871 -1.9060404
-0.45296124 0.42052856 0.03975262 2.5040345 -1.0986949 -0.55104536 -1.1127964 1.1361201
0.11935752 0.34282807 -0.24665028 1.0881592 0.08083771 -2.730419 -1.043926 -0.504458
-1.1824723 0.16442169 0.96454805 -0.43737245 -0.9163278 0.4753598 0.94539213 -0.2716228
0.33296588 -0.87916875 0.0066408096 0.12643556 0.063187435 -1.1014354 0.2870894 -1.9825809
-0.6357323 1.5693829 -0.9738373 -1.013304 -0.9522171 -0.37469235 2.3135219 -0.42162123
0.0063045076 -0.10630364 0.5460222 0.83128977 0.9062462 -1.0787442 0.29619762 0.80368334
0.61125255 -5.4495354 -1.8270701 0.23393957 -0.912563 1.340932 -1.1245728 -1.1757132
-0.12694067 0.9181097 2.073877 0.4237806 -0.22534582 -0.72654194 -0.2742407 0.84751594
1.0254496 0.1725024 0.26757166 2.2461438 0.7485765 -0.8433991 -1.1652867 -0.90840214
0.8649431 0.926425 -0.27302617 -0.48901433 -0.27257502 1.6421126 -0.6175649 0.049821746
-1.0462164 -1.392761 -0.16206174 -1.1055514 -2.0067627 1.9152285 1.4413632 0.5846594
-0.86612517 1.0156764 0.50390214 0.23796344 0.39887345 -1.2178665 -1.1232485 -3.9066758
-1.0027084 0.35404152 1.2585098 0.6089257 1.7645302 -0.07750982 -3.1820693 -0.031076053
0.69911927 -1.694918 0.13994038 -0.5102531 -2.9547555 -1.8019189 0.7516729 -1.2153364
-0.27727726 -0.5060685 -0.83053756 -3.9230986 -0.96884745 -2.0852053 -0.8941667 -0.55187184
1.2835038 -0.11474587 1.1999445 -0.3740338 -3.447266 -0.3779617 2.2351441 -7.8218007
0.50030965 -0.4478554 1.0664645 -4.9931846 0.73046553 -2.9939134 -0.027384387 1.6261365
1.8053052 -0.21235526 -0.65678716 -4.0741735 0.6938193 0.08782219 -1.3022511 -1.244411
0.16074267 -0.4429641 -2.1545725 0.098540425 0.06498802 -1.4450879 0.0062096287 0.39577162
1.1332573 0.479119 0.48476005 0.1660356 -1.1286544 0.6435422 1.3313973 -2.7661896
-2.6866353 -1.3515443 -0.662669 -0.013065657 -1.7899649 1.4102201 -0.071522035 -0.9262421
-1.0546328 0.7428794 0.4588485 -0.037273906 0.95190823 -2.4728334 -0.700073 -0.79857737

Ws.1 f4 [32, 32]
00000000: 2320 b33e e89b 4c3f f918 a5bd 8da6 f43e
00000010: 7082 153f 817f 94bf c332 10c0 4127 953e
00000020: eeb0 b2bf 0432 16bf c75a 30c0 4fe3 38bf
00000030: 0acb 1bbf 74e9 c03f d828 cf3f e365 03bf
00000040: 5e1e 423f fe76 8f3f 6ad2 a13d b352 6dc0
00000050: 6c3b ecbf ef51 0f3f 959c ee3f 2981 2cbf
00000060: f4b0 56c0 577c a13f 18db c0bf e912 c1bf
00000070: 356a d6bf 3629 13c0 9529 cebf ab21 af3f
00000080: 34b3 37bf beca 50be d66a 9abf 8963 96c0
00000090: 8afe 9cbf 7668 e3be 3a06 3bbd 2a1f cfbe
000000a0: 8056 613f c08a 243f 3e02 2e3e 10fd 14c0
000000b0: e587 d03f 77c6 febf 4c73 30bf 2f6f 5dbf
000000c0: d389 85bf 04b4 79bf 1331 42bf ddac b3be
000000d0: 8525 803e a0b7 a6bd 6da0 d4be 7a60 99bf
000000e0: c327 43bf eef0 1dc0 d8b4 1ac0 9c6a f33e
000000f0: afec e5bf ac90 49bd 6f9f 63bf 08cd 2ebf
00000100: 00d9 09c0 efd1 eb3e f686 803f b32d 08bf
00000110: fce7 8fbf 6e16 2c3e 64fe e43e 1a0d 6b3f
00000120: 761b 25bf b7d1 04c0 006d 0fc0 480e 993f
00000130: f3a3 14bf 9ba2 673f f088 12bf d41e b43f
00000140: 439d 323f 62fa 83bf 6639 30c0 0d82 19c0
00000150: 9c28 7b3f 3f34 0b40 595b 88bf fa60 81bf
00000160: 1dbb fd3f 0770 7540 c110 d3bf ea4b a5be
00000170: e596 3b3e 5c1a 88bf 3fd4 1cbd 2679 2b3f
00000180: aee0 8bbe 5336 0b3e ff31 6ebf 756b 80bf
00000190: 1392 a13f 6107 93bf bccd 0540 1f31 4bc0
000001a0: 4e19 70bf 019e ccbf e804 733f 68c6 843f
000001b0: f860 71bd e6f3 523f 0353 b6bf 1afc ec3c
000001c0: 3af0 b5bf 8c59 ac3e 376c bb3b d94f 6fc0
000001d0: 6a2b dfbf b3bd acbf bfe6 5d3f 60e2 61bf
000001e0: 6ab8 6fc0 c582 a93f c206 f53f 2a20 773f
000001f0: 8c83 9c3f 8599 dbbe e3e3 cf3f 64f5 02c0
00000200: f797 e13f af46 e3be 2f43 67bf 5f41 c2be
00000210: 0758 363f a51e 973f ed94 343f 3c7d b2c0
00000220: b409 94be 8cdb 823f 0f21 d03f 6274 16c0
00000230: 2f79 653f cc93 dbbd 8663 843f 353b e03f
00000240: cbcb ca3c 17b4 563f c0f1 eabe 6867 2ec0
00000250: 1707 c0bf f09f 9dbe 9684 b4bf bd3d bdc0
00000260: 8c9f ed3f 820d 26bf daf6 98bf d84d b43f
00000270: efea 1fc0 4108 62c0 1a7d 07c0 c2b6 fdbe
00000280: 7ed7 023f e907 73be 5f27 813f 477d 8fbf
00000290: 9f50 bfbf af08 38bf 66b9 3dbf 0d08 9d3f
000002a0: 73dc b3be b5ad 0b3f e9e4 9bc0 426e 02c0
000002b0: 7502 97bf fe78 833f 40ce 303f eaaa 123d
000002c0: 88ae 5ac0 bdb7 b1be c026 eebf 2519 9bbf
000002d0: 1ada f73e b2c4 8dbf d87c 283f 6e2f 15c0
000002e0: c1b0 ff3e 70ad f63e 0a2a b13e 51e9 a8be
000002f0: 5834 593f 851b 8c3f 765f 3cbf 4ae2 fcbf
00000300: ae4c 3a3f 83e2 27bf dbd0 fabf 2e4b a73e
00000310: 2f70 0cbf ac1a ea3d 1159 26bf f8a4 f03e
00000320: 4465 8cbf 006e 9b3e 38a0 4f3e 5fb4 8f3f
00000330: 11be 11bf e364 bdbe a441 d3bf 46d0 383d
00000340: dad4 393e 7279 d23f 0f75 bcbf e9a9 8e3f
00000350: 2048 503e f88f 8abf 50e4 e83e afd1 343d
00000360: 3786 9d3e 1b06 05c0 5674 a5bd a025 39bf
00000370: e82f 8e3f f162 c33d 4956 dbbf 13d3 a4bf
00000380: ddb8 c3bf 6b47 463e 71ac e63f f0a3 323e
00000390: ae2c 99be 42c1 b13e 2d29 5dbe bfbf e6bf
000003a0: 6372 e7be 3a55 26c0 1ad2 da3e a55e 843d
000003b0: c1c4 f9be fbbd 32bf 4229 b63f 6307 b1bf
000003c0: cd9e c4bf 92e2 9e3d 2267 c83f 4300 02c0
000003d0: 3ba0 833e 8b70 26c0 66e3 0440 f0e2 673e
000003e0: ee89 04bf dcdb 9fbf 5e4a 45be 0a15 0f3f
000003f0: 5e1f 1a3f 2d03 ffbe f665 a63e 5053 5fbf
0.34985456 0.79925394 -0.08061404 0.47783318 0.58402157 -1.1601411 -2.2530982 0.2913151
-1.3960245 -0.5867007 -2.7555406 -0.72221845 -0.6085669 1.5071244 1.618434 -0.5132734
0.75827587 1.1208189 0.079014614 -3.7081726 -1.8455634 0.55984396 1.8641535 -0.6738458
-3.3545504 1.261607 -1.5066862 -1.5083896 -1.6751162 -2.2993903 -1.610644 1.368215
-0.7175782 -0.2038984 -1.2063854 -4.6996503 -1.2265179 -0.44415635 -0.045660235 -0.40453464
0.88022614 0.64274216 0.16993043 -2.3279457 1.6291472 -1.9904317 -0.6892593 -0.8649778
-1.0432686 -0.9754031 -0.7585613 -0.35092822 0.25028625 -0.081404924 -0.41528645 -1.1982567
-0.76232547 -2.4678302 -2.4172878 0.47542274 -1.7962855 -0.049210235 -0.8891515 -0.682816
-2.1538696 0.46058604 1.0041187 -0.5319473 -1.1242671 0.16805431 0.44725335 0.91816866
-0.6449503 -2.0753 -2.2410278 1.1957483 -0.58062667 0.9048249 -0.572402 1.4071908
0.6977121 -1.0310786 -2.7535033 -2.3985627 0.9810884 2.1750638 -1.0652877 -1.010772
1.9822727 3.8349626 -1.6489488 -0.3228448 0.1831928 -1.0633044 -0.03828835 0.6698173
-0.27319854 0.13594942 -0.9304504 -1.0032793 1.2622703 -1.1486627 2.090682 -3.174873
-0.9378861 -1.5985719 0.9492936 1.0373049 -0.058930367 0.8240341 -1.4244083 0.028928805
-1.4213936 0.3366207 0.0057196873 -3.7392485 -1.7435124 -1.3495392 0.86680216 -0.88236046
-3.7456307 1.3243033 1.9142687 0.96533453 1.2227645 -0.42890564 1.624142 -2.0462275
1.7624501 -0.44389865 -0.9033689 -0.379405 0.7122807 1.1806227 0.7053974 -5.5777874
-0.28913653 1.022325 1.6260089 -2.3508534 0.89638036 -0.107215494 1.0342872 1.7518069
0.02475538 0.83868545 -0.45887566 -2.7250614 -1.5002164 -0.30786085 -1.4102962 -5.9137864
1.8564315 -0.6486436 -1.1950333 1.4086256 -2.4987142 -3.5317538 -2.1170106 -0.49553496
0.51110065 -0.23733486 1.009014 -1.1210107 -1.4946479 -0.7188825 -0.7411102 1.2268082
-0.35129127 0.5456193 -4.871693 -2.0379796 -1.1797625 1.0271299 0.6906471 0.035807528
-3.4169025 -0.34710494 -1.8605576 -1.2117049 0.48408586 -1.1075652 0.65815496 -2.3310199
0.4993954 0.48179197 0.34602386 -0.32990506 0.84845495 1.0945898 -0.7358316 -1.9756558
0.72773254 -0.65580004 -1.9594988 0.32674545 -0.5485868 0.114308685 -0.64979655 0.4700086
-1.0968404 0.3035736 0.20275962 1.122692 -0.56930643 -0.36991033 -1.6504407 0.0451205
0.18147603 1.6443312 -1.4723223 1.1145602 0.20340014 -1.0825186 0.4548669 0.044145282
0.3076646 -2.0784976 -0.0807883 -0.72323036 1.110837 0.09540356 -1.7135707 -1.2876915
-1.5290791 0.19363181 1.8021375 0.1744535 -0.299169 0.34717757 -0.21597739 -1.8027266
-0.45204458 -2.5989518 0.4273842 0.064633645 -0.48782924 -0.6982114 1.4231341 -1.3830379
-1.5360962 0.077580586 1.5656474 -2.031266 0.25708184 -2.600619 2.0763793 0.22645164
-0.51772964 -1.2488971 -0.1926665 0.5589148 0.6020411 -0.4980711 0.32499665 -0.872365
