test_train/best_val.pth (torch_old, 93662 bytes, 18 tensors)

w_a f4 [32, 32]
0.19615924 -2.3464513 -0.6917637 -1.0539771 0.021273585 0.13473256 -0.45230645 -0.23356448
-0.1732868 0.88835734 -0.6582236 -0.90697914 -0.05036268 0.45605943 0.7005324 0.020192968
2.8187425 0.41834858 -1.2256348 0.077115744 -0.8796459 -0.58321613 0.5949678 -0.8990806
0.91857845 -0.43814936 -0.9173343 0.21964313 0.40174687 0.5463578 0.72652423 -0.37174124
-1.0320207 1.0098954 -0.7499711 1.2648108 -0.8943638 -0.2329585 -0.99504435 0.95258087
-0.2982839 0.37028033 0.42138487 -1.225342 -1.3929684 -0.33393848 -1.6021872 0.35642117
-0.26698163 1.6179473 0.47818744 0.6587039 0.39735642 0.93636084 -1.6118062 0.07075157
-0.7697417 -2.4631066 1.6840233 0.30398595 0.31050488 -0.019140758 0.33793935 1.2760911
0.03318459 -0.9644785 1.862439 -1.6907303 -0.7032644 -3.3048654 1.4568245 0.2522703
0.19557062 0.92576027 0.15817504 0.66834027 -0.66860676 -3.7384133 -0.2201023 0.059492193
-0.37299192 -1.3340652 0.5943641 0.61598986 3.3739574 1.5672735 1.2166467 -0.29418835
-2.5604005 -0.92491233 -0.09401047 -1.5610352 -1.2888505 -0.46928945 -1.82671 2.7232769
-1.1520208 0.8296104 0.25185698 -0.349161 -0.36498275 -0.6224002 -0.38310504 0.6900693
0.5244004 0.37692744 0.13997263 -0.32510233 0.9923439 -1.5635265 0.079788655 -0.26807258
-0.5177445 0.44848353 -0.24678962 0.9277871 0.121028244 -1.58496 -1.9572558 -0.23438734
0.4428172 0.47439185 0.046017125 -1.1477515 0.20533523 1.7397002 0.03768559 0.515266
-0.8636887 -2.1509697 -0.69051456 0.48627755 -0.30140862 -0.3402262 -0.17638955 -0.40842432
-0.27062836 -0.24014808 0.18556936 0.1507872 -0.6869393 0.29128826 -0.8010396 -0.38439
-0.33041796 -0.33518654 0.7102645 0.52900815 0.15164399 -0.707129 1.170621 -0.8897949
-1.9865108 0.9156239 1.5519892 1.2407056 -0.704192 0.2913739 1.1169217 -0.84795094
-1.703158 1.7145126 0.36187592 1.5900233 -0.26097828 -0.64535475 0.4055405 -0.43664244
-0.014250743 -0.95498973 0.35836038 -0.59880793 0.8636005 0.40513328 0.45746 -0.018017631
0.51987094 0.5077573 -0.9456575 -0.2806231 -0.5157711 -0.18130891 -1.4875335 0.29524004
1.1007082 -0.83623964 -0.028838534 0.9918291 0.58097017 0.2537616 -0.1681476 -0.0064251483
0.83827186 0.22240537 -2.1997697 -0.5410772 -1.0480139 -0.26040408 -0.51693434 -0.64875656
-0.63944954 0.7276196 0.55387455 -0.5309815 -2.6261506 0.9253606 0.71548665 0.65667343
-0.85285246 0.6200745 -0.11478432 -0.19677936 -0.07996377 -0.40573016 -0.8561902 -0.4945071
-0.13936874 -0.114451066 -0.24001804 1.2450715 -0.12451718 -1.3097655 0.67401475 0.3998958
-0.5961596 1.3798543 -1.5917002 -0.027729925 -0.24795458 0.7410361 0.26487884 0.35692742
-0.5675197 0.6988884 0.13401644 0.77958536 -0.90426296 0.849115 0.37710387 1.1153594
0.61894006 0.34390283 0.7326021 0.6368073 -1.2235614 0.03437335 1.8206153 0.19662195
2.0802238 1.2625186 0.6634693 -0.6558834 0.34848025 -0.12471467 0.28535804 0.48130178
00000000: f8dd 483e 422c 16c0 6d17 31bf b9e8 86bf
00000010: f145 ae3c 55f7 093e b694 e7be 872b 6fbe
00000020: 1872 31be 636b 633f 5881 28bf c92f 68bf
00000030: 1949 4ebd 9f80 e93e 1756 333f b96b a53c
00000040: 4766 3440 c931 d63e 9ae1 9cbf dcee 9d3d
00000050: 7930 61bf a74d 15bf cf4f 183f 252a 66bf
00000060: f527 6b3f 1d55 e0be 6cd6 6abf 21ea 603e
00000070: c4b1 cd3e 1bde 0b3f 7efd 393f de54 bebe
00000080: 4119 84bf 4144 813f 1bfe 3fbf 52e5 a13f
00000090: 07f5 64bf ac8c 6ebe 3abb 7ebf 57dc 733f
000000a0: abb8 98be 6295 bd3e c2bf d73e 02d8 9cbf
000000b0: ca4c b2bf fcf9 aabe 7814 cdbf d67c b63e
000000c0: d1b1 88be e618 cf3f fcd4 f43e d2a0 283f
000000d0: 4d72 cb3e 58b5 6f3f aa4f cebf 33e6 903d
000000e0: cb0d 45bf 8aa3 1dc0 138e d73f 0ca4 9b3e
000000f0: 7ffa 9e3e 14cd 9cbc 6306 ad3e f456 a33f
00000100: 91ec 073d 10e8 76bf 6764 ee3f da69 d8bf
00000110: 2309 34bf ea82 53c0 3a79 ba3f 9329 813e
00000120: aa43 483e a0fe 6c3f a3f8 213e 5918 2b3f
00000130: d029 2bbf 2a42 6fc0 7f62 61be 16ae 733d
00000140: ccf8 bebe a6c2 aabf 3f28 183f 83b1 1d3f
00000150: ebee 5740 6b9c c83f 14bb 9b3f db9f 96be
00000160: 9add 23c0 0ec7 6cbf 9088 c0bd 00d0 c7bf
00000170: 0ef9 a4bf b546 f0be a2d1 e9bf 2b4a 2e40
00000180: 6b75 93bf 5961 543f 66f3 803e 3bc5 b2be
00000190: 05df babe 9f55 1fbf 5826 c4be 62a8 303f
000001a0: 1b3f 063f a2fc c03e fc54 0f3e d073 a6be
000001b0: 400a 7e3f a321 c8bf 3c68 a33d cf40 89be
000001c0: e78a 04bf a29f e53e 6bb6 7cbe 7583 6d3f
000001d0: a8dd f73d f8df cabf 5c87 fabf 3c03 70be
000001e0: f0b8 e23e 7de3 f23e 747c 3c3d 85e9 92bf
000001f0: 6643 523e 7fae de3f 355c 1a3d 79e8 033f
00000200: b41a 5dbf 7da9 09c0 90c5 30bf 5ff9 f83e
00000210: 3b52 9abe 2132 aebe 769f 34be fe1c d1be
00000220: cd8f 8abe 61e9 75be e505 3e3e f667 1a3e
00000230: 41db 2fbf bc23 953e ee10 4dbf c4ce c4be
00000240: 8b2c a9be 929d abbe e5d3 353f 146d 073f
00000250: 9048 1b3e 6806 35bf e9d6 953f 99c9 63bf
00000260: fc45 febf 5466 6a3f 95a7 c63f 71cf 9e3f
00000270: ed45 34bf f62e 953e 4af7 8e3f 5013 59bf
00000280: 1501 dabf 2675 db3f cd47 b93e e285 cb3f
00000290: f29e 85be f835 25bf 01a3 cf3e 998f dfbe
000002a0: f37b 69bc 357a 74bf 037b b73e 7a4b 19bf
000002b0: ec14 5d3f a16d cf3e 3238 ea3e b699 93bc
000002c0: 4316 053f 62fc 013f 9c16 72bf d5ad 8fbe
000002d0: 9309 04bf 0ba9 39be 7f67 bebf b429 973e
000002e0: 02e4 8c3f cd13 56bf ca3e ecbc 83e8 7d3f
000002f0: 76ba 143f 0aed 813e e22e 2cbe 0d8a d2bb
00000300: fc98 563f 3cbe 633e 07c9 0cc0 0984 0abf
00000310: 5225 86bf af53 85be cf55 04bf e914 26bf
00000320: f7b2 23bf 4745 3a3f b9ca 0d3f 67ee 07bf
00000330: da12 28c0 6fe4 6c3f 222a 373f c01b 283f
00000340: 8a54 5abf 34bd 1e3f 0b14 ebbd 8780 49be
00000350: 0cc4 a3bd ddbb cfbe 482f 5bbf 0930 fdbe
00000360: aeb6 0ebe 5265 eabd 4ac7 75be 815e 9f3f
00000370: dd02 ffbd 65a6 a7bf 3b8c 2c3f 24bf cc3e
00000380: ea9d 18bf 119f b03f d5bc cbbf de29 e3bc
00000390: cee7 7dbe 8bb4 3d3f 339e 873e 31bf b63e
000003a0: f948 11bf 5aea 323f 9b3b 093e e892 473f
000003b0: c77d 67bf 9a5f 593f c213 c13e 19c4 8e3f
000003c0: db72 1e3f 0814 b03e d08b 3b3f ce05 233f
000003d0: a99d 9cbf 12cb 0c3d ec09 e93f 4457 493e
000003e0: 6322 0540 369a a13f 20d9 293f f9e7 27bf
000003f0: 016c b23e 686a ffbd 731a 923e 306d f63e

w_group.0.weight f4 [64, 8]
0.114808165 -0.06517607 2.1139028 -0.072455384 -0.33282027 0.013560173 -0.4371156 0.01126964
0.65259683 -0.4071684 -1.0968884 0.5280138 -0.2083489 -0.43208197 -1.2170912 -0.4139592
-0.5267665 -0.26227617 -0.8491695 -0.20651664 -0.28645247 -0.56574506 -0.24660191 -0.61656356
0.17795698 -0.04852166 0.44474995 -2.2791555 -0.27889848 0.2525082 -0.30814198 0.24896477
-0.38779682 -0.04845616 1.1406442 -0.13441081 0.2003425 0.059953395 -0.42441452 -0.2532473
-0.0036083872 -0.0071595428 0.115692064 0.017488329 -0.0790934 0.033806093 0.19015743 -0.4397113
-0.2293176 0.15761079 0.8402916 0.44952863 0.09341884 -0.5272572 -0.68462276 -0.3598027
0.29769054 0.09476554 0.2433166 -1.8453254 0.2730225 -0.52162033 0.2269957 -0.53146
-0.03422061 -0.05305596 -1.4075844 0.04888541 0.0138839185 -0.5823667 0.5381991 -0.26768944
-0.09179588 -0.0127391955 -0.57270056 -0.3244675 0.2962723 -0.20659661 -0.2936409 -0.66876876
-0.5554211 0.38098043 -0.7298919 1.4094666 0.32644603 -0.34622884 0.039528184 -0.036009625
-0.17097342 0.3671908 0.05648809 -0.07615734 -0.16934735 -0.37597618 -1.4087315 -0.4627827
0.4512429 -0.13593142 0.8610347 0.92057884 -0.1399924 -0.43099505 -0.99768937 -0.5823616
0.6349725 0.14539573 -0.45649192 -1.7327377 -0.15374103 -0.5496201 -0.25272906 -0.8246511
-0.16012026 -0.10346514 -0.23120426 0.08382954 0.22612932 -0.60298723 0.1831355 -0.7734514
0.5310988 0.23561308 0.1429907 -0.92128503 0.032248735 0.24813876 -0.5312893 -0.23976512
-0.19906987 -0.10937857 -0.30584309 -0.7162559 0.12178412 -0.80479306 -0.22682114 -0.44585246
-0.07411602 0.27601364 0.13765998 -0.46070683 -0.2855457 -0.43910113 -0.83618546 -0.25514194
0.28267726 0.41710883 -1.1567225 0.4085863 -0.22607203 -0.14219354 0.77920777 0.047041826
0.1517152 -0.2555092 0.7192371 -0.24819449 0.3404185 0.11024441 -0.95701134 -0.10945301
0.097134635 -0.25729263 0.041555956 1.0542216 -0.19968313 -0.3196335 -0.44539627 -0.81204385
-0.50495565 -0.25820583 1.7993394 -0.34422135 -0.30832902 -0.29271552 -0.5554831 -0.5152335
0.220418 -0.04839437 -0.2694854 0.043730255 -0.34349242 -0.653028 -0.28148174 -0.34501037
0.80410045 0.10918621 0.80488974 -0.31013352 0.01752463 -0.22455868 -1.1189815 -0.16236149
0.020026311 0.0288528 -0.02488476 -0.072963536 -0.056084484 0.005177008 -0.015226562 -0.17055811
-0.31340766 -0.1671978 0.1480807 0.9618553 0.18707612 -0.17177872 0.42373165 0.03834543
-0.09853334 0.11952408 -1.488755 -0.3027819 0.044489205 0.018357726 0.049744595 0.048717055
0.13423532 1.1354929 0.033491507 0.44722867 -0.18794936 -0.1452365 -0.68398005 0.028955571
-0.061921783 -0.3341095 -0.40040874 -1.1998755 0.119000345 -0.65754956 -0.16683877 -0.5744283
0.016427727 0.01831143 -0.010064269 -0.4246349 -0.29109883 -0.008634123 -0.37229076 -0.2542454
0.06400225 0.031282872 0.023825333 -0.027539989 -0.3108982 -0.3823463 0.02104847 0.08496106
0.3661524 -0.6175977 -0.17980936 -0.41705695 -0.15729144 -0.22074443 -0.0216541 -0.21908216
00000000: 8b20 eb3d 087b 85bd 2f4a 0740 7d63 94bd
00000010: 6b67 aabe 7d2b 5e3c 9ecd dfbe 4ca4 383c
00000020: 9610 273f 6078 d0be d766 8cbf ea2b 073f
00000030: 6a59 55be d939 ddbe a5c9 9bbf 76f2 d3be
00000040: 2bda 06bf 1049 86be 2c63 59bf 1979 53be
00000050: e6a9 92be abd4 10bf 3685 7cbe 1cd7 1dbf
00000060: 5b3a 363e a6be 46bd 44b6 e33e afdd 11c0
00000070: c8cb 8ebe c148 813e c9c4 9dbe 9ff0 7e3e
00000080: 4e8d c6be f779 46bd a100 923f fda2 09be
00000090: 9626 4d3e b191 753d dc4c d9be a1a9 81be
000000a0: b17a 6cbb 999a eabb f6ef ec3d af43 8f3c
000000b0: b8fb a1bd 4278 0a3d a1b8 423e d721 e1be
000000c0: 3cd2 6abe b964 213e 5a1d 573f 9e28 e63e
000000d0: 6052 bf3d 54fa 06bf 7043 2fbf 0f38 b8be
000000e0: e56a 983e 6f14 c23d fd27 793e 9f33 ecbf
000000f0: 9bc9 8b3e e988 05bf 9071 683e c30d 08bf
00000100: e92a 0cbd 3551 59bd ba2b b4bf 113c 483d
00000110: 6079 633c fc15 15bf 6bc7 093f 970e 89be
00000120: 7aff bbbd 0fb8 50bc 819c 12bf 9b20 a6be
00000130: 01b1 973e 108e 53be 1a58 96be 6e34 2bbf
00000140: 1430 0ebf de0f c33e 32da 3abf 6769 b43f
00000150: ef23 a73e e844 b1be 4ee8 213d d47e 13bd
00000160: a813 2fbe 6f00 bc3e 0e60 673d 61f8 9bbd
00000170: 6469 2dbe f37f c0be 5051 b4bf dbf1 ecbe
00000180: 4f09 e73e 9b31 0bbe c56c 5c3f 0eab 6b3f
00000190: 2b5a 0fbe 62ab dcbe 9268 7fbf a615 15bf
000001a0: 8f8d 223f 9ee2 143e 4fb9 e9be 59ca ddbf
000001b0: 4a6e 1dbe e7b3 0cbf b465 81be 561c 53bf
000001c0: 91f6 23be 88e5 d3bd cfc0 6cbe d2ae ab3d
000001d0: 728e 673e 5f5d 1abf df87 3b3e e900 46bf
000001e0: 17f6 073f 8e44 713e 276c 123e 56d9 6bbf
000001f0: 4017 043d 1618 7e3e 9302 08bf fd84 75be
00000200: f9d8 4bbe df01 e0bd 7797 9cbe 8c5c 37bf
00000210: f469 f93d eb06 4ebf cd43 68be c646 e4be
00000220: 24ca 97bd a951 8d3e bdf6 0c3e c4e1 ebbe
00000230: 0c33 92be ddd1 e0be 4010 56bf f7a1 82be
00000240: 13bb 903e 4a8f d53e 7c0f 94bf 3932 d13e
00000250: 6d7f 67be 2f9b 11be 297a 473f eeae 403d
00000260: 3b5b 1b3e 1ad2 82be ec1f 383f b226 7ebe
00000270: 554b ae3e d2c7 e13d b2fe 74bf e628 e0bd
00000280: 86ee c63d dcbb 83be 9436 2a3d bcf0 863f
00000290: bc79 4cbe 01a7 a3be fb0a e4be 1be2 4fbf
000002a0: c644 01bf 8e33 84be c150 e63f c83d b0be
000002b0: 4ddd 9dbe cfde 95be 2434 0ebf 58e6 03bf
000002c0: 42b5 613e 2d39 46bd fef9 89be 7f1e 333d
000002d0: 3dde afbe d82c 27bf 601e 90be 33a5 b0be
000002e0: 87d9 4d3f 059d df3d 410d 4e3f d2c9 9ebe
000002f0: d08f 8f3c b6f2 65be c93a 8fbf 1742 26be
00000300: 380e a43c b55c ec3c 20db cbbc e86d 95bd
00000310: d8b8 65bd e4a3 a93b d478 79bc c9a6 2ebe
00000320: f876 a0be e635 2bbe 78a2 173e 263c 763f
00000330: e290 3f3e c3e6 2fbe 5bf3 d83e 1910 1d3d
00000340: d9cb c9bd 0ac9 f43d 868f bebf 3b06 9bbe
00000350: 503a 363d f162 963c fdc0 4b3d 898b 473d
00000360: fc74 093e d557 913f 642e 093d 28fb e43e
00000370: cc75 40be e1b8 14be 5119 2fbf 3c34 ed3c
00000380: b2a1 7dbd 6610 abbe 6002 cdbe 8595 99bf
00000390: 74b6 f33d 2b55 28bf c8d7 2abe bc0d 13bf
000003a0: 7193 863c da01 963c 9be4 24bc bf69 d9be
000003b0: e80a 95be 2376 0dbc e59c bebe 742c 82be
000003c0: 9d13 833d 7822 003d 582d c33c 8b9b e1bc
000003d0: 0d2e 9fbe e5c2 c3be d76d ac3c 1000 ae3d
000003e0: 5478 bb3e e21a 1ebf f21f 38be 7d88 d5be
000003f0: 0211 21be d40a 62be f063 b1bc 1357 60be

w_group.0.bias f4 [64]
-0.3166733 -0.47662657 -0.62402064 -0.30220678 -0.37170166 -0.58926123 -0.37537733 -0.6348048
-0.4805816 -0.41079736 -0.35047612 -0.70479566 -0.544072 -0.5878848 -0.5340679 0.3088764
-0.49291253 -0.033945296 -0.3464663 0.22832592 -0.8019052 -0.52763456 -0.67701685 -0.5164582
-0.38208535 -0.2956682 -0.2599816 -0.014196294 -0.02375247 -0.08778389 0.046476055 -0.267729
0.016238237 -0.2722015 0.15963359 -0.56343466 -0.7057556 -0.19859613 -0.18032831 -0.49604875
-0.00528352 -0.35406178 -0.48547387 -0.055966496 -0.48044932 -0.17948604 -0.3667939 -0.25777492
-0.531491 -0.040082674 -0.081955954 -0.31852716 -0.24385788 -0.121897966 -0.0311219 -0.38587162
-0.47491533 -0.3017993 -0.29744485 0.07967241 0.06813626 -0.5440973 -0.6232608 -0.5224914
00000000: 0123 a2be 6608 f4be d1bf 1fbf d9ba 9abe
00000010: ae4f bebe d3d9 16bf 7531 c0be 9182 22bf
00000020: cb0e f6be 0854 d2be 9b71 b3be 7d6d 34bf
00000030: 4d48 0bbf 9e7f 16bf adb8 08bf 0c25 9e3e
00000040: 085f fcbe 390a 0bbd 0864 b1be 45ce 693e
00000050: a949 4dbf 0f13 07bf fa50 2dbf 9b36 04bf
00000060: b1a0 c3be d361 97be 4f1c 85be 9397 68bc
00000070: 8a94 c2bc 0ac8 b3bd ad5d 3e3d c713 89be
00000080: 0d06 853c ff5d 8bbe fd76 233e 413d 10bf
00000090: 66ac 34bf c95c 4bbe fca7 38be 1afa fdbe
000000a0: 6121 adbb 9647 b5be 0890 f8be 203d 65bd
000000b0: 74fd f5be 30cb 37be 69cc bbbe 13fb 83be
000000c0: cb0f 08bf bb2d 24bd 86d8 a7bd fe15 a3be
000000d0: e1b5 79be a4a5 f9bd 5bf3 febc f790 c5be
000000e0: 1a28 f3be 7085 9abe b14a 98be 4a2b a33d
000000f0: 068b 8b3d f649 0bbf 058e 1fbf ffc1 05bf

w_group.2.weight f4 [32, 64]
-0.047803003 0.30991483 0.25279582 0.12694204 0.19537707 0.105704404 -0.24181056 -0.27516785
0.43885142 0.24783951 0.32140574 0.2691831 0.23596492 -0.9271445 0.2971724 0.36836758
0.45431975 -0.07724171 -0.09617796 -1.0374125 -0.15626344 -0.36492166 0.3295607 0.003939344
0.061484184 -1.8744874 -1.3904783 -0.4192759 -0.7950979 0.10660759 0.09214846 -0.7200759
-1.8799019 -0.60575134 0.37982848 0.4335254 0.7314657 0.19398868 0.073920146 -0.11940482
0.50542724 -0.39199623 0.0009672193 -0.8073702 0.04797628 0.23799315 -0.026229251 -0.13878563
-0.046767406 0.22166504 -0.018182768 0.04030872 0.29598644 0.029210435 -0.3995403 0.35512596
0.25052303 -0.1442745 -0.016257787 -0.22947063 -0.052987117 0.08058658 -0.48201007 0.012094274
-0.3008511 0.020720743 0.0937984 0.14426722 -0.38352534 0.008233816 0.030805307 0.080995254
-0.07469397 -0.087291226 -0.14190999 0.07583152 -0.11129346 0.030999664 -0.011217081 0.25007364
-0.13520473 -0.18747284 -0.3641845 -0.23233 0.116755664 0.0118380515 0.025488473 -0.12763229
-0.1568462 -0.6290597 0.3763622 0.12740906 0.039943643 -0.015076811 -0.048115946 -0.7919448
0.1730497 -0.10560265 0.29397216 0.07639099 -0.060721006 0.18965782 0.020230094 0.045868754
-0.069888026 -0.19700226 -0.10335266 -0.20468368 -0.12495346 -0.048998028 -0.14679351 0.04621961
-0.093910225 -0.11081524 -0.0070773605 -0.16006233 -0.18776004 0.015542673 0.07177562 -0.20398046
0.018805567 0.09330048 0.09919459 -1.0023582 -0.073574126 0.21784891 0.03819355 0.1303142
-0.13009119 0.10287607 -0.028876534 -0.087392464 -0.12778439 0.087582275 0.03436093 0.058413863
0.10421541 -0.11775833 0.010097298 -0.15611951 -0.10493208 0.023128077 0.015288569 -0.15956645
-0.016479759 -0.07412472 -0.07538074 -0.07280874 -0.06667879 0.062840536 0.11384554 0.040508628
-0.035180442 -0.10379987 -0.12614267 -0.053565055 0.01648382 -0.032790095 0.042280372 -0.08892213
-0.032303553 -0.021970373 -0.048521243 -0.084565915 -0.030878939 -0.14806971 -0.12101782 0.006685189
-0.10499768 0.028885256 0.11073141 0.032952756 -0.09852003 0.07249634 -0.049544416 -0.050585333
0.13493389 -0.09381479 -0.0021190655 -0.13876395 0.031005347 0.07275233 -0.1979193 0.0056791464
0.070304856 0.012664996 0.08019888 -0.10254351 0.10361205 -0.073142536 -0.07906616 -0.026763098
-0.06537207 -0.038865745 0.12239453 -0.10831274 -0.1902938 -0.11358344 -0.11036193 -0.12116876
-0.2038563 -0.18892513 -0.20783469 -0.08001353 0.07244353 0.05140476 -0.11081955 -0.07087376
0.00573875 -0.08061231 0.09599989 -0.23946498 -0.061482184 -0.07429505 -0.17499596 -0.18116646
-0.03574768 -0.29488972 -0.12019744 -0.06038429 0.06573685 -0.1352814 0.013778901 -0.10015425
0.019877682 -0.11876288 -0.044237442 -0.11532685 0.028083982 -0.1523169 -0.007848771 0.0034013353
-0.23894443 -0.10479009 0.07313681 0.10538046 -0.16158688 0.06480961 -0.17639415 -0.06884355
0.08788881 0.09085342 0.06318938 -0.03789894 0.022869583 0.11369991 -0.35052693 -0.05522223
0.09809705 0.0085105 -0.0393028 -0.062265225 0.10278256 -0.14865604 0.12671176 -0.06570196
00000000: 15cd 43bd 28ad 9e3e 746e 813e 18fd 013e
00000010: ed10 483e 8d7b d83d 309d 77be cde2 8cbe
00000020: 22b1 e03e a4c9 7d3e 4b8f a43e 5ed2 893e
00000030: caa0 713e 5859 6dbf fb26 983e ad9a bc3e
00000040: 999c e83e e730 9ebd f3f8 c4bd efc9 84bf
00000050: 8603 20be 03d7 babe 2ebc a83e 9d15 813b
00000060: d7d6 7b3d 34ef efbf 31fb b1bf 55ab d6be
00000070: 898b 4bbf 1555 da3d 55b8 bc3d e556 38bf
00000080: a0a0 f0bf 8512 1bbf e178 c23e 0bf7 dd3e
00000090: 5641 3b3f f8a4 463e 7263 973d 848a f4bd
000000a0: ae63 013f bbb3 c8be fd8c 7d3a d0af 4ebf
000000b0: c782 443d 7ab4 733e bade d6bc d21d 0ebe
000000c0: 2e8f 3fbd 29fc 623e 07f4 94bc c21a 253d
000000d0: 898b 973e b94a ef3c 8c90 ccbe 12d3 b53e
000000e0: 8e44 803e b2bc 13be 0d2f 85bc 59fa 6abe
000000f0: 0509 59bd 940a a53d 06ca f6be 1027 463c
00000100: 2809 9abe 8cbe a93c 6019 c03d c9ba 133e
00000110: 6f5d c4be 21e7 063c 695b fc3c d7e0 a53d
00000120: 27f9 98bd bec5 b2bd da50 11be 8e4d 9b3d
00000130: d3ed e3bd 02f3 fd3c d9c7 37bc a709 803e
00000140: 1c73 0abe e1f8 3fbe 6476 babe eae7 6dbe
00000150: 981d ef3d 63f4 413c 34cd d03c 0ab2 02be
00000160: 4a9c 20be 0e0a 21bf 8cb2 c03e 8577 023e
00000170: f29b 233d bb04 77bc 3a15 45bd e5bc 4abf
00000180: f133 313e 3446 d8bd 8583 963e e172 9c3d
00000190: 97b6 78bd a935 423e 95b9 a53c e0e0 3b3d
000001a0: 7421 8fbd f6ba 49be 8faa d3bd 9998 51be
000001b0: 9ae7 ffbd 28b2 48bd 0a51 16be c650 3d3d
000001c0: 0154 c0bd 1af3 e2bd 34e9 e7bb 61e7 23be
000001d0: 2b44 40be b2a6 7e3c 19ff 923d 41e0 50be
000001e0: 220e 9a3c 5214 bf3d 8826 cb3d 464d 80bf
000001f0: 08ae 96bd c913 5f3e d770 1c3d 1671 053e
00000200: a036 05be b0b0 d23d 7b8e ecbc d2fa b2bd
00000210: e9d9 02be 565e b33d 0cbe 0c3d 6043 6f3d
00000220: e46e d53d 482b f1bd 236f 253c cbdd 1fbe
00000230: a1e6 d6bd 1877 bd3c e87c 7a3c 6365 23be
00000240: 8f00 87bc b4ce 97bd 3861 9abd c01c 95bd
00000250: e48e 88bd 8ab2 803d da27 e93d 60ec 253d
00000260: 5e19 10bd 0795 d4bd 8b2b 01be 0867 5bbd
00000270: 1309 873c e84e 06bd 2f2e 2d3d ce1c b6bd
00000280: bb50 04bd 36fb b3bc 36be 46bd e530 adbd
00000290: d4f5 fcbc 969f 17be 31d8 f7bd 6e0f db3b
000002a0: 0609 d7bd c6a0 ec3c 26c7 e23d 78f9 063d
000002b0: dfc4 c9bd f678 943d 16ef 4abd 9132 4fbd
000002c0: 1c2c 0a3e f821 c0bd 05e0 0abb 2318 0ebe
000002d0: edfe fd3c 2cff 943d 5bab 4abe 2218 ba3b
000002e0: fefb 8f3d d880 4f3c 4f3f a43d 5502 d2bd
000002f0: 8e32 d43d c1cb 95bd 70ed a1bd 493e dbbc
00000300: cbe1 85bd b031 1fbd fca9 fa3d 12d3 ddbd
00000310: 61dc 42be 6f9e e8bd 7005 e2bd 5427 f8bd
00000320: b5bf 50be 9775 41be 9ed2 54be 22de a3bd
00000330: 465d 943d cc8d 523d 5cf5 e2bd 4326 91bd
00000340: 200c bc3b 1118 a5bd 979b c43d 4f36 75be
00000350: bed4 7bbd 0128 98bd 2432 33be b383 39be
00000360: 296c 12bd c9fb 96be 132a f6bd 8455 77bd
00000370: 0ba1 863d 3587 0abe e6c0 613c ac1d cdbd
00000380: 85d6 a23c f439 f3bd 5232 35bd 7c30 ecbd
00000390: 6110 e63c f6f8 1bbe 2298 00bc f0e8 5e3b
000003a0: d9ad 74be 309c d6bd c0c8 953d b6d1 d73d
000003b0: 0877 25be e7ba 843d aba0 34be d9fd 8cbd
000003c0: 0cff b33d 5c11 ba3d 6f69 813d eb3b 1bbd
000003d0: fe58 bb3c 80db e83d 4478 b3be b430 62bd
000003e0: 1be7 c83d a06f 0b3c f9fb 20bd d209 7fbd
000003f0: aa7f d23d 4a39 18be bac0 013e c08e 86bd

w_group.2.bias f4 [32]
-0.9082694 -0.40921912 0.0007118963 -0.32065058 0.09718991 0.22117178 0.4540908 -0.38095322
-0.004767981 -0.104072414 -0.39585137 -0.14816163 -0.096718974 0.1162374 -0.8437936 -0.23493472
-0.07330853 -0.8661254 -0.26331922 -0.10302285 0.66331065 -0.511205 -0.0024783274 0.046071924
-0.45240682 -0.08287293 -0.6223351 -0.12764801 -0.00895983 0.901446 -0.08960143 -0.5867293
00000000: 5884 68bf 2b85 d1be 8d9e 3a3a 502c a4be
00000010: 810b c73d db7a 623e 977e e83e 4d0c c3be
00000020: b93c 9cbb eb23 d5bd 08ad cabe afb7 17be
00000030: 9914 c6bd e00d ee3d db02 58bf ba92 70be
00000040: c822 96bd 65ba 5dbf c7d1 86be a5fd d2bd
00000050: bace 293f 55de 02bf 6f6b 22bb eab5 3c3d
00000060: dea1 e7be 48b9 a9bd 5a51 1fbf 29b6 02be
00000070: 40cc 12bc 2ac5 663f f480 b7bd e433 16bf

w_agents.0.weight f4 [64, 5]
0.38507032 -0.11235891 0.330792 -0.5826951 -0.6299073 0.014733417 0.037830785 -1.3901032
-0.5040163 -0.61087775 -0.007945595 0.0013613433 0.25158542 -0.3118895 -0.24974518 -0.26249063
0.20918341 -0.8799859 -0.7355495 -0.9773996 0.09481602 0.031606235 0.9262269 -1.0063591
-0.1253762 -0.07592015 -0.15318006 -0.058860257 -0.18374507 -0.56609493 -0.08608428 0.8544505
-0.72203386 1.2555912 -0.49852994 0.06737091 -0.21214774 -1.7811891 4.8997498 -0.4580248
-0.07054535 0.73399174 -3.2284238 -0.22737308 -0.17551759 0.011317869 0.055591367 0.18259874
-0.10851735 -0.49860775 -0.091464944 0.2924305 2.2713108 -0.07674042 -0.40132555 0.07782104
0.12081256 2.4589589 1.1235498 -0.15495484 0.06525571 -0.13359687 0.05263836 0.6156341
-0.42703804 0.020846132 0.24216378 -0.44970158 -0.02054151 -0.69118255 0.020447958 0.06784959
0.107605845 0.14099433 -0.38848794 -0.4955222 -0.048316143 0.5408055 0.60414445 -0.5858836
0.12183791 -0.33842614 1.2471215 -0.638462 -0.9649484 -0.039736703 0.036832083 9.689165
0.0014312778 0.008188953 -0.23882444 -0.17810082 -1.3454028 -0.2951928 -1.1970245 -0.15885548
0.69723886 1.527474 1.555592 -0.8671863 0.0051244935 -0.043361515 0.3682896 0.17661798
-0.7599397 -0.0017122347 0.17317992 -1.60963 0.4093591 -0.13631837 0.1884875 0.544731
-1.1823602 -0.103109255 -0.0391299 -0.06273448 0.11166891 -2.205715 0.131523 -0.65096563
-0.16924702 -0.15591936 -1.8903149 0.19254006 -0.67616534 0.31306192 -0.06761509 1.426731
0.1903085 -0.24827953 -0.010754133 0.013903057 -0.31276983 -0.02497156 -0.18569747 -0.24725315
0.95695037 -0.4357772 1.551007 -0.14307097 -0.35183373 0.5169083 -0.67159 0.027042732
-0.11946982 -0.035230543 0.50384533 1.8836834 0.87033355 -0.27528596 -0.18750353 -0.3424007
1.6036439 5.5033827 -0.32774714 0.29078367 0.48938403 1.3680881 -0.45871168 -1.1802487
0.0055694086 0.2523453 0.13275398 0.4321139 -0.7192626 0.35702357 0.65019655 2.1997175
0.55765796 -0.638407 0.00395638 0.7765569 0.6045033 0.44852215 -0.22293468 0.10617305
-0.29679123 -1.0362236 -0.96463734 -0.67566925 -0.20114358 0.29606065 2.1288812 3.5474246
0.22703336 -0.05205534 0.59961 -1.429944 0.5075848 -0.832035 -0.021857943 0.041330624
2.123638 -0.5343861 -0.6195196 -0.1286749 0.76622087 0.30985624 -0.48760742 -1.1830138
-0.042586505 -0.12763192 -0.12530921 0.38719797 -0.59868616 -0.23112284 0.5923957 1.6048026
-0.54080915 -0.48878145 -0.43213713 -0.13999324 0.657862 -0.038742207 -0.785775 0.0007172378
-0.42436633 -1.2004536 0.2954048 -0.6853028 -0.2120125 0.47671336 -1.4031725 0.85396475
-0.30753297 0.37582397 0.4516432 -0.36273846 2.6513245 -0.29432926 -0.18026026 0.7969464
0.8881961 1.1469992 -1.1214225 -0.07589797 0.61795926 -0.7189819 2.393929 -0.3115132
0.15622115 0.55635595 0.31132543 1.9212508 -1.463002 -0.21235287 -0.4827302 2.0061607
-0.19908626 -0.65681136 -0.06432369 -0.05929303 1.4838591 -1.1644192 -0.20219609 -0.0041557592
00000000: f027 c53e 6e1c e6bd 925d a93e 822b 15bf
00000010: 9b41 21bf 6e64 713c 74f4 1a3d e7ee b1bf
00000020: 3607 01bf 7c62 1cbf 3e2e 02bc 1a6f b23a
00000030: cecf 803e fbaf 9fbe 33bd 7fbe 2c65 86be
00000040: 2d34 563e c246 61bf f94c 3cbf dc36 7abf
00000050: e72e c23d 8a75 013d 351d 6d3f 60d0 80bf
00000060: 9e62 00be 067c 9bbd 3cdb 1cbe 7417 71bd
00000070: ab27 3cbe 99eb 10bf f44c b0bd 45bd 5a3f
00000080: 36d7 38bf 36b7 a03f 513f ffbe c2f9 893d
00000090: 423d 59be 01fe e3bf c0ca 9c40 3a82 eabe
000000a0: 157a 90bd e2e6 3b3f 7f9e 4ec0 7dd4 68be
000000b0: e2ba 33be 956e 393c c6b3 633d 2afb 3a3e
000000c0: 583e debd 8449 ffbe f951 bbbd 73b9 953e
000000d0: 285d 1140 152a 9dbd 8b7a cdbe a360 9f3d
000000e0: 936c f73d 955f 1d40 7bd0 8f3f 7bac 1ebe
000000f0: c9a4 853d 9ecd 08be 529b 573d 329a 1d3f
00000100: bba4 dabe 82c5 aa3c c8f9 773e 493f e6be
00000110: ab46 a8bc 57f1 30bf 7a82 a73c baf4 8a3d
00000120: 7460 dc3d d160 103e e4e7 c6be 16b5 fdbe
00000130: 26e7 45bd 3b72 0a3f 36a9 1a3f 78fc 15bf
00000140: 2786 f93d 3146 adbe ada1 9f3f 3f72 23bf
00000150: dc06 77bf f4c2 22bd 3ddd 163d d206 1b41
00000160: b799 bb3a f52a 063c 658e 74be 1060 36be
00000170: 2936 acbf 8323 97be 1938 99bf 03ab 22be
00000180: 3f7e 323f 4584 c33f a31d c73f ecff 5dbf
00000190: 5eeb a73b d89b 31bd 7490 bc3e 58db 343e
000001a0: 688b 42bf 106d e0ba 1456 313e 5b08 cebf
000001b0: 8497 d13e 0b97 0bbe de02 413e 7e73 0b3f
000001c0: 9457 97bf f22a d3bd ad46 20bd ef7a 80bd
000001d0: abb2 e43d 6f2a 0dc0 f7ad 063e afa5 26bf
000001e0: 174f 2dbe 53a9 1fbe d7f5 f1bf 3929 453e
000001f0: 2c19 2dbf a749 a03e c879 8abd 1f9f b63f
00000200: 3be0 423e fd3c 7ebe 1a32 30bc a6c9 633c
00000210: 5e23 a0be 2891 ccbc 7a27 3ebe ee2f 7dbe
00000220: b3fa 743f 301e dfbe 6687 c63f 3281 12be
00000230: 8d23 b4be 1a54 043f 52ed 2bbf b888 dd3c
00000240: 98ac f4bd e74d 10bd 02fc 003f 8a1c f13f
00000250: 2ece 5e3f 48f2 8cbe ed00 40be 254f afbe
00000260: 3444 cd3f b61b b040 79ce a7be 99e1 943e
00000270: 8b90 fa3e 831d af3f 42dc eabe 6412 97bf
00000280: 967f b63b 6733 813e a9f0 073e 083e dd3e
00000290: 9821 38bf cbcb b63e 4873 263f 2cc8 0c40
000002a0: acc2 0e3f a46e 23bf 85a4 813b 6fcc 463f
000002b0: bac0 1a3f b2a4 e53e fd48 64be 4271 d93d
000002c0: 05f5 97be faa2 84bf 79f2 76bf a9f8 2cbf
000002d0: 95f8 4dbe 4395 973e 973f 0840 0109 6340
000002e0: 6f7b 683e fb37 55bd 0a80 193f 6808 b7bf
000002f0: 14f1 013f 3f00 55bf 6e0f b3bc 4d4a 293d
00000300: afe9 0740 87cd 08bf d698 1ebf 5ac3 03be
00000310: 0d27 443f 7aa5 9e3e aea7 f9be ff6c 97bf
00000320: 306f 2ebd f1b1 02be 0f51 00be d03e c63e
00000330: 7f43 19bf 77ab 6cbe 3fa7 173f 2c6a cd3f
00000340: 7872 0abf 9041 fabe 1441 ddbe 635a 0fbe
00000350: a569 283f 26b0 1ebd 8d28 49bf 0405 3c3a
00000360: 8b46 d9be 77a8 99bf 4c3f 973e 0170 2fbf
00000370: ce19 59be c613 f43e 289b b3bf 6f9d 5a3f
00000380: f674 9dbe 006c c03e c73d e73e dbb8 b9be
00000390: 4daf 2940 53b2 96be 2596 38be ae04 4c3f
000003a0: d260 633f dfd0 923f c68a 8fbf 6570 9bbd
000003b0: 9432 1e3f 330f 38bf 2236 1940 a87e 9fbe
000003c0: 70f8 1f3e 586d 0e3f 0c66 9f3e 8ceb f53f
000003d0: a643 bbbf 0873 59be 6a28 f7be f064 0040
000003e0: 45dd 4bbe ca24 28bf 24bc 83bd 40dd 72bd
000003f0: 18ef bd3f b00b 95bf 7e0c 4fbe 092d 88bb

w_agents.0.bias f4 [64]
-1.4570338 -0.54129136 -0.36864993 -0.5360395 -0.6821614 -0.7943876 -0.55178744 -0.10949376
0.10146742 -0.26923406 -0.42829978 -0.46591783 -0.7193523 -1.0525496 -0.085319795 -0.64539737
-1.1891469 0.070531465 -0.96382445 -0.35281143 -0.19657357 -0.045113277 -0.50545627 -0.108323544
-0.8195262 -0.24409874 -0.29033953 0.025485957 -0.13333216 0.014071537 -0.65085584 -1.1561247
-0.50160307 -0.82095844 -0.51682353 -0.8543107 0.07794566 -1.1325113 -0.1384444 -0.88172865
-0.56109935 -0.1596859 -1.2345287 -1.0676235 -0.6259933 -0.88843715 -0.62552136 0.32618877
-0.8367457 -0.8268727 -0.9927444 -0.25284132 -0.024868464 -0.89015836 -0.13006787 -0.5273196
-0.16465618 -0.80434686 -0.08017441 -0.5978897 0.068487614 -1.1216711 -0.34799677 -0.5153947
00000000: 1580 babf 1292 0abf afbf bcbe e239 09bf
00000010: 21a2 2ebf fc5c 4bbf f141 0dbf 443e e0bd
00000020: 27ce cf3d 0cd9 89be 1c4a dbbe c88c eebe
00000030: 7927 38bf f2b9 86bf 25bc aebd c338 25bf
00000040: f735 98bf cd72 903d 33bd 76bf b3a3 b4be
00000050: 954a 49be b3c8 38bd 9565 01bf bcd8 ddbd
00000060: 78cc 51bf 05f5 79be 62a7 94be edc7 d03c
00000070: 3a88 08be 4e8c 663c 7d9e 26bf e5fb 93bf
00000080: 0f69 00bf 552a 52bf 8c4e 04bf 1bb4 5abf
00000090: f9a1 9f3d 21f6 90bf 5ec4 0dbe f8b8 61bf
000000a0: 35a4 0fbf b384 23be 0905 9ebf e3a7 88bf
000000b0: 1941 20bf 9e70 63bf 2b22 20bf 3702 a73e
000000c0: f734 56bf eead 53bf 7f24 7ebf 6b74 81be
000000d0: f3b8 cbbc 6be1 63bf 8330 05be 6bfe 06bf
000000e0: a19b 28be ade9 4dbf 7b32 a4bd 4d0f 19bf
000000f0: 3c43 8c3d eb92 8fbf a22c b2be e8f0 03bf

w_agents.2.weight f4 [32, 64]
-0.4005955 -0.61141354 0.087732814 -0.33773297 -0.27338237 0.05130572 0.14667748 0.17398128
-0.37236 -0.15656425 -0.071631365 -0.116416864 0.1344785 -0.53742224 -0.040073313 -0.19933167
0.019990932 -0.4366922 -0.14814027 -0.015495983 -0.11034882 -1.5438459 -0.54119503 -0.5796575
0.09537906 -0.52292955 -0.092160046 -0.2414563 -0.23568149 0.1097743 0.19649157 -0.5621961
0.053325266 -0.3200446 -0.5705206 -0.21317747 0.3223489 -0.032317985 -0.22332945 -0.15042134
-0.30680132 -0.74258447 -0.00503681 -0.21562158 0.3210134 -0.042420045 -0.2043896 0.48190564
0.079679295 0.1807247 -0.18597655 -0.2960895 -1.7808282 0.11063194 -0.6617693 -0.14518692
-0.54005575 -0.25117284 -0.07255329 0.095220365 -0.45009965 -0.65165585 -0.019249942 0.07540894
0.0016193272 -0.24533898 -0.193003 -2.631854 -0.38670352 -0.35028636 -0.09886887 0.81088984
0.15816842 -0.4729518 -0.3757774 0.0778156 0.010517527 -0.38052234 -0.119393006 -0.45228964
-0.1588474 -1.8885616 -1.1407465 -0.101985514 0.074269705 0.18877795 0.019566908 0.3063267
-0.5082067 -0.7005776 -0.12693626 -0.40590295 -0.19622421 -1.377955 -0.5696542 -0.12830675
-0.099806115 -0.43121636 -0.74769366 -0.6161573 0.20020501 -0.5390118 -0.3928939 -0.156482
-0.41565153 -0.402774 -0.30473837 0.030752182 -0.24653564 0.41609606 -0.015504918 -0.10270464
-0.5005021 -0.6062601 -0.20428939 -0.483014 0.104171135 -0.37544924 -1.2108876 -0.033833213
-1.0460074 -0.34025016 -0.14621738 -0.09969127 -1.2347099 -0.6893384 -0.61266345 -0.09199496
-0.10229322 -0.10648742 -0.03493926 0.07932616 -0.03735532 -0.02657707 -0.09117281 -0.1604926
-0.099439025 0.02366831 0.015245076 -0.054458898 -0.082882255 -0.12448576 -0.0139043825 -0.016010964
-0.0714491 -0.117064774 0.04825389 0.035994865 0.03943636 -0.15475194 0.014498296 -0.11669076
0.057801418 -0.04396333 -0.117804624 -0.026391633 0.004851265 -0.12605438 -0.0903413 0.123993605
-0.018186193 -0.07857456 0.010048253 0.023891706 -0.12747346 -0.038263265 -0.047305577 0.009129976
-0.093724385 -0.0012110923 0.052931514 -0.04458286 0.0061050053 -0.06955699 -0.029742235 0.00029360753
-0.03680929 -0.013796302 0.019131038 0.06375935 -0.11134723 -0.09471148 -0.04954654 -0.03469018
0.025883216 -0.09041192 -0.0809357 0.083707064 -0.015852222 0.10675856 -0.039663665 -0.004263064
-0.30298042 -0.73875356 -0.23653658 -0.55139023 0.31775105 -0.0728565 -0.59468293 0.044534482
-0.027474942 0.03116681 -0.040193703 -0.02336973 0.05272023 -0.6400511 0.013905643 -0.41259742
-0.084247075 -1.5593894 -0.1331018 -0.45589924 0.06819364 0.25792548 0.36176696 -0.3314826
-1.6298524 0.104596145 0.07298493 -1.3328854 -1.076778 1.1194732 -0.23291579 -0.38908783
0.12542424 -0.5131777 -0.54895604 0.4803489 0.43615738 -0.25444373 0.18937723 -0.3383056
0.12278194 0.07439339 -0.4000366 0.02044158 -1.675596 -0.04847152 -0.19737437 0.09547976
-0.31775093 -1.1128082 -0.9649087 -0.05402016 -0.13526106 0.27969664 0.38025886 0.34851292
0.43929347 -1.3307557 0.029845838 -0.077086985 -0.22842348 -0.61645114 -1.7681887 -0.026318211
00000000: da1a cdbe 9985 1cbf 43ad b33d 56eb acbe
00000010: c6f8 8bbe f225 523d 9f32 163e 2628 323e
00000020: f8a5 bebe 6152 20be 77b3 92bd f76b eebd
00000030: bbb4 093e 8194 09bf ea23 24bd 9a1d 4cbe
00000040: 06c4 a33c 1f96 dfbe 15b2 17be dde2 7dbc
00000050: 90fe e1bd be9c c5bf c28b 0abf 6f64 14bf
00000060: 1956 c33d b6de 05bf 68be bcbd 5240 77be
00000070: 7d56 71be 59d1 e03d 1635 493e 15ec 0fbf
00000080: 986b 5a3d e3dc a3be a30d 12bf 324b 5abe
00000090: ea0a a53e dd5f 04bd 7ab0 64be 0d08 1abe
000000a0: 1015 9dbe 041a 3ebf d30b a5bb e7cb 5cbe
000000b0: de5b a43e a4c0 2dbd 824b 51be 56bc f63e
000000c0: e62e a33d e50f 393e a370 3ebe 0b99 97be
000000d0: 2ef2 e3bf 0093 e23d b669 29bf e1ab 14be
000000e0: 1841 0abf ba99 80be d296 94bd e502 c33d
000000f0: 7673 e6be ebd2 26bf 0eb2 9dbc 0170 9a3d
00000100: 9b3f d43a 243a 7bbe 94a2 45be 4c70 28c0
00000110: 01fe c5be bc58 b3be c37b cabd 7a96 4f3f
00000120: e7f6 213e bd26 f2be e565 c0be c95d 9f3d
00000130: b551 2c3c d3d3 c2be 5284 f4bd 8292 e7be
00000140: e5a8 22be 63bc f1bf fb03 92bf c8dd d0bd
00000150: b71a 983d 024f 413e c84a a03c dad6 9c3e
00000160: d619 02bf 0e59 33bf 94fb 01be 83d2 cfbe
00000170: 00ef 48be d460 b0bf dcd4 11bf d862 03be
00000180: 2667 ccbd 64c8 dcbe da68 3fbf 7cbc 1dbf
00000190: 8b02 4d3e adfc 09bf 6429 c9be d13c 20be
000001a0: 47d0 d4be 6538 cebe ab06 9cbe 00ec fb3c
000001b0: d773 7cbe 8b0a d53e 5708 7ebc cf56 d2bd
000001c0: e820 00bf dd33 1bbf 3d31 51be 9c4d f7be
000001d0: ad57 d53d e23a c0be 5dfe 9abf b294 0abd
000001e0: 92e3 85bf 4535 aebe 02ba 15be f02a ccbd
000001f0: f90a 9ebf 7b78 30bf 83d7 1cbf db67 bcbd
00000200: 1c7f d1bd 1416 dabd 781c 0fbd c175 a23d
00000210: e401 19bd 28b8 d9bc cfb8 babd 2c58 24be
00000220: b0a6 cbbd 0be4 c13c 7cc6 793c 4b10 5fbd
00000230: 2cbe a9bd 64f2 febd 35cf 63bc 6d29 83bc
00000240: e853 92bd a8bf efbd dfa5 453d 5a6f 133d
00000250: 0588 213d 4b77 1ebe 438a 6d3c 91fb eebd
00000260: 2ec1 6c3d e512 34bd 8d43 f1bd 4433 d8bc
00000270: 5cf7 9e3b 6614 01be dc04 b9bd 5cf0 fd3d
00000280: 36fb 94bc b3eb a0bd 6ea1 243c 8ab8 c33c
00000290: 6788 02be f1b9 1cbd 7ec3 41bd e595 153c
000002a0: 92f2 bfbd 84bd 9eba b7ce 583d 849c 36bd
000002b0: 7f0c c83b e573 8ebd fda5 f3bc 56ef 9939
000002c0: 57c5 16bd e209 62bc b2b8 9c3c 4394 823d
000002d0: 040a e4bd 18f8 c1bd 50f1 4abd 4a17 0ebd
000002e0: 0a09 d43c e229 b9bd 9ec1 a5bd 9c6e ab3d
000002f0: 85dc 81bc 3ba4 da3d 5e76 22bd 2cb1 8bbb
00000300: 4020 9bbe f41e 3dbf a536 72be e927 0dbf
00000310: 44b0 a23e ca35 95bd 243d 18bf ca69 363d
00000320: 2113 e1bc 8a51 ff3c 27a2 24bd e071 bfbc
00000330: 2bf1 573d 64da 23bf 7ed4 633c f83f d3be
00000340: bb89 acbd 129a c7bf d74b 08be a06b e9be
00000350: 1ba9 8b3d cf0e 843e 8539 b93e 16b8 a9be
00000360: 019f d0bf 8136 d63d 1f79 953d fd9b aabf
00000370: ddd3 89bf e64a 8f3f 7a81 6ebe 8536 c7be
00000380: 366f 003e 9d5f 03bf 6288 0cbf 4bf0 f53e
00000390: 0550 df3e 7346 82be 1bec 413e 6436 adbe
000003a0: 1975 fb3d 905b 983d 99d1 ccbe 1a75 a73c
000003b0: ee79 d6bf 138a 46bd 821c 4abe e48a c33d
000003c0: 40b0 a2be 8070 8ebf 4204 77bf 3e44 5dbd
000003d0: e081 0abe 6634 8f3e 4ab1 c23e 4970 b23e
000003e0: 13eb e03e 3456 aabf 427f f43c c8df 9dbd
000003f0: d8e7 69be becf 1dbf 0254 e2bf 4a99 d7bc

w_agents.2.bias f4 [32]
-0.34819162 -0.4074688 -0.049843326 -0.011106 0.1777406 0.15365206 -0.15191846 0.14007193
-0.24446292 0.09421683 -0.11123532 -0.13160788 0.28455207 -0.21069783 -0.07156785 0.18919575
0.14139172 -0.15131658 -0.11486601 -0.1357238 -0.13896078 -0.14972037 -0.19962083 0.40244958
-0.20167491 -0.2069258 -0.06967832 -0.19714199 0.029316409 -0.28107518 -0.069401555 -0.1719158
00000000: 2c46 b2be c09f d0be 8428 4cbd f1f5 35bc
00000010: a201 363e f756 1d3e 8390 1bbe 046f 0f3e
00000020: 7d54 7abe c1f4 c03d 58cf e3bd 37c4 06be
00000030: cfb0 913e 2cc1 57be 2a92 92bd 88bc 413e
00000040: fec8 103e bcf2 1abe df3e ebbd 2efb 0abe
00000050: bc4b 0ebe 4c50 19be 6769 4cbe df0d ce3e
00000060: de83 4ebe 5be4 53be 82b3 8ebd 97df 49be
00000070: f728 f03c 16e9 8fbe 6722 8ebd b20a 30be

Ws.0 f4 [32, 32]
-3.175284 -0.83435774 0.33620825 0.4435352 -0.82176507 0.8991625 -1.9891354 -0.805307
-0.79279053 1.7253633 1.2633246 0.4095065 1.0613323 -1.2856345 0.12754235 0.58094275
0.22532107 -1.4402604 0.47760558 -0.10126999 -1.7771773 0.27845934 0.2469147 0.19990863
-1.0830723 -1.1502352 -1.1833082 0.86727166 0.14507395 1.7150238 -0.24347188 -0.7145257
-0.7430329 0.39003503 0.01997071 -3.9533474 -2.3569882 0.04324678 0.9264135 0.45234808
-1.8396616 -0.35457623 -2.412181 -1.5949365 -3.056686 0.07526936 0.42947444 1.8126167
0.49533144 -0.43978226 -1.1529253 0.7106836 0.41707093 -0.57194465 1.4266896 -0.050166193
-0.18539996 -0.6829884 -1.722846 0.6026787 -0.73506755 -1.3232428 0.77524954 -0.973862
-0.8129239 0.9227367 -0.4975023 0.22869356 1.6417224 -0.22745582 -0.5340177 2.531682
0.17755572 1.7395543 -1.8460913 -1.1430169 0.509584 0.21022071 0.05232971 0.7243847
-0.61292535 -0.13319337 0.4688835 2.6991384 -0.82655305 -0.24104361 -1.0142577 0.6380152
0.13433656 -0.72887653 0.55664706 1.2331944 0.50382805 -1.0617919 -0.30456954 0.65363723
-1.8076998 0.54847 1.2756666 2.1514502 0.53537345 1.7882315 -0.3412982 0.4103765
-0.24657632 -0.73307973 -3.9059117 -1.5596756 -1.7978168 0.22630906 0.94888276 0.99840826
-2.4771116 1.5058556 0.8351245 -1.2776283 -1.5944312 -0.7264709 0.94757724 -1.252673
0.44747406 2.999671 2.4764116 -1.0771582 -1.0534748 -1.4756014 0.18925923 0.37639225
-0.19200099 -3.6056561 -0.18332939 0.5241047 -0.28405285 1.124337 -2.230247 -0.72586817
-2.90738 1.3496907 1.2147802 0.9349918 -0.20538673 -0.9672908 0.50049865 0.59022856
2.0597718 0.64014643 0.350525 1.7398858 0.35649773 0.0041722734 -1.5617998 -0.44456905
1.5089046 -3.7597733 -0.609516 -0.68166876 0.07694475 1.8909153 0.4708906 0.48277456
-1.6042602 -0.6210912 -0.042275526 -2.3197212 -0.56535125 0.6021723 0.3110161 0.11672435
0.5389052 1.1458385 0.8443186 0.055537935 -0.43241912 0.6708637 0.8576224 -0.50578785
-0.5468645 0.043789376 1.435006 1.5354389 0.9635111 0.91879094 -0.66907895 -0.21126235
1.5681821 0.82272977 1.1683385 -0.9745346 -0.33765206 -1.2937567 0.64072365 -0.5787166
-0.23745319 -2.868323 -0.5088597 -1.2251716 0.0731388 0.072514415 -1.2800028 -2.899766
-0.18840946 0.12718919 1.0794508 -0.7464912 -0.7638965 -0.1447559 0.77996224 0.16432555
0.82600963 -0.49352244 -0.15665577 -0.7609701 -0.43914002 1.6186109 -0.1131356 0.71995103
-0.12457465 -3.4720778 -1.1199818 -2.4011478 0.26597157 0.029445847 0.12074033 0.37625438
0.63006335 -1.8839391 -0.89498043 -1.9319173 0.26151195 -1.4380335 -0.10744541 0.86680084
1.3622226 -0.01936157 0.19311059 0.43148044 0.7872664 0.55370605 1.0758904 -0.85608107
0.28730473 -0.35617828 -1.0188947 -0.14014885 0.20684163 -0.5004623 -0.72349906 0.011234404
-0.61768836 -0.5882482 0.67551005 1.1034135 0.6066805 0.96422535 -0.29546937 -0.6372087
00000000: da37 4bc0 7898 55bf 7d23 ac3e 0c17 e33e
00000010: 325f 52bf 832f 663f fd9b febf 9928 4ebf
00000020: 52f4 4abf b4d8 dc3f 9fb4 a13f d6aa d13e
00000030: bdd9 873f ac8f a4bf 769a 023e aab8 143f
00000040: 91ba 663e 745a b8bf b888 f43e a466 cfbd
00000050: 8c7a e3bf 3992 8e3e 35d7 7c3e d9b4 4c3e
00000060: 1da2 8abf e83a 93bf a576 97bf 8405 5e3f
00000070: 448e 143e e685 db3f b150 79be 28eb 36bf
00000080: 6737 3ebf acb2 c73e 9d99 a33c a503 7dc0
00000090: e5d8 16c0 8923 313d 6f29 6d3f 2b9a e73e
000000a0: 087a ebbf 048b b5be 2c61 1ac0 e126 ccbf
000000b0: bea0 43c0 d226 9a3d 13e4 db3e d303 e83f
000000c0: 159c fd3e 242b e1be 0e93 93bf 5cef 353f
000000d0: 528a d53e f76a 12bf c49d b63f 117b 4dbd
000000e0: 7dd9 3dbe 54d8 2ebf 3886 dcbf 2749 1a3f
000000f0: 632d 3cbf 0560 a9bf c176 463f 054f 79bf
00000100: c81b 50bf 7938 6c3f 9fb8 febe a52e 6a3e
00000110: f623 d23f 2eea 68be 62b5 08bf 1407 2240
00000120: 2bd1 353e b7a9 de3f b84c ecbf 614e 92bf
00000130: 1974 023f 1944 573e ae57 563d 4771 393f
00000140: ade8 1cbf d863 08be 8011 f03e afbe 2c40
00000150: fb98 53bf 23d4 76be 32d3 81bf f754 233f
00000160: 868f 093e a797 3abf 6c80 0e3f 50d9 9d3f
00000170: e0fa 003f cce8 87bf 8af0 9bbe c554 273f
00000180: b562 e7bf 8868 0c3f 0b49 a33f 5cb1 0940
00000190: 3c0e 093f c5e4 e43f a3be aebe de1c d23e
000001a0: 817e 7cbe 1dab 3bbf 75fa 79c0 73a3 c7bf
000001b0: dc1e e6bf 90bd 673e fbe9 723f af97 7f3f
000001c0: ff88 1ec0 e0bf c03f b8ca 553f 5389 a3bf
000001d0: 5216 ccbf fff9 39bf 6c94 723f 9757 a0bf
000001e0: 521b e53e 9cfa 3f40 877d 1e40 52e0 89bf
000001f0: 43d8 86bf 82e0 bcbf 2ccd 413e 7cb6 c03e
00000200: e89b 44be 12c3 66c0 b3ba 3bbe ba2b 063f
00000210: 606f 91be 46ea 8f3f 5ebc 0ec0 7fd2 39bf
00000220: 8412 3ac0 aac2 ac3f eb7d 9b3f 9f5b 6f3f
00000230: e650 52be 5fa0 77bf ae20 003f 3819 173f
00000240: 4dd3 0340 a3e0 233f 0378 b33e 94b4 de3f
00000250: df86 b63e 91b7 883b 0ee9 c7bf 8e9e e3be
00000260: c923 c13f 20a0 70c0 3e09 1cbf d881 2ebf
00000270: 3695 9d3d 8309 f23f 9318 f13e 3a2e f73e
00000280: 6658 cdbf d5ff 1ebf 1a29 2dbd 5076 14c0
00000290: dcba 10bf f727 1a3f 813d 9f3e 2d0d ef3d
000002a0: b1f5 093f d6aa 923f 4425 583f bf7b 633d
000002b0: 0a66 ddbe b9bd 2b3f 248d 5b3f 507b 01bf
000002c0: 50ff 0bbf 7d5c 333d 47ae b73f 4389 c43f
000002d0: aaa8 763f e235 6b3f c248 2bbf 2855 58be
000002e0: 31ba c83f 6b9e 523f 1e8c 953f 197b 79bf
000002f0: bbe0 acbe d299 a5bf 7706 243f c526 14bf
00000300: ee26 73be 9b92 37c0 a144 02bf 6cd2 9cbf
00000310: ccc9 953d 7082 943d 22d7 a3bf c495 39c0
00000320: 69ee 40be e23d 023e 722b 8a3f 0c1a 3fbf
00000330: b98e 43bf e43a 14be 9bab 473f f544 283e
00000340: 5e75 533f f9ae fcbe 5f6a 20be f0ce 42bf
00000350: f6d6 e0be a42e cf3f a3b3 e7bd b64e 383f
00000360: fe20 ffbd 8636 5ec0 905b 8fbf 68ac 19c0
00000370: 6d2d 883e 6b38 f13c b546 f73d 6aa4 c03e
00000380: d54b 213f eb24 f1bf 701d 65bf 1149 f7bf
00000390: e5e4 853e 7b11 b8bf 570c dcbd a9e6 5d3f
000003a0: 4f5d ae3f 289c 9ebc c8be 453e 01eb dc3e
000003b0: 4a8a 493f aebf 0d3f c7b6 893f 2128 5bbf
000003c0: 9b19 933e 005d b6be 246b 82bf 2e83 0fbe
000003d0: 4bce 533e 4c1e 00bf 3c37 39bf 8110 383c
000003e0: d320 1ebf 6f97 16bf 3aee 2c3f a73c 8d3f
000003f0: 6a4f 1b3f 79d7 763f c347 97be 1c20 23bf

Ws.1 f4 [32, 32]
0.75071 -1.116502 0.9071196 0.41843942 0.7385679 -0.58250254 -0.10641681 1.416074
-0.42257282 -0.014398307 0.008993662 0.75534046 -1.9525388 1.4561955 1.0320119 0.07912911
-1.0011836 -1.0412841 -0.32303926 -0.8215185 -2.1292157 1.635047 0.19759989 1.27917
-1.6187522 2.6957736 1.0905067 -0.14331494 0.8910655 0.40609676 -0.9379237 0.48305005
0.7164559 1.9368153 -0.68287784 -0.6219284 -1.1233519 0.79461056 0.38759157 0.41177016
0.17839497 -0.54999745 0.4545142 -0.61157346 0.9003779 -1.7801137 -0.23252799 -0.066504106
-0.008919101 -0.11201279 -0.11527338 -0.80255866 -0.018106189 0.42520162 -0.50097173 -0.9714971
0.4223508 -0.41586274 -2.6603649 1.9067394 -0.34737104 0.6866577 -1.1660237 1.0763614
-1.0217357 -0.8934112 -1.2831376 0.5919579 -0.44689646 1.3651093 1.6737412 0.82490623
-0.7616671 0.19458438 0.57235163 -1.0745738 0.47539955 -0.16187485 -0.9781209 0.42720935
1.8333118 -1.6530885 -0.28005853 -1.9049195 -2.0632644 -0.23921594 -1.2514758 -1.1722233
0.31489837 2.7932718 -1.5678982 -2.1529715 -0.5295348 0.007498543 -0.22103778 -0.3355746
-0.03533525 -1.1595902 -0.6324358 -0.5939527 -0.5771797 -0.77374446 0.08950626 0.20510206
-0.06901558 -0.91411066 1.089139 -1.2751268 0.83250886 0.5760214 -0.004452575 -1.2153043
-1.4459194 0.010829873 1.1244578 -2.6543853 -1.45131 -0.18350732 0.93236065 -3.5933905
-1.5572664 0.009868088 0.08598788 0.81363475 -1.7566196 0.603572 1.2655886 -0.44841275
1.6348476 -1.431439 -1.6660333 -1.0925127 -0.5995423 1.2718066 -2.478632 -1.1209571
-0.07000841 0.1753879 0.893427 -1.8001392 0.79781824 -0.25565585 2.0077674 -1.588888
-0.89142424 -0.8595092 -0.7555807 -0.15137094 0.41594672 -1.3166034 -0.027777448 -2.0032809
1.2317269 -2.6909971 -0.22436261 0.47812733 -0.5700273 -1.83697 -0.66016424 1.0700243
-0.4563556 1.077236 0.16953433 -0.7879994 0.2426472 -1.0304015 0.6495717 -0.6985327
-0.15391631 -1.3243871 -1.7094595 -0.9451182 -0.021842336 0.7104299 -0.25997114 -0.07620408
-0.6216498 -1.392513 -0.3715798 -2.8041236 -0.06976607 -1.2730922 0.6991351 0.42658314
0.8034066 -0.5399776 0.69018257 -0.50786245 0.4982716 -1.6543705 0.19372094 -0.22263339
1.8701814 0.079622515 -1.753495 -1.5905862 -0.6746179 0.45530972 0.49418205 -0.6351521
-0.4162133 -0.78966075 0.50298434 2.0122328 0.4343005 0.34515715 -0.40823403 0.21012232
0.046404447 1.4125378 -0.0059308563 0.9754512 0.4908529 -0.93499327 1.1453289 -0.5731561
0.73655194 -1.3088535 -0.64318025 -1.4733311 1.0023263 0.27564746 -1.2366416 -1.3227891
-1.4548849 1.070762 1.0553867 0.93601966 -0.41323438 -0.62366486 1.7643164 -0.84821934
0.20747031 -0.98355335 0.14275496 0.90889364 -0.35579443 0.346278 -0.21391554 -1.4028664
-0.7916839 -1.1414975 2.2395844 -0.4752077 0.99038404 -0.6162823 1.5581778 -0.6320638
0.7691483 0.46685636 0.30631313 0.6958536 1.162285 -3.63095 -0.719742 -0.84253293
00000000: 882e 403f 8ae9 8ebf fd38 683f b13d d63e
00000010: c912 3d3f e31e 15bf 0ef1 d9bd ea41 b53f
00000020: 775b d8be e0e6 6bbc 275a 133c fe5d 413f
00000030: cbec f9bf 9d64 ba3f f718 843f 710e a23d
00000040: c926 80bf cc48 85bf 6765 a5be 094f 52bf
00000050: 1245 08c0 3849 d13f a057 4a3e d8bb a33f
00000060: 4633 cfbf 8e87 2c40 b995 8b3f 27c1 12be
00000070: de1c 643f eaeb cf3e c51b 70bf 5652 f73e
00000080: a769 373f 90e9 f73f 15d1 2ebf b336 1fbf
00000090: ffc9 8fbf 996b 4b3f 6772 c63e 8ad3 d23e
000000a0: 2cad 363e a2cc 0cbf 16b6 e83e 1490 1cbf
000000b0: 2b7f 663f c4da e3bf d11b 6ebe 4e33 88bd
000000c0: 6c21 12bc f666 e5bd 7314 ecbd 7c74 4dbf
000000d0: 6e53 94bc 07b4 d93e af3f 00bf 09b4 78bf
000000e0: 5d3e d83e f6eb d4be 6b43 2ac0 0910 f43f
000000f0: 9eda b1be cdc8 2f3f 4440 95bf 36c6 893f
00000100: 3cc8 82bf 99b6 64bf da3d a4bf 8e8a 173f
00000110: 9dcf e4be e7bb ae3f 273d d63f 0e2d 533f
00000120: 9dfc 42bf 2141 473e a385 123f a28b 89bf
00000130: 9267 f33e 85c2 25be 2266 7abf 2fbb da3e
00000140: f6a9 ea3f 6798 d3bf d563 8fbe 67d4 f3bf
00000150: 860c 04c0 06f5 74be 5c30 a0bf 6a0b 96bf
00000160: 5c3a a13e f7c4 3240 e3b0 c8bf 49ca 09c0
00000170: 988f 07bf 56b6 f53b ba57 62be 6fd0 abbe
00000180: b2bb 10bd 746d 94bf 50e7 21bf 490d 18bf
00000190: 0cc2 13bf 1e14 46bf 0f4f b73d 4606 523e
000001a0: 0a58 8dbd 2803 6abf e868 8b3f 5b37 a3bf
000001b0: 4d1f 553f 2376 133f e8e6 91bb 178f 9bbf
000001c0: e313 b9bf c86f 313c 3cee 8f3f 73e1 29c0
000001d0: 87c4 b9bf 58e9 3bbe 30af 6e3f 1cfa 65c0
000001e0: 8154 c7bf c3ad 213c 6a1a b03d 5e4a 503f
000001f0: e9d8 e0bf b283 1a3f cffe a13f 5b96 e5be
00000200: b042 d13f 6539 b7bf 9440 d5bf 75d7 8bbf
00000210: 9b7b 19bf 8fca a23f e8a1 1ec0 867b 8fbf
00000220: 9260 8fbd e398 333e a2b7 643f f66a e6bf
00000230: d13d 4c3f 53e5 82be 437f 0040 af60 cbbf
00000240: 6134 64bf cc08 5cbf bd6d 41bf fc00 1bbe
00000250: f8f6 d43e 7686 a8bf 888d e3bc c135 00c0
00000260: 3aa9 9d3f 4c39 2cc0 50bf 65be 1bcd f43e
00000270: 4fed 11bf d521 ebbf 8600 29bf 8ef6 883f
00000280: 71a7 e9be dfe2 893f 689a 2d3e 54ba 49bf
00000290: 8278 783e 32e4 83bf 554a 263f 0ad3 32bf
000002a0: 3d9c 1dbe 8485 a9bf 92cf dabf 44f3 71bf
000002b0: b3ee b2bc bcde 353f f01a 85be e210 9cbd
000002c0: 7124 1fbf de3d b2bf b53f bebe c376 33c0
000002d0: 83e1 8ebd aff4 a2bf 85fa 323f 1b69 da3e
000002e0: 0eac 4d3f f93b 0abf ceaf 303f 4603 02bf
000002f0: 751d ff3e 6ac2 d3bf c85e 463e 02fa 63be
00000300: 1b62 ef3f 2111 a33d 8672 e0bf 5498 cbbf
00000310: c2b3 2cbf 5b1e e93e 6e05 fd3e 5499 22bf
00000320: e919 d5be 3527 4abf 95c3 003f 6cc8 0040
00000330: a35c de3e 70b8 b03e 0d04 d1be 4e2a 573e
00000340: 9712 3e3d 0ace b43f a157 c2bb 2bb7 793f
00000350: 1251 fb3e b85b 6fbf 239a 923f 5cba 12bf
00000360: ab8e 3c3f 8388 a7bf 76a7 24bf 1d96 bcbf
00000370: 3a4c 803f aa21 8d3e 464a 9ebf 2751 a9bf
00000380: ab39 babf bb0e 893f e916 873f fc9e 6f3f
00000390: 7593 d3be 80a8 1fbf 1fd5 e13f e724 59bf
000003a0: 1973 543e 27ca 7bbf 5b2e 123e 41ad 683f
000003b0: b02a b6be 5a4b b13e ad0c 5bbe 2091 b3bf
000003c0: ccab 4abf 971c 92bf 5a55 0f40 6c4e f3be
000003d0: cf89 7d3f adc4 1dbf 5f72 c73f efce 21bf
000003e0: e7e6 443f cc07 ef3e 13d5 9c3e 7623 323f
000003f0: c1c5 943f 7c61 68c0 0341 38bf 3db0 57bf
