data-6/rl_model_6.pth (torch_old, 93650 bytes, 18 tensors)

w_a f4 [32, 32]
00000000: 35de 21c0 121f 87bf 8f27 2440 98e0 11bf
00000010: c658 2a3f e22f e3be 20d8 0ac0 04cc 9b40
00000020: ea0f 30bd 9526 d6bf 4969 edbf 2677 df3f
00000030: 1cc8 80bf 68d1 1240 6b43 313f ab69 40c0
00000040: 654b febf d48a 4e3e 1013 16c0 e7d1 0bc0
00000050: ceba 43c0 d1e0 8bbf efb4 cbbf 84ba 073d
00000060: 0d33 e83f ae4a 0ec0 8861 4440 cda1 81be
00000070: 8bc4 77bd 77db 0ac0 3bc4 67c0 cef3 0740
00000080: 787c 2cc0 acb5 1340 d793 113f 22a5 06c0
00000090: 1ece 933f 0010 4ac0 d9ab d43f 8d73 43be
000000a0: 23db 6dbe 5bb4 c33f eaf9 fc3e 75ec 89bf
000000b0: 452c 0940 e322 863f 710d c4bf 8f3e a5be
000000c0: 27d9 4dbf a7b9 ad3f 74c4 793e b537 a83f
000000d0: 2db7 873f e798 8dc0 db58 68c0 f8b3 62bf
000000e0: 1e1b fe3e f91b 08c0 d1df 17bf 3fb2 32be
000000f0: f9bc 0c3f 8330 b63f 49ad 12bf bfd7 0d40
00000100: b2ca 3bbf 197e 6bbf ace4 7f3f 9607 10c0
00000110: 3ee1 01c0 5c42 44c0 1d33 b13e 9758 dcbf
00000120: 9cba e13f 9bac 2440 918c 0abf 6303 04c0
00000130: 408e 0ec0 84e6 80c0 66ff 0bbf 9bed 48bf
00000140: c531 49c0 cef7 51bf 63da 1fbe b004 37bf
00000150: 5ab7 3c3f caba 8cbf 8e3a d83e 8385 abbf
00000160: 42c8 fabd d3e5 803d 2cf4 7ebe 8164 86be
00000170: 6f92 b6be 17cf 2bbf 84a0 0ac0 6982 4d3f
00000180: 051f 77c0 698e 293e be55 2440 3bc0 02c0
00000190: f7c1 f0bc 08b8 a33e ebef 203e 45df 763f
000001a0: ed4c d8be 7a8b 23c0 4c12 133e 4634 c43f
000001b0: bfd2 153f e16d e33f 1814 1ec0 27e5 0ec0
000001c0: 31e2 73c0 3800 18be 277c 01bf 7080 b23f
000001d0: f6b1 393f 74fe e3bf 566b 923f 523d f0bf
000001e0: 4d4a 523f 0b1a fdbe 911e f5be 950a 853e
000001f0: 6aab e83e c022 2b40 d08b d1bf 9ffe 8c3f
00000200: 739e 07bf 8b32 24bf 41e0 03c0 1cb9 41be
00000210: b529 35c0 70fd d83e 90e0 2e40 a074 1bc0
00000220: a75c 97bf da13 c8be 202f c03f 34fb 62bf
00000230: 29a4 653e 512b 78bf 5d4a f13d f8e7 87bf
00000240: a647 27c0 4405 1bbd 65e9 8abe cf61 723e
00000250: 317b 9b3f db6f 9e3e e64e 1ac0 f912 e3be
00000260: 450f e33f a42d 8d3f de20 f7bf a94f 8940
00000270: fb57 ac3f 03c2 4e3f ebf6 0740 1949 96bf
00000280: 7deb 61c0 a061 9fbe f054 f33e f873 e93f
00000290: d105 a13d 2161 133e 4e78 fe3a afca f73e
000002a0: f74e 46bf dbd0 a83f 3d38 83be a320 05be
000002b0: c25d aa3f c93c 533d 7766 0a3e 22e0 d9bf
000002c0: 1763 1c3e e555 cd3f 2dcc 6e3f 8d52 b1bf
000002d0: 617c 3fbf c878 2d40 2c95 1abf d4d6 1cbf
000002e0: 7114 c53f f98a fa3c f7a2 3e3f bac2 e1be
000002f0: 7a2c f4be 6221 60be a3d4 293f e774 06bf
00000300: 8708 33bf c4c7 92bf af98 733f 492b 2ac0
00000310: fbb4 15c0 c2c0 57bc 55e7 e9be b4ad 2cbe
00000320: a43c 723f 17cf b0bf e15e 803f cbd8 bc3f
00000330: 2458 28bf 863a 853f 20b2 7ebe db66 fe3f
00000340: 5fb0 96c0 0704 1a40 8d94 c3bd 4d41 5b3f
00000350: 0511 5f3f fd4a 50c0 0064 debf c7a1 9dc0
00000360: e752 20c0 b8c2 00c0 9985 743c f813 74bf
00000370: d084 dabe 3996 c43f 5697 bc3f e82f 013f
00000380: ab3f 81bf 0127 1840 10ab 63be 0291 a13f
00000390: 7528 8abe e882 333f bcc9 8dbf 3854 25bf
000003a0: 40c8 cf3f 9168 293e 120c c1bf 5f0d 86bf
000003b0: 1313 bfbf 90da 653e 4f29 603f 3214 75bf
000003c0: 8ef0 a13f 78f3 4d3f f835 1ac0 57df f2bf
000003d0: 9d55 b9bf 8a82 f9be e65b 1c40 0dab 753e
000003e0: fbf3 3b40 a544 20bd f99e 0840 229a 43bf
000003f0: 6791 d7bf c46c 0ac0 bdaa 9e3f ba99 c33f
-2.5291874 -1.0556357 2.5649145 -0.5698333 0.6654171 -0.4437247 -2.1694412 4.8686543
-0.042983927 -1.6730524 -1.8547755 1.7458236 -1.0061069 2.2940311 0.69243497 -3.0064495
-1.9866759 0.20170146 -2.3449135 -2.1846864 -3.0582767 -1.0927984 -1.5914592 0.03313686
1.814058 -2.223308 3.0684528 -0.25318757 -0.060490172 -2.169645 -3.621352 2.1242557
-2.695097 2.3079634 0.5686621 -2.103829 1.1547277 -3.1572266 1.6614944 -0.19087048
-0.23228125 1.5289415 0.4940942 -1.0775286 2.143327 1.0479397 -1.5316602 -0.3227429
-0.80409473 1.3572282 0.24391347 1.3142 1.0602776 -4.424915 -3.6304233 -0.8855586
0.49630064 -2.1267073 -0.5932589 -0.17450808 0.5497585 1.4233555 -0.5729566 2.216293
-0.73356164 -0.91989285 0.999583 -2.250463 -2.0293727 -3.0665503 0.3460931 -1.7214535
1.7635074 2.573035 -0.5412074 -2.0627067 -2.2274323 -4.028139 -0.5468658 -0.7848756
-3.1436627 -0.82018745 -0.15610652 -0.7149153 0.7371727 -1.0994503 0.42232174 -1.340012
-0.122452274 0.062938355 -0.24897832 -0.26248553 -0.35658595 -0.6711287 -2.166047 0.80277115
-3.8612683 0.16558231 2.5677333 -2.0429828 -0.029389365 0.31976342 0.15716521 0.9643443
-0.4224619 -2.555388 0.14362448 1.5328453 0.585247 1.7767907 -2.4699764 -2.2327363
-3.8106806 -0.14843833 -0.50580066 1.3945446 0.7253717 -1.7812028 1.1439006 -1.8768713
0.82144624 -0.49433932 -0.47874883 0.25984636 0.4544328 2.673996 -1.6370792 1.1015204
-0.5297615 -0.6413962 -2.0605624 -0.1891827 -2.8306706 0.42380857 2.7324562 -2.4289932
-1.182515 -0.39077646 1.5014381 -0.88664556 0.22425903 -0.96941096 0.11781762 -1.0617666
-2.613748 -0.03784682 -0.2713119 0.23670124 1.214697 0.30944714 -2.4110656 -0.44350412
1.7739035 1.1029553 -1.9306905 4.290974 1.346435 0.8076479 2.1244457 -1.1741058
-3.529998 -0.3112917 0.4752574 1.8238516 0.078624375 0.1439252 0.0019414516 0.48396823
-0.7746424 1.3188738 -0.25628844 -0.13000731 1.3309863 0.05157164 0.1351565 -1.7021525
0.15272175 1.6041838 0.932803 -1.3853317 -0.7479916 2.710497 -0.6038387 -0.612653
1.5396863 0.030583845 0.74467415 -0.44093877 -0.47690183 -0.21887735 0.6634008 -0.5252213
-0.69934887 -1.1467214 0.9515485 -2.658892 -2.3391712 -0.013168516 -0.45684305 -0.16863137
0.9462378 -1.3813199 1.0028955 1.475366 -0.6575949 1.0408485 -0.24872637 1.9875139
-4.7090297 2.4064958 -0.09549818 0.85646516 0.87135345 -3.254577 -1.7374268 -4.925998
-2.50506 -2.0118847 0.01492443 -0.9534297 -0.42679453 1.5358344 1.4733684 0.50463724
-1.0097555 2.3773806 -0.22233224 1.2622378 -0.2698399 0.7012162 -1.107719 -0.6458163
1.6232986 0.16543795 -1.5081809 -1.047283 -1.4927696 0.22446656 0.8756303 -0.9573394
1.2651536 0.8044963 -2.409544 -1.8974408 -1.4479252 -0.48732406 2.443109 0.23991032
2.9367664 -0.039127965 2.134703 -0.76407063 -1.6841248 -2.1628885 1.2395855 1.5281289

w_group.0.weight f4 [64, 8]
00000000: 5670 3bbd 3cb0 b33c 1dea 673e fb64 8fbe
00000010: 912b b1be 0011 0f3d a407 adbd f93f d43c
00000020: ca6f 28bf 226f 38bf f099 a6bf 865c d83a
00000030: 74d0 80be a5d4 5ebe b50d 67bf e77d 80bf
00000040: 58f1 3fbf af07 1ebe fa17 f1be 11f3 aebe
00000050: 4a0a 9dbe 34eb 91be 119d 25bf 79d8 63bf
00000060: 9928 9fbf 8aa4 ab3f 47cb 5f3f 491f 14c0
00000070: af25 6fbd 3e04 663e d85a 54bf 0b8c 8cbe
00000080: a2e8 b3bd e54b 00bd fc9f 1f3f 5e79 bd3e
00000090: 8ca1 a53c 5a00 273e e7c9 6bbe 847b aebe
000000a0: 2323 5a3f da90 e6bd 1700 b5bf 32be 9dbe
000000b0: 05c7 43c0 174c 8e3e 2dbf f73e bdd1 62b9
000000c0: 4799 cabf 4cc6 a73e 853a f2bf dbdc 8d3f
000000d0: 94a5 44bf 8e80 23be fd31 8cbf 401a 54bf
000000e0: 6e24 adbf e61a 273f 87d2 5540 e10d dfbf
000000f0: f292 063f 26a1 5abe d155 18be 0b08 1bbf
00000100: f8f3 f6bd 8b67 213e a02a e6be 7209 e03e
00000110: 0246 c6be 288a 5ebe 3ea2 b4be a5ca c9be
00000120: 1777 a0bc f785 96be f62f a0bf 1fdb 9abf
00000130: 2a33 ee3e d821 fd3d 6411 18bf 51a1 4cbf
00000140: f3e6 2b40 4ec7 de3e 9f8e 2a3f 8e61 eb3f
00000150: 10ce 16c0 c447 b3bd 7aa4 b6bd b06c 47bd
00000160: 421a 9fbe 31e0 8c3e bf57 cd3d 5ab6 06bf
00000170: 255e 14bf 4049 1a3d c88e 56bf 96c1 3cbf
00000180: 0032 3940 c796 18bf 5051 7440 df5c e6be
00000190: c0d1 99bd 76c9 43be 2f89 02bf 708c 54bf
000001a0: fe3a ea3f d7a3 f63f 560f b83f 7d66 f33e
000001b0: b1d9 d4bd 3066 fcbc be1b bdbe daa3 e3be
000001c0: a9ee efbd 8252 a5be 80a4 fd3e 76d2 993f
000001d0: c8a8 b9be aa89 22be 2968 15bf 0ded 44bf
000001e0: 53a8 bc3f d788 a3be 0a4d 10c0 f863 31c0
000001f0: 36c4 80bf dee2 3b3e 0371 6bbf be28 8dbf
00000200: 1e8f 1d40 1085 39be a5b4 2dc0 f1d3 693f
00000210: 040f a23f 7986 a3be 2329 c0be 75cd e4be
00000220: d6dd 80be 27b2 de3e e3ab 5bbf f457 2abf
00000230: 7a99 cfbf c029 c8bd 198a 3fbf 146a 26bf
00000240: 96dc bdbc 6e8a dc3c 9a38 f9be ab04 223e
00000250: 3b9b 9dbf 806d 54bb 9d1a 86bd 36a4 36be
00000260: 59c1 dcbc fbf0 a1bc 694e 6b3e 566e c23e
00000270: 2a1d ea3e aa22 623e ad51 a3be ee99 87be
00000280: 6da4 29c0 c1a4 b5bf 4d96 e33d c046 39bf
00000290: 1796 8fbf f645 2d3e 4702 f7be 1444 3fbf
000002a0: f570 7abe 3c25 c2be 00fc 13be 834f edbd
000002b0: da67 1fbf fcfe d9bd 8673 44bf 8e85 5ebf
000002c0: b73e 6a3e ef1d 90bd 5261 9f3f ce9a 91bf
000002d0: 22ac c4bf 9365 a4be efca 30be 444e e7be
000002e0: c8cf e73f 04d3 ab3f 4671 f3be 23f0 91bf
000002f0: e47a 613d a239 403e 2091 53bf 8733 17bf
00000300: 176a d640 fe45 81be 756f 763f 78cc da3a
00000310: 4934 1fbf 471b 953e 70e9 0d3e bc54 113c
00000320: 4474 2b3e 7c3d 76be 0ff0 693f 9e7b b23e
00000330: 1d23 0dbf d86e 683d d37b 09bf b5f6 d7be
00000340: 80a5 603e ee11 163e 31bb 253f d21d 3e3f
00000350: 255c d7be 8eb7 5a3e 2d13 02bf 2531 2dbe
00000360: a2c7 e63f 07d6 ad3f cba7 f53e 5d14 4e3f
00000370: 3312 dcbd e06f 50bc f85b d53b 0c50 d63e
00000380: f75f 07bf 1f19 1abf 9b19 6abe 2e4c 35c0
00000390: 7049 123e 230e b1be dde9 35bf d07f 53bf
000003a0: a3ab d1be efcb afbe e90a 443f d1e9 86bf
000003b0: 6be3 82bf 62bf 453e 2421 3dbf 99a9 43bf
000003c0: fa2a 5f3e 9899 bd3e a85e 3ebe 0110 c1c0
000003d0: c859 bb3e ecfe 05be 77fa bc3d aabd b23d
000003e0: 5564 7d3f d54d 55bf f506 88bf 70b5 5fc0
000003f0: 58b9 f5be d425 d2bd a761 c4be 38e7 8cbe
-0.04576143 0.021934621 0.22647901 -0.2800673 -0.3460355 0.03492832 -0.08448723 0.02590941
-0.65795577 -0.72044575 -1.3015728 0.0016507066 -0.25159037 -0.21760805 -0.9025529 -1.0038422
-0.74977636 -0.15432619 -0.47088605 -0.3416982 -0.30671912 -0.28499758 -0.6469279 -0.89002186
-1.2434264 1.3409588 0.8741955 -2.3144095 -0.058385547 0.22462556 -0.82951117 -0.27450594
-0.087846056 -0.03132238 0.6235349 0.37006658 0.020218633 0.16308728 -0.23026238 -0.3407861
0.85209864 -0.11258097 -1.4140652 -0.3080917 -3.0590222 0.27792427 0.48388043 -0.00021631173
-1.5828027 0.32768476 -1.8924109 1.1083025 -0.7681515 -0.15967008 -1.0952755 -0.82852554
-1.3526742 0.6527542 3.3409746 -1.742611 0.5256797 -0.21350536 -0.14876486 -0.6055915
-0.12058252 0.15762155 -0.44954395 0.43757206 -0.38725287 -0.2173239 -0.3528003 -0.39412418
-0.019588036 -0.29399082 -1.2514637 -1.209812 0.4652341 0.12359971 -0.59401536 -0.7993365
2.685971 0.43511432 0.6662387 1.8389146 -2.356327 -0.087539226 -0.0891809 -0.048687637
-0.3107472 0.27514794 0.10026502 -0.52621996 -0.57956153 0.037667513 -0.83811617 -0.7373289
2.8936768 -0.5960507 3.817463 -0.4499273 -0.0751071 -0.1911982 -0.50990576 -0.8302679
1.8299253 1.926875 1.437968 0.4753913 -0.10393084 -0.030810446 -0.36935228 -0.44460946
-0.11715443 -0.3228951 0.49539566 1.2017353 -0.36261582 -0.15872827 -0.5836206 -0.7692421
1.4738868 -0.31940338 -2.254702 -2.7717266 -1.0059879 0.18348262 -0.9196932 -1.1028059
2.4618602 -0.18117166 -2.7141507 0.9133902 1.2660832 -0.31938532 -0.37531385 -0.44688
-0.25169247 0.43495294 -0.85809153 -0.66540456 -1.6218712 -0.09773588 -0.74820095 -0.6500561
-0.023176473 0.026921477 -0.48675996 0.15822093 -1.2312998 -0.00324139 -0.06548045 -0.17836079
-0.026947664 -0.019768229 0.2297913 0.37974805 0.45725375 0.22083536 -0.3189825 -0.26484627
-2.6506608 -1.4190904 0.11112652 -0.7237358 -1.1217679 0.16921219 -0.48243925 -0.74713254
-0.24457152 -0.37919033 -0.14451599 -0.11587431 -0.6226784 -0.106443375 -0.76738775 -0.8692254
0.22875486 -0.070369594 1.2451575 -1.1375368 -1.5365031 -0.32108745 -0.17264913 -0.451769
1.8110285 1.3423772 -0.47547358 -1.1401409 0.05504884 0.18771985 -0.8264332 -0.59063
6.7004504 -0.25248712 0.9626382 0.0016693017 -0.62189156 0.29122373 0.1385858 0.0088703
0.1674357 -0.24046892 0.91381925 0.34859937 -0.55131704 0.056746334 -0.53704566 -0.4218041
0.21938133 0.14655277 0.64738756 0.7426425 -0.42062488 0.21359083 -0.5081051 -0.16913278
1.8029673 1.3580941 0.47979578 0.8049982 -0.10745659 -0.012721986 0.0065112077 0.41857946
-0.52880806 -0.6019458 -0.2286133 -2.8327746 0.14285827 -0.34581098 -0.7105997 -0.826169
-0.4095126 -0.34335276 0.7657915 -1.0540105 -1.0225652 0.19311288 -0.73878694 -0.7643066
0.21793738 0.37031245 -0.18590796 -6.0332036 0.36591935 -0.13085526 0.0922746 0.08727582
0.9898122 -0.8332189 -1.0627123 -3.495449 -0.4799297 -0.102611214 -0.38355753 -0.27520156

w_group.0.bias f4 [64]
00000000: 34a4 9abe 4383 88bf d5c0 65bf 285f 53bf
00000010: 5220 ebbe 7d5d 19be e016 58bf 817d 35bf
00000020: 8e65 1bbf 8496 0abf 18f0 b9be 84b7 7abf
00000030: e0bf 4abf 97dc 54be 37a4 07bf 50de 0dbf
00000040: 88e7 fcbe c394 dbbe d365 12bf 905d 953d
00000050: 73ab 3cbf beb1 61bf 48a5 48bf bfdb 71bf
00000060: 5e83 4fbe cd7d 41bf 1fa6 f4be 2c37 c03e
00000070: c60e 8dbe 0b0d 19bf dbd5 473d a8ce a5be
00000080: 497b febe e80e 2abf 03ea dfbd 4e07 e1be
00000090: 8af3 1abf ffed ad3e 1082 d7be edaf 06bf
000000a0: f33d 01bd 6c3f 19bf 062c 24bf 81a1 93bd
000000b0: 1851 d5be 3951 24be dd97 a93b 1532 013e
000000c0: 7899 0ebc 3b62 48bd c876 5abf fe50 b43e
000000d0: df0b d3be b89b e2be 03b6 89be 332e 19bf
000000e0: 68ab 4bbf 5eee 9cbe 2b66 3e3c f563 ad3e
000000f0: 3251 3bbf dbe2 68bf 7ec7 32bd e592 f63d
-0.30203402 -1.0665058 -0.89747363 -0.8256707 -0.45923096 -0.14977069 -0.84409904 -0.7089463
-0.60701835 -0.5413592 -0.3631599 -0.9793627 -0.7919903 -0.20787273 -0.52984947 -0.55417347
-0.49395394 -0.42886934 -0.5718662 0.07293236 -0.7369911 -0.8816184 -0.783772 -0.9447593
-0.20264956 -0.7558258 -0.4778299 0.37542093 -0.27550334 -0.59785527 0.048787933 -0.3238423
-0.49703434 -0.66428995 -0.10933306 -0.43950886 -0.6052786 0.3397064 -0.42091417 -0.5261219
-0.03155322 -0.598624 -0.64129674 -0.07208539 -0.41663432 -0.16046609 0.005175574 0.12616761
-0.008703582 -0.048921805 -0.85337496 0.35218042 -0.41219994 -0.4425943 -0.26896676 -0.5983612
-0.7955842 -0.3065061 0.011621038 0.33865324 -0.7317077 -0.90971154 -0.04364728 0.12039737

w_group.2.weight f4 [32, 64]
00000000: 0469 bb3d 3113 dfbd da39 57bd 54f6 eebd
00000010: f614 b93c 980e ff3c ec60 21be 8fbf de3b
00000020: 474e 5abd 6935 95bc 1ce9 88bd 3e8d 863d
00000030: 2cf5 bebd 28d2 debc 3563 f3bc 76be 973d
00000040: 57b4 72bd dd50 1cbe 9f89 3e3d 9c59 0fbe
00000050: a59c fbbd 3439 1abe bace b7bd aa9a f8bc
00000060: b3fb c3bb 1e07 9d3d f00d fcbd d225 ad3d
00000070: 51ab 443d efd9 37bd aa95 373d 5a3f a43d
00000080: 6824 a43c 40f8 66bd 9633 a23c 841b cf3c
00000090: aaf7 45bd 17e0 033d 31f3 b33d 0a8e 05be
000000a0: ae4f f7bd 8c47 c83c 5a45 5fbd 8b8c 40be
000000b0: 35a3 be3d 91d6 06bc 22e8 43be c007 febd
000000c0: d6bc 5fbe 3b96 a03c 82e8 cdbb e8a7 843d
000000d0: 3da4 c3bc 256f b83d 2020 80bd f1c2 5abd
000000e0: 4cde ae3d bb50 e4bd 3167 8ebd 0897 ddbd
000000f0: 36d9 a5bd 2b26 1ebe 84f5 92bd 87c4 23be
00000100: c391 083d 2a36 743e 74c1 f13e 3f04 303e
00000110: 327a c0bd 080b 643f 066b 35bf 1078 3fbf
00000120: b0de 7bbe 12a0 453e 14b5 633e 9fae a33e
00000130: 21d4 8b3d 92ad 7b3f 4cd0 f13d ba5f 353f
00000140: b3a0 3e3f 2acc e0be 9063 88bd b96f 023c
00000150: da30 803f 9c42 3abe 413f 283e 3efe 36bc
00000160: a0a4 ecbf 8575 53bd 14d8 d93e d6ba 473e
00000170: 1cf0 2bbf 8080 b0bc 9522 c9bf 18a9 23be
00000180: 9b09 1ebf 3200 e23e d9c2 43bf 2a78 7a3d
00000190: a5ac 32bd 2e21 dbbe 047d 493e 93a1 563c
000001a0: 1fe1 ddbe bd74 413f d6b5 003e a084 2ebf
000001b0: 6242 773f b3f6 cfbd 774f d9bf 4806 c33d
000001c0: 1395 d6be dcf0 603d c4f2 6abe 6358 f93e
000001d0: ba3e 03be c74b 313f 47ca 06bf 4123 e3be
000001e0: 4d8b 26bf 91ef ab3d 2c14 753e 1651 85bd
000001f0: b681 6e3c 9fec abbf f81d d8bf a2a3 07c0
00000200: f1f4 11be cb30 97bf 4081 1dbd ce2c f4be
00000210: 55e9 22bd fe72 33be 3777 9bbf bc80 a13e
00000220: 00d2 153d 661d 3cbe de14 f6be 63be 4d3f
00000230: 387f a7bf 23a4 143f 687d 96be 0340 7abf
00000240: 6bd7 c3be 1739 7dbe 948d 533e d92b 5fbe
00000250: 05da 8bc0 5219 e3be 8a6e 26bf 7d82 4bbf
00000260: dddd 5d3e 94bf 92be a7dc f0bc 6681 91bf
00000270: 9c15 14bf 5213 c23d 9061 04c0 d2fb efbf
00000280: 863c 1ebf 7dfe d7be a15e a33e f7d9 babf
00000290: abf5 d3bd da06 703e b8d5 003a dc94 babd
000002a0: d3ab c2bf 9d64 0f3e a0ce 9f3d 2d11 9d3f
000002b0: 2bcc 2ac0 d58f 03be 2820 2e3f 65c4 d63c
000002c0: 259e 4f3f 361f 64bf 19cf adbd d739 00be
000002d0: 9a29 aabd 680f e33e 6728 9e3f 97df ba3e
000002e0: 3e1f 043f 74e2 d73b 54a1 a13e f827 f33d
000002f0: 507e 5abf 56ec 12c0 f690 60be 1b52 02bf
00000300: ec95 6c3d 94fb c8bd fca9 fa3d af06 a3bb
00000310: 2d7c 68bc b930 0fbe e9a1 06be 8edd 11be
00000320: 9747 ebbd eb4b 13be 3a1d c8bd 425c 723b
00000330: 37bd ccbd afd8 10bd 4a42 e8bd f98e 43bd
00000340: 00c5 97bd 629c 1036 6a41 47bd 1481 a9bd
00000350: 6c23 163d 5815 4e3d 419d 29be b43b 18be
00000360: d845 60ba 1711 38be 4188 7fbd b30a a13c
00000370: 976b aa3d 716d 21bd 37b7 eebd 0b46 193d
00000380: 7c78 c73c 6319 ce3d f819 b3bc aecb a6bd
00000390: a09e 343d d4b4 15be c97d 513c 6f96 1fbe
000003a0: 59ea 08be 1099 aebd ea54 2d3d c3a2 0e3c
000003b0: 8b5d 19bd 9bbd 923d ba8d 29be 9458 fe3d
000003c0: 7747 a2bd eaff 963d 6275 b73d 9034 98ba
000003d0: 9788 af3c 7794 813d cb32 1fbe 91dc 0ebd
000003e0: f89d 4a3d a06f 0b3c d9f4 7abd 3a9a 8e3c
000003f0: feeb b83c 1496 3abe 0074 433c 7fb1 10be
0.091508895 -0.10892332 -0.052545406 -0.11668077 0.022593003 0.031134889 -0.15759629 0.006797738
-0.053297307 -0.018213945 -0.06685087 0.065699086 -0.093241066 -0.02719982 -0.029710392 0.074093744
-0.059254017 -0.15265222 0.046517964 -0.13999027 -0.12285737 -0.15060884 -0.08974977 -0.030347187
-0.0059809326 0.07667373 -0.12307346 0.08454479 0.048014943 -0.044885572 0.044820465 0.08019896
0.020036891 -0.056389093 0.019799989 0.025281675 -0.048331894 0.03219613 0.087866195 -0.13042465
-0.120757446 0.024448179 -0.0545095 -0.18803613 0.09308473 -0.008229868 -0.1913152 -0.12403822
-0.21849379 0.019602885 -0.0062838206 0.06477338 -0.023882026 0.09005574 -0.06256127 -0.053408567
0.085384935 -0.111482106 -0.06953276 -0.108198225 -0.0809807 -0.15444247 -0.07175735 -0.15992938
0.033342134 0.23848787 0.47217906 0.1718912 -0.09398307 0.8907933 -0.7086643 -0.74792576
-0.24596667 0.19299343 0.22237045 0.31969163 0.0682757 0.9831172 0.118073076 0.7084919
0.7446396 -0.43905765 -0.06659615 0.007961207 1.0014908 -0.18189472 0.1643038 -0.0111690145
-1.848774 -0.051625747 0.42547667 0.19504866 -0.6716325 -0.021545649 -1.5713679 -0.15982473
-0.61733407 0.44140774 -0.7646919 0.061149754 -0.043621678 -0.42798752 0.19676596 0.013100046
-0.43335816 0.75568753 0.12569365 -0.6817112 0.9658567 -0.10154476 -1.6977376 0.095226824
-0.4191061 0.0549172 -0.2294417 0.48700246 -0.12816897 0.6925625 -0.526524 -0.44362834
-0.65056306 0.08395303 0.23933476 -0.065096065 0.014557293 -1.3431586 -1.6884146 -2.1193624
-0.14253594 -1.1811765 -0.03845334 -0.47690433 -0.039773304 -0.17524335 -1.2145756 0.3154353
0.036577225 -0.1837059 -0.48062795 0.8036863 -1.3085699 0.5806295 -0.29392552 -0.97753924
-0.38250288 -0.2472881 0.20659477 -0.2179407 -4.3703637 -0.44355255 -0.6501242 -0.79495984
0.21666665 -0.28661788 -0.02940209 -1.1367614 -0.57845473 0.09476341 -2.0684547 -1.8748724
-0.618111 -0.42186347 0.31908134 -1.4597768 -0.10349592 0.23440114 0.0004914659 -0.09110424
-1.5208687 0.14003225 0.078030825 1.2270867 -2.6687114 -0.12847836 0.68017817 0.026216695
0.81100684 -0.89110124 -0.08486766 -0.12522064 -0.08308716 0.44347692 1.235608 0.3649871
0.5161017 0.0065882746 0.31568396 0.11872858 -0.8534899 -2.2956748 -0.21930298 -0.50906533
0.057760164 -0.0981361 0.12239453 -0.004975162 -0.014189762 -0.1398343 -0.13147701 -0.14244673
-0.11488264 -0.14384429 -0.097711995 0.003698126 -0.09997027 -0.035362896 -0.11340769 -0.04774377
-0.07410622 2.15487e-06 -0.048646368 -0.08276573 0.036654875 0.050313324 -0.16563894 -0.14866525
-0.00085553294 -0.1797527 -0.0623858 0.019658422 0.083213024 -0.039411012 -0.11656039 0.037420314
0.024349444 0.10063436 -0.021862969 -0.081443176 0.04409659 -0.14619762 0.012786337 -0.1558473
-0.13370647 -0.08525288 0.04231731 0.008705798 -0.037442725 0.071650706 -0.1655797 0.12419239
-0.07923787 0.073730305 0.08957936 -0.0011612345 0.021427436 0.063271455 -0.1554672 -0.034878317
0.049467057 0.0085105 -0.06126866 0.017407525 0.022573467 -0.18221313 0.011929512 -0.1413021

w_group.2.bias f4 [32]
00000000: a234 5bbe 3375 dbbf 7418 ba3e 6951 5bbe
00000010: f237 a73f 7d60 003f 4586 b2be 3904 06be
00000020: ed2a a2be 74a8 3ac0 8f69 ee3d 93bc f73f
00000030: 6907 6abe 17c7 84bf 4201 2bc0 3cac d6bf
00000040: 6947 1cbf ac08 823f f369 343f 4348 91be
00000050: 79ec c83f 1554 e23e 84c6 7740 bb19 02c0
00000060: a5cb 3dbf cc66 75bf 5661 e6bf 2003 c4bd
00000070: 6b36 b0bd d44d 4d3f 7983 78be 7d16 823f
-0.21406797 -1.7145141 0.3634678 -0.21417774 1.3063948 0.5014723 -0.34868065 -0.13087548
-0.31673375 -2.9165316 0.116412275 1.9354423 -0.22854389 -1.0373257 -2.6719518 -1.6771312
-0.61046463 1.0158896 0.70474166 -0.28375444 1.5697166 0.44204774 3.8714914 -2.0328205
-0.7413886 -0.9585998 -1.7998455 -0.095709085 -0.086041294 0.8019688 -0.24268903 1.0163113

w_agents.0.weight f4 [64, 5]
00000000: 5811 083e afdd 2bbe 71cb 713f 50cb 0bbd
00000010: a039 9b3e c830 21bf 3f4d cabe 6bab 3e3f
00000020: e1d3 853f 7c1b c4bf d5a2 6d3c 1cb8 9cbc
00000030: c9e5 75be ca8e 84bf 1352 57bf f7d7 d4bc
00000040: 72e2 55bb f1e3 2bbf be85 973f 04c0 cfbf
00000050: 48b6 f63e 2493 403d 67e7 ac3f 0b04 e1be
00000060: 0016 17bf 930d 07be 672f 05bf 7282 a6bb
00000070: 2404 e93d a535 b63d 5067 b3be d6f8 603c
00000080: 16cb 9bbf da0d 0140 f153 8fbf 1b1e 36bc
00000090: c226 403b ec2c 8dbf 0469 4e3f 535b b0bf
000000a0: f5a5 b73b 02b0 323c 2fc3 f73b b29d dabe
000000b0: 0028 2bbf fca8 e4bb 35fc 01bc 049c 9cbd
000000c0: 7b11 7abe b594 dcbe c15f 963a 9467 f1bb
000000d0: f595 e93d d260 943d fc41 02be 436f a4bd
000000e0: 4a55 ee3c 7688 973e 0248 40be 275b 04bf
000000f0: d563 ed3e 560e eebe 61f9 4f3f 8883 793f
00000100: 7d4b 81bf 70fe bfbc bfed 023b 3374 90be
00000110: 02c5 f4bd a396 99bd 42cd 46bc 9e6b a33c
00000120: 9621 193e 6ac3 ae3e ded2 20bf 60ee 72bd
00000130: 97ec a4bd c82c 7e3e c8ae 9b3e 7e7e 52bf
00000140: f7c4 013d bd16 a1bd 40ed f6be 4e75 a03f
00000150: 40c6 a9bf fb96 97bc 6750 88bb 1ec5 d93d
00000160: 1c73 d23e d37a f3be 3a29 67bd fbe7 63bf
00000170: 96cc f63f 6a34 7140 da5d 06c0 ab5f 893b
00000180: 6179 22bb 5427 c7bd dd49 fdbd fd18 20bf
00000190: 53d4 0fbe 5aca 26be bbc0 2b3e 0492 723e
000001a0: 1ef0 f9bf b3ad 163d 1ed6 0b3d 27b6 103c
000001b0: 54cf 863f e6c3 8fbf 5753 cabc cc73 b2bc
000001c0: 913c c53d ae9d 30be 94f2 43bd e31a b5bc
000001d0: b334 38bb eb37 81be e709 94bd e283 3cbf
000001e0: 09a2 ff3d ac03 a93d 9907 c1bf 0073 653c
000001f0: e855 b6bd ca7b eb3d e4c2 0d3f 9355 983f
00000200: 5c87 0940 a1c7 a7bf ba3e 9ebc 7ab4 28bc
00000210: 1862 dd3c dd58 1ebe 7640 76be b14f 343e
00000220: 3f04 aebe 10d7 aebf b611 813f bb9a 02c0
00000230: d96f 85be 0c6b 8f3d 08cb e6bc 0690 ae3f
00000240: 30a4 07c0 2f68 2e3f 3c78 b8bd d7a0 1b3f
00000250: 27a0 8b3f fa76 0bc0 b442 92bd 661d 6bbd
00000260: 3ed1 4fbf 77c2 133e 8e8a 6bbf 3c7a ff3d
00000270: ee0e 3cbc 3f5d 33be 3484 873e dd4b 71bf
00000280: 037e 82bd bb1f e0be a3db aebf b76c 623f
00000290: 2e1a 49bf 0aae c53c f10f 763d fba4 cdbe
000002a0: 2b91 223f b2c7 2dbf 5bd3 423e e02b 033e
000002b0: f193 073f 8ed4 dc3f fc60 26bf a9bc 123e
000002c0: ba1e 6bbc e90e ab3e 89df c5be 8d48 80bf
000002d0: 0f93 ddbd 19df 083e a665 7cbd a565 ad3f
000002e0: be1a 93bf 381e 053d 66ed b93b 8ce9 cbbf
000002f0: eefb 4f3d a96d afbf 086c c6bb 5611 7abc
00000300: a7c8 65bd b8e9 c5be 6681 45bf 65ec 893d
00000310: e777 403e 7559 923d 0aa6 8f3f 2f19 02c0
00000320: 21e1 0b3b 7fe0 9cbc 7c3e 0bbf b221 9dbe
00000330: 855f 41bf 24ea 383e e217 08be fc74 72be
00000340: 70db a73f 5697 20c0 554f dc3c faec adbf
00000350: ac6d 813e f163 2240 56de abbf 6dc4 97be
00000360: e650 593f db20 90bf dc27 2140 f9f8 babf
00000370: 3916 31bc 3a25 66be 075a b53f 359f 2240
00000380: 5fee 10c0 a4c7 06bf 6218 2b3f be5f 65be
00000390: 990c 9e3d 64f5 78bf 7f36 2fbd 8a1a 8dbc
000003a0: 52d8 3c3d 72c4 3140 ec78 2fc0 3c68 b63b
000003b0: 25ce 87bd 44f6 55bf 661c f13f 547a 1ac0
000003c0: 1ff7 18bf f39d 56bf ff42 b8bf 039e 0140
000003d0: e0f6 f0bf f034 b4bc 7958 5ebe 7ea2 963d
000003e0: b771 1dbf e41c cabf 8f3a d13c 6b33 673e
000003f0: 6454 06bd 84b6 dcbf efbc 8ebe 182c 51be
0.13287866 -0.16783784 0.9445105 -0.03412944 0.30317402 -0.6296506 -0.3951206 0.74480313
1.0455285 -1.5320888 0.014504154 -0.019130759 -0.24013437 -1.0356076 -0.8410961 -0.025981886
-0.0032636193 -0.67144686 1.183769 -1.6230474 0.48185945 0.047015324 1.3508118 -0.43948397
-0.59017944 -0.13188772 -0.52025455 -0.0050814683 0.11377743 0.08896951 -0.3503976 0.013731202
-1.2171352 2.0164704 -1.1197492 -0.011115576 0.0029319976 -1.1029334 0.8062899 -1.377787
0.0056045004 0.010906221 0.0075611095 -0.42698437 -0.6685791 -0.0069781523 -0.007933666 -0.07646945
-0.24420731 -0.43082204 0.0011472629 -0.007367084 0.11405555 0.072450295 -0.12720484 -0.08029034
0.029093403 0.295963 -0.18777469 -0.5170159 0.46365228 -0.46495312 0.81239897 0.97466326
-1.0101162 -0.023436755 0.0019978133 -0.28213653 -0.11951639 -0.07499435 -0.012133898 0.019948777
0.14954218 0.34133464 -0.6282176 -0.059309363 -0.080529384 0.2482177 0.30406785 -0.8222426
0.03168198 -0.07865665 -0.48227882 1.2535799 -1.3263626 -0.01850461 -0.0041599753 0.106333
0.41103446 -0.47554645 -0.0564358 -0.8902585 1.9281185 3.768824 -2.0994782 0.0041923127
-0.0024791586 -0.09724298 -0.12367604 -0.6253813 -0.14045839 -0.16288128 0.1677274 0.23688513
-1.9526403 0.036786746 0.034139745 0.008832491 1.0532022 -1.1231658 -0.024697943 -0.021783732
0.09630693 -0.1724765 -0.047838762 -0.022107547 -0.0028107583 -0.25237975 -0.07228451 -0.7363874
0.12482078 0.082526535 -1.5080444 0.014004469 -0.08903104 0.1149822 0.55375504 1.1901115
2.1488867 -1.3107797 -0.01931702 -0.010296935 0.027024314 -0.15463586 -0.24048027 0.17608525
-0.33987615 -1.3659382 1.008353 -2.040694 -0.26061895 0.070028394 -0.028172985 1.3637702
-2.1193962 0.6812772 -0.09007308 0.607923 1.090825 -2.1791368 -0.07141629 -0.057401083
-0.81178653 0.14429651 -0.9200829 0.12474486 -0.011478169 -0.1751604 0.2646805 -0.94256383
-0.06371691 -0.43774208 -1.3660778 0.88447136 -0.7855557 0.02413084 0.060073797 -0.40164933
0.6350276 -0.67882836 0.19025938 0.12809706 0.52960116 1.7252367 -0.64991736 0.1432978
-0.0143505875 0.33409813 -0.38647106 -1.0022141 -0.10819065 0.13366355 -0.061620377 1.3546644
-1.1492536 0.032499522 0.005674052 -1.5930648 0.05077737 -1.3705341 -0.006055359 -0.015262922
-0.05609956 -0.38654876 -0.7715057 0.06734542 0.18795739 0.07145969 1.1222546 -2.032787
0.0021343904 -0.019150017 -0.5439222 -0.3068977 -0.75536376 0.18058068 -0.1329036 -0.23677438
1.3113842 -2.5092368 0.026893297 -1.3587945 0.25278986 2.53735 -1.3427227 -0.29642048
0.84889066 -1.1260027 2.5180578 -1.460723 -0.010808521 -0.22475138 1.4168099 2.5409672
-2.264549 -0.5264838 0.6683408 -0.22399804 0.077172466 -0.97249436 -0.04277658 -0.017224569
0.046104737 2.777615 -2.7417555 0.005566625 -0.06631116 -0.83578897 1.8836792 -2.4137163
-0.59752077 -0.8383476 -1.4395446 2.0252693 -1.882534 -0.021997899 -0.21713437 0.07355212
-0.6150164 -1.5790067 0.025540618 0.22578208 -0.032795325 -1.7243199 -0.2787852 -0.20426977

w_agents.0.bias f4 [64]
00000000: b72d 06bf 9af8 babf 4ad0 75bf 04cd 95bf
00000010: 50ca 92bf 4a9f 0dbe f848 96bf 796c 83bf
00000020: 019e cbbe eaf6 4cbe 6fe2 1dbe 7a8a 53bf
00000030: d5d4 a6bf e378 ddbe 9e3e b1be 28c2 61bf
00000040: 5a34 c6bf 525d d1be 7c37 edbf 5b91 eabd
00000050: 9c31 b3bf e376 88bf 3576 03bf 1280 46be
00000060: a4a9 6dbe b9b1 a5bf c54a b0be 5712 ebbf
00000070: 8598 0ac0 2505 f0bf e426 a0bf ab91 6dbf
00000080: a008 11bf 7e38 5fbf fd25 6dbf a573 97bf
00000090: dc77 a4bf 8027 d6bf 684f 99be 7e44 e1bf
000000a0: a42b 3abf 9d90 0bc0 285b e4bf 15a9 ebbf
000000b0: 9d40 25c0 f6de c8bf 04c2 10c0 799c e1bf
000000c0: efe0 a0bf 3724 dfbf e8de 88bf 5e1d cebe
000000d0: a08f 2abe 809a 953e c696 b5bd 42d7 d7bf
000000e0: eaed 9ebf ba36 c8bf 1807 0bc0 e50d bfbf
000000f0: f300 78bf d3e6 c6bf a9b0 07c0 098d 11be
-0.52413505 -1.4607117 -0.9602095 -1.1703191 -1.1467991 -0.13830295 -1.1741018 -1.0267478
-0.39768985 -0.20016065 -0.15418409 -0.82633173 -1.3033701 -0.43256292 -0.34618086 -0.88186884
-1.5484726 -0.4089151 -1.8532557 -0.114535056 -1.3999515 -1.0661281 -0.51352245 -0.19384792
-0.23209244 -1.2944862 -0.34432045 -1.8364972 -2.165559 -1.875157 -1.2511868 -0.92800397
-0.56653786 -0.87195575 -0.9263609 -1.1832167 -1.2849078 -1.6730804 -0.29943395 -1.7599027
-0.7272284 -2.1807015 -1.7840319 -1.8410975 -2.5820687 -1.5693042 -2.2618418 -1.7625877
-1.2568644 -1.7432927 -1.0693026 -0.4025678 -0.16656351 0.29219437 -0.088666484 -1.6862566
-1.2416356 -1.5641701 -2.172308 -1.4926115 -0.9687645 -1.5539192 -2.1201575 -0.14213957

w_agents.2.weight f4 [32, 64]
00000000: 0a95 ce3b 538c 16bd 7907 45bd d3c4 61bd
00000010: abb2 b7bd 652b 993b c32c 03be 5cc9 813d
00000020: 3f0e 583d 12e6 8bbd 6904 ebbc 7ca7 2b3d
00000030: 042a 8ebd 39e4 6c3d 64ce 693b de4c f73b
00000040: e174 a2bd 0e82 b3bc c1e4 d2bd ed76 21be
00000050: 9bc0 40be c50b 083c bea3 4ebe 7511 bfbd
00000060: 3de2 1bbe f3d5 50bb 5ab4 9fbb f8de a6bd
00000070: 6e53 b9bd 81e5 3f3d f166 a63c 9cd3 e6bc
00000080: 38a0 90b8 e90a dfbd c1fc 2cbd ce54 13be
00000090: b55a e1bd cac6 88bd ba44 38be 77ad 26bd
000000a0: 5865 66bd 9232 8abd 5c38 2d3d 2826 223d
000000b0: ac8e 493d bda1 c53c 9b23 bbbd 7bca 07bd
000000c0: f03c c9bd b521 1fbb 8e12 8bbd 9aed 0ebe
000000d0: 51bf c7bc 5d2c 05be 4916 f1bc 7068 c6bd
000000e0: 5098 66bc 150b 50bd 009e a4bd caed 7e3d
000000f0: dd78 eb3b bb06 ba3b 8a5e abbd cc74 97bd
00000100: c0d2 68c0 8293 d0be b755 34bf 3bc6 babf
00000110: 7913 f2be f1fa 44bf 7397 36bf 9c46 c4be
00000120: 0db9 c43d 7279 82be ed67 1fbe ac1e e83c
00000130: e61f 67bf 287d d6bd a1c8 393e 24f6 cebd
00000140: a273 583e 91e2 c9be 7a88 8a3f 70c9 f1bd
00000150: 5cfc 063d 3ce6 183f 79a8 35be 2160 833d
00000160: 93b3 9abd 4848 3bbe 15f1 19be 1dd6 d9bd
00000170: 39bc 6fbf 38c4 2dbf d1d9 b6bd 3396 86be
00000180: 15d7 22c0 7851 e3bd a695 aabe 5e1a 48bf
00000190: cf55 7b39 bb87 c13e 7cbf 98be eb18 813f
000001a0: c841 22bd c693 1e3f 7ea8 7bbf 1618 6abe
000001b0: 3bd7 443e 1348 c23d dd54 29bf d776 b1bc
000001c0: 5aa5 7ebf 47d5 94bf 3596 bcbe fb41 89be
000001d0: dd40 9cbe 3133 39be c5df 4cbe 4281 a5be
000001e0: a029 13be 27f7 b13e d6f3 08bf de93 873d
000001f0: 67ac 2a3e de58 fe3e 59eb a3be 8f17 a3be
00000200: 5ae2 29be 81c2 c7bd 739a b5bd a840 893d
00000210: 3342 96bd d4cb 80bd ea25 edbd b81b 1cbe
00000220: db67 eabd c40f 713d 9aad a0bc 194d 56bd
00000230: c64b e2bd 1452 ccbd b53a b7bc 8aa1 50bc
00000240: 320c acbd 4b2c 02be c9c9 d33c f3f5 633d
00000250: 101a 0f3d 36c2 11be 4ad9 b53c 32d5 a7bd
00000260: 9421 003d d47a 1fbd 4cb5 15be 61a5 ffbc
00000270: 8fb7 49bd 06b9 3cbe cece 9fbd 7ea5 e63d
00000280: ed4c fcbd 9668 e6bd 82e7 883c cedd 6e3d
00000290: cf2b 4fbe d7bb 86bc f14e a9bd 7636 683b
000002a0: 418d adbd 686b 43bc 164f 4bbc ccb7 16bd
000002b0: 6aee e03d e3b0 acbb 3234 43bd 4a54 c8bc
000002c0: e908 92bc ff43 05bc cac7 583c a524 323c
000002d0: 94ae 00be ce20 0ebe 9e3f 00be 6ecb c13b
000002e0: 5783 82bc c39b 0cbd 9d20 8d3b daee 22bc
000002f0: 3817 a0bc bc7b 403d 205b 06bd 8ca3 2e3c
00000300: 2453 7cbe e5fd 83be 352b 1abe 4f4a 1c3d
00000310: 9fa7 03bd 3df7 733d 7629 51be 7f19 e13b
00000320: af5b 81be 456d 7abe 4c1e 74be e5af 2cbd
00000330: ec9e 28be 5122 48be 6324 77be 5aff f53c
00000340: ff17 15bd 4ae6 88be 8ca5 c53d 0321 333d
00000350: 9ef2 9c3d a1e4 3fbe f565 8bbd 39ea 29be
00000360: cf8f c4bd 9973 aabd 6bf8 1abe c373 06be
00000370: 0418 883d 61a6 27be 9925 9d3d 3c30 05be
00000380: 657b 053e 28cf 65be 512e f0bd ba5d 21be
00000390: 9700 3c3a d34f d2bc eaef 32be 36f9 b3bd
000003a0: 85b5 04be 263f f33d 6bce bfbd 7f28 9fba
000003b0: 8905 273e 6c18 b73d 5936 2dbd fe80 18bc
000003c0: 493a 66be feff 72be 0be4 99be 1be4 04bd
000003d0: 8f4a 8abe 984d dabd 95e6 83bd b3f0 dcbd
000003e0: e5ea c8bc 27c2 06bd 786b 05bd 4da6 0ebe
000003f0: d03b a0bd 80bd 2a3e 9b30 2ebe 2ee4 32bd
0.006304388 -0.036754917 -0.04810283 -0.055119347 -0.08969625 0.0046743625 -0.12810044 0.063372344
0.05274796 -0.06830992 -0.028688626 0.041907772 -0.069416076 0.057834838 0.0035675997 0.007547005
-0.07932449 -0.0219126 -0.102975376 -0.15768023 -0.18823473 0.008303587 -0.2017965 -0.093295015
-0.15223022 -0.0031865805 -0.0048737945 -0.08147997 -0.09049116 0.04684973 0.020312758 -0.028177075
-6.896298e-05 -0.10890753 -0.042233232 -0.14387819 -0.11003629 -0.06678541 -0.17994967 -0.040692773
-0.056248993 -0.06747927 0.042290077 0.03958717 0.049208328 0.024124974 -0.091376506 -0.033152085
-0.09826076 -0.0024281566 -0.067906484 -0.13957825 -0.024383219 -0.13005204 -0.029429572 -0.096878886
-0.0140744 -0.05079182 -0.080379486 0.062238492 0.007186039 0.005677072 -0.08367641 -0.07395324
-3.6378632 -0.4073754 -0.7044329 -1.4591745 -0.4728048 -0.76945406 -0.71324843 -0.3833512
0.09605608 -0.2548328 -0.15566988 0.028334938 -0.9028305 -0.104730904 0.1814294 -0.10105541
0.2113786 -0.3943067 1.0822899 -0.11805999 0.032955512 0.5972631 -0.17740048 0.064148195
-0.07553782 -0.18289292 -0.15033372 -0.10636542 -0.9364658 -0.6787753 -0.08928264 -0.26286468
-2.5443776 -0.11099523 -0.33317298 -0.78165233 0.00023969192 0.37798867 -0.2983359 1.0085729
-0.039613515 0.61944234 -0.98303974 -0.2286075 0.19222729 0.09486403 -0.66145116 -0.021663113
-0.99471056 -1.1627587 -0.3683335 -0.26808152 -0.30518237 -0.18085934 -0.20007236 -0.32325178
-0.14371347 0.34758875 -0.53497064 0.0662 0.16667329 0.49677175 -0.32015494 -0.3185391
-0.16590253 -0.097538956 -0.088673495 0.06701785 -0.07336845 -0.06288877 -0.11579497 -0.15244949
-0.1144559 0.058852926 -0.01961403 -0.05231962 -0.11049609 -0.09976593 -0.02236686 -0.012733826
-0.084007636 -0.12712209 0.025853055 0.055654477 0.034936965 -0.14234242 0.022198338 -0.08194961
0.031282023 -0.038935497 -0.1461994 -0.031206788 -0.04924732 -0.18429956 -0.07803117 0.11262034
-0.1231936 -0.11250417 0.016711954 0.058317 -0.20231555 -0.01644699 -0.0826701 0.0035432852
-0.08474208 -0.011927463 -0.012408992 -0.036796376 0.10982974 -0.00527011 -0.0476572 -0.024454255
-0.017826514 -0.008133887 0.013231227 0.010872995 -0.12566596 -0.13879701 -0.12524268 0.0059141433
-0.015931768 -0.034328233 0.0043068663 -0.009944642 -0.019542322 0.046993002 -0.032801747 0.01065911
-0.2464109 -0.25779644 -0.15055545 0.038156804 -0.032142278 0.059561957 -0.20425972 0.0068694944
-0.25265262 -0.24455746 -0.23839682 -0.042159934 -0.16466874 -0.1954434 -0.24134974 0.030028988
-0.036399838 -0.26738197 0.09650716 0.043732654 0.07663463 -0.18739559 -0.06806556 -0.16593255
-0.09597742 -0.0832283 -0.15133826 -0.13130097 0.066452056 -0.16372062 0.07673187 -0.13006681
0.13035353 -0.22442305 -0.11727584 -0.1575841 0.0007171719 -0.025672829 -0.17474332 -0.087877676
-0.12959869 0.11877279 -0.09365543 -0.0012142806 0.16310705 0.08940205 -0.042288158 -0.009308098
-0.22483172 -0.23730466 -0.30056795 -0.0324441 -0.2701001 -0.10659331 -0.064404644 -0.10788097
-0.024526069 -0.0329 -0.032573193 -0.13930626 -0.07823908 0.16673851 -0.17010729 -0.04367464

w_agents.2.bias f4 [32]
00000000: 19b8 48be f332 43bf bb34 25be 32d4 a4be
00000010: 76af 3bbe 8ada 35bf 2d82 47be e4ea 97be
00000020: 76bb c73d d847 90be 2193 4cbd c342 e4be
00000030: 6116 2bbf c4c6 1ebf 06d1 0ebe b59a 8dbe
00000040: 61b7 39be 087a 29bf 3e0a 3bbe 0a37 f8be
00000050: faff 8fbe 0daf a13d 5a5a c5bf 7cef f5be
00000060: 72ae 0abf d79e c9be 379e 38be 3b03 bbbd
00000070: 5e9a 143e aca7 01bf 3c13 3b3e 648d a83d
-0.19601478 -0.7624962 -0.16133396 -0.32193142 -0.18328652 -0.7103659 -0.19483252 -0.29671395
0.09752552 -0.28179812 -0.049945 -0.44582185 -0.6683102 -0.6202204 -0.13946924 -0.27657095
-0.1813636 -0.6620183 -0.18265626 -0.4847949 -0.28124982 0.078947164 -1.5418198 -0.48034275
-0.5417243 -0.39378998 -0.18029104 -0.091314755 0.14512011 -0.5064647 0.18269056 0.08230093

Ws.0 f4 [32, 32]
00000000: d4ef ebbe 2061 dfbe e097 153f 065a 793f
00000010: 4896 76bf 5342 b4bc 4899 6cbf c914 a6be
00000020: df3b b4bf ee29 a93f 60e8 9c3f 7e14 553d
00000030: 977d cb3f 829a 373f daf3 2e3f 25c3 f63d
00000040: 5a00 c33e d6ba 803d 170e 8dbe 7226 823f
00000050: 79c0 03bf f830 0ebf 1ead 163e 0cfe 4d3f
00000060: 403b 2dbf 163e c7bf a8ef 9abf 59c3 7d3f
00000070: e5fb 843f 572a 0340 207b 503f dbba e7be
00000080: c299 0ebf 5aec 80bf e52e f5bf 630d 2740
00000090: cae8 ed3d 68f9 c9bf 60f6 01c1 74fc f23f
000000a0: 2f7b a43f c09a 3e3f 6e12 d6bf fa61 45c0
000000b0: d350 8e3f 3278 cbbf 5d42 4abe 5b53 03c0
000000c0: 4a03 1e40 e814 c73e 6dc0 1fc0 2e47 3bc0
000000d0: 91bf ad3f 6735 78c0 c05f d03f c9d3 b63e
000000e0: f6ea c2bf 418e 3f3e d837 db3f fb7a f6bf
000000f0: c087 5bbf 118c 083f b33b 0940 6de2 1a3e
00000100: 226b 6f3f 50ea ef3f 674d 9cbe 786b febf
00000110: d8db ef3f 57d4 5cbf 06aa 613f 3537 9e3f
00000120: bf91 833e 0af6 b63f 1d35 523e 4d5c 78bf
00000130: 22ee 5e3e d4ce 793e 01f3 e3be 4eb6 523f
00000140: c0f0 d4bf ffd6 e9bf f98f 1140 e3ea e13f
00000150: f8b1 de3d 34f2 8a3e a367 95bf 6a01 a4be
00000160: 83ff ffc0 8d3e 24c0 145d 1bc0 6258 0c40
00000170: 0e69 ccbe 4b3e 453e a40c cfc0 6d66 983f
00000180: 5264 9dbf eedf 033e 21bf 4d3d ea90 d33f
00000190: 438e f2bf 81b7 863f 8186 99be b700 563e
000001a0: 1921 d63d 2db5 84bf fd5f 933e 0713 9a3e
000001b0: 0fee 03bf 8578 86be 7d96 203f eb66 f0be
000001c0: 0b32 05bf 25bc df3f be3e 01bf baef 9b3f
000001d0: 8b4a f8bf 3354 b1bf c389 553f c539 b83c
000001e0: 10f7 683e 7a78 ab3f 6a83 d03f 4157 9a3e
000001f0: ee40 533e 0104 f0bf b08f 7b3f bee7 1e3f
00000200: 0cee dd3d 043b 2f3f b837 00bf 620e e7bf
00000210: be33 62bf ce97 943f 054c a83e f004 c53e
00000220: 98e2 aabe b542 e03e 1427 cbbe 4d4a c2be
00000230: 7da2 0b3e 2ac9 923e 0bfd 22be ac49 c0be
00000240: f5d3 833e 4711 133f e1cf 163e 927d edbe
00000250: 1201 81bf 1c7d 78bf c663 f6be b5e1 a9bf
00000260: c7cc 2d40 5789 ec3d 16a7 a9bf 52ab b3bf
00000270: 8a76 88bf 6429 d23f 7d4f 8a3f aa0f 19bf
00000280: 736f 8bc0 b0c6 6dbc d6ef 0340 1e4f 9dc0
00000290: e53b adbf 6c34 52c0 053c 01c0 4d9d e9bf
000002a0: 7a18 2b3f 2a78 df3f 81a0 f8be 6328 c2bf
000002b0: 61d8 e0be 6abb 38bf 5dc4 233f 0339 5a3f
000002c0: 4071 bfc0 61a3 d53e a190 b73f f2ed fa3b
000002d0: dba6 233f f2a5 13bf f81b f7bf 7584 d3be
000002e0: 3d5d 613f 6725 353e 5d35 06bf f18c 34bf
000002f0: aae6 eebf 5c02 8e3e 0eb7 d4bf 9ef6 99bf
00000300: bd1a 873f b4a5 9ac0 6ac0 02c0 a036 ebbf
00000310: 4193 66c0 df3e 8dc0 3a34 b43f c626 1bbf
00000320: 43c0 2040 de47 4dbe e326 8fbe 2f15 283f
00000330: 31d7 4540 d126 22c0 aa96 2c3f f7e7 d33f
00000340: 8de5 4140 ed79 2540 4fb9 bf3f b921 e53f
00000350: ec9a 6b3f ba0f ff3f 40df 1e3f a35c d0c0
00000360: 239d c7bf e6e7 f1c0 af7e 02be b6e5 c6bf
00000370: 9c96 5a3f db35 e13d 93d0 3bc0 f8f4 86c0
00000380: c406 68bf f14b b43f 1ece 39be 5260 7c3e
00000390: 3964 5d3f 28bc d8be 0e7f 843e 26f0 f3bf
000003a0: 0702 953f 2d6c f33e d803 883e 857b 9abd
000003b0: 7c02 50bf 3d39 4a3e c25a d83f 6f5e b63c
000003c0: 0f44 96bf 0260 523f 5186 653e 8e28 e03e
000003d0: 1973 2ac0 1093 fdbf 8eb3 0740 f680 edbf
000003e0: e686 e8bf df9c 1740 9f39 443f 3119 97bc
000003f0: 5fa1 fbbd d57f 9f3e c16f 0440 a81a 5f3f
-0.46081412 -0.43628788 0.5843487 0.9740299 -0.9632306 -0.022004282 -0.9242139 -0.32437733
-1.4080771 1.3215921 1.2258415 0.052021496 1.5897702 0.71720135 0.6834084 0.120489396
0.38086206 0.06285636 -0.27549812 1.0167983 -0.51465565 -0.5554347 0.14714476 0.8046577
-0.67668533 -1.5565822 -1.2104387 0.991262 1.0389372 2.0494592 0.81437874 -0.45259747
-0.55703366 -1.0072129 -1.9154936 2.610192 0.116166666 -1.5779238 -8.12265 1.8983293
1.2850093 0.7445488 -1.6724374 -3.084105 1.1118416 -1.5896056 -0.19751878 -2.0519626
2.4689507 0.38883138 -2.4961197 -2.9262195 1.3574086 -3.8782594 1.627922 0.35708454
-1.5227954 0.1870661 1.7126417 -1.9256281 -0.85754013 0.53338724 2.1442688 0.15125437
0.93522847 1.8743382 -0.30527803 -1.9876547 1.8738966 -0.86261505 0.8815006 1.2360598
0.25697133 1.4293835 0.20528074 -0.9701584 0.21770528 0.24395305 -0.44521335 0.82309425
-1.6635971 -1.8268737 2.2744124 1.7649807 0.108737886 0.2713791 -1.1672252 -0.3203233
-7.9999404 -2.5663178 -2.427556 2.1928945 -0.399239 0.19262044 -6.470293 1.1906258
-1.229624 0.12878391 0.050231103 1.6528599 -1.8949665 1.0524751 -0.2998543 0.2089871
0.104555316 -1.036779 0.2878417 0.30092642 -0.51535124 -0.26263824 0.62729627 -0.4695352
-0.52029485 1.7479292 -0.5048636 1.2182534 -1.9397749 -1.385382 0.8341333 0.022488484
0.22750497 1.3396142 1.6290104 0.30144694 0.20630237 -1.8751222 0.98266125 0.6207236
0.108364195 0.68449426 -0.5008502 -1.8051264 -0.883602 1.1608827 0.32870498 0.3848033
-0.33376002 0.43800893 -0.39678252 -0.37947312 0.13636203 0.286691 -0.1591684 -0.37556207
0.25747648 0.5744824 0.14727737 -0.46384865 -1.0078452 -0.970659 -0.48122996 -1.3272005
2.7156236 0.11549633 -1.3254116 -1.4036658 -1.0661175 1.6418881 1.0805508 -0.59789526
-4.3573546 -0.014512703 2.0615134 -4.915908 -1.3533903 -3.2844496 -2.0192883 -1.8251129
0.66834223 1.7458546 -0.48559955 -1.5168575 -0.43915084 -0.7216097 0.639715 0.8524324
-5.9825745 0.4172621 1.4341012 0.00765776 0.63926476 -0.5767509 -1.930541 -0.41311994
0.88032895 0.17690049 -0.52425176 -0.7052756 -1.8664143 0.27736175 -1.6618364 -1.2028387
1.0555035 -4.8327274 -2.042994 -1.8376045 -3.6027377 -4.4139247 1.4078438 -0.6060604
2.5117347 -0.20046946 -0.27959356 0.65657324 3.0912592 -2.5336192 0.67417395 1.6555165
3.0296357 2.5855668 1.4978427 1.7900916 0.9203327 1.9926674 0.620594 -6.511308
-1.5594829 -7.559558 -0.12743638 -1.5538852 0.8538606 0.109966 -2.9346054 -4.2174034
-0.90635324 1.4085675 -0.18145034 0.24646118 0.8648105 -0.42331052 0.25878185 -1.9057662
1.1641244 0.4754347 0.26565433 -0.07543091 -0.8125379 0.19748397 1.6902697 0.022261826
-1.173952 0.82177746 0.22414519 0.4378094 -2.663275 -1.9810505 2.1203341 -1.8554981
-1.8166168 2.3689497 0.7665042 -0.01844463 -0.122866385 0.31152216 2.069321 0.8715005

Ws.1 f4 [32, 32]
00000000: dc84 213f e016 f7bf 9c60 463f becb 4bc0
00000010: 2fac 5d3d 5427 bdbe 3bd8 c1bf d854 113f
00000020: 0503 273f 7893 dbc0 4e20 d9bf 149d e2bc
00000030: 0db0 d13c 9441 0cc0 79a4 b83f 8e2a ec3f
00000040: c438 863f bb85 893e c60e 76bf b73a ffbe
00000050: 3e04 32bf a4ee 183e b979 c33e a781 0340
00000060: 8979 acc0 f996 083f 6589 1440 5822 003f
00000070: a61d 5a3f c325 863f 3b83 0a3e 08b1 22c0
00000080: dfc7 0940 6df9 263f 6fa6 cfbe 70ac 8abe
00000090: 3eda 763e f768 343d cf2a dabd 9c8b f0bd
000000a0: f11c c43f e250 00bf 3bea 9d3f 098d 373f
000000b0: e00f 6f3f f898 9a3f 29b9 57bf eaab 1bc0
000000c0: 891e 443f f68d 9f3e 7fa8 9dbf e6a7 8ebe
000000d0: 2c12 17c0 59ef b4be 03c4 9e3e d9ce c53e
000000e0: cf78 2cbf d6a4 70bf ff34 22c0 a725 333c
000000f0: 875c 45bf 1f11 8ebf 0dd9 0ebe f663 853f
00000100: 11d8 13c0 c3d3 3b3e eb08 30c0 8b98 3fbf
00000110: 1e1c ecbd 308e 503f ff4f babe 1727 183e
00000120: 93b7 99bf 0285 0e3f 7e7c 83be a98d 9fbf
00000130: 1df5 a93e 629f 56bf 3409 2bbf 440d 56bf
00000140: a856 e43f 34b4 d2bf 2c56 77c0 2556 57bf
00000150: 6e87 19bf c5d4 c5bd 851e 1d3e 3059 523d
00000160: 4fd8 543f 9484 5e40 a2d9 39c0 ab85 94be
00000170: 685e 7ebf 3371 8c3f 8bc2 da3e 8cec b6bf
00000180: e117 e5bf 0a5b 063f e49f 843f fe60 c33f
00000190: 4aed 33bf 9aca 683f e270 a13f a78b 2440
000001a0: 175a 483e d61a 423f ba14 4640 a20d 753e
000001b0: 938a e03f d423 383f e8bf 973f 63c0 893e
000001c0: 968e bdbf 2a2f 953e d010 023f 00e8 793f
000001d0: 5dd5 bebe 2fa6 37bf 053a 193f a87a 14c0
000001e0: de0b 873f b87b 8ebe 7140 2bc0 64b5 a53f
000001f0: 554b f8bf bb7c 80bf 884a b83f 470f b53e
00000200: 412f 5740 0a58 6ebf 0831 39be f478 09bd
00000210: 5840 cebf 13e3 773f b4d4 f5bf 857c d03e
00000220: 3296 69bf 2df0 d7bf adbb 613f c77a ffbf
00000230: 43e2 4a3f 6176 97be 77dd ab3f c72b 2f3f
00000240: 2961 063f 0b58 0640 0795 28bf 87bc 2840
00000250: de5c cf3f 6295 e03f 8c91 fcbf 8250 4fc0
00000260: 5b8d e9be 2e5b c0bf fd1f 43bf 5c92 7d3f
00000270: faf1 1dbf 0479 e5bf ee5c 04c0 abbf 97c0
00000280: e4da bf3f 06af 0840 dcc7 78bf 4b98 153f
00000290: 829f 14c0 403e 3bc0 fdb6 28bf 8eb6 f13e
000002a0: 3ebc dd3e bc36 ce3e cd81 b4bf b7a4 01c0
000002b0: 38ca 42bf 8984 fa3f 68dd 173f 6640 d0be
000002c0: ee7c 73bf 277d 0e3f 7b24 26c0 b3b2 36bf
000002d0: 6622 8bbf 0bb1 d83e 3923 3b3f f624 ed3d
000002e0: 6c40 afbe c140 07be ab87 4ebf eb1a 1bc0
000002f0: 5d8c 8b3f d1cf 153f 8e09 3cc0 8f03 a0bf
00000300: 7fa5 06c0 3b66 193f 3fd2 d3bf d09f f63e
00000310: bd37 39c0 a9e4 063f c8fe 09c0 9090 cdbd
00000320: 617c 8f3f c5e0 36bf cb16 eb3f 4c76 073f
00000330: d5e1 48bf 891a 53bf 5080 e0bf 3e33 d13f
00000340: 4009 533e 9c70 4e3f dac2 d1bf c0ce d2bf
00000350: b09e 0d3f 573f 393f 055b a23f 33e6 633e
00000360: 5be7 8abf b5c4 7d3f 46d4 a23e 6cc8 07c0
00000370: 9971 903f 8688 b33f e25e 6d3f c381 f4bf
00000380: dea2 bdbf 40f8 3b3e bc2b 0340 c4b7 1740
00000390: eaa1 00bf 850a f1bd 32c0 fb3f e803 babf
000003a0: 8b27 cc3e 6cbb d4be 0819 bcbf 95f7 8f3f
000003b0: 6c1e 22bf 3d3d b8bf 8436 453e 6361 0fbe
000003c0: 41cd fb3e fef2 e1bf 8626 c33f cafb e0bc
000003d0: d926 e03e fa6f 2e3e fcb9 613f 2b6e 46bf
000003e0: d5b1 af3e 842d 463f f143 f1bf c4af 3ebf
000003f0: 4831 fb3e 22b6 c2bf 044b 3fbf 0b22 43bf
0.6309335 -1.9303856 0.77491164 -3.1843104 0.054119285 -0.36944067 -1.5144113 0.56770086
0.6523898 -6.8617516 -1.6962984 -0.027662791 0.025596643 -2.1915026 1.4425193 1.8450487
1.0486073 0.2685984 -0.9611629 -0.49849483 -0.69537723 0.14934784 0.38178805 2.0547884
-5.389836 0.53355366 2.320886 0.50052404 0.8520149 1.0480274 0.13526623 -2.5420551
2.1528242 0.65224344 -0.40556666 -0.27084684 0.2410669 0.044045415 -0.10652696 -0.117453784
1.5321332 -0.5012342 1.2337106 0.7169958 0.933836 1.2077932 -0.84266907 -2.4323678
0.7660909 0.31162995 -1.2317046 -0.2786247 -2.3604841 -0.35338858 0.3100892 0.38634375
-0.6737184 -0.9400152 -2.5344846 0.01093427 -0.7709431 -1.1098975 -0.13949986 1.0421131
-2.3100626 0.183425 -2.7505443 -0.7484214 -0.115288004 0.8146696 -0.36389157 0.14858662
-1.2009147 0.55671704 -0.25680918 -1.2465106 0.3319482 -0.8383695 -0.6681092 -0.8361399
1.7838945 -1.6461244 -3.8646345 -0.8411582 -0.59972274 -0.09659723 0.15343674 0.051354587
0.8314256 3.476842 -2.9039083 -0.2900823 -0.993628 1.0972046 0.4272655 -1.4290938
-1.7897912 0.52482665 1.0361295 1.5263975 -0.7028395 0.90934145 1.2612574 2.5710237
0.19565617 0.758222 3.095015 0.23930982 1.754229 0.7192967 1.185544 0.26904592
-1.4809139 0.29137546 0.50806904 0.9761963 -0.37272158 -0.7173795 0.59854156 -2.3199863
1.0550497 -0.27828765 -2.6758082 1.2945981 -1.939799 -1.0038065 1.4397745 0.35363218
3.3622591 -0.93103087 -0.1808511 -0.033562616 -1.6113386 0.9683086 -1.9205537 0.4072
-0.91244805 -1.6870171 0.88176996 -1.9959344 0.792515 -0.29582503 1.3426961 0.68426174
0.52492005 2.0991237 -0.658524 2.6365068 1.6200216 1.7545588 -1.9731917 -3.2392888
-0.45615658 -1.5027826 -0.76220685 0.9905145 -0.6169735 -1.7927556 -2.068172 -4.742147
1.4988675 2.1356826 -0.9717996 0.58435506 -2.3222356 -2.9256744 -0.6590422 0.4720959
0.4330768 0.40276134 -1.4102112 -2.0256784 -0.7608981 1.9571697 0.59322214 -0.40674132
-0.951125 0.5565972 -2.5959766 -0.71366423 -1.0869873 0.42322573 0.7310062 0.11579315
-0.34228837 -0.13208295 -0.8067576 -2.423518 1.090221 0.5852023 -2.9380832 -1.2501086
-2.103851 0.59921616 -1.6548537 0.48168802 -2.894027 0.5269266 -2.1561756 -0.10037339
1.1209832 -0.7143672 1.8366331 0.5291488 -0.7846959 -0.82462364 -1.7539158 1.6343763
0.20608997 0.8064058 -1.6387589 -1.6469345 0.5532026 0.72362274 1.2684027 0.22255783
-1.0851854 0.99128276 0.31802577 -2.1216078 1.1284667 1.4026039 0.92722905 -1.91021
-1.4815328 0.18356419 2.0495443 2.3705912 -0.5024706 -0.117695846 1.9668028 -1.4532442
0.3987392 -0.41549242 -1.4695139 1.1247431 -0.6332767 -1.4393688 0.19259077 -0.14001994
0.49180034 -1.765228 1.5246131 -0.027463812 0.43779638 0.17034903 0.88174415 -0.7751185
0.34315363 0.774132 -1.8848859 -0.7448695 0.49061036 -1.5211833 -0.7472384 -0.7622382
