data-6/rl_model_1.pth (torch_old, 93650 bytes, 18 tensors)

w_a f4 [32, 32]
0	0xc02d3d05	-2.7068493
1	0xbfa62b70	-1.2982006
2	0x3fee6146	1.8623435
3	0xbf76059b	-0.96102303
4	0xbcf19ba4	-0.02949316
5	0xbfc06512	-1.5030844
6	0xc0559a47	-3.3375413
7	0x4086b854	4.210001
8	0xbdee50ef	-0.116365306
9	0xbf987aed	-1.1912514
10	0xc052e689	-3.2953207
11	0x3fe79fc7	1.8095635
12	0xbf3db0f2	-0.7409812
13	0x4018f055	2.3896687
14	0x3f13da08	0.57754564
15	0xc05dc85e	-3.4653544
16	0xc04f9792	-3.243626
17	0x3e9a70f0	0.3016429
18	0xc0579a2b	-3.3687847
19	0xc0264550	-2.5979805
20	0xc03a4b44	-2.9108438
21	0xc01c4142	-2.441483
22	0xc06c438f	-3.6916234
23	0xbed00ec5	-0.40636268
24	0x4039f20e	2.9053988
25	0xc000f7e6	-2.0151305
26	0x4024f7b4	2.5776186
27	0xbf2957fb	-0.6614987
28	0x3daab49b	0.08335229
29	0xc016d8a7	-2.3569734
30	0xc04a7a06	-3.1636977
31	0x40396596	2.8968253
32	0xc07ee604	-3.982789
33	0x3fcb66ab	1.5890707
34	0xbf545193	-0.8293697
35	0x3da19d2e	0.07891308
36	0x3f1ddffb	0.6166989
37	0xbffc7146	-1.9722068
38	0x3f03bf01	0.51463324
39	0x3f82c08e	1.0215013
40	0xbf309231	-0.6897307
41	0x3e44d699	0.19222488
42	0x3fcfea3a	1.6243355
43	0x3dd37b1c	0.103262156
44	0x401e6e1d	2.4754708
45	0x3f8500c6	1.0390861
46	0xc01543b9	-2.3322585
47	0xbf582357	-0.84428924
48	0x3ec07c8d	0.37595025
49	0x3f5a675e	0.85313976
50	0x3f27c1a0	0.65529823
51	0x3f1aeb6c	0.60515475
52	0x3ecb1f5b	0.3967236
53	0xc08bf71f	-4.373916
54	0xc012720d	-2.288211
55	0x3f0f85a9	0.56063324
56	0x3cc58cad	0.024114931
57	0xbfd3801f	-1.6523474
58	0xbbbb51b2	-0.005716526
59	0x4003915f	2.0557477
60	0x3f70839b	0.93950814
61	0xbcebf63f	-0.028803943
62	0x3e8ff24d	0.28114548
63	0x3fa2dd39	1.2723762
64	0xbf3773ff	-0.7166137
65	0xbf560e6c	-0.83615756
66	0x3f8f78c4	1.120873
67	0xc05d4005	-3.4570324
68	0xbf97cf2a	-1.1860096
69	0xc01a1eff	-2.4081419
70	0x3f77ac67	0.9674744
71	0xbefa2569	-0.48856667
72	0x3fc34b48	1.5257349
73	0x4024b13b	2.5733173
74	0xc0009751	-2.0092356
75	0xbe3a043a	-0.18165675
76	0xbf9f8747	-1.2463158
77	0xc03e5055	-2.973653
78	0xbf6c1f5c	-0.9223535
79	0xbf10bee9	-0.56541306
80	0xc00d9964	-2.2124872
81	0xbf4bc485	-0.7959674
82	0xbf62630c	-0.88432384
83	0xbf05b060	-0.5222225
84	0x3fcf09a3	1.6174816
85	0xc03cd9b8	-2.9507885
86	0x3e0a6f2e	0.13518974
87	0xbfa71f42	-1.3056414
88	0x3f0e1bbe	0.5551108
89	0xbf2adf1f	-0.66746706
90	0xbf5e7d03	-0.869095
91	0x3fb9025a	1.4453843
92	0xbf2033b1	-0.62578875
93	0xbf666cf6	-0.9001001
94	0xbfa451d7	-1.2837476
95	0x3fd49bdd	1.6610066
96	0xc0880140	-4.2501526
97	0x3ea919dd	0.33027545
98	0x3fe0e428	1.7569628
99	0xc0079cc9	-2.1189444
100	0x3efff964	0.49994957
101	0x3e2052f2	0.15656641
102	0xbf987380	-1.1910248
103	0x3ec3a685	0.38212982
104	0xbf1bcf4f	-0.608632
105	0xbfd71813	-1.6804222
106	0xbee8daf6	-0.45479554
107	0x3f81c7d3	1.0139107
108	0x3f98094b	1.1877836
109	0x3f14cbe2	0.581236
110	0xbff9d507	-1.9518136
111	0xc00c2dbf	-2.1902921
112	0xc084dab2	-4.151696
113	0xbd9c2683	-0.07624533
114	0xbff5d80e	-1.920656
115	0x3fd8ddc4	1.6942677
116	0x3e82549b	0.25455174
117	0xc02e3df7	-2.722532
118	0xc01b1937	-2.423414
119	0xbfcbadba	-1.5912392
120	0x401219d8	2.2828274
121	0xbe03a4e2	-0.12855867
122	0x3daa42a1	0.0831349
123	0x3e023b0e	0.1271784
124	0x3f7e1ce7	0.9926285
125	0x4033bcff	2.8084104
126	0xbf4063e7	-0.7515244
127	0x3fcc4ac4	1.5960317
128	0x3db18913	0.08668723
129	0xbef5d628	-0.4801495
130	0xbfcbadc5	-1.5912405
131	0xbf57cfb2	-0.8430129
132	0xc03ae97d	-2.920501
133	0x3f826b02	1.0188906
134	0x3f66360d	0.89926225
135	0xc013b0d5	-2.307668
136	0xbf9a4957	-1.2053632
137	0x3ee47ee2	0.44628054
138	0x3fdf0151	1.7422277
139	0xbfd4b2a8	-1.6617022
140	0x3f0a983d	0.5413855
141	0xbfacd1ec	-1.3501563
142	0xbd368082	-0.04455615
143	0xbf7f9527	-0.99836963
144	0xbf5fa08d	-0.87354356
145	0x3d6f3eff	0.058409687
146	0xbf20b773	-0.6277992
147	0xbcd6f355	-0.026239077
148	0x3f1b2482	0.6060258
149	0x3e333bb1	0.17503239
150	0xbfef15f9	-1.867858
151	0xbfd238c2	-1.6423571
152	0x3f996735	1.1984621
153	0x4005968d	2.087314
154	0xbfa4e0ff	-1.2881163
155	0x40884c93	4.2593474
156	0x3fcf486c	1.6193976
157	0x3e6196dd	0.22030206
158	0x404e3650	3.222065
159	0xc009e28d	-2.1544526
160	0xc025f737	-2.5932138
161	0xbf317acf	-0.69328016
162	0x3f3b5188	0.7317128
163	0x3f50f119	0.81617886
164	0xbe251b99	-0.16123809
165	0x3e256bd9	0.16154422
166	0x3fdda1ef	1.7315043
167	0x3f29b563	0.662924
168	0xbf25a6e5	-0.64707786
169	0x3f8c7267	1.0972413
170	0xbf610430	-0.87897015
171	0xbdba2116	-0.09088342
172	0x3fb33da0	1.4003181
173	0x3ea386df	0.31938836
174	0xbe1200aa	-0.14258066
175	0xbf5f8857	-0.87317413
176	0x3f1c85c6	0.6114162
177	0x3f9f50a9	1.244649
178	0x3f6b7694	0.9197781
179	0xbf768235	-0.9629243
180	0xbe5f7b87	-0.21824466
181	0x4023c1d8	2.5587063
182	0xbf17e03f	-0.5932655
183	0xbf9f2dd5	-1.2435862
184	0x403ead67	2.9793336
185	0xbea39581	-0.3195
186	0x3ee3b0db	0.44470868
187	0xbf32e95e	-0.6988734
188	0x3d29f275	0.04149099
189	0x3d81ddca	0.06341131
190	0x3f3f09f7	0.7462458
191	0xbdd6be79	-0.104855485
192	0xbfad7914	-1.3552575
193	0xbfdc0904	-1.7190251
194	0xbe7b65a7	-0.24550496
195	0xc03003ab	-2.7502239
196	0xc0187865	-2.3823483
197	0x3eec5614	0.46159422
198	0xc0040098	-2.0625362
199	0xc02000c0	-2.5000458
200	0xbec28dbf	-0.3799877
201	0xbfdf6602	-1.7453005
202	0xbf9e64bd	-1.2374493
203	0x3e105025	0.14093073
204	0xbf25095c	-0.64467406
205	0x3f86a630	1.0519466
206	0xbeb511f3	-0.35365257
207	0x4009681e	2.1469798
208	0xc06f08e4	-3.7349176
209	0x3fb67a81	1.4256135
210	0xbf9aeb93	-1.2103142
211	0xbf07d695	-0.530618
212	0x3f19b075	0.6003488
213	0xc01eeaf9	-2.4830916
214	0xc0357f83	-2.8359077
215	0xc02a956e	-2.6653705
216	0xbf91a7dd	-1.1379353
217	0xbe8e7b76	-0.27828568
218	0xbd650a5f	-0.055918094
219	0xbf0bd9f5	-0.5462945
220	0xbf90993e	-1.1296766
221	0x3f6fd20d	0.9367989
222	0x3f360a12	0.71109116
223	0x3e8fcc31	0.28085473
224	0xbf23e087	-0.64014477
225	0x400fad59	2.2449553
226	0xbde7b0a3	-0.11312988
227	0x3f7b7aa0	0.98233986
228	0xbe63f1fc	-0.22260278
229	0x3f97728d	1.1831833
230	0xbf938e26	-1.1527755
231	0x3e5040d2	0.20337227
232	0x3fec3855	1.8454691
233	0xbe61196f	-0.21982358
234	0xc00259c7	-2.0367296
235	0x3f7b3446	0.9812664
236	0xbe0d9e4d	-0.13829918
237	0x3f721dc8	0.9457669
238	0x3ec56639	0.38554552
239	0xbf2c82da	-0.67387164
240	0xbf266f05	-0.6501315
241	0x3f9fde5a	1.2489731
242	0xc032343f	-2.7844388
243	0xbf4ffbe1	-0.8124371
244	0xbfab162b	-1.336614
245	0xbffcf0c9	-1.9760982
246	0x3f50345c	0.81329894
247	0xbf076da4	-0.52901673
248	0x400a8c93	2.16483
249	0xbfb3e530	-1.4054317
250	0x3fd9c2bb	1.7012552
251	0xbf519e57	-0.8188223
252	0xbf3db387	-0.7410206
253	0xbfdd134b	-1.7271513
254	0x3fa0639a	1.2530396
255	0x402ba39b	2.6818607

w_group.0.weight f4 [64, 8]
0	0xbd3b7056	-0.04576143
1	0x3cb3b03c	0.021934621
2	0x3e67ea1d	0.22647901
3	0xbe8f64fb	-0.2800673
4	0xbeb12b91	-0.3460355
5	0x3d0f1100	0.03492832
6	0xbdad07a4	-0.08448723
7	0x3cd43ff9	0.02590941
8	0xbf286fca	-0.65795577
9	0xbf386f22	-0.72044575
10	0xbfa699f0	-1.3015728
11	0x3ad85c86	0.0016507066
12	0xbe80d074	-0.25159037
13	0xbe5ed4a5	-0.21760805
14	0xbf670db5	-0.9025529
15	0xbf807de7	-1.0038422
16	0xbf3ff158	-0.74977636
17	0xbe1e07af	-0.15432619
18	0xbef117fa	-0.47088605
19	0xbeaef311	-0.3416982
20	0xbe9d0a4a	-0.30671912
21	0xbe91eb34	-0.28499758
22	0xbf259d11	-0.6469279
23	0xbf63d879	-0.89002186
24	0xbfc7b612	-1.5602438
25	0x3f6e5b68	0.93108225
26	0x3f32b3d6	0.6980566
27	0xc06f5b82	-3.7399602
28	0x3e814171	0.2524524
29	0x3e66043e	0.22462556
30	0xbf6b104d	-0.9182175
31	0xbeb9fe53	-0.36326846
32	0xbdb3e8a2	-0.087846056
33	0xbd004be5	-0.03132238
34	0x3f1f9ffc	0.6235349
35	0x3ebd795e	0.37006658
36	0x3ca5a18c	0.020218633
37	0x3e27005a	0.16308728
38	0xbe6bc9e7	-0.23026238
39	0xbeae7b84	-0.3407861
40	0x3f515232	0.81766045
41	0xbe0ea516	-0.13930163
42	0xbfb50ad0	-1.4143925
43	0xbf42c17f	-0.760765
44	0xc0259b96	-2.5876212
45	0x3e8e4c17	0.27792427
46	0x3ef137c4	0.47112858
47	0xbc544a84	-0.012957219
48	0xbfbeb319	-1.4898406
49	0x3f3aa3d4	0.7290623
50	0xbfa68bc5	-1.3011404
51	0x3fa5793a	1.292762
52	0xbf373248	-0.715611
53	0xbe23808e	-0.15967008
54	0xbf67f375	-0.9060586
55	0xbf261a16	-0.64883554
56	0xbf9f75e3	-1.2457851
57	0x3ecd285d	0.40069857
58	0x40374112	2.8633466
59	0xc0311807	-2.7670915
60	0x3f19818b	0.5996329
61	0xbe5aa126	-0.21350536
62	0xbdc08cb3	-0.09401836
63	0xbf0d0117	-0.5507979
64	0xbdf6f3f8	-0.12058252
65	0x3e21678b	0.15762155
66	0xbee62aa0	-0.44954395
67	0x3ee00972	0.43757206
68	0xbec64602	-0.38725287
69	0xbe5e8a28	-0.2173239
70	0xbeb4a23e	-0.3528003
71	0xbec9caa5	-0.39412418
72	0xbca07717	-0.019588036
73	0xbe9685f7	-0.29399082
74	0xbfa02ff6	-1.2514637
75	0xbf9adb1f	-1.209812
76	0x3eee332a	0.4652341
77	0x3dfd21d8	0.12359971
78	0xbf181164	-0.59401536
79	0xbf4ca151	-0.7993365
80	0x3fdccf0d	1.7250687
81	0x3eda54f1	0.4264293
82	0x3f03da95	0.51505405
83	0x3fd5c116	1.669955
84	0xc00caae7	-2.197931
85	0xbdb347c4	-0.087539226
86	0xbe8b48af	-0.2720389
87	0xbe6ca68a	-0.23110405
88	0xbe9f1a42	-0.3107472
89	0x3e8ce031	0.27514794
90	0x3dcd57bf	0.10026502
91	0xbf06b65a	-0.52621996
92	0xbf145e25	-0.57956153
93	0x3d1a4940	0.037667513
94	0xbf568ec8	-0.83811617
95	0xbf3cc196	-0.7373289
96	0x400f2af2	2.2369962
97	0xbeee2ee2	-0.46520144
98	0x4038f243	2.8897865
99	0xbfc7c659	-1.5607406
100	0x3cc670bf	0.024223683
101	0xbe43c976	-0.1911982
102	0xbed85da9	-0.42258957
103	0xbf3e257b	-0.7427594
104	0x3fc0f90a	1.5076001
105	0x3fce28e4	1.6106229
106	0x402445fe	2.566772
107	0x3f25a062	0.6469785
108	0xbdbb5fe7	-0.09149151
109	0xbcfc6630	-0.030810446
110	0xbf14dbca	-0.5814787
111	0xbf282175	-0.6567605
112	0xbdefeea9	-0.11715443
113	0xbea55282	-0.3228951
114	0x3efda480	0.49539566
115	0x3f99d276	1.2017353
116	0xbeb9a8c8	-0.36261582
117	0xbe2289aa	-0.15872827
118	0xbf156829	-0.5836206
119	0xbf44ed0d	-0.7692421
120	0x3fbca853	1.4738868
121	0xbea388d7	-0.31940338
122	0xc0104d0a	-2.254702
123	0xc03163f8	-2.7717266
124	0xbf80c436	-1.0059879
125	0x3e3be2de	0.18348262
126	0xbf6b7103	-0.9196932
127	0xbf8d28be	-1.1028059
128	0x3fe7714a	1.8081448
129	0xbe4518b4	-0.19247705
130	0xc0386616	-2.8812308
131	0x3ec24ba2	0.37948328
132	0x3ed0f5dc	0.40812576
133	0xbea38679	-0.31938532
134	0xbe6b5071	-0.22979905
135	0xbe9a4d1a	-0.3013695
136	0xbe80ddd6	-0.25169247
137	0x3edeb227	0.43495294
138	0xbf5babe3	-0.85809153
139	0xbf2a57f4	-0.66540456
140	0xbfcf997a	-1.6218712
141	0xbdc829c0	-0.09773588
142	0xbf3f8a19	-0.74820095
143	0xbf266a14	-0.6500561
144	0xbcbddc96	-0.023176473
145	0x3cdc8a6e	0.026921477
146	0xbef9389a	-0.48675996
147	0x3e2204ab	0.15822093
148	0xbf9d9b3b	-1.2312998
149	0xbb546d80	-0.00324139
150	0xbd861a9d	-0.06548045
151	0xbe36a436	-0.17836079
152	0xbcdcc159	-0.026947664
153	0xbca1f0fb	-0.019768229
154	0x3e6b4e69	0.2297913
155	0x3ec26e56	0.37974805
156	0x3eea1d2a	0.45725375
157	0x3e6222aa	0.22083536
158	0xbea351ad	-0.3189825
159	0xbe8799ee	-0.26484627
160	0xc019a24b	-2.4005306
161	0xbf9d0832	-1.2268126
162	0x3ea5d67a	0.32390195
163	0xbed18078	-0.40918326
164	0xbf3b6988	-0.732079
165	0x3e2d45f6	0.16921219
166	0xbef47a4e	-0.4774956
167	0xbf3dfe99	-0.7421661
168	0xbe7a70f5	-0.24457152
169	0xbec2253c	-0.37919033
170	0xbe13fc00	-0.14451599
171	0xbded4f83	-0.11587431
172	0xbf1f67da	-0.6226784
173	0xbdd9fefc	-0.106443375
174	0xbf447386	-0.76738775
175	0xbf5e858e	-0.8692254
176	0x3e6a3eb7	0.22875486
177	0xbd901def	-0.070369594
178	0x3f9f6152	1.2451575
179	0xbf919ace	-1.1375368
180	0xbfc4ac22	-1.5365031
181	0xbea46593	-0.32108745
182	0xbe30caef	-0.17264913
183	0xbee74e44	-0.451769
184	0x3fb1c0be	1.3886945
185	0x3f8c6948	1.0969629
186	0xbf440db4	-0.7658341
187	0xbfcfb19f	-1.6226081
188	0xbee590e5	-0.44837108
189	0x3e4039a2	0.18771985
190	0xbf336047	-0.7006878
191	0xbeee029a	-0.4648636
192	0x4090f96a	4.530446
193	0xbe2e1bc4	-0.17002779
194	0x3f50fd8e	0.81636894
195	0xbe48cd3a	-0.19609538
196	0xbf841d9f	-1.032154
197	0x3e951b47	0.29122373
198	0x3e653448	0.22383225
199	0x3dc0bda2	0.094111696
200	0x3e2b7444	0.1674357
201	0xbe763d7c	-0.24046892
202	0x3f69f00f	0.91381925
203	0x3eb27b9e	0.34859937
204	0xbf0d231d	-0.55131704
205	0x3d686ed8	0.056746334
206	0xbf097bd3	-0.53704566
207	0xbed7f6b5	-0.4218041
208	0x3e60a580	0.21938133
209	0x3e1611ee	0.14655277
210	0x3f25bb31	0.64738756
211	0x3f3e1dd2	0.7426425
212	0xbed75c25	-0.42062488
213	0x3e5ab78e	0.21359083
214	0xbf02132d	-0.5081051
215	0xbe2d3125	-0.16913278
216	0x3fa6c7a3	1.3029674
217	0x3f942310	1.15732
218	0x3f8229a4	1.0168958
219	0x3e85792d	0.26069012
220	0xbe97af3c	-0.2962588
221	0xbc506fe0	-0.012721986
222	0xbd686708	-0.056738883
223	0x3eb5ed12	0.35532433
224	0xbe6c6eb8	-0.23089111
225	0xbf2df122	-0.67946064
226	0x3e34c811	0.17654444
227	0xc0297ec0	-2.6483612
228	0x3e77aad9	0.24186267
229	0xbeb10e23	-0.34581098
230	0xbf09592c	-0.5365169
231	0xbf271472	-0.6526557
232	0xbed1aba3	-0.4095126
233	0xbeafcbef	-0.34335276
234	0x3f440ae9	0.7657915
235	0xbf86e9d1	-1.0540105
236	0xbf82e36b	-1.0225652
237	0x3e45bf62	0.19311288
238	0xbf3d2124	-0.73878694
239	0xbf43a999	-0.7643066
240	0xbf365c6c	-0.71234775
241	0x3db47b77	0.088126116
242	0xbf1624a9	-0.5864969
243	0xc0913646	-4.537875
244	0xbe7a972d	-0.24471731
245	0xbe05feec	-0.13085526
246	0x3d2580b4	0.040405944
247	0x3d113b9c	0.03545724
248	0x3e38cdb1	0.18047215
249	0xbf3a0242	-0.72659695
250	0xbf5dd19d	-0.8664797
251	0xbfbe6d70	-1.4877148
252	0xbf113e87	-0.56736034
253	0xbdd225d4	-0.102611214
254	0xbed95e54	-0.4245478
255	0xbea1763b	-0.31535515

w_group.0.bias f4 [64]
0	0xbe9aa434	-0.30203402
1	0xbf888343	-1.0665058
2	0xbf65c0d5	-0.89747363
3	0xbf6a1912	-0.91444504
4	0xbeeb2052	-0.45923096
5	0xbe26691e	-0.16251037
6	0xbf2a16b6	-0.66440904
7	0xbf27769b	-0.6541535
8	0xbf1b658e	-0.60701835
9	0xbf0a9684	-0.5413592
10	0xbf0baaea	-0.5455767
11	0xbf7ab784	-0.9793627
12	0xbf3458eb	-0.7044818
13	0xbed70a9f	-0.4200029
14	0xbf07a437	-0.52984947
15	0xbf0dde50	-0.55417347
16	0xbeb2679b	-0.3484467
17	0xbedb94c3	-0.42886934
18	0xbf1265d3	-0.5718662
19	0x3d955d90	0.07293236
20	0xbf3b6607	-0.73202556
21	0xbf61b1be	-0.8816184
22	0xbf48a548	-0.783772
23	0xbf51a971	-0.8189917
24	0xbdf07584	-0.11741164
25	0xbf417dcd	-0.7558258
26	0xbef4a61f	-0.4778299
27	0x3e9fd40d	0.3121647
28	0xbdd0df8e	-0.1019889
29	0xbf190d0b	-0.59785527
30	0xbb46b701	-0.0030321481
31	0xbeba5d8b	-0.36399493
32	0xbefe7b49	-0.49703434
33	0xbf2a0ee8	-0.66428995
34	0xbdbb8e7d	-0.09158037
35	0xbf0139b0	-0.5047865
36	0xbf1af38a	-0.6052786
37	0x3ec937d5	0.3930041
38	0xbed78210	-0.42091417
39	0xbf06afed	-0.5261219
40	0xbc37f356	-0.011227449
41	0xbf193f6c	-0.598624
42	0xbf3a6f5a	-0.7282616
43	0xbe9f7d43	-0.31150255
44	0xbe1e594a	-0.15463749
45	0xbe245139	-0.16046609
46	0xbc4bc12d	-0.012436193
47	0x3e013215	0.12616761
48	0x3d23ffd9	0.040038917
49	0xbd48623b	-0.048921805
50	0xbf5a76c8	-0.85337496
51	0x3e91f42f	0.2850661
52	0xbed30bdf	-0.41219994
53	0xbee29bb8	-0.4425943
54	0xbe8a4c7d	-0.2701148
55	0xbee105ba	-0.43949682
56	0xbf4bab68	-0.7955842
57	0xbe9cee5e	-0.3065061
58	0xbcc74c5c	-0.024328403
59	0x3e590d98	0.21196592
60	0xbf2cc64e	-0.6749009
61	0xbf78289b	-0.9693696
62	0xbd8093af	-0.062781684
63	0x3e2c96d5	0.16854413

w_group.2.weight f4 [32, 64]
0	0x3dbb6904	0.091508895
1	0xbddf1331	-0.10892332
2	0xbd5739da	-0.052545406
3	0xbdeef654	-0.11668077
4	0x3cb914f6	0.022593003
5	0x3cff0e98	0.031134889
6	0xbe2160ec	-0.15759629
7	0x3bdebf8f	0.006797738
8	0xbd5a4e47	-0.053297307
9	0xbc953569	-0.018213945
10	0xbd88e91c	-0.06685087
11	0x3d868d3e	0.065699086
12	0xbdbef52c	-0.093241066
13	0xbcded228	-0.02719982
14	0xbcf36335	-0.029710392
15	0x3d97be76	0.074093744
16	0xbd72b457	-0.059254017
17	0xbe1c50dd	-0.15265222
18	0x3d3e899f	0.046517964
19	0xbe0f599c	-0.13999027
20	0xbdfb9ca5	-0.12285737
21	0xbe1a3934	-0.15060884
22	0xbdb7ceba	-0.08974977
23	0xbcf89aaa	-0.030347187
24	0xbbc3fbb3	-0.0059809326
25	0x3d9d071e	0.07667373
26	0xbdfc0df0	-0.12307346
27	0x3dad25d2	0.08454479
28	0x3d44ab51	0.048014943
29	0xbd37d9ef	-0.044885572
30	0x3d3795aa	0.044820465
31	0x3da43f5a	0.08019896
32	0x3ca42468	0.020036891
33	0xbd66f840	-0.056389093
34	0x3ca23396	0.019799989
35	0x3ccf1b84	0.025281675
36	0xbd45f7aa	-0.048331894
37	0x3d03e017	0.03219613
38	0x3db3f331	0.087866195
39	0xbe058e0a	-0.13042465
40	0xbdf74fae	-0.120757446
41	0x3cc8478c	0.024448179
42	0xbd5f455a	-0.0545095
43	0xbe408c8b	-0.18803613
44	0x3dbea335	0.09308473
45	0xbc06d691	-0.008229868
46	0xbe43e822	-0.1913152
47	0xbdfe07c0	-0.12403822
48	0xbe5fbcd6	-0.21849379
49	0x3ca0963b	0.019602885
50	0xbbcde882	-0.0062838206
51	0x3d84a7e8	0.06477338
52	0xbcc3a43d	-0.023882026
53	0x3db86f25	0.09005574
54	0xbd802020	-0.06256127
55	0xbd5ac2f1	-0.053408567
56	0x3daede4c	0.085384935
57	0xbde450bb	-0.111482106
58	0xbd8e6731	-0.06953276
59	0xbddd9708	-0.108198225
60	0xbda5d936	-0.0809807
61	0xbe1e262b	-0.15444247
62	0xbd92f584	-0.07175735
63	0xbe23c487	-0.15992938
64	0x3d0891c3	0.033342134
65	0x3e74362a	0.23848787
66	0x3ef1c174	0.47217906
67	0x3e30043f	0.1718912
68	0xbdc07a32	-0.09398307
69	0x3f3c14da	0.73469317
70	0xbf356b06	-0.7086643
71	0xbe999112	-0.29993492
72	0xbe7bdeb0	-0.24596667
73	0x3e45a012	0.19299343
74	0x3e63b514	0.22237045
75	0x3ea3ae9f	0.31969163
76	0x3f5c0f01	0.85960394
77	0x3f7bad92	0.9831172
78	0x3df1d04c	0.118073076
79	0x3f355fba	0.7084919
80	0x3deab56a	0.11460383
81	0xbee0cc2a	-0.43905765
82	0xbd886390	-0.06659615
83	0x3c026fb9	0.007961207
84	0x3f549ed0	0.8305483
85	0xbe3a429c	-0.18189472
86	0x3e283f41	0.1643038
87	0xbc36fe3e	-0.0111690145
88	0xbf443e60	-0.76657677
89	0xbd537585	-0.051625747
90	0x3ed9d814	0.42547667
91	0x3e47bad6	0.19504866
92	0xbe529a6a	-0.20566717
93	0xbcb08080	-0.021545649
94	0xbf0be9ae	-0.5465344
95	0x3e2ddf2a	0.16979662
96	0xbf1e099b	-0.61733407
97	0x3ee20032	0.44140774
98	0xbf95cf29	-1.1703845
99	0x3d7a782a	0.061149754
100	0xbd32aca5	-0.043621678
101	0xbf143f3d	-0.57908994
102	0x3e497d04	0.19676596
103	0x3c56a193	0.013100046
104	0xbd89a182	-0.06720258
105	0x3f4174bd	0.75568753
106	0x3e00b5d6	0.12569365
107	0xbf062e7c	-0.5241468
108	0xbdc77080	-0.097382545
109	0xbdcff6b3	-0.10154476
110	0xbfbed04b	-1.4907316
111	0x3dc30648	0.095226824
112	0xbeb5c634	-0.3550278
113	0x3d60f0dc	0.0549172
114	0xbe6af2c4	-0.2294417
115	0x3f6f7e7f	0.9355239
116	0xbe033eba	-0.12816897
117	0x3f314bc7	0.6925625
118	0xbef854f6	-0.4850232
119	0xbe4c3dfe	-0.19945523
120	0xbf268b4d	-0.65056306
121	0x3dabef91	0.08395303
122	0xbfa19629	-1.262395
123	0xbe9102ce	-0.28322452
124	0x3c6e81b6	0.014557293
125	0xbf827661	-1.0192376
126	0xbfcb98ca	-1.5906003
127	0xbf0be309	-0.54643303
128	0xbe11f4f1	-0.14253594
129	0xbf9730cb	-1.1811765
130	0xbd1d8140	-0.03845334
131	0xbf7c210b	-0.9848792
132	0xbd22e955	-0.039773304
133	0x3e9a0857	0.30084488
134	0xbf9b7737	-1.2145756
135	0xbdb9dce5	-0.090753354
136	0x3d15d200	0.036577225
137	0xbe3c1d66	-0.1837059
138	0xbd1e959b	-0.038716894
139	0x3f4dbe63	0.8036863
140	0xbf9f3731	-1.2438718
141	0x3f1230f5	0.5710595
142	0xbe967d68	-0.29392552
143	0xbf7a4003	-0.97753924
144	0xbecb3cc6	-0.39694804
145	0xbe7d3917	-0.2472881
146	0x3e538d94	0.20659477
147	0xbe5f2bd9	-0.2179407
148	0xc08d075f	-4.40715
149	0xbee31952	-0.44355255
150	0xbf266e8a	-0.6501242
151	0xc01438f6	-2.3159766
152	0x3d116389	0.035495315
153	0xbe92bf94	-0.28661788
154	0xbcf0dca7	-0.02940209
155	0xbf3f42f9	-0.7471157
156	0xbee7edc6	-0.45298594
157	0x3dc21352	0.09476341
158	0xbfaed2c4	-1.365807
159	0xbfcd1ff5	-1.6025378
160	0xbf1e3c86	-0.618111
161	0xbed7fe7d	-0.42186347
162	0xbe5df374	-0.21674901
163	0x3f173c46	0.59076345
164	0xbdd3f5ab	-0.10349592
165	0x3e982ab6	0.29720086
166	0x3a00d5b8	0.0004914659
167	0xbdba94dc	-0.09110424
168	0xbf41fccf	-0.7577638
169	0x3e0f649d	0.14003225
170	0xbe7fba1e	-0.24973342
171	0xbf3f77e0	-0.7479229
172	0xc014bb9e	-2.3239512
173	0xbe038fd5	-0.12847836
174	0x3ea33f1f	0.31884095
175	0x3cd6c465	0.026216695
176	0x3f62c1e2	0.8857709
177	0xbf641f36	-0.89110124
178	0xbdadcf19	-0.08486766
179	0xbf022ce8	-0.5084977
180	0xbdaa299a	-0.08308716
181	0x3ee30f68	0.44347692
182	0xbbed4d86	-0.0072419075
183	0x3e7aaf38	0.24480903
184	0x3f041f3e	0.5161017
185	0x3bd7e274	0.0065882746
186	0x3e3140a3	0.17309813
187	0xbe4c902c	-0.19976872
188	0xbf5a7e50	-0.8534899
189	0xbf532d29	-0.82490784
190	0xbd2eb480	-0.042652607
191	0xbf42a684	-0.7603533
192	0x3d6c95ec	0.057760164
193	0xbdc8fb94	-0.0981361
194	0x3dfaa9fc	0.12239453
195	0xbba306af	-0.004975162
196	0xbc687c2d	-0.014189762
197	0xbe0f30b9	-0.1398343
198	0xbe06a1e9	-0.13147701
199	0xbe11dd8e	-0.14244673
200	0xbdeb4797	-0.11488264
201	0xbe134beb	-0.14384429
202	0xbdc81d3a	-0.097711995
203	0x3b725c42	0.003698126
204	0xbdccbd37	-0.09997027
205	0xbd10d8af	-0.035362896
206	0xbde8424a	-0.11340769
207	0xbd438ef9	-0.04774377
208	0xbd97c500	-0.07410622
209	0x36109c62	2.15487e-06
210	0xbd47416a	-0.048646368
211	0xbda98114	-0.08276573
212	0x3d16236c	0.036654875
213	0x3d4e1558	0.050313324
214	0xbe299d41	-0.16563894
215	0xbe183bb4	-0.14866525
216	0xba6045d8	-0.00085553294
217	0xbe381117	-0.1797527
218	0xbd7f8841	-0.0623858
219	0x3ca10ab3	0.019658422
220	0x3daa6b97	0.083213024
221	0xbd216d71	-0.039411012
222	0xbdeeb737	-0.11656039
223	0x3d19460b	0.037420314
224	0x3cc7787c	0.024349444
225	0x3dce1963	0.10063436
226	0xbcb319f8	-0.021862969
227	0xbda6cbae	-0.081443176
228	0x3d349ea0	0.04409659
229	0xbe15b4d4	-0.14619762
230	0x3c517dc9	0.012786337
231	0xbe1f966f	-0.1558473
232	0xbe08ea59	-0.13370647
233	0xbdae9910	-0.08525288
234	0x3d2d54ea	0.04231731
235	0x3c0ea2c3	0.008705798
236	0xbd195d8b	-0.037442725
237	0x3d92bd9b	0.071650706
238	0xbe298dba	-0.1655797
239	0x3dfe5894	0.12419239
240	0xbda24777	-0.07923787
241	0x3d96ffea	0.073730305
242	0x3db77562	0.08957936
243	0xba983490	-0.0011612345
244	0x3caf8897	0.021427436
245	0x3d819477	0.063271455
246	0xbe1f32cb	-0.1554672
247	0xbd0edc91	-0.034878317
248	0x3d4a9df8	0.049467057
249	0x3c0b6fa0	0.0085105
250	0xbd7af4d9	-0.06126866
251	0x3c8e9a3a	0.017407525
252	0x3cb8ebfe	0.022573467
253	0xbe3a9614	-0.18221313
254	0x3c437400	0.011929512
255	0xbe10b17f	-0.1413021

w_group.2.bias f4 [32]
0	0xbe5b34a2	-0.21406797
1	0xbfbcd57c	-1.475265
2	0x3f05fa66	0.523352
3	0xbe5b5169	-0.21417774
4	0x3fbd773e	1.4802015
5	0x3eb74d04	0.35800946
6	0xbf1b6253	-0.60696906
7	0xbf26e52d	-0.65193444
8	0xbe28c281	-0.16480447
9	0xc02fa747	-2.7445848
10	0xbdcfd13a	-0.10147329
11	0x3fd1b226	1.6382492
12	0xbe6be73d	-0.23037429
13	0xbf767dfb	-0.9628598
14	0xc02907d8	-2.6411037
15	0xbfbf9cd1	-1.4969732
16	0xbf6881ff	-0.9082336
17	0x3fb1cf97	1.3891476
18	0x3f569a38	0.8382907
19	0xbcb7ee8e	-0.022452619
20	0x3f916d77	1.1361531
21	0x3f14102d	0.5783718
22	0x404ff5de	3.2493815
23	0xbf9b89b9	-1.2151405
24	0xbf37d65a	-0.7181145
25	0xbf2bec6e	-0.6715764
26	0xbfdeec84	-1.7415929
27	0xbdc40320	-0.095709085
28	0xbdb0366b	-0.086041294
29	0x3f107335	0.5642579
30	0xbe586099	-0.21130599
31	0x3f535519	0.82551724

w_agents.0.weight f4 [64, 5]
0	0xbe5afd1f	-0.2138562
1	0x3cc76872	0.024341796
2	0x3f4c6d1b	0.7985398
3	0x3ea9af52	0.3314157
4	0x3f18600e	0.5952157
5	0xbf1f9d41	-0.62349325
6	0xbe60e8bb	-0.2196378
7	0x3f4594cf	0.7718019
8	0x3f619ef3	0.8813316
9	0xbf9ad407	-1.2095956
10	0xbc4fe266	-0.012688255
11	0xbe114622	-0.1418691
12	0xbe8dda33	-0.27705535
13	0xbf800d27	-1.0004014
14	0xbf3a7018	-0.7282729
15	0xbcd4d7f7	-0.025981886
16	0xbb55e272	-0.0032636193
17	0xbf2be3f1	-0.67144686
18	0x3f9785be	1.183769
19	0xbfcfc004	-1.6230474
20	0x3ec3ca0c	0.38240087
21	0xbbdcf618	-0.006743204
22	0x3f788968	0.97084665
23	0xbf20f691	-0.6287623
24	0xbec4f5fd	-0.38468924
25	0x3e633a24	0.22190148
26	0xbeaca8d5	-0.3372256
27	0xbd82a964	-0.06379965
28	0x3d87c643	0.06629612
29	0x3e2203b5	0.15821727
30	0x3d757ba9	0.059932385
31	0x3e7a6e96	0.24456248
32	0xbf902d0d	-1.1263748
33	0x3fc2e7ce	1.5226991
34	0xbf38e94f	-0.72231
35	0xbc361e1b	-0.011115576
36	0x3b4026c2	0.0029319976
37	0xbf8d2cec	-1.1029334
38	0x3f4e6904	0.8062899
39	0xbfb05b53	-1.377787
40	0x3bb7a5f5	0.0056045004
41	0x3c32b002	0.010906221
42	0x3bf7c32f	0.0075611095
43	0xbeda9db2	-0.42698437
44	0xbf2b2800	-0.6685791
45	0xbbe4a8fc	-0.0069781523
46	0xbc01fc35	-0.007933666
47	0xbd9c9c04	-0.07646945
48	0xbe7a117b	-0.24420731
49	0xbedc94b5	-0.43082204
50	0x3a965fc1	0.0011472629
51	0xbbf16794	-0.007367084
52	0x3de995f5	0.11405555
53	0x3d9460d2	0.072450295
54	0xbe0241fc	-0.12720484
55	0xbda46f43	-0.08029034
56	0x3cee554a	0.029093403
57	0x3e978876	0.295963
58	0xbe404802	-0.18777469
59	0xbf045b27	-0.5170159
60	0x3ea4d554	0.32194006
61	0xbf3963ec	-0.72418094
62	0x3f2e4d0b	0.6808631
63	0x3f079944	0.5296824
64	0xbf437608	-0.76351976
65	0xbcbffe70	-0.023436755
66	0x3b02edbf	0.0019978133
67	0xbe907433	-0.28213653
68	0xbdf4c502	-0.11951639
69	0xbd9996a3	-0.07499435
70	0xbc46cd42	-0.012133898
71	0x3ca36b9e	0.019948777
72	0x3e192196	0.14954218
73	0x3eaec36a	0.34133464
74	0xbf20d2de	-0.6282176
75	0xbd72ee60	-0.059309363
76	0xbda4ec97	-0.080529384
77	0x3e7e2cc8	0.2482177
78	0x3e9baec8	0.30406785
79	0xbf527e7e	-0.8222426
80	0x3d01c4f7	0.03168198
81	0xbda116bd	-0.07865665
82	0xbef6ed40	-0.48227882
83	0x3fa0754e	1.2535799
84	0xbfa9c640	-1.3263626
85	0xbc9796fb	-0.01850461
86	0xbb885067	-0.0041599753
87	0x3dd9c51e	0.106333
88	0x3ed2731c	0.41103446
89	0xbef37ad3	-0.47554645
90	0x3e67cb2d	0.22636099
91	0xbf6105dc	-0.87899566
92	0x3fd61422	1.6724894
93	0x404c16b0	3.1888847
94	0xc007d3aa	-2.122294
95	0x3b895fab	0.0041923127
96	0xbb227961	-0.0024791586
97	0xbdc72754	-0.09724298
98	0xbdfd49dd	-0.12367604
99	0xbf2018fd	-0.6253813
100	0xbe0fd453	-0.14045839
101	0xbe26ca5a	-0.16288128
102	0x3e2bc0bb	0.1677274
103	0x3e729204	0.23688513
104	0xbff9f01e	-1.9526403
105	0x3d16adb3	0.036786746
106	0x3d0bd61e	0.034139745
107	0x3c10b627	0.008832491
108	0x3f86cf54	1.0532022
109	0xbf8fc3e6	-1.1231658
110	0xbcca5357	-0.024697943
111	0xbcb273cc	-0.021783732
112	0x3dc53c91	0.09630693
113	0xbe309dae	-0.1724765
114	0xbd43f294	-0.047838762
115	0xbcb51ae3	-0.022107547
116	0xbb3834b3	-0.0028107583
117	0xbe8137eb	-0.25237975
118	0xbd9409e7	-0.07228451
119	0xbf3c83e2	-0.7363874
120	0x3ddf7c15	0.10912339
121	0x3d94ec86	0.07271676
122	0xbfbc0009	-1.4687511
123	0x3e721102	0.236393
124	0x3d4d00d8	0.050049633
125	0x3ed47d3f	0.41501805
126	0x3e9ee02f	0.31030414
127	0x3f2cdddb	0.67526025
128	0x400727e9	2.111811
129	0xbf272088	-0.65284014
130	0xbc9e3eba	-0.01931702
131	0xbc28b47a	-0.010296935
132	0x3cdd6218	0.027024314
133	0xbe1e58dd	-0.15463586
134	0xbe764076	-0.24048027
135	0x3e9b16b5	0.30290762
136	0xbda986b9	-0.082776494
137	0xbf6517de	-0.89489543
138	0x3f0a781c	0.5408952
139	0xbfb33baf	-1.4002589
140	0xbe856fd9	-0.26061895
141	0x3d8f6b0c	0.070028394
142	0xbce6cb08	-0.028172985
143	0x3fae9006	1.3637702
144	0xc007a430	-2.1193962
145	0x3f081e4f	0.5317125
146	0x3ea1407a	0.31494504
147	0x3ed65a88	0.41865945
148	0x3efe7dc5	0.4970533
149	0xbfdbe377	-1.7178792
150	0xbd9242b4	-0.07141629
151	0xbd6b1d66	-0.057401083
152	0xbf4fd13e	-0.81178653
153	0x3e13c277	0.14429651
154	0xbf6b8a8e	-0.9200829
155	0x3dff7a3c	0.12474486
156	0xbc3c0eee	-0.011478169
157	0xbe335d3f	-0.1751604
158	0x3e878434	0.2646805
159	0xbf714bdd	-0.94256383
160	0xbe167cbb	-0.14696018
161	0xbdd1fee2	-0.10253693
162	0xbf96cd4f	-1.1781405
163	0x3f97f31d	1.1871067
164	0xbf3c962c	-0.73666644
165	0x3cc5ae0a	0.02413084
166	0x3d760ff1	0.060073797
167	0xbecda4fb	-0.40164933
168	0x3f22912b	0.6350276
169	0xbf2dc7b2	-0.67882836
170	0x3dfc99d7	0.1233403
171	0x3e64e9b6	0.22354779
172	0x3f0919d6	0.5355505
173	0x3f83eb77	1.0306233
174	0xbe530dc8	-0.20610726
175	0x3e12bca9	0.1432978
176	0xbc6b1eba	-0.0143505875
177	0x3eab0ee9	0.33409813
178	0xbec5df89	-0.38647106
179	0xbf80488d	-1.0022141
180	0x3e08396c	0.13303155
181	0x3eb19116	0.34681004
182	0x3ee4b576	0.44669694
183	0x3f5429dd	0.8287638
184	0xbf0b027c	-0.54300666
185	0x3d051e38	0.032499522
186	0x3bb9ed66	0.005674052
187	0xbfcbe98c	-1.5930648
188	0x3d4ffbee	0.05077737
189	0xbfaf6da9	-1.3705341
190	0xbbc66c08	-0.006055359
191	0xbc7a1156	-0.015262922
192	0xbd65c8a7	-0.05609956
193	0xbec5e9b8	-0.38654876
194	0xbf458166	-0.7715057
195	0x3d89ec65	0.06734542
196	0x3e4077e7	0.18795739
197	0x3d925975	0.07145969
198	0x3f8fa60a	1.1222546
199	0xc002192f	-2.032787
200	0x3b0be121	0.0021343904
201	0xbc9ce07f	-0.019150017
202	0xbf0b3e7c	-0.5439222
203	0xbe9d21b2	-0.3068977
204	0xbf415f85	-0.75536376
205	0x3e38ea24	0.18058068
206	0xbe0817e2	-0.1329036
207	0xbe7274fc	-0.23677438
208	0x3fa7db70	1.3113842
209	0xc0209756	-2.5092368
210	0xbe87a5c1	-0.26493648
211	0xbf69e6ce	-0.91367805
212	0x3f23a0aa	0.6391703
213	0x403d47c0	2.9575043
214	0xbf885b9c	-1.0652957
215	0xbe1a6239	-0.15076531
216	0x3eda662d	0.4265608
217	0xbf85f4c1	-1.0465318
218	0x3ff7681f	1.932865
219	0xbf8028d3	-1.0012459
220	0x3ec8e59c	0.39237678
221	0xbd9099dd	-0.07060597
222	0x3faa7e67	1.3319825
223	0x403f20c1	2.9863741
224	0xbfbf1ea7	-1.4931229
225	0xbf0d548a	-0.5520712
226	0x3f628996	0.8849119
227	0xbf295934	-0.6615174
228	0x3f026046	0.5092815
229	0xbf5e2b2a	-0.86784613
230	0xbd2f367f	-0.04277658
231	0xbc8d1a8a	-0.017224569
232	0x3d3cd852	0.046104737
233	0x4031c472	2.777615
234	0xc02f78ec	-2.7417555
235	0x3bb6683c	0.005566625
236	0xbd87ce25	-0.06631116
237	0xbf55f644	-0.83578897
238	0x3ff11c66	1.8836792
239	0xc01a7a54	-2.4137163
240	0xbf23a40d	-0.63922197
241	0xbe9a0a72	-0.30086094
242	0xbf87b028	-1.0600634
243	0x40186d61	2.381676
244	0xbfe2851e	-1.7696874
245	0xbcb434f0	-0.021997899
246	0xbe5e5879	-0.21713437
247	0x3d96a27e	0.07355212
248	0xbf1d71b7	-0.6150164
249	0xbfca1ce4	-1.5790067
250	0x3d4bcb74	0.049754575
251	0x3e08780e	0.13327047
252	0x3d6242da	0.055239536
253	0xbfd26b55	-1.6439005
254	0xbe55d5c5	-0.20882328
255	0xbd2802ea	-0.041018404

w_agents.0.bias f4 [64]
0	0xbe6d9ef5	-0.23205169
1	0xbf91bff6	-1.1386707
2	0xbf58dc6c	-0.8471134
3	0xbf95cd04	-1.1703191
4	0xbf70fec2	-0.9413873
5	0xbd8dab5d	-0.069174506
6	0xbf46cb5f	-0.7765407
7	0xbf836c79	-1.0267478
8	0xbecb9e01	-0.39768985
9	0xbe4cf6ea	-0.20016065
10	0xbe1de26f	-0.15418409
11	0xbf538a7a	-0.82633173
12	0xbf87287c	-1.055923
13	0xbedd78e3	-0.43256292
14	0xbeb13e9e	-0.34618086
15	0xbf61c228	-0.88186884
16	0xbfc6345a	-1.5484726
17	0xbed15d52	-0.4089151
18	0xbff02c51	-1.8763524
19	0xbdea915b	-0.114535056
20	0xbfb3319c	-1.3999515
21	0xbf8876e3	-1.0661281
22	0xbf037635	-0.51352245
23	0xbe468012	-0.19384792
24	0xbdbe78fc	-0.0930042
25	0xbf232484	-0.63727593
26	0xbeb04ac5	-0.34432045
27	0xbf9ddd1b	-1.2333101
28	0xc00a9885	-2.165559
29	0xbfb6b2c2	-1.4273303
30	0xbfa026e4	-1.2511868
31	0xbf6d91ab	-0.92800397
32	0xbf04881d	-0.5177019
33	0xbf5f387e	-0.87195575
34	0xbefc3681	-0.49260333
35	0xbf9773a5	-1.1832167
36	0xbf2d171f	-0.67613405
37	0xbfd62780	-1.6730804
38	0xbe994f68	-0.29943395
39	0xbfe1447e	-1.7599027
40	0xbf3a2ba4	-0.7272284
41	0xc00b909d	-2.1807015
42	0xbfc0cfeb	-1.5063452
43	0xbfb0f9f9	-1.3826286
44	0xbfe57fa0	-1.7929573
45	0xbfbb7778	-1.4645834
46	0xc010c204	-2.2618418
47	0xbfe19c79	-1.7625877
48	0xbf92714c	-1.1440825
49	0xbfdf2437	-1.7432927
50	0xbf7fd231	-0.999301
51	0xbe935efa	-0.287834
52	0xbe2a8fa0	-0.16656351
53	0x3e0faab9	0.1402997
54	0xbd05a461	-0.032627467
55	0xbfd7d742	-1.6862566
56	0xbf9230ce	-1.1421144
57	0xbfc836ba	-1.5641701
58	0xbfee0255	-1.8594462
59	0xbf885385	-1.0650488
60	0xbf36b083	-0.71363086
61	0xbfc6e6d3	-1.5539192
62	0xc002e4ea	-2.0452218
63	0xbe64562b	-0.22298495

w_agents.2.weight f4 [32, 64]
0	0x3bce950a	0.006304388
1	0xbd168c53	-0.036754917
2	0xbd450779	-0.04810283
3	0xbd61c4d3	-0.055119347
4	0xbdb7b2ab	-0.08969625
5	0x3b992b65	0.0046743625
6	0xbe032cc3	-0.12810044
7	0x3d81c95c	0.063372344
8	0x3d580e3f	0.05274796
9	0xbd8be612	-0.06830992
10	0xbceb0469	-0.028688626
11	0x3d2ba77c	0.041907772
12	0xbd8e2a04	-0.069416076
13	0x3d6ce439	0.057834838
14	0x3b69ce64	0.0035675997
15	0x3bf74cde	0.007547005
16	0xbda274e1	-0.07932449
17	0xbcb3820e	-0.0219126
18	0xbdd2e4c1	-0.102975376
19	0xbe2176ed	-0.15768023
20	0xbe40c09b	-0.18823473
21	0x3c080bc5	0.008303587
22	0xbe4ea3be	-0.2017965
23	0xbdbf1175	-0.093295015
24	0xbe1be23d	-0.15223022
25	0xbb50d5f3	-0.0031865805
26	0xbb9fb45a	-0.0048737945
27	0xbda6def8	-0.08147997
28	0xbdb9536e	-0.09049116
29	0x3d3fe581	0.04684973
30	0x3ca666f1	0.020312758
31	0xbce6d39c	-0.028177075
32	0xb890a038	-6.896298e-05
33	0xbddf0ae9	-0.10890753
34	0xbd2cfcc1	-0.042233232
35	0xbe1354ce	-0.14387819
36	0xbde15ab5	-0.11003629
37	0xbd88c6ca	-0.06678541
38	0xbe3844ba	-0.17994967
39	0xbd26ad77	-0.040692773
40	0xbd666558	-0.056248993
41	0xbd8a3292	-0.06747927
42	0x3d2d385c	0.042290077
43	0x3d222628	0.03958717
44	0x3d498eac	0.049208328
45	0x3cc5a1bd	0.024124974
46	0xbdbb239b	-0.091376506
47	0xbd07ca7b	-0.033152085
48	0xbdc93cf0	-0.09826076
49	0xbb1f21b5	-0.0024281566
50	0xbd8b128e	-0.067906484
51	0xbe0eed9a	-0.13957825
52	0xbcc7bf51	-0.024383219
53	0xbe052c5d	-0.13005204
54	0xbcf11649	-0.029429572
55	0xbdc66870	-0.096878886
56	0xbc669850	-0.0140744
57	0xbd500b15	-0.05079182
58	0xbda49e00	-0.080379486
59	0x3d7eedca	0.062238492
60	0x3beb78dd	0.007186039
61	0x3bba06bb	0.005677072
62	0xbdab5e8a	-0.08367641
63	0xbd9774cc	-0.07395324
64	0xc06a0e95	-3.65714
65	0xbed09382	-0.4073754
66	0xbf3455b7	-0.7044329
67	0xbfbac63b	-1.4591745
68	0xbef21379	-0.4728048
69	0xbf44faf1	-0.76945406
70	0xbf19150d	-0.59797746
71	0xbec4469c	-0.3833512
72	0x3dc4b90d	0.09605608
73	0xbe827972	-0.2548328
74	0xbe1f67ed	-0.15566988
75	0x3ce81eac	0.028334938
76	0xbf671fe6	-0.9028305
77	0xbdd67d28	-0.104730904
78	0x3e39c8a1	0.1814294
79	0xbdcef624	-0.10105541
80	0x3e5873a2	0.2113786
81	0xbec9e291	-0.3943067
82	0x3f94356b	1.1578802
83	0xbdf1c970	-0.11805999
84	0x3d06fc5c	0.032955512
85	0x3f18e63c	0.5972631
86	0xbe35a879	-0.17740048
87	0x3d836021	0.064148195
88	0xbd9ab393	-0.07553782
89	0xbde2ef0c	-0.11080751
90	0xbe19f115	-0.15033372
91	0xbdd9d61d	-0.10636542
92	0xbf6fbc39	-0.9364658
93	0xbf2dc438	-0.6787753
94	0xbdb6d9d1	-0.08928264
95	0xbe869633	-0.26286468
96	0xc022d715	-2.5443776
97	0xbde35178	-0.11099523
98	0xbe89ffb9	-0.26952913
99	0xbf481a5e	-0.78165233
100	0x397b55cf	0.00023969192
101	0x3ec187bb	0.37798867
102	0xbe98bf7c	-0.2983359
103	0x3f8118eb	1.0085729
104	0xbd2241c8	-0.039613515
105	0x3f1e93c6	0.61944234
106	0xbf7ba87e	-0.98303974
107	0xbe6a1816	-0.2286075
108	0x3e44d73b	0.19222729
109	0x3dc24813	0.09486403
110	0xbf2954dd	-0.66145116
111	0xbcb176d7	-0.021663113
112	0xbf7ea55a	-0.99471056
113	0xbf94d547	-1.1627587
114	0xbebc9635	-0.3683335
115	0xbe495180	-0.19659996
116	0xbe9c40dd	-0.30518237
117	0xbdcc139a	-0.09964676
118	0xbe4cdfc5	-0.20007236
119	0xbea58142	-0.32325178
120	0xbe1329a0	-0.14371347
121	0x3eb1f727	0.34758875
122	0xbf08f3d6	-0.53497064
123	0x3d8793de	0.0662
124	0x3e2aac67	0.16667329
125	0x3efe58de	0.49677175
126	0xbdf1ebc9	-0.118125506
127	0xbea3178f	-0.3185391
128	0xbe29e25a	-0.16590253
129	0xbdc7c281	-0.097538956
130	0xbdb59a73	-0.088673495
131	0x3d8940a8	0.06701785
132	0xbd964233	-0.07336845
133	0xbd80cbd4	-0.06288877
134	0xbded25ea	-0.11579497
135	0xbe1c1bb8	-0.15244949
136	0xbdea67db	-0.1144559
137	0x3d710fc4	0.058852926
138	0xbca0ad9a	-0.01961403
139	0xbd564d19	-0.05231962
140	0xbde24bc6	-0.11049609
141	0xbdcc5214	-0.09976593
142	0xbcb73ab5	-0.02236686
143	0xbc50a18a	-0.012733826
144	0xbdac0c32	-0.084007636
145	0xbe022c4b	-0.12712209
146	0x3cd3c9c9	0.025853055
147	0x3d63f5f3	0.055654477
148	0x3d0f1a10	0.034936965
149	0xbe11c236	-0.14234242
150	0x3cb5d94a	0.022198338
151	0xbda7d532	-0.08194961
152	0x3d002194	0.031282023
153	0xbd1f7ad4	-0.038935497
154	0xbe15b54c	-0.1461994
155	0xbcffa561	-0.031206788
156	0xbd49b78f	-0.04924732
157	0xbe3cb906	-0.18429956
158	0xbd9fcece	-0.07803117
159	0x3de6a57e	0.11262034
160	0xbdfc4ced	-0.1231936
161	0xbde66896	-0.11250417
162	0x3c88e782	0.016711954
163	0x3d6eddce	0.058317
164	0xbe4f2bcf	-0.20231555
165	0xbc86bbd7	-0.01644699
166	0xbda94ef1	-0.0826701
167	0x3b683676	0.0035432852
168	0xbdad8d41	-0.08474208
169	0xbc436b68	-0.011927463
170	0xbc4b4f16	-0.012408992
171	0xbd16b7cc	-0.036796376
172	0x3de0ee6a	0.10982974
173	0xbbacb0e3	-0.00527011
174	0xbd433432	-0.0476572
175	0xbcc8544a	-0.024454255
176	0xbc9208e9	-0.017826514
177	0xbc0543ff	-0.008133887
178	0x3c58c7ca	0.013231227
179	0x3c3224a5	0.010872995
180	0xbe00ae94	-0.12566596
181	0xbe0e20ce	-0.13879701
182	0xbe003f9e	-0.12524268
183	0x3bc1cb6e	0.0059141433
184	0xbc828357	-0.015931768
185	0xbd0c9bc3	-0.034328233
186	0x3b8d209d	0.0043068663
187	0xbc22eeda	-0.009944642
188	0xbca01738	-0.019542322
189	0x3d407bbc	0.046993002
190	0xbd065b20	-0.032801747
191	0x3c2ea38c	0.01065911
192	0xbe7c5324	-0.2464109
193	0xbe83fde5	-0.25779644
194	0xbe1a2b35	-0.15055545
195	0x3d1c4a4f	0.038156804
196	0xbd03a79f	-0.032142278
197	0x3d73f73d	0.059561957
198	0xbe512976	-0.20425972
199	0x3be1197f	0.0068694944
200	0xbe815baf	-0.25265262
201	0xbe7a6d45	-0.24455746
202	0xbe741e4c	-0.23839682
203	0xbd2cafe5	-0.042159934
204	0xbe289eec	-0.16466874
205	0xbe482251	-0.1954434
206	0xbe772463	-0.24134974
207	0x3cf5ff5a	0.030028988
208	0xbd1517ff	-0.036399838
209	0xbe88e64a	-0.26738197
210	0x3dc5a58c	0.09650716
211	0x3d332103	0.043732654
212	0x3d9cf29e	0.07663463
213	0xbe3fe4a1	-0.18739559
214	0xbd8b65f5	-0.06806556
215	0xbe29ea39	-0.16593255
216	0xbdc48fcf	-0.09597742
217	0xbdaa7399	-0.0832283
218	0xbe1af86b	-0.15133826
219	0xbe0673c3	-0.13130097
220	0x3d881804	0.066452056
221	0xbe27a661	-0.16372062
222	0x3d9d2599	0.07673187
223	0xbe05303c	-0.13006681
224	0x3e057b65	0.13035353
225	0xbe65cf28	-0.22442305
226	0xbdf02e51	-0.11727584
227	0xbe215dba	-0.1575841
228	0x3a3c0097	0.0007171719
229	0xbcd24fd3	-0.025672829
230	0xbe32efea	-0.17474332
231	0xbdb3f936	-0.087877676
232	0xbe04b585	-0.12959869
233	0x3df33f26	0.11877279
234	0xbdbfce6b	-0.09365543
235	0xba9f287f	-0.0012142806
236	0x3e270589	0.16310705
237	0x3db7186c	0.08940205
238	0xbd2d3659	-0.042288158
239	0xbc1880fe	-0.009308098
240	0xbe663a49	-0.22483172
241	0xbe72fffe	-0.23730466
242	0xbe99e40b	-0.30056795
243	0xbd04e41b	-0.0324441
244	0xbe8a4a8f	-0.2701001
245	0xbdda4d98	-0.10659331
246	0xbd83e695	-0.064404644
247	0xbddcf0b3	-0.10788097
248	0xbcc8eae5	-0.024526069
249	0xbd06c227	-0.0329
250	0xbd056b78	-0.032573193
251	0xbe0ea64d	-0.13930626
252	0xbda03bd0	-0.07823908
253	0x3e2abd80	0.16673851
254	0xbe2e309b	-0.17010729
255	0xbd32e42e	-0.04367464

w_agents.2.bias f4 [32]
0	0xbe48b819	-0.19601478
1	0xbf2f27a3	-0.68419856
2	0xbe2534bb	-0.16133396
3	0xbea4d432	-0.32193142
4	0xbe3baf76	-0.18328652
5	0xbf35da8a	-0.7103659
6	0xbe4c9a7e	-0.19980809
7	0xbecbf9fd	-0.39839163
8	0x3de39a5f	0.11113428
9	0xbe9047d8	-0.28179812
10	0xbd99e332	-0.07514037
11	0xbee442c3	-0.44582185
12	0xbf1527fd	-0.5826414
13	0xbf1ec6c4	-0.6202204
14	0xbe0ed106	-0.13946924
15	0xbdc4533e	-0.0958619
16	0xbe39b761	-0.1813636
17	0xbf0b44f9	-0.5440212
18	0xbe3b0a3e	-0.18265626
19	0xbef8370a	-0.4847949
20	0xbeb188d4	-0.34674704
21	0x3ddb149d	0.10697291
22	0xbfb5baa9	-1.4197589
23	0xbea484c9	-0.32132557
24	0xbf0aae72	-0.5417243
25	0xbea9bc3b	-0.3315142
26	0xbe187641	-0.1488886
27	0xbd354967	-0.044259455
28	0x3dd8cd06	0.1058598
29	0xbf01a7ac	-0.5064647
30	0x3e38dc97	0.18052898
31	0x3da48c1a	0.08034535

Ws.0 f4 [32, 32]
0	0xbeebefd4	-0.46081412
1	0xbedf6120	-0.43628788
2	0x3f1597e0	0.5843487
3	0x3f795a06	0.9740299
4	0xbf769648	-0.9632306
5	0xbcb44253	-0.022004282
6	0xbf6c9948	-0.9242139
7	0xbea614c9	-0.32437733
8	0xbfb43bdf	-1.4080771
9	0x3fa929ee	1.3215921
10	0x3f9ce860	1.2258415
11	0x3d55147e	0.052021496
12	0x3fcb7d97	1.5897702
13	0x3f379a82	0.71720135
14	0x3f2ef3da	0.6834084
15	0x3df6c325	0.120489396
16	0x3ec3005a	0.38086206
17	0x3d80bad6	0.06285636
18	0xbe8d0e17	-0.27549812
19	0x3f822672	1.0167983
20	0xbf03c079	-0.51465565
21	0xbf0e30f8	-0.5554347
22	0x3e16ad1e	0.14714476
23	0x3f4dfe0c	0.8046577
24	0xbf2d3b40	-0.67668533
25	0xbfc73e16	-1.5565822
26	0xbf9aefa8	-1.2104387
27	0x3f7dc359	0.991262
28	0x3f84fbe5	1.0389372
29	0x40032a57	2.0494592
30	0x3f507b20	0.81437874
31	0xbee7badb	-0.45259747
32	0xbe9594b9	-0.2921503
33	0x3f0218ae	0.5081891
34	0xbf949c2c	-1.161016
35	0x3f63ae5d	0.8893793
36	0xc0260555	-2.5940754
37	0x3f803959	1.0017501
38	0xc06a22f3	-3.6583831
39	0x3f900144	1.1250386
40	0xbe05bd8b	-0.13060586
41	0xbf326748	-0.69688845
42	0xc01a643e	-2.4123683
43	0xc0731687	-3.79825
44	0xbddf0479	-0.10889525
45	0xbfb412c8	-1.4068232
46	0xbf8aec03	-1.0853275
47	0xc0012224	-2.0177088
48	0x3fe0e412	1.7569602
49	0xbf3ca772	-0.73693
50	0xbf8cbdea	-1.0995457
51	0xc044b756	-3.07369
52	0x3ed8340d	0.42227212
53	0xbe07fb3b	-0.1327943
54	0x402fd402	2.747315
55	0x3d3a973e	0.045554392
56	0xbff1fad0	-1.8904667
57	0xbf59d48d	-0.8508995
58	0x3f512d18	0.8170943
59	0xc01c5534	-2.4427004
60	0xbe2fed93	-0.17180471
61	0x3f9abe81	1.2089387
62	0x3f0818e3	0.53162974
63	0xbedcc927	-0.43122217
64	0x3f9ef704	1.2419133
65	0x400bd242	2.184708
66	0xbd127787	-0.03575852
67	0xbfefa76b	-1.8722967
68	0x3fb59d09	1.4188548
69	0xbf6f5306	-0.9348606
70	0x3ec085b0	0.37601995
71	0x3fd53c68	1.665906
72	0xbebd2405	-0.36941543
73	0x3f7539e0	0.95791435
74	0xc04ba583	-3.181977
75	0xc007d72d	-2.1225083
76	0x3ea112c4	0.3145963
77	0x3e439263	0.19098811
78	0x3d9feff0	0.07809436
79	0x3f989a5e	1.1922109
80	0x3fc1b308	1.5132761
81	0xc000ed3d	-2.0144799
82	0x3fe37746	1.7770774
83	0x3feb2130	1.8369503
84	0x3f547560	0.829916
85	0x3fbce5fa	1.4757683
86	0xbf0a3bd1	-0.5399752
87	0xbf880d23	-1.0629009
88	0xc09c766f	-4.889457
89	0xc028abf1	-2.6354945
90	0xbf9ed762	-1.240948
91	0x40129ad7	2.2907007
92	0xbeba0297	-0.363301
93	0x3e92c9e9	0.2866967
94	0xc0f40cfd	-7.6265855
95	0x3fb480dc	1.4101825
96	0xbf9d6452	-1.229624
97	0x3e03dfee	0.12878391
98	0x3d4dbf21	0.050231103
99	0x3fd390ea	1.6528599
100	0xbff28e43	-1.8949665
101	0x3f86b781	1.0524751
102	0xbe998681	-0.2998543
103	0x3e5600b7	0.2089871
104	0x3dd62119	0.104555316
105	0xbf84b52d	-1.036779
106	0x3e935ffd	0.2878417
107	0x3e9a1307	0.30092642
108	0xbf03ee0f	-0.51535124
109	0xbe867885	-0.26263824
110	0x3f20967d	0.62729627
111	0xbef066eb	-0.4695352
112	0xbf05320b	-0.52029485
113	0x3fdfbc25	1.7479292
114	0xbf013ebe	-0.5048636
115	0x3f9befba	1.2182534
116	0xbff84a8b	-1.9397749
117	0xbfb15433	-1.385382
118	0x3f5589c3	0.8341333
119	0x3cb839c5	0.022488484
120	0x3e68f710	0.22750497
121	0x3fab787a	1.3396142
122	0x3fd0836a	1.6290104
123	0x3e9a5741	0.30144694
124	0x3e5340ee	0.20630237
125	0xbff00401	-1.8751222
126	0x3f7b8fb0	0.98266125
127	0x3f1ee7be	0.6207236
128	0x3f4645c0	0.7745018
129	0xbf05b395	-0.52227145
130	0xbe675bd3	-0.22593622
131	0xbff4cd49	-1.9125148
132	0xbf0a8674	-0.5411141
133	0x3f81150b	1.0084547
134	0xbe768a9c	-0.24076313
135	0x3e2b3b6e	0.1672189
136	0x3f148ebd	0.580303
137	0x3f39c95c	0.72572875
138	0x3cae2152	0.021256123
139	0x3e8628a6	0.26202887
140	0x3d6bda9a	0.05758152
141	0x3e1be211	0.15222956
142	0x3e3f7d04	0.18700033
143	0xbf2d3d48	-0.6767163
144	0x3e3efbfe	0.18650815
145	0x3f509bd1	0.81487757
146	0xbe0dfe5e	-0.13866565
147	0xbf343b76	-0.7040323
148	0x3e445625	0.19173487
149	0xbddc932c	-0.10770258
150	0xbfb535e8	-1.4157076
151	0xbd371f0e	-0.04470735
152	0x402d17ad	2.70457
153	0x3f63b38b	0.88945836
154	0xbf55cadb	-0.8351266
155	0xbfdaa0b1	-1.7080289
156	0xbf7e7fb5	-0.99413615
157	0x3f8bceb3	1.0922455
158	0x3f400bd2	0.75018036
159	0xbf1829e8	-0.59438944
160	0xc07fc7f0	-3.9965782
161	0xbd017357	-0.031604137
162	0x3fe35cd9	1.776271
163	0xc0c0aa2d	-6.0207734
164	0xbf31ff68	-0.69530344
165	0xbfd9335d	-1.69688
166	0xc04def57	-3.2177331
167	0xbfead6c6	-1.8346794
168	0x3f166e60	0.5876217
169	0x3fe204e8	1.7657747
170	0xbf40d902	-0.7533113
171	0xbf6154ee	-0.8802022
172	0x3e209957	0.15683495
173	0xbc9d93de	-0.019235548
174	0x3f0db895	0.55359775
175	0x3f974092	1.181658
176	0xc0341e48	-2.8143482
177	0x3ecadc65	0.39621273
178	0x3fc6666a	1.5500004
179	0x3f3f0c5d	0.7462824
180	0x3e85a44b	0.26101908
181	0xbf96141a	-1.1724885
182	0xc00ac31b	-2.1681583
183	0xc010d676	-2.2630897
184	0x3f6595f3	0.8968193
185	0xbe9704b4	-0.29495776
186	0xbfe70d3a	-1.8050911
187	0xbede9f89	-0.4348109
188	0xbf919a51	-1.1375219
189	0x3e31bc0d	0.17356892
190	0xc0366db9	-2.850447
191	0xbf845a39	-1.0340034
192	0x3fe5bc9f	1.7948188
193	0xc0806e52	-4.013467
194	0xc01dd5cf	-2.4661748
195	0xc0406300	-3.0060425
196	0xbfa7bf73	-1.3105301
197	0xc0ca4b9a	-6.3217287
198	0xbf84f7d0	-1.0388126
199	0xbf77ea76	-0.96842134
200	0x4018eee6	2.3895812
201	0x3f831a66	1.0242431
202	0x3f3ce6f0	0.7378988
203	0x3f18d216	0.59695566
204	0x401ad3cd	2.4191773
205	0xc015c02e	-2.3398547
206	0x3f76bd63	0.9638273
207	0x3f882468	1.063611
208	0x4027a363	2.6193473
209	0x3f94e95d	1.1633717
210	0xbd81d9db	-0.06340381
211	0x4025ff07	2.5936906
212	0x3f46f6fa	0.77720606
213	0x3fa65510	1.2994709
214	0x3f2dc0b7	0.67872185
215	0xc0b91145	-5.783358
216	0xbfc79d66	-1.5594909
217	0xc04e828b	-3.2267177
218	0x3f2432df	0.64140123
219	0xc04c0d4f	-3.1883123
220	0x3d684692	0.056707926
221	0xbf170e41	-0.59006125
222	0xbffc6831	-1.9719297
223	0xc03257c4	-2.7866068
224	0xbe20a21c	-0.1568684
225	0x3e7f262e	0.24916908
226	0xbe99e05e	-0.3005399
227	0x3f13632d	0.57573205
228	0x3e93f7b1	0.2889991
229	0xbff302fe	-1.8985288
230	0xbf172c1e	-0.5905169
231	0xc000388b	-2.003451
232	0x3f031be4	0.5121443
233	0x3ef383df	0.47561547
234	0xbda30497	-0.0795986
235	0xbe689cd4	-0.22716075
236	0x3e2ec274	0.17066365
237	0x3f052437	0.52008384
238	0x3f77bd6e	0.9677342
239	0x3ed653ea	0.41860896
240	0xbf7ebbc5	-0.99505264
241	0x3f4f5c95	0.81000644
242	0xbef10d22	-0.47080332
243	0x3c51310c	0.012768041
244	0xc02f5a3f	-2.7398832
245	0xbfde496f	-1.736616
246	0x3ff0a318	1.8799772
247	0xbfcf8ad0	-1.6214237
248	0xbff90eda	-1.9457657
249	0x3e632326	0.22181377
250	0x3ed77114	0.4207846
251	0xbeb3bdc5	-0.3510572
252	0xbed880cf	-0.42285773
253	0xbcde5461	-0.027139844
254	0x3fe630ff	1.7983702
255	0x3f7d8bf8	0.990417
