data-6/rl_model_4.pth (torch_old, 93650 bytes, 18 tensors)

w_a f4 [32, 32]
000000 11 39 15 c0 67 3d 42 bf a7 2b 29 40 26 12 98 be
       -2.331608 -0.7587494 2.6432893 -0.29701346
000010 bf 9d 57 bd c6 48 aa bf ee 47 41 c0 2b 59 80 40
       -0.052640673 -1.3303459 -3.0200152 4.010885
000020 87 6a 6e be 09 be 22 c0 ca dc 11 c0 b5 ba e4 3f
       -0.23282824 -2.5428488 -2.279101 1.7869478
000030 ba 0e 29 bf ff 4f ed 3f 51 3f c4 3e ff 65 50 c0
       -0.66038096 1.8540038 0.38329557 -3.2562253
000040 79 ba 0f c0 3b 8b 66 3e 12 d6 20 c0 19 68 17 c0
       -2.2457564 0.2251405 -2.5130658 -2.3657286
000050 55 ff 4b c0 9b de dc bf 50 7c 25 c0 b7 83 83 be
       -3.1874592 -1.7255434 -2.5857124 -0.25686428
000060 d4 50 1b 40 7e 12 e4 bf 01 b6 1d 40 bb 89 46 bf
       2.4268084 -1.7818143 2.4642336 -0.7755391
000070 0e a3 98 3e fc 12 12 c0 1c 7f 71 c0 6d dd 19 40
       0.298119 -2.2824087 -3.7733831 2.4041398
000080 12 44 2f c0 93 a7 0c 40 03 3e b1 3e ad b0 84 bf
       -2.7385297 2.197728 0.34617624 -1.0366417
000090 39 ab af 3f b0 e4 44 c0 3d 6e a0 3f e4 ac 08 3d
       1.3724128 -3.076458 1.2533642 0.033368006
0000a0 d6 ca 7b be 19 14 b7 3f 0c a9 3e 3f ad a7 88 bf
       -0.24589095 1.4303008 0.74476695 -1.067617
0000b0 14 7b 14 40 ea 2a 83 3f 0e 13 f2 bf 86 77 52 be
       2.320012 1.0247471 -1.8912065 -0.20553407
0000c0 66 70 91 bf 34 19 57 3f be 3c 8b 3e 8e 36 c1 3f
       -1.1362426 0.8402283 0.2719478 1.5094774
0000d0 4d ef 91 3e 33 b7 7f c0 f3 04 50 c0 c5 bd 22 3e
       0.28502885 -3.9955566 -3.250302 0.15892704
0000e0 ea b2 b9 3e 1a e8 89 bf 3e cf 21 bf 49 48 f4 3e
       0.36269313 -1.0773957 -0.6320685 0.477114
0000f0 19 12 0b 3f 73 d1 78 3f 41 77 93 bf 2d d5 1d 40
       0.5432449 0.97194594 -1.1520768 2.4661362
000100 10 4b 57 bf 76 de 31 bf 28 74 86 3f c0 8e 1e c0
       -0.8409891 -0.69480073 1.0504198 -2.4774628
000110 5d cb df bf bf e3 38 c0 99 8c 3f 3f 8c 26 b3 bf
       -1.7483937 -2.8889005 0.7482391 -1.3996139
000120 31 7a e2 3f 05 12 28 40 ab 8a 33 bf 8f f5 a5 bf
       1.769354 2.6260998 -0.70133466 -1.2965564
000130 ac 17 f2 bf 5d 72 6d c0 82 af 3a bf 1b 7d 1e bf
       -1.8913474 -3.7101052 -0.72924054 -0.61909646
000140 58 30 0b c0 35 7c 71 bf b4 d6 90 be bf 0e 02 bf
       -2.1748257 -0.9433015 -0.28288805 -0.5080375
000150 c9 96 93 3f c3 86 f8 bf 4d 27 75 3c 15 e8 90 bf
       1.1530391 -1.9416126 0.014962983 -1.1320826
000160 6a 2b af 3e 72 79 a1 bd 00 24 72 bf 57 69 3d 3f
       0.3421281 -0.07884492 -0.9458618 0.7398886
000170 53 78 85 be d6 c5 28 bf 6f a9 d1 bf 68 3a ca 3f
       -0.26068363 -0.65926874 -1.6379832 1.5799074
000180 5d 66 5c c0 54 b5 d4 3e 66 f4 15 40 ab db 06 c0
       -3.4437478 0.41544592 2.343042 -2.1071575
000190 09 c9 a4 bd da f9 35 3e bf 4a 49 bf cf 17 e4 3e
       -0.08046157 0.17771092 -0.7862968 0.44549415
0001a0 3f 7a 29 bf ce 22 52 c0 10 d6 a6 3e 31 9e 9a 3f
       -0.6620216 -3.2833743 0.32585192 1.2079526
0001b0 52 0c 67 3f fd 08 63 3f 31 fa 1d c0 46 58 2f c0
       0.90253174 0.8868559 -2.4683955 -2.7397628
0001c0 8f c6 79 c0 ec c7 15 bf 0a 54 30 bf 98 a5 b9 3f
       -3.902744 -0.5850818 -0.68878233 1.450366
0001d0 77 16 ca 3e 3c f2 e5 bf 5b 79 70 bf 2d 51 ff bf
       0.39470264 -1.7964549 -0.93935174 -1.9946648
0001e0 9b c6 d9 3f 33 cc 5b 3c 47 b4 00 bf 2e 46 47 3e
       1.7013735 0.013415384 -0.5027508 0.19460365
0001f0 08 32 72 3f 16 6b 35 40 78 55 2f bf f0 33 a1 3f
       0.9460759 2.834661 -0.6848979 1.2593975
000200 5a 2e 09 3f e2 64 65 bb 1f 4d f2 bf b9 47 4b be
       0.5358635 -0.0035002758 -1.8929785 -0.19851579
000210 2e c6 27 c0 5e f1 04 3f 19 50 b3 3f 36 52 41 c0
       -2.621471 0.519308 1.4008819 -3.0206428
000220 ba 2e aa bf ae 97 53 bf 67 fe d9 3f 00 c4 b0 bf
       -1.329551 -0.8265332 1.7030762 -1.3809814
000230 6e be 68 3e dd 1a 66 bf cd 0e d4 bc c6 ff ad bf
       0.22728893 -0.8988474 -0.025885964 -1.3593681
000240 00 92 2d c0 7b 86 d0 be b6 75 d9 be 68 25 e4 3e
       -2.7120361 -0.407276 -0.4247262 0.4455979
000250 3e 75 2f 3f 1a 1e 2c bd 74 a6 d9 bf 2e 3b a2 bf
       0.6853827 -0.042020895 -1.7003922 -1.267431
000260 ea 74 c5 3f 61 7f dc 3f dc 70 fe bf e3 0d 89 40
       1.5426304 1.7226373 -1.9878192 4.282945
000270 06 b2 b3 3f 3a b6 8a 3f 4c a8 39 40 47 57 e6 bf
       1.4038703 1.0836861 2.900897 -1.7995385
000280 32 53 85 c0 78 62 a6 3c c7 f4 17 3f 5c f0 c0 3f
       -4.1664057 0.020310625 0.59357876 1.5073352
000290 87 06 44 3e da 96 90 3e 48 07 b3 3e cf f6 25 3f
       0.19143115 0.2824009 0.34966493 0.64829725
0002a0 de 20 5b bf af 98 cf 3f 51 45 3a 3d 17 fa ba 3d
       -0.85597026 1.621847 0.04547626 0.09129732
0002b0 4e a5 b9 3f 39 36 9e 3e c5 63 c6 be 3c b2 9c bf
       1.4503572 0.30900744 -0.38747993 -1.2241893
0002c0 04 6a 31 3f 09 65 c5 3f 82 b6 c3 3f cb 35 47 bf
       0.6930239 1.5421458 1.5290072 -0.77816457
0002d0 14 3b e9 be 4d 5a 43 40 c2 4f 62 bf a4 15 88 bf
       -0.45552886 3.0523865 -0.8840295 -1.0631604
0002e0 91 1e 1c 40 d9 54 23 bd 0c a1 8d 3c 64 7d f8 be
       2.4393656 -0.03987584 0.017288707 -0.48533165
0002f0 d3 a2 c9 be 07 7c 3c 3d 16 1d e4 3e 7d ee 92 bc
       -0.39382038 0.04601672 0.4455344 -0.017935986
000300 13 66 11 be c4 04 3b bf 7a a2 29 3f 1e 9c 3d c0
       -0.14199094 -0.73054147 0.66263545 -2.9626536
000310 28 ce 0b c0 c8 bc d2 be a1 e9 9b bf 77 01 83 bf
       -2.1844578 -0.41159654 -1.2180673 -1.0234822
000320 59 93 d5 3e 03 e1 17 c0 9c 9a 87 3e 1d 71 63 3f
       0.4171398 -2.3731086 0.26485145 0.8884447
000330 1f 2f fa be 6a 3a 37 3f 98 04 dc be 9c df f3 3f
       -0.48864076 0.7157351 -0.42972255 1.9052615
000340 b8 82 98 c0 8b 37 fd 3f 9f e5 ff be 18 0e 20 3f
       -4.765957 1.9782575 -0.49979874 0.62521505
000350 a6 ea 9a 3e 00 a3 1b c0 b3 9d fd bf 35 5c 94 c0
       0.30257148 -2.4318237 -1.9813751 -4.6362557
000360 10 4d 00 c0 75 e1 5d bf 31 f5 8f be 9b d3 19 bf
       -2.0047035 -0.86672145 -0.28116754 -0.6008851
000370 b2 aa fb be c0 2a d9 3f 1b 89 dc 3f ed 13 32 3f
       -0.49153668 1.6966171 1.7229341 0.69561654
000380 b0 81 a4 bf 8a d4 25 40 f1 cb c3 be b0 d9 c9 3f
       -1.2852077 2.5910974 -0.38241532 1.5769558
000390 d4 79 16 be d6 63 12 3f c4 ab c0 bf fe 08 cd be
       -0.14694911 0.5718359 -1.5052419 -0.40045923
0003a0 e9 49 b8 3f 9f fb 85 be a1 6b 94 bf 8a b5 1b bf
       1.4397556 -0.26168534 -1.1595346 -0.6082388
0003b0 8b 30 30 bf 9d 3e 97 3e b8 0b 08 3f 31 5b 15 bd
       -0.6882407 0.29539958 0.5314288 -0.03646392
0003c0 33 7a e2 3f a6 b2 ff 3e 23 49 10 c0 33 36 93 bf
       1.7693542 0.49940985 -2.254464 -1.1500915
0003d0 90 fe f6 bf 98 21 8c bf 0e 22 70 3f 72 fc d7 be
       -1.9296436 -1.0947752 0.93801963 -0.42184788
0003e0 90 4d 2a 40 82 15 e8 bf f6 d9 c3 3f 47 4c 6a bf
       2.660984 -1.8131564 1.5300891 -0.9152264
0003f0 6d db 30 bf c1 f6 fe bf 72 60 3b 3f 72 c2 20 40
       -0.6908482 -1.9919053 0.7319404 2.511868

w_group.0.weight f4 [64, 8]
000000 56 70 3b bd 3c b0 b3 3c 1d ea 67 3e fb 64 8f be
       -0.04576143 0.021934621 0.22647901 -0.2800673
000010 91 2b b1 be 00 11 0f 3d a4 07 ad bd f9 3f d4 3c
       -0.3460355 0.03492832 -0.08448723 0.02590941
000020 ca 6f 28 bf 22 6f 38 bf f0 99 a6 bf 86 5c d8 3a
       -0.65795577 -0.72044575 -1.3015728 0.0016507066
000030 74 d0 80 be a5 d4 5e be b5 0d 67 bf e7 7d 80 bf
       -0.25159037 -0.21760805 -0.9025529 -1.0038422
000040 58 f1 3f bf af 07 1e be fa 17 f1 be 11 f3 ae be
       -0.74977636 -0.15432619 -0.47088605 -0.3416982
000050 4a 0a 9d be 34 eb 91 be 11 9d 25 bf 79 d8 63 bf
       -0.30671912 -0.28499758 -0.6469279 -0.89002186
000060 5a c3 9a bf c3 70 84 3f 24 8a 32 3f af 47 7d c0
       -1.2090867 1.0346912 0.69742036 -3.9575002
000070 b4 7c ae bd 3e 04 66 3e 94 f6 35 bf 39 d0 1f be
       -0.08519879 0.22462556 -0.71079373 -0.15606774
000080 a2 e8 b3 bd e5 4b 00 bd fc 9f 1f 3f 5e 79 bd 3e
       -0.087846056 -0.03132238 0.6235349 0.37006658
000090 8c a1 a5 3c 5a 00 27 3e e7 c9 6b be 84 7b ae be
       0.020218633 0.16308728 -0.23026238 -0.3407861
0000a0 22 76 66 3e d5 10 ef bd de db bb bf 77 44 5f bf
       0.22506002 -0.11673132 -1.4676473 -0.87213844
0000b0 68 ca 35 c0 17 4c 8e 3e a1 fb 05 3f bf d5 20 3d
       -2.840479 0.27792427 0.5233708 0.039266344
0000c0 8d 95 ce bf 07 fc b7 3e 06 87 f5 bf f9 78 91 3f
       -1.6139389 0.3593447 -1.9181831 1.1365043
0000d0 f0 c9 3c bf 8e 80 23 be bd 28 88 bf fa 50 4c bf
       -0.7374563 -0.15967008 -1.0637432 -0.7981106
0000e0 e0 01 8c bf f0 f0 fd 3e 34 32 52 40 d7 cd d4 bf
       -1.0938072 0.49597883 3.2843142 -1.6625317
0000f0 03 1a 18 3f 26 a1 5a be 9c 61 e2 bd be 3d 11 bf
       0.5941469 -0.21350536 -0.11053774 -0.56734836
000100 f8 f3 f6 bd 8b 67 21 3e a0 2a e6 be 72 09 e0 3e
       -0.12058252 0.15762155 -0.44954395 0.43757206
000110 02 46 c6 be 28 8a 5e be 3e a2 b4 be a5 ca c9 be
       -0.38725287 -0.2173239 -0.3528003 -0.39412418
000120 17 77 a0 bc f7 85 96 be f6 2f a0 bf 1f db 9a bf
       -0.019588036 -0.29399082 -1.2514637 -1.209812
000130 2a 33 ee 3e d8 21 fd 3d 64 11 18 bf 51 a1 4c bf
       0.4652341 0.12359971 -0.59401536 -0.7993365
000140 19 02 07 40 eb 6c 24 3e 08 30 11 3d 5e c9 00 40
       2.109503 0.16057174 0.035446197 2.0122905
000150 b5 ff 09 c0 c4 47 b3 bd 58 8b ad bd bc c7 34 bd
       -2.156232 -0.087539226 -0.08473843 -0.044135794
000160 42 1a 9f be 31 e0 8c 3e bf 57 cd 3d 5a b6 06 bf
       -0.3107472 0.27514794 0.10026502 -0.52621996
000170 25 5e 14 bf 40 49 1a 3d c8 8e 56 bf 96 c1 3c bf
       -0.57956153 0.037667513 -0.83811617 -0.7373289
000180 1e 80 29 40 96 f8 18 bf 98 a3 58 40 1a 96 b8 bf
       2.6484447 -0.5975431 3.384985 -1.4420807
000190 be fb c8 bd 76 c9 43 be 0f 7d 00 bf ba 77 52 bf
       -0.09813641 -0.1911982 -0.50190824 -0.8221394
0001a0 33 2c c3 3f ba 3b f1 3f 10 78 d3 3f c7 5b eb 3e
       1.5247864 1.8846352 1.6521015 0.45968458
0001b0 27 20 1e bd 30 66 fc bc e3 42 da be bf 64 00 bf
       -0.03860488 -0.030810446 -0.42629156 -0.50153726
0001c0 a9 ee ef bd 82 52 a5 be 80 a4 fd 3e 76 d2 99 3f
       -0.11715443 -0.3228951 0.49539566 1.2017353
0001d0 c8 a8 b9 be aa 89 22 be 29 68 15 bf 0d ed 44 bf
       -0.36261582 -0.15872827 -0.5836206 -0.7692421
0001e0 53 a8 bc 3f d7 88 a3 be 0a 4d 10 c0 f8 63 31 c0
       1.4738868 -0.31940338 -2.254702 -2.7717266
0001f0 36 c4 80 bf de e2 3b 3e 03 71 6b bf be 28 8d bf
       -1.0059879 0.18348262 -0.9196932 -1.1028059
000200 78 f2 f8 3f d2 e9 a0 be 55 3a 2d c0 9e da 43 3f
       1.9448996 -0.3142839 -2.7066853 0.7650546
000210 e6 c0 8b 3f 79 86 a3 be f7 8a c5 be 74 2e ea be
       1.0918243 -0.31938532 -0.38582584 -0.45738566
000220 d6 dd 80 be 27 b2 de 3e e3 ab 5b bf f4 57 2a bf
       -0.25169247 0.43495294 -0.85809153 -0.66540456
000230 7a 99 cf bf c0 29 c8 bd 19 8a 3f bf 14 6a 26 bf
       -1.6218712 -0.09773588 -0.74820095 -0.6500561
000240 96 dc bd bc 6e 8a dc 3c 9a 38 f9 be ab 04 22 3e
       -0.023176473 0.026921477 -0.48675996 0.15822093
000250 3b 9b 9d bf 80 6d 54 bb 9d 1a 86 bd 36 a4 36 be
       -1.2312998 -0.00324139 -0.06548045 -0.17836079
000260 59 c1 dc bc fb f0 a1 bc 69 4e 6b 3e 56 6e c2 3e
       -0.026947664 -0.019768229 0.2297913 0.37974805
000270 2a 1d ea 3e aa 22 62 3e ad 51 a3 be ee 99 87 be
       0.45725375 0.22083536 -0.3189825 -0.26484627
000280 36 6d 30 c0 6f 24 a9 bf de bc b1 3e 7c 3e 25 bf
       -2.7566657 -1.3214244 0.34714407 -0.6454847
000290 08 12 8e bf f6 45 2d 3e af 4e f2 be eb e9 3c bf
       -1.1099253 0.16921219 -0.47325656 -0.7379443
0002a0 f5 70 7a be 3c 25 c2 be 00 fc 13 be 83 4f ed bd
       -0.24457152 -0.37919033 -0.14451599 -0.11587431
0002b0 da 67 1f bf fc fe d9 bd 86 73 44 bf 8e 85 5e bf
       -0.6226784 -0.106443375 -0.76738775 -0.8692254
0002c0 b7 3e 6a 3e ef 1d 90 bd 52 61 9f 3f ce 9a 91 bf
       0.22875486 -0.070369594 1.2451575 -1.1375368
0002d0 22 ac c4 bf 93 65 a4 be ef ca 30 be 44 4e e7 be
       -1.5365031 -0.32108745 -0.17264913 -0.451769
0002e0 d7 cf 96 3f 35 fd 9e 3f 68 e0 ae bf 3f 3e 13 c0
       1.1782178 1.2421023 -1.3662233 -2.3006742
0002f0 f9 6f 90 3e a2 39 40 3e 39 c2 57 bf 45 5f 1b bf
       0.28210428 0.18771985 -0.84280735 -0.60692245
000300 61 04 b4 40 d8 db 65 be 0a 58 78 3f a5 4f 58 bd
       5.6255345 -0.22447145 0.97009337 -0.05281033
000310 59 22 4c bf 47 1b 95 3e e3 ac 29 3e 33 62 13 3d
       -0.7973991 0.29122373 0.16569857 0.035982322
000320 44 74 2b 3e 7c 3d 76 be 0f f0 69 3f 9e 7b b2 3e
       0.1674357 -0.24046892 0.91381925 0.34859937
000330 1d 23 0d bf d8 6e 68 3d d3 7b 09 bf b5 f6 d7 be
       -0.55131704 0.056746334 -0.53704566 -0.4218041
000340 80 a5 60 3e ee 11 16 3e 31 bb 25 3f d2 1d 3e 3f
       0.21938133 0.14655277 0.64738756 0.7426425
000350 25 5c d7 be 8e b7 5a 3e 2d 13 02 bf 25 31 2d be
       -0.42062488 0.21359083 -0.5081051 -0.16913278
000360 77 70 c2 3f f3 83 b3 3f 3a 01 99 3e e0 40 10 3f
       1.5190572 1.4024643 0.29883748 0.5634899
000370 2a c9 13 be e0 6f 50 bc f9 0e 8c bd 0f f7 af 3e
       -0.14432207 -0.012721986 -0.06838793 0.34368178
000380 6f 82 ee be c7 4e 2a bf 3b 03 85 be 4f 4f 39 c0
       -0.46583888 -0.66526455 -0.25979027 -2.8954656
000390 e9 d7 52 3e 23 0e b1 be f9 b2 25 bf a2 6c 43 bf
       0.20590176 -0.34581098 -0.64726216 -0.76337636
0003a0 a3 ab d1 be ef cb af be e9 0a 44 3f d1 e9 86 bf
       -0.4095126 -0.34335276 0.7657915 -1.0540105
0003b0 6b e3 82 bf 62 bf 45 3e 24 21 3d bf 99 a9 43 bf
       -1.0225652 0.19311288 -0.73878694 -0.7643066
0003c0 99 e2 8c be cb 21 ae 3e 11 5f 51 bf 86 d1 b7 c0
       -0.2751663 0.34010157 -0.81785685 -5.7443266
0003d0 7f b3 17 3e ec fe 05 be 34 52 f9 3d ec 10 ef 3d
       0.14814566 -0.13085526 0.12173882 0.116731495
0003e0 83 ec 6d 3f 02 58 3f bf 68 ec 86 bf 06 7c 50 c0
       0.92939013 -0.74743664 -1.0540895 -3.2575698
0003f0 f7 24 b7 be d4 25 d2 bd 2f ff cc be e2 73 95 be
       -0.3577039 -0.102611214 -0.4003844 -0.29189974

w_group.0.bias f4 [64]
000000 34 a4 9a be 43 83 88 bf d5 c0 65 bf ff 0d 35 bf
       -0.30203402 -1.0665058 -0.89747363 -0.7072448
000010 52 20 eb be d9 dd e1 bd 9a 4d 50 bf 43 b3 2b bf
       -0.45923096 -0.11028642 -0.8136841 -0.67070407
000020 8e 65 1b bf 84 96 0a bf 71 9b b7 be 84 b7 7a bf
       -0.60701835 -0.5413592 -0.3586078 -0.9793627
000030 2a ab 48 bf 52 93 87 be 37 a4 07 bf 50 de 0d bf
       -0.78386176 -0.26479584 -0.52984947 -0.55417347
000040 66 24 01 bf c3 94 db be d3 65 12 bf 90 5d 95 3d
       -0.50446165 -0.42886934 -0.5718662 0.07293236
000050 4c 51 3a bf be b1 61 bf 48 a5 48 bf c9 07 76 bf
       -0.727803 -0.8816184 -0.783772 -0.9610563
000060 a5 c0 33 be cd 7d 41 bf 1f a6 f4 be 3f de 99 3e
       -0.17553957 -0.7558258 -0.4778299 0.30052373
000070 be d0 59 be 0b 0d 19 bf 92 3d a0 3d 32 5b ae be
       -0.21271035 -0.59785527 0.078242436 -0.34053952
000080 49 7b fe be e8 0e 2a bf 85 0e 03 be 7b d7 f0 be
       -0.49703434 -0.66428995 -0.12798508 -0.470394
000090 8a f3 1a bf b7 fc b1 3e 10 82 d7 be ed af 06 bf
       -0.6052786 0.3476312 -0.42091417 -0.5261219
0000a0 cb 65 68 bb 6c 3f 19 bf 22 f2 2e bf 9a ce e5 bd
       -0.0035461064 -0.598624 -0.68338215 -0.11221047
0000b0 d9 69 af be 39 51 24 be 81 58 b1 3c 15 32 01 3e
       -0.34260443 -0.16046609 0.021648647 0.12616761
0000c0 5b d7 d2 bb 3b 62 48 bd c8 76 5a bf 5d 42 af 3e
       -0.006434364 -0.048921805 -0.85337496 0.3423032
0000d0 df 0b d3 be b8 9b e2 be 0c 24 a9 be da ef 09 bf
       -0.41219994 -0.4425943 -0.33035314 -0.5388161
0000e0 68 ab 4b bf 5e ee 9c be b8 34 8d bd 2e 09 9e 3e
       -0.7955842 -0.3065061 -0.06894821 0.3086638
0000f0 32 51 3b bf d2 fc 59 bf d2 72 02 be 99 36 1c 3e
       -0.7317077 -0.851514 -0.12739113 0.15255202

w_group.2.weight f4 [32, 64]
000000 04 69 bb 3d 31 13 df bd da 39 57 bd 54 f6 ee bd
       0.091508895 -0.10892332 -0.052545406 -0.11668077
000010 f6 14 b9 3c 98 0e ff 3c ec 60 21 be 8f bf de 3b
       0.022593003 0.031134889 -0.15759629 0.006797738
000020 47 4e 5a bd 69 35 95 bc 1c e9 88 bd 3e 8d 86 3d
       -0.053297307 -0.018213945 -0.06685087 0.065699086
000030 2c f5 be bd 28 d2 de bc 35 63 f3 bc 76 be 97 3d
       -0.093241066 -0.02719982 -0.029710392 0.074093744
000040 57 b4 72 bd dd 50 1c be 9f 89 3e 3d 9c 59 0f be
       -0.059254017 -0.15265222 0.046517964 -0.13999027
000050 a5 9c fb bd 34 39 1a be ba ce b7 bd aa 9a f8 bc
       -0.12285737 -0.15060884 -0.08974977 -0.030347187
000060 b3 fb c3 bb 1e 07 9d 3d f0 0d fc bd d2 25 ad 3d
       -0.0059809326 0.07667373 -0.12307346 0.08454479
000070 51 ab 44 3d ef d9 37 bd aa 95 37 3d 5a 3f a4 3d
       0.048014943 -0.044885572 0.044820465 0.08019896
000080 68 24 a4 3c 40 f8 66 bd 96 33 a2 3c 84 1b cf 3c
       0.020036891 -0.056389093 0.019799989 0.025281675
000090 aa f7 45 bd 17 e0 03 3d 31 f3 b3 3d 0a 8e 05 be
       -0.048331894 0.03219613 0.087866195 -0.13042465
0000a0 ae 4f f7 bd 8c 47 c8 3c 5a 45 5f bd 8b 8c 40 be
       -0.120757446 0.024448179 -0.0545095 -0.18803613
0000b0 35 a3 be 3d 91 d6 06 bc 22 e8 43 be c0 07 fe bd
       0.09308473 -0.008229868 -0.1913152 -0.12403822
0000c0 d6 bc 5f be 3b 96 a0 3c 82 e8 cd bb e8 a7 84 3d
       -0.21849379 0.019602885 -0.0062838206 0.06477338
0000d0 3d a4 c3 bc 25 6f b8 3d 20 20 80 bd f1 c2 5a bd
       -0.023882026 0.09005574 -0.06256127 -0.053408567
0000e0 4c de ae 3d bb 50 e4 bd 31 67 8e bd 08 97 dd bd
       0.085384935 -0.111482106 -0.06953276 -0.108198225
0000f0 36 d9 a5 bd 2b 26 1e be 84 f5 92 bd 87 c4 23 be
       -0.0809807 -0.15444247 -0.07175735 -0.15992938
000100 c3 91 08 3d 2a 36 74 3e 74 c1 f1 3e 3f 04 30 3e
       0.033342134 0.23848787 0.47217906 0.1718912
000110 32 7a c0 bd 3d f9 46 3f 06 6b 35 bf 62 4a 23 bf
       -0.09398307 0.7772406 -0.7086643 -0.63785374
000120 b0 de 7b be 12 a0 45 3e 14 b5 63 3e 9f ae a3 3e
       -0.24596667 0.19299343 0.22237045 0.31969163
000130 df 65 a6 3e 92 ad 7b 3f 4c d0 f1 3d ba 5f 35 3f
       0.32499596 0.9831172 0.118073076 0.7084919
000140 55 ae 5e 3f 2a cc e0 be 90 63 88 bd b9 6f 02 3c
       0.8698476 -0.43905765 -0.06659615 0.007961207
000150 8c dd 98 3f 9c 42 3a be 41 3f 28 3e 3e fe 36 bc
       1.1942611 -0.18189472 0.1643038 -0.0111690145
000160 a6 ed 7f bf 85 75 53 bd 14 d8 d9 3e d6 ba 47 3e
       -0.99972 -0.051625747 0.42547667 0.19504866
000170 1c f0 2b bf 80 80 b0 bc 9b 99 b6 bf 6f 8b 26 3f
       -0.6716325 -0.021545649 -1.4265627 0.6505651
000180 9b 09 1e bf 32 00 e2 3e 10 65 9d bf 2a 78 7a 3d
       -0.61733407 0.44140774 -1.2296467 0.061149754
000190 a5 ac 32 bd 42 81 3c bf 04 7d 49 3e 93 a1 56 3c
       -0.043621678 -0.7363473 0.19676596 0.013100046
0001a0 1d c7 e3 be bd 74 41 3f d6 b5 00 3e a0 84 2e bf
       -0.4448785 0.75568753 0.12569365 -0.6817112
0001b0 56 ba b2 3f b3 f6 cf bd 88 47 c2 bf 48 06 c3 3d
       1.3963115 -0.10154476 -1.517808 0.095226824
0001c0 d9 d2 cd 3c dc f0 60 3d c4 f2 6a be ff 24 ca 3e
       0.025124954 0.0549172 -0.2294417 0.3948135
0001d0 ba 3e 03 be c7 4b 31 3f 47 ca 06 bf 0c d1 2b be
       -0.12816897 0.6925625 -0.526524 -0.16778964
0001e0 4d 8b 26 bf 91 ef ab 3d 3f 76 89 3d 54 2a c7 bd
       -0.65056306 0.08395303 0.06712007 -0.0972487
0001f0 b6 81 6e 3c 0d 4d d4 bf f8 1d d8 bf 25 65 e1 bf
       0.014557293 -1.6586014 -1.6884146 -1.7608992
000200 f1 f4 11 be cb 30 97 bf 40 81 1d bd ff e8 1a 3f
       -0.14253594 -1.1811765 -0.03845334 0.60511774
000210 55 e9 22 bd 66 7d 16 be 37 77 9b bf da 0c 4c 3e
       -0.039773304 -0.14696273 -1.2145756 0.19926777
000220 00 d2 15 3d 66 1d 3c be 1d 4e 03 be 63 be 4d 3f
       0.036577225 -0.1837059 -0.12822767 0.8036863
000230 2b 77 e9 bf 27 0d ae 3e 68 7d 96 be 03 40 7a bf
       -1.8239492 0.3399441 -0.29392552 -0.97753924
000240 49 18 d0 be 17 39 7d be 94 8d 53 3e d9 2b 5f be
       -0.40643528 -0.2472881 0.20659477 -0.2179407
000250 75 34 98 c0 52 19 e3 be 8a 6e 26 bf d7 56 c0 bd
       -4.7564034 -0.44355255 -0.6501242 -0.093915634
000260 d7 1b 3f 3e 94 bf 92 be a7 dc f0 bc bf ad 40 bf
       0.18662964 -0.28661788 -0.02940209 -0.75265115
000270 9c 15 14 bf 52 13 c2 3d a3 13 e7 bf d2 3d 8b bf
       -0.57845473 0.09476341 -1.8052868 -1.0878241
000280 86 3c 1e bf 7d fe d7 be 3e 8c e8 3e 6f 65 f9 3c
       -0.618111 -0.42186347 0.45419496 0.030443875
000290 ab f5 d3 bd 37 51 ff 3d b8 d5 00 3a dc 94 ba bd
       -0.10349592 0.124666624 0.0004914659 -0.09110424
0002a0 90 7b 9b bf 9d 64 0f 3e 70 23 06 bc ad 50 15 3f
       -1.2147083 0.14003225 -0.00818716 0.58326226
0002b0 96 1f 35 c0 d5 8f 03 be 3d 17 22 3f 65 c4 d6 3c
       -2.8300529 -0.12847836 0.6331671 0.026216695
0002c0 0f 31 62 3f 36 1f 64 bf 19 cf ad bd 24 28 9e be
       0.8835611 -0.89110124 -0.08486766 -0.3089
0002d0 9a 29 aa bd 68 0f e3 3e d9 79 c6 3e b0 8b da 3e
       -0.08308716 0.44347692 0.38764837 0.42684698
0002e0 3e 1f 04 3f 74 e2 d7 3b 8c 86 9b 3e 00 c3 b7 bd
       0.5161017 0.0065882746 0.3037609 -0.0897274
0002f0 50 7e 5a bf 63 44 a0 bf d7 64 81 be 7e d3 26 bf
       -0.8534899 -1.252087 -0.25272247 -0.6516646
000300 ec 95 6c 3d 94 fb c8 bd fc a9 fa 3d af 06 a3 bb
       0.057760164 -0.0981361 0.12239453 -0.004975162
000310 2d 7c 68 bc b9 30 0f be e9 a1 06 be 8e dd 11 be
       -0.014189762 -0.1398343 -0.13147701 -0.14244673
000320 97 47 eb bd eb 4b 13 be 3a 1d c8 bd 42 5c 72 3b
       -0.11488264 -0.14384429 -0.097711995 0.003698126
000330 37 bd cc bd af d8 10 bd 4a 42 e8 bd f9 8e 43 bd
       -0.09997027 -0.035362896 -0.11340769 -0.04774377
000340 00 c5 97 bd 62 9c 10 36 6a 41 47 bd 14 81 a9 bd
       -0.07410622 2.15487e-06 -0.048646368 -0.08276573
000350 6c 23 16 3d 58 15 4e 3d 41 9d 29 be b4 3b 18 be
       0.036654875 0.050313324 -0.16563894 -0.14866525
000360 d8 45 60 ba 17 11 38 be 41 88 7f bd b3 0a a1 3c
       -0.00085553294 -0.1797527 -0.0623858 0.019658422
000370 97 6b aa 3d 71 6d 21 bd 37 b7 ee bd 0b 46 19 3d
       0.083213024 -0.039411012 -0.11656039 0.037420314
000380 7c 78 c7 3c 63 19 ce 3d f8 19 b3 bc ae cb a6 bd
       0.024349444 0.10063436 -0.021862969 -0.081443176
000390 a0 9e 34 3d d4 b4 15 be c9 7d 51 3c 6f 96 1f be
       0.04409659 -0.14619762 0.012786337 -0.1558473
0003a0 59 ea 08 be 10 99 ae bd ea 54 2d 3d c3 a2 0e 3c
       -0.13370647 -0.08525288 0.04231731 0.008705798
0003b0 8b 5d 19 bd 9b bd 92 3d ba 8d 29 be 94 58 fe 3d
       -0.037442725 0.071650706 -0.1655797 0.12419239
0003c0 77 47 a2 bd ea ff 96 3d 62 75 b7 3d 90 34 98 ba
       -0.07923787 0.073730305 0.08957936 -0.0011612345
0003d0 97 88 af 3c 77 94 81 3d cb 32 1f be 91 dc 0e bd
       0.021427436 0.063271455 -0.1554672 -0.034878317
0003e0 f8 9d 4a 3d a0 6f 0b 3c d9 f4 7a bd 3a 9a 8e 3c
       0.049467057 0.0085105 -0.06126866 0.017407525
0003f0 fe eb b8 3c 14 96 3a be 00 74 43 3c 7f b1 10 be
       0.022573467 -0.18221313 0.011929512 -0.1413021

w_group.2.bias f4 [32]
000000 a2 34 5b be 3e 0e dd bf bb 10 23 3f 69 51 5b be
       -0.21406797 -1.7269971 0.63697404 -0.21417774
000010 87 c4 ba 3f 7d 4b 21 3f 05 e3 04 bf 27 62 ca be
       1.4591225 0.6300581 -0.51908904 -0.3952801
000020 1c d1 ae be ea 94 29 c0 e7 e8 3f bc 65 72 db 3f
       -0.34143913 -2.649714 -0.011713243 1.7144285
000030 e1 84 11 be b1 16 56 bf 42 01 2b c0 3c cf bb bf
       -0.14210846 -0.83628374 -2.6719518 -1.4672618
000040 5a 30 74 bf 40 40 7b 3f da af 57 3f 42 90 a3 be
       -0.9538628 0.9814491 0.84252703 -0.31945997
000050 b5 38 9e 3f 5a 71 11 3f 25 e1 6a 40 3c 92 e6 bf
       1.2361056 0.56813586 3.6699917 -1.8013377
000060 a5 cb 3d bf 31 08 0c bf 93 8e f6 bf 20 03 c4 bd
       -0.7413886 -0.547 -1.926226 -0.095709085
000070 6b 36 b0 bd f1 f5 67 3f 79 83 78 be 94 35 83 3f
       -0.086041294 0.9060965 -0.24268903 1.0250726

w_agents.0.weight f4 [64, 5]
000000 38 07 98 3d 07 cb 48 3c 0a e2 85 3f 52 69 98 3d
       0.07423252 0.012255437 1.0459607 0.07441963
000010 72 53 c0 3e 9f a4 3e bf 01 35 b9 be bc 73 23 3f
       0.37563664 -0.7446994 -0.3617325 0.6384847
000020 ac 7a 81 3f 24 a9 a2 bf d5 a2 6d 3c 1c b8 9c bc
       1.0115561 -1.2707868 0.014504154 -0.019130759
000030 c9 e5 75 be ca 8e 84 bf 13 52 57 bf f7 d7 d4 bc
       -0.24013437 -1.0356076 -0.8410961 -0.025981886
000040 72 e2 55 bb f1 e3 2b bf be 85 97 3f 04 c0 cf bf
       -0.0032636193 -0.67144686 1.183769 -1.6230474
000050 44 19 c5 3e b1 15 37 3d 6e a7 9c 3f 15 44 00 bf
       0.3849584 0.04469842 1.2238595 -0.50103885
000060 ef 2d 00 bf 40 ee 13 3a 16 bf ca be 8f 22 34 3d
       -0.5007009 0.0005643107 -0.39598912 0.04397827
000070 c9 87 e6 3d d7 54 90 3d 0f 94 c4 bd 07 4c 56 be
       0.11256368 0.07047432 -0.095985524 -0.2092744
000080 9d 46 9e bf 20 1a ed 3f 43 2a 7e bf 1b 1e 36 bc
       -1.23653 1.8523598 -0.99283236 -0.011115576
000090 c2 26 40 3b ec 2c 8d bf 04 69 4e 3f 53 5b b0 bf
       0.0029319976 -1.1029334 0.8062899 -1.377787
0000a0 f5 a5 b7 3b 02 b0 32 3c 2f c3 f7 3b b2 9d da be
       0.0056045004 0.010906221 0.0075611095 -0.42698437
0000b0 00 28 2b bf fc a8 e4 bb 35 fc 01 bc 04 9c 9c bd
       -0.6685791 -0.0069781523 -0.007933666 -0.07646945
0000c0 7b 11 7a be b5 94 dc be c1 5f 96 3a 94 67 f1 bb
       -0.24420731 -0.43082204 0.0011472629 -0.007367084
0000d0 f5 95 e9 3d d2 60 94 3d fc 41 02 be 43 6f a4 bd
       0.11405555 0.072450295 -0.12720484 -0.08029034
0000e0 4a 55 ee 3c 76 88 97 3e 02 48 40 be 27 5b 04 bf
       0.029093403 0.295963 -0.18777469 -0.5170159
0000f0 31 a0 03 3f be 26 02 bf 21 79 6d 3f 1f 6b 95 3f
       0.5141631 -0.50840366 0.92762953 1.1673316
000100 7b fa 3b bf 70 fe bf bc bf ed 02 3b 33 74 90 be
       -0.7342908 -0.023436755 0.0019978133 -0.28213653
000110 02 c5 f4 bd a3 96 99 bd 42 cd 46 bc 9e 6b a3 3c
       -0.11951639 -0.07499435 -0.012133898 0.019948777
000120 96 21 19 3e 6a c3 ae 3e de d2 20 bf 60 ee 72 bd
       0.14954218 0.34133464 -0.6282176 -0.059309363
000130 97 ec a4 bd c8 2c 7e 3e c8 ae 9b 3e 7e 7e 52 bf
       -0.080529384 0.2482177 0.30406785 -0.8222426
000140 f7 c4 01 3d bd 16 a1 bd 40 ed f6 be 4e 75 a0 3f
       0.03168198 -0.07865665 -0.48227882 1.2535799
000150 40 c6 a9 bf fb 96 97 bc 67 50 88 bb 1e c5 d9 3d
       -1.3263626 -0.01850461 -0.0041599753 0.106333
000160 1c 73 d2 3e d3 7a f3 be 5f 4d 72 3d d6 b7 80 bf
       0.41103446 -0.47554645 0.059155818 -1.0056102
000170 30 f8 ef 3f 72 3d 68 40 e7 24 fe bf ab 5f 89 3b
       1.8747616 3.6287503 -1.9855012 0.0041923127
000180 61 79 22 bb 54 27 c7 bd dd 49 fd bd fd 18 20 bf
       -0.0024791586 -0.09724298 -0.12367604 -0.6253813
000190 53 d4 0f be 5a ca 26 be bb c0 2b 3e 04 92 72 3e
       -0.14045839 -0.16288128 0.1677274 0.23688513
0001a0 1e f0 f9 bf b3 ad 16 3d 1e d6 0b 3d 27 b6 10 3c
       -1.9526403 0.036786746 0.034139745 0.008832491
0001b0 54 cf 86 3f e6 c3 8f bf 57 53 ca bc cc 73 b2 bc
       1.0532022 -1.1231658 -0.024697943 -0.021783732
0001c0 91 3c c5 3d ae 9d 30 be 94 f2 43 bd e3 1a b5 bc
       0.09630693 -0.1724765 -0.047838762 -0.022107547
0001d0 b3 34 38 bb eb 37 81 be e7 09 94 bd e2 83 3c bf
       -0.0028107583 -0.25237975 -0.07228451 -0.7363874
0001e0 ec cb e6 3d d3 9b 78 3d 73 c3 c4 bf 80 70 89 3d
       0.11269364 0.06069548 -1.5372146 0.06710911
0001f0 0f d4 18 bd a8 97 3c 3e ac b8 ae 3e ac db 57 3f
       -0.03731161 0.18417227 0.34125268 0.8431957
000200 99 91 13 40 a4 9d 8c bf ba 3e 9e bc 7a b4 28 bc
       2.3057616 -1.0985608 -0.01931702 -0.010296935
000210 18 62 dd 3c dd 58 1e be 76 40 76 be 2c f0 9d 3e
       0.027024314 -0.15463586 -0.24048027 0.308473
000220 17 15 20 be b5 01 c5 bf a3 df 85 3f 2b 4b dc bf
       -0.15633045 -1.5391146 1.0458874 -1.721044
000230 d9 6f 85 be 0c 6b 8f 3d 08 cb e6 bc 06 90 ae 3f
       -0.26061895 0.070028394 -0.028172985 1.3637702
000240 30 a4 07 c0 d9 3b 11 3f 1d f5 2a 3e e9 f8 93 3e
       -2.1193962 0.56731945 0.16695066 0.2890084
000250 86 fe 80 3f fb e7 0d c0 b4 42 92 bd 66 1d 6b bd
       1.0077674 -2.217284 -0.07141629 -0.057401083
000260 3e d1 4f bf 77 c2 13 3e 8e 8a 6b bf 3c 7a ff 3d
       -0.81178653 0.14429651 -0.9200829 0.12474486
000270 ee 0e 3c bc 3f 5d 33 be 34 84 87 3e dd 4b 71 bf
       -0.011478169 -0.1751604 0.2646805 -0.94256383
000280 b8 93 14 bc 9d d8 16 be 41 09 a6 bf 74 38 4b 3f
       -0.009068422 -0.14731069 -1.2971574 0.79383016
000290 de 4e 5b bf 0a ae c5 3c f1 0f 76 3d fb a4 cd be
       -0.85667217 0.02413084 0.060073797 -0.40164933
0002a0 2b 91 22 3f b2 c7 2d bf e9 3e 64 3d 1e f1 bb 3d
       0.6350276 -0.67882836 0.05572406 0.09176849
0002b0 3a 70 8e 3e ff 27 b2 3f 0d d1 1d bf a9 bc 12 3e
       0.27819997 1.3918456 -0.6164711 0.1432978
0002c0 ba 1e 6b bc e9 0e ab 3e 89 df c5 be 8d 48 80 bf
       -0.0143505875 0.33409813 -0.38647106 -1.0022141
0002d0 e0 e3 a2 bd ee 94 cf 3d 4b 3d 61 3d 61 cf a3 3f
       -0.0795362 0.10135828 0.054990094 1.2797662
0002e0 8c 3b 92 bf 38 1e 05 3d 66 ed b9 3b 8c e9 cb bf
       -1.1424422 0.032499522 0.005674052 -1.5930648
0002f0 ee fb 4f 3d a9 6d af bf 08 6c c6 bb 56 11 7a bc
       0.05077737 -1.3705341 -0.006055359 -0.015262922
000300 a7 c8 65 bd b8 e9 c5 be 66 81 45 bf 65 ec 89 3d
       -0.05609956 -0.38654876 -0.7715057 0.06734542
000310 e7 77 40 3e 75 59 92 3d 0a a6 8f 3f 2f 19 02 c0
       0.18795739 0.07145969 1.1222546 -2.032787
000320 21 e1 0b 3b 7f e0 9c bc 7c 3e 0b bf b2 21 9d be
       0.0021343904 -0.019150017 -0.5439222 -0.3068977
000330 85 5f 41 bf 24 ea 38 3e e2 17 08 be fc 74 72 be
       -0.75536376 0.18058068 -0.1329036 -0.23677438
000340 70 db a7 3f 56 97 20 c0 53 6b 80 be ae 6a 91 bf
       1.3113842 -2.5092368 -0.25081882 -1.1360681
000350 dc 9a bf 3e d0 b6 35 40 a8 c1 ae bf c4 a6 8c be
       0.37422836 2.839283 -1.3652849 -0.27470982
000360 0d 8f 43 3f e0 19 60 bf 63 32 ff 3f 5f ab af bf
       0.76390153 -0.8753948 1.9937252 -1.3724173
000370 5a 7d 08 3e 5c a8 c0 be 1e 48 b9 3f 8f cb 2a 40
       0.13329068 -0.37628448 1.4475133 2.6686742
000380 46 6e 0a c0 9a f6 24 bf 86 7f 37 3f 94 ba 78 be
       -2.1629806 -0.64438784 0.7167896 -0.24289924
000390 a9 67 d4 3e 90 b8 6e bf 7f 36 2f bd 8a 1a 8d bc
       0.41485336 -0.9325037 -0.04277658 -0.017224569
0003a0 52 d8 3c 3d 72 c4 31 40 ec 78 2f c0 3c 68 b6 3b
       0.046104737 2.777615 -2.7417555 0.005566625
0003b0 25 ce 87 bd 44 f6 55 bf 66 1c f1 3f 54 7a 1a c0
       -0.06631116 -0.83578897 1.8836792 -2.4137163
0003c0 a5 b3 25 bf d4 c6 0d bf 51 7d 93 bf 3a 7b 08 40
       -0.6472724 -0.5538151 -1.1522619 2.1325212
0003d0 c2 04 f4 bf f0 34 b4 bc 79 58 5e be 7e a2 96 3d
       -1.9063952 -0.021997899 -0.21713437 0.07355212
0003e0 b7 71 1d bf e4 1c ca bf 5e ee 73 3c d1 0e 13 3e
       -0.6150164 -1.5790067 0.014888374 0.14361121
0003f0 c4 d6 b4 bc 07 f8 d6 bf 1d 45 88 be 15 e0 3c be
       -0.022075064 -1.6794442 -0.2661523 -0.18444856

w_agents.0.bias f4 [64]
000000 77 41 e7 be e3 8a 99 bf 4a d0 75 bf 04 cd 95 bf
       -0.45167133 -1.199551 -0.9602095 -1.1703191
000010 65 57 87 bf 5a a3 20 be 12 09 86 bf 79 6c 83 bf
       -1.0573546 -0.15687314 -1.0471518 -1.0267478
000020 01 9e cb be ea f6 4c be 6f e2 1d be 7a 8a 53 bf
       -0.39768985 -0.20016065 -0.15418409 -0.82633173
000030 cb 67 83 bf e3 78 dd be 9e 3e b1 be 28 c2 61 bf
       -1.026605 -0.43256292 -0.34618086 -0.88186884
000040 5a 34 c6 bf 52 5d d1 be af 9d de bf 5b 91 ea bd
       -1.5484726 -0.4089151 -1.7391871 -0.114535056
000050 9c 31 b3 bf e3 76 88 bf 35 76 03 bf 12 80 46 be
       -1.3999515 -1.0661281 -0.51352245 -0.19384792
000060 44 b3 38 be 3a 88 8a bf c5 4a b0 be 1b 75 c6 bf
       -0.18037134 -1.0822823 -0.34432045 -1.5504488
000070 85 98 0a c0 a2 a5 f6 bf e4 26 a0 bf ab 91 6d bf
       -2.165559 -1.9269297 -1.2511868 -0.92800397
000080 11 40 23 bf 7e 38 5f bf 53 73 65 bf a5 73 97 bf
       -0.6376963 -0.87195575 -0.89629096 -1.1832167
000090 9d 0d a4 bf 80 27 d6 bf 68 4f 99 be 7e 44 e1 bf
       -1.2816654 -1.6730804 -0.29943395 -1.7599027
0000a0 a4 2b 3a bf 9d 90 0b c0 2b 3d e7 bf 7d 75 e0 bf
       -0.7272284 -2.1807015 -1.8065542 -1.7535855
0000b0 81 a2 1d c0 4d bd c3 bf 04 c2 10 c0 79 9c e1 bf
       -2.4630435 -1.5292145 -2.2618418 -1.7625877
0000c0 d7 f2 a3 bf 37 24 df bf ec 40 87 bf 7e 8a ca be
       -1.2808484 -1.7432927 -1.0566688 -0.39558786
0000d0 a0 8f 2a be e4 c7 3b 3e 87 ac 97 bd 42 d7 d7 bf
       -0.16656351 0.18337971 -0.07405954 -1.6862566
0000e0 95 ab 85 bf ba 36 c8 bf 18 07 0b c0 2e 50 be bf
       -1.0442988 -1.5641701 -2.172308 -1.4868219
0000f0 91 2e 6d bf d3 e6 c6 bf 8a 57 04 c0 4e 0d 11 be
       -0.9264918 -1.5539192 -2.067843 -0.14165232

w_agents.2.weight f4 [32, 64]
000000 0a 95 ce 3b 53 8c 16 bd 79 07 45 bd d3 c4 61 bd
       0.006304388 -0.036754917 -0.04810283 -0.055119347
000010 ab b2 b7 bd 65 2b 99 3b c3 2c 03 be 5c c9 81 3d
       -0.08969625 0.0046743625 -0.12810044 0.063372344
000020 3f 0e 58 3d 12 e6 8b bd 69 04 eb bc 7c a7 2b 3d
       0.05274796 -0.06830992 -0.028688626 0.041907772
000030 04 2a 8e bd 39 e4 6c 3d 64 ce 69 3b de 4c f7 3b
       -0.069416076 0.057834838 0.0035675997 0.007547005
000040 e1 74 a2 bd 0e 82 b3 bc c1 e4 d2 bd ed 76 21 be
       -0.07932449 -0.0219126 -0.102975376 -0.15768023
000050 9b c0 40 be c5 0b 08 3c be a3 4e be 75 11 bf bd
       -0.18823473 0.008303587 -0.2017965 -0.093295015
000060 3d e2 1b be f3 d5 50 bb 5a b4 9f bb f8 de a6 bd
       -0.15223022 -0.0031865805 -0.0048737945 -0.08147997
000070 6e 53 b9 bd 81 e5 3f 3d f1 66 a6 3c 9c d3 e6 bc
       -0.09049116 0.04684973 0.020312758 -0.028177075
000080 38 a0 90 b8 e9 0a df bd c1 fc 2c bd ce 54 13 be
       -6.896298e-05 -0.10890753 -0.042233232 -0.14387819
000090 b5 5a e1 bd ca c6 88 bd ba 44 38 be 77 ad 26 bd
       -0.11003629 -0.06678541 -0.17994967 -0.040692773
0000a0 58 65 66 bd 92 32 8a bd 5c 38 2d 3d 28 26 22 3d
       -0.056248993 -0.06747927 0.042290077 0.03958717
0000b0 ac 8e 49 3d bd a1 c5 3c 9b 23 bb bd 7b ca 07 bd
       0.049208328 0.024124974 -0.091376506 -0.033152085
0000c0 f0 3c c9 bd b5 21 1f bb 8e 12 8b bd 9a ed 0e be
       -0.09826076 -0.0024281566 -0.067906484 -0.13957825
0000d0 51 bf c7 bc 5d 2c 05 be 49 16 f1 bc 70 68 c6 bd
       -0.024383219 -0.13005204 -0.029429572 -0.096878886
0000e0 50 98 66 bc 15 0b 50 bd 00 9e a4 bd ca ed 7e 3d
       -0.0140744 -0.05079182 -0.080379486 0.062238492
0000f0 dd 78 eb 3b bb 06 ba 3b 8a 5e ab bd cc 74 97 bd
       0.007186039 0.005677072 -0.08367641 -0.07395324
000100 95 0e 6a c0 82 93 d0 be b7 55 34 bf 3b c6 ba bf
       -3.65714 -0.4073754 -0.7044329 -1.4591745
000110 79 13 f2 be f1 fa 44 bf 0d 15 19 bf 9c 46 c4 be
       -0.4728048 -0.76945406 -0.59797746 -0.3833512
000120 0d b9 c4 3d 72 79 82 be ed 67 1f be ac 1e e8 3c
       0.09605608 -0.2548328 -0.15566988 0.028334938
000130 e6 1f 67 bf 28 7d d6 bd a1 c8 39 3e 24 f6 ce bd
       -0.9028305 -0.104730904 0.1814294 -0.10105541
000140 a2 73 58 3e 91 e2 c9 be 43 2d 91 3f 70 c9 f1 bd
       0.2113786 -0.3943067 1.1341938 -0.11805999
000150 5c fc 06 3d 3c e6 18 3f 79 a8 35 be 21 60 83 3d
       0.032955512 0.5972631 -0.17740048 0.064148195
000160 93 b3 9a bd 6c 78 08 be 15 f1 19 be 1d d6 d9 bd
       -0.07553782 -0.13327187 -0.15033372 -0.10636542
000170 39 bc 6f bf 38 c4 2d bf d1 d9 b6 bd 33 96 86 be
       -0.9364658 -0.6787753 -0.08928264 -0.26286468
000180 15 d7 22 c0 78 51 e3 bd 3a 42 8f be 5e 1a 48 bf
       -2.5443776 -0.11099523 -0.27980214 -0.78165233
000190 cf 55 7b 39 bb 87 c1 3e 7c bf 98 be eb 18 81 3f
       0.00023969192 0.37798867 -0.2983359 1.0085729
0001a0 c8 41 22 bd c6 93 1e 3f 7e a8 7b bf 16 18 6a be
       -0.039613515 0.61944234 -0.98303974 -0.2286075
0001b0 3b d7 44 3e 13 48 c2 3d dd 54 29 bf d7 76 b1 bc
       0.19222729 0.09486403 -0.66145116 -0.021663113
0001c0 5a a5 7e bf 47 d5 94 bf 35 96 bc be 2b ec 5f be
       -0.99471056 -1.1627587 -0.3683335 -0.21867435
0001d0 dd 40 9c be 1a 3f 01 be c5 df 4c be 42 81 a5 be
       -0.30518237 -0.12621728 -0.20007236 -0.32325178
0001e0 a0 29 13 be 27 f7 b1 3e d6 f3 08 bf de 93 87 3d
       -0.14371347 0.34758875 -0.53497064 0.0662
0001f0 67 ac 2a 3e de 58 fe 3e c9 eb f1 bd 8f 17 a3 be
       0.16667329 0.49677175 -0.118125506 -0.3185391
000200 5a e2 29 be 81 c2 c7 bd 73 9a b5 bd a8 40 89 3d
       -0.16590253 -0.097538956 -0.088673495 0.06701785
000210 33 42 96 bd d4 cb 80 bd ea 25 ed bd b8 1b 1c be
       -0.07336845 -0.06288877 -0.11579497 -0.15244949
000220 db 67 ea bd c4 0f 71 3d 9a ad a0 bc 19 4d 56 bd
       -0.1144559 0.058852926 -0.01961403 -0.05231962
000230 c6 4b e2 bd 14 52 cc bd b5 3a b7 bc 8a a1 50 bc
       -0.11049609 -0.09976593 -0.02236686 -0.012733826
000240 32 0c ac bd 4b 2c 02 be c9 c9 d3 3c f3 f5 63 3d
       -0.084007636 -0.12712209 0.025853055 0.055654477
000250 10 1a 0f 3d 36 c2 11 be 4a d9 b5 3c 32 d5 a7 bd
       0.034936965 -0.14234242 0.022198338 -0.08194961
000260 94 21 00 3d d4 7a 1f bd 4c b5 15 be 61 a5 ff bc
       0.031282023 -0.038935497 -0.1461994 -0.031206788
000270 8f b7 49 bd 06 b9 3c be ce ce 9f bd 7e a5 e6 3d
       -0.04924732 -0.18429956 -0.07803117 0.11262034
000280 ed 4c fc bd 96 68 e6 bd 82 e7 88 3c ce dd 6e 3d
       -0.1231936 -0.11250417 0.016711954 0.058317
000290 cf 2b 4f be d7 bb 86 bc f1 4e a9 bd 76 36 68 3b
       -0.20231555 -0.01644699 -0.0826701 0.0035432852
0002a0 41 8d ad bd 68 6b 43 bc 16 4f 4b bc cc b7 16 bd
       -0.08474208 -0.011927463 -0.012408992 -0.036796376
0002b0 6a ee e0 3d e3 b0 ac bb 32 34 43 bd 4a 54 c8 bc
       0.10982974 -0.00527011 -0.0476572 -0.024454255
0002c0 e9 08 92 bc ff 43 05 bc ca c7 58 3c a5 24 32 3c
       -0.017826514 -0.008133887 0.013231227 0.010872995
0002d0 94 ae 00 be ce 20 0e be 9e 3f 00 be 6e cb c1 3b
       -0.12566596 -0.13879701 -0.12524268 0.0059141433
0002e0 57 83 82 bc c3 9b 0c bd 9d 20 8d 3b da ee 22 bc
       -0.015931768 -0.034328233 0.0043068663 -0.009944642
0002f0 38 17 a0 bc bc 7b 40 3d 20 5b 06 bd 8c a3 2e 3c
       -0.019542322 0.046993002 -0.032801747 0.01065911
000300 24 53 7c be e5 fd 83 be 35 2b 1a be 4f 4a 1c 3d
       -0.2464109 -0.25779644 -0.15055545 0.038156804
000310 9f a7 03 bd 3d f7 73 3d 76 29 51 be 7f 19 e1 3b
       -0.032142278 0.059561957 -0.20425972 0.0068694944
000320 af 5b 81 be 45 6d 7a be 4c 1e 74 be e5 af 2c bd
       -0.25265262 -0.24455746 -0.23839682 -0.042159934
000330 ec 9e 28 be 51 22 48 be 63 24 77 be 5a ff f5 3c
       -0.16466874 -0.1954434 -0.24134974 0.030028988
000340 ff 17 15 bd 4a e6 88 be 8c a5 c5 3d 03 21 33 3d
       -0.036399838 -0.26738197 0.09650716 0.043732654
000350 9e f2 9c 3d a1 e4 3f be f5 65 8b bd 39 ea 29 be
       0.07663463 -0.18739559 -0.06806556 -0.16593255
000360 cf 8f c4 bd 99 73 aa bd 6b f8 1a be c3 73 06 be
       -0.09597742 -0.0832283 -0.15133826 -0.13130097
000370 04 18 88 3d 61 a6 27 be 99 25 9d 3d 3c 30 05 be
       0.066452056 -0.16372062 0.07673187 -0.13006681
000380 65 7b 05 3e 28 cf 65 be 51 2e f0 bd ba 5d 21 be
       0.13035353 -0.22442305 -0.11727584 -0.1575841
000390 97 00 3c 3a d3 4f d2 bc ea ef 32 be 36 f9 b3 bd
       0.0007171719 -0.025672829 -0.17474332 -0.087877676
0003a0 85 b5 04 be 26 3f f3 3d 6b ce bf bd 7f 28 9f ba
       -0.12959869 0.11877279 -0.09365543 -0.0012142806
0003b0 89 05 27 3e 6c 18 b7 3d 59 36 2d bd fe 80 18 bc
       0.16310705 0.08940205 -0.042288158 -0.009308098
0003c0 49 3a 66 be fe ff 72 be 0b e4 99 be 1b e4 04 bd
       -0.22483172 -0.23730466 -0.30056795 -0.0324441
0003d0 8f 4a 8a be 98 4d da bd 95 e6 83 bd b3 f0 dc bd
       -0.2701001 -0.10659331 -0.064404644 -0.10788097
0003e0 e5 ea c8 bc 27 c2 06 bd 78 6b 05 bd 4d a6 0e be
       -0.024526069 -0.0329 -0.032573193 -0.13930626
0003f0 d0 3b a0 bd 80 bd 2a 3e 9b 30 2e be 2e e4 32 bd
       -0.07823908 0.16673851 -0.17010729 -0.04367464

w_agents.2.bias f4 [32]
000000 19 b8 48 be 1a 3d 35 bf bb 34 25 be 32 d4 a4 be
       -0.19601478 -0.7079636 -0.16133396 -0.32193142
000010 76 af 3b be 8a da 35 bf 2d 82 47 be 4b a0 0d bf
       -0.18328652 -0.7103659 -0.19483252 -0.5532271
000020 e3 9d 8e 3d d8 47 90 be af 47 2b bd c3 42 e4 be
       0.06963708 -0.28179812 -0.04181641 -0.44582185
000030 61 16 2b bf c4 c6 1e bf 06 d1 0e be 5d 39 32 bd
       -0.6683102 -0.6202204 -0.13946924 -0.043511737
000040 61 b7 39 be 42 d1 25 bf 3e 0a 3b be 0a 37 f8 be
       -0.1813636 -0.6477243 -0.18265626 -0.4847949
000050 ba 4d 95 be 95 aa b6 3d a9 ba b5 bf e3 15 e6 be
       -0.29160863 0.08919255 -1.4197589 -0.44938573
000060 72 ae 0a bf 7b 8b 72 be 37 9e 38 be e3 ee f5 bc
       -0.5417243 -0.2368602 -0.18029104 -0.030021137
000070 82 7f c1 3d ac a7 01 bf aa db 40 3e b5 94 94 3d
       0.09448148 -0.5064647 0.18833795 0.07254926

Ws.0 f4 [32, 32]
000000 d4 ef eb be 20 61 df be e0 97 15 3f 06 5a 79 3f
       -0.46081412 -0.43628788 0.5843487 0.9740299
000010 48 96 76 bf 53 42 b4 bc 48 99 6c bf c9 14 a6 be
       -0.9632306 -0.022004282 -0.9242139 -0.32437733
000020 df 3b b4 bf ee 29 a9 3f 60 e8 9c 3f 7e 14 55 3d
       -1.4080771 1.3215921 1.2258415 0.052021496
000030 97 7d cb 3f 82 9a 37 3f da f3 2e 3f 25 c3 f6 3d
       1.5897702 0.71720135 0.6834084 0.120489396
000040 5a 00 c3 3e d6 ba 80 3d 17 0e 8d be 72 26 82 3f
       0.38086206 0.06285636 -0.27549812 1.0167983
000050 79 c0 03 bf f8 30 0e bf 1e ad 16 3e 0c fe 4d 3f
       -0.51465565 -0.5554347 0.14714476 0.8046577
000060 40 3b 2d bf 16 3e c7 bf a8 ef 9a bf 59 c3 7d 3f
       -0.67668533 -1.5565822 -1.2104387 0.991262
000070 e5 fb 84 3f 57 2a 03 40 20 7b 50 3f db ba e7 be
       1.0389372 2.0494592 0.81437874 -0.45259747
000080 42 0e ab bf 6f fc 0f 3f 8d 71 03 c0 a2 19 f3 3f
       -1.3363726 0.5624456 -2.0538056 1.8992198
000090 dd ed b1 bf cf da 8f 3e b0 a1 bb c0 41 9a 37 40
       -1.3900715 0.28096625 -5.8634872 2.86879
0000a0 30 60 32 3f 73 de 10 bf db f7 08 c0 2b 5f 75 c0
       0.6967802 -0.5658943 -2.140128 -3.8339336
0000b0 0a a2 38 bf 0e 4b b2 bf 6e 9f 75 bf 24 22 01 c0
       -0.7212225 -1.3929155 -0.95946395 -2.0177088
0000c0 a0 be 1f 40 12 a5 6a be 37 5f 19 c0 05 f7 1b c0
       2.4960098 -0.22914532 -2.3964365 -2.4369519
0000d0 b0 fc cb 3f 5f 3c d2 bf 26 67 0c 40 e5 d3 a4 3e
       1.5936489 -1.6424674 2.1937957 0.32192913
0000e0 91 16 be bf 6a 7f b8 bf 50 b1 de 3f af 7f 3a c0
       -1.4850637 -1.4413884 1.7397861 -2.9140432
0000f0 0b 9e 1a 3e 03 ec 22 3f a0 01 d9 3f 0d ad 68 3f
       0.15099351 0.63641375 1.6953621 0.90889055
000100 81 0b 36 3f c0 08 fe 3f c6 e2 0d bf e4 f4 f8 bf
       0.71111304 1.984642 -0.55424154 -1.9449735
000110 55 f5 b9 3f 90 e9 b0 bf 4b c5 5f 3e 6d 8f 98 3f
       1.4527994 -1.3821278 0.21852605 1.191877
000120 28 07 86 be 58 88 c7 3f 22 a0 95 bf d7 24 38 bf
       -0.26177335 1.5588484 -1.1689494 -0.71931213
000130 18 fa d6 3e 0b d6 58 3f 22 6f cb be d3 66 a3 3f
       0.4198768 0.84701604 -0.39733225 1.2765754
000140 bb 45 8d bf f5 b5 ba bf 67 5c 07 40 b7 30 f1 3f
       -1.1036905 -1.4586779 2.1150148 1.8842992
000150 21 3f 5e 3f d3 c8 ef 3e 23 f5 a4 3d dd 3e 35 bf
       0.8681508 0.46832904 0.080545686 -0.70799047
000160 ce 57 df c0 bc fa 0a c0 92 44 0a c0 01 a9 13 40
       -6.9794683 -2.1715536 -2.1604352 2.3071902
000170 2b b0 cd be d4 3b a5 3e 25 df b9 c0 6a 63 a7 3f
       -0.40173468 0.32272208 -5.8084893 1.3077214
000180 52 64 9d bf ee df 03 3e 21 bf 4d 3d ea 90 d3 3f
       -1.229624 0.12878391 0.050231103 1.6528599
000190 43 8e f2 bf 81 b7 86 3f 81 86 99 be b7 00 56 3e
       -1.8949665 1.0524751 -0.2998543 0.2089871
0001a0 19 21 d6 3d 2d b5 84 bf fd 5f 93 3e 07 13 9a 3e
       0.104555316 -1.036779 0.2878417 0.30092642
0001b0 0f ee 03 bf 85 78 86 be 7d 96 20 3f eb 66 f0 be
       -0.51535124 -0.26263824 0.62729627 -0.4695352
0001c0 0b 32 05 bf 25 bc df 3f be 3e 01 bf ba ef 9b 3f
       -0.52029485 1.7479292 -0.5048636 1.2182534
0001d0 8b 4a f8 bf 33 54 b1 bf c3 89 55 3f c5 39 b8 3c
       -1.9397749 -1.385382 0.8341333 0.022488484
0001e0 10 f7 68 3e 7a 78 ab 3f 6a 83 d0 3f 41 57 9a 3e
       0.22750497 1.3396142 1.6290104 0.30144694
0001f0 ee 40 53 3e 01 04 f0 bf b0 8f 7b 3f be e7 1e 3f
       0.20630237 -1.8751222 0.98266125 0.6207236
000200 31 8d 1f 3f be 9c 04 3f 63 c3 09 be fc 42 1f c0
       0.62324816 0.5180167 -0.1345344 -2.4884634
000210 41 2f 35 bf 18 92 6f 3f 65 99 08 3e d9 42 ca 3d
       -0.7077523 0.93582296 0.13339765 0.098760314
000220 31 d0 99 be 55 f3 f0 3e 40 6e ba 3e 02 d7 01 bf
       -0.3004165 0.47060648 0.3641224 -0.507187
000230 62 56 ef be 85 c9 ef 3d c9 30 fe 3d f7 c5 2f bf
       -0.46745592 0.11708359 0.12411649 -0.68661445
000240 b6 3b 94 3e 26 f7 3e 3f 05 6a 02 be e5 02 26 bf
       0.28951806 0.7459587 -0.12735756 -0.64848167
000250 d4 d8 ad be 12 45 c8 be b6 da 39 bf 75 ff 8c bf
       -0.3395449 -0.39115196 -0.7259935 -1.1015459
000260 96 b1 20 40 2d 6d 54 3e 50 01 c9 bf da 2c e0 bf
       2.510839 0.20744772 -1.5703526 -1.7513688
000270 50 9d a3 bf 54 d7 6c 3f 13 8f 9f 3f 1e e5 29 bf
       -1.2782383 0.92516065 1.2465538 -0.6636523
000280 ba 3f 4e c0 cd d2 99 3d ba 83 ec 3f ef fc b7 c0
       -3.2226396 0.0751091 1.84777 -5.7496257
000290 ca 66 a6 bf 33 2f 2c c0 ab d7 28 c0 88 6c 00 c0
       -1.3000119 -2.6903808 -2.6381633 -2.0066242
0002a0 0a 25 f1 3e d9 b1 dc 3f af cf 47 be 9a e9 56 bf
       0.4709857 1.7241775 -0.19512819 -0.839502
0002b0 f6 35 da be 83 2a 1b bf b7 36 24 3f ea 6c 98 3f
       -0.42619294 -0.6061174 0.6414599 1.1908238
0002c0 26 5d ac c0 cb 1d 9e 3e 24 94 a9 3f 61 2a c2 3e
       -5.3863707 0.30882105 1.3248334 0.37922958
0002d0 61 be db 3e 3f c1 a3 bf 49 9e 04 c0 13 16 1d bf
       0.42918685 -1.2793349 -2.072161 -0.6136181
0002e0 6e 64 86 3f 60 d2 4f bb 68 35 2a bf 10 e3 20 bf
       1.0499399 -0.0031711087 -0.6648774 -0.6284647
0002f0 d8 b0 d6 bf b6 df 3a 3e 8c f3 0f c0 87 1d 75 bf
       -1.6772718 0.18249401 -2.24924 -0.9574818
000300 db de e3 3f 74 9b 8d c0 32 39 1a c0 8f ef 09 c0
       1.7802385 -4.425226 -2.409741 -2.1552465
000310 a5 b7 3d c0 b0 82 b9 c0 d8 3e 3f 3f 8c d6 54 bf
       -2.9643338 -5.797203 0.74705267 -0.8313987
000320 62 a9 e7 3f 69 ff be 3f 5f 86 51 3f 51 3b 71 3f
       1.8098567 1.4921695 0.8184566 0.94231135
000330 01 00 37 40 0f ee 12 c0 dd e0 d4 3e 30 67 bf 3f
       2.8593752 -2.29578 0.41577807 1.4953365
000340 39 4a 19 40 f0 9c 03 40 83 77 9f 3f b0 fd 0a 40
       2.3951552 2.0564537 1.2458347 2.1717339
000350 a1 51 c4 3f 64 27 b8 3f da ca 45 3f eb 48 f1 c0
       1.5337411 1.4387021 0.7726265 -7.540151
000360 23 9d c7 bf 27 55 c1 c0 02 2b 0b 3f bb a2 c2 bf
       -1.5594829 -6.0416446 0.543625 -1.5205911
000370 09 83 1c 3f 74 dd 18 bc 14 03 d8 bf 80 5b 58 c0
       0.61137444 -0.009330142 -1.6875939 -3.3805847
000380 b4 dd 8a bf ea c3 ba 3f 0d ea c0 be 04 21 79 3e
       -1.0848908 1.4591038 -0.37678567 0.24329
000390 fb 2e f3 3e d3 32 8d bf b3 d8 be 3d 8a 52 08 c0
       0.4749678 -1.1031135 0.09318676 -2.1300378
0003a0 cf 87 ce bd a3 7f 65 3e 40 60 2e bf b5 a4 e0 be
       -0.10084497 0.22411971 -0.68115616 -0.43875661
0003b0 b3 f9 00 3e 83 5e 69 bd f8 91 a1 3f a2 6d 24 bf
       0.12595253 -0.0569749 1.2622671 -0.64229786
0003c0 0d eb 1e bf 50 36 4c 3f 55 6c f3 bd 65 b8 81 3e
       -0.6207741 0.79770374 -0.11885897 0.25335994
0003d0 05 8f fd bf d7 fb b8 bf 69 04 12 40 cd 28 fd bf
       -1.9809271 -1.4451855 2.2815192 -1.9778076
0003e0 d1 8f fb bf 4d fd fb 3f f2 4d 3d 3f 00 a0 55 be
       -1.9653264 1.9686676 0.7394706 -0.20861816
0003f0 c7 e1 7f be 02 25 d0 3e b4 e2 bf 3f 1c a4 ae 3f
       -0.24988471 0.40653235 1.4991059 1.3643832
