data-6/rl_model_0.pth (torch_old, 93650 bytes, 18 tensors)

w_a f4 [32, 32]
0	0xc01e54bc	-2.4739218
1	0xbf8de235	-1.1084658
2	0x400254da	2.036429
3	0xbfaff8c8	-1.3747797
4	0x3ec5c57d	0.38627234
5	0xbf9a9765	-1.2077452
6	0xc06f1f82	-3.736298
7	0x4085034e	4.1566534
8	0xbe31d774	-0.17367345
9	0xbf7e3f93	-0.99315757
10	0xc0564704	-3.3480844
11	0x3ffcc5ba	1.9747841
12	0xbf586a45	-0.84537154
13	0x4034cb0f	2.8248937
14	0x3f40e5eb	0.75350827
15	0xc0494356	-3.1447349
16	0xc0515631	-3.2708857
17	0xbe560225	-0.20899256
18	0xc0584e1b	-3.3797672
19	0xc04825a2	-3.127297
20	0xc00f7d6b	-2.24203
21	0xc040284f	-3.0024602
22	0xc06b1f4e	-3.6737857
23	0x3ea0bb00	0.3139267
24	0x4044ba93	3.0738876
25	0xc02086f6	-2.5082374
26	0x400b56a5	2.1771634
27	0xbef8d52e	-0.48600143
28	0xbeafa093	-0.34302196
29	0xc019fac9	-2.4059317
30	0xc0693969	-3.644129
31	0x402efe46	2.7342696
32	0xc0760e22	-3.8446126
33	0x3fc3c49c	1.5294375
34	0xbf584b59	-0.8448997
35	0x3ea9b04f	0.33142325
36	0x3f35965c	0.70932555
37	0xbff5a721	-1.9191629
38	0x3e8123bf	0.25222585
39	0x3f953642	1.1657183
40	0xbf10ee8b	-0.5661399
41	0x3e9c56bd	0.30534926
42	0x400829c8	2.1275501
43	0x3e19b0b3	0.15008812
44	0x4028604f	2.6308782
45	0x3ddb363a	0.10703702
46	0xc0116929	-2.2720435
47	0xbf744a5f	-0.9542598
48	0x3f4a511b	0.7903001
49	0x3f5ad1ff	0.8547668
50	0x3f1d1b7f	0.6137008
51	0x3e9bc8bd	0.3042659
52	0x3f3e662d	0.7437466
53	0xc08fc19c	-4.492384
54	0xbffcaf86	-1.9741066
55	0x3f5bdc4a	0.8588301
56	0x3f03efff	0.5153808
57	0xc0063274	-2.0968294
58	0xbd9f4335	-0.077764906
59	0x400fbff6	2.2460914
60	0x3f24312c	0.6413753
61	0xbe4d3ac6	-0.20041952
62	0x3d8856e8	0.06657201
63	0x3fa939e8	1.3220797
64	0xbf071b71	-0.5277625
65	0xbf02880b	-0.50988835
66	0x3fb59d7f	1.4188689
67	0xc0644caa	-3.5671792
68	0xbf90c5f6	-1.1310413
69	0xc0140354	-2.3127031
70	0x3eef81d3	0.46778736
71	0xbe83d1f0	-0.25746107
72	0x3fe5622d	1.7920586
73	0x402a8d87	2.6648881
74	0xbfeb7015	-1.839358
75	0xbe4ff276	-0.20307335
76	0xbf892039	-1.0712959
77	0xc03a1701	-2.907654
78	0xbf38e37b	-0.7222211
79	0xbed3cd95	-0.41367784
80	0xc00b6df0	-2.178585
81	0xbf5b1410	-0.8557749
82	0xbf2a4328	-0.6650872
83	0xbee0ed75	-0.43931165
84	0x3fec94c6	1.8482902
85	0xc02e5979	-2.724211
86	0x3ea0bdb9	0.31394747
87	0xbfb0c741	-1.3810807
88	0x3f2e88a0	0.68177223
89	0xbf55f241	-0.83572775
90	0xbf80590b	-1.0027174
91	0x3fcc65cc	1.5968566
92	0xbf72dee5	-0.9487136
93	0xbf6b202f	-0.91845983
94	0xbf97f1c4	-1.1870656
95	0x3fed4903	1.8537906
96	0xc0817c23	-4.0464034
97	0x3ec47357	0.38369247
98	0x3fda84ea	1.7071812
99	0xc02a3d57	-2.659994
100	0x3f4d35fa	0.80160487
101	0x3e03300e	0.128113
102	0xbfe06ed2	-1.753382
103	0x3d4381be	0.047731154
104	0xbf4728bf	-0.7779655
105	0xbfa6a0cc	-1.3017821
106	0xbeee4714	-0.46538603
107	0x3f72dfbe	0.94872653
108	0x3f8c19ba	1.0945351
109	0x3f791aa5	0.9730628
110	0xbff1878b	-1.886949
111	0xbff720d9	-1.9306899
112	0xc08b5adc	-4.354841
113	0xbe31c995	-0.17362054
114	0xbfd6716e	-1.6753366
115	0x3fc14e50	1.5102024
116	0x3f0e6f0c	0.55638194
117	0xc04773cc	-3.1164427
118	0xc025bca5	-2.589639
119	0xbf90d0b1	-1.1313688
120	0x401ccf4b	2.4501522
121	0xbeab4b03	-0.33455667
122	0xbed1a311	-0.40944722
123	0x3e8cfe46	0.27537745
124	0x3f332326	0.6997551
125	0x40233eb9	2.5507033
126	0xbf4f620a	-0.8100897
127	0x3f9fe5b7	1.2491978
128	0x3d03ffa2	0.032226212
129	0xbf241341	-0.6409188
130	0xbfd7cc40	-1.6859207
131	0xbf83953c	-1.0279918
132	0xc03acac2	-2.9186254
133	0x3f74f858	0.9569144
134	0x3ee3d3a6	0.44497412
135	0xc01e2b49	-2.471392
136	0xbfcbf005	-1.5932623
137	0x3e2602be	0.16211984
138	0x3fdca265	1.7237059
139	0xbffafdfb	-1.9608759
140	0x3ee6c189	0.4506953
141	0xbfac16a2	-1.3444407
142	0xbee4148d	-0.4454693
143	0xbf8d4353	-1.1036171
144	0xbf65d462	-0.89777195
145	0xbe483743	-0.1955233
146	0xbe5fc3a9	-0.21851982
147	0xbe0cafca	-0.13738933
148	0x3f0abbb5	0.5419267
149	0x3ebfb053	0.37439212
150	0xc004f7ac	-2.0776167
151	0xbfed2037	-1.8525456
152	0x3f9c1c09	1.2196056
153	0x400d747a	2.2102342
154	0xbfd413bd	-1.6568524
155	0x4082778a	4.077092
156	0x3ff148f8	1.8850393
157	0x3d87c482	0.06629278
158	0x40643c9a	3.5661988
159	0xbff9b9e0	-1.950985
160	0xc017560c	-2.364627
161	0xbe9740ec	-0.2954172
162	0x3f3641df	0.7119426
163	0x3f73278b	0.9498221
164	0xbe575cc3	-0.2103148
165	0x3e036351	0.12830855
166	0x3fe10776	1.7580402
167	0x3f618555	0.88094074
168	0xbe9027dd	-0.28155413
169	0x3f879288	1.0591593
170	0xbf41bb23	-0.7567617
171	0xbe05d754	-0.13070422
172	0x3f91dc7c	1.1395411
173	0x3e43e6dc	0.19131035
174	0x3d7c0fcc	0.061538503
175	0xbf87417d	-1.056686
176	0x3eb0a26b	0.34498915
177	0x3f9dbb58	1.2322798
178	0x3f3523c8	0.7075772
179	0xbf86ffb6	-1.0546787
180	0xbec8e35a	-0.39235955
181	0x402764f1	2.615536
182	0xbf2be85c	-0.6715143
183	0xbfc94f3f	-1.5727309
184	0x4034752c	2.8196516
185	0xbe9552c1	-0.291647
186	0x3ec030c6	0.3753721
187	0xbf102a7f	-0.56314844
188	0xbd7d07d7	-0.061775055
189	0x3e39f09d	0.18158193
190	0x3f361ed3	0.71140784
191	0x3e7fa135	0.2496384
192	0xbf6f1436	-0.93390214
193	0xbfc9a75b	-1.5754198
194	0xbe9ef984	-0.3104974
195	0xc04154a4	-3.020791
196	0xc01032dc	-2.2531042
197	0xbde96998	-0.113970935
198	0xc00890cd	-2.133838
199	0xc0554f3a	-3.3329606
200	0xbf428282	-0.7598039
201	0xbfbed37b	-1.4908289
202	0xbf9afafb	-1.2107843
203	0x3dbcfe34	0.09228173
204	0xbf4aa105	-0.79151946
205	0x3fc81f8e	1.563463
206	0xbe9f670e	-0.31133312
207	0x40244202	2.5665288
208	0xc07b5ee0	-3.9276657
209	0x3fc3686f	1.5266246
210	0xbfb09850	-1.3796482
211	0xbf9f8d9f	-1.2465094
212	0x3fa7c496	1.3106868
213	0xc02ca0bd	-2.6973107
214	0xc033cd7b	-2.8094165
215	0xc041fc5c	-3.0310278
216	0xbf63dbed	-0.89007455
217	0xbd5cdac1	-0.053919557
218	0xbe3141db	-0.17310278
219	0xbf20515c	-0.62624145
220	0xbfa411a0	-1.2817879
221	0x3f518438	0.81842375
222	0x3f288eb9	0.6584278
223	0x3e103777	0.14083658
224	0xbed7ff3e	-0.42186922
225	0x400c43f6	2.191648
226	0x3db580f5	0.08862487
227	0x3f8450c5	1.0337149
228	0xbe0983be	-0.13429162
229	0x3fb06f84	1.3784032
230	0xbfbfac74	-1.4974504
231	0x3e27ebbb	0.16398518
232	0x4002cdc7	2.0438097
233	0xbe1ee5d2	-0.15517357
234	0xc00bd156	-2.1846519
235	0x3f54baf9	0.830978
236	0xbe167bc7	-0.14695655
237	0x3f6f3265	0.9343627
238	0x3ebcc96e	0.3687243
239	0xbf13fb2e	-0.57805145
240	0xbf0eb0dd	-0.5573862
241	0x3f7fb5cc	0.99886775
242	0xc03a221f	-2.9083326
243	0xbf9067e0	-1.12817
244	0xbf8059d7	-1.0027417
245	0xc01b4e71	-2.4266627
246	0x3f5d6793	0.86486167
247	0xbefda693	-0.4954115
248	0x40104166	2.2539916
249	0xbfcef9ab	-1.6169943
250	0x3fb5dcb0	1.4207973
251	0xbf33de99	-0.7026153
252	0xbf8018e3	-1.0007595
253	0xbfc22f8a	-1.5170758
254	0x3faa4552	1.3302405
255	0x40372db9	2.8621657

w_group.0.weight f4 [64, 8]
0	0xbd3b7056	-0.04576143
1	0x3cb3b03c	0.021934621
2	0x3e67ea1d	0.22647901
3	0xbe8f64fb	-0.2800673
4	0xbeb12b91	-0.3460355
5	0x3d0f1100	0.03492832
6	0xbdad07a4	-0.08448723
7	0x3cd43ff9	0.02590941
8	0xbf286fca	-0.65795577
9	0xbf386f22	-0.72044575
10	0xbfa699f0	-1.3015728
11	0x3ad85c86	0.0016507066
12	0xbe80d074	-0.25159037
13	0xbe5ed4a5	-0.21760805
14	0xbf670db5	-0.9025529
15	0xbf807de7	-1.0038422
16	0xbf3ff158	-0.74977636
17	0xbe1e07af	-0.15432619
18	0xbef117fa	-0.47088605
19	0xbeaef311	-0.3416982
20	0xbe9d0a4a	-0.30671912
21	0xbe91eb34	-0.28499758
22	0xbf259d11	-0.6469279
23	0xbf63d879	-0.89002186
24	0xbfc0f5ff	-1.5075072
25	0x3f8d01f8	1.1016226
26	0x3f85ae06	1.0443733
27	0xc05ac81c	-3.4184637
28	0x3e5dd73c	0.21664137
29	0x3e66043e	0.22462556
30	0xbf627441	-0.8845864
31	0xbea8bcce	-0.32956547
32	0xbdb3e8a2	-0.087846056
33	0xbd004be5	-0.03132238
34	0x3f1f9ffc	0.6235349
35	0x3ebd795e	0.37006658
36	0x3ca5a18c	0.020218633
37	0x3e27005a	0.16308728
38	0xbe6bc9e7	-0.23026238
39	0xbeae7b84	-0.3407861
40	0x3f3a0948	0.7267041
41	0xbe145d2c	-0.14488667
42	0xbfb9eff1	-1.4526349
43	0xbf48137c	-0.7815473
44	0xc02d1272	-2.7042508
45	0x3e8e4c17	0.27792427
46	0x3ee7ff51	0.45311978
47	0xbcfdb347	-0.030969275
48	0xbfabbbf7	-1.3416737
49	0x3f57bd68	0.84273386
50	0xbf93c601	-1.1544801
51	0x3f3774a3	0.7166235
52	0xbf3a74f9	-0.72834736
53	0xbe23808e	-0.15967008
54	0xbf55caa3	-0.83512324
55	0xbf13ee46	-0.5778545
56	0xbf914688	-1.134965
57	0x3edf021e	0.43556303
58	0x4021c9f1	2.5279505
59	0xc0416ea9	-3.0223792
60	0x3f26f03c	0.6521032
61	0xbe5aa126	-0.21350536
62	0xbd2dee15	-0.04246338
63	0xbeff9d6b	-0.49924788
64	0xbdf6f3f8	-0.12058252
65	0x3e21678b	0.15762155
66	0xbee62aa0	-0.44954395
67	0x3ee00972	0.43757206
68	0xbec64602	-0.38725287
69	0xbe5e8a28	-0.2173239
70	0xbeb4a23e	-0.3528003
71	0xbec9caa5	-0.39412418
72	0xbca07717	-0.019588036
73	0xbe9685f7	-0.29399082
74	0xbfa02ff6	-1.2514637
75	0xbf9adb1f	-1.209812
76	0x3eee332a	0.4652341
77	0x3dfd21d8	0.12359971
78	0xbf181164	-0.59401536
79	0xbf4ca151	-0.7993365
80	0x3fdc3b6d	1.7205635
81	0x3e7fcab4	0.24979669
82	0x3f41c3b5	0.7568925
83	0x3fbf281a	1.4934113
84	0xc0060992	-2.0943341
85	0xbdb347c4	-0.087539226
86	0xbd799aa5	-0.060938496
87	0xbca2c218	-0.019867942
88	0xbe9f1a42	-0.3107472
89	0x3e8ce031	0.27514794
90	0x3dcd57bf	0.10026502
91	0xbf06b65a	-0.52621996
92	0xbf145e25	-0.57956153
93	0x3d1a4940	0.037667513
94	0xbf568ec8	-0.83811617
95	0xbf3cc196	-0.7373289
96	0x4015bd2b	2.339671
97	0xbf128264	-0.5723021
98	0x403249f4	2.7857637
99	0xbf631585	-0.8870471
100	0x3acb6f32	0.001552081
101	0xbe43c976	-0.1911982
102	0xbee81593	-0.4532896
103	0xbf460147	-0.773457
104	0x3fca4408	1.5802011
105	0x3fc7df4b	1.5615019
106	0x4001f176	2.0303626
107	0x3f28e819	0.6597915
108	0xbe192bd9	-0.14958133
109	0xbcfc6630	-0.030810446
110	0xbf24557b	-0.6419293
111	0xbf379b51	-0.7172137
112	0xbdefeea9	-0.11715443
113	0xbea55282	-0.3228951
114	0x3efda480	0.49539566
115	0x3f99d276	1.2017353
116	0xbeb9a8c8	-0.36261582
117	0xbe2289aa	-0.15872827
118	0xbf156829	-0.5836206
119	0xbf44ed0d	-0.7692421
120	0x3fbca853	1.4738868
121	0xbea388d7	-0.31940338
122	0xc0104d0a	-2.254702
123	0xc03163f8	-2.7717266
124	0xbf80c436	-1.0059879
125	0x3e3be2de	0.18348262
126	0xbf6b7103	-0.9196932
127	0xbf8d28be	-1.1028059
128	0x3fde063e	1.7345655
129	0xbe2b13ff	-0.16706847
130	0xc026d7ba	-2.606917
131	0x3dcb536d	0.099280216
132	0x3ea04d1d	0.31308833
133	0xbea38679	-0.31938532
134	0xbe3cd7d8	-0.18441713
135	0xbe830f8f	-0.25597808
136	0xbf0bd56d	-0.54622537
137	0x3f27834d	0.65434724
138	0xbfaf286f	-1.3684214
139	0xbe4dbb80	-0.20091057
140	0xbfc0de2d	-1.5067803
141	0xbdc829c0	-0.09773588
142	0xbf099fe6	-0.5375961
143	0xbee2b76d	-0.44280568
144	0xbcbddc96	-0.023176473
145	0x3cdc8a6e	0.026921477
146	0xbef9389a	-0.48675996
147	0x3e2204ab	0.15822093
148	0xbf9d9b3b	-1.2312998
149	0xbb546d80	-0.00324139
150	0xbd861a9d	-0.06548045
151	0xbe36a436	-0.17836079
152	0xbcdcc159	-0.026947664
153	0xbca1f0fb	-0.019768229
154	0x3e6b4e69	0.2297913
155	0x3ec26e56	0.37974805
156	0x3eea1d2a	0.45725375
157	0x3e6222aa	0.22083536
158	0xbea351ad	-0.3189825
159	0xbe8799ee	-0.26484627
160	0xc0115ce6	-2.271295
161	0xbf986112	-1.1904624
162	0x3ecb7fc7	0.39745924
163	0xbe61dbfa	-0.2205657
164	0xbf1dd64c	-0.61655116
165	0x3e2d45f6	0.16921219
166	0xbeee2040	-0.4650898
167	0xbf3ad114	-0.7297528
168	0xbe7a70f5	-0.24457152
169	0xbec2253c	-0.37919033
170	0xbe13fc00	-0.14451599
171	0xbded4f83	-0.11587431
172	0xbf1f67da	-0.6226784
173	0xbdd9fefc	-0.106443375
174	0xbf447386	-0.76738775
175	0xbf5e858e	-0.8692254
176	0x3e6a3eb7	0.22875486
177	0xbd901def	-0.070369594
178	0x3f9f6152	1.2451575
179	0xbf919ace	-1.1375368
180	0xbfc4ac22	-1.5365031
181	0xbea46593	-0.32108745
182	0xbe30caef	-0.17264913
183	0xbee74e44	-0.451769
184	0x3fa4fdc1	1.288994
185	0x3f896cfa	1.0736382
186	0x3deb4881	0.114884384
187	0xbf9a9103	-1.2075504
188	0xbdc7efdc	-0.097625464
189	0x3e4039a2	0.18771985
190	0xbf2bb47c	-0.6707227
191	0xbedea604	-0.43486035
192	0x408ef744	4.467684
193	0xbe3e9d0e	-0.18614599
194	0x3f4d2e6b	0.80148953
195	0xbe3373f3	-0.175247
196	0xbf8fcc69	-1.1234256
197	0x3e951b47	0.29122373
198	0x3e5a2957	0.21304832
199	0x3daaa88f	0.08332931
200	0x3e2b7444	0.1674357
201	0xbe763d7c	-0.24046892
202	0x3f69f00f	0.91381925
203	0x3eb27b9e	0.34859937
204	0xbf0d231d	-0.55131704
205	0x3d686ed8	0.056746334
206	0xbf097bd3	-0.53704566
207	0xbed7f6b5	-0.4218041
208	0x3e60a580	0.21938133
209	0x3e1611ee	0.14655277
210	0x3f25bb31	0.64738756
211	0x3f3e1dd2	0.7426425
212	0xbed75c25	-0.42062488
213	0x3e5ab78e	0.21359083
214	0xbf02132d	-0.5081051
215	0xbe2d3125	-0.16913278
216	0x3f8aeeb1	1.0854093
217	0x3f92d92e	1.1472528
218	0x3f45faeb	0.77335995
219	0x3e365d44	0.17809016
220	0xbe97a246	-0.29615992
221	0xbc506fe0	-0.012721986
222	0xbd8bdbdd	-0.06829045
223	0x3eb00294	0.34376967
224	0xbe150f18	-0.14556539
225	0xbf18a376	-0.5962442
226	0xbe5a96dd	-0.21346612
227	0xc015ecba	-2.3425736
228	0x3edef04e	0.43542713
229	0xbeb10e23	-0.34581098
230	0xbf09bca8	-0.5380349
231	0xbf27758f	-0.65413755
232	0xbed1aba3	-0.4095126
233	0xbeafcbef	-0.34335276
234	0x3f440ae9	0.7657915
235	0xbf86e9d1	-1.0540105
236	0xbf82e36b	-1.0225652
237	0x3e45bf62	0.19311288
238	0xbf3d2124	-0.73878694
239	0xbf43a999	-0.7643066
240	0xbf5feec0	-0.8747368
241	0x3e3ed917	0.186375
242	0xbf02aa7b	-0.5104138
243	0xc0902128	-4.5040474
244	0xbe6a446d	-0.22877665
245	0xbe05feec	-0.13085526
246	0x3dc1c89a	0.0946209
247	0x3db7a867	0.08967667
248	0x3ee91ebe	0.45531267
249	0xbf304b2e	-0.68864715
250	0xbf602ced	-0.8756855
251	0xbf74d2d0	-0.95634174
252	0xbf04eea5	-0.5192664
253	0xbdd225d4	-0.102611214
254	0xbed7c0fa	-0.42139417
255	0xbe9fd1f1	-0.3121486

w_group.0.bias f4 [64]
0	0xbe9aa434	-0.30203402
1	0xbf888343	-1.0665058
2	0xbf65c0d5	-0.89747363
3	0xbf617874	-0.8807442
4	0xbeeb2052	-0.45923096
5	0xbe38daad	-0.18052168
6	0xbf17eae6	-0.593428
7	0xbf1a43e7	-0.6025986
8	0xbf1b658e	-0.60701835
9	0xbf0a9684	-0.5413592
10	0xbeab2e3b	-0.3343371
11	0xbf7ab784	-0.9793627
12	0xbf3c34b5	-0.73517925
13	0xbef5fe07	-0.4804537
14	0xbf07a437	-0.52984947
15	0xbf0dde50	-0.55417347
16	0xbe9b2a31	-0.30305627
17	0xbe62eecd	-0.22161408
18	0xbf1265d3	-0.5718662
19	0x3d955d90	0.07293236
20	0xbf383886	-0.7196125
21	0xbf61b1be	-0.8816184
22	0xbf48a548	-0.783772
23	0xbf49faba	-0.78898203
24	0xbe034558	-0.12819421
25	0xbf417dcd	-0.7558258
26	0xbef4a61f	-0.4778299
27	0x3e99e997	0.30061027
28	0xbdd3ebbd	-0.10347698
29	0xbf190d0b	-0.59785527
30	0x3d51aa2a	0.05118767
31	0xbeb8b941	-0.36078838
32	0xbefe7b49	-0.49703434
33	0xbf2a0ee8	-0.66428995
34	0xbd9662fe	-0.073431
35	0xbeecd617	-0.46257088
36	0xbf1af38a	-0.6052786
37	0x3ec1a796	0.3782317
38	0xbed78210	-0.42091417
39	0xbf06afed	-0.5261219
40	0x3bba6cd6	0.005689244
41	0xbf193f6c	-0.598624
42	0xbf27d6d5	-0.6556218
43	0xbecbd851	-0.39813474
44	0xbd88b8d1	-0.06675876
45	0xbe245139	-0.16046609
46	0xbccd8475	-0.025087574
47	0x3e013215	0.12616761
48	0xbd182dc1	-0.03715301
49	0xbd48623b	-0.048921805
50	0xbf5a76c8	-0.85337496
51	0x3e8f90a7	0.28040048
52	0xbed30bdf	-0.41219994
53	0xbee29bb8	-0.4425943
54	0xbe81824e	-0.25294727
55	0xbec7694c	-0.38947523
56	0xbf4bab68	-0.7955842
57	0xbe9cee5e	-0.3065061
58	0x3c85fde9	0.016356425
59	0x3e29705e	0.16546771
60	0xbf1fbf76	-0.6240152
61	0xbf792206	-0.9731754
62	0xbd9e7d17	-0.07738703
63	0x3e245ab0	0.1605022

w_group.2.weight f4 [32, 64]
0	0x3dbb6904	0.091508895
1	0xbddf1331	-0.10892332
2	0xbd5739da	-0.052545406
3	0xbdeef654	-0.11668077
4	0x3cb914f6	0.022593003
5	0x3cff0e98	0.031134889
6	0xbe2160ec	-0.15759629
7	0x3bdebf8f	0.006797738
8	0xbd5a4e47	-0.053297307
9	0xbc953569	-0.018213945
10	0xbd88e91c	-0.06685087
11	0x3d868d3e	0.065699086
12	0xbdbef52c	-0.093241066
13	0xbcded228	-0.02719982
14	0xbcf36335	-0.029710392
15	0x3d97be76	0.074093744
16	0xbd72b457	-0.059254017
17	0xbe1c50dd	-0.15265222
18	0x3d3e899f	0.046517964
19	0xbe0f599c	-0.13999027
20	0xbdfb9ca5	-0.12285737
21	0xbe1a3934	-0.15060884
22	0xbdb7ceba	-0.08974977
23	0xbcf89aaa	-0.030347187
24	0xbbc3fbb3	-0.0059809326
25	0x3d9d071e	0.07667373
26	0xbdfc0df0	-0.12307346
27	0x3dad25d2	0.08454479
28	0x3d44ab51	0.048014943
29	0xbd37d9ef	-0.044885572
30	0x3d3795aa	0.044820465
31	0x3da43f5a	0.08019896
32	0x3ca42468	0.020036891
33	0xbd66f840	-0.056389093
34	0x3ca23396	0.019799989
35	0x3ccf1b84	0.025281675
36	0xbd45f7aa	-0.048331894
37	0x3d03e017	0.03219613
38	0x3db3f331	0.087866195
39	0xbe058e0a	-0.13042465
40	0xbdf74fae	-0.120757446
41	0x3cc8478c	0.024448179
42	0xbd5f455a	-0.0545095
43	0xbe408c8b	-0.18803613
44	0x3dbea335	0.09308473
45	0xbc06d691	-0.008229868
46	0xbe43e822	-0.1913152
47	0xbdfe07c0	-0.12403822
48	0xbe5fbcd6	-0.21849379
49	0x3ca0963b	0.019602885
50	0xbbcde882	-0.0062838206
51	0x3d84a7e8	0.06477338
52	0xbcc3a43d	-0.023882026
53	0x3db86f25	0.09005574
54	0xbd802020	-0.06256127
55	0xbd5ac2f1	-0.053408567
56	0x3daede4c	0.085384935
57	0xbde450bb	-0.111482106
58	0xbd8e6731	-0.06953276
59	0xbddd9708	-0.108198225
60	0xbda5d936	-0.0809807
61	0xbe1e262b	-0.15444247
62	0xbd92f584	-0.07175735
63	0xbe23c487	-0.15992938
64	0x3d0891c3	0.033342134
65	0x3e74362a	0.23848787
66	0x3ef1c174	0.47217906
67	0x3e30043f	0.1718912
68	0xbdc07a32	-0.09398307
69	0x3f0270e2	0.50953496
70	0xbf356b06	-0.7086643
71	0xbe999112	-0.29993492
72	0xbe7bdeb0	-0.24596667
73	0x3e45a012	0.19299343
74	0x3e63b514	0.22237045
75	0x3ea3ae9f	0.31969163
76	0x3f12192e	0.5706967
77	0x3f7bad92	0.9831172
78	0x3df1d04c	0.118073076
79	0x3f355fba	0.7084919
80	0x3deac62b	0.11463579
81	0xbee0cc2a	-0.43905765
82	0xbd886390	-0.06659615
83	0x3c026fb9	0.007961207
84	0x3f3ba665	0.7330077
85	0xbe3a429c	-0.18189472
86	0x3e283f41	0.1643038
87	0xbc36fe3e	-0.0111690145
88	0xbf5770f0	-0.84156704
89	0xbd537585	-0.051625747
90	0x3ed9d814	0.42547667
91	0x3e47bad6	0.19504866
92	0xbd26761b	-0.040639978
93	0xbcb08080	-0.021545649
94	0xbdb32096	-0.0874645
95	0x3e91f262	0.28505236
96	0xbf1e099b	-0.61733407
97	0x3ee20032	0.44140774
98	0xbf95cf29	-1.1703845
99	0x3d7a782a	0.061149754
100	0xbd32aca5	-0.043621678
101	0xbf5c36af	-0.8602094
102	0x3e497d04	0.19676596
103	0x3c56a193	0.013100046
104	0xbe68f449	-0.22749437
105	0x3f4174bd	0.75568753
106	0x3e00b5d6	0.12569365
107	0xbf062e7c	-0.5241468
108	0xbdabdc47	-0.08391624
109	0xbdcff6b3	-0.10154476
110	0xbfc249d4	-1.517878
111	0x3dc30648	0.095226824
112	0xbf032a72	-0.5123664
113	0x3d60f0dc	0.0549172
114	0xbe6af2c4	-0.2294417
115	0x3f4a761e	0.7908648
116	0xbe033eba	-0.12816897
117	0x3f314bc7	0.6925625
118	0xbf04deaf	-0.5190229
119	0xbf37ba83	-0.7176897
120	0xbf268b4d	-0.65056306
121	0x3dabef91	0.08395303
122	0xbf7a09b5	-0.9767106
123	0xbe9102ce	-0.28322452
124	0x3c6e81b6	0.014557293
125	0xbf6586a7	-0.8965859
126	0xbfcb98ca	-1.5906003
127	0xbee59b2a	-0.44844943
128	0xbe11f4f1	-0.14253594
129	0xbf9730cb	-1.1811765
130	0xbd1d8140	-0.03845334
131	0xbef20225	-0.4726726
132	0xbd22e955	-0.039773304
133	0x3ecaf2c1	0.39638332
134	0xbd1b080d	-0.037849475
135	0xbe5b594b	-0.21420781
136	0x3d15d200	0.036577225
137	0xbe3c1d66	-0.1837059
138	0x3dead323	0.114660524
139	0x3f4dbe63	0.8036863
140	0xbfea27d8	-1.8293409
141	0x3ec3b4a9	0.3822377
142	0xbe967d68	-0.29392552
143	0xbf7a4003	-0.97753924
144	0xbe157379	-0.1459483
145	0xbe7d3917	-0.2472881
146	0x3e538d94	0.20659477
147	0xbe5f2bd9	-0.2179407
148	0xc0808dbb	-4.017301
149	0xbee31952	-0.44355255
150	0xbf266e8a	-0.6501242
151	0xc02ed10d	-2.7315094
152	0x3e043ec7	0.12914573
153	0xbe92bf94	-0.28661788
154	0xbcf0dca7	-0.02940209
155	0xbf107cca	-0.56440413
156	0xbefad205	-0.48988357
157	0x3dc21352	0.09476341
158	0xbfc5229e	-1.5401189
159	0xbfcca7a6	-1.5988662
160	0xbf1e3c86	-0.618111
161	0xbed7fe7d	-0.42186347
162	0xbeb095a6	-0.34489173
163	0x3e0facf5	0.14030822
164	0xbdd3f5ab	-0.10349592
165	0x3ea8f839	0.3300188
166	0x3a00d5b8	0.0004914659
167	0xbdba94dc	-0.09110424
168	0xbf21a851	-0.63147455
169	0x3e0f649d	0.14003225
170	0xbe167537	-0.14693151
171	0xbfa63143	-1.2983783
172	0xbfe869d8	-1.8157301
173	0xbe038fd5	-0.12847836
174	0x3ea61519	0.3243797
175	0x3cd6c465	0.026216695
176	0x3f692534	0.9107239
177	0xbf641f36	-0.89110124
178	0xbdadcf19	-0.08486766
179	0xbef53358	-0.47890735
180	0xbdaa299a	-0.08308716
181	0x3ee30f68	0.44347692
182	0x3d180431	0.037113372
183	0x3df52929	0.11970741
184	0x3f041f3e	0.5161017
185	0x3bd7e274	0.0065882746
186	0x3e41367d	0.18868442
187	0xbce72b5c	-0.028218918
188	0xbf5a7e50	-0.8534899
189	0xbf532d29	-0.82490784
190	0x3dc56f8d	0.09640417
191	0xbeef0b43	-0.4668828
192	0x3d6c95ec	0.057760164
193	0xbdc8fb94	-0.0981361
194	0x3dfaa9fc	0.12239453
195	0xbba306af	-0.004975162
196	0xbc687c2d	-0.014189762
197	0xbe0f30b9	-0.1398343
198	0xbe06a1e9	-0.13147701
199	0xbe11dd8e	-0.14244673
200	0xbdeb4797	-0.11488264
201	0xbe134beb	-0.14384429
202	0xbdc81d3a	-0.097711995
203	0x3b725c42	0.003698126
204	0xbdccbd37	-0.09997027
205	0xbd10d8af	-0.035362896
206	0xbde8424a	-0.11340769
207	0xbd438ef9	-0.04774377
208	0xbd97c500	-0.07410622
209	0x36109c62	2.15487e-06
210	0xbd47416a	-0.048646368
211	0xbda98114	-0.08276573
212	0x3d16236c	0.036654875
213	0x3d4e1558	0.050313324
214	0xbe299d41	-0.16563894
215	0xbe183bb4	-0.14866525
216	0xba6045d8	-0.00085553294
217	0xbe381117	-0.1797527
218	0xbd7f8841	-0.0623858
219	0x3ca10ab3	0.019658422
220	0x3daa6b97	0.083213024
221	0xbd216d71	-0.039411012
222	0xbdeeb737	-0.11656039
223	0x3d19460b	0.037420314
224	0x3cc7787c	0.024349444
225	0x3dce1963	0.10063436
226	0xbcb319f8	-0.021862969
227	0xbda6cbae	-0.081443176
228	0x3d349ea0	0.04409659
229	0xbe15b4d4	-0.14619762
230	0x3c517dc9	0.012786337
231	0xbe1f966f	-0.1558473
232	0xbe08ea59	-0.13370647
233	0xbdae9910	-0.08525288
234	0x3d2d54ea	0.04231731
235	0x3c0ea2c3	0.008705798
236	0xbd195d8b	-0.037442725
237	0x3d92bd9b	0.071650706
238	0xbe298dba	-0.1655797
239	0x3dfe5894	0.12419239
240	0xbda24777	-0.07923787
241	0x3d96ffea	0.073730305
242	0x3db77562	0.08957936
243	0xba983490	-0.0011612345
244	0x3caf8897	0.021427436
245	0x3d819477	0.063271455
246	0xbe1f32cb	-0.1554672
247	0xbd0edc91	-0.034878317
248	0x3d4a9df8	0.049467057
249	0x3c0b6fa0	0.0085105
250	0xbd7af4d9	-0.06126866
251	0x3c8e9a3a	0.017407525
252	0x3cb8ebfe	0.022573467
253	0xbe3a9614	-0.18221313
254	0x3c437400	0.011929512
255	0xbe10b17f	-0.1413021

w_group.2.bias f4 [32]
0	0xbe5b34a2	-0.21406797
1	0xbfc0e469	-1.5069705
2	0x3efdbbd1	0.49557355
3	0xbe5b5169	-0.21417774
4	0x3fc0e6b2	1.5070403
5	0x3e833b5a	0.2563122
6	0xbf346f95	-0.7048276
7	0xbf24fe86	-0.6445087
8	0x3d63cb2e	0.05561369
9	0xc02a93b4	-2.665265
10	0xbd0297e0	-0.03188312
11	0x3fce5a04	1.612122
12	0xbe10c135	-0.14136203
13	0xbf403689	-0.75083214
14	0xc02907d8	-2.6411037
15	0xbfc454ef	-1.533842
16	0xbf51bb42	-0.8192636
17	0x3f9f5a55	1.2449442
18	0x3f5c0dd9	0.8595863
19	0x3d899825	0.067184724
20	0x3f8922c4	1.0713735
21	0x3f27dac3	0.6556818
22	0x4043612d	3.0528061
23	0xbfa86e2d	-1.3158623
24	0xbf37d65a	-0.7181145
25	0xbf1ab378	-0.604301
26	0xbfe029cc	-1.7512755
27	0xbdc40320	-0.095709085
28	0xbdb0366b	-0.086041294
29	0x3ef74d14	0.48300993
30	0xbe586099	-0.21130599
31	0x3f299d7e	0.6625594

w_agents.0.weight f4 [64, 5]
0	0xbe2b32fd	-0.16718669
1	0xbb883aef	-0.004157416
2	0x3f527a97	0.8221831
3	0x3ebf6461	0.3738127
4	0x3f0a89e1	0.54116637
5	0xbef03689	-0.46916607
6	0xbe990955	-0.29889932
7	0x3f77ef95	0.9684995
8	0x3f3dbdf9	0.74118
9	0xbf95388a	-1.1657879
10	0x3da6fadf	0.081533186
11	0xbd85c256	-0.06531207
12	0xbd16d4ad	-0.036823917
13	0xbf83b380	-1.0289154
14	0xbf1a6e22	-0.603243
15	0xbcd4d7f7	-0.025981886
16	0xbb55e272	-0.0032636193
17	0xbf2be3f1	-0.67144686
18	0x3f9785be	1.183769
19	0xbfcfc004	-1.6230474
20	0x3ea37c9d	0.3193101
21	0xbc8dfe28	-0.017333105
22	0x3f7b57e8	0.9818101
23	0xbf2dfaff	-0.67961115
24	0xbed46903	-0.41486368
25	0x3d003a43	0.031305563
26	0xbedacd82	-0.42734915
27	0x3bfffd8a	0.0078122066
28	0x3db20876	0.0869302
29	0x3de6f552	0.1127726
30	0x3c7d5cc6	0.015464013
31	0x3d9434c5	0.072366275
32	0xbf805a7a	-1.0027611
33	0x3f988c40	1.1917801
34	0xbf3821ef	-0.7192678
35	0xbe751b0b	-0.23936097
36	0xbe075332	-0.1321533
37	0xbf96e2db	-1.1787981
38	0x3f46eb52	0.7770282
39	0xbfa5ade0	-1.2943687
40	0x3bb7a5f5	0.0056045004
41	0x3c32b002	0.010906221
42	0x3bf7c32f	0.0075611095
43	0xbeda9db2	-0.42698437
44	0xbf2b2800	-0.6685791
45	0xbbe4a8fc	-0.0069781523
46	0xbc01fc35	-0.007933666
47	0xbd9c9c04	-0.07646945
48	0xbe7a117b	-0.24420731
49	0xbedc94b5	-0.43082204
50	0x3a965fc1	0.0011472629
51	0xbbf16794	-0.007367084
52	0x3de995f5	0.11405555
53	0x3d9460d2	0.072450295
54	0xbe0241fc	-0.12720484
55	0xbda46f43	-0.08029034
56	0x3cee554a	0.029093403
57	0x3e978876	0.295963
58	0xbe404802	-0.18777469
59	0xbf045b27	-0.5170159
60	0x3ebf946d	0.37417927
61	0xbf5b63f2	-0.8569938
62	0x3f1a0458	0.6016288
63	0x3eeb6ce1	0.45981506
64	0xbf45c50f	-0.7725381
65	0xbcbffe70	-0.023436755
66	0x3b02edbf	0.0019978133
67	0xbe907433	-0.28213653
68	0xbdf4c502	-0.11951639
69	0xbd9996a3	-0.07499435
70	0xbc46cd42	-0.012133898
71	0x3ca36b9e	0.019948777
72	0x3e192196	0.14954218
73	0x3eaec36a	0.34133464
74	0xbf20d2de	-0.6282176
75	0xbd72ee60	-0.059309363
76	0xbda4ec97	-0.080529384
77	0x3e7e2cc8	0.2482177
78	0x3e9baec8	0.30406785
79	0xbf527e7e	-0.8222426
80	0x3d01c4f7	0.03168198
81	0xbda116bd	-0.07865665
82	0xbef6ed40	-0.48227882
83	0x3fa0754e	1.2535799
84	0xbfa9c640	-1.3263626
85	0xbc9796fb	-0.01850461
86	0xbb885067	-0.0041599753
87	0x3dd9c51e	0.106333
88	0x3ed2731c	0.41103446
89	0xbef37ad3	-0.47554645
90	0xbe2d1106	-0.16901025
91	0xbee62006	-0.44946307
92	0x3fd8d7a2	1.6940806
93	0x40579a3e	3.3687892
94	0xc012cca8	-2.2937412
95	0x3b895fab	0.0041923127
96	0xbb227961	-0.0024791586
97	0xbdc72754	-0.09724298
98	0xbdfd49dd	-0.12367604
99	0xbf2018fd	-0.6253813
100	0xbe0fd453	-0.14045839
101	0xbe26ca5a	-0.16288128
102	0x3e2bc0bb	0.1677274
103	0x3e729204	0.23688513
104	0xbff9f01e	-1.9526403
105	0x3d16adb3	0.036786746
106	0x3d0bd61e	0.034139745
107	0x3c10b627	0.008832491
108	0x3f86cf54	1.0532022
109	0xbf8fc3e6	-1.1231658
110	0xbcca5357	-0.024697943
111	0xbcb273cc	-0.021783732
112	0x3dc53c91	0.09630693
113	0xbe309dae	-0.1724765
114	0xbd43f294	-0.047838762
115	0xbcb51ae3	-0.022107547
116	0xbb3834b3	-0.0028107583
117	0xbe8137eb	-0.25237975
118	0xbd9409e7	-0.07228451
119	0xbf3c83e2	-0.7363874
120	0x3d82d1ef	0.06387698
121	0x3dd9a788	0.10627657
122	0xbfa65472	-1.2994521
123	0x3edda243	0.43287858
124	0x3deb7382	0.11496641
125	0x3ed8ffd8	0.42382693
126	0x3e3ed029	0.18634094
127	0x3f4ded81	0.8044053
128	0x3fe01cc6	1.7508781
129	0xbf2786f3	-0.6544029
130	0xbc9e3eba	-0.01931702
131	0xbc28b47a	-0.010296935
132	0x3cdd6218	0.027024314
133	0xbe1e58dd	-0.15463586
134	0xbe764076	-0.24048027
135	0x3f1921a8	0.5981698
136	0xbdfd2049	-0.123596735
137	0xbf7b2eee	-0.98118484
138	0x3f55d6d2	0.83530915
139	0xbf83d0bf	-1.0298079
140	0xbe856fd9	-0.26061895
141	0x3d8f6b0c	0.070028394
142	0xbce6cb08	-0.028172985
143	0x3fae9006	1.3637702
144	0xc007a430	-2.1193962
145	0x3eef2a2c	0.46711862
146	0xbe182948	-0.14859498
147	0x3f2038fe	0.62586963
148	0x3ee780b5	0.45215383
149	0xbfdedc89	-1.7411052
150	0xbd9242b4	-0.07141629
151	0xbd6b1d66	-0.057401083
152	0xbf4fd13e	-0.81178653
153	0x3e13c277	0.14429651
154	0xbf6b8a8e	-0.9200829
155	0x3dff7a3c	0.12474486
156	0xbc3c0eee	-0.011478169
157	0xbe335d3f	-0.1751604
158	0x3e878434	0.2646805
159	0xbf714bdd	-0.94256383
160	0xbdf87c6c	-0.121331066
161	0xbe7b55a1	-0.24544384
162	0xbf997380	-1.1988373
163	0x3fc55c0a	1.5418713
164	0xbf2afd6b	-0.66792935
165	0x3cc5ae0a	0.02413084
166	0x3d760ff1	0.060073797
167	0xbecda4fb	-0.40164933
168	0x3f22912b	0.6350276
169	0xbf2dc7b2	-0.67882836
170	0x3cae8157	0.021301908
171	0x3e004c74	0.12529165
172	0x3ec39f66	0.3820755
173	0x3ebecb2f	0.37264392
174	0xbe67b12d	-0.22626181
175	0x3e12bca9	0.1432978
176	0xbc6b1eba	-0.0143505875
177	0x3eab0ee9	0.33409813
178	0xbec5df89	-0.38647106
179	0xbf80488d	-1.0022141
180	0x3bdb9e79	0.006702241
181	0x3e1c05e9	0.1523663
182	0x3d7fac77	0.062420335
183	0x3f489595	0.78353244
184	0xbf076c88	-0.5289998
185	0x3d051e38	0.032499522
186	0x3bb9ed66	0.005674052
187	0xbfcbe98c	-1.5930648
188	0x3d4ffbee	0.05077737
189	0xbfaf6da9	-1.3705341
190	0xbbc66c08	-0.006055359
191	0xbc7a1156	-0.015262922
192	0xbd65c8a7	-0.05609956
193	0xbec5e9b8	-0.38654876
194	0xbf458166	-0.7715057
195	0x3d89ec65	0.06734542
196	0x3e4077e7	0.18795739
197	0x3d925975	0.07145969
198	0x3f8fa60a	1.1222546
199	0xc002192f	-2.032787
200	0x3b0be121	0.0021343904
201	0xbc9ce07f	-0.019150017
202	0xbf0b3e7c	-0.5439222
203	0xbe9d21b2	-0.3068977
204	0xbf415f85	-0.75536376
205	0x3e60b7cb	0.21945111
206	0xbe227005	-0.15863045
207	0xbe3119b1	-0.17294957
208	0x3fafc1fb	1.3731073
209	0xc01d94fb	-2.462218
210	0xbdcf5547	-0.10123687
211	0xbf62b14e	-0.88551795
212	0x3f7ac491	0.97956187
213	0x4024c537	2.574537
214	0xbfa36783	-1.2765964
215	0xbeb6ffc3	-0.35742006
216	0x3ea32887	0.31866857
217	0xbfa85d47	-1.3153466
218	0x3feb4f3e	1.8383558
219	0xbf4b61ee	-0.79446304
220	0x3ef27900	0.4735794
221	0x3d96ae15	0.07357422
222	0x3fa51df8	1.2899771
223	0x402ee520	2.7327347
224	0xbfc34322	-1.5254862
225	0xbefe1439	-0.49624804
226	0x3f7e8473	0.9942085
227	0xbed1fe81	-0.41014484
228	0x3f1182b0	0.5684004
229	0xbf80bf0e	-1.0058305
230	0x3dc5e134	0.09662095
231	0xbe99105e	-0.298953
232	0xbef2eb1a	-0.47444993
233	0x4031fb6f	2.7809713
234	0xc024d235	-2.57533
235	0x3d161dc0	0.036649466
236	0xbdc49e0f	-0.0960046
237	0xbf5b2de4	-0.856169
238	0x3ff4b07f	1.9116362
239	0xc0191137	-2.3916757
240	0xbed46a4a	-0.41487342
241	0xbea62eed	-0.32457677
242	0xbf3618d3	-0.7113163
243	0x401a07fa	2.4067369
244	0xc00380a7	-2.0547273
245	0xbd62afc8	-0.05534342
246	0xbe840eab	-0.2579244
247	0x3d793073	0.06083722
248	0xbf26b420	-0.651186
249	0xbfc62d33	-1.5482544
250	0x3d11f220	0.0356313
251	0x3d41b4bd	0.047291506
252	0x3e1d1c94	0.15342933
253	0xbfc7e95e	-1.5618093
254	0xbe520450	-0.20509458
255	0xbd7272fb	-0.059191685

w_agents.0.bias f4 [64]
0	0xbe927c59	-0.28610495
1	0xbf8c242e	-1.0948541
2	0xbf38da5c	-0.7220819
3	0xbf95cd04	-1.1703191
4	0xbf78b8da	-0.9715706
5	0xbdeac35a	-0.114630416
6	0xbf4607d8	-0.7735572
7	0xbf720c04	-0.94549584
8	0xbecb9e01	-0.39768985
9	0xbe4cf6ea	-0.20016065
10	0xbe1de26f	-0.15418409
11	0xbf538a7a	-0.82633173
12	0xbf884ea2	-1.0648997
13	0xbedd78e3	-0.43256292
14	0xbeb13e9e	-0.34618086
15	0xbf61c228	-0.88186884
16	0xbfc6345a	-1.5484726
17	0xbed15d52	-0.4089151
18	0xc0031390	-2.048069
19	0xbdea915b	-0.114535056
20	0xbfb3319c	-1.3999515
21	0xbf8876e3	-1.0661281
22	0xbf037635	-0.51352245
23	0xbe468012	-0.19384792
24	0xbce60c73	-0.028082108
25	0xbf238e31	-0.6388884
26	0xbeb04ac5	-0.34432045
27	0xbf5cc75e	-0.8624171
28	0xc00a9885	-2.165559
29	0xbfb9c44d	-1.4513031
30	0xbfa026e4	-1.2511868
31	0xbf6d91ab	-0.92800397
32	0xbee5defc	-0.44896686
33	0xbf5f387e	-0.87195575
34	0xbf04146d	-0.5159367
35	0xbf9773a5	-1.1832167
36	0xbf29185b	-0.6605279
37	0xbfd62780	-1.6730804
38	0xbe994f68	-0.29943395
39	0xbfe1447e	-1.7599027
40	0xbf3a2ba4	-0.7272284
41	0xc008f7c2	-2.140122
42	0xbfdbdf9c	-1.7177615
43	0xbf96873b	-1.1760019
44	0xbfe9a96d	-1.825483
45	0xbfcd216d	-1.6025826
46	0xc004cb88	-2.0749226
47	0xbfde053e	-1.734535
48	0xbfb6f0b2	-1.4292204
49	0xbfda88b5	-1.707297
50	0xbf7edd6e	-0.99556625
51	0xbeb0d4e4	-0.34537423
52	0xbe2a8fa0	-0.16656351
53	0x3dc57222	0.0964091
54	0xbde80188	-0.11328417
55	0xbfd7c531	-1.6857053
56	0xbf97189a	-1.1804383
57	0xbfc434b8	-1.5328588
58	0xbfdb8f0e	-1.7153032
59	0xbf66ac82	-0.90106976
60	0xbf152517	-0.5825972
61	0xbfc6e6d3	-1.5539192
62	0xbff28203	-1.8945926
63	0xbe5f3c9a	-0.21800461

w_agents.2.weight f4 [32, 64]
0	0x3bce950a	0.006304388
1	0xbd168c53	-0.036754917
2	0xbd450779	-0.04810283
3	0xbd61c4d3	-0.055119347
4	0xbdb7b2ab	-0.08969625
5	0x3b992b65	0.0046743625
6	0xbe032cc3	-0.12810044
7	0x3d81c95c	0.063372344
8	0x3d580e3f	0.05274796
9	0xbd8be612	-0.06830992
10	0xbceb0469	-0.028688626
11	0x3d2ba77c	0.041907772
12	0xbd8e2a04	-0.069416076
13	0x3d6ce439	0.057834838
14	0x3b69ce64	0.0035675997
15	0x3bf74cde	0.007547005
16	0xbda274e1	-0.07932449
17	0xbcb3820e	-0.0219126
18	0xbdd2e4c1	-0.102975376
19	0xbe2176ed	-0.15768023
20	0xbe40c09b	-0.18823473
21	0x3c080bc5	0.008303587
22	0xbe4ea3be	-0.2017965
23	0xbdbf1175	-0.093295015
24	0xbe1be23d	-0.15223022
25	0xbb50d5f3	-0.0031865805
26	0xbb9fb45a	-0.0048737945
27	0xbda6def8	-0.08147997
28	0xbdb9536e	-0.09049116
29	0x3d3fe581	0.04684973
30	0x3ca666f1	0.020312758
31	0xbce6d39c	-0.028177075
32	0xb890a038	-6.896298e-05
33	0xbddf0ae9	-0.10890753
34	0xbd2cfcc1	-0.042233232
35	0xbe1354ce	-0.14387819
36	0xbde15ab5	-0.11003629
37	0xbd88c6ca	-0.06678541
38	0xbe3844ba	-0.17994967
39	0xbd26ad77	-0.040692773
40	0xbd666558	-0.056248993
41	0xbd8a3292	-0.06747927
42	0x3d2d385c	0.042290077
43	0x3d222628	0.03958717
44	0x3d498eac	0.049208328
45	0x3cc5a1bd	0.024124974
46	0xbdbb239b	-0.091376506
47	0xbd07ca7b	-0.033152085
48	0xbdc93cf0	-0.09826076
49	0xbb1f21b5	-0.0024281566
50	0xbd8b128e	-0.067906484
51	0xbe0eed9a	-0.13957825
52	0xbcc7bf51	-0.024383219
53	0xbe052c5d	-0.13005204
54	0xbcf11649	-0.029429572
55	0xbdc66870	-0.096878886
56	0xbc669850	-0.0140744
57	0xbd500b15	-0.05079182
58	0xbda49e00	-0.080379486
59	0x3d7eedca	0.062238492
60	0x3beb78dd	0.007186039
61	0x3bba06bb	0.005677072
62	0xbdab5e8a	-0.08367641
63	0xbd9774cc	-0.07395324
64	0xc06a0e95	-3.65714
65	0xbed09382	-0.4073754
66	0xbf3455b7	-0.7044329
67	0xbfbac63b	-1.4591745
68	0xbef21379	-0.4728048
69	0xbf44faf1	-0.76945406
70	0xbf19150d	-0.59797746
71	0xbec4469c	-0.3833512
72	0x3dc4b90d	0.09605608
73	0xbe827972	-0.2548328
74	0xbe1f67ed	-0.15566988
75	0x3ce81eac	0.028334938
76	0xbf671fe6	-0.9028305
77	0xbdd67d28	-0.104730904
78	0x3e39c8a1	0.1814294
79	0xbdcef624	-0.10105541
80	0x3e5873a2	0.2113786
81	0xbec9e291	-0.3943067
82	0x3f94356b	1.1578802
83	0xbdf1c970	-0.11805999
84	0x3d06fc5c	0.032955512
85	0x3f18e63c	0.5972631
86	0xbe35a879	-0.17740048
87	0x3d836021	0.064148195
88	0xbd9ab393	-0.07553782
89	0xbde2ef0c	-0.11080751
90	0xbe19f115	-0.15033372
91	0xbdd9d61d	-0.10636542
92	0xbf6fbc39	-0.9364658
93	0xbf2dc438	-0.6787753
94	0xbdb6d9d1	-0.08928264
95	0xbe869633	-0.26286468
96	0xc022d715	-2.5443776
97	0xbde35178	-0.11099523
98	0xbe89ffb9	-0.26952913
99	0xbf481a5e	-0.78165233
100	0x397b55cf	0.00023969192
101	0x3ec187bb	0.37798867
102	0xbe98bf7c	-0.2983359
103	0x3f8118eb	1.0085729
104	0xbd2241c8	-0.039613515
105	0x3f1e93c6	0.61944234
106	0xbf7ba87e	-0.98303974
107	0xbe6a1816	-0.2286075
108	0x3e44d73b	0.19222729
109	0x3dc24813	0.09486403
110	0xbf2954dd	-0.66145116
111	0xbcb176d7	-0.021663113
112	0xbf7ea55a	-0.99471056
113	0xbf94d547	-1.1627587
114	0xbebc9635	-0.3683335
115	0xbe495180	-0.19659996
116	0xbe9c40dd	-0.30518237
117	0xbdcc139a	-0.09964676
118	0xbe4cdfc5	-0.20007236
119	0xbea58142	-0.32325178
120	0xbe1329a0	-0.14371347
121	0x3eb1f727	0.34758875
122	0xbf08f3d6	-0.53497064
123	0x3d8793de	0.0662
124	0x3e2aac67	0.16667329
125	0x3efe58de	0.49677175
126	0xbdf1ebc9	-0.118125506
127	0xbea3178f	-0.3185391
128	0xbe29e25a	-0.16590253
129	0xbdc7c281	-0.097538956
130	0xbdb59a73	-0.088673495
131	0x3d8940a8	0.06701785
132	0xbd964233	-0.07336845
133	0xbd80cbd4	-0.06288877
134	0xbded25ea	-0.11579497
135	0xbe1c1bb8	-0.15244949
136	0xbdea67db	-0.1144559
137	0x3d710fc4	0.058852926
138	0xbca0ad9a	-0.01961403
139	0xbd564d19	-0.05231962
140	0xbde24bc6	-0.11049609
141	0xbdcc5214	-0.09976593
142	0xbcb73ab5	-0.02236686
143	0xbc50a18a	-0.012733826
144	0xbdac0c32	-0.084007636
145	0xbe022c4b	-0.12712209
146	0x3cd3c9c9	0.025853055
147	0x3d63f5f3	0.055654477
148	0x3d0f1a10	0.034936965
149	0xbe11c236	-0.14234242
150	0x3cb5d94a	0.022198338
151	0xbda7d532	-0.08194961
152	0x3d002194	0.031282023
153	0xbd1f7ad4	-0.038935497
154	0xbe15b54c	-0.1461994
155	0xbcffa561	-0.031206788
156	0xbd49b78f	-0.04924732
157	0xbe3cb906	-0.18429956
158	0xbd9fcece	-0.07803117
159	0x3de6a57e	0.11262034
160	0xbdfc4ced	-0.1231936
161	0xbde66896	-0.11250417
162	0x3c88e782	0.016711954
163	0x3d6eddce	0.058317
164	0xbe4f2bcf	-0.20231555
165	0xbc86bbd7	-0.01644699
166	0xbda94ef1	-0.0826701
167	0x3b683676	0.0035432852
168	0xbdad8d41	-0.08474208
169	0xbc436b68	-0.011927463
170	0xbc4b4f16	-0.012408992
171	0xbd16b7cc	-0.036796376
172	0x3de0ee6a	0.10982974
173	0xbbacb0e3	-0.00527011
174	0xbd433432	-0.0476572
175	0xbcc8544a	-0.024454255
176	0xbc9208e9	-0.017826514
177	0xbc0543ff	-0.008133887
178	0x3c58c7ca	0.013231227
179	0x3c3224a5	0.010872995
180	0xbe00ae94	-0.12566596
181	0xbe0e20ce	-0.13879701
182	0xbe003f9e	-0.12524268
183	0x3bc1cb6e	0.0059141433
184	0xbc828357	-0.015931768
185	0xbd0c9bc3	-0.034328233
186	0x3b8d209d	0.0043068663
187	0xbc22eeda	-0.009944642
188	0xbca01738	-0.019542322
189	0x3d407bbc	0.046993002
190	0xbd065b20	-0.032801747
191	0x3c2ea38c	0.01065911
192	0xbe7c5324	-0.2464109
193	0xbe83fde5	-0.25779644
194	0xbe1a2b35	-0.15055545
195	0x3d1c4a4f	0.038156804
196	0xbd03a79f	-0.032142278
197	0x3d73f73d	0.059561957
198	0xbe512976	-0.20425972
199	0x3be1197f	0.0068694944
200	0xbe815baf	-0.25265262
201	0xbe7a6d45	-0.24455746
202	0xbe741e4c	-0.23839682
203	0xbd2cafe5	-0.042159934
204	0xbe289eec	-0.16466874
205	0xbe482251	-0.1954434
206	0xbe772463	-0.24134974
207	0x3cf5ff5a	0.030028988
208	0xbd1517ff	-0.036399838
209	0xbe88e64a	-0.26738197
210	0x3dc5a58c	0.09650716
211	0x3d332103	0.043732654
212	0x3d9cf29e	0.07663463
213	0xbe3fe4a1	-0.18739559
214	0xbd8b65f5	-0.06806556
215	0xbe29ea39	-0.16593255
216	0xbdc48fcf	-0.09597742
217	0xbdaa7399	-0.0832283
218	0xbe1af86b	-0.15133826
219	0xbe0673c3	-0.13130097
220	0x3d881804	0.066452056
221	0xbe27a661	-0.16372062
222	0x3d9d2599	0.07673187
223	0xbe05303c	-0.13006681
224	0x3e057b65	0.13035353
225	0xbe65cf28	-0.22442305
226	0xbdf02e51	-0.11727584
227	0xbe215dba	-0.1575841
228	0x3a3c0097	0.0007171719
229	0xbcd24fd3	-0.025672829
230	0xbe32efea	-0.17474332
231	0xbdb3f936	-0.087877676
232	0xbe04b585	-0.12959869
233	0x3df33f26	0.11877279
234	0xbdbfce6b	-0.09365543
235	0xba9f287f	-0.0012142806
236	0x3e270589	0.16310705
237	0x3db7186c	0.08940205
238	0xbd2d3659	-0.042288158
239	0xbc1880fe	-0.009308098
240	0xbe663a49	-0.22483172
241	0xbe72fffe	-0.23730466
242	0xbe99e40b	-0.30056795
243	0xbd04e41b	-0.0324441
244	0xbe8a4a8f	-0.2701001
245	0xbdda4d98	-0.10659331
246	0xbd83e695	-0.064404644
247	0xbddcf0b3	-0.10788097
248	0xbcc8eae5	-0.024526069
249	0xbd06c227	-0.0329
250	0xbd056b78	-0.032573193
251	0xbe0ea64d	-0.13930626
252	0xbda03bd0	-0.07823908
253	0x3e2abd80	0.16673851
254	0xbe2e309b	-0.17010729
255	0xbd32e42e	-0.04367464

w_agents.2.bias f4 [32]
0	0xbe48b819	-0.19601478
1	0xbf2f27a3	-0.68419856
2	0xbe2534bb	-0.16133396
3	0xbea4d432	-0.32193142
4	0xbe2f2358	-0.17103326
5	0xbf35da8a	-0.7103659
6	0xbe4c9a7e	-0.19980809
7	0xbef293c1	-0.47378352
8	0x3df08be6	0.117454335
9	0xbe9047d8	-0.28179812
10	0xbc9a2a2b	-0.018818935
11	0xbee442c3	-0.44582185
12	0xbf05170b	-0.51988286
13	0xbf1ec6c4	-0.6202204
14	0xbe0ed106	-0.13946924
15	0x3bd8f096	0.006620477
16	0xbe39b761	-0.1813636
17	0xbf082286	-0.5317768
18	0xbe3b0a3e	-0.18265626
19	0xbed850c0	-0.42249107
20	0xbe8ca0f0	-0.27466536
21	0x3deaf2e3	0.11472108
22	0xbfb55aaf	-1.41683
23	0xbe7ee7c0	-0.24893093
24	0xbf0aae72	-0.5417243
25	0xbe0fc950	-0.14041638
26	0xbe187641	-0.1488886
27	0xbcbfc85f	-0.023410974
28	0x3deb84f7	0.114999704
29	0xbee3b08a	-0.44470626
30	0x3e442534	0.19154817
31	0x3d5b861a	0.053594686

Ws.0 f4 [32, 32]
0	0xbeebefd4	-0.46081412
1	0xbedf6120	-0.43628788
2	0x3f1597e0	0.5843487
3	0x3f795a06	0.9740299
4	0xbf769648	-0.9632306
5	0xbcb44253	-0.022004282
6	0xbf6c9948	-0.9242139
7	0xbea614c9	-0.32437733
8	0xbfb43bdf	-1.4080771
9	0x3fa929ee	1.3215921
10	0x3f9ce860	1.2258415
11	0x3d55147e	0.052021496
12	0x3fcb7d97	1.5897702
13	0x3f379a82	0.71720135
14	0x3f2ef3da	0.6834084
15	0x3df6c325	0.120489396
16	0x3ec3005a	0.38086206
17	0x3d80bad6	0.06285636
18	0xbe8d0e17	-0.27549812
19	0x3f822672	1.0167983
20	0xbf03c079	-0.51465565
21	0xbf0e30f8	-0.5554347
22	0x3e16ad1e	0.14714476
23	0x3f4dfe0c	0.8046577
24	0xbf2d3b40	-0.67668533
25	0xbfc73e16	-1.5565822
26	0xbf9aefa8	-1.2104387
27	0x3f7dc359	0.991262
28	0x3f84fbe5	1.0389372
29	0x40032a57	2.0494592
30	0x3f507b20	0.81437874
31	0xbee7badb	-0.45259747
32	0xbde86775	-0.11347858
33	0x3f459d5c	0.77193236
34	0xc01223ef	-2.2834432
35	0x3ee4e411	0.4470525
36	0xc00c9bb5	-2.1970036
37	0x3e035ef5	0.12829192
38	0xc0203404	-2.5031748
39	0x3fd7e036	1.6865299
40	0xbf46d338	-0.77666044
41	0xbf043d88	-0.5165639
42	0xbe966efc	-0.2938155
43	0xc04fc40d	-3.246341
44	0xbdd6871d	-0.104749896
45	0xbfd2c650	-1.646677
46	0xbf732a0a	-0.9498602
47	0xbfec4376	-1.8458087
48	0x3f3bade3	0.73312205
49	0xbfc8079e	-1.5627325
50	0xbfbd585c	-1.479259
51	0xc061e25c	-3.5294409
52	0xbedc3539	-0.43009356
53	0xbf08b115	-0.53395206
54	0x3f2ea341	0.68217856
55	0x3d714b0d	0.058909465
56	0xbe465c18	-0.19371068
57	0xbf9df4ec	-1.2340369
58	0x3f0b9473	0.5452339
59	0xbfc0cd4b	-1.506265
60	0x3f0eb501	0.5574494
61	0x3fa9cb65	1.3265196
62	0x3f2385a9	0.63875824
63	0x3fa370b1	1.2768766
64	0x3f8888ed	1.0666786
65	0x400651eb	2.0987499
66	0xbe113188	-0.14179051
67	0xbfd0748b	-1.6285566
68	0x3fcfd7e0	1.6237755
69	0xbfd5b48e	-1.6695726
70	0x3eb2e80d	0.34942666
71	0x3fe30a7e	1.7737577
72	0xbe95e12f	-0.29273364
73	0x3f8d6b09	1.104829
74	0xc037950d	-2.8684723
75	0xc0046bda	-2.0690827
76	0x3f0f01d9	0.55862194
77	0xbe72e2ca	-0.23719326
78	0x3e2d8a54	0.16947299
79	0x3fe9ea34	1.8274598
80	0x3f0a23cc	0.5396087
81	0xbff62afc	-1.9231868
82	0x3fed7fd5	1.8554636
83	0x3fb839ed	1.4392678
84	0x3ec7521e	0.38929838
85	0x3fac2b8e	1.3450792
86	0xbf44ad95	-0.76827365
87	0xbf16e5ab	-0.58944196
88	0xc0963dce	-4.6950445
89	0xc00dffce	-2.218738
90	0xbf5f0b7f	-0.87126917
91	0x3ff540f2	1.9160445
92	0xbe672aad	-0.22574873
93	0x3f0d2a4c	0.55142665
94	0xc1005418	-8.020531
95	0x3fa98053	1.3242286
96	0xbf9d6452	-1.229624
97	0x3e03dfee	0.12878391
98	0x3d4dbf21	0.050231103
99	0x3fd390ea	1.6528599
100	0xbff28e43	-1.8949665
101	0x3f86b781	1.0524751
102	0xbe998681	-0.2998543
103	0x3e5600b7	0.2089871
104	0x3dd62119	0.104555316
105	0xbf84b52d	-1.036779
106	0x3e935ffd	0.2878417
107	0x3e9a1307	0.30092642
108	0xbf03ee0f	-0.51535124
109	0xbe867885	-0.26263824
110	0x3f20967d	0.62729627
111	0xbef066eb	-0.4695352
112	0xbf05320b	-0.52029485
113	0x3fdfbc25	1.7479292
114	0xbf013ebe	-0.5048636
115	0x3f9befba	1.2182534
116	0xbff84a8b	-1.9397749
117	0xbfb15433	-1.385382
118	0x3f5589c3	0.8341333
119	0x3cb839c5	0.022488484
120	0x3e68f710	0.22750497
121	0x3fab787a	1.3396142
122	0x3fd0836a	1.6290104
123	0x3e9a5741	0.30144694
124	0x3e5340ee	0.20630237
125	0xbff00401	-1.8751222
126	0x3f7b8fb0	0.98266125
127	0x3f1ee7be	0.6207236
128	0x3f248cf9	0.6427761
129	0xbf3d8e07	-0.7404484
130	0xbe4904b5	-0.19630702
131	0xc006d315	-2.1066334
132	0xbf112506	-0.5669712
133	0x3faa1292	1.3286917
134	0xbdbc915b	-0.09207412
135	0x3e90a1a3	0.2824832
136	0x3ea9e60c	0.33183324
137	0x3f34c512	0.70613205
138	0x3e195481	0.14973642
139	0x3f0758c2	0.5286981
140	0x3ec316dd	0.3810338
141	0x3ead23dc	0.3381642
142	0x3e8475e4	0.25871193
143	0xbf128962	-0.5724088
144	0x3f074f0a	0.5285498
145	0x3f212b08	0.62956285
146	0x3d013d7e	0.031552784
147	0xbf59a2cb	-0.8501403
148	0x3e02d667	0.127771
149	0xbed5a713	-0.4172903
150	0xbfdde7a4	-1.7336316
151	0xbdaab98e	-0.08336173
152	0x401fe4b2	2.4983335
153	0x3f2c2465	0.67243034
154	0xbf2ca7a3	-0.67443293
155	0xbfd5e746	-1.6711204
156	0xbf84412a	-1.0332386
157	0x3f8a2c91	1.079485
158	0x3f18dad2	0.59708893
159	0xbf5cfedd	-0.8632639
160	0xc042ec6a	-3.0456796
161	0xbea1dc0f	-0.31613204
162	0x3fbe44c3	1.4864734
163	0xc0b514a6	-5.6587706
164	0xbeab050a	-0.33402282
165	0xbfd686d8	-1.6759901
166	0xc046031d	-3.09394
167	0xbff32f1d	-1.8998753
168	0x3f3dbbf5	0.74114925
169	0x3fcf2d43	1.6185688
170	0xbf1f3109	-0.62184197
171	0xbf3cdcfb	-0.7377469
172	0xbc3f9024	-0.011692081
173	0x3e54f151	0.2079518
174	0x3f243228	0.6413903
175	0x3fa8e62d	1.3195244
176	0xc05ac75d	-3.4184182
177	0x3f02f8d7	0.5116095
178	0x3fa3d4bd	1.2799298
179	0x3f5621e5	0.8364547
180	0x3e360625	0.17775781
181	0xbfc4d0f7	-1.5376271
182	0xc0100979	-2.2505782
183	0xc00093e9	-2.0090277
184	0x3e8fc076	0.28076524
185	0xbdf07bb8	-0.117423475
186	0xbfedc95e	-1.8577077
187	0xbf2281e5	-0.63479453
188	0xbf750821	-0.9571553
189	0x3e81a81a	0.25323564
190	0xc0500ece	-3.2509036
191	0xbf4e37e3	-0.80554026
192	0x4001c71d	2.027778
193	0xc089eaea	-4.309926
194	0xc01cd973	-2.450772
195	0xc01b6478	-2.4280071
196	0xbfd8b767	-1.693097
197	0xc0c61f46	-6.1913176
198	0xbea74761	-0.32671645
199	0xbf88a832	-1.0676329
200	0x3ff4b306	1.9117134
201	0x3f5682f6	0.8379358
202	0xbe5669ce	-0.20938799
203	0x3e411765	0.1885658
204	0x3fcf0699	1.6173888
205	0xc0180507	-2.3753068
206	0x3f9afc8e	1.2108324
207	0x3eed08d8	0.4629581
208	0x401e0429	2.469004
209	0x3fbe0ae6	1.4847076
210	0x3f03b3a4	0.51445985
211	0x40125a44	2.2867594
212	0x3f00caba	0.50309336
213	0x3fa2b52e	1.2711542
214	0x3f54aaa6	0.8307289
215	0xc0a347f9	-5.1025357
216	0xbfbf19f8	-1.49298
217	0xc07aaf4c	-3.9169493
218	0xbe3b7bca	-0.1830894
219	0xc045d90c	-3.0913725
220	0xbddc48e7	-0.107560925
221	0xbf3fdb60	-0.74944115
222	0xbfec415f	-1.845745
223	0xc02f226d	-2.7364762
224	0xbe7ebb7d	-0.24876209
225	0x3cb1af23	0.021689957
226	0xbed03395	-0.40664354
227	0x3f139469	0.5764833
228	0x3e3f05df	0.18654583
229	0xbfef255f	-1.868328
230	0x3d543685	0.051809806
231	0xbffa8c69	-1.95741
232	0xbd2648ec	-0.040596887
233	0x3f2923f2	0.66070473
234	0xbf1adf36	-0.6049684
235	0xbebe568e	-0.3717541
236	0x3ee93de5	0.45555034
237	0x3f05b40a	0.5222784
238	0x3f7bb1ab	0.98317975
239	0xbe1285da	-0.14308873
240	0xbf85b99e	-1.0447271
241	0x3f309c7f	0.68988794
242	0xbf82e90f	-1.0227374
243	0x3c064e6e	0.00819741
244	0xc048266f	-3.1273458
245	0xbfdc95ef	-1.7233256
246	0x3ff7ea1e	1.9368322
247	0xbfc842a9	-1.5645343
248	0xc0110fd5	-2.2665913
249	0x3d726e52	0.05918724
250	0x3e592c59	0.21208324
251	0xbdbb7f31	-0.09155119
252	0xbee061c9	-0.43824604
253	0xbe7d4bda	-0.24735966
254	0x3fc92aac	1.5716147
255	0x3f834e91	1.0258352
