data-6/rl_model_2.pth (torch_old, 93650 bytes, 18 tensors)

w_a f4 [32, 32]
0	0xc047b470	-3.120388
1	0xbf8d1a6f	-1.1023692
2	0x3fff264b	1.9933561
3	0xbf097e3f	-0.5370826
4	0xbe9976f3	-0.29973564
5	0xbfa53366	-1.290631
6	0xc0553e2f	-3.3319204
7	0x409027b9	4.504849
8	0xbdd97650	-0.106182694
9	0xbfb4ca62	-1.4124262
10	0xc049ebbc	-3.155013
11	0x3fdc5d0e	1.7215898
12	0xbf76837e	-0.9629439
13	0x3ff51482	1.9146883
14	0x3f2d017e	0.675804
15	0xc06189cf	-3.5240362
16	0xc04057ca	-3.0053582
17	0xbe366577	-0.17812143
18	0xc0378101	-2.8672488
19	0xc01bae2f	-2.4325063
20	0xc055dedd	-3.3417275
21	0xc017723a	-2.3663468
22	0xc0659c77	-3.5876749
23	0xbf2a96d3	-0.6663639
24	0x40323853	2.7846878
25	0xbfef0a86	-1.8675086
26	0x4015fcc9	2.3435538
27	0xbf300500	-0.6875763
28	0x3e171116	0.14752612
29	0xc021c5ee	-2.5277057
30	0xc064cdb1	-3.5750544
31	0x402f8ae1	2.7428515
32	0xc06ff956	-3.7495933
33	0x400a05ca	2.1566033
34	0xbced73f9	-0.028985964
35	0xbf09b5e2	-0.53793156
36	0x3f0272ec	0.50956607
37	0xc00cf7e8	-2.202631
38	0x3f98c101	1.19339
39	0x3f55dfc2	0.8354455
40	0xbf1fd697	-0.62436813
41	0x3eff0418	0.4980781
42	0x3f983525	1.1891218
43	0xbeb7a0f2	-0.3586498
44	0x40182948	2.3775196
45	0x3fd37b13	1.6521934
46	0xc01bcef0	-2.4345055
47	0xbe824270	-0.25441313
48	0x3f3d959b	0.74056405
49	0x3f842c44	1.0326009
50	0x3f2755c4	0.6536524
51	0x3f9814ac	1.1881309
52	0x3e56ca6c	0.20975655
53	0xc07fbe29	-3.9959815
54	0xc007bf10	-2.1210365
55	0x3f3236ea	0.6961504
56	0xbe67f9e3	-0.22653918
57	0xbf6dcc29	-0.9288965
58	0x3cc24089	0.023712413
59	0x3fc68511	1.5509359
60	0x3f25cac0	0.64762497
61	0x3e8fee1e	0.28111356
62	0xbefe4db0	-0.49668646
63	0x3fe09cc0	1.7547836
64	0xbf7e0680	-0.9922867
65	0xbf19a47f	-0.60016626
66	0x3f4eedd9	0.80831677
67	0xc0422e5b	-3.0340793
68	0xbfe3fe73	-1.7812027
69	0xc03336a7	-2.8002107
70	0x3f8195d5	1.012385
71	0xbf06b57c	-0.52620673
72	0x3fcc9fcf	1.598627
73	0x4025a996	2.5884757
74	0xbfb4512d	-1.4087273
75	0xbf1a7f26	-0.60350263
76	0xbfd38b8e	-1.6526964
77	0xc0591f2d	-3.3925278
78	0xbf76fbd0	-0.96477985
79	0xbf23bc23	-0.6395895
80	0xc0120f8a	-2.2821984
81	0xbf9768dc	-1.1828876
82	0xbf254947	-0.6456494
83	0xbea8385a	-0.32855493
84	0x3f98b873	1.193129
85	0xc037a6f4	-2.869565
86	0xbc2b01db	-0.010437454
87	0xbfb73fbd	-1.4316326
88	0x3eeb9d97	0.4601867
89	0xbeacc94d	-0.3374733
90	0xbf4d6ccf	-0.80244154
91	0x3fdacbfc	1.7093501
92	0xbf415dc1	-0.7553368
93	0xbf6fd95d	-0.93691045
94	0xbfbac09e	-1.4590032
95	0x4002d81d	2.0444405
96	0xc08d4479	-4.4146085
97	0x3ed0b94a	0.40766364
98	0x3feffb7e	1.8748624
99	0xc00bd191	-2.184666
100	0x3e552955	0.20816548
101	0x3e46a114	0.19397384
102	0xbf722de3	-0.9460127
103	0x3f2936d6	0.660993
104	0xbf062e22	-0.52414143
105	0xbfe0ca16	-1.7561672
106	0xbef52194	-0.4787718
107	0x3fa04ff0	1.2524395
108	0x3f9299c4	1.1453176
109	0x3ee9f4a2	0.45694453
110	0xbfe16aed	-1.7610756
111	0xc01c2cd8	-2.440237
112	0xc086242e	-4.1919165
113	0xbf1379e4	-0.57607865
114	0xbfc59118	-1.5434904
115	0x3fa7c40a	1.3106701
116	0x3e2cde61	0.16881706
117	0xc00f57e8	-2.2397404
118	0xbfeb02a9	-1.8360187
119	0xc02b0bbf	-2.672592
120	0x401334df	2.300102
121	0x3e6204f2	0.22072199
122	0xbe9f4c3f	-0.3111286
123	0x3dede67c	0.11616227
124	0x3f881ca0	1.0633736
125	0x4039e1ce	2.904407
126	0xbf58db14	-0.84709287
127	0x3fac28be	1.3449934
128	0xbedccc2b	-0.43124518
129	0xbe5434ea	-0.2072331
130	0xc000e7a0	-2.0141373
131	0xbec0cf6a	-0.37658244
132	0xc03f0ae9	-2.985041
133	0x3f5c2fef	0.8601064
134	0x3fac7ad3	1.3474983
135	0xc0111bf8	-2.267332
136	0xbf86ec97	-1.0540951
137	0x3f130495	0.57428867
138	0x3fffb28a	1.9976361
139	0xbfa954d5	-1.3229014
140	0x3ee194f8	0.44058967
141	0xbfbe6f56	-1.4877727
142	0x3dd76934	0.10518113
143	0xbf85b4e8	-1.0445833
144	0xbf80bba3	-1.0057262
145	0xbd32662f	-0.04355448
146	0xbed0096c	-0.40632188
147	0x3e19d72a	0.15023485
148	0x3ec1593d	0.37763396
149	0xbe00e234	-0.1258629
150	0xbfed8f49	-1.8559352
151	0xbfbf5757	-1.4948529
152	0x3fa2b5b4	1.2711701
153	0x3fd161cf	1.6357974
154	0xbfa7f500	-1.3121643
155	0x40870509	4.2193646
156	0x3fc101b2	1.5078642
157	0x3eba1205	0.36341873
158	0x40233d7e	2.5506282
159	0xbfd83ae0	-1.6892967
160	0xc0437eb8	-3.0546093
161	0xbf2ffbc7	-0.68743557
162	0x3f094316	0.5361799
163	0x3f9b0246	1.2110069
164	0xbee64a83	-0.44978723
165	0x3c16aa2c	0.009195846
166	0x3f81e3f6	1.0147693
167	0x3eb80ea4	0.3594867
168	0xbed50d1e	-0.4161157
169	0x3faf45f2	1.3693221
170	0xbeacdbbd	-0.33761397
171	0xbc3c5f95	-0.011497398
172	0x3fa60eb0	1.2973232
173	0x3da86550	0.08222449
174	0xbe25da0e	-0.16196463
175	0xbf81d2b2	-1.0142424
176	0x3f1244e3	0.5713636
177	0x3f9d39df	1.2283286
178	0x3f864883	1.0490879
179	0xbf2ef9fc	-0.68350196
180	0xbec1b53f	-0.37833592
181	0x401d4a89	2.4576743
182	0xbf6cc547	-0.9248852
183	0xbfacc447	-1.3497399
184	0x4039d30d	2.9035065
185	0x3d1c854a	0.03821305
186	0x3f204fbf	0.6262168
187	0xbeebb0e2	-0.46033388
188	0x3e1391e9	0.14411129
189	0x3dbdbd59	0.09264631
190	0x3f331e6c	0.69968295
191	0xbdd1bcbd	-0.10241077
192	0xbfeebfb5	-1.8652254
193	0xbfa287b9	-1.2697669
194	0x3e13837a	0.14405623
195	0xc02222ed	-2.5333817
196	0xc00f3ec4	-2.238206
197	0x3e4df692	0.2011359
198	0xbfe460bf	-1.7842025
199	0xbfe07d29	-1.7538196
200	0x3c2c5612	0.010518568
201	0xbfe4c061	-1.7871209
202	0xbf90b8f6	-1.1306446
203	0x3e8df70a	0.27727538
204	0xbf1bac0f	-0.60809416
205	0x3f0f2280	0.5591202
206	0xbdfdbbd1	-0.12389339
207	0x3fedf966	1.8591735
208	0xc0803874	-4.0068913
209	0x3faeec7c	1.3665919
210	0xbf47fb09	-0.78117424
211	0xbea5f795	-0.32415453
212	0x3de260d1	0.110536225
213	0xc00bc1d4	-2.1837053
214	0xc009f753	-2.1557205
215	0xc078e620	-3.8890457
216	0xbf8c763d	-1.0973583
217	0xbe790540	-0.24318409
218	0xbe69520c	-0.22785205
219	0xbf07cb81	-0.530449
220	0xbf6f4a3a	-0.93472636
221	0x3f909d3a	1.1297982
222	0x3f3682ac	0.7129314
223	0x3e9c6092	0.30542427
224	0xbf464fc4	-0.7746546
225	0x40243813	2.5659225
226	0xbdc3b2e7	-0.09555607
227	0x3fa569e1	1.2922937
228	0xbe36dfaa	-0.17858759
229	0x3f762dea	0.9616381
230	0xbfac4e59	-1.346141
231	0xbd7d1167	-0.061784174
232	0x3fc55faa	1.5419819
233	0xbce396e6	-0.027781915
234	0xc00055f1	-2.0052454
235	0x3f37290d	0.71547014
236	0xbefcabca	-0.49349815
237	0x3f51c8b1	0.81946856
238	0x3f1488cc	0.58021235
239	0xbf7a1ed9	-0.9770332
240	0xbee29cb4	-0.4426018
241	0x3f8b3452	1.0875342
242	0xc0300f54	-2.7509356
243	0xbf2a9c62	-0.6664487
244	0xbfd0ee90	-1.6322803
245	0xbfe95b8a	-1.823106
246	0x3f4b2d74	0.7936623
247	0xbf1c78bf	-0.61121744
248	0x3fee6960	1.8625908
249	0xbfc762b2	-1.5576994
250	0x3fcb25dd	1.587093
251	0xbf5fd15b	-0.87428826
252	0xbf61d32f	-0.88212866
253	0xbfcfac1a	-1.6224396
254	0x3ef7b880	0.4838295
255	0x40384d65	2.8797238

w_group.0.weight f4 [64, 8]
0	0xbd3b7056	-0.04576143
1	0x3cb3b03c	0.021934621
2	0x3e67ea1d	0.22647901
3	0xbe8f64fb	-0.2800673
4	0xbeb12b91	-0.3460355
5	0x3d0f1100	0.03492832
6	0xbdad07a4	-0.08448723
7	0x3cd43ff9	0.02590941
8	0xbf286fca	-0.65795577
9	0xbf386f22	-0.72044575
10	0xbfa699f0	-1.3015728
11	0x3ad85c86	0.0016507066
12	0xbe80d074	-0.25159037
13	0xbe5ed4a5	-0.21760805
14	0xbf670db5	-0.9025529
15	0xbf807de7	-1.0038422
16	0xbf3ff158	-0.74977636
17	0xbe1e07af	-0.15432619
18	0xbef117fa	-0.47088605
19	0xbeaef311	-0.3416982
20	0xbe9d0a4a	-0.30671912
21	0xbe91eb34	-0.28499758
22	0xbf259d11	-0.6469279
23	0xbf63d879	-0.89002186
24	0xbfd5bc5e	-1.669811
25	0x3f7996c8	0.974957
26	0x3f1bb819	0.60827786
27	0xc05b24be	-3.4241176
28	0x3e9eb9db	0.3100117
29	0x3e66043e	0.22462556
30	0xbf514945	-0.81752425
31	0xbe867b91	-0.2626615
32	0xbdb3e8a2	-0.087846056
33	0xbd004be5	-0.03132238
34	0x3f1f9ffc	0.6235349
35	0x3ebd795e	0.37006658
36	0x3ca5a18c	0.020218633
37	0x3e27005a	0.16308728
38	0xbe6bc9e7	-0.23026238
39	0xbeae7b84	-0.3407861
40	0x3f18383c	0.59460807
41	0xbe576878	-0.21035945
42	0xbf959de4	-1.1688809
43	0xbf452e05	-0.77023345
44	0xc03041d8	-2.7540188
45	0x3e8e4c17	0.27792427
46	0x3ef0509d	0.46936503
47	0xbc7148f6	-0.014726868
48	0xbfdd1ad9	-1.7273818
49	0x3ed8a4fd	0.42313376
50	0xbff0ddcf	-1.8817691
51	0x3f988dab	1.1918234
52	0xbf293c70	-0.66107845
53	0xbe23808e	-0.15967008
54	0xbf75ed68	-0.9606538
55	0xbf34286a	-0.70374167
56	0xbf9c03d8	-1.2188673
57	0x3edd5b71	0.43233827
58	0x4043fd27	3.0623262
59	0xc01d1b08	-2.4547749
60	0x3f015ee5	0.5053542
61	0xbe5aa126	-0.21350536
62	0xbe0561cb	-0.13025586
63	0xbf16483c	-0.5870397
64	0xbdf6f3f8	-0.12058252
65	0x3e21678b	0.15762155
66	0xbee62aa0	-0.44954395
67	0x3ee00972	0.43757206
68	0xbec64602	-0.38725287
69	0xbe5e8a28	-0.2173239
70	0xbeb4a23e	-0.3528003
71	0xbec9caa5	-0.39412418
72	0xbca07717	-0.019588036
73	0xbe9685f7	-0.29399082
74	0xbfa02ff6	-1.2514637
75	0xbf9adb1f	-1.209812
76	0x3eee332a	0.4652341
77	0x3dfd21d8	0.12359971
78	0xbf181164	-0.59401536
79	0xbf4ca151	-0.7993365
80	0x4007725f	2.1163557
81	0x3e4452c9	0.19172205
82	0x3d3f0157	0.046632137
83	0x3fd75f23	1.6825908
84	0xc002e5b3	-2.0452697
85	0xbdb347c4	-0.087539226
86	0xbe37d1d2	-0.17951134
87	0xbe0e096a	-0.13870779
88	0xbe9f1a42	-0.3107472
89	0x3e8ce031	0.27514794
90	0x3dcd57bf	0.10026502
91	0xbf06b65a	-0.52621996
92	0xbf145e25	-0.57956153
93	0x3d1a4940	0.037667513
94	0xbf568ec8	-0.83811617
95	0xbf3cc196	-0.7373289
96	0x4017b6ea	2.3705392
97	0xbf23a1d7	-0.63918823
98	0x40467c04	3.1013193
99	0xbfd2e827	-1.6477097
100	0x3cdc08f4	0.026859738
101	0xbe43c976	-0.1911982
102	0xbefc5739	-0.49285296
103	0xbf502336	-0.8130373
104	0x3fab6e3e	1.3393018
105	0x3fe3e4b9	1.7804176
106	0x40169962	2.3531117
107	0x3f06855e	0.5254725
108	0xbde36a17	-0.111042194
109	0xbcfc6630	-0.030810446
110	0xbf0cf773	-0.5506508
111	0xbf203c65	-0.62592155
112	0xbdefeea9	-0.11715443
113	0xbea55282	-0.3228951
114	0x3efda480	0.49539566
115	0x3f99d276	1.2017353
116	0xbeb9a8c8	-0.36261582
117	0xbe2289aa	-0.15872827
118	0xbf156829	-0.5836206
119	0xbf44ed0d	-0.7692421
120	0x3fbca853	1.4738868
121	0xbea388d7	-0.31940338
122	0xc0104d0a	-2.254702
123	0xc03163f8	-2.7717266
124	0xbf80c436	-1.0059879
125	0x3e3be2de	0.18348262
126	0xbf6b7103	-0.9196932
127	0xbf8d28be	-1.1028059
128	0x3fef04ee	1.867338
129	0xbe87ffe3	-0.26562414
130	0xc03ce085	-2.9512036
131	0x3eec750a	0.46183044
132	0x3f253f2a	0.64549506
133	0xbea38679	-0.31938532
134	0xbea95efa	-0.33080274
135	0xbece0314	-0.40236723
136	0xbe80ddd6	-0.25169247
137	0x3edeb227	0.43495294
138	0xbf5babe3	-0.85809153
139	0xbf2a57f4	-0.66540456
140	0xbfcf997a	-1.6218712
141	0xbdc829c0	-0.09773588
142	0xbf3f8a19	-0.74820095
143	0xbf266a14	-0.6500561
144	0xbcbddc96	-0.023176473
145	0x3cdc8a6e	0.026921477
146	0xbef9389a	-0.48675996
147	0x3e2204ab	0.15822093
148	0xbf9d9b3b	-1.2312998
149	0xbb546d80	-0.00324139
150	0xbd861a9d	-0.06548045
151	0xbe36a436	-0.17836079
152	0xbcdcc159	-0.026947664
153	0xbca1f0fb	-0.019768229
154	0x3e6b4e69	0.2297913
155	0x3ec26e56	0.37974805
156	0x3eea1d2a	0.45725375
157	0x3e6222aa	0.22083536
158	0xbea351ad	-0.3189825
159	0xbe8799ee	-0.26484627
160	0xc0239c03	-2.5563972
161	0xbf9b083a	-1.2111886
162	0x3ee5cd58	0.44883227
163	0xbeb52ccd	-0.35385743
164	0xbf5a193a	-0.8519474
165	0x3e2d45f6	0.16921219
166	0xbeeef93d	-0.4667453
167	0xbf3b3e82	-0.73142254
168	0xbe7a70f5	-0.24457152
169	0xbec2253c	-0.37919033
170	0xbe13fc00	-0.14451599
171	0xbded4f83	-0.11587431
172	0xbf1f67da	-0.6226784
173	0xbdd9fefc	-0.106443375
174	0xbf447386	-0.76738775
175	0xbf5e858e	-0.8692254
176	0x3e6a3eb7	0.22875486
177	0xbd901def	-0.070369594
178	0x3f9f6152	1.2451575
179	0xbf919ace	-1.1375368
180	0xbfc4ac22	-1.5365031
181	0xbea46593	-0.32108745
182	0xbe30caef	-0.17264913
183	0xbee74e44	-0.451769
184	0x3fa6d26b	1.3032964
185	0x3f8b0928	1.0862169
186	0xbf9b281d	-1.2121617
187	0xc020109f	-2.5010145
188	0xbe0a0a86	-0.13480577
189	0x3e4039a2	0.18771985
190	0xbf39b431	-0.72540575
191	0xbefaa5b6	-0.48954552
192	0x40961b14	4.6908054
193	0xbe49402a	-0.19653383
194	0x3f5eef8e	0.8708428
195	0xbe3e4f12	-0.1858485
196	0xbf722f13	-0.9460308
197	0x3e951b47	0.29122373
198	0x3e531098	0.20611799
199	0x3d9c7717	0.07639902
200	0x3e2b7444	0.1674357
201	0xbe763d7c	-0.24046892
202	0x3f69f00f	0.91381925
203	0x3eb27b9e	0.34859937
204	0xbf0d231d	-0.55131704
205	0x3d686ed8	0.056746334
206	0xbf097bd3	-0.53704566
207	0xbed7f6b5	-0.4218041
208	0x3e60a580	0.21938133
209	0x3e1611ee	0.14655277
210	0x3f25bb31	0.64738756
211	0x3f3e1dd2	0.7426425
212	0xbed75c25	-0.42062488
213	0x3e5ab78e	0.21359083
214	0xbf02132d	-0.5081051
215	0xbe2d3125	-0.16913278
216	0x3fa5727a	1.292556
217	0x3fa50f94	1.2895379
218	0x3f434713	0.76280326
219	0x3e9f61ad	0.31129208
220	0xbe8b22cd	-0.27174988
221	0xbc506fe0	-0.012721986
222	0xbd49e33f	-0.049288984
223	0x3eb9bdfc	0.3627776
224	0xbef99f80	-0.487545
225	0xbf339674	-0.7015145
226	0xbe537817	-0.2065128
227	0xc03518eb	-2.8296459
228	0x3e8c8e39	0.27452257
229	0xbeb10e23	-0.34581098
230	0xbf1948cc	-0.59876704
231	0xbf3704e7	-0.71491855
232	0xbed1aba3	-0.4095126
233	0xbeafcbef	-0.34335276
234	0x3f440ae9	0.7657915
235	0xbf86e9d1	-1.0540105
236	0xbf82e36b	-1.0225652
237	0x3e45bf62	0.19311288
238	0xbf3d2124	-0.73878694
239	0xbf43a999	-0.7643066
240	0xbf20a204	-0.62747216
241	0x3e01f3fd	0.1269073
242	0xbf475297	-0.778604
243	0xc0934038	-4.601589
244	0xbd8c3ac6	-0.06847148
245	0xbe05feec	-0.13085526
246	0x3d1acc48	0.037792474
247	0x3d067a4b	0.03283147
248	0x3f310dea	0.69161856
249	0xbf3a01ec	-0.7265918
250	0xbf8e1392	-1.1099722
251	0xc00846b9	-2.1293166
252	0xbf30482c	-0.68860126
253	0xbdd225d4	-0.102611214
254	0xbed9b81f	-0.42523286
255	0xbea1d937	-0.31611034

w_group.0.bias f4 [64]
0	0xbe9aa434	-0.30203402
1	0xbf888343	-1.0665058
2	0xbf65c0d5	-0.89747363
3	0xbf50580d	-0.81384355
4	0xbeeb2052	-0.45923096
5	0xbe2838ad	-0.1642787
6	0xbf38250a	-0.7193152
7	0xbf30bdc0	-0.69039536
8	0xbf1b658e	-0.60701835
9	0xbf0a9684	-0.5413592
10	0xbee80767	-0.45318148
11	0xbf7ab784	-0.9793627
12	0xbf4656a6	-0.77475965
13	0xbec74132	-0.38916928
14	0xbf07a437	-0.52984947
15	0xbf0dde50	-0.55417347
16	0xbee61d9b	-0.44944462
17	0xbedb94c3	-0.42886934
18	0xbf1265d3	-0.5718662
19	0x3d955d90	0.07293236
20	0xbf38a5ed	-0.7212818
21	0xbf61b1be	-0.8816184
22	0xbf48a548	-0.783772
23	0xbf57fb75	-0.8436807
24	0xbe0a5de6	-0.13512382
25	0xbf417dcd	-0.7558258
26	0xbef4a61f	-0.4778299
27	0x3ea3a4f6	0.31961793
28	0xbe2831a5	-0.16425188
29	0xbf190d0b	-0.59785527
30	0xbbb96719	-0.005658042
31	0xbebac087	-0.36475012
32	0xbefe7b49	-0.49703434
33	0xbf2a0ee8	-0.66428995
34	0xbda91194	-0.08255306
35	0xbee32d3d	-0.44370452
36	0xbf1af38a	-0.6052786
37	0x3ebe0366	0.37111968
38	0xbed78210	-0.42091417
39	0xbf06afed	-0.5261219
40	0xbb3b52e3	-0.002858334
41	0xbf193f6c	-0.598624
42	0xbf3ad73e	-0.72984684
43	0xbe5a8c74	-0.21342641
44	0xbe8341ea	-0.25636226
45	0xbe245139	-0.16046609
46	0xbbb88457	-0.0056310105
47	0x3e013215	0.12616761
48	0x3cc4a02a	0.024002153
49	0xbd48623b	-0.048921805
50	0xbf5a76c8	-0.85337496
51	0x3e960018	0.29296947
52	0xbed30bdf	-0.41219994
53	0xbee29bb8	-0.4425943
54	0xbeb11517	-0.34586403
55	0xbf001fa8	-0.50048304
56	0xbf4bab68	-0.7955842
57	0xbe9cee5e	-0.3065061
58	0xbd694d32	-0.056958385
59	0x3e8b3174	0.27186167
60	0xbf3b5132	-0.7317077
61	0xbf79120b	-0.97293156
62	0xbd5c8e84	-0.05384685
63	0x3e240080	0.16015816

w_group.2.weight f4 [32, 64]
0	0x3dbb6904	0.091508895
1	0xbddf1331	-0.10892332
2	0xbd5739da	-0.052545406
3	0xbdeef654	-0.11668077
4	0x3cb914f6	0.022593003
5	0x3cff0e98	0.031134889
6	0xbe2160ec	-0.15759629
7	0x3bdebf8f	0.006797738
8	0xbd5a4e47	-0.053297307
9	0xbc953569	-0.018213945
10	0xbd88e91c	-0.06685087
11	0x3d868d3e	0.065699086
12	0xbdbef52c	-0.093241066
13	0xbcded228	-0.02719982
14	0xbcf36335	-0.029710392
15	0x3d97be76	0.074093744
16	0xbd72b457	-0.059254017
17	0xbe1c50dd	-0.15265222
18	0x3d3e899f	0.046517964
19	0xbe0f599c	-0.13999027
20	0xbdfb9ca5	-0.12285737
21	0xbe1a3934	-0.15060884
22	0xbdb7ceba	-0.08974977
23	0xbcf89aaa	-0.030347187
24	0xbbc3fbb3	-0.0059809326
25	0x3d9d071e	0.07667373
26	0xbdfc0df0	-0.12307346
27	0x3dad25d2	0.08454479
28	0x3d44ab51	0.048014943
29	0xbd37d9ef	-0.044885572
30	0x3d3795aa	0.044820465
31	0x3da43f5a	0.08019896
32	0x3ca42468	0.020036891
33	0xbd66f840	-0.056389093
34	0x3ca23396	0.019799989
35	0x3ccf1b84	0.025281675
36	0xbd45f7aa	-0.048331894
37	0x3d03e017	0.03219613
38	0x3db3f331	0.087866195
39	0xbe058e0a	-0.13042465
40	0xbdf74fae	-0.120757446
41	0x3cc8478c	0.024448179
42	0xbd5f455a	-0.0545095
43	0xbe408c8b	-0.18803613
44	0x3dbea335	0.09308473
45	0xbc06d691	-0.008229868
46	0xbe43e822	-0.1913152
47	0xbdfe07c0	-0.12403822
48	0xbe5fbcd6	-0.21849379
49	0x3ca0963b	0.019602885
50	0xbbcde882	-0.0062838206
51	0x3d84a7e8	0.06477338
52	0xbcc3a43d	-0.023882026
53	0x3db86f25	0.09005574
54	0xbd802020	-0.06256127
55	0xbd5ac2f1	-0.053408567
56	0x3daede4c	0.085384935
57	0xbde450bb	-0.111482106
58	0xbd8e6731	-0.06953276
59	0xbddd9708	-0.108198225
60	0xbda5d936	-0.0809807
61	0xbe1e262b	-0.15444247
62	0xbd92f584	-0.07175735
63	0xbe23c487	-0.15992938
64	0x3d0891c3	0.033342134
65	0x3e74362a	0.23848787
66	0x3ef1c174	0.47217906
67	0x3e30043f	0.1718912
68	0xbdc07a32	-0.09398307
69	0x3f47e385	0.7808154
70	0xbf356b06	-0.7086643
71	0xbed56ba2	-0.4168368
72	0xbe7bdeb0	-0.24596667
73	0x3e45a012	0.19299343
74	0x3e63b514	0.22237045
75	0x3ea3ae9f	0.31969163
76	0x3f8d0ab7	1.1018895
77	0x3f7bad92	0.9831172
78	0x3df1d04c	0.118073076
79	0x3f355fba	0.7084919
80	0x3f23df58	0.6401267
81	0xbee0cc2a	-0.43905765
82	0xbd886390	-0.06659615
83	0x3c026fb9	0.007961207
84	0x3f796dd7	0.9743323
85	0xbe3a429c	-0.18189472
86	0x3e283f41	0.1643038
87	0xbc36fe3e	-0.0111690145
88	0xbfa28fe9	-1.2700168
89	0xbd537585	-0.051625747
90	0x3ed9d814	0.42547667
91	0x3e47bad6	0.19504866
92	0xbf29497b	-0.6612775
93	0xbcb08080	-0.021545649
94	0xbf8a5b0f	-1.0809039
95	0x3f050dd8	0.5197425
96	0xbf1e099b	-0.61733407
97	0x3ee20032	0.44140774
98	0xbf570de0	-0.84005547
99	0x3d7a782a	0.061149754
100	0xbd32aca5	-0.043621678
101	0xbf14f094	-0.58179593
102	0x3e497d04	0.19676596
103	0x3c56a193	0.013100046
104	0xbdd977e2	-0.10618569
105	0x3f4174bd	0.75568753
106	0x3e00b5d6	0.12569365
107	0xbf062e7c	-0.5241468
108	0x3f3fddd2	0.74947846
109	0xbdcff6b3	-0.10154476
110	0xbfc27c46	-1.5194175
111	0x3dc30648	0.095226824
112	0xbe7c7658	-0.2465452
113	0x3d60f0dc	0.0549172
114	0xbe6af2c4	-0.2294417
115	0x3f535f5c	0.8256738
116	0xbe033eba	-0.12816897
117	0x3f314bc7	0.6925625
118	0xbf4692d7	-0.7756781
119	0xbda9c3fd	-0.08289335
120	0xbf268b4d	-0.65056306
121	0x3dabef91	0.08395303
122	0xbf33f412	-0.70294297
123	0xbe30abee	-0.17253086
124	0x3c6e81b6	0.014557293
125	0xbfb063d0	-1.378046
126	0xbfd17d0b	-1.6366285
127	0xbf7ab0e7	-0.9792618
128	0xbe11f4f1	-0.14253594
129	0xbf9730cb	-1.1811765
130	0xbd1d8140	-0.03845334
131	0xbf9b72ab	-1.2144369
132	0xbd22e955	-0.039773304
133	0x3e76a66c	0.24086922
134	0xbf9b7737	-1.2145756
135	0xbdb307eb	-0.087417446
136	0x3d15d200	0.036577225
137	0xbe3c1d66	-0.1837059
138	0x3ee2fbee	0.44332832
139	0x3f4dbe63	0.8036863
140	0xbfacba00	-1.3494263
141	0x3ef951ea	0.48695308
142	0xbe967d68	-0.29392552
143	0xbf7a4003	-0.97753924
144	0xbebd4686	-0.36967868
145	0xbe7d3917	-0.2472881
146	0x3e538d94	0.20659477
147	0xbe5f2bd9	-0.2179407
148	0xc0838d6a	-4.1110125
149	0xbee31952	-0.44355255
150	0xbf266e8a	-0.6501242
151	0xbff7ef00	-1.9369812
152	0x3e18ac1d	0.14909406
153	0xbe92bf94	-0.28661788
154	0xbcf0dca7	-0.02940209
155	0xbf374677	-0.71591896
156	0xbf14159c	-0.57845473
157	0x3dc21352	0.09476341
158	0xbfae427c	-1.361404
159	0xbfa1b36d	-1.2632881
160	0xbf1e3c86	-0.618111
161	0xbed7fe7d	-0.42186347
162	0xbd419a0e	-0.04726606
163	0x3d23bcc2	0.039974935
164	0xbdd3f5ab	-0.10349592
165	0x3e81de77	0.2536504
166	0x3a00d5b8	0.0004914659
167	0xbdba94dc	-0.09110424
168	0xbf706d55	-0.9391683
169	0x3e0f649d	0.14003225
170	0xbe8578b7	-0.2606866
171	0xbe5374e0	-0.20650053
172	0xc014af20	-2.3231888
173	0xbe038fd5	-0.12847836
174	0x3ee0c877	0.43902943
175	0x3cd6c465	0.026216695
176	0x3f82717a	1.019088
177	0xbf641f36	-0.89110124
178	0xbdadcf19	-0.08486766
179	0xbec7d731	-0.39031366
180	0xbdaa299a	-0.08308716
181	0x3ee30f68	0.44347692
182	0x3e3755cc	0.17903823
183	0x3ecf22a5	0.4045612
184	0x3f041f3e	0.5161017
185	0x3bd7e274	0.0065882746
186	0x3dc0f297	0.0942127
187	0xbddbda04	-0.107349426
188	0xbf5a7e50	-0.8534899
189	0xbfc324b1	-1.5245572
190	0x3cdd477f	0.027011631
191	0xbf3c6e29	-0.7360559
192	0x3d6c95ec	0.057760164
193	0xbdc8fb94	-0.0981361
194	0x3dfaa9fc	0.12239453
195	0xbba306af	-0.004975162
196	0xbc687c2d	-0.014189762
197	0xbe0f30b9	-0.1398343
198	0xbe06a1e9	-0.13147701
199	0xbe11dd8e	-0.14244673
200	0xbdeb4797	-0.11488264
201	0xbe134beb	-0.14384429
202	0xbdc81d3a	-0.097711995
203	0x3b725c42	0.003698126
204	0xbdccbd37	-0.09997027
205	0xbd10d8af	-0.035362896
206	0xbde8424a	-0.11340769
207	0xbd438ef9	-0.04774377
208	0xbd97c500	-0.07410622
209	0x36109c62	2.15487e-06
210	0xbd47416a	-0.048646368
211	0xbda98114	-0.08276573
212	0x3d16236c	0.036654875
213	0x3d4e1558	0.050313324
214	0xbe299d41	-0.16563894
215	0xbe183bb4	-0.14866525
216	0xba6045d8	-0.00085553294
217	0xbe381117	-0.1797527
218	0xbd7f8841	-0.0623858
219	0x3ca10ab3	0.019658422
220	0x3daa6b97	0.083213024
221	0xbd216d71	-0.039411012
222	0xbdeeb737	-0.11656039
223	0x3d19460b	0.037420314
224	0x3cc7787c	0.024349444
225	0x3dce1963	0.10063436
226	0xbcb319f8	-0.021862969
227	0xbda6cbae	-0.081443176
228	0x3d349ea0	0.04409659
229	0xbe15b4d4	-0.14619762
230	0x3c517dc9	0.012786337
231	0xbe1f966f	-0.1558473
232	0xbe08ea59	-0.13370647
233	0xbdae9910	-0.08525288
234	0x3d2d54ea	0.04231731
235	0x3c0ea2c3	0.008705798
236	0xbd195d8b	-0.037442725
237	0x3d92bd9b	0.071650706
238	0xbe298dba	-0.1655797
239	0x3dfe5894	0.12419239
240	0xbda24777	-0.07923787
241	0x3d96ffea	0.073730305
242	0x3db77562	0.08957936
243	0xba983490	-0.0011612345
244	0x3caf8897	0.021427436
245	0x3d819477	0.063271455
246	0xbe1f32cb	-0.1554672
247	0xbd0edc91	-0.034878317
248	0x3d4a9df8	0.049467057
249	0x3c0b6fa0	0.0085105
250	0xbd7af4d9	-0.06126866
251	0x3c8e9a3a	0.017407525
252	0x3cb8ebfe	0.022573467
253	0xbe3a9614	-0.18221313
254	0x3c437400	0.011929512
255	0xbe10b17f	-0.1413021

w_group.2.bias f4 [32]
0	0xbe5b34a2	-0.21406797
1	0xbfbf977f	-1.4968108
2	0x3f0639e6	0.52432096
3	0xbe5b5169	-0.21417774
4	0x3fb76697	1.4328183
5	0x3ecdd757	0.40203354
6	0xbf28eb45	-0.6598399
7	0xbf11dc94	-0.569772
8	0xbe38cc16	-0.18046603
9	0xc0305774	-2.7553377
10	0xbd255778	-0.04036662
11	0x3fd08968	1.6291933
12	0xbe86a8b6	-0.2630059
13	0xbf63331e	-0.88749874
14	0xc02907d8	-2.6411037
15	0xbfb95154	-1.4477944
16	0xbf7272c8	-0.9470639
17	0x3fa0437b	1.2520593
18	0x3f4b1911	0.79335123
19	0xbe0af6f4	-0.13570768
20	0x3f9e6c15	1.2376734
21	0x3eee6b12	0.46566063
22	0x405de729	3.467234
23	0xbfad2e24	-1.3529706
24	0xbf3dcba5	-0.7413886
25	0xbf405a81	-0.751381
26	0xbff102ca	-1.8828976
27	0xbdc40320	-0.095709085
28	0xbdb0366b	-0.086041294
29	0x3f1b3260	0.6062374
30	0xbe586099	-0.21130599
31	0x3f697b06	0.91203344

w_agents.0.weight f4 [64, 5]
0	0xbe03a8b4	-0.12857324
1	0xbdb47766	-0.08811836
2	0x3f6a03cb	0.9141204
3	0x3e93e9ce	0.28889316
4	0x3efe5c5f	0.4967985
5	0xbf137484	-0.57599664
6	0xbe0a5fab	-0.13513057
7	0x3f401ab5	0.7504075
8	0x3fa827ab	1.3137106
9	0xbfa5ce94	-1.2953668
10	0xbcc947aa	-0.024570305
11	0xbdd683fb	-0.10474392
12	0xbec8ae54	-0.39195502
13	0xbf89293f	-1.0715712
14	0xbf3b7df1	-0.73239046
15	0xbcd4d7f7	-0.025981886
16	0xbb55e272	-0.0032636193
17	0xbf2be3f1	-0.67144686
18	0x3f9785be	1.183769
19	0xbfcfc004	-1.6230474
20	0x3f04c00b	0.51855534
21	0x3c45bd7b	0.012069101
22	0x3f83b74a	1.029031
23	0xbf0cf99a	-0.5506836
24	0xbed7a6ec	-0.4211954
25	0x3e49c213	0.1970294
26	0xbed151f7	-0.40882847
27	0xbd1b3b64	-0.037898436
28	0x3e173477	0.14766107
29	0x3e0f189f	0.13974236
30	0xbd473bc2	-0.048640974
31	0x3d9856ca	0.07438429
32	0xbf9b6e12	-1.2142966
33	0x3fdf1bf7	1.7430409
34	0xbf5a2c4e	-0.85223854
35	0xbc361e1b	-0.011115576
36	0x3b4026c2	0.0029319976
37	0xbf8d2cec	-1.1029334
38	0x3f4e6904	0.8062899
39	0xbfb05b53	-1.377787
40	0x3bb7a5f5	0.0056045004
41	0x3c32b002	0.010906221
42	0x3bf7c32f	0.0075611095
43	0xbeda9db2	-0.42698437
44	0xbf2b2800	-0.6685791
45	0xbbe4a8fc	-0.0069781523
46	0xbc01fc35	-0.007933666
47	0xbd9c9c04	-0.07646945
48	0xbe7a117b	-0.24420731
49	0xbedc94b5	-0.43082204
50	0x3a965fc1	0.0011472629
51	0xbbf16794	-0.007367084
52	0x3de995f5	0.11405555
53	0x3d9460d2	0.072450295
54	0xbe0241fc	-0.12720484
55	0xbda46f43	-0.08029034
56	0x3cee554a	0.029093403
57	0x3e978876	0.295963
58	0xbe404802	-0.18777469
59	0xbf045b27	-0.5170159
60	0x3eb1bab2	0.3471275
61	0xbf210ede	-0.6291331
62	0x3f8438cc	1.0329833
63	0x3f60109d	0.8752535
64	0xbf1ff2b4	-0.6247971
65	0xbcbffe70	-0.023436755
66	0x3b02edbf	0.0019978133
67	0xbe907433	-0.28213653
68	0xbdf4c502	-0.11951639
69	0xbd9996a3	-0.07499435
70	0xbc46cd42	-0.012133898
71	0x3ca36b9e	0.019948777
72	0x3e192196	0.14954218
73	0x3eaec36a	0.34133464
74	0xbf20d2de	-0.6282176
75	0xbd72ee60	-0.059309363
76	0xbda4ec97	-0.080529384
77	0x3e7e2cc8	0.2482177
78	0x3e9baec8	0.30406785
79	0xbf527e7e	-0.8222426
80	0x3d01c4f7	0.03168198
81	0xbda116bd	-0.07865665
82	0xbef6ed40	-0.48227882
83	0x3fa0754e	1.2535799
84	0xbfa9c640	-1.3263626
85	0xbc9796fb	-0.01850461
86	0xbb885067	-0.0041599753
87	0x3dd9c51e	0.106333
88	0x3ed2731c	0.41103446
89	0xbef37ad3	-0.47554645
90	0x3e2fe934	0.17178804
91	0xbf56a7c2	-0.8384973
92	0x3fea2ff0	1.8295879
93	0x405f1a59	3.4859831
94	0xbff81bd8	-1.9383497
95	0x3b895fab	0.0041923127
96	0xbb227961	-0.0024791586
97	0xbdc72754	-0.09724298
98	0xbdfd49dd	-0.12367604
99	0xbf2018fd	-0.6253813
100	0xbe0fd453	-0.14045839
101	0xbe26ca5a	-0.16288128
102	0x3e2bc0bb	0.1677274
103	0x3e729204	0.23688513
104	0xbff9f01e	-1.9526403
105	0x3d16adb3	0.036786746
106	0x3d0bd61e	0.034139745
107	0x3c10b627	0.008832491
108	0x3f86cf54	1.0532022
109	0xbf8fc3e6	-1.1231658
110	0xbcca5357	-0.024697943
111	0xbcb273cc	-0.021783732
112	0x3dc53c91	0.09630693
113	0xbe309dae	-0.1724765
114	0xbd43f294	-0.047838762
115	0xbcb51ae3	-0.022107547
116	0xbb3834b3	-0.0028107583
117	0xbe8137eb	-0.25237975
118	0xbd9409e7	-0.07228451
119	0xbf3c83e2	-0.7363874
120	0x3deba938	0.11506885
121	0x3d931b5c	0.07182953
122	0xbfc0a22c	-1.5049491
123	0x3e02ce55	0.12774022
124	0x3ab175f7	0.0013539185
125	0x3e8b0c43	0.27157792
126	0x3ec8cf54	0.3922068
127	0x3f23f5b9	0.6404682
128	0x3ffbdc41	1.9676591
129	0xbf7aa9ab	-0.9791514
130	0xbc9e3eba	-0.01931702
131	0xbc28b47a	-0.010296935
132	0x3cdd6218	0.027024314
133	0xbe1e58dd	-0.15463586
134	0xbe764076	-0.24048027
135	0x3e7d2763	0.24722056
136	0xbe9a3807	-0.3012087
137	0xbf820216	-1.0156887
138	0x3fbf8737	1.4963139
139	0xbfc7f6fc	-1.5622249
140	0xbe856fd9	-0.26061895
141	0x3d8f6b0c	0.070028394
142	0xbce6cb08	-0.028172985
143	0x3fae9006	1.3637702
144	0xc007a430	-2.1193962
145	0x3f1066de	0.5640696
146	0x3e2676ab	0.16256206
147	0x3f280035	0.65625316
148	0x3f3d6c22	0.7399312
149	0xbfedfc9f	-1.8592719
150	0xbd9242b4	-0.07141629
151	0xbd6b1d66	-0.057401083
152	0xbf4fd13e	-0.81178653
153	0x3e13c277	0.14429651
154	0xbf6b8a8e	-0.9200829
155	0x3dff7a3c	0.12474486
156	0xbc3c0eee	-0.011478169
157	0xbe335d3f	-0.1751604
158	0x3e878434	0.2646805
159	0xbf714bdd	-0.94256383
160	0xbe3c7f33	-0.18407898
161	0x3b7c92d1	0.0038539658
162	0xbf991303	-1.1958927
163	0x3f83f159	1.0308028
164	0xbf4aecea	-0.7926775
165	0x3cc5ae0a	0.02413084
166	0x3d760ff1	0.060073797
167	0xbecda4fb	-0.40164933
168	0x3f22912b	0.6350276
169	0xbf2dc7b2	-0.67882836
170	0x3e1037b7	0.14083754
171	0xbdd53964	-0.10411337
172	0x3ed5d836	0.41766518
173	0x3fa76a45	1.3079306
174	0xbeb1515c	-0.34632385
175	0x3e12bca9	0.1432978
176	0xbc6b1eba	-0.0143505875
177	0x3eab0ee9	0.33409813
178	0xbec5df89	-0.38647106
179	0xbf80488d	-1.0022141
180	0xbc8aafa5	-0.016929457
181	0x3eb5cbf7	0.35507175
182	0x3e968580	0.29398727
183	0x3f82890b	1.0198072
184	0xbf2cf520	-0.6756153
185	0x3d051e38	0.032499522
186	0x3bb9ed66	0.005674052
187	0xbfcbe98c	-1.5930648
188	0x3d4ffbee	0.05077737
189	0xbfaf6da9	-1.3705341
190	0xbbc66c08	-0.006055359
191	0xbc7a1156	-0.015262922
192	0xbd65c8a7	-0.05609956
193	0xbec5e9b8	-0.38654876
194	0xbf458166	-0.7715057
195	0x3d89ec65	0.06734542
196	0x3e4077e7	0.18795739
197	0x3d925975	0.07145969
198	0x3f8fa60a	1.1222546
199	0xc002192f	-2.032787
200	0x3b0be121	0.0021343904
201	0xbc9ce07f	-0.019150017
202	0xbf0b3e7c	-0.5439222
203	0xbe9d21b2	-0.3068977
204	0xbf415f85	-0.75536376
205	0x3e38ea24	0.18058068
206	0xbe0817e2	-0.1329036
207	0xbe7274fc	-0.23677438
208	0x3fa7db70	1.3113842
209	0xc0209756	-2.5092368
210	0xbea47ecc	-0.32127988
211	0xbf81d301	-1.0142518
212	0x3f09e101	0.53858954
213	0x40375239	2.8643935
214	0xbf9f0222	-1.2422526
215	0xbe7a5d39	-0.24449624
216	0x3f28ba58	0.6590934
217	0xbf89550b	-1.0729078
218	0x40001648	2.00136
219	0xbf813df9	-1.0097038
220	0x3e867851	0.2626367
221	0x3c3bda18	0.011465572
222	0x3fa792be	1.3091657
223	0x4051a295	3.2755482
224	0xbfcd66f5	-1.6047045
225	0xbf12a6a9	-0.57285553
226	0x3f5f179b	0.87145394
227	0xbef40a82	-0.47664267
228	0x3f0a4e59	0.540258
229	0xbf74adfe	-0.9557799
230	0xbd2f367f	-0.04277658
231	0xbc8d1a8a	-0.017224569
232	0x3d3cd852	0.046104737
233	0x4031c472	2.777615
234	0xc02f78ec	-2.7417555
235	0x3bb6683c	0.005566625
236	0xbd87ce25	-0.06631116
237	0xbf55f644	-0.83578897
238	0x3ff11c66	1.8836792
239	0xc01a7a54	-2.4137163
240	0xbf3a4724	-0.727648
241	0xbe830bd2	-0.25594956
242	0xbf4c02ec	-0.7969196
243	0x4015861f	2.336311
244	0xbff6119d	-1.9224125
245	0xbcb434f0	-0.021997899
246	0xbe5e5879	-0.21713437
247	0x3d96a27e	0.07355212
248	0xbf1d71b7	-0.6150164
249	0xbfca1ce4	-1.5790067
250	0x3d7c91eb	0.061662596
251	0x3df97100	0.12179756
252	0x3d5ee052	0.054413147
253	0xbfd4d363	-1.662701
254	0xbe57f3e3	-0.21089129
255	0xbd3b2a90	-0.045694888

w_agents.0.bias f4 [64]
0	0xbea93476	-0.33047837
1	0xbf9cba95	-1.224444
2	0xbf59e8f4	-0.85121083
3	0xbf95cd04	-1.1703191
4	0xbf7a5710	-0.97789097
5	0xbdb3789f	-0.08763241
6	0xbf68119b	-0.90651864
7	0xbf836c79	-1.0267478
8	0xbecb9e01	-0.39768985
9	0xbe4cf6ea	-0.20016065
10	0xbe1de26f	-0.15418409
11	0xbf538a7a	-0.82633173
12	0xbf6ac8d8	-0.91712713
13	0xbedd78e3	-0.43256292
14	0xbeb13e9e	-0.34618086
15	0xbf61c228	-0.88186884
16	0xbfc6345a	-1.5484726
17	0xbed15d52	-0.4089151
18	0xbfd89a36	-1.6922061
19	0xbdea915b	-0.114535056
20	0xbfb3319c	-1.3999515
21	0xbf8876e3	-1.0661281
22	0xbf037635	-0.51352245
23	0xbe468012	-0.19384792
24	0xbe111a1d	-0.14170118
25	0xbf76b515	-0.9637006
26	0xbeb04ac5	-0.34432045
27	0xbfb25668	-1.3932619
28	0xc00a9885	-2.165559
29	0xbfc8d166	-1.5688903
30	0xbfa026e4	-1.2511868
31	0xbf6d91ab	-0.92800397
32	0xbf12df20	-0.5737171
33	0xbf5f387e	-0.87195575
34	0xbf20ea87	-0.6285786
35	0xbf9773a5	-1.1832167
36	0xbf4d9454	-0.80304456
37	0xbfd62780	-1.6730804
38	0xbe994f68	-0.29943395
39	0xbfe1447e	-1.7599027
40	0xbf3a2ba4	-0.7272284
41	0xc00b909d	-2.1807015
42	0xbfd77998	-1.6833982
43	0xbfb20c3b	-1.3909982
44	0xbff3b4cf	-1.9039553
45	0xbfc6b814	-1.5524926
46	0xc010c204	-2.2618418
47	0xbfe19c79	-1.7625877
48	0xbfa5fdf1	-1.2968122
49	0xbfdf2437	-1.7432927
50	0xbf802d40	-1.0013809
51	0xbea5d87c	-0.32391727
52	0xbe2a8fa0	-0.16656351
53	0x3e323034	0.174012
54	0xbd0ab7e8	-0.033866793
55	0xbfd7d742	-1.6862566
56	0xbf8c8e62	-1.0980952
57	0xbfc836ba	-1.5641701
58	0xbff11594	-1.883471
59	0xbfa85c8c	-1.3153243
60	0xbf459d1f	-0.7719287
61	0xbfc6e6d3	-1.5539192
62	0xbfff063d	-1.9923779
63	0xbe81976c	-0.25310838

w_agents.2.weight f4 [32, 64]
0	0x3bce950a	0.006304388
1	0xbd168c53	-0.036754917
2	0xbd450779	-0.04810283
3	0xbd61c4d3	-0.055119347
4	0xbdb7b2ab	-0.08969625
5	0x3b992b65	0.0046743625
6	0xbe032cc3	-0.12810044
7	0x3d81c95c	0.063372344
8	0x3d580e3f	0.05274796
9	0xbd8be612	-0.06830992
10	0xbceb0469	-0.028688626
11	0x3d2ba77c	0.041907772
12	0xbd8e2a04	-0.069416076
13	0x3d6ce439	0.057834838
14	0x3b69ce64	0.0035675997
15	0x3bf74cde	0.007547005
16	0xbda274e1	-0.07932449
17	0xbcb3820e	-0.0219126
18	0xbdd2e4c1	-0.102975376
19	0xbe2176ed	-0.15768023
20	0xbe40c09b	-0.18823473
21	0x3c080bc5	0.008303587
22	0xbe4ea3be	-0.2017965
23	0xbdbf1175	-0.093295015
24	0xbe1be23d	-0.15223022
25	0xbb50d5f3	-0.0031865805
26	0xbb9fb45a	-0.0048737945
27	0xbda6def8	-0.08147997
28	0xbdb9536e	-0.09049116
29	0x3d3fe581	0.04684973
30	0x3ca666f1	0.020312758
31	0xbce6d39c	-0.028177075
32	0xb890a038	-6.896298e-05
33	0xbddf0ae9	-0.10890753
34	0xbd2cfcc1	-0.042233232
35	0xbe1354ce	-0.14387819
36	0xbde15ab5	-0.11003629
37	0xbd88c6ca	-0.06678541
38	0xbe3844ba	-0.17994967
39	0xbd26ad77	-0.040692773
40	0xbd666558	-0.056248993
41	0xbd8a3292	-0.06747927
42	0x3d2d385c	0.042290077
43	0x3d222628	0.03958717
44	0x3d498eac	0.049208328
45	0x3cc5a1bd	0.024124974
46	0xbdbb239b	-0.091376506
47	0xbd07ca7b	-0.033152085
48	0xbdc93cf0	-0.09826076
49	0xbb1f21b5	-0.0024281566
50	0xbd8b128e	-0.067906484
51	0xbe0eed9a	-0.13957825
52	0xbcc7bf51	-0.024383219
53	0xbe052c5d	-0.13005204
54	0xbcf11649	-0.029429572
55	0xbdc66870	-0.096878886
56	0xbc669850	-0.0140744
57	0xbd500b15	-0.05079182
58	0xbda49e00	-0.080379486
59	0x3d7eedca	0.062238492
60	0x3beb78dd	0.007186039
61	0x3bba06bb	0.005677072
62	0xbdab5e8a	-0.08367641
63	0xbd9774cc	-0.07395324
64	0xc06a0e95	-3.65714
65	0xbed09382	-0.4073754
66	0xbf3455b7	-0.7044329
67	0xbfbac63b	-1.4591745
68	0xbef21379	-0.4728048
69	0xbf44faf1	-0.76945406
70	0xbf19150d	-0.59797746
71	0xbec4469c	-0.3833512
72	0x3dc4b90d	0.09605608
73	0xbe827972	-0.2548328
74	0xbe1f67ed	-0.15566988
75	0x3ce81eac	0.028334938
76	0xbf671fe6	-0.9028305
77	0xbdd67d28	-0.104730904
78	0x3e39c8a1	0.1814294
79	0xbdcef624	-0.10105541
80	0x3e5873a2	0.2113786
81	0xbec9e291	-0.3943067
82	0x3f94356b	1.1578802
83	0xbdf1c970	-0.11805999
84	0x3d06fc5c	0.032955512
85	0x3f18e63c	0.5972631
86	0xbe35a879	-0.17740048
87	0x3d836021	0.064148195
88	0xbd9ab393	-0.07553782
89	0xbde2ef0c	-0.11080751
90	0xbe19f115	-0.15033372
91	0xbdd9d61d	-0.10636542
92	0xbf6fbc39	-0.9364658
93	0xbf2dc438	-0.6787753
94	0xbdb6d9d1	-0.08928264
95	0xbe869633	-0.26286468
96	0xc022d715	-2.5443776
97	0xbde35178	-0.11099523
98	0xbe89ffb9	-0.26952913
99	0xbf481a5e	-0.78165233
100	0x397b55cf	0.00023969192
101	0x3ec187bb	0.37798867
102	0xbe98bf7c	-0.2983359
103	0x3f8118eb	1.0085729
104	0xbd2241c8	-0.039613515
105	0x3f1e93c6	0.61944234
106	0xbf7ba87e	-0.98303974
107	0xbe6a1816	-0.2286075
108	0x3e44d73b	0.19222729
109	0x3dc24813	0.09486403
110	0xbf2954dd	-0.66145116
111	0xbcb176d7	-0.021663113
112	0xbf7ea55a	-0.99471056
113	0xbf94d547	-1.1627587
114	0xbebc9635	-0.3683335
115	0xbe495180	-0.19659996
116	0xbe9c40dd	-0.30518237
117	0xbdcc139a	-0.09964676
118	0xbe4cdfc5	-0.20007236
119	0xbea58142	-0.32325178
120	0xbe1329a0	-0.14371347
121	0x3eb1f727	0.34758875
122	0xbf08f3d6	-0.53497064
123	0x3d8793de	0.0662
124	0x3e2aac67	0.16667329
125	0x3efe58de	0.49677175
126	0xbdf1ebc9	-0.118125506
127	0xbea3178f	-0.3185391
128	0xbe29e25a	-0.16590253
129	0xbdc7c281	-0.097538956
130	0xbdb59a73	-0.088673495
131	0x3d8940a8	0.06701785
132	0xbd964233	-0.07336845
133	0xbd80cbd4	-0.06288877
134	0xbded25ea	-0.11579497
135	0xbe1c1bb8	-0.15244949
136	0xbdea67db	-0.1144559
137	0x3d710fc4	0.058852926
138	0xbca0ad9a	-0.01961403
139	0xbd564d19	-0.05231962
140	0xbde24bc6	-0.11049609
141	0xbdcc5214	-0.09976593
142	0xbcb73ab5	-0.02236686
143	0xbc50a18a	-0.012733826
144	0xbdac0c32	-0.084007636
145	0xbe022c4b	-0.12712209
146	0x3cd3c9c9	0.025853055
147	0x3d63f5f3	0.055654477
148	0x3d0f1a10	0.034936965
149	0xbe11c236	-0.14234242
150	0x3cb5d94a	0.022198338
151	0xbda7d532	-0.08194961
152	0x3d002194	0.031282023
153	0xbd1f7ad4	-0.038935497
154	0xbe15b54c	-0.1461994
155	0xbcffa561	-0.031206788
156	0xbd49b78f	-0.04924732
157	0xbe3cb906	-0.18429956
158	0xbd9fcece	-0.07803117
159	0x3de6a57e	0.11262034
160	0xbdfc4ced	-0.1231936
161	0xbde66896	-0.11250417
162	0x3c88e782	0.016711954
163	0x3d6eddce	0.058317
164	0xbe4f2bcf	-0.20231555
165	0xbc86bbd7	-0.01644699
166	0xbda94ef1	-0.0826701
167	0x3b683676	0.0035432852
168	0xbdad8d41	-0.08474208
169	0xbc436b68	-0.011927463
170	0xbc4b4f16	-0.012408992
171	0xbd16b7cc	-0.036796376
172	0x3de0ee6a	0.10982974
173	0xbbacb0e3	-0.00527011
174	0xbd433432	-0.0476572
175	0xbcc8544a	-0.024454255
176	0xbc9208e9	-0.017826514
177	0xbc0543ff	-0.008133887
178	0x3c58c7ca	0.013231227
179	0x3c3224a5	0.010872995
180	0xbe00ae94	-0.12566596
181	0xbe0e20ce	-0.13879701
182	0xbe003f9e	-0.12524268
183	0x3bc1cb6e	0.0059141433
184	0xbc828357	-0.015931768
185	0xbd0c9bc3	-0.034328233
186	0x3b8d209d	0.0043068663
187	0xbc22eeda	-0.009944642
188	0xbca01738	-0.019542322
189	0x3d407bbc	0.046993002
190	0xbd065b20	-0.032801747
191	0x3c2ea38c	0.01065911
192	0xbe7c5324	-0.2464109
193	0xbe83fde5	-0.25779644
194	0xbe1a2b35	-0.15055545
195	0x3d1c4a4f	0.038156804
196	0xbd03a79f	-0.032142278
197	0x3d73f73d	0.059561957
198	0xbe512976	-0.20425972
199	0x3be1197f	0.0068694944
200	0xbe815baf	-0.25265262
201	0xbe7a6d45	-0.24455746
202	0xbe741e4c	-0.23839682
203	0xbd2cafe5	-0.042159934
204	0xbe289eec	-0.16466874
205	0xbe482251	-0.1954434
206	0xbe772463	-0.24134974
207	0x3cf5ff5a	0.030028988
208	0xbd1517ff	-0.036399838
209	0xbe88e64a	-0.26738197
210	0x3dc5a58c	0.09650716
211	0x3d332103	0.043732654
212	0x3d9cf29e	0.07663463
213	0xbe3fe4a1	-0.18739559
214	0xbd8b65f5	-0.06806556
215	0xbe29ea39	-0.16593255
216	0xbdc48fcf	-0.09597742
217	0xbdaa7399	-0.0832283
218	0xbe1af86b	-0.15133826
219	0xbe0673c3	-0.13130097
220	0x3d881804	0.066452056
221	0xbe27a661	-0.16372062
222	0x3d9d2599	0.07673187
223	0xbe05303c	-0.13006681
224	0x3e057b65	0.13035353
225	0xbe65cf28	-0.22442305
226	0xbdf02e51	-0.11727584
227	0xbe215dba	-0.1575841
228	0x3a3c0097	0.0007171719
229	0xbcd24fd3	-0.025672829
230	0xbe32efea	-0.17474332
231	0xbdb3f936	-0.087877676
232	0xbe04b585	-0.12959869
233	0x3df33f26	0.11877279
234	0xbdbfce6b	-0.09365543
235	0xba9f287f	-0.0012142806
236	0x3e270589	0.16310705
237	0x3db7186c	0.08940205
238	0xbd2d3659	-0.042288158
239	0xbc1880fe	-0.009308098
240	0xbe663a49	-0.22483172
241	0xbe72fffe	-0.23730466
242	0xbe99e40b	-0.30056795
243	0xbd04e41b	-0.0324441
244	0xbe8a4a8f	-0.2701001
245	0xbdda4d98	-0.10659331
246	0xbd83e695	-0.064404644
247	0xbddcf0b3	-0.10788097
248	0xbcc8eae5	-0.024526069
249	0xbd06c227	-0.0329
250	0xbd056b78	-0.032573193
251	0xbe0ea64d	-0.13930626
252	0xbda03bd0	-0.07823908
253	0x3e2abd80	0.16673851
254	0xbe2e309b	-0.17010729
255	0xbd32e42e	-0.04367464

w_agents.2.bias f4 [32]
0	0xbe48b819	-0.19601478
1	0xbf2f27a3	-0.68419856
2	0xbe2534bb	-0.16133396
3	0xbea4d432	-0.32193142
4	0xbe3baf76	-0.18328652
5	0xbf35da8a	-0.7103659
6	0xbe4c9a7e	-0.19980809
7	0xbee5a616	-0.44853276
8	0x3da972ee	0.08273874
9	0xbe9047d8	-0.28179812
10	0xbd69d366	-0.05708637
11	0xbee442c3	-0.44582185
12	0xbf1b73ae	-0.6072339
13	0xbf1ec6c4	-0.6202204
14	0xbe0ed106	-0.13946924
15	0xbe6ff620	-0.23433733
16	0xbe39b761	-0.1813636
17	0xbf0b44f9	-0.5440212
18	0xbe3b0a3e	-0.18265626
19	0xbef8370a	-0.4847949
20	0xbe9c1a8a	-0.30488998
21	0x3defa3c1	0.117011555
22	0xbfb5baa9	-1.4197589
23	0xbea0db88	-0.3141749
24	0xbf0aae72	-0.5417243
25	0xbf0dd2ee	-0.5539998
26	0xbe187641	-0.1488886
27	0xbc9e107c	-0.01929497
28	0x3dbaf9b0	0.09129655
29	0xbf01a7ac	-0.5064647
30	0x3e4ce91f	0.20010804
31	0x3e039870	0.12851119

Ws.0 f4 [32, 32]
0	0xbeebefd4	-0.46081412
1	0xbedf6120	-0.43628788
2	0x3f1597e0	0.5843487
3	0x3f795a06	0.9740299
4	0xbf769648	-0.9632306
5	0xbcb44253	-0.022004282
6	0xbf6c9948	-0.9242139
7	0xbea614c9	-0.32437733
8	0xbfb43bdf	-1.4080771
9	0x3fa929ee	1.3215921
10	0x3f9ce860	1.2258415
11	0x3d55147e	0.052021496
12	0x3fcb7d97	1.5897702
13	0x3f379a82	0.71720135
14	0x3f2ef3da	0.6834084
15	0x3df6c325	0.120489396
16	0x3ec3005a	0.38086206
17	0x3d80bad6	0.06285636
18	0xbe8d0e17	-0.27549812
19	0x3f822672	1.0167983
20	0xbf03c079	-0.51465565
21	0xbf0e30f8	-0.5554347
22	0x3e16ad1e	0.14714476
23	0x3f4dfe0c	0.8046577
24	0xbf2d3b40	-0.67668533
25	0xbfc73e16	-1.5565822
26	0xbf9aefa8	-1.2104387
27	0x3f7dc359	0.991262
28	0x3f84fbe5	1.0389372
29	0x40032a57	2.0494592
30	0x3f507b20	0.81437874
31	0xbee7badb	-0.45259747
32	0xbe6de788	-0.23232853
33	0x3f249ce3	0.6430189
34	0xbfab221d	-1.3369786
35	0x3efdb171	0.4954944
36	0xc00e5511	-2.223942
37	0x3f362629	0.7115198
38	0xc08c3aee	-4.3821936
39	0x3ffe4fab	1.9868063
40	0xbd093b6c	-0.033503935
41	0xbf472531	-0.77791125
42	0xc01ac99d	-2.4185555
43	0xc0812a51	-4.0364156
44	0xbf23c1e3	-0.6396772
45	0xbfb36b74	-1.4017167
46	0xbf926d19	-1.1439544
47	0xc0012224	-2.0177088
48	0x3fd3c354	1.6543984
49	0xbeeafade	-0.4589452
50	0xbf5d3c3b	-0.8642003
51	0xc020049d	-2.5002816
52	0x3f806d7e	1.0033414
53	0xbf571ce2	-0.84028447
54	0x40174a94	2.363927
55	0x3ec8445d	0.39114657
56	0xbfc7adaa	-1.5599873
57	0xbfa915e7	-1.3209809
58	0x3f8f9ebe	1.1220319
59	0xc0207372	-2.5070462
60	0x3e9d7220	0.30751133
61	0x3ecac587	0.39603826
62	0x3fe4df88	1.7880716
63	0x3ec24688	0.37944436
64	0x3fb2321c	1.3921542
65	0x40019a85	2.0250561
66	0x3d3a7deb	0.04553024
67	0xbfcb12cc	-1.5865111
68	0x3faf1ad5	1.3680063
69	0xbfabdc51	-1.342661
70	0x3f038801	0.513794
71	0x3fcca227	1.5986985
72	0x3d604c3a	0.054760195
73	0x3f443ac9	0.766522
74	0xc00994f7	-2.149717
75	0xbfbdc2fd	-1.4825131
76	0x3e726d73	0.23674564
77	0x3f043d3e	0.5165595
78	0xbdca43f1	-0.0987624
79	0x3f8bdf0e	1.0927446
80	0x3f97fbb0	1.1873684
81	0xbfbad370	-1.4595776
82	0x3fecc260	1.8496819
83	0x3ffa165f	1.9538077
84	0x3f84353c	1.0328746
85	0x3f90378a	1.1266949
86	0xbf01aba7	-0.50652546
87	0xbf3e7f63	-0.74413127
88	0xc0b0bbac	-5.522909
89	0xc033e6a1	-2.8109515
90	0xbf8b2f56	-1.0873821
91	0x401718f7	2.3608987
92	0xbec9692f	-0.3933806
93	0x3f1600a3	0.5859472
94	0xc0c8ddd6	-6.2770796
95	0x3fb2eb2a	1.3978016
96	0xbf9d6452	-1.229624
97	0x3e03dfee	0.12878391
98	0x3d4dbf21	0.050231103
99	0x3fd390ea	1.6528599
100	0xbff28e43	-1.8949665
101	0x3f86b781	1.0524751
102	0xbe998681	-0.2998543
103	0x3e5600b7	0.2089871
104	0x3dd62119	0.104555316
105	0xbf84b52d	-1.036779
106	0x3e935ffd	0.2878417
107	0x3e9a1307	0.30092642
108	0xbf03ee0f	-0.51535124
109	0xbe867885	-0.26263824
110	0x3f20967d	0.62729627
111	0xbef066eb	-0.4695352
112	0xbf05320b	-0.52029485
113	0x3fdfbc25	1.7479292
114	0xbf013ebe	-0.5048636
115	0x3f9befba	1.2182534
116	0xbff84a8b	-1.9397749
117	0xbfb15433	-1.385382
118	0x3f5589c3	0.8341333
119	0x3cb839c5	0.022488484
120	0x3e68f710	0.22750497
121	0x3fab787a	1.3396142
122	0x3fd0836a	1.6290104
123	0x3e9a5741	0.30144694
124	0x3e5340ee	0.20630237
125	0xbff00401	-1.8751222
126	0x3f7b8fb0	0.98266125
127	0x3f1ee7be	0.6207236
128	0x3f51eab6	0.81998765
129	0xbe492ff0	-0.19647193
130	0xbe01ec22	-0.12687734
131	0xbfed9ed3	-1.8564094
132	0xbf1f2539	-0.6216617
133	0x3f43595c	0.76308227
134	0xbd248d54	-0.040173844
135	0x3e18f3eb	0.14936797
136	0x3f5b253d	0.85603696
137	0x3f21f8c8	0.63270235
138	0x3e9a0422	0.30081278
139	0x3e3cea0a	0.18448654
140	0xbccdeade	-0.025136407
141	0x3d8ba1fa	0.06818004
142	0x3e47f4f9	0.19527043
143	0xbed63d4e	-0.41843647
144	0x3df6ba55	0.12047259
145	0x3f58c2b6	0.84672105
146	0xbe2fd90c	-0.1717264
147	0xbf02625b	-0.5093133
148	0xbe1aeb91	-0.15128924
149	0xbebbddeb	-0.36692747
150	0xbf960d7b	-1.1722864
151	0xbe3be261	-0.18348075
152	0x402710b6	2.610395
153	0x3f4ba415	0.79547244
154	0xbf9676d3	-1.1755012
155	0xbfe035a5	-1.7516371
156	0xbf95aa62	-1.1692622
157	0x3f9db644	1.2321248
158	0x3f64b374	0.89336324
159	0xbee8dbb7	-0.4548013
160	0xc05077c9	-3.257311
161	0xbc2db103	-0.010601285
162	0x3fea5704	1.8307805
163	0xc0c769cd	-6.231665
164	0xbf8de367	-1.1085023
165	0xbffbcb14	-1.967135
166	0xc0708833	-3.758313
167	0xc009d6b9	-2.1537306
168	0x3eec6467	0.4617035
169	0x3fe62cb7	1.7982396
170	0xbeb2373b	-0.34807763
171	0xbf4c38f3	-0.797744
172	0xbdbb52d7	-0.0914666
173	0xbeaeb245	-0.34120384
174	0x3f1c5232	0.6106292
175	0x3f9af09c	1.2104678
176	0xc068cd3c	-3.6375265
177	0x3f1c02a5	0.60941535
178	0x3fcd41b8	1.6035681
179	0x3f3db14a	0.74098647
180	0x3ebeb49f	0.37247178
181	0xbf939339	-1.1529304
182	0xc00cd323	-2.2003868
183	0xbfd4034b	-1.6563505
184	0x3f832887	1.0246743
185	0xbdfe27d6	-0.12409942
186	0xbfac587a	-1.3464501
187	0xbf080663	-0.53134745
188	0xbfabdc31	-1.3426572
189	0x3e9937b9	0.29925326
190	0xc0378d05	-2.8679821
191	0xbf18a360	-0.5962429
192	0x3fcd309d	1.6030461
193	0xc08a67d2	-4.3251734
194	0xc034272f	-2.8148916
195	0xc03c079c	-2.9379644
196	0xbfb00554	-1.3751626
197	0xc0ba7f08	-5.8280067
198	0xbf33704f	-0.70093244
199	0xbf7d973a	-0.9905888
200	0x3ffccec8	1.9750605
201	0x3f9de3bc	1.2335124
202	0x3e9959bf	0.29951283
203	0x3faf7af6	1.37094
204	0x4015bcb5	2.3396428
205	0xc00df0bd	-2.2178185
206	0x3f8e7823	1.1130413
207	0x3fb2ba69	1.3963138
208	0x402acf57	2.668905
209	0x3fd6804a	1.6757901
210	0x3f0c497a	0.54799616
211	0x402d9397	2.7121332
212	0x3f2ad639	0.6673313
213	0x3fd969fe	1.6985471
214	0x3f032f8c	0.51244426
215	0xc0c2f77e	-6.0927114
216	0xbfc79d23	-1.5594829
217	0xc052a9c7	-3.2916124
218	0x3f48bdf9	0.78414875
219	0xbfebac62	-1.8411982
220	0x3ea8e9ab	0.32990775
221	0xbdbedd60	-0.09319568
222	0xbfb85838	-1.4401922
223	0xc0469558	-3.1028652
224	0xbef7fcc0	-0.4843502
225	0x3f2dd1d9	0.6789833
226	0xbe97b748	-0.2963202
227	0x3efb03f5	0.49026456
228	0x3f31cecc	0.6945617
229	0xbfbed7c9	-1.4909602
230	0xbedf83f5	-0.43655363
231	0xbfef4b01	-1.8694764
232	0x3f155efa	0.5834805
233	0x3ee69b97	0.4504058
234	0xbd1f3c67	-0.038875964
235	0xbefb2611	-0.4905248
236	0x3edca0ae	0.4309134
237	0x3e3439a8	0.17600119
238	0x3f8507e9	1.0393039
239	0xbe5863d0	-0.21131825
240	0xbf06e8d0	-0.52698994
241	0x3f80e407	1.0069588
242	0x3edebbca	0.43502647
243	0x3e11af6b	0.14227073
244	0xc0255a8e	-2.583652
245	0xbfdabf12	-1.708956
246	0x3ff901a7	1.9453629
247	0xbfe8f412	-1.8199484
248	0xbfeca50c	-1.8487868
249	0x3ee4929f	0.44643113
250	0x3f2761f4	0.6538384
251	0xbef0dca4	-0.47043335
252	0xbf059049	-0.52173287
253	0x3e971333	0.29506835
254	0x3fc09494	1.5045342
255	0x3f956b06	1.1673286
