data-6/rl_model_8.pth (torch_old, 93650 bytes, 18 tensors)

w_a f4 [32, 32]
0	0xc024ee64	-2.5770502
1	0xbf732d43	-0.9499094
2	0x401de060	2.4668198
3	0xbdb81224	-0.08987835
4	0x3f821124	1.0161481
5	0x3f23e424	0.6401999
6	0xbfd6ae99	-1.6772033
7	0x408a1faf	4.3163676
8	0xbec4d928	-0.38446927
9	0xbfb0ed3a	-1.3822396
10	0xbff0399e	-1.8767583
11	0x3fab08e4	1.3362088
12	0xc00ac504	-2.1682749
13	0x40205e4c	2.5057554
14	0x3eedcafa	0.4644392
15	0xc01f7c36	-2.4919562
16	0xc0289cd4	-2.634572
17	0xbf093c9e	-0.5360812
18	0xbfead705	-1.8346869
19	0xc0124b14	-2.2858324
20	0xc089a32b	-4.301168
21	0xbf3182bf	-0.6934013
22	0xc005325d	-2.081199
23	0xbf6edf9f	-0.9330997
24	0x3fd537b7	1.6657628
25	0xc020cb01	-2.5123904
26	0x404d0e90	3.2040138
27	0xbfaff276	-1.3745868
28	0xbed27620	-0.41105747
29	0xc00625f1	-2.0960658
30	0xc02dc1c8	-2.7149525
31	0x3fd74feb	1.6821264
32	0xc02c064a	-2.6878839
33	0x4002f4e1	2.0461962
34	0xbe687974	-0.2270258
35	0xbfdb65d1	-1.7140447
36	0x3fecc83e	1.8498609
37	0xc00c08c7	-2.1880357
38	0x3fb9d302	1.451752
39	0x3e35af6f	0.17742704
40	0xbf5ca49a	-0.8618866
41	0x3f7816ff	0.9691009
42	0x3fc9edf2	1.577574
43	0xbf85ac5c	-1.0443225
44	0x40248865	2.5708249
45	0xbdec4b6f	-0.11537825
46	0xbf7ff114	-0.9997723
47	0xbf753e40	-0.9579811
48	0xbee2a7ed	-0.44268742
49	0x3f9756ff	1.1823424
50	0xbe9850ab	-0.29749045
51	0x3f840db2	1.031668
52	0x3fd8794d	1.6912018
53	0xc08a003d	-4.312529
54	0xc0a25464	-5.0728016
55	0xc01b3601	-2.4251711
56	0x3d74e888	0.05979207
57	0xc00baf75	-2.182584
58	0x3eb323d9	0.34988287
59	0xbf173b5f	-0.5907497
60	0x3f892b86	1.0716407
61	0x3fd2bc12	1.6463645
62	0xbedcd722	-0.43132883
63	0x4013a982	2.307221
64	0xbfe4d47d	-1.7877346
65	0xbf6434aa	-0.8914286
66	0x3fa30ce7	1.2738312
67	0xc008d2cb	-2.1378658
68	0xbfcaeba0	-1.5853157
69	0xc0129e31	-2.2909052
70	0x3fa37bd2	1.2772162
71	0xbfb7c724	-1.4357648
72	0x3fdaf215	1.7105128
73	0x40215f73	2.5214508
74	0xbf0d2f5f	-0.5515041
75	0xbf6b2c8f	-0.91864866
76	0xc033080f	-2.7973669
77	0xc086153a	-4.190091
78	0xbe3f6ef7	-0.18694673
79	0xbfdf3785	-1.7438818
80	0xc09602b8	-4.687832
81	0x3f039309	0.5139623
82	0x3e12218e	0.14270613
83	0xbef530aa	-0.4788869
84	0x3fe95890	1.8230152
85	0xbfb58c41	-1.4183427
86	0x3f8476a6	1.0348709
87	0xbf5468bc	-0.8297231
88	0xbee09176	-0.43860978
89	0x3ceed159	0.02915256
90	0x3e755600	0.23958588
91	0xbeae7370	-0.34072447
92	0x3ec702d2	0.3886934
93	0xbe04b2b5	-0.12958796
94	0xc0263008	-2.5966816
95	0x3d786546	0.060643457
96	0xc0621bc8	-3.5329456
97	0x3e956d9b	0.29185185
98	0x403474f7	2.819639
99	0xbff0ac64	-1.880261
100	0x3bb9c304	0.0056689996
101	0x3f778f9d	0.9670351
102	0x3ec4f672	0.38469273
103	0x3e2f5ed3	0.17126016
104	0xbef7512c	-0.48304117
105	0xc015faa0	-2.343422
106	0x3e83f533	0.2577301
107	0x3f9896f5	1.1921068
108	0xbe4f79ae	-0.20261261
109	0x3ffec336	1.9903324
110	0xc02d6bb9	-2.7096999
111	0xbff6d601	-1.9284059
112	0xc087b426	-4.240741
113	0xbf4ea128	-0.80714655
114	0x3ebcf0bc	0.36902416
115	0x3f95a7fb	1.1691889
116	0xbf628366	-0.8848175
117	0xbfdce8bc	-1.7258525
118	0x3fa31e29	1.2743579
119	0xc0527213	-3.2882125
120	0x3ee18eda	0.440543
121	0xbf06e546	-0.52693594
122	0xbe6869e4	-0.22696644
123	0xbf31b702	-0.6941987
124	0xbbcd4849	-0.0062647206
125	0x4024b8ce	2.5737796
126	0xbf153fa6	-0.58300245
127	0x3f28bd07	0.6591343
128	0xbefd7f69	-0.4951127
129	0xbd683d88	-0.056699306
130	0xbfd40f93	-1.6567253
131	0xbe8c1bbc	-0.2736491
132	0xc0677160	-3.6162949
133	0xbe8b41cf	-0.27198645
134	0x3ffd12d5	1.9771372
135	0xc05e9b33	-3.4782226
136	0xbf789f6b	-0.9711825
137	0x3f5c3901	0.8602448
138	0x3faacd2a	1.3343861
139	0xbfbd31ae	-1.4780786
140	0xbe6b8da0	-0.23003244
141	0xbf8e0690	-1.1095753
142	0xbe07258b	-0.13197915
143	0xbec0be84	-0.37645352
144	0xc02efec5	-2.7343
145	0xbf64ef3f	-0.8942756
146	0x3ee393a2	0.44448572
147	0x3d83a421	0.064277895
148	0x3f670ad3	0.9025089
149	0x3eadfc89	0.33981732
150	0xc05ffe5a	-3.4998994
151	0xbf091f95	-0.53563815
152	0x3ffecb66	1.9905822
153	0x3fb2ca39	1.3967963
154	0xbffd5a40	-1.9793167
155	0x4086537d	4.1976914
156	0x3faebf75	1.3652178
157	0x3fb063ff	1.3780516
158	0x3fd53505	1.6656805
159	0xbf92cb23	-1.1468242
160	0xc07d0834	-3.9536257
161	0xbb432fea	-0.0029783198
162	0x3f61f8ba	0.8827015
163	0x3fe3fb1f	1.7811011
164	0x3dd2bcc2	0.10289909
165	0x3d623585	0.05522682
166	0xbee887a1	-0.45415977
167	0xbd2b96d0	-0.041891873
168	0xbf0b375d	-0.5438135
169	0x3f99ff7d	1.2031094
170	0xbeba1d06	-0.36350268
171	0xbc3edcc4	-0.011649314
172	0x3fa984e2	1.3243678
173	0xbb16ceef	-0.0023011526
174	0x3ea6ed4f	0.32602927
175	0xc005ca4d	-2.0904725
176	0xbf1c6a29	-0.6109949
177	0x3fd3c91f	1.6545752
178	0x3efcb4f5	0.4935681
179	0xbf9d8d27	-1.2308701
180	0xbf4aaa5c	-0.791662
181	0x400bc49e	2.1838756
182	0xbf1c2577	-0.60994667
183	0x3eb51cf1	0.35373643
184	0x3f905409	1.1275645
185	0x3f3eb7b2	0.74499047
186	0x3fc6f9f0	1.5545025
187	0xbf254caf	-0.64570135
188	0xbea41078	-0.32043815
189	0x3d4968ca	0.0491722
190	0x3f7391e8	0.9514451
191	0xbf0cab34	-0.54948735
192	0xbd6a8ce9	-0.05726329
193	0xbf95f519	-1.1715423
194	0x3f8ce9e4	1.1008878
195	0xc028dae5	-2.6383603
196	0xc00278ca	-2.0386224
197	0x3e04c8d7	0.1296724
198	0xbfc4a8fb	-1.5364069
199	0xbf19c123	-0.6006033
200	0x3f1452de	0.57938945
201	0xbfce2c3a	-1.6107247
202	0x3f970815	1.1799341
203	0x3fa747f9	1.3068839
204	0xbe9a6d2c	-0.30161417
205	0x3f26f828	0.65222406
206	0xbec46393	-0.3835722
207	0x40426d89	3.0379355
208	0xc0aaed9f	-5.3415065
209	0x3e8863fd	0.26638785
210	0xbecdbced	-0.401832
211	0x3f21c7ae	0.6319531
212	0xbe7ce285	-0.24695785
213	0xc089e180	-4.308777
214	0xbfe30f72	-1.7739089
215	0xc0adf5cb	-5.436254
216	0xc04dcd00	-3.2156372
217	0xc01f4133	-2.4883544
218	0x3effd691	0.4996839
219	0xbff2ab53	-1.8958534
220	0xbf8a9838	-1.0827703
221	0x3fa5b608	1.2946177
222	0x403b979d	2.9311287
223	0x3f4fa689	0.8111349
224	0xbfaa760f	-1.3317279
225	0x40179408	2.36841
226	0xbe8766a5	-0.264455
227	0x3f9372a2	1.1519358
228	0xbed03f05	-0.4067308
229	0x3fb59b04	1.4187932
230	0x3dcb5731	0.0992874
231	0xbf417f72	-0.7558509
232	0x3ffab218	1.95856
233	0x3eb223ad	0.34792843
234	0xbf53ac95	-0.82685214
235	0xbf3a7a06	-0.72842443
236	0xc014a176	-2.3223548
237	0x3e228099	0.15869369
238	0x3f9f5b9d	1.2449833
239	0xc047c5ec	-3.1214552
240	0x3e2ce5e6	0.16884574
241	0x3fb6d755	1.4284464
242	0xbfe7137d	-1.8052822
243	0xbffe2532	-1.9855101
244	0xbfc876d0	-1.5661259
245	0xbf29debd	-0.66355497
246	0x4025804e	2.585956
247	0x3f46aaf0	0.7760458
248	0x4019563d	2.3958886
249	0xbc2be188	-0.010490783
250	0x401dad3e	2.4636989
251	0xbf2b465d	-0.6690424
252	0xc0067bff	-2.1013181
253	0xc0131bb1	-2.2985651
254	0x3f9ee0ba	1.2412331
255	0x3fa8728b	1.3159956

w_group.0.weight f4 [64, 8]
0	0xbd3b7056	-0.04576143
1	0x3cb3b03c	0.021934621
2	0x3e67ea1d	0.22647901
3	0xbe8f64fb	-0.2800673
4	0xbeb12b91	-0.3460355
5	0x3d0f1100	0.03492832
6	0xbdad07a4	-0.08448723
7	0x3cd43ff9	0.02590941
8	0xbf1d0be0	-0.61346245
9	0xbf2ab81a	-0.66687167
10	0xbf9fa00a	-1.2470715
11	0x3d1a2221	0.037630204
12	0xbe99e182	-0.3005486
13	0xbe5ed4a5	-0.21760805
14	0xbf730092	-0.94922745
15	0xbf8684d7	-1.050929
16	0xbf300e00	-0.6877136
17	0xbdbe4fbc	-0.09292552
18	0xbed2fd87	-0.4120905
19	0xbecde6b6	-0.4021508
20	0xbebc17bc	-0.36736858
21	0xbe91eb34	-0.28499758
22	0xbf3579dd	-0.70889074
23	0xbf735745	-0.9505504
24	0xbfc037c6	-1.5017021
25	0x3f92f89b	1.1482118
26	0x3f9a23d9	1.204219
27	0xbfd42339	-1.6573249
28	0xbeb79a89	-0.35860088
29	0x3e66043e	0.22462556
30	0xbf5bb165	-0.8581756
31	0xbe9b40b6	-0.30322808
32	0xbdb3e8a2	-0.087846056
33	0xbd004be5	-0.03132238
34	0x3f1f9ffc	0.6235349
35	0x3ebd795e	0.37006658
36	0x3ca5a18c	0.020218633
37	0x3e27005a	0.16308728
38	0xbe6bc9e7	-0.23026238
39	0xbeae7b84	-0.3407861
40	0x3f890e8f	1.0707568
41	0xbdd9ccf8	-0.10634798
42	0xbface0fa	-1.3506157
43	0xbdb9d519	-0.09073848
44	0xc050b96e	-3.2613177
45	0x3e8e4c17	0.27792427
46	0x3f096072	0.5366279
47	0x3d57260f	0.05252653
48	0xbfd5fc8e	-1.6717699
49	0x3ce30eb9	0.027716981
50	0xc012ca50	-2.2935982
51	0xbf8307c4	-1.0236745
52	0xbf50c648	-0.81552553
53	0xbe23808e	-0.15967008
54	0xbf82101d	-1.0161167
55	0xbf3fc009	-0.749024
56	0xbf9a3238	-1.2046576
57	0x3f0050ab	0.5012309
58	0x406a74c5	3.663377
59	0xbfac07bb	-1.3439859
60	0x3f3dfcad	0.7421368
61	0xbe5aa126	-0.21350536
62	0xbe276726	-0.16347942
63	0xbf1ecd81	-0.62032324
64	0xbdf6f3f8	-0.12058252
65	0x3e21678b	0.15762155
66	0xbee62aa0	-0.44954395
67	0x3ee00972	0.43757206
68	0xbec64602	-0.38725287
69	0xbe5e8a28	-0.2173239
70	0xbeb4a23e	-0.3528003
71	0xbec9caa5	-0.39412418
72	0xbca07717	-0.019588036
73	0xbe9685f7	-0.29399082
74	0xbfa02ff6	-1.2514637
75	0xbf9adb1f	-1.209812
76	0x3eee332a	0.4652341
77	0x3dfd21d8	0.12359971
78	0xbf181164	-0.59401536
79	0xbf4ca151	-0.7993365
80	0x4045f1bb	3.092879
81	0x3ed6f6f7	0.41985294
82	0x3f96de0f	1.1786517
83	0x3eea5bf6	0.45773286
84	0xc0013343	-2.0187538
85	0xbdb347c4	-0.087539226
86	0x3d888ea1	0.06667829
87	0x3ddb1877	0.10698026
88	0xbe9f1a42	-0.3107472
89	0x3e8ce031	0.27514794
90	0x3dcd57bf	0.10026502
91	0xbf06b65a	-0.52621996
92	0xbf145e25	-0.57956153
93	0x3d1a4940	0.037667513
94	0xbf568ec8	-0.83811617
95	0xbf3cc196	-0.7373289
96	0x403ff323	2.999215
97	0xbf4053d2	-0.751279
98	0x40676590	3.615574
99	0xbe52e6ab	-0.20595805
100	0x3db3efd8	0.08785981
101	0xbe43c976	-0.1911982
102	0xbf0de660	-0.5542965
103	0xbf5ff125	-0.8747733
104	0x3ff24279	1.8926536
105	0x400001b7	2.0001047
106	0x3fb864cb	1.440576
107	0x3f2ab335	0.666797
108	0xbc053d0a	-0.008132229
109	0xbcfc6630	-0.030810446
110	0xbeb57b83	-0.35445794
111	0xbedc028e	-0.429707
112	0xbdefeea9	-0.11715443
113	0xbea55282	-0.3228951
114	0x3efda480	0.49539566
115	0x3f99d276	1.2017353
116	0xbeb9a8c8	-0.36261582
117	0xbe2289aa	-0.15872827
118	0xbf156829	-0.5836206
119	0xbf44ed0d	-0.7692421
120	0x3fd0b35a	1.6304734
121	0xbef115a7	-0.47086832
122	0xc02d3f55	-2.7069905
123	0xc0905eed	-4.5115876
124	0xbf9a303f	-1.2045974
125	0x3e3be2de	0.18348262
126	0xbf574788	-0.84093523
127	0xbf839458	-1.0279646
128	0x403983bd	2.8986657
129	0xbe43412e	-0.19067833
130	0xc031c2e2	-2.7775197
131	0x3f680572	0.9063331
132	0x3fafecb0	1.3744106
133	0xbea38679	-0.31938532
134	0xbecf0c0f	-0.40438887
135	0xbef3af27	-0.47594568
136	0xbe80ddd6	-0.25169247
137	0x3edeb227	0.43495294
138	0xbf5babe3	-0.85809153
139	0xbf2a57f4	-0.66540456
140	0xbfcf997a	-1.6218712
141	0xbdc829c0	-0.09773588
142	0xbf3f8a19	-0.74820095
143	0xbf266a14	-0.6500561
144	0xbcbddc96	-0.023176473
145	0x3cdc8a6e	0.026921477
146	0xbef9389a	-0.48675996
147	0x3e2204ab	0.15822093
148	0xbf9d9b3b	-1.2312998
149	0xbb546d80	-0.00324139
150	0xbd861a9d	-0.06548045
151	0xbe36a436	-0.17836079
152	0xbcdcc159	-0.026947664
153	0xbca1f0fb	-0.019768229
154	0x3e6b4e69	0.2297913
155	0x3ec26e56	0.37974805
156	0x3eea1d2a	0.45725375
157	0x3e6222aa	0.22083536
158	0xbea351ad	-0.3189825
159	0xbe8799ee	-0.26484627
160	0xc0366954	-2.8501787
161	0xbfbefcb2	-1.4920866
162	0xbeeda8be	-0.46417803
163	0xbf607e2b	-0.8769252
164	0xbf9a3d8d	-1.2050034
165	0x3e2d45f6	0.16921219
166	0xbf0b4da3	-0.5441534
167	0xbf4f0f23	-0.8088247
168	0xbe7a70f5	-0.24457152
169	0xbec2253c	-0.37919033
170	0xbe13fc00	-0.14451599
171	0xbded4f83	-0.11587431
172	0xbf1f67da	-0.6226784
173	0xbdd9fefc	-0.106443375
174	0xbf447386	-0.76738775
175	0xbf5e858e	-0.8692254
176	0x3e6a3eb7	0.22875486
177	0xbd901def	-0.070369594
178	0x3f9f6152	1.2451575
179	0xbf919ace	-1.1375368
180	0xbfc4ac22	-1.5365031
181	0xbea46593	-0.32108745
182	0xbe30caef	-0.17264913
183	0xbee74e44	-0.451769
184	0x3fe0c52a	1.756017
185	0x3faa4fba	1.3305581
186	0xbde72201	-0.112857826
187	0xbf5df587	-0.8670277
188	0x3dc1e6ae	0.09467827
189	0x3e4039a2	0.18771985
190	0xbf648b2b	-0.89274853
191	0xbf282511	-0.6568156
192	0x40eff224	7.498308
193	0xbe945428	-0.28970456
194	0x3f81608f	1.0107592
195	0x3dda7dd3	0.1066853
196	0xbef29e7e	-0.47386545
197	0x3e951b47	0.29122373
198	0x3dd9a3b2	0.106269255
199	0xbcc0124a	-0.02344622
200	0x3e2b7444	0.1674357
201	0xbe763d7c	-0.24046892
202	0x3f69f00f	0.91381925
203	0x3eb27b9e	0.34859937
204	0xbf0d231d	-0.55131704
205	0x3d686ed8	0.056746334
206	0xbf097bd3	-0.53704566
207	0xbed7f6b5	-0.4218041
208	0x3e40e07e	0.18835637
209	0x3decc918	0.11561793
210	0x3f1f8f7b	0.6232831
211	0x3f381a2d	0.7191494
212	0xbee5113a	-0.44739705
213	0x3e5ab78e	0.21359083
214	0xbf09e636	-0.538669
215	0xbe4782be	-0.19483468
216	0x3feda100	1.8564758
217	0x3fc6a8a9	1.5520221
218	0x3eee9da1	0.46604636
219	0x3f67a7a0	0.9049015
220	0xbd13e5a9	-0.036107693
221	0xbc506fe0	-0.012721986
222	0x3dac0861	0.08400036
223	0x3efdfb8b	0.49605975
224	0xbf50de1c	-0.8158891
225	0xbf5c7825	-0.86120826
226	0xbf8bba74	-1.0916276
227	0xc0570512	-3.3596845
228	0xbc2db43c	-0.010602053
229	0xbeb10e23	-0.34581098
230	0xbf18d6ad	-0.5970257
231	0xbf36b233	-0.7136566
232	0xbed1aba3	-0.4095126
233	0xbeafcbef	-0.34335276
234	0x3f440ae9	0.7657915
235	0xbf86e9d1	-1.0540105
236	0xbf82e36b	-1.0225652
237	0x3e45bf62	0.19311288
238	0xbf3d2124	-0.73878694
239	0xbf43a999	-0.7643066
240	0x3d97d557	0.07413738
241	0x3e8dcf7c	0.2769736
242	0x3e94480c	0.28961217
243	0xc0c97e3f	-6.296661
244	0x3f2a2a15	0.6647046
245	0xbe05feec	-0.13085526
246	0xbd4c8ae8	-0.04993716
247	0xbd60f6b8	-0.05492279
248	0x3fe2a091	1.7705251
249	0xbf7687dc	-0.96301055
250	0xbf55c11c	-0.83497787
251	0xc04d42af	-3.207195
252	0xbf4b9b8b	-0.79534215
253	0xbdd225d4	-0.102611214
254	0xbee3f844	-0.4452535
255	0xbeac8762	-0.3369704

w_group.0.bias f4 [64]
0	0xbe9aa434	-0.30203402
1	0xbf8e8a47	-1.1135949
2	0xbf753fa1	-0.95800215
3	0xbf5ab920	-0.8543873
4	0xbeeb2052	-0.45923096
5	0xbdc6b633	-0.097027205
6	0xbf43bca9	-0.7645975
7	0xbf3942f3	-0.7236778
8	0xbf1b658e	-0.60701835
9	0xbf0a9684	-0.5413592
10	0xbe54786c	-0.20749062
11	0xbf7ab784	-0.9793627
12	0xbf562497	-0.8364958
13	0xbe459956	-0.19296774
14	0xbf07a437	-0.52984947
15	0xbef56c5d	-0.47934237
16	0xbf05e4a5	-0.5230201
17	0xbedb94c3	-0.42886934
18	0xbf1265d3	-0.5718662
19	0x3d955d90	0.07293236
20	0xbf4c7677	-0.79868263
21	0xbf61b1be	-0.8816184
22	0xbf48a548	-0.783772
23	0xbf81667c	-1.0109401
24	0xbe709aaf	-0.23496507
25	0xbf417dcd	-0.7558258
26	0xbf00e772	-0.5035316
27	0x3ee7e2df	0.45290276
28	0xbe26e7bb	-0.16299336
29	0xbf190d0b	-0.59785527
30	0xbdbf4deb	-0.093410335
31	0xbec56ee8	-0.38561177
32	0xbf0c9e22	-0.5492879
33	0xbf2a0ee8	-0.66428995
34	0xbe616497	-0.22011028
35	0xbec4b5e9	-0.38420036
36	0xbf1af38a	-0.6052786
37	0x3eac0b1a	0.3360222
38	0xbed78210	-0.42091417
39	0xbf06afed	-0.5261219
40	0xbcc2e769	-0.023791986
41	0xbf283fb6	-0.65722215
42	0xbf2f7697	-0.6854033
43	0xbd45b744	-0.04827048
44	0xbeea516c	-0.45765245
45	0xbe245139	-0.16046609
46	0x3d2e5619	0.042562578
47	0x3e013215	0.12616761
48	0xbdf32957	-0.11873119
49	0xbd48623b	-0.048921805
50	0xbf6952ee	-0.91142166
51	0x3ec47e61	0.3837767
52	0xbed30bdf	-0.41219994
53	0xbee29bb8	-0.4425943
54	0xbe5176db	-0.20455496
55	0xbf1ef893	-0.62098044
56	0xbf4f15c3	-0.8089258
57	0xbe9cee5e	-0.3065061
58	0x3ce43ce1	0.02786106
59	0x3ebb8946	0.3662817
60	0xbeeb7cc7	-0.45993635
61	0xbf64f994	-0.89443326
62	0xbdb5db51	-0.08879722
63	0x3dc9b17e	0.09848307

w_group.2.weight f4 [32, 64]
0	0x3dbb6904	0.091508895
1	0xbddf1331	-0.10892332
2	0xbd5739da	-0.052545406
3	0xbdeef654	-0.11668077
4	0x3cb914f6	0.022593003
5	0x3cff0e98	0.031134889
6	0xbe2160ec	-0.15759629
7	0x3bdebf8f	0.006797738
8	0xbd5a4e47	-0.053297307
9	0xbc953569	-0.018213945
10	0xbd88e91c	-0.06685087
11	0x3d868d3e	0.065699086
12	0xbdbef52c	-0.093241066
13	0xbcded228	-0.02719982
14	0xbcf36335	-0.029710392
15	0x3d97be76	0.074093744
16	0xbd72b457	-0.059254017
17	0xbe1c50dd	-0.15265222
18	0x3d3e899f	0.046517964
19	0xbe0f599c	-0.13999027
20	0xbdfb9ca5	-0.12285737
21	0xbe1a3934	-0.15060884
22	0xbdb7ceba	-0.08974977
23	0xbcf89aaa	-0.030347187
24	0xbbc3fbb3	-0.0059809326
25	0x3d9d071e	0.07667373
26	0xbdfc0df0	-0.12307346
27	0x3dad25d2	0.08454479
28	0x3d44ab51	0.048014943
29	0xbd37d9ef	-0.044885572
30	0x3d3795aa	0.044820465
31	0x3da43f5a	0.08019896
32	0x3ca42468	0.020036891
33	0xbd66f840	-0.056389093
34	0x3ca23396	0.019799989
35	0x3ccf1b84	0.025281675
36	0xbd45f7aa	-0.048331894
37	0x3d03e017	0.03219613
38	0x3db3f331	0.087866195
39	0xbe058e0a	-0.13042465
40	0xbdf74fae	-0.120757446
41	0x3cc8478c	0.024448179
42	0xbd5f455a	-0.0545095
43	0xbe408c8b	-0.18803613
44	0x3dbea335	0.09308473
45	0xbc06d691	-0.008229868
46	0xbe43e822	-0.1913152
47	0xbdfe07c0	-0.12403822
48	0xbe5fbcd6	-0.21849379
49	0x3ca0963b	0.019602885
50	0xbbcde882	-0.0062838206
51	0x3d84a7e8	0.06477338
52	0xbcc3a43d	-0.023882026
53	0x3db86f25	0.09005574
54	0xbd802020	-0.06256127
55	0xbd5ac2f1	-0.053408567
56	0x3daede4c	0.085384935
57	0xbde450bb	-0.111482106
58	0xbd8e6731	-0.06953276
59	0xbddd9708	-0.108198225
60	0xbda5d936	-0.0809807
61	0xbe1e262b	-0.15444247
62	0xbd92f584	-0.07175735
63	0xbe23c487	-0.15992938
64	0x3d0891c3	0.033342134
65	0x3e74362a	0.23848787
66	0x3ef1c174	0.47217906
67	0x3e30043f	0.1718912
68	0xbdc07a32	-0.09398307
69	0x3f6e93a1	0.93194014
70	0xbf356b06	-0.7086643
71	0xbf3f7810	-0.74792576
72	0xbe7bdeb0	-0.24596667
73	0x3e45a012	0.19299343
74	0x3e63b514	0.22237045
75	0x3ea3ae9f	0.31969163
76	0x3d8bd421	0.0682757
77	0x3f7bad92	0.9831172
78	0x3df1d04c	0.118073076
79	0x3f355fba	0.7084919
80	0x3fb7b75c	1.4352832
81	0xbee0cc2a	-0.43905765
82	0xbd886390	-0.06659615
83	0x3c026fb9	0.007961207
84	0x3f3afb04	0.7303927
85	0xbe3a429c	-0.18189472
86	0x3e283f41	0.1643038
87	0xbc36fe3e	-0.0111690145
88	0xc0190576	-2.3909583
89	0xbd537585	-0.051625747
90	0x3ed9d814	0.42547667
91	0x3e47bad6	0.19504866
92	0xbf688b45	-0.9083751
93	0xbcb08080	-0.021545649
94	0xbfcc3883	-1.5954746
95	0x3daa648a	0.083199576
96	0xbf1e099b	-0.61733407
97	0x3ee20032	0.44140774
98	0xbd55a0cf	-0.052155312
99	0x3d7a782a	0.061149754
100	0xbd32aca5	-0.043621678
101	0x3db747d4	0.08949247
102	0x3e497d04	0.19676596
103	0x3c56a193	0.013100046
104	0xbf023716	-0.50865304
105	0x3f4174bd	0.75568753
106	0x3e00b5d6	0.12569365
107	0xbf2e84a0	-0.6817112
108	0x3face6c2	1.3507922
109	0xbdcff6b3	-0.10154476
110	0xc03b2796	-2.9242911
111	0x3dc30648	0.095226824
112	0xbf0dd3e2	-0.5540143
113	0x3d60f0dc	0.0549172
114	0xbe6af2c4	-0.2294417
115	0x3e2b80d7	0.16748367
116	0xbe033eba	-0.12816897
117	0x3f314bc7	0.6925625
118	0xbf06ca47	-0.526524
119	0xbf87995c	-1.0593677
120	0xbf268b4d	-0.65056306
121	0x3dabef91	0.08395303
122	0x3f29b16f	0.6628637
123	0xbd855116	-0.065096065
124	0x3c6e81b6	0.014557293
125	0x3e928061	0.2861357
126	0xbfd413cf	-1.6568545
127	0xc05d6c92	-3.4597516
128	0xbe11f4f1	-0.14253594
129	0xbf9730cb	-1.1811765
130	0xbd1d8140	-0.03845334
131	0xbef51791	-0.47869542
132	0xbd22e955	-0.039773304
133	0x3e62136f	0.22077726
134	0xbf9b7737	-1.2145756
135	0x3f14c751	0.5811663
136	0x3d15d200	0.036577225
137	0xbe3c1d66	-0.1837059
138	0xbd953158	-0.07284802
139	0x3f4dbe63	0.8036863
140	0xbf17ae64	-0.59250474
141	0x3f4aa39d	0.79155904
142	0xbe967d68	-0.29392552
143	0xbf6cdefb	-0.9252774
144	0xbf1629c3	-0.58657473
145	0xbe7d3917	-0.2472881
146	0x3e538d94	0.20659477
147	0xbe5f2bd9	-0.2179407
148	0xc0b4b151	-5.646645
149	0xbee31952	-0.44355255
150	0xbf266e8a	-0.6501242
151	0xbe57981e	-0.21054122
152	0x3e3abdf1	0.1823652
153	0xbe92bf94	-0.28661788
154	0xbcf0dca7	-0.02940209
155	0xbf9c5c03	-1.221558
156	0xbf14159c	-0.57845473
157	0x3dc21352	0.09476341
158	0xbfdc7753	-1.7223915
159	0xbfe1e563	-1.7648128
160	0xbf1e3c86	-0.618111
161	0xbed7fe7d	-0.42186347
162	0xbda84f96	-0.08218305
163	0xc0382790	-2.8774147
164	0xbdd3f5ab	-0.10349592
165	0x3e74cf46	0.23907194
166	0x3a00d5b8	0.0004914659
167	0xbdba94dc	-0.09110424
168	0xbfbb82aa	-1.464925
169	0x3e0f649d	0.14003225
170	0x3cd87205	0.026421556
171	0x3fc9eab9	1.5774757
172	0xc006023b	-2.0938861
173	0xbe038fd5	-0.12847836
174	0x3f4548f8	0.77064466
175	0x3cd6c465	0.026216695
176	0x3f250899	0.64466244
177	0xbf641f36	-0.89110124
178	0xbdadcf19	-0.08486766
179	0xbef8bf14	-0.4858328
180	0xbdaa299a	-0.08308716
181	0x3ee30f68	0.44347692
182	0x3fbcda78	1.4754171
183	0x3ec51abe	0.38496965
184	0x3f041f3e	0.5161017
185	0x3bd7e274	0.0065882746
186	0x3ea1e127	0.3161709
187	0x3effacb2	0.49936444
188	0xbf5a7e50	-0.8534899
189	0xc047dde5	-3.1229184
190	0xbeb9eef9	-0.36315134
191	0xbe897d5c	-0.26853454
192	0x3d6c95ec	0.057760164
193	0xbdc8fb94	-0.0981361
194	0x3dfaa9fc	0.12239453
195	0xbba306af	-0.004975162
196	0xbc687c2d	-0.014189762
197	0xbe0f30b9	-0.1398343
198	0xbe06a1e9	-0.13147701
199	0xbe11dd8e	-0.14244673
200	0xbdeb4797	-0.11488264
201	0xbe134beb	-0.14384429
202	0xbdc81d3a	-0.097711995
203	0x3b725c42	0.003698126
204	0xbdccbd37	-0.09997027
205	0xbd10d8af	-0.035362896
206	0xbde8424a	-0.11340769
207	0xbd438ef9	-0.04774377
208	0xbd97c500	-0.07410622
209	0x36109c62	2.15487e-06
210	0xbd47416a	-0.048646368
211	0xbda98114	-0.08276573
212	0x3d16236c	0.036654875
213	0x3d4e1558	0.050313324
214	0xbe299d41	-0.16563894
215	0xbe183bb4	-0.14866525
216	0xba6045d8	-0.00085553294
217	0xbe381117	-0.1797527
218	0xbd7f8841	-0.0623858
219	0x3ca10ab3	0.019658422
220	0x3daa6b97	0.083213024
221	0xbd216d71	-0.039411012
222	0xbdeeb737	-0.11656039
223	0x3d19460b	0.037420314
224	0x3cc7787c	0.024349444
225	0x3dce1963	0.10063436
226	0xbcb319f8	-0.021862969
227	0xbda6cbae	-0.081443176
228	0x3d349ea0	0.04409659
229	0xbe15b4d4	-0.14619762
230	0x3c517dc9	0.012786337
231	0xbe1f966f	-0.1558473
232	0xbe08ea59	-0.13370647
233	0xbdae9910	-0.08525288
234	0x3d2d54ea	0.04231731
235	0x3c0ea2c3	0.008705798
236	0xbd195d8b	-0.037442725
237	0x3d92bd9b	0.071650706
238	0xbe298dba	-0.1655797
239	0x3dfe5894	0.12419239
240	0xbda24777	-0.07923787
241	0x3d96ffea	0.073730305
242	0x3db77562	0.08957936
243	0xba983490	-0.0011612345
244	0x3caf8897	0.021427436
245	0x3d819477	0.063271455
246	0xbe1f32cb	-0.1554672
247	0xbd0edc91	-0.034878317
248	0x3d4a9df8	0.049467057
249	0x3c0b6fa0	0.0085105
250	0xbd7af4d9	-0.06126866
251	0x3c8e9a3a	0.017407525
252	0x3cb8ebfe	0.022573467
253	0xbe3a9614	-0.18221313
254	0x3c437400	0.011929512
255	0xbe10b17f	-0.1413021

w_group.2.bias f4 [32]
0	0xbe5b34a2	-0.21406797
1	0xbfca16e1	-1.5788232
2	0x3e0ff0ac	0.14056653
3	0xbe5b5169	-0.21417774
4	0x3f75fc7f	0.96088403
5	0x3f0df848	0.5545697
6	0xbdf8c1b8	-0.12146324
7	0x3f0feec4	0.562237
8	0xbea0b8b7	-0.31390926
9	0xc0427ab5	-3.0387394
10	0x3d8bf0d0	0.06833041
11	0x4015cd2c	2.3406477
12	0xbeee6d54	-0.46567786
13	0xbf9a3cf7	-1.2049855
14	0xc02b0142	-2.6719518
15	0xbfeca8a9	-1.8488971
16	0xbdeceeee	-0.1156901
17	0x3f35b9b4	0.70986485
18	0x3f6012ad	0.87528497
19	0xbdbb64a3	-0.09150054
20	0x3fe38950	1.777628
21	0x3ea1eca6	0.3162586
22	0x40841181	4.1271367
23	0xbfddafce	-1.7319276
24	0xbf3dcba5	-0.7413886
25	0xbf69fbc4	-0.9139979
26	0xbfe717bd	-1.8054119
27	0xbdc40320	-0.095709085
28	0xbdb0366b	-0.086041294
29	0x3f91e287	1.1397256
30	0xbe788379	-0.24268903
31	0x3f7e71d3	0.9939243

w_agents.0.weight f4 [64, 5]
0	0x3ceee9d2	0.029164229
1	0xbe36c54a	-0.17848697
2	0x3f810e9b	1.0082582
3	0x3d8022b0	0.06256616
4	0x3e97f2d0	0.2967744
5	0xbf160e54	-0.58615613
6	0xbf0f95dc	-0.5608804
7	0x3f7dbfbb	0.9912068
8	0x3f3e4dd0	0.7433748
9	0xbfcfc107	-1.6230782
10	0x3c6da2d5	0.014504154
11	0xbc9cb81c	-0.019130759
12	0xbe75e5c9	-0.24013437
13	0xbf848eca	-1.0356076
14	0xbf575213	-0.8410961
15	0xbcd4d7f7	-0.025981886
16	0xbb55e272	-0.0032636193
17	0xbf2be3f1	-0.67144686
18	0x3f9785be	1.183769
19	0xbfcfc004	-1.6230474
20	0x3ec4d669	0.38444832
21	0x3d0d71ab	0.03453223
22	0x3fbdb408	1.4820566
23	0xbf04e617	-0.5191359
24	0xbf28d5be	-0.65951145
25	0xbd67427e	-0.056459896
26	0xbf234142	-0.6377145
27	0x3d164d2d	0.036694694
28	0x3e4fc751	0.20290877
29	0x3df88b6f	0.1213597
30	0xbeada02c	-0.33911264
31	0x3efeb34b	0.49746165
32	0xbf7e3d72	-0.9931251
33	0x400e5a2e	2.2242541
34	0xbfad1af6	-1.3523853
35	0xbc361e1b	-0.011115576
36	0x3b4026c2	0.0029319976
37	0xbf8d2cec	-1.1029334
38	0x3f4e6904	0.8062899
39	0xbfb05b53	-1.377787
40	0x3bb7a5f5	0.0056045004
41	0x3c32b002	0.010906221
42	0x3bf7c32f	0.0075611095
43	0xbeda9db2	-0.42698437
44	0xbf2b2800	-0.6685791
45	0xbbe4a8fc	-0.0069781523
46	0xbc01fc35	-0.007933666
47	0xbd9c9c04	-0.07646945
48	0xbe7a117b	-0.24420731
49	0xbedc94b5	-0.43082204
50	0x3a965fc1	0.0011472629
51	0xbbf16794	-0.007367084
52	0x3de995f5	0.11405555
53	0x3d9460d2	0.072450295
54	0xbe0241fc	-0.12720484
55	0xbda46f43	-0.08029034
56	0x3cee554a	0.029093403
57	0x3e978876	0.295963
58	0xbe404802	-0.18777469
59	0xbf045b27	-0.5170159
60	0x3efbd0e7	0.49182817
61	0xbeb9807e	-0.36230844
62	0x3f7971d9	0.9743934
63	0x3f52ac0f	0.8229379
64	0xbf84f0f2	-1.0386031
65	0xbcbffe70	-0.023436755
66	0x3b02edbf	0.0019978133
67	0xbe907433	-0.28213653
68	0xbdf4c502	-0.11951639
69	0xbd9996a3	-0.07499435
70	0xbc46cd42	-0.012133898
71	0x3ca36b9e	0.019948777
72	0x3e192196	0.14954218
73	0x3eaec36a	0.34133464
74	0xbf20d2de	-0.6282176
75	0xbd72ee60	-0.059309363
76	0xbda4ec97	-0.080529384
77	0x3e7e2cc8	0.2482177
78	0x3e9baec8	0.30406785
79	0xbf527e7e	-0.8222426
80	0x3d01c4f7	0.03168198
81	0xbda116bd	-0.07865665
82	0xbef6ed40	-0.48227882
83	0x3fa0754e	1.2535799
84	0xbfa9c640	-1.3263626
85	0xbc9796fb	-0.01850461
86	0xbb885067	-0.0041599753
87	0x3dd9c51e	0.106333
88	0x3ed2731c	0.41103446
89	0xbef37ad3	-0.47554645
90	0x3db55bf5	0.0885543
91	0xbf802809	-1.0012218
92	0x40048e9b	2.071204
93	0x405732bb	3.3624713
94	0xc00d9021	-2.211922
95	0x3b895fab	0.0041923127
96	0xbb227961	-0.0024791586
97	0xbdc72754	-0.09724298
98	0xbdfd49dd	-0.12367604
99	0xbf2018fd	-0.6253813
100	0xbe0fd453	-0.14045839
101	0xbe26ca5a	-0.16288128
102	0x3e2bc0bb	0.1677274
103	0x3e729204	0.23688513
104	0xbff9f01e	-1.9526403
105	0x3d16adb3	0.036786746
106	0x3d0bd61e	0.034139745
107	0x3c10b627	0.008832491
108	0x3f86cf54	1.0532022
109	0xbf8fc3e6	-1.1231658
110	0xbcca5357	-0.024697943
111	0xbcb273cc	-0.021783732
112	0x3dc53c91	0.09630693
113	0xbe309dae	-0.1724765
114	0xbd43f294	-0.047838762
115	0xbcb51ae3	-0.022107547
116	0xbb3834b3	-0.0028107583
117	0xbe8137eb	-0.25237975
118	0xbd9409e7	-0.07228451
119	0xbf3c83e2	-0.7363874
120	0x3e42ef52	0.19036606
121	0x3da4365c	0.08018181
122	0xbfb6f457	-1.4293317
123	0xbdad8faa	-0.08474667
124	0xbe29e000	-0.16589355
125	0xbd0b3b4e	-0.033992104
126	0x3f1d8577	0.61531776
127	0x3fa4b14d	1.2866608
128	0x400a1375	2.1574376
129	0xbfb284f1	-1.394682
130	0xbc9e3eba	-0.01931702
131	0xbc28b47a	-0.010296935
132	0x3cdd6218	0.027024314
133	0xbe1e58dd	-0.15463586
134	0xbe764076	-0.24048027
135	0x3d8f9aef	0.07011973
136	0xbea94748	-0.33062196
137	0xbfb73c33	-1.4315246
138	0x3f8d00e7	1.10159
139	0xc0040dbf	-2.063339
140	0xbe856fd9	-0.26061895
141	0x3d8f6b0c	0.070028394
142	0xbce6cb08	-0.028172985
143	0x3fae9006	1.3637702
144	0xc007a430	-2.1193962
145	0x3f0cbc98	0.5497527
146	0xbd4b25aa	-0.049596466
147	0x3f19e8b2	0.6012069
148	0x3f877ee1	1.0585595
149	0xc020a4fa	-2.5100694
150	0xbd9242b4	-0.07141629
151	0xbd6b1d66	-0.057401083
152	0xbf4fd13e	-0.81178653
153	0x3e13c277	0.14429651
154	0xbf6b8a8e	-0.9200829
155	0x3dff7a3c	0.12474486
156	0xbc3c0eee	-0.011478169
157	0xbe335d3f	-0.1751604
158	0x3e878434	0.2646805
159	0xbf714bdd	-0.94256383
160	0x3ea101d4	0.31446707
161	0xbec7af39	-0.39000872
162	0xbfaf5a6a	-1.3699467
163	0x3f6da82a	0.92834723
164	0xbf42d039	-0.7609897
165	0x3cc5ae0a	0.02413084
166	0x3d760ff1	0.060073797
167	0xbecda4fb	-0.40164933
168	0x3f22912b	0.6350276
169	0xbf2dc7b2	-0.67882836
170	0xbd1244e6	-0.035710238
171	0x3eb5045d	0.3535489
172	0x3ef10e4f	0.4708123
173	0x3fef910b	1.8716139
174	0xbf250692	-0.6446315
175	0x3e12bca9	0.1432978
176	0xbc6b1eba	-0.0143505875
177	0x3eab0ee9	0.33409813
178	0xbec5df89	-0.38647106
179	0xbf80488d	-1.0022141
180	0x3d0c6a8d	0.034281302
181	0x3e807c0d	0.25094643
182	0x3e2698b6	0.16269192
183	0x3fcfe47b	1.6241602
184	0xbf6997cb	-0.9124724
185	0x3d051e38	0.032499522
186	0x3bb9ed66	0.005674052
187	0xbfcbe98c	-1.5930648
188	0x3d4ffbee	0.05077737
189	0xbfaf6da9	-1.3705341
190	0xbbc66c08	-0.006055359
191	0xbc7a1156	-0.015262922
192	0xbd65c8a7	-0.05609956
193	0xbec5e9b8	-0.38654876
194	0xbf458166	-0.7715057
195	0x3d89ec65	0.06734542
196	0x3e4077e7	0.18795739
197	0x3d925975	0.07145969
198	0x3f8fa60a	1.1222546
199	0xc002192f	-2.032787
200	0x3b0be121	0.0021343904
201	0xbc9ce07f	-0.019150017
202	0xbf0b3e7c	-0.5439222
203	0xbe9d21b2	-0.3068977
204	0xbf415f85	-0.75536376
205	0x3e38ea24	0.18058068
206	0xbe0817e2	-0.1329036
207	0xbe7274fc	-0.23677438
208	0x3fa7db70	1.3113842
209	0xc0209756	-2.5092368
210	0x3d9eb5ff	0.07749557
211	0xbfbb0bf6	-1.4613025
212	0xbe59eede	-0.21282527
213	0x4027c349	2.6212943
214	0xbfb93d65	-1.4471861
215	0xbed70e2c	-0.42003
216	0x3f535d38	0.82564116
217	0xbf7e00c1	-0.992199
218	0x4039d575	2.9036534
219	0xbfbb1e27	-1.4618577
220	0xbd5b1b90	-0.053493083
221	0xbe36c43f	-0.178483
222	0x3fb4603c	1.4091868
223	0x4020fc7f	2.5154111
224	0xc011b566	-2.2766967
225	0xbeffbc50	-0.4994836
226	0x3f233acd	0.637616
227	0xbe33571f	-0.17513703
228	0x3e210787	0.15725528
229	0xbf8a2351	-1.0792028
230	0xbd2f367f	-0.04277658
231	0xbc8d1a8a	-0.017224569
232	0x3d3cd852	0.046104737
233	0x4031c472	2.777615
234	0xc02f78ec	-2.7417555
235	0x3bb6683c	0.005566625
236	0xbd87ce25	-0.06631116
237	0xbf55f644	-0.83578897
238	0x3ff11c66	1.8836792
239	0xc01a7a54	-2.4137163
240	0xbf0a8b67	-0.5411896
241	0xbf9886c9	-1.1916133
242	0xbf8c835b	-1.0977587
243	0x3fc9d657	1.5768536
244	0xc014f41f	-2.3274
245	0xbcb434f0	-0.021997899
246	0xbe5e5879	-0.21713437
247	0x3d96a27e	0.07355212
248	0xbf1d71b7	-0.6150164
249	0xbfca1ce4	-1.5790067
250	0xbe0e3ea8	-0.13891089
251	0x3d75ff00	0.06005764
252	0x3df8f353	0.121557854
253	0xbfe0d5af	-1.7565211
254	0xbea9f639	-0.33195665
255	0xbe7f50ed	-0.24933214

w_agents.0.bias f4 [64]
0	0xbf07d111	-0.53053385
1	0xbfc69c92	-1.5516531
2	0xbf75d04a	-0.9602095
3	0xbf95cd04	-1.1703191
4	0xbf9ba91e	-1.2160985
5	0xbdd8bd8a	-0.10583027
6	0xbfb41365	-1.4068419
7	0xbf836c79	-1.0267478
8	0xbecb9e01	-0.39768985
9	0xbe4cf6ea	-0.20016065
10	0xbe1de26f	-0.15418409
11	0xbf538a7a	-0.82633173
12	0xbfaa6afc	-1.3313899
13	0xbedd78e3	-0.43256292
14	0xbeb13e9e	-0.34618086
15	0xbf61c228	-0.88186884
16	0xbfc6345a	-1.5484726
17	0xbed15d52	-0.4089151
18	0xbffba359	-1.9659225
19	0xbdea915b	-0.114535056
20	0xbfb3319c	-1.3999515
21	0xbf8876e3	-1.0661281
22	0xbf037635	-0.51352245
23	0xbe468012	-0.19384792
24	0xbe9e2fb5	-0.30895773
25	0xbfb06156	-1.3779705
26	0xbeb04ac5	-0.34432045
27	0xbfee503e	-1.8618238
28	0xc00a9885	-2.165559
29	0xc00d1bd4	-2.2048235
30	0xbfa026e4	-1.2511868
31	0xbf6d91ab	-0.92800397
32	0xbf0abde0	-0.54195976
33	0xbf5f387e	-0.87195575
34	0xbf6bbee0	-0.9208813
35	0xbf9773a5	-1.1832167
36	0xbf83fdae	-1.0311792
37	0xbfd62780	-1.6730804
38	0xbe994f68	-0.29943395
39	0xbfe1447e	-1.7599027
40	0xbf3a2ba4	-0.7272284
41	0xc00b909d	-2.1807015
42	0xbff1c0f5	-1.8887011
43	0xbfebd5e1	-1.8424646
44	0xc026e64f	-2.607807
45	0xbfd689ad	-1.6760765
46	0xc010c204	-2.2618418
47	0xbfe19c79	-1.7625877
48	0xbfd9d856	-1.7019145
49	0xbfdf2437	-1.7432927
50	0xbf8facc1	-1.1224595
51	0xbed47b3c	-0.4150027
52	0xbe2a8fa0	-0.16656351
53	0x3e629b20	0.22129488
54	0xbdf34cb4	-0.11879864
55	0xbfd7d742	-1.6862566
56	0xbfb84df0	-1.4398785
57	0xbfc836ba	-1.5641701
58	0xc00b0718	-2.172308
59	0xbfb96985	-1.4485327
60	0xbf722a87	-0.9459614
61	0xbfc6e6d3	-1.5539192
62	0xc014a9fd	-2.3228753
63	0xbe8c8205	-0.27442947

w_agents.2.weight f4 [32, 64]
0	0x3bce950a	0.006304388
1	0xbd168c53	-0.036754917
2	0xbd450779	-0.04810283
3	0xbd61c4d3	-0.055119347
4	0xbdb7b2ab	-0.08969625
5	0x3b992b65	0.0046743625
6	0xbe032cc3	-0.12810044
7	0x3d81c95c	0.063372344
8	0x3d580e3f	0.05274796
9	0xbd8be612	-0.06830992
10	0xbceb0469	-0.028688626
11	0x3d2ba77c	0.041907772
12	0xbd8e2a04	-0.069416076
13	0x3d6ce439	0.057834838
14	0x3b69ce64	0.0035675997
15	0x3bf74cde	0.007547005
16	0xbda274e1	-0.07932449
17	0xbcb3820e	-0.0219126
18	0xbdd2e4c1	-0.102975376
19	0xbe2176ed	-0.15768023
20	0xbe40c09b	-0.18823473
21	0x3c080bc5	0.008303587
22	0xbe4ea3be	-0.2017965
23	0xbdbf1175	-0.093295015
24	0xbe1be23d	-0.15223022
25	0xbb50d5f3	-0.0031865805
26	0xbb9fb45a	-0.0048737945
27	0xbda6def8	-0.08147997
28	0xbdb9536e	-0.09049116
29	0x3d3fe581	0.04684973
30	0x3ca666f1	0.020312758
31	0xbce6d39c	-0.028177075
32	0xb890a038	-6.896298e-05
33	0xbddf0ae9	-0.10890753
34	0xbd2cfcc1	-0.042233232
35	0xbe1354ce	-0.14387819
36	0xbde15ab5	-0.11003629
37	0xbd88c6ca	-0.06678541
38	0xbe3844ba	-0.17994967
39	0xbd26ad77	-0.040692773
40	0xbd666558	-0.056248993
41	0xbd8a3292	-0.06747927
42	0x3d2d385c	0.042290077
43	0x3d222628	0.03958717
44	0x3d498eac	0.049208328
45	0x3cc5a1bd	0.024124974
46	0xbdbb239b	-0.091376506
47	0xbd07ca7b	-0.033152085
48	0xbdc93cf0	-0.09826076
49	0xbb1f21b5	-0.0024281566
50	0xbd8b128e	-0.067906484
51	0xbe0eed9a	-0.13957825
52	0xbcc7bf51	-0.024383219
53	0xbe052c5d	-0.13005204
54	0xbcf11649	-0.029429572
55	0xbdc66870	-0.096878886
56	0xbc669850	-0.0140744
57	0xbd500b15	-0.05079182
58	0xbda49e00	-0.080379486
59	0x3d7eedca	0.062238492
60	0x3beb78dd	0.007186039
61	0x3bba06bb	0.005677072
62	0xbdab5e8a	-0.08367641
63	0xbd9774cc	-0.07395324
64	0xc06ca8cc	-3.6978025
65	0xbed09382	-0.4073754
66	0xbf3455b7	-0.7044329
67	0xbfbac63b	-1.4591745
68	0xbef21379	-0.4728048
69	0xbf44faf1	-0.76945406
70	0xbf3a213e	-0.72706974
71	0xbec4469c	-0.3833512
72	0x3dc4b90d	0.09605608
73	0xbe827972	-0.2548328
74	0xbe1f67ed	-0.15566988
75	0x3ce81eac	0.028334938
76	0xbf671fe6	-0.9028305
77	0xbdd67d28	-0.104730904
78	0x3e39c8a1	0.1814294
79	0xbdcef624	-0.10105541
80	0x3e5873a2	0.2113786
81	0xbec9e291	-0.3943067
82	0x3f892a19	1.0715972
83	0xbdf1c970	-0.11805999
84	0x3d06fc5c	0.032955512
85	0x3f18e63c	0.5972631
86	0xbe35a879	-0.17740048
87	0x3d836021	0.064148195
88	0xbd9ab393	-0.07553782
89	0xbe4647c7	-0.19363318
90	0xbe19f115	-0.15033372
91	0xbdd9d61d	-0.10636542
92	0xbf6fbc39	-0.9364658
93	0xbf2dc438	-0.6787753
94	0xbdb6d9d1	-0.08928264
95	0xbe869633	-0.26286468
96	0xc022d715	-2.5443776
97	0xbde35178	-0.11099523
98	0xbeb04c99	-0.3443344
99	0xbf481a5e	-0.78165233
100	0x397b55cf	0.00023969192
101	0x3ec187bb	0.37798867
102	0xbe98bf7c	-0.2983359
103	0x3f8118eb	1.0085729
104	0xbd2241c8	-0.039613515
105	0x3f1e93c6	0.61944234
106	0xbf82228b	-1.0166792
107	0xbe6a1cd5	-0.22862561
108	0x3e44d73b	0.19222729
109	0x3dc24813	0.09486403
110	0xbf2954dd	-0.66145116
111	0xbcb176d7	-0.021663113
112	0xbf7ea55a	-0.99471056
113	0xbf94d547	-1.1627587
114	0xbebc9635	-0.3683335
115	0xbe8ec4ce	-0.27884525
116	0xbe9c40dd	-0.30518237
117	0xbe44f338	-0.19233406
118	0xbe4cdfc5	-0.20007236
119	0xbea58142	-0.32325178
120	0xbe1329a0	-0.14371347
121	0x3eb1f727	0.34758875
122	0xbf08f3d6	-0.53497064
123	0x3d8793de	0.0662
124	0x3e2aac67	0.16667329
125	0x3efe58de	0.49677175
126	0xbec62eb1	-0.38707498
127	0xbea3178f	-0.3185391
128	0xbe29e25a	-0.16590253
129	0xbdc7c281	-0.097538956
130	0xbdb59a73	-0.088673495
131	0x3d8940a8	0.06701785
132	0xbd964233	-0.07336845
133	0xbd80cbd4	-0.06288877
134	0xbded25ea	-0.11579497
135	0xbe1c1bb8	-0.15244949
136	0xbdea67db	-0.1144559
137	0x3d710fc4	0.058852926
138	0xbca0ad9a	-0.01961403
139	0xbd564d19	-0.05231962
140	0xbde24bc6	-0.11049609
141	0xbdcc5214	-0.09976593
142	0xbcb73ab5	-0.02236686
143	0xbc50a18a	-0.012733826
144	0xbdac0c32	-0.084007636
145	0xbe022c4b	-0.12712209
146	0x3cd3c9c9	0.025853055
147	0x3d63f5f3	0.055654477
148	0x3d0f1a10	0.034936965
149	0xbe11c236	-0.14234242
150	0x3cb5d94a	0.022198338
151	0xbda7d532	-0.08194961
152	0x3d002194	0.031282023
153	0xbd1f7ad4	-0.038935497
154	0xbe15b54c	-0.1461994
155	0xbcffa561	-0.031206788
156	0xbd49b78f	-0.04924732
157	0xbe3cb906	-0.18429956
158	0xbd9fcece	-0.07803117
159	0x3de6a57e	0.11262034
160	0xbdfc4ced	-0.1231936
161	0xbde66896	-0.11250417
162	0x3c88e782	0.016711954
163	0x3d6eddce	0.058317
164	0xbe4f2bcf	-0.20231555
165	0xbc86bbd7	-0.01644699
166	0xbda94ef1	-0.0826701
167	0x3b683676	0.0035432852
168	0xbdad8d41	-0.08474208
169	0xbc436b68	-0.011927463
170	0xbc4b4f16	-0.012408992
171	0xbd16b7cc	-0.036796376
172	0x3de0ee6a	0.10982974
173	0xbbacb0e3	-0.00527011
174	0xbd433432	-0.0476572
175	0xbcc8544a	-0.024454255
176	0xbc9208e9	-0.017826514
177	0xbc0543ff	-0.008133887
178	0x3c58c7ca	0.013231227
179	0x3c3224a5	0.010872995
180	0xbe00ae94	-0.12566596
181	0xbe0e20ce	-0.13879701
182	0xbe003f9e	-0.12524268
183	0x3bc1cb6e	0.0059141433
184	0xbc828357	-0.015931768
185	0xbd0c9bc3	-0.034328233
186	0x3b8d209d	0.0043068663
187	0xbc22eeda	-0.009944642
188	0xbca01738	-0.019542322
189	0x3d407bbc	0.046993002
190	0xbd065b20	-0.032801747
191	0x3c2ea38c	0.01065911
192	0xbe7c5324	-0.2464109
193	0xbe83fde5	-0.25779644
194	0xbe1a2b35	-0.15055545
195	0x3d1c4a4f	0.038156804
196	0xbd03a79f	-0.032142278
197	0x3d73f73d	0.059561957
198	0xbe512976	-0.20425972
199	0x3be1197f	0.0068694944
200	0xbe815baf	-0.25265262
201	0xbe7a6d45	-0.24455746
202	0xbe741e4c	-0.23839682
203	0xbd2cafe5	-0.042159934
204	0xbe289eec	-0.16466874
205	0xbe482251	-0.1954434
206	0xbe772463	-0.24134974
207	0x3cf5ff5a	0.030028988
208	0xbd1517ff	-0.036399838
209	0xbe88e64a	-0.26738197
210	0x3dc5a58c	0.09650716
211	0x3d332103	0.043732654
212	0x3d9cf29e	0.07663463
213	0xbe3fe4a1	-0.18739559
214	0xbd8b65f5	-0.06806556
215	0xbe29ea39	-0.16593255
216	0xbdc48fcf	-0.09597742
217	0xbdaa7399	-0.0832283
218	0xbe1af86b	-0.15133826
219	0xbe0673c3	-0.13130097
220	0x3d881804	0.066452056
221	0xbe27a661	-0.16372062
222	0x3d9d2599	0.07673187
223	0xbe05303c	-0.13006681
224	0x3e057b65	0.13035353
225	0xbe65cf28	-0.22442305
226	0xbdf02e51	-0.11727584
227	0xbe215dba	-0.1575841
228	0x3a3c0097	0.0007171719
229	0xbcd24fd3	-0.025672829
230	0xbe32efea	-0.17474332
231	0xbdb3f936	-0.087877676
232	0xbe04b585	-0.12959869
233	0x3df33f26	0.11877279
234	0xbdbfce6b	-0.09365543
235	0xba9f287f	-0.0012142806
236	0x3e270589	0.16310705
237	0x3db7186c	0.08940205
238	0xbd2d3659	-0.042288158
239	0xbc1880fe	-0.009308098
240	0xbe663a49	-0.22483172
241	0xbe72fffe	-0.23730466
242	0xbe99e40b	-0.30056795
243	0xbd04e41b	-0.0324441
244	0xbe8a4a8f	-0.2701001
245	0xbdda4d98	-0.10659331
246	0xbd83e695	-0.064404644
247	0xbddcf0b3	-0.10788097
248	0xbcc8eae5	-0.024526069
249	0xbd06c227	-0.0329
250	0xbd056b78	-0.032573193
251	0xbe0ea64d	-0.13930626
252	0xbda03bd0	-0.07823908
253	0x3e2abd80	0.16673851
254	0xbe2e309b	-0.17010729
255	0xbd32e42e	-0.04367464

w_agents.2.bias f4 [32]
0	0xbe48b819	-0.19601478
1	0xbf463081	-0.7741776
2	0xbe2534bb	-0.16133396
3	0xbea4d432	-0.32193142
4	0xbe3baf76	-0.18328652
5	0xbf35da8a	-0.7103659
6	0xbe6696a1	-0.22518398
7	0xbed04f25	-0.40685382
8	0x3db1fe45	0.08691076
9	0xbe9047d8	-0.28179812
10	0xbd409dc9	-0.047025476
11	0xbee442c3	-0.44582185
12	0xbf2b1661	-0.6683102
13	0xbf2098f2	-0.62733376
14	0xbe2f4478	-0.17115963
15	0xbec4abc1	-0.38412288
16	0xbe39b761	-0.1813636
17	0xbf297a08	-0.6620183
18	0xbe3b0a3e	-0.18265626
19	0xbef8370a	-0.4847949
20	0xbe96049f	-0.293004
21	0x3dd01070	0.10159385
22	0xbfc9058d	-1.5704819
23	0xbf06ab5d	-0.5260523
24	0xbf0aae72	-0.5417243
25	0xbf1b2066	-0.6059631
26	0xbe389e37	-0.18029104
27	0xbd77daf1	-0.060511533
28	0x3e0a54be	0.13508889
29	0xbf01a7ac	-0.5064647
30	0x3e0bfd43	0.1367083
31	0x3d9b3125	0.07577733

Ws.0 f4 [32, 32]
0	0xbeebefd4	-0.46081412
1	0xbedf6120	-0.43628788
2	0x3f1597e0	0.5843487
3	0x3f795a06	0.9740299
4	0xbf769648	-0.9632306
5	0xbcb44253	-0.022004282
6	0xbf6c9948	-0.9242139
7	0xbea614c9	-0.32437733
8	0xbfb43bdf	-1.4080771
9	0x3fa929ee	1.3215921
10	0x3f9ce860	1.2258415
11	0x3d55147e	0.052021496
12	0x3fcb7d97	1.5897702
13	0x3f379a82	0.71720135
14	0x3f2ef3da	0.6834084
15	0x3df6c325	0.120489396
16	0x3ec3005a	0.38086206
17	0x3d80bad6	0.06285636
18	0xbe8d0e17	-0.27549812
19	0x3f822672	1.0167983
20	0xbf03c079	-0.51465565
21	0xbf0e30f8	-0.5554347
22	0x3e16ad1e	0.14714476
23	0x3f4dfe0c	0.8046577
24	0xbf2d3b40	-0.67668533
25	0xbfc73e16	-1.5565822
26	0xbf9aefa8	-1.2104387
27	0x3f7dc359	0.991262
28	0x3f84fbe5	1.0389372
29	0x40032a57	2.0494592
30	0x3f507b20	0.81437874
31	0xbee7badb	-0.45259747
32	0xc00a4ade	-2.1608195
33	0xc000b095	-2.0107777
34	0xbf9e359d	-1.2360111
35	0x408bc441	4.367707
36	0x3e675076	0.22589287
37	0xc02e6d1a	-2.725409
38	0xc1030cb7	-8.190604
39	0x4023348a	2.5500817
40	0x3ffe950a	1.9889233
41	0x3f1dcb00	0.6163788
42	0xbf8febc5	-1.1243826
43	0xc036083a	-2.844252
44	0x401552f6	2.3331885
45	0xbfab1052	-1.3364356
46	0x3e0ed3d6	0.13947996
47	0xc00387b7	-2.0551584
48	0x401c236b	2.4396617
49	0xbe8ee719	-0.2791069
50	0xc029c8be	-2.6528773
51	0xc02ec491	-2.7307475
52	0x3f3392d6	0.7014593
53	0xbffa2249	-1.9541713
54	0xbd7b5280	-0.061357975
55	0x3f912b0e	1.1341264
56	0xbfc2eaf6	-1.5227954
57	0x3f1c99bc	0.6117208
58	0x40062142	2.09578
59	0xc032a716	-2.791448
60	0xbec16835	-0.37774816
61	0x3e8ebab5	0.2787682
62	0x403ad51d	2.9192574
63	0xbf90fee8	-1.1327791
64	0x3fe70774	1.804915
65	0x3fd09376	1.6295002
66	0x3ce8d3a2	0.028421227
67	0xc0479230	-3.1182976
68	0x3fc19d5d	1.5126148
69	0xbfcfa08c	-1.622087
70	0x3f9e5a94	1.2371392
71	0x3fb525cb	1.4152158
72	0x3e0386da	0.1284441
73	0x3f9ca5e3	1.2238125
74	0xbc18ec5d	-0.009333697
75	0xbf9c43b7	-1.2208165
76	0x3dad53a5	0.084632196
77	0xbead7bee	-0.33883613
78	0xbf85f7bb	-1.0466226
79	0x3e90f051	0.28308347
80	0xc0025305	-2.036317
81	0xbfa8d206	-1.3189094
82	0x400363b8	2.0529613
83	0x3f91a274	1.1377702
84	0x3e8f2442	0.2795735
85	0xbeb6430d	-0.3559803
86	0xbfa15959	-1.2605392
87	0xbe922da4	-0.28550446
88	0xc0e99e43	-7.300569
89	0xc0304648	-2.7542896
90	0xc0359726	-2.8373504
91	0x3ff56111	1.9170247
92	0xbea42897	-0.32062218
93	0x3f30b6c7	0.69028896
94	0xc0a6257d	-5.192076
95	0x3f984459	1.1895858
96	0xbf9d6452	-1.229624
97	0x3e03dfee	0.12878391
98	0x3d4dbf21	0.050231103
99	0x3fd390ea	1.6528599
100	0xbff28e43	-1.8949665
101	0x3f86b781	1.0524751
102	0xbe998681	-0.2998543
103	0x3e5600b7	0.2089871
104	0x3dd62119	0.104555316
105	0xbf84b52d	-1.036779
106	0x3e935ffd	0.2878417
107	0x3e9a1307	0.30092642
108	0xbf03ee0f	-0.51535124
109	0xbe867885	-0.26263824
110	0x3f20967d	0.62729627
111	0xbef066eb	-0.4695352
112	0xbf05320b	-0.52029485
113	0x3fdfbc25	1.7479292
114	0xbf013ebe	-0.5048636
115	0x3f9befba	1.2182534
116	0xbff84a8b	-1.9397749
117	0xbfb15433	-1.385382
118	0x3f5589c3	0.8341333
119	0x3cb839c5	0.022488484
120	0x3e68f710	0.22750497
121	0x3fab787a	1.3396142
122	0x3fd0836a	1.6290104
123	0x3e9a5741	0.30144694
124	0x3e5340ee	0.20630237
125	0xbff00401	-1.8751222
126	0x3f7b8fb0	0.98266125
127	0x3f1ee7be	0.6207236
128	0x3dd543fd	0.10413358
129	0x3f2adfcc	0.66747737
130	0xbe64b9fa	-0.2233657
131	0xbf9c50a4	-1.221211
132	0xbf3a04e1	-0.72663695
133	0x3fce0c24	1.6097455
134	0x3f2507fd	0.64465314
135	0x3d450bf9	0.04810712
136	0xbdfb9662	-0.122845426
137	0x3f412d36	0.7545961
138	0xbeb6f3ad	-0.35732785
139	0xbdcb04d8	-0.09913033
140	0x3ed09d02	0.40744787
141	0x3f0e5161	0.55592924
142	0xbe48a858	-0.19595468
143	0x3e94be58	0.2905147
144	0x3d84750c	0.064676374
145	0x3f4f222d	0.80911523
146	0x3edb0867	0.42779848
147	0xbf4cef41	-0.8005257
148	0xbf15a671	-0.58457094
149	0xbf8d94d4	-1.1061044
150	0xbded6151	-0.11590827
151	0xbf9fe816	-1.2492702
152	0x401e0ccb	2.4695308
153	0x3dc7b671	0.09751595
154	0xbfb30a19	-1.3987457
155	0xbfb0ff24	-1.3827863
156	0xbf63f9d8	-0.89053106
157	0x3fda7747	1.706765
158	0x3f85dc51	1.045786
159	0xbf4b6888	-0.7945638
160	0xc08e0b1c	-4.438856
161	0x3e79fd16	0.24412951
162	0x40026d1d	2.0379097
163	0xc0a4b1d5	-5.146708
164	0xbfaed1d3	-1.3657783
165	0xc04f73ac	-3.241435
166	0xc01f1bb7	-2.4860666
167	0xbfe32012	-1.7744162
168	0x3f8eae68	1.1146975
169	0x4000ef83	2.0146186
170	0xbebbf42f	-0.36709735
171	0xbff41870	-1.9069958
172	0xbda009c0	-0.0781436
173	0xbf668f8b	-0.9006278
174	0x3ee6a60f	0.45048568
175	0x3f55fa44	0.83585
176	0xc100566e	-8.021101
177	0x3e70004f	0.23437618
178	0x3fe12a75	1.7591082
179	0x3d7c1a04	0.061548248
180	0x3e960ba2	0.2930575
181	0xbf0b3865	-0.54382926
182	0xc002383f	-2.034683
183	0xbf558895	-0.8341153
184	0x3f4d64a3	0.80231684
185	0x3eb6952e	0.3566069
186	0xbf15c548	-0.5850415
187	0xbf1d9c49	-0.615666
188	0xbfef0bc8	-1.867547
189	0x3d85848f	0.06519424
190	0xbfcef8e7	-1.6169709
191	0xbf075429	-0.52862793
192	0x3f870972	1.0549757
193	0xc089b5d8	-4.3034477
194	0xc0080ff4	-2.1259737
195	0xc0212eb8	-2.5184765
196	0xc079840f	-3.8986852
197	0xc07f25de	-3.9866862
198	0x3f899a84	1.075028
199	0xbfcdc714	-1.6076379
200	0x40054118	2.082098
201	0x3ec56271	0.38551667
202	0x3f886b65	1.0657774
203	0x3f6532b5	0.895305
204	0x405fb21a	3.4952455
205	0xc03fd9de	-2.9976726
206	0xbe397dd3	-0.18114404
207	0x3fccacb2	1.5990202
208	0x403b89c8	2.9302845
209	0x4004d5f9	2.0755599
210	0x40089d67	2.134607
211	0x3ffc9e1d	1.9735752
212	0x3f316639	0.69296604
213	0x3fc198c3	1.5124744
214	0xbe6f7179	-0.2338313
215	0xc07fb2b5	-3.9952824
216	0xbfc79d23	-1.5594829
217	0xc0fe3a13	-7.944589
218	0x3f053b6e	0.5204381
219	0xc040dd45	-3.0135052
220	0x3f82a48d	1.0206467
221	0x3f13e3f5	0.5776971
222	0xc0281768	-2.6264286
223	0xc0125201	-2.2862551
224	0xbf84e9df	-1.0383872
225	0x3fac4976	1.3459918
226	0x3eca1b02	0.3947373
227	0x3f0865f5	0.53280574
228	0x3f92907b	1.1450342
229	0xbec6baa4	-0.3881427
230	0x3eefc061	0.4682646
231	0xbfd996b6	-1.6999118
232	0x3fd30609	1.6486217
233	0x3f0ae614	0.5425732
234	0xbecc1bcd	-0.3986496
235	0xbdfcd6bb	-0.12345644
236	0xbfe0c60b	-1.7560438
237	0x3e09dea1	0.13463832
238	0x3ff39f4d	1.903299
239	0xbf91b09a	-1.138202
240	0xbf883249	-1.0640346
241	0x3f85af93	1.0444206
242	0x3e8fcb95	0.28085008
243	0x3c39ecb6	0.01134794
244	0xc03547d6	-2.8325095
245	0xbfc26f80	-1.5190277
246	0x40109254	2.2589312
247	0xbfdb74ec	-1.7145057
248	0xbf5f4db0	-0.87227917
249	0x401f4f2c	2.4892073
250	0x3f8fc696	1.1232479
251	0xbf090ef5	-0.5353845
252	0xbe3231dd	-0.17401834
253	0x3efe80a6	0.49707526
254	0x3ff57c12	1.9178488
255	0x3f48805c	0.7832086
