data/best_val.pth (torch_old, 93718 bytes, 18 tensors)

w_a f4 [32, 32]
-1.792983 1.3636638 2.8696167 -2.28423 1.4286131 -0.66481906 -3.221005 1.6775762
1.6627699 3.123746 -1.0522935 7.029406 0.12088305 2.8508403 1.5076929 -1.6924975
-2.6503706 -1.8657697 -3.8557007 -3.606672 0.7181834 -3.7705104 -2.5632863 -1.2759764
1.0909795 -0.7159014 1.5284377 -1.1585069 1.204766 -0.2524644 -3.4271646 2.259128
-1.5812446 0.87488174 -1.6545272 0.99727225 -0.44228694 -0.09906323 -0.82838273 0.6728569
-1.2321663 -0.522783 0.5050511 -0.95326257 0.19728076 -0.3937928 -3.1009705 -1.4957688
1.1080599 1.5649959 0.81785184 0.8742283 -0.88569695 -2.5668662 -2.3580558 0.65965843
-0.05030542 -0.33189738 0.36037037 0.8707316 -0.9061146 -0.046721216 0.15437254 -0.46585995
0.35889426 -0.32132685 2.5055802 -2.2228577 -1.2110933 -1.9979386 0.9236726 -0.3847902
1.2542787 1.8818027 -0.71888363 0.04529094 -0.43892497 -2.188439 -0.91364145 0.6206312
-1.6313589 -0.43135715 -0.92944217 0.34582984 2.448105 -0.5168026 1.5161458 -0.35162044
-0.52251345 0.34880656 -1.1308817 -0.32041988 -2.3151288 -0.17445847 -2.1294591 1.6408166
-2.875809 1.9923896 1.6553458 -3.1246657 2.0174606 -0.8797538 -0.95360243 -1.8183215
2.4022794 2.3978627 1.3308928 4.882077 1.9652493 -0.60704553 -0.71957046 -1.3230247
-3.648502 -1.8206375 -1.383916 1.345906 2.0667772 -2.0948875 -2.3669794 -1.535307
0.7690591 1.3658869 -0.28663877 -0.36745387 2.786474 3.7396758 -0.64930075 1.9554598
0.61738116 -0.5555923 -2.4552224 0.87861085 -1.6026648 -0.37840262 -0.27984223 -1.997778
-1.4906979 0.043558627 0.8562791 -0.42083776 -0.7340037 -1.2542689 -1.4646641 -0.050042987
-0.05535706 -0.19301847 -1.2533317 0.041224364 -0.15895396 0.11502499 -0.27316648 -1.0100023
-0.98915774 1.9439126 -0.67036504 3.0437646 1.8259591 -0.58773315 4.537797 -2.1092048
0.26924044 2.3883677 1.4908623 -0.11799246 0.5919946 0.7542334 3.559803 1.2955898
-1.0599246 1.1576527 0.11001869 0.73115575 1.3879831 0.2158906 1.0819958 -1.3050731
0.8976991 1.6654913 0.22912395 0.57918733 -0.21923895 2.0680914 -0.23204556 0.21992885
1.3486494 0.60737985 -0.14619319 0.73009104 -0.54518485 1.0754918 0.31596062 -0.4589287
-0.19601265 0.15962297 0.06602898 -2.1326141 -1.7871749 -0.6644034 -1.0732894 -2.1861465
0.73844206 1.2878654 -0.17136292 -0.08245815 -1.7305607 1.0664535 -1.0539907 2.6275918
-2.722279 -0.32165727 -2.406779 0.14465737 1.8354806 -0.06749959 -1.817483 -1.00313
-1.7564533 1.071656 0.047109198 -0.9722967 -0.029027607 0.22376794 0.39056057 -0.1441374
-0.3305879 2.6625738 0.93172556 0.6929894 0.25316638 1.8761913 -0.4488617 1.0284041
1.8882741 2.2897317 -0.07763182 2.0555248 0.5705139 1.1212897 -0.14450668 0.046683006
-0.039974045 1.3242558 -1.5963984 0.7932174 0.3813665 -1.5839021 1.3916328 0.24556355
0.5479438 -1.0124087 0.90441066 0.021896277 -1.4011304 -0.4216748 1.2152486 1.2725209
00000000: 7880 e5bf 898c ae3f cda7 3740 d330 12c0
00000010: cbdc b63f 9531 2abf f224 4ec0 d1ba d63f
00000020: a5d5 d43f 74eb 4740 8eb1 86bf e5f0 e040
00000030: 8891 f73d 2b74 3640 15fc c03f c2a3 d8bf
00000040: ac9f 29c0 8bd1 eebf cdc3 76c0 b7d3 66c0
00000050: deda 373f 0b50 71c0 e20c 24c0 3253 a3bf
00000060: 37a5 8b3f 5045 37bf d9a3 c33f f449 94bf
00000070: c635 9a3f 0443 81be aa56 5bc0 8e95 1040
00000080: 3966 cabf 40f8 5f3f 8cc7 d3bf 3c4d 7f3f
00000090: 6f73 e2be aae1 cabd e410 54bf 5a40 2c3f
000000a0: a0b7 9dbf 1bd5 05bf 074b 013f 0409 74bf
000000b0: f803 4a3e 369f c9be 4d76 46c0 5a75 bfbf
000000c0: e8d4 8d3f c951 c83f bd5e 513f 6dcd 5f3f
000000d0: 09bd 62bf 8947 24c0 63ea 16c0 60df 283f
000000e0: 0e0d 4ebd 74ee a9be 7782 b83e 44e8 5e3f
000000f0: 20f7 67bf bf5e 3fbd d613 1e3e 3285 eebe
00000100: fdc0 b73e f484 a4be 6d5b 2040 4d43 0ec0
00000110: 1b05 9bbf 74bc ffbf cf75 6c3f 3903 c5be
00000120: 348c a03f e9de f03f c208 38bf fe82 393d
00000130: c6ba e0be 620f 0cc0 68e4 69bf b0e1 1e3f
00000140: 5ed0 d0bf d8da dcbe ecef 6dbf 9c10 b13e
00000150: c1ad 1c40 2d4d 04bf 1111 c23f 9807 b4be
00000160: 71c3 05bf c696 b23e bbc0 90bf 130e a4be
00000170: 122b 14c0 3ea5 32be 0f49 08c0 4706 d23f
00000180: 410d 38c0 9f06 ff3f 5fe2 d33f 86fa 47c0
00000190: 131e 0140 8c37 61bf 4a1f 74bf c2be e8bf
000001a0: f2be 1940 9576 1940 b25a aa3f fa39 9c40
000001b0: 4a8d fb3f 5667 1bbf c535 38bf e058 a9bf
000001c0: 0f81 69c0 a60a e9bf 2924 b1bf a646 ac3f
000001d0: 1446 0440 a312 06c0 977c 17c0 f184 c4bf
000001e0: 0fe1 443f 62d5 ae3f 51c2 92be ea22 bcbe
000001f0: 9755 3240 d956 6f40 9338 26bf 824c fa3f
00000200: b10c 1e3f 4c3b 0ebf 5d22 1dc0 a4ec 603f
00000210: 1f24 cdbf fdbd c1be 7b47 8fbe 31b7 ffbf
00000220: 30cf bebf 886a 323d 1b35 5b3f 0c78 d7be
00000230: abe7 3bbf e28b a0bf 1d7a bbbf e0f9 4cbd
00000240: 16be 62bd a2a6 45be 2c6d a0bf e1da 283d
00000250: d4c4 22be 3992 eb3d 7adc 8bbe c147 81bf
00000260: 7139 7dbf 21d2 f83f 0b9d 2bbf 0acd 4240
00000270: 07b9 e93f ae75 16bf a235 9140 36fd 06c0
00000280: e2d9 893e 04db 1840 93d4 be3f 08a6 f1bd
00000290: f58c 173f 7115 413f d0d3 6340 e3d5 a53f
000002a0: 9cab 87bf f72d 943f 7b51 e13d 062d 3b3f
000002b0: 6ea9 b13f 6d12 5d3e d77e 8a3f a30c a7bf
000002c0: 9ccf 653f d22e d53f 789f 6a3e 9f45 143f
000002d0: 2d80 60be 9c5b 0440 5a9d 6dbe 0735 613e
000002e0: 8ba0 ac3f 3f7d 1b3f abb3 15be 3fe7 3a3f
000002f0: 3c91 0bbf b7a9 893f 97c5 a13e b4f8 eabe
00000300: 8ab7 48be 3474 233e 343a 873d c07c 08c0
00000310: 26c2 e4bf 5716 2abf 8c61 89bf d3e9 0bc0
00000320: 8a0a 3d3f c6d8 a43f c379 2fbe d2df a8bd
00000330: 0383 ddbf 8c81 883f 2be9 86bf 772a 2840
00000340: d239 2ec0 43b0 a4be ab08 1ac0 1021 143e
00000350: 07f1 ea3f 3a3d 8abd 48a3 e8bf 9066 80bf
00000360: 76d3 e0bf 062c 893f 93f5 403d 70e8 78bf
00000370: 4ecb edbc 6c23 653e 8ef7 c73e c198 13be
00000380: d142 a9be 9c67 2a40 9185 6e3f c167 313f
00000390: 069f 813e 0927 f03f 33d1 e5be bfa2 833f
000003a0: f7b2 f13f f78a 1240 6ffd 9ebd b88d 0340
000003b0: 330d 123f 6c86 8f3f 8ff9 13be ae36 3f3d
000003c0: d3bb 23bd 3781 a93f c856 ccbf 4c10 4b3f
000003d0: 7842 c33e 4ebd cabf 0621 b23f 0375 7b3e
000003e0: 0b46 0c3f 9c96 81bf 7587 673f d25f b33c
000003f0: 3e58 b3bf c2e5 d7be 448d 9b3f f7e1 a23f

w_group.0.weight f4 [64, 8]
-0.04576143 0.021934621 0.22647901 -0.2800673 -0.3460355 0.03492832 -0.08448723 0.02590941
-0.33588588 -0.7443632 -2.2017684 -0.21153796 -0.17880687 -0.21760805 -0.6129569 -0.71286285
-0.857257 -0.10930607 -0.47629634 -0.41810116 -0.20417872 -0.28499758 -0.5383388 -0.7825544
-0.51661325 0.47788507 1.3260167 -1.4877039 0.3455207 0.22462556 -0.41164768 0.14720167
-0.087846056 -0.03132238 0.6235349 0.37006658 0.020218633 0.16308728 -0.23026238 -0.3407861
0.30902943 0.0033865026 -0.8998042 -0.40354645 -2.0389202 0.27792427 0.3755339 -0.10855053
-0.9479928 0.27948314 0.8942305 1.0117897 -0.47051764 -0.15967008 -0.69655883 -0.43578792
-0.43505213 0.41509342 2.700496 -2.0195909 -0.25230423 -0.21350536 -0.031328402 -0.48796943
-0.12058252 0.15762155 -0.44954395 0.43757206 -0.38725287 -0.2173239 -0.3528003 -0.39412418
-0.008546803 -0.35977817 -0.5191938 -0.5932035 0.7707191 0.12359971 -0.41356912 -0.6262441
0.7538143 0.024670254 -0.951432 0.5956862 -1.0241328 -0.087539226 0.17166746 0.21289414
-0.3107472 0.27514794 0.10026502 -0.52621996 -0.57956153 0.037667513 -0.83811617 -0.7373289
1.0698642 -0.55761075 1.5796912 0.96556824 -0.60126615 -0.1911982 -0.6401151 -0.95571536
0.74293447 1.2032678 1.8212475 0.6827773 -0.40926558 -0.030810446 -0.695259 -0.7705123
-0.11715443 -0.3228951 0.49539566 1.2017353 -0.36261582 -0.15872827 -0.5836206 -0.7692421
1.3911759 -0.45904654 1.013623 -1.7314082 -0.26268604 0.18348262 -0.32582244 -0.513927
0.05218382 -0.26673928 -2.5193138 -0.44446173 0.57577294 -0.31938532 -0.16136536 -0.23282215
0.13408086 0.23057626 -0.4391275 -0.057662345 -0.9691529 -0.09773588 -0.4528336 -0.35964167
-0.023176473 0.026921477 -0.48675996 0.15822093 -1.2312998 -0.00324139 -0.06548045 -0.17836079
-0.035845004 -0.02058301 0.2297913 0.39212844 0.47888887 0.22083536 -0.29379103 -0.25246587
-0.6066037 -1.0944533 0.60681725 0.14708607 -0.45307893 0.16921219 -0.52878034 -0.7934298
-0.24457152 -0.37919033 -0.14451599 -0.11587431 -0.6226784 -0.106443375 -0.76738775 -0.8692254
0.22875486 -0.070369594 1.2451575 -1.1375368 -1.5365031 -0.32108745 -0.17264913 -0.451769
0.6669338 0.3377981 -0.092587315 -1.028324 -0.4135175 0.18771985 -0.51334107 -0.27733842
2.1739795 -0.15325034 0.4193969 -0.19695954 -0.6146095 0.29122373 0.21725379 0.087541446
0.1674357 -0.24046892 0.91381925 0.34859937 -0.55131704 0.056746334 -0.53704566 -0.4218041
0.21938133 0.14655277 0.64738756 0.7426425 -0.42062488 0.21359083 -0.5081051 -0.16913278
0.4204128 1.1674181 0.061279792 -0.13163963 -0.64103854 -0.012721986 -0.32875168 0.08331654
-0.23038593 -0.3175835 -0.25780874 -1.1670653 0.08195588 -0.34581098 -0.62075263 -0.7322228
-0.37774944 -0.37511823 0.79754186 -1.0857713 -0.99080455 0.19311288 -0.70702225 -0.7325449
-0.04775105 0.35612988 -0.018914487 -3.5324254 -0.449028 -0.13085526 0.13481814 0.12996829
0.009585392 -0.37167677 -0.61100024 -0.086015634 -0.5102591 -0.102611214 -0.60977083 -0.49788895
00000000: 5670 3bbd 3cb0 b33c 1dea 673e fb64 8fbe
00000010: 912b b1be 0011 0f3d a407 adbd f93f d43c
00000020: 3cf9 abbe 968e 3ebf c6e9 0cc0 689d 58be
00000030: 2619 37be a5d4 5ebe beea 1cbf 2e7e 36bf
00000040: 3275 5bbf dcdb dfbd 1ddd f3be 5b11 d6be
00000050: 3a14 51be 34eb 91be 92d0 09bf 7c55 48bf
00000060: c440 04bf 5aad f43e eaba a93f 156d bebf
00000070: 17e8 b03e 3e04 663e 7cc3 d2be 09bc 163e
00000080: a2e8 b3bd e54b 00bd fc9f 1f3f 5e79 bd3e
00000090: 8ca1 a53c 5a00 273e e7c9 6bbe 847b aebe
000000a0: 1b39 9e3e 16f0 5d3b 9159 66bf a49d cebe
000000b0: ab7d 02c0 174c 8e3e fb45 c03e be4f debd
000000c0: a8af 72bf 6a18 8f3e 4aec 643f 5382 813f
000000d0: b0e7 f0be 8e80 23be ae51 32bf 981f dfbe
000000e0: 27bf debe 2087 d43e edd4 2c40 fa40 01c0
000000f0: 052e 81be 26a1 5abe 3652 00bd 21d7 f9be
00000100: f8f3 f6bd 8b67 213e a02a e6be 7209 e03e
00000110: 0246 c6be 288a 5ebe 3ea2 b4be a5ca c9be
00000120: e407 0cbc d834 b8be e3e9 04bf 2fdc 17bf
00000130: d94d 453f d821 fd3d 55bf d3be 8951 20bf
00000140: f9f9 403f 4619 ca3c 0c91 73bf e47e 183f
00000150: c916 83bf c447 b3bd 98c9 2f3e ec00 5a3e
00000160: 421a 9fbe 31e0 8c3e bf57 cd3d 5ab6 06bf
00000170: 255e 14bf 4049 1a3d c88e 56bf 96c1 3cbf
00000180: 4ff1 883f 94bf 0ebf 5233 ca3f 7b2f 773f
00000190: 94ec 19bf 76c9 43be 95de 23bf c3a9 74bf
000001a0: f430 3e3f ae04 9a3f a31e e93f 7eca 2e3f
000001b0: 428b d1be 3066 fcbc 7efc 31bf 4b40 45bf
000001c0: a9ee efbd 8252 a5be 80a4 fd3e 76d2 993f
000001d0: c8a8 b9be aa89 22be 2968 15bf 0ded 44bf
000001e0: 0d12 b23f 2608 ebbe 66be 813f c99e ddbf
000001f0: c97e 86be dee2 3b3e 33d2 a6be b890 03bf
00000200: b4be 553d 0d92 88be 703c 21c0 7d90 e3be
00000210: db65 133f 7986 a3be f63c 25be ee68 6ebe
00000220: 7e4c 093e 2f1c 6c3e 52d5 e0be 5a2f 6cbd
00000230: 681a 78bf c029 c8bd ced9 e7be f422 b8be
00000240: 96dc bdbc 6e8a dc3c 9a38 f9be ab04 223e
00000250: 3b9b 9dbf 806d 54bb 9d1a 86bd 36a4 36be
00000260: 36d2 12bd b39d a8bc 694e 6b3e 0fc5 c83e
00000270: ec30 f53e aa22 623e c76b 96be 3543 81be
00000280: 614a 1bbf 0c17 8cbf 6058 1b3f bb9d 163e
00000290: f6f9 e7be f645 2d3e 265e 07bf 371e 4bbf
000002a0: f570 7abe 3c25 c2be 00fc 13be 834f edbd
000002b0: da67 1fbf fcfe d9bd 8673 44bf 8e85 5ebf
000002c0: b73e 6a3e ef1d 90bd 5261 9f3f ce9a 91bf
000002d0: 22ac c4bf 9365 a4be efca 30be 444e e7be
000002e0: 2cbc 2a3f dff3 ac3e 6b9e bdbd 1fa0 83bf
000002f0: 91b8 d3be a239 403e 526a 03bf 4dff 8dbe
00000300: 7b22 0b40 a8ed 1cbe 31bb d63e c3af 49be
00000310: 0c57 1dbf 471b 953e c777 5e3e ee48 b33d
00000320: 4474 2b3e 7c3d 76be 0ff0 693f 9e7b b23e
00000330: 1d23 0dbf d86e 683d d37b 09bf b5f6 d7be
00000340: 80a5 603e ee11 163e 31bb 253f d21d 3e3f
00000350: 255c d7be 8eb7 5a3e 2d13 02bf 2531 2dbe
00000360: 5940 d73e f56d 953f 8500 7b3d 8acc 06be
00000370: 1a1b 24bf e06f 50bc 2452 a8be dda1 aa3d
00000380: 4aea 6bbe 4e9a a2be 82ff 83be 6562 95bf
00000390: 7cd8 a73d 230e b1be a5e9 1ebf f472 3bbf
000003a0: 6068 c1be 7f0f c0be b42b 4c3f 8efa 8abf
000003b0: 5ea5 7dbf 62bf 453e 69ff 34bf 1088 3bbf
000003c0: 9b96 43bd a856 b63e 8ef2 9abc 4213 62c0
000003d0: ffe6 e5be ecfe 05be c40d 0a3e 6816 053e
000003e0: 0c0c 1d3c 6b4c bebe 836a 1cbf f728 b0bd
000003f0: 57a0 02bf d425 d2bd f119 1cbf 4deb febe

w_group.0.bias f4 [64]
-0.30203402 -0.77552986 -0.79000616 -0.40397412 -0.45923096 -0.25810665 -0.4513626 -0.5913142
-0.60701835 -0.36826733 -0.10157217 -0.9793627 -0.917438 -0.533744 -0.52984947 0.03470763
-0.2798967 -0.13844535 -0.5718662 0.085312776 -0.78328735 -0.8816184 -0.783772 -0.631428
-0.1239791 -0.7558258 -0.4778299 0.04016213 -0.18157448 -0.56609356 0.09148022 -0.54652476
-0.22537376 -0.66428995 0.102894045 -0.32795322 -0.6052786 0.3576324 -0.42091417 -0.5261219
0.03256233 -0.5407127 -0.33382866 -0.3511477 0.044061754 -0.16046609 0.0010930848 0.12616761
-0.030066907 -0.048921805 -0.63482827 0.10575886 -0.41219994 -0.4425943 -0.29087895 -0.28813845
-0.7955842 -0.3065061 -0.10192048 0.04549201 -0.3611772 -0.47450066 -0.17913036 -0.0098787155
00000000: 34a4 9abe 2089 46bf d83d 4abf b2d5 cebe
00000010: 5220 ebbe 8e26 84be 0019 e7be 5e60 17bf
00000020: 8e65 1bbf 898d bcbe 1205 d0bd 84b7 7abf
00000030: 37dd 6abf 72a3 08bf 37a4 07bf 9629 0e3d
00000040: 9f4e 8fbe 9ec4 0dbe d365 12bf 77b8 ae3d
00000050: 8585 48bf beb1 61bf 48a5 48bf 44a5 21bf
00000060: c1e8 fdbd cd7d 41bf 1fa6 f4be 0c81 243d
00000070: a9ee 39be 82eb 10bf fb59 bb3d 0ce9 0bbf
00000080: 61c8 66be e80e 2abf 1dba d23d 7ce9 a7be
00000090: 8af3 1abf 981b b73e 1082 d7be edaf 06bf
000000a0: 1460 053d 266c 0abf 97eb aabe a2c9 b3be
000000b0: 197a 343d 3951 24be d745 8f3a 1532 013e
000000c0: e04e f6bc 3b62 48bd 1b84 22bf 1a98 d83d
000000d0: df0b d3be b89b e2be 16ee 94be e286 93be
000000e0: 68ab 4bbf 5eee 9cbe afbb d0bd d455 3a3d
000000f0: 38ec b8be c0f1 f2be f36d 37be 56da 21bc

w_group.2.weight f4 [32, 64]
0.091508895 -0.10892332 -0.052545406 -0.11668077 0.022593003 0.031134889 -0.15759629 0.006797738
-0.053297307 -0.018213945 -0.06685087 0.065699086 -0.093241066 -0.02719982 -0.029710392 0.074093744
-0.059254017 -0.15265222 0.046517964 -0.13999027 -0.12285737 -0.15060884 -0.08974977 -0.030347187
-0.0059809326 0.07667373 -0.12307346 0.08454479 0.048014943 -0.044885572 0.044820465 0.08019896
0.020036891 -0.056389093 0.019799989 0.025281675 -0.048331894 0.03219613 0.087866195 -0.13042465
-0.120757446 0.024448179 -0.0545095 -0.18803613 0.09308473 -0.008229868 -0.1913152 -0.12403822
-0.21849379 0.019602885 -0.0062838206 0.06477338 -0.023882026 0.09005574 -0.06256127 -0.053408567
0.085384935 -0.111482106 -0.06953276 -0.108198225 -0.0809807 -0.15444247 -0.07175735 -0.15992938
0.033342134 0.23848787 0.47217906 0.1718912 -0.09398307 0.4878729 -0.7086643 -0.29993492
-0.24596667 0.19299343 0.3164169 0.31969163 0.5706967 0.9831172 0.118073076 0.70620537
0.14191781 -0.43905765 -0.06659615 0.007961207 0.69333786 -0.18189472 0.1643038 -0.0111690145
-0.7211484 -0.051625747 0.42547667 0.19504866 -0.026106037 -0.021545649 -0.0874645 0.1532824
-0.61733407 0.44140774 -1.1703845 0.061149754 -0.043621678 -1.1878413 0.19676596 0.013100046
-0.18077053 0.75568753 0.12569365 -0.5241468 -0.06718673 -0.10154476 -1.517878 0.095226824
-0.18538272 0.0549172 -0.20707136 0.8182917 -0.12816897 0.6925625 -0.5190229 -0.96009016
-0.65056306 0.08395303 -1.1501898 -0.28322452 0.051036704 -0.9305922 -1.5906003 -0.6385799
-0.14253594 -1.0364408 -0.03845334 0.44069535 -0.039773304 0.17419907 -0.17242399 0.32596004
0.036577225 0.105691485 0.095463656 0.8036863 -0.20276058 0.53029346 -0.29392552 -0.538956
-0.043883633 -0.16921487 0.20659477 -0.2179407 -0.8529376 -0.44355255 -0.6501242 -0.10926214
0.3980222 -0.28661788 -0.02940209 0.21360356 0.21410242 0.09476341 -0.54927963 -0.8420569
-0.110371865 -0.42186347 0.12041332 -0.12507984 -0.10349592 0.1779302 0.0004914659 -0.09110424
-0.3023049 0.14003225 0.3274078 -0.45535776 0.14864296 -0.12847836 0.1707855 0.026216695
0.31932002 -0.89110124 0.0940989 -0.42187068 -0.08308716 0.44347692 0.062465254 -0.1540791
0.5161017 0.0065882746 0.22113426 -0.39053956 -0.069220975 -1.2253869 -0.092439905 -0.49625584
0.057760164 -0.0981361 0.12239453 -0.004975162 -0.014189762 -0.12689695 -0.13147701 -0.14244673
-0.11488264 -0.14384429 -0.097711995 0.003698126 -0.07440745 -0.035362896 -0.11340769 -0.032204323
-0.049642567 2.15487e-06 -0.048646368 -0.08276573 0.06494288 0.050313324 -0.16563894 -0.14866525
0.028090874 -0.1797527 -0.0623858 0.019658422 0.10848307 -0.039411012 -0.11656039 0.064018115
0.024349444 0.10063436 -0.021862969 -0.081443176 0.04409659 -0.14619762 0.012786337 -0.1558473
-0.11001147 -0.08525288 0.04231731 0.008705798 -0.037442725 0.071650706 -0.1655797 0.12419239
-0.05961924 0.073730305 0.08957936 -0.0011612345 0.021427436 0.063271455 -0.1554672 -0.013628757
0.049467057 0.0085105 -0.03557751 0.017407525 0.022573467 -0.17135146 0.011929512 -0.1413021
00000000: 0469 bb3d 3113 dfbd da39 57bd 54f6 eebd
00000010: f614 b93c 980e ff3c ec60 21be 8fbf de3b
00000020: 474e 5abd 6935 95bc 1ce9 88bd 3e8d 863d
00000030: 2cf5 bebd 28d2 debc 3563 f3bc 76be 973d
00000040: 57b4 72bd dd50 1cbe 9f89 3e3d 9c59 0fbe
00000050: a59c fbbd 3439 1abe bace b7bd aa9a f8bc
00000060: b3fb c3bb 1e07 9d3d f00d fcbd d225 ad3d
00000070: 51ab 443d efd9 37bd aa95 373d 5a3f a43d
00000080: 6824 a43c 40f8 66bd 9633 a23c 841b cf3c
00000090: aaf7 45bd 17e0 033d 31f3 b33d 0a8e 05be
000000a0: ae4f f7bd 8c47 c83c 5a45 5fbd 8b8c 40be
000000b0: 35a3 be3d 91d6 06bc 22e8 43be c007 febd
000000c0: d6bc 5fbe 3b96 a03c 82e8 cdbb e8a7 843d
000000d0: 3da4 c3bc 256f b83d 2020 80bd f1c2 5abd
000000e0: 4cde ae3d bb50 e4bd 3167 8ebd 0897 ddbd
000000f0: 36d9 a5bd 2b26 1ebe 84f5 92bd 87c4 23be
00000100: c391 083d 2a36 743e 74c1 f13e 3f04 303e
00000110: 327a c0bd 7aca f93e 066b 35bf 1291 99be
00000120: b0de 7bbe 12a0 453e 6501 a23e 9fae a33e
00000130: 2e19 123f 92ad 7b3f 4cd0 f13d e0c9 343f
00000140: e752 113e 2acc e0be 9063 88bd b96f 023c
00000150: 977e 313f 9c42 3abe 413f 283e 3efe 36bc
00000160: 2e9d 38bf 8575 53bd 14d8 d93e d6ba 473e
00000170: 54dc d5bc 8080 b0bc 9620 b3bd 10f6 1c3e
00000180: 9b09 1ebf 3200 e23e 29cf 95bf 2a78 7a3d
00000190: a5ac 32bd 2f0b 98bf 047d 493e 93a1 563c
000001a0: e91b 39be bd74 413f d6b5 003e 7c2e 06bf
000001b0: 3299 89bd b3f6 cfbd d449 c2bf 4806 c33d
000001c0: f8d4 3dbe dcf0 603d 840a 54be 917b 513f
000001d0: ba3e 03be c74b 313f afde 04bf 78c8 75bf
000001e0: 4d8b 26bf 91ef ab3d 6b39 93bf ce02 91be
000001f0: dd0b 513d 4a3b 6ebf ca98 cbbf f979 23bf
00000200: f1f4 11be 18aa 84bf 4081 1dbd d2a2 e13e
00000210: 55e9 22bd 3e61 323e ea8f 30be 3ce4 a63e
00000220: 00d2 153d c774 d83d 7382 c33d 63be 4d3f
00000230: 78a0 4fbe 50c1 073f 687d 96be 05f9 09bf
00000240: 53bf 33bd aa46 2dbe 948d 533e d92b 5fbe
00000250: 1e5a 5abf 5219 e3be 8a6e 26bf d4c4 dfbd
00000260: 91c9 cb3e 94bf 92be a7dc f0bc e4ba 5a3e
00000270: aa3d 5b3e 5213 c23d 979d 0cbf 0a91 57bf
00000280: a50a e2bd 7dfe d7be 429b f63d ee14 00be
00000290: abf5 d3bd 5633 363e b8d5 003a dc94 babd
000002a0: b5c7 9abe 9d64 0f3e ffa1 a73e a724 e9be
000002b0: dc35 183e d58f 03be 65e2 2e3e 65c4 d63c
000002c0: ea7d a33e 361f 64bf edb6 c03d 6fff d7be
000002d0: 9a29 aabd 680f e33e 91db 7f3d e9c6 1dbe
000002e0: 3e1f 043f 74e2 d73b 0571 623e cdf4 c7be
000002f0: bac3 8dbd 7ad9 9cbf 2251 bdbd 3f15 febe
00000300: ec95 6c3d 94fb c8bd fca9 fa3d af06 a3bb
00000310: 2d7c 68bc 46f1 01be e9a1 06be 8edd 11be
00000320: 9747 ebbd eb4b 13be 3a1d c8bd 425c 723b
00000330: ef62 98bd afd8 10bd 4a42 e8bd aee8 03bd
00000340: 0156 4bbd 629c 1036 6a41 47bd 1481 a9bd
00000350: c600 853d 5815 4e3d 419d 29be b43b 18be
00000360: d51e e63c 1711 38be 4188 7fbd b30a a13c
00000370: 5f2c de3d 716d 21bd 37b7 eebd ee1b 833d
00000380: 7c78 c73c 6319 ce3d f819 b3bc aecb a6bd
00000390: a09e 343d d4b4 15be c97d 513c 6f96 1fbe
000003a0: b24d e1bd 1099 aebd ea54 2d3d c3a2 0e3c
000003b0: 8b5d 19bd 9bbd 923d ba8d 29be 9458 fe3d
000003c0: 4e33 74bd eaff 963d 6275 b73d 9034 98ba
000003d0: 9788 af3c 7794 813d cb32 1fbe 264b 5fbc
000003e0: f89d 4a3d a06f 0b3c b9b9 11bd 3a9a 8e3c
000003f0: feeb b83c c276 2fbe 0074 433c 7fb1 10be

w_group.2.bias f4 [32]
-0.21406797 -1.4460986 0.6322514 -0.19588071 1.0297028 -0.15068026 -0.3318145 0.25464496
-0.40062946 -1.6730945 0.512615 1.1385432 0.25910816 0.08324221 -0.88887125 -1.3790424
-0.8224044 0.31764615 0.44035044 0.4514172 0.083444245 0.66762215 1.6222922 -0.6297099
-0.7181145 -0.12960327 -1.2202657 -0.095709085 -0.086041294 0.68200105 -0.21130599 0.45359355
00000000: a234 5bbe c219 b9bf 3adb 213f f494 48be
00000010: 4dcd 833f ed4b 1abe 97e3 a9be d360 823e
00000020: 4e1f cdbe f627 d6bf bd3a 033f c9bb 913f
00000030: d3a9 843e e47a aa3d 118d 63bf 7684 b0bf
00000040: 1889 52bf 84a2 a23e 9d75 e13e 2820 e73e
00000050: d1e4 aa3d 49e9 2a3f 45a7 cf3f ab34 21bf
00000060: 5ad6 37bf b8b6 04be ab31 9cbf 2003 c4bd
00000070: 6b36 b0bd 9f97 2e3f 9960 58be 6a3d e83e

w_agents.0.weight f4 [64, 5]
0.29444894 -0.09406055 0.47258583 0.0051480285 0.5719054 -0.017404333 0.0012577131 0.008566786
-0.43946847 -0.4252466 0.08915357 0.100116715 0.004894522 -0.9875171 -0.22453403 0.10198758
-0.014836166 0.3150855 0.9416274 -1.2541132 -0.036078848 -0.0057623037 0.6009484 -0.6234449
-0.035392296 -0.25161898 -0.5628529 0.047711015 0.09301095 0.07924649 0.38484576 0.071018524
-0.66466284 0.4220469 0.01844571 0.5808738 -0.14303169 -0.7491395 0.3292612 -0.743691
0.0056045004 0.010906221 0.0075611095 -0.42698437 -0.6685791 -0.0069781523 -0.007933666 -0.07646945
-0.24420731 -0.43082204 0.0011472629 -0.007367084 0.11405555 0.072450295 -0.12720484 -0.034968786
-0.058546178 0.2492492 -0.29432043 -0.30287203 0.44316792 -0.54800934 -0.39780077 -0.65931946
-0.90222627 -0.023436755 0.0019978133 -0.28213653 -0.11951639 -0.07499435 0.023327556 0.051713094
0.1783468 0.39409077 -0.59494656 -0.059309363 -0.080529384 0.2482177 0.30406785 -0.8222426
0.058270633 -0.105707124 -0.5004373 1.2784138 -1.3058704 -0.034691352 0.031600405 0.18783377
0.19606923 -0.38632318 0.23592944 -0.3269035 1.647548 3.2509754 -1.9296662 -0.0075931633
0.0004938974 -0.13614947 -0.16489588 -0.58619654 -0.18452479 -0.20157173 0.17803204 0.2517379
-1.9458745 0.12188391 0.097753346 0.036918875 1.1929808 -1.0087649 -0.024697943 -0.021783732
0.09630693 -0.1724765 -0.047838762 -0.022107547 -0.0028107583 -0.25237975 -0.07228451 -0.7363874
-0.029439133 0.041968267 -1.0139359 0.1489544 0.018426146 -0.0046573607 0.037068065 0.07713956
0.5393268 -0.43388957 -0.01931702 -0.010296935 0.027024314 -0.15463586 -0.24048027 0.104677685
0.43917453 -0.6050872 0.40137437 -0.7329272 -0.31808063 0.2572731 0.56425047 0.31914398
-1.633676 0.4639868 0.09807627 0.57030743 -0.19822356 -0.79261434 -0.07141629 -0.057401083
-0.81178653 0.14429651 -0.9200829 0.15277332 -0.0189907 -0.18395731 0.28047878 -0.9309236
-0.09395124 0.1367225 -1.1353922 1.1125343 -0.69110644 0.06464753 0.08122046 -0.5091007
0.69324684 -0.58908355 0.006393971 0.04607231 0.09215387 0.088949405 -0.057354547 0.14816009
-0.017728891 0.33458275 -0.38723996 -1.0019381 -0.02537921 0.07042001 -0.06845126 0.60494035
-0.3750228 0.20120865 0.28340694 -1.6621102 -0.32676917 -1.1232964 0.015263818 0.008121885
0.07946422 -0.379256 -0.7045358 0.16861507 0.2350282 0.24864855 0.3676146 -1.3705918
0.0016062167 -0.060756367 -0.56934917 -0.3303978 -0.7374852 0.39687967 0.26409495 -0.31574592
2.0651128 -1.6347989 -0.059703205 -0.5067823 1.3192064 2.3088365 -1.0276829 0.40807712
-0.15182912 -0.6574921 2.1667745 -0.5860881 0.15836221 0.46277893 -0.49250588 1.1991084
-0.88173735 -0.01832627 0.3073473 -0.23194857 0.98323035 -0.83054924 -0.48530105 -0.079372965
-0.18110621 2.5094552 -1.9463496 -0.00520509 0.074378625 -0.55062 0.35641155 -1.0221808
-0.25023866 -0.0601095 -0.48219383 2.3172662 -1.2273667 -0.2557839 -0.055750065 0.73149395
-0.4894124 -0.7283613 0.21290459 -0.13363084 0.13731885 -1.1685767 0.07127857 -0.056308787
00000000: 03c2 963e d1a2 c0bd c5f6 f13e cbb0 a83b
00000010: 6468 123f 8893 8ebc d9d9 a43a b45b 0c3c
00000020: 0302 e1be ecb9 d9be 2696 b63d fe09 cd3d
00000030: 3a62 a03b eccd 7cbf 40ec 65be ddde d03d
00000040: 6413 73bc e352 a13e 7e0e 713f c886 a0bf
00000050: 6ac7 13bd b5d1 bcbb c1d7 193f 169a 1fbf
00000060: 83f7 10bd 34d4 80be 2117 10bf a06c 433d
00000070: 867c be3d fc4b a23d 810a c53e 2972 913d
00000080: 5827 2abf 8816 d83e 751b 973c 25b4 143f
00000090: e676 12be 9bc7 3fbf ed94 a83e 8962 3ebf
000000a0: f5a5 b73b 02b0 323c 2fc3 f73b b29d dabe
000000b0: 0028 2bbf fca8 e4bb 35fc 01bc 049c 9cbd
000000c0: 7b11 7abe b594 dcbe c15f 963a 9467 f1bb
000000d0: f595 e93d d260 943d fc41 02be 6e3b 0fbd
000000e0: 1ece 6fbd 2f3b 7f3e 2bb1 96be 0b12 9bbe
000000f0: e8e6 e23e 574a 0cbf 8bac cbbe 29c9 28bf
00000100: 4df8 66bf 70fe bfbc bfed 023b 3374 90be
00000110: 02c5 f4bd a396 99bd 6e19 bf3c 1cd1 533d
00000120: 8ba0 363e 44c6 c93e 6b4e 18bf 60ee 72bd
00000130: 97ec a4bd c82c 7e3e c8ae 9b3e 7e7e 52bf
00000140: 30ad 6e3d fa7c d8bd a91c 00bf 10a3 a33f
00000150: c326 a7bf 8518 0ebd 6d6f 013d 7f57 403e
00000160: 5fc6 483e 27cc c5be 7d97 713e e55f a7be
00000170: dae2 d23f fb0f 5040 4dff f6bf 12d0 f8bb
00000180: e578 013a c46a 0bbe 77da 28be fa10 16bf
00000190: 11f4 3cbe d268 4ebe 084e 363e cae3 803e
000001a0: 6a12 f9bf 459e f93d e832 c83d 3f38 173d
000001b0: 98b3 983f 351f 81bf 5753 cabc cc73 b2bc
000001c0: 913c c53d ae9d 30be 94f2 43bd e31a b5bc
000001d0: b334 38bb eb37 81be e709 94bd e283 3cbf
000001e0: 562a f1bc ebe6 2b3d a7c8 81bf 8187 183e
000001f0: 6ef2 963c c69c 98bb afd4 173d 58fb 9d3d
00000200: 5211 0a3f c626 debe ba3e 9ebc 7ab4 28bc
00000210: 1862 dd3c dd58 1ebe 7640 76be 4161 d63d
00000220: 7cdb e03e ffe6 1abf f180 cd3e 1ea1 3bbf
00000230: 77db a2be 4db9 833e b872 103f d766 a33e
00000240: 4c1c d1bf ae8f ed3e 36dc c83d abff 113f
00000250: 1efb 4abe c6e8 4abf b442 92bd 661d 6bbd
00000260: 3ed1 4fbf 77c2 133e 8e8a 6bbf 9c70 1c3e
00000270: 6292 9bbc 4e5f 3cbe ea9a 8f3e 0251 6ebf
00000280: 8269 c0bd fc00 0c3e 8854 91bf 8667 8e3f
00000290: 5aec 30bf ed65 843d ea56 a63d 6c54 02bf
000002a0: a078 313f 2ece 16bf 8484 d13b 52b6 3c3d
000002b0: 2bbb bc3d 1b2b b63d 9aec 6abd 47b7 173e
000002c0: 2e3c 91bc 6e4e ab3e 5144 c6be 823f 80bf
000002d0: 10e8 cfbc 5e38 903d 2d30 8cbd 5fdd 1a3f
000002e0: fd02 c0be a409 4e3e b71a 913e 07c0 d4bf
000002f0: 4a4e a7be 2dc8 8fbf 1815 7a3c a811 053c
00000300: 23be a23d d82d c2be 755c 34bf 6ea9 2c3e
00000310: 3cab 703e ba9d 7e3e fb37 bc3e 8d6f afbf
00000320: b087 d23a abdb 78bd dec0 11bf e729 a9be
00000330: d4cb 3cbf d033 cb3e 7437 873e 73a9 a1be
00000340: cf2a 0440 1741 d1bf 598b 74bd 7cbc 01bf
00000350: c1db a83f fac3 1340 1d8b 83bf 7cef d03e
00000360: 1879 1bbe 6751 28bf 6fac 0a40 df09 16bf
00000370: b429 223e 5cf1 ec3e bb29 fcbe 627c 993f
00000380: 8ab9 61bf f920 96bc a05c 9d3e ed83 6dbe
00000390: fcb4 7b3f e09e 54bf 6179 f8be 4b8e a2bd
000003a0: e873 39be ea9a 2040 fc21 f9bf 768f aabb
000003b0: d253 983d 6ff5 0cbf 937b b63e d2d6 82bf
000003c0: 481f 80be 6135 76bd 1ce2 f6be 174e 1440
000003d0: 5a1a 9dbf 1bf6 82be 2e5a 64bd 3043 3b3f
000003e0: 4394 fabe e375 3abf a903 5a3e 86d6 08be
000003f0: 509d 0c3e ec93 95bf 80fa 913d 0ba4 66bd

w_agents.0.bias f4 [64]
-0.2553988 -0.35539472 -0.34333676 -0.80631346 -0.59206647 -0.14834456 -0.035926994 -0.39539057
-0.39768985 -0.20016065 -0.15418409 -0.61609054 -1.1945446 -0.43256292 -0.2896516 -0.88186884
-1.5234987 -0.3240393 -1.6863393 -0.07363088 -1.3823264 -0.91718245 -0.51352245 -0.19384792
-0.12465413 -0.42999622 -0.34432045 -0.5649595 -1.6485654 -0.5028763 -1.2511868 -0.9076237
-0.47229752 -0.77449626 -0.35084164 -1.1823145 -0.52590984 -1.4215653 -0.22341247 -1.0691965
-0.699437 -1.3065231 -1.4700534 -0.967326 -1.1924442 -1.4269427 -1.4480511 -0.38708523
-0.6020979 -0.8983411 -0.7191529 -0.14268108 -0.16656351 -0.0039995625 -0.010481356 -1.6320707
-0.9892347 -0.72782445 -0.78038275 -0.4172281 -0.40156576 -1.4615772 -0.73969847 -0.23311986
00000000: a2c3 82be 4cf6 b5be d6c9 afbe 8f6a 4ebf
00000010: ab91 17bf a3e7 17be 2f28 13bd a270 cabe
00000020: 019e cbbe eaf6 4cbe 6fe2 1dbe 1cb8 1dbf
00000030: d6e6 98bf e378 ddbe 374d 94be 28c2 61bf
00000040: 0102 c3bf 7be8 a5be f7d9 d7bf c9cb 96bd
00000050: 12f0 b0bf 78cc 6abf 3576 03bf 1280 46be
00000060: aa4a ffbd 7728 dcbe c54a b0be 30a1 10bf
00000070: 3104 d3bf 80bc 00bf e426 a0bf 075a 68bf
00000080: fbd0 f1be 6345 46bf 84a1 b3be 1556 97bf
00000090: 07a2 06bf daf5 b5bf 3dc6 64be 6edb 88bf
000000a0: 4e0e 33bf 263c a7bf b62a bcbf ada2 77bf
000000b0: 03a2 98bf 0fa6 b6bf bd59 b9bf 0930 c6be
000000c0: 1723 1abf aff9 65bf 681a 38bf fd1a 12be
000000d0: a08f 2abe c30e 83bb feb9 2bbc b1e7 d0bf
000000e0: 7c3e 7dbf b452 3abf 2ac7 47bf ec9e d5be
000000f0: 079a cdbe f614 bbbf e15c 3dbf f9b6 6ebe

w_agents.2.weight f4 [32, 64]
0.006304388 -0.036754917 -0.04810283 -0.055119347 -0.08969625 0.0046743625 -0.12810044 0.063372344
0.05274796 -0.06830992 -0.028688626 0.041907772 -0.069416076 0.057834838 0.0035675997 0.007547005
-0.07932449 -0.0219126 -0.102975376 -0.15768023 -0.18823473 0.008303587 -0.2017965 -0.093295015
-0.15223022 -0.0031865805 -0.0048737945 -0.08147997 -0.09049116 0.04684973 0.020312758 -0.028177075
-6.896298e-05 -0.10890753 -0.042233232 -0.14387819 -0.11003629 -0.06678541 -0.17994967 -0.040692773
-0.056248993 -0.06747927 0.042290077 0.03958717 0.049208328 0.024124974 -0.091376506 -0.033152085
-0.09826076 -0.0024281566 -0.067906484 -0.13957825 -0.024383219 -0.13005204 -0.029429572 -0.096878886
-0.0140744 -0.05079182 -0.080379486 0.062238492 0.007186039 0.005677072 -0.08367641 -0.07395324
-3.5827787 -0.4073754 -0.7044329 -1.4591745 -0.4728048 -0.76945406 -0.48796168 -0.2966628
0.09605608 -0.2548328 -0.15566988 0.028334938 -0.7575467 -0.104730904 0.1814294 -0.10105541
0.2113786 -0.3943067 1.29362 -0.11805999 0.032955512 0.5972631 -0.17740048 0.064148195
-0.074599005 -0.02997451 -0.15033372 0.000998411 -0.9364658 -0.5714826 -0.08928264 -0.26286468
-2.5108383 -0.11099523 -0.26952913 -0.78165233 0.00023969192 0.37798867 -0.2983359 1.0498203
-0.039613515 0.7042433 -0.78906244 -0.10354661 0.3028321 0.09486403 -0.66145116 -0.021663113
-0.99471056 -1.1627587 -0.3683335 -0.07187658 -0.30518237 0.041885883 -0.19338119 -0.32325178
-0.14371347 0.38863218 -0.47214854 0.0662 0.16667329 0.49677175 -0.08321494 -0.20059392
-0.13606422 -0.097538956 -0.045712207 0.06701785 -0.07336845 -0.06288877 -0.103454165 -0.14375527
-0.1144559 0.058852926 -0.01961403 -0.05231962 -0.07874659 -0.09976593 -0.02236686 -0.012733826
-0.084007636 -0.12712209 0.057606228 0.055654477 0.034936965 -0.14234242 0.022198338 -0.08194961
0.07438089 -0.038935497 -0.1461994 0.012902088 -0.04924732 -0.18429956 -0.07803117 0.11262034
-0.1231936 -0.11250417 0.016711954 0.058317 -0.20231555 -0.01644699 -0.0826701 0.0035432852
-0.08474208 0.021648837 0.019337544 -0.037951548 0.12103506 -0.00527011 -0.0476572 -0.024454255
-0.017826514 -0.008133887 0.013231227 0.010872995 -0.12566596 -0.10706818 -0.11453661 0.0059141433
-0.015931768 -0.034328233 0.0043068663 0.0016631018 -0.019542322 0.046993002 -0.032801747 0.0553994
-0.2464109 -0.25779644 -0.15055545 0.038156804 -0.032142278 0.059561957 -0.20425972 0.0068694944
-0.25265262 -0.24455746 -0.23839682 -0.042159934 -0.16466874 -0.1954434 -0.24134974 0.030028988
-0.036399838 -0.26738197 0.09650716 0.043732654 0.07663463 -0.18739559 -0.06806556 -0.16593255
-0.09597742 -0.0832283 -0.15133826 -0.13130097 0.066452056 -0.16372062 0.07673187 -0.13006681
0.13035353 -0.22442305 -0.11727584 -0.1575841 0.0007171719 -0.025672829 -0.17474332 -0.087877676
-0.12959869 0.11877279 -0.09365543 -0.0012142806 0.16310705 0.08940205 -0.042288158 -0.009308098
-0.22483172 -0.23730466 -0.30056795 -0.0324441 -0.2701001 -0.10659331 -0.064404644 -0.10788097
-0.024526069 -0.0329 -0.032573193 -0.13930626 -0.07823908 0.16673851 -0.17010729 -0.04367464
00000000: 0a95 ce3b 538c 16bd 7907 45bd d3c4 61bd
00000010: abb2 b7bd 652b 993b c32c 03be 5cc9 813d
00000020: 3f0e 583d 12e6 8bbd 6904 ebbc 7ca7 2b3d
00000030: 042a 8ebd 39e4 6c3d 64ce 693b de4c f73b
00000040: e174 a2bd 0e82 b3bc c1e4 d2bd ed76 21be
00000050: 9bc0 40be c50b 083c bea3 4ebe 7511 bfbd
00000060: 3de2 1bbe f3d5 50bb 5ab4 9fbb f8de a6bd
00000070: 6e53 b9bd 81e5 3f3d f166 a63c 9cd3 e6bc
00000080: 38a0 90b8 e90a dfbd c1fc 2cbd ce54 13be
00000090: b55a e1bd cac6 88bd ba44 38be 77ad 26bd
000000a0: 5865 66bd 9232 8abd 5c38 2d3d 2826 223d
000000b0: ac8e 493d bda1 c53c 9b23 bbbd 7bca 07bd
000000c0: f03c c9bd b521 1fbb 8e12 8bbd 9aed 0ebe
000000d0: 51bf c7bc 5d2c 05be 4916 f1bc 7068 c6bd
000000e0: 5098 66bc 150b 50bd 009e a4bd caed 7e3d
000000f0: dd78 eb3b bb06 ba3b 8a5e abbd cc74 97bd
00000100: 3f4c 65c0 8293 d0be b755 34bf 3bc6 babf
00000110: 7913 f2be f1fa 44bf 1dd6 f9be 30e4 97be
00000120: 0db9 c43d 7279 82be ed67 1fbe ac1e e83c
00000130: 95ee 41bf 287d d6bd a1c8 393e 24f6 cebd
00000140: a273 583e 91e2 c9be 5795 a53f 70c9 f1bd
00000150: 5cfc 063d 3ce6 183f 79a8 35be 2160 833d
00000160: 5dc7 98bd 1b8d f5bc 15f1 19be 1ddd 823a
00000170: 39bc 6fbf af4c 12bf d1d9 b6bd 3396 86be
00000180: 93b1 20c0 7851 e3bd b9ff 89be 5e1a 48bf
00000190: cf55 7b39 bb87 c13e 7cbf 98be 8360 863f
000001a0: c841 22bd 4a49 343f ffff 49bf 3f10 d4bd
000001b0: cf0c 9b3e 1348 c23d dd54 29bf d776 b1bc
000001c0: 5aa5 7ebf 47d5 94bf 3596 bcbe 0734 93bd
000001d0: dd40 9cbe 8890 2b3d b805 46be 4281 a5be
000001e0: a029 13be ccfa c63e 74bd f1be de93 873d
000001f0: 67ac 2a3e de58 fe3e 986c aabd 7e68 4dbe
00000200: 6b54 0bbe 81c2 c7bd b93c 3bbd a840 893d
00000210: 3342 96bd d4cb 80bd c7df d3bd 9534 13be
00000220: db67 eabd c40f 713d 9aad a0bc 194d 56bd
00000230: e445 a1bd 1452 ccbd b53a b7bc 8aa1 50bc
00000240: 320c acbd 4b2c 02be 82f4 6b3d f3f5 633d
00000250: 101a 0f3d 36c2 11be 4ad9 b53c 32d5 a7bd
00000260: 0255 983d d47a 1fbd 4cb5 15be 4863 533c
00000270: 8fb7 49bd 06b9 3cbe cece 9fbd 7ea5 e63d
00000280: ed4c fcbd 9668 e6bd 82e7 883c cedd 6e3d
00000290: cf2b 4fbe d7bb 86bc f14e a9bd 7636 683b
000002a0: 418d adbd e758 b13c c569 9e3c 1573 1bbd
000002b0: 3be1 f73d e3b0 acbb 3234 43bd 4a54 c8bc
000002c0: e908 92bc ff43 05bc cac7 583c a524 323c
000002d0: 94ae 00be 9046 dbbd 2c92 eabd 6ecb c13b
000002e0: 5783 82bc c39b 0cbd 9d20 8d3b 70fc d93a
000002f0: 3817 a0bc bc7b 403d 205b 06bd 7bea 623d
00000300: 2453 7cbe e5fd 83be 352b 1abe 4f4a 1c3d
00000310: 9fa7 03bd 3df7 733d 7629 51be 7f19 e13b
00000320: af5b 81be 456d 7abe 4c1e 74be e5af 2cbd
00000330: ec9e 28be 5122 48be 6324 77be 5aff f53c
00000340: ff17 15bd 4ae6 88be 8ca5 c53d 0321 333d
00000350: 9ef2 9c3d a1e4 3fbe f565 8bbd 39ea 29be
00000360: cf8f c4bd 9973 aabd 6bf8 1abe c373 06be
00000370: 0418 883d 61a6 27be 9925 9d3d 3c30 05be
00000380: 657b 053e 28cf 65be 512e f0bd ba5d 21be
00000390: 9700 3c3a d34f d2bc eaef 32be 36f9 b3bd
000003a0: 85b5 04be 263f f33d 6bce bfbd 7f28 9fba
000003b0: 8905 273e 6c18 b73d 5936 2dbd fe80 18bc
000003c0: 493a 66be feff 72be 0be4 99be 1be4 04bd
000003d0: 8f4a 8abe 984d dabd 95e6 83bd b3f0 dcbd
000003e0: e5ea c8bc 27c2 06bd 786b 05bd 4da6 0ebe
000003f0: d03b a0bd 80bd 2a3e 9b30 2ebe 2ee4 32bd

w_agents.2.bias f4 [32]
-0.19601478 -0.5511196 -0.1169998 -0.32193142 -0.17103326 -0.7054204 -0.19980809 -0.41404757
0.40494907 -0.23044762 -0.040916603 -0.44582185 -0.30057082 -0.43507522 -0.11489205 -0.21276082
-0.1813636 -0.09218534 -0.10997552 -0.3778189 0.10724621 0.03132125 -1.1626915 -0.12870206
-0.4770041 -0.022271821 -0.079158686 -0.012690719 -0.0027394865 0.013086833 0.18444966 0.44268167
00000000: 19b8 48be 2d16 0dbf 979d efbd 32d4 a4be
00000010: 5823 2fbe 6e96 34bf 7e9a 4cbe 0bfe d3be
00000020: 7c55 cf3e 76fa 6bbe 2b98 27bd c342 e4be
00000030: 6be4 99be 2ec2 debe 864c ebbd f9dd 59be
00000040: 61b7 39be abcb bcbd d83a e1bd 7b71 c1be
00000050: e7a3 db3d b64a 003d 13d3 94bf 79ca 03be
00000060: e239 f4be 6573 b6bc f31d a2bd bcec 4fbc
00000070: f588 33bb 286a 563c 5fe0 3c3e 2ca7 e23e

Ws.0 f4 [32, 32]
-0.46081412 -0.43628788 0.5843487 0.9740299 -0.9632306 -0.022004282 -0.9242139 -0.32437733
-1.4080771 1.3215921 1.2258415 0.052021496 1.5897702 0.71720135 0.6834084 0.120489396
0.38086206 0.06285636 -0.27549812 1.0167983 -0.51465565 -0.5554347 0.14714476 0.8046577
-0.67668533 -1.5565822 -1.2104387 0.991262 1.0389372 2.0494592 0.81437874 -0.45259747
-0.12309105 0.62283003 -2.3375535 0.2638368 -1.8910555 -0.33753783 -2.6738746 1.6294762
-0.23450908 -0.6050292 -0.24615365 -3.4534986 -0.14607495 -1.5169966 -0.9463792 -1.9773978
0.5877222 -1.4464785 -1.3721211 -3.8430884 -0.4372407 -0.9115828 0.36535546 0.058876447
-0.17316692 -1.2331679 0.6772327 -1.6778677 0.89130723 1.6040293 0.71356297 1.8918153
-1.2988658 1.1652219 -0.19901703 -1.0637207 1.9692154 -0.46815246 0.0711572 1.6570778
0.35167006 1.7757399 -1.2559168 -1.3265649 0.6691341 0.3878 0.71477276 0.1551144
0.18731074 -1.707008 0.5586398 0.8361121 0.25325218 0.53784806 -1.158524 -0.31989282
-1.9886793 -1.1568033 0.06414694 0.8593803 0.3623635 -0.17832981 -9.540605 0.46953985
-1.229624 0.12878391 0.050816905 1.6525651 -1.8956195 1.0525147 -0.2998543 0.20950268
0.104555316 -1.0366405 0.28816995 0.30092642 -0.5152992 -0.26263824 0.6270753 -0.4695352
-0.52029485 1.748276 -0.5048636 1.2192305 -1.9397749 -1.385267 0.8341333 0.022651402
0.22750497 1.3396142 1.6287072 0.30144694 0.20609252 -1.8746147 0.98266125 0.6203689
0.27400154 -1.9537107 -1.4722166 -3.5931735 0.2541179 1.9768127 -0.41756746 -0.8481846
-1.4740887 1.547363 0.9467696 1.2061266 -1.4702889 -0.16146226 0.2639918 1.8671355
1.0002713 1.0824165 -0.4192446 -0.31880325 0.72124904 -0.70345414 -0.38600704 -1.7606342
3.1208105 -0.8225829 -0.6627679 -1.0862343 -1.1687648 2.0607705 0.8535329 -0.6013334
-4.497851 -0.117094696 0.6208604 -4.9115276 -1.246912 0.5074581 -0.8517619 -0.8774752
0.5343752 1.0716342 -0.6284097 -0.32211277 0.8125798 0.6272704 0.3494639 0.6919893
0.030393774 0.60141283 0.17362861 1.3685819 0.8069339 -0.20433521 -2.1109774 -2.9833674
-0.144772 -0.2902746 0.17271048 0.64409196 -0.33523196 -0.12666586 -1.4893793 -0.60149723
-2.4555628 -1.2230686 -1.2210531 -0.6399634 -2.3705373 -2.2837234 -0.16901462 -0.15703097
-1.048638 -0.9314573 -0.479788 -0.17607719 -1.6617615 -0.92712957 2.0920541 1.2544369
2.9085808 1.8597564 -0.5618289 1.090704 0.8837173 -0.35831955 0.0106872935 0.089090146
1.2428557 -1.8304546 -1.0431862 -1.8479071 1.6988589 -0.5834749 -1.3763216 -1.086079
0.38914868 0.12313591 -0.7016005 0.37567726 -0.19303821 -1.5603092 0.9349654 0.2365421
0.17815728 0.33581156 0.103049435 -0.3890018 0.2765071 -0.055014294 1.5754497 -0.614268
0.050039813 0.9057165 -0.30976886 0.839188 -0.7776025 -1.3641363 0.7564267 -1.0118531
-1.8680407 -0.8682183 0.48849708 -0.11395915 -0.33755264 -0.18471488 1.1780901 -0.27936542
00000000: d4ef ebbe 2061 dfbe e097 153f 065a 793f
00000010: 4896 76bf 5342 b4bc 4899 6cbf c914 a6be
00000020: df3b b4bf ee29 a93f 60e8 9c3f 7e14 553d
00000030: 977d cb3f 829a 373f daf3 2e3f 25c3 f63d
00000040: 5a00 c33e d6ba 803d 170e 8dbe 7226 823f
00000050: 79c0 03bf f830 0ebf 1ead 163e 0cfe 4d3f
00000060: 403b 2dbf 163e c7bf a8ef 9abf 59c3 7d3f
00000070: e5fb 843f 572a 0340 207b 503f dbba e7be
00000080: 2917 fcbd ca71 1f3f 7a9a 15c0 9e15 873e
00000090: 1b0e f2bf c2d1 acbe c320 2bc0 ad92 d03f
000000a0: 2623 70be 32e3 1abf b40f 7cbe 1f06 5dc0
000000b0: ac94 15be f22c c2bf e845 72bf 5f1b fdbf
000000c0: f674 163f 3526 b9bf aaa1 afbf 29f5 75c0
000000d0: 03de dfbe 7e5d 69bf df0f bb3e 6e28 713d
000000e0: ab52 31be 72d8 9dbf 1f5f 2d3f 5ec4 d6bf
000000f0: b62c 643f d550 cd3f 10ac 363f 0127 f23f
00000100: 3c41 a6bf fe25 953f 1fcb 4bbe 0028 88bf
00000110: 400f fc3f aeb1 efbe deba 913d 201b d43f
00000120: 190e b43e 724b e33f e2c1 a0bf e1cc a9bf
00000130: 5f4c 2b3f b98d c63e 59fb 363f 4fd6 1e3e
00000140: 63ce 3f3e 3d7f dabf 0503 0f3f 710b 563f
00000150: 45aa 813e 69b0 093f 844a 94bf fec8 a3be
00000160: 0b8d febf 2112 94bf 795f 833d 5900 5c3f
00000170: b587 b93e 179c 36be 51a6 18c1 8767 f03e
00000180: 5264 9dbf eedf 033e 6325 503d 4187 d33f
00000190: a9a3 f2bf cdb8 863f 8186 99be df87 563e
000001a0: 1921 d63d a3b0 84bf 038b 933e 0713 9a3e
000001b0: a6ea 03bf 8578 86be 0288 203f eb66 f0be
000001c0: 0b32 05bf 82c7 df3f be3e 01bf bf0f 9c3f
000001d0: 8b4a f8bf 6e50 b1bf c389 553f 6f8f b93c
000001e0: 10f7 683e 7a78 ab3f 7a79 d03f 4157 9a3e
000001f0: eb09 533e 60f3 efbf b08f 7b3f 7fd0 1e3f
00000200: ee49 8c3e 3113 fabf 9871 bcbf 8ef6 65c0
00000210: be1b 823e 3308 fd3f 67cb d5be a022 59bf
00000220: f0ae bcbf fe0f c63f 7e5f 723f 5b62 9a3f
00000230: 6d32 bcbf 5d56 25be ef29 873e 4cfe ee3f
00000240: e408 803f a08c 8a3f 3aa7 d6be 2e3a a3be
00000250: c7a3 383f 9215 34bf b7a2 c5be 765c e1bf
00000260: 5cbb 4740 cb94 52bf 28ab 29bf ba09 8bbf
00000270: 169a 95bf aae3 0340 2281 5a3f fcf0 19bf
00000280: 65ee 8fc0 58cf efbd b5f0 1e3f 3c2b 9dc0
00000290: d09a 9fbf c6e8 013f 110d 5abf 37a2 60bf
000002a0: d0cc 083f 4f2b 893f 75df 20bf f7eb a4be
000002b0: 3b05 503f cb94 203f efec b23e 3626 313f
000002c0: 5dfc f83c 31f6 193f b3cb 313e b12d af3f
000002d0: 3893 4e3f 403d 51be 411a 07c0 7eef 3ec0
000002e0: 1c3f 14be df9e 94be 04db 303e 36e3 243f
000002f0: 86a3 abbe b2b4 01be fba3 bebf b9fb 19bf
00000300: f127 1dc0 838d 9cbf 784b 9cbf a4d4 23bf
00000310: e2b6 17c0 8628 12c0 2b12 2dbe bacc 20be
00000320: c539 86bf fc73 6ebf c6a6 f5be 944d 34be
00000330: 9ab4 d4bf 5d58 6dbf 37e4 0540 6391 a03f
00000340: 3026 3a40 7f0c ee3f 05d4 0fbf 309c 8b3f
00000350: 4c3b 623f a975 b7be c219 2f3c e574 b63d
00000360: e515 9f3f 564c eabf 2087 85bf 3888 ecbf
00000370: 3574 d93f 9c5e 15bf 4e2b b0bf a304 8bbf
00000380: 7f3e c73e ae2e fc3d 179c 33bf c558 c03e
00000390: cfab 45be 36b8 c7bf e459 6f3f 1838 723e
000003a0: dd6e 363e 7eef ab3e 950b d33d 3e2b c7be
000003b0: 5792 8d3e ab56 61bd 56a8 c93f ab40 1dbf
000003c0: 8cf6 4c3d 09dd 673f 069a 9ebe 06d5 563f
000003d0: f510 47bf 059c aebf 2ea5 413f 6784 81bf
000003e0: f51b efbf 8e43 5ebf 4a1c fa3e 6a63 e9bd
000003f0: b3d3 acbe e625 3dbe a8cb 963f fc08 8fbe

Ws.1 f4 [32, 32]
-0.060080852 -1.0685608 0.4641716 -1.9343555 -0.6351785 -1.909274 -3.867012 0.90203285
-0.7237978 -1.0905318 -0.18064213 0.8001968 -1.5407544 -2.1235163 0.27267376 1.2694858
-0.41353422 -1.0353761 -0.5174104 2.3165495 -1.6795248 0.56386083 0.83570963 0.4895911
-1.996596 1.0768656 1.6383065 -0.8224909 0.12218284 0.6481129 0.008786871 0.24599098
0.66962886 0.79948986 0.0065600197 -0.104391806 0.4504457 -0.93134135 0.016821735 -0.29238752
1.2463253 1.1853844 -0.13273397 -0.4456969 1.3649437 0.3061124 -1.3626201 -0.29074395
-0.2688009 0.15168473 -1.505053 -0.64630294 0.07353135 0.3752014 -0.45908526 0.057428602
-0.115451485 -1.0339835 -2.8747504 -0.054117177 -0.1926953 -0.041493688 0.06673289 1.385565
-2.0068693 -0.7586293 -2.1790364 -0.22147565 0.20601034 0.45481542 0.59929806 0.24451758
-0.2818886 -0.19438833 0.5469363 -2.093786 0.17492221 -0.33787334 -0.6296801 -0.5868559
2.1119242 -1.2966547 -2.0348182 -0.87911135 -1.9085543 -0.2861623 -0.36096588 -0.3117415
0.18629326 3.274587 -2.4141343 -1.9666313 -0.95005316 -0.6768628 0.9061341 -1.2457409
-0.06629576 -1.2088937 -0.67382205 0.32552683 1.1595042 0.69731253 2.2272313 2.2588077
1.1903703 0.43240875 2.256227 -0.47663417 -0.32953402 0.94760704 1.2578962 -0.7009285
0.5465235 -0.13473366 0.48659238 -1.3426162 0.46379107 -0.21143295 1.139577 -1.8409113
0.14214967 0.17723912 -1.2858028 1.1070877 -1.1028099 0.04214294 1.5984457 0.83323216
2.5094676 -1.1179719 -0.8678941 -1.8253837 -0.9821987 1.2067947 -0.4573821 -0.7219647
0.5581043 0.5201786 0.5065947 -0.56436986 1.5625031 -1.1185354 1.3053861 -1.6161901
0.6721647 0.5516296 -0.59388715 1.1510977 1.1969352 -0.94805837 -1.3167096 -2.7317512
0.29863006 -0.6529603 -3.169268 0.7954108 0.07484561 -0.677724 -2.1368008 -0.20157897
1.73468 1.5414286 -0.73782706 -0.95544434 0.23996532 -1.3308635 -0.024168981 -0.20215377
0.77440476 0.40493083 -3.6185412 1.2714213 0.58337086 1.836859 0.87052864 -0.77839804
-0.9504496 -0.831854 -0.86799055 -0.88677675 0.018481499 0.30009112 1.5724396 -0.27370206
0.056888152 -0.25225517 0.40046626 -1.3900583 0.5424379 -0.78937846 -2.374972 -0.9083614
-0.17580487 0.61430675 -1.7962898 -0.25040042 -1.1717744 0.40497452 0.29280347 -2.2734985
0.12799144 0.6706328 0.7934611 0.47490066 -0.80106604 -0.46265587 -0.3239737 0.4056052
-0.7285292 0.60301816 -0.7478399 -2.0535114 0.7694408 0.9654419 1.1818383 -1.498623
0.5976666 -0.31216404 -0.24278374 -3.742624 1.7792386 1.3109263 0.6940053 -1.7838663
-1.3274786 -1.3530601 1.5487124 1.3025477 0.7362326 0.44950017 1.6246474 -1.3983574
0.28247198 -0.7248929 0.63225853 0.82334894 -0.66917527 1.3843206 -0.6787798 -0.28452775
-0.17301103 -0.08323678 0.40422505 1.3936296 1.6062634 -2.2657804 1.077484 -0.0010841081
-0.019332958 -0.005329508 -1.0427886 -1.1144258 0.63439626 -0.4520506 -0.09839546 -1.6514814
00000000: 5717 76bd 9ac6 88bf e6a7 ed3e f698 f7bf
00000010: 0f9b 22bf 1763 f4bf 207d 77c0 a0eb 663f
00000020: d04a 39bf 8c96 8bbf 40fa 38be b3d9 4c3f
00000030: 7137 c5bf b1e7 07c0 e59b 8b3e 837e a23f
00000040: c2ba d3be 3487 84bf 0275 04bf 5942 1440
00000050: abfa d6bf 2f59 103f 11f1 553f afab fa3e
00000060: 7590 ffbf bbd6 893f 07b4 d13f c38e 52bf
00000070: ff3a fa3d baea 253f cff6 0f3c 0fe5 7b3e
00000080: cc6c 2b3f 5eab 4c3f 6ff5 d63b 5fcb d5bd
00000090: d2a0 e63e 636c 6ebf bccd 893c d1b3 95be
000000a0: 9687 9f3f adba 973f 6aeb 07be 6232 e4be
000000b0: 7ab6 ae3f c4ba 9c3e 566a aebf 64dc 94be
000000c0: 46a0 89be 3e53 1b3e 94a5 c0bf 1c74 25bf
000000d0: 9b97 963d 661a c03e 390d ebbe 413a 6b3d
000000e0: d471 ecbd 9259 84bf e9fb 37c0 f9a9 5dbd
000000f0: eb51 45be 49f5 29bd 41ab 883d 325a b13f
00000100: 8c70 00c0 8835 42bf 5575 0bc0 83ca 62be
00000110: 60f4 523e 91dd e83e 996b 193f d162 7a3e
00000120: b453 90be bc0d 47be 0404 0c3f 9700 06c0
00000130: cf1e 333e bcfd acbe b732 21bf 303c 16bf
00000140: c429 0740 c8f8 a5bf 763a 02c0 710d 61bf
00000150: 824b f4bf dd83 92be 85d0 b8be 959c 9fbe
00000160: a9c3 3e3e d592 5140 2d81 1ac0 93ba fbbf
00000170: af36 73bf e146 2dbf 68f8 673f 7074 9fbf
00000180: 12c6 87bd 07bd 9abf 9a7f 2cbf 74ab a63e
00000190: a26a 943f 1383 323f f58a 0e40 4e90 1040
000001a0: 0e5e 983f ae64 dd3e 0666 1040 6509 f4be
000001b0: afb8 a8be 6096 723f be02 a13f 0d70 33bf
000001c0: f7e8 0b3f 9ff7 09be a322 f93e d9da abbf
000001d0: 0676 ed3e e181 58be a9dd 913f fba2 ebbf
000001e0: af8f 113e 2c7e 353e 3095 a4bf 0db5 8d3f
000001f0: e028 8dbf 139e 2c3d de99 cc3f b44e 553f
00000200: 1e9b 2040 b419 8fbf 4f2e 5ebf 2ca6 e9bf
00000210: 6071 7bbf 4078 9a3f fd2d eabe aed2 38bf
00000220: ecdf 0e3f 6d2a 053f 31b0 013f 8b7a 10bf
00000230: 1a00 c83f 2b2c 8fbf e416 a73f 51df cebf
00000240: fc12 2c3f 9937 0d3f fd08 18bf 2b57 933f
00000250: 2c35 993f f4b3 72bf f189 a8bf 03d5 2ec0
00000260: 0ae6 983e 6828 27bf 49d5 4ac0 0ba0 4b3f
00000270: a848 993d 527f 2dbf 58c1 08c0 b86a 4ebe
00000280: ff09 de3f 884d c53f 3ce2 3cbf 0098 74bf
00000290: 78b9 753e bc59 aabf 07fe c5bc 6601 4fbe
000002a0: 643f 463f 1853 cf3e 2e96 67c0 efbd a23f
000002b0: cb57 153f 321e eb3f f7da 5e3f 1845 47bf
000002c0: aa50 73bf 62f4 54bf a134 5ebf cd03 63bf
000002d0: 8366 973c 8ba5 993e b345 c93f ad22 8cbe
000002e0: 8d03 693d 9727 81be ea09 cd3e 6eed b1bf
000002f0: 36dd 0a3f b514 4abf 8bff 17c0 5f8a 68bf
00000300: 3106 34be 3543 1d3f d3ec e5bf 7c34 80be
00000310: b4fc 95bf d258 cf3e 56ea 953e 0081 11c0
00000320: 3010 033e 97ae 2b3f 4420 4b3f 2e26 f33e
00000330: aa12 4dbf 3be1 ecbe e1df a5be 7cab cf3e
00000340: e480 3abf 665f 1a3f 7072 3fbf bb6c 03c0
00000350: 13fa 443f 3327 773f 7a46 973f e1d2 bfbf
00000360: ae00 193f f7d3 9fbe 4d9c 78be 2787 6fc0
00000370: 17be e33f 6fcc a73f 55aa 313f bb55 e4bf
00000380: d2ea a9bf 1331 adbf 353c c63f e2b9 a63f
00000390: bd79 3c3f e324 e63e 72f4 cf3f 60fd b2bf
000003a0: 2ba0 903e 9592 39bf b2db 213f ffc6 523f
000003b0: 124f 2bbf 6b31 b13f 83c4 2dbf 9fad 91be
000003c0: ce29 31be 0b78 aabd 96f6 ce3e 7462 b23f
000003d0: 0a9a cd3f 8c02 11c0 ffea 893f a218 8eba
000003e0: 2760 9ebc 27a3 aebb 197a 85bf 81a5 8ebf
000003f0: cb67 223f 2d73 e7be 8f83 c9bd be63 d3bf
