data/rl_model_4.pth (torch_old, 93650 bytes, 18 tensors)

w_a f4 [32, 32]
00000000: 25d7 e0bf f96a 9f3f 04da e33f 74f7 f7bf
00000010: ba78 58be 8b69 873f 39d4 2cc0 44d4 e93f
00000020: 9f56 633f 53bc 2c40 a940 06c0 53d7 4a40
00000030: da74 ae3e 8495 2640 fb0a 3840 cab7 eabf
00000040: 5698 55bf 4d58 8f3d c35f 65c0 55b9 4fc0
00000050: 6e4c a83f 320e 01c0 56e1 2bc0 76ff a2bf
00000060: de99 813f 7826 2ebf c9a3 983f 883a 39bf
00000070: 651e 863f ec34 da3e d8f1 1ec0 d416 543f
00000080: 0994 14c0 906c f33f 6ac1 7fbf fa53 be3e
00000090: c1b9 17bf e2e1 ea3e ff3f 93bf 4be1 a93f
000000a0: 9e28 81bd 6e7b 293f f329 e13e 82eb 123e
000000b0: 6e25 ca3e f74a ae3e a27e 08c0 ddf4 16bf
000000c0: 25af a23f 4e47 253f 1a5e a53f fe22 b83f
000000d0: cb30 2dbf 785d c5bf 85a1 2ac0 6b3d 6e3f
000000e0: 32ae 4f3d ca83 d3be a4ec 873f 14c3 0340
000000f0: 233c fcbd 0deb da3e 405f 6b3f 0d12 a5bd
00000100: 1d43 b8be f4a4 083e ff5c 0b40 8000 19c0
00000110: 7d01 7ebf 5b05 efbf 67b0 853f 8782 7bbf
00000120: 3e7a e13f 1782 f83f 9718 75bf 9fc4 4abe
00000130: 995e 5fbf f5e3 26c0 720f 9dbe 0d09 0d3e
00000140: eead f7bf 19c9 52bf 3004 9cbf db82 763e
00000150: 299e 1a40 af4e cf3d fbb0 5f3f b17c 1ebf
00000160: b7d5 52bf f002 123f e981 7fbf 630b 7b3d
00000170: e00d e0bf 9422 c5be 752c f8bf 9b03 da3f
00000180: 83e1 27c0 fe4e 533f ee46 e93d fab0 02c0
00000190: 11e4 a43e 2a6b 573f 2e03 1dbf 3ae5 3fbf
000001a0: e239 0f3f 1c41 a63f d2cc a93e 8a66 ad3f
000001b0: 84d5 f63e b49c 30bf e270 3bbf cd9a c2bf
000001c0: d256 1ac0 0307 f4be dd17 d7bf 295d 8c3f
000001d0: 2860 933f 0b55 52bf 1c82 47c0 255a 86bf
000001e0: 7399 073f 2c16 7e3f c1ad 90be ba38 3cbf
000001f0: 4eaa fb3f f58b 5e40 1b8d 023f aab1 653f
00000200: a047 e0be 6c47 05bf 0d40 0cc0 cb1f fb3e
00000210: 36fc c1bf 3231 95be 3bb8 ffbe 3c3e febf
00000220: c0dd 6ebf 5ea7 dc3e fc89 653f 2b17 23bf
00000230: 2ded 84bf 3389 8bbf dc68 c9bf 327a 8d3e
00000240: 149b 133f 7cbc b63e da02 98bf a2ad 423d
00000250: 17dc 36bf 447a 69be 79d8 a9bd b97a 83bf
00000260: 72e6 8bbf ce0b cd3f efa7 91bf 53d8 4540
00000270: a3c9 c53f ab5f abbe 22a9 8840 2395 06c0
00000280: 073e 70be c6c1 3440 be40 be3f 0e7e 1c3f
00000290: b314 8fbd 7082 fdbb f09b 3240 3737 ba3f
000002a0: 49aa 7bbf cc6a 5d3f 8031 0e3e 90d8 11bf
000002b0: 521d 5a3e c5e7 f8bd bc62 b43f b4a2 63bf
000002c0: 15f2 813f cd04 4e3f 3862 eabd acaf b73d
000002d0: f959 bdbe 58cd ff3f f32b 94bd 75cf 9c3f
000002e0: 4eb9 ab3f 695a fc3e 6d96 20be f186 6c3f
000002f0: e69f 27bf dcd3 6c3c 45ee 513e 2cf6 e73e
00000300: e1e7 8cbf a07d b03f 6350 b7bd 4b2a 3cc0
00000310: f9be 6fbf 8590 82bf 3031 53be c3d5 18c0
00000320: 3dab 693f dfe1 0c40 7598 9cbe f779 cb3c
00000330: f2c7 21c0 fe10 e33f 076a 9dbe 3561 3640
00000340: 430b 06c0 adde 87bf 0f12 11c0 7d60 93bd
00000350: 68f6 f23f 6755 c03d 0650 fbbf 25e8 6bbf
00000360: f7e3 e5bf b558 913f 9fc1 7f3e 473c b9bf
00000370: 09e5 e33e 9944 9e3e eb32 d83e 9f41 1d3e
00000380: e468 d7be 69a1 3c40 bfcb c8bc aca5 d63d
00000390: bc3f 50be 8c3d f83f 10d2 b6be a6db 023f
000003a0: beff c03f 2454 0840 9ee9 3fbf 6246 ae3f
000003b0: 7979 54bf 3b81 773e fc36 653e 2e62 39be
000003c0: fd18 21be 5339 7e3f 4a6a 04c0 14e8 4e3d
000003d0: 8004 b4be eda3 79bf 119b 4d3f 4ee7 343f
000003e0: 76ba dd3e fe73 85bf 8fe4 0a3f 59c9 b83e
000003f0: 2f28 79bf 312a 35bf 3348 0a40 7c98 1f3f
-1.7565657 1.245452 1.7800908 -1.9372392 -0.21139804 1.0579084 -2.700453 1.8267903
0.8880405 2.6989944 -2.0976965 3.1693923 0.34073526 2.6028757 2.8756702 -1.8337338
-0.8343557 0.06999264 -3.5839698 -3.2456868 1.3148324 -2.0164914 -2.6856284 -1.273421
1.0125082 -0.6802745 1.1924983 -0.72354937 1.0478026 0.426185 -2.483511 0.8284733
-2.3215353 1.9017506 -0.999045 0.37173444 -0.5926781 0.4587546 -1.1503905 1.3271879
-0.06306575 0.66203964 0.43977317 0.14347652 0.39481682 0.3404157 -2.132729 -0.5896738
1.27097 0.6456193 1.2919343 1.4385679 -0.6765258 -1.5419149 -2.6661084 0.93062466
0.050703235 -0.41311485 1.0619092 2.0587816 -0.12316158 0.42757455 0.91942215 -0.080600835
-0.35988703 0.13344175 2.177551 -2.3906555 -0.9922102 -1.8673509 1.0444459 -0.98246044
1.761543 1.94147 -0.95740646 -0.19801567 -0.8725372 -2.6076634 -0.30675846 0.13772984
-1.9349954 -0.823381 -1.2188778 0.24073355 2.4159033 0.101224296 0.87379426 -0.61909014
-0.8235735 0.5703573 -0.998076 0.061290156 -1.7504234 -0.38502944 -1.9388567 1.703235
-2.6231391 0.8254241 0.11390482 -2.0420518 0.3220525 0.84147894 -0.61332977 -0.74959147
0.559477 1.298862 0.33164078 1.3546917 0.48209774 -0.6898911 -0.7321912 -1.5203491
-2.411549 -0.476616 -1.6804157 1.096593 1.151372 -0.82161015 -3.1173162 -1.049626
0.5296852 0.9925258 -0.28257564 -0.7352406 1.9661348 3.4772923 0.5099656 0.8972422
-0.43804646 -0.52062106 -2.1914093 0.49047694 -1.5155094 -0.29139096 -0.49945244 -1.9862742
-0.93307114 0.4309644 0.8966367 -0.63707227 -1.038488 -1.0901245 -1.5735126 0.2763229
0.57658505 0.35690677 -1.187587 0.04752887 -0.7142958 -0.22800547 -0.08293242 -1.0271827
-1.0929701 1.6019228 -1.1379374 3.0913284 1.545216 -0.33471426 4.270646 -2.1028526
-0.23461162 2.824327 1.4863508 0.61129844 -0.0698637 -0.0077364966 2.7907677 1.45481
-0.9830671 0.86491084 0.1388607 -0.56971073 0.21300247 -0.121535815 1.4092631 -0.8892014
1.0152003 0.80476075 -0.11444515 0.089690536 -0.36982706 1.9984541 -0.07234945 1.2250811
1.3415926 0.49287727 -0.15682383 0.92393404 -0.6547836 0.014454808 0.20501049 0.45305002
-1.1008264 1.3788338 -0.089508794 -2.9400814 -0.93650776 -1.0200354 -0.20624232 -2.388047
0.91276914 2.201286 -0.30585065 0.02483843 -2.5278287 1.7739561 -0.30744955 2.849683
-2.0944374 -1.061483 -2.2667272 -0.07196138 1.8981447 0.09391289 -1.9633796 -0.921511
-1.7960194 1.1355196 0.24976204 -1.447152 0.44510677 0.3091171 0.42226347 0.15357064
-0.42072213 2.9473517 -0.024511216 0.10480818 -0.20336813 1.9393783 -0.3570714 0.51116407
1.5078046 2.1301355 -0.74965847 1.3615229 -0.8299785 0.24170391 0.22384256 -0.18103859
-0.15732189 0.9930622 -2.0689874 0.050514296 -0.35159683 -0.97515756 0.8031474 0.7066544
0.4330632 -1.0426023 0.54255 0.36091116 -0.9732694 -0.70767504 2.1606567 0.6234205

w_group.0.weight f4 [64, 8]
00000000: 5670 3bbd 3cb0 b33c 1dea 673e fb64 8fbe
00000010: 912b b1be 0011 0f3d a407 adbd f93f d43c
00000020: 639f bcbe aaab 20bf 2bac b6bf d89b e6bd
00000030: 00f1 8f3e a5d4 5ebe 9c7f e2be 84ee 09bf
00000040: 2210 38bf 395d 68bd e62a eabe 8464 673e
00000050: ffca c2be 34eb 91be e6dc 36bf 4257 75bf
00000060: fee4 f3be cb0b 073e e4fe 6d3f 805d 96bf
00000070: ff16 85bd 3e04 663e c3a5 f7be edf0 993d
00000080: a2e8 b3bd e54b 00bd fc9f 1f3f 5e79 bd3e
00000090: 8ca1 a53c 5a00 273e e7c9 6bbe 847b aebe
000000a0: 1eaa 39bd 4734 23be da4b 05bf 065d 44bf
000000b0: 60a6 c2bf 174c 8e3e 68c8 b23e ca1e 0abe
000000c0: e053 28bf 0fd1 983e 6e14 313f ab12 b63f
000000d0: bf34 e0be 8e80 23be 6774 4bbf d0b4 08bf
000000e0: 5eba cabe 5779 313d f004 b43f 4184 1ec0
000000f0: 66ac b4bc 26a1 5abe e369 4b3d 6654 d0be
00000100: 06be 06be 2234 c9bc f14c 09bf 538f b33e
00000110: 95d7 a6be 288a 5ebe e3e9 a0be e731 b5be
00000120: e407 0cbc d834 b8be e3e9 04bf 2fdc 17bf
00000130: d94d 453f d821 fd3d 55bf d3be 8951 20bf
00000140: 61d6 e53d 3672 d33c eafc 4dbf 568e f63e
00000150: 361a d8be c447 b3bd f963 8d3d a6da e13d
00000160: 52d2 52bf 3c1b bcba 5723 bebe 830c 583e
00000170: 9319 8cbe 4049 1a3d 0f4b babe c031 87be
00000180: cd39 923f 1f67 26bf a77d 383e a06d f83e
00000190: 23b8 f7be 76c9 43be 7b79 babe 1621 2ebf
000001a0: 1855 993f 6952 4b3f 531e db3f 89e6 9c3f
000001b0: ac5f 52bf 3066 fcbc 6a02 11bf cd44 24bf
000001c0: a9ee efbd 8252 a5be 80a4 fd3e 76d2 993f
000001d0: c8a8 b9be aa89 22be 2968 15bf 0ded 44bf
000001e0: 2849 673f c769 24bf 432a 343e 2ba5 efbf
000001f0: 42f0 b9bd dee2 3b3e af7d 08bf 9664 38bf
00000200: 1658 1abd cd5a 65be 2d18 0dc0 145d 013f
00000210: bf1f e73e 7986 a3be 3134 60be e8aa 94be
00000220: 7e4c 093e 2f1c 6c3e 52d5 e0be 5a2f 6cbd
00000230: 681a 78bf c029 c8bd ced9 e7be f422 b8be
00000240: b1c9 60bd a91e 8ebb 5a7c 04bf 8604 3f3e
00000250: badf 99bf 806d 54bb 42c6 0abd 401b 17be
00000260: b59f 70bd 5019 09bc 9074 9a3d c795 c63e
00000270: dff4 a33e aa22 623e 5cc9 7abe 83a5 4ebe
00000280: 2e64 26bf ee5f 56bf 5dce e63d f709 383d
00000290: 3812 523e f645 2d3e 2012 c7be b548 27bf
000002a0: f570 7abe 3c25 c2be 00fc 13be 834f edbd
000002b0: da67 1fbf fcfe d9bd 8673 44bf 8e85 5ebf
000002c0: b73e 6a3e ef1d 90bd 5261 9f3f ce9a 91bf
000002d0: 22ac c4bf 9365 a4be efca 30be 444e e7be
000002e0: f65c 0b3f e78e 283e 2778 173d fcea 8bbf
000002f0: 5347 38be a239 403e 7aa6 cfbe 5fe0 2cbe
00000300: 7484 a13f 9590 05be fe27 fd3e 3c09 13be
00000310: 375a c5be 471b 953e 06a4 3e3e 2d4b 673d
00000320: 4474 2b3e 7c3d 76be 0ff0 693f 9e7b b23e
00000330: 1d23 0dbf d86e 683d d37b 09bf b5f6 d7be
00000340: 80a5 603e ee11 163e 31bb 253f d21d 3e3f
00000350: 255c d7be 8eb7 5a3e 2d13 02bf 2531 2dbe
00000360: 77c8 cf3e 0288 7f3f 3c8e cf3d 133a 233d
00000370: dbe5 04bf e06f 50bc 9450 d3be a02b 25ba
00000380: 09dd 82be 2bfa 0fbe 2e9b a7be 6753 4fbe
00000390: 54e7 283e 230e b1be 113b 0bbf fca6 27bf
000003a0: 8d50 d8be 330f c2be fa3b 493f dbba 9abe
000003b0: 9f3c 85bf 62bf 453e 7e9d 26bf e45d 2cbf
000003c0: 37a5 00bc 211a 333d a8ff 7cbe 07cc 67c0
000003d0: 7298 fabd ecfe 05be 0934 dd3d de61 d33d
000003e0: 0c0c 1d3c 6b4c bebe 836a 1cbf f728 b0bd
000003f0: 57a0 02bf d425 d2bd f119 1cbf 4deb febe
-0.04576143 0.021934621 0.22647901 -0.2800673 -0.3460355 0.03492832 -0.08448723 0.02590941
-0.36840352 -0.6276194 -1.4271291 -0.112601936 0.28113556 -0.21760805 -0.44237983 -0.5387957
-0.71899617 -0.05672953 -0.45735854 0.22596937 -0.380455 -0.28499758 -0.71430814 -0.9583627
-0.47635645 0.13188092 0.9296706 -1.1747284 -0.06498527 0.22462556 -0.48368654 0.07516656
-0.087846056 -0.03132238 0.6235349 0.37006658 0.020218633 0.16308728 -0.23026238 -0.3407861
-0.045328252 -0.15937911 -0.52068865 -0.7670444 -1.5207024 0.27792427 0.34918523 -0.13488308
-0.65752983 0.29847 0.691718 1.4224447 -0.43790242 -0.15967008 -0.7947449 -0.534009
-0.39595312 0.04332861 1.4064007 -2.4768221 -0.022054862 -0.21350536 0.04966153 -0.4068939
-0.13158426 -0.024560992 -0.5363303 0.35070285 -0.3258635 -0.2173239 -0.3142844 -0.35389635
-0.008546803 -0.35977817 -0.5191938 -0.5932035 0.7707191 0.12359971 -0.41356912 -0.6262441
0.1122253 0.025811296 -0.8046404 0.4815547 -0.42207497 -0.087539226 0.06903834 0.11028032
-0.82352173 -0.0014351378 -0.37136337 0.21098523 -0.27363262 0.037667513 -0.3638539 -0.26405144
1.1423889 -0.650011 0.18016683 0.48521137 -0.48382673 -0.1911982 -0.36420807 -0.68019235
1.1979094 0.7942262 1.7118629 1.2257854 -0.82177234 -0.030810446 -0.5664431 -0.6416748
-0.11715443 -0.3228951 0.49539566 1.2017353 -0.36261582 -0.15872827 -0.5836206 -0.7692421
0.90346 -0.64223903 0.17594247 -1.872228 -0.09079029 0.18348262 -0.5331678 -0.7202848
-0.03768166 -0.22397919 -2.2046006 0.5053265 0.45141408 -0.31938532 -0.2189491 -0.2903664
0.13408086 0.23057626 -0.4391275 -0.057662345 -0.9691529 -0.09773588 -0.4528336 -0.35964167
-0.054879848 -0.004337151 -0.51752245 0.1865407 -1.2021401 -0.00324139 -0.03388048 -0.14756489
-0.05874606 -0.008367851 0.07541764 0.38786146 0.3202276 0.22083536 -0.24490875 -0.20180325
-0.6499661 -0.8374013 0.112698294 0.04493138 0.20514762 0.16921219 -0.38881016 -0.6534532
-0.24457152 -0.37919033 -0.14451599 -0.11587431 -0.6226784 -0.106443375 -0.76738775 -0.8692254
0.22875486 -0.070369594 1.2451575 -1.1375368 -1.5365031 -0.32108745 -0.17264913 -0.451769
0.5443872 0.16460763 0.03697982 -1.0931087 -0.17995958 0.18771985 -0.405567 -0.16882466
1.2618546 -0.13043435 0.49444574 -0.14358991 -0.3854539 0.29122373 0.18617257 0.056468178
0.1674357 -0.24046892 0.91381925 0.34859937 -0.55131704 0.056746334 -0.53704566 -0.4218041
0.21938133 0.14655277 0.64738756 0.7426425 -0.42062488 0.21359083 -0.5081051 -0.16913278
0.4058263 0.99816906 0.10134551 0.039850306 -0.5191323 -0.012721986 -0.41272414 -0.0006300751
-0.2555926 -0.14060275 -0.3273558 -0.20246659 0.16494495 -0.34581098 -0.54387003 -0.6548917
-0.42248955 -0.3790222 0.7860714 -0.30220684 -1.0409125 0.19311288 -0.65084064 -0.67330766
-0.00785189 0.04372609 -0.247069 -3.6218278 -0.12236108 -0.13085526 0.108009405 0.10321401
0.009585392 -0.37167677 -0.61100024 -0.086015634 -0.5102591 -0.102611214 -0.60977083 -0.49788895

w_group.0.bias f4 [64]
00000000: 34a4 9abe 79f9 19bf 9c3f 77bf dab6 f3be
00000010: 5220 ebbe 85a1 91be 96b1 0cbf 169f 02bf
00000020: 1819 11bf 898d bcbe cb15 51be 208f 01bf
00000030: 9b53 24bf 134f cfbe 37a4 07bf 52c5 2fbe
00000040: 5dc4 acbe 9ec4 0dbe 9883 0abf 093d 0b3e
00000050: ffaf 24bf beb1 61bf 48a5 48bf dadd 05bf
00000060: c4c6 1ebe cd7d 41bf 1fa6 f4be ca54 33bd
00000070: 1a7b d5bd bfc0 01bf fa8e 843d 0ce9 0bbf
00000080: 3bca 2bbe 2517 22bf c902 b3bb fdae 5dbe
00000090: 8af3 1abf de6c ae3e 1082 d7be edaf 06bf
000000a0: e00e c43d 71f9 02bf 9ecb dcbe 0bb4 56be
000000b0: 5714 35bd 3951 24be 5b3b 97bc 1532 013e
000000c0: cdb4 87bd eeeb d83c bfe9 17bf 1831 323d
000000d0: df0b d3be b89b e2be bc00 acbe eca4 56be
000000e0: 1928 42bf 5eee 9cbe 0467 1cbe 5466 0abd
000000f0: b511 51be 0009 f8be 0ce3 67be ec00 1abd
-0.30203402 -0.6014629 -0.96581435 -0.47600442 -0.45923096 -0.28443542 -0.54958475 -0.51023996
-0.56678915 -0.36826733 -0.2041847 -0.50609016 -0.6419007 -0.40490016 -0.52984947 -0.17165115
-0.33743563 -0.13844535 -0.54107046 0.13597502 -0.6433105 -0.8816184 -0.783772 -0.52291644
-0.1550551 -0.7558258 -0.4778299 -0.043782033 -0.104238704 -0.5068473 0.06472583 -0.54652476
-0.16776364 -0.63316566 -0.0054629785 -0.21648784 -0.6052786 0.34067434 -0.42091417 -0.5261219
0.0957315 -0.5116187 -0.43124098 -0.20967118 -0.04420885 -0.16046609 -0.01846092 0.12616761
-0.06626282 0.026479688 -0.59341043 0.04350385 -0.41219994 -0.4425943 -0.3359431 -0.2096135
-0.75842434 -0.3065061 -0.15273672 -0.033788994 -0.20416911 -0.48444366 -0.22645205 -0.037598535

w_group.2.weight f4 [32, 64]
00000000: 0469 bb3d 3113 dfbd da39 57bd 54f6 eebd
00000010: f614 b93c 980e ff3c ec60 21be 8fbf de3b
00000020: 474e 5abd 6935 95bc 1ce9 88bd 3e8d 863d
00000030: 2cf5 bebd 28d2 debc 3563 f3bc 76be 973d
00000040: 57b4 72bd dd50 1cbe 9f89 3e3d 9c59 0fbe
00000050: a59c fbbd 3439 1abe bace b7bd aa9a f8bc
00000060: b3fb c3bb 1e07 9d3d f00d fcbd d225 ad3d
00000070: 51ab 443d efd9 37bd aa95 373d 5a3f a43d
00000080: 6824 a43c 40f8 66bd 9633 a23c 841b cf3c
00000090: aaf7 45bd 17e0 033d 31f3 b33d 0a8e 05be
000000a0: ae4f f7bd 8c47 c83c 5a45 5fbd 8b8c 40be
000000b0: 35a3 be3d 91d6 06bc 22e8 43be c007 febd
000000c0: d6bc 5fbe 3b96 a03c 82e8 cdbb e8a7 843d
000000d0: 3da4 c3bc 256f b83d 2020 80bd f1c2 5abd
000000e0: 4cde ae3d bb50 e4bd 3167 8ebd 0897 ddbd
000000f0: 36d9 a5bd 2b26 1ebe 84f5 92bd 87c4 23be
00000100: c391 083d 4c80 f63e 56ee 333f 3b4e b43e
00000110: 327a c0bd 2d6f 063f 0fb5 07bf 63ca 85bc
00000120: d42d 0dbe 12a0 453e 9a42 bdbe c838 1a3f
00000130: 8a07 1a3f 92ad 7b3f 4cd0 f13d 1866 33be
00000140: 3722 1d3d 2acc e0be 9063 88bd daf4 b03d
00000150: 6914 da3e 9c42 3abe 413f 283e 3efe 36bc
00000160: 994e f8bb 8575 53bd 14d8 d93e d6ba 473e
00000170: 261b 3c3d 0e6f 3f3d 62e2 4a3d 10f6 1c3e
00000180: d99a 2cbf 65f7 f13e e81d b03d 598f c63e
00000190: a5ac 32bd 5862 5f3e 047d 493e 93a1 563c
000001a0: d388 2ebe 26f4 7c3f d6b5 003e 7c2e 06bf
000001b0: 3df7 2d3e b3f6 cfbd f884 b2bf 4806 c33d
000001c0: 8f7f a7bb dcf0 603d 0045 0dbe 4878 3e3f
000001d0: ba3e 03be c74b 313f 1ff9 4cbe 73f1 71bf
000001e0: 4d8b 26bf 91ef ab3d 08f3 59bf 8897 83be
000001f0: bb91 3d3e 1954 ccbd 326f bdbf d9be 1a3e
00000200: f1f4 11be be79 3c3f 4081 1dbd 97c0 e43d
00000210: 55e9 22bd 3cb9 d33c 38c9 5b3e 8c57 313e
00000220: 00d2 153d c774 d83d 1c1e 6abe 63be 4d3f
00000230: edae cdbd 7870 e43e 687d 96be 30fb e83e
00000240: 715f bd3d aa46 2dbe 948d 533e d1e8 30bc
00000250: c804 98bf 5219 e3be 8a6e 26bf 0f2f e93e
00000260: 2f78 403e 94bf 92be a7dc f0bc 199c d33c
00000270: aa3d 5b3e 5213 c23d a483 7dbd 0a91 57bf
00000280: bfac 94be 7dfe d7be 3da9 033e a07e 1bbc
00000290: abf5 d3bd 54cb 7f3e b8d5 003a dc94 babd
000002a0: 8508 a6be 9d64 0f3e 7b0b 59bc 6d27 94be
000002b0: 5f93 dbbd d58f 03be 20ff ff3d 65c4 d63c
000002c0: 43b0 e23e 5665 72bf 1a48 963d bb58 60be
000002d0: 9a29 aabd 680f e33e a6d5 213d 9b18 b3bd
000002e0: edf6 093f 74e2 d73b 12f8 d43d 37cc 86be
000002f0: 2fa8 3dbc 66d5 06bd f1cd 21be e689 8abe
00000300: ec95 6c3d 94fb c8bd fca9 fa3d af06 a3bb
00000310: 2d7c 68bc 46f1 01be e9a1 06be 8edd 11be
00000320: 9747 ebbd eb4b 13be 3a1d c8bd 425c 723b
00000330: ef62 98bd afd8 10bd 4a42 e8bd aee8 03bd
00000340: 0156 4bbd 629c 1036 6a41 47bd 1481 a9bd
00000350: c600 853d 5815 4e3d 419d 29be b43b 18be
00000360: d51e e63c 1711 38be 4188 7fbd b30a a13c
00000370: 5f2c de3d 716d 21bd 37b7 eebd ee1b 833d
00000380: 7c78 c73c 6319 ce3d f819 b3bc aecb a6bd
00000390: a09e 343d d4b4 15be c97d 513c 6f96 1fbe
000003a0: b24d e1bd 1099 aebd ea54 2d3d c3a2 0e3c
000003b0: 8b5d 19bd 9bbd 923d ba8d 29be 9458 fe3d
000003c0: 4e33 74bd eaff 963d 6275 b73d 9034 98ba
000003d0: 9788 af3c 7794 813d cb32 1fbe 264b 5fbc
000003e0: f89d 4a3d a06f 0b3c b9b9 11bd 3a9a 8e3c
000003f0: feeb b83c c276 2fbe 0074 433c 7fb1 10be
0.091508895 -0.10892332 -0.052545406 -0.11668077 0.022593003 0.031134889 -0.15759629 0.006797738
-0.053297307 -0.018213945 -0.06685087 0.065699086 -0.093241066 -0.02719982 -0.029710392 0.074093744
-0.059254017 -0.15265222 0.046517964 -0.13999027 -0.12285737 -0.15060884 -0.08974977 -0.030347187
-0.0059809326 0.07667373 -0.12307346 0.08454479 0.048014943 -0.044885572 0.044820465 0.08019896
0.020036891 -0.056389093 0.019799989 0.025281675 -0.048331894 0.03219613 0.087866195 -0.13042465
-0.120757446 0.024448179 -0.0545095 -0.18803613 0.09308473 -0.008229868 -0.1913152 -0.12403822
-0.21849379 0.019602885 -0.0062838206 0.06477338 -0.023882026 0.09005574 -0.06256127 -0.053408567
0.085384935 -0.111482106 -0.06953276 -0.108198225 -0.0809807 -0.15444247 -0.07175735 -0.15992938
0.033342134 0.48144758 0.70285547 0.35215935 -0.09398307 0.5251339 -0.5301065 -0.016331857
-0.13787013 0.19299343 -0.36964875 0.6024289 0.60167754 0.9831172 0.118073076 -0.17519414
0.038362708 -0.43905765 -0.06659615 0.08640452 0.42593697 -0.18189472 0.1643038 -0.0111690145
-0.007577729 -0.051625747 0.42547667 0.19504866 0.04592433 0.04673677 0.0495323 0.1532824
-0.6742378 0.4725906 0.08599454 0.3878124 -0.043621678 0.21814859 0.19676596 0.013100046
-0.17044382 0.9881004 0.12569365 -0.5241468 0.16988845 -0.10154476 -1.3946829 0.095226824
-0.0051116417 0.0549172 -0.13795853 0.74402285 -0.12816897 0.6925625 -0.20016907 -0.9450905
-0.65056306 0.08395303 -0.8513646 -0.25701547 0.18512623 -0.09976978 -1.4799559 0.15111865
-0.14253594 0.73623264 -0.03845334 0.11169546 -0.039773304 0.025845163 0.21463478 0.17318553
0.036577225 0.105691485 -0.22863048 0.8036863 -0.1004313 0.44617057 -0.29392552 0.4550414
0.0924672 -0.16921487 0.20659477 -0.010797695 -1.1876459 -0.44355255 -0.6501242 0.45543715
0.18795846 -0.28661788 -0.02940209 0.02583127 0.21410242 0.09476341 -0.06189312 -0.8420569
-0.29038045 -0.42186347 0.12857528 -0.009490639 -0.10349592 0.24979907 0.0004914659 -0.09110424
-0.32428375 0.14003225 -0.013247366 -0.2893633 -0.10721468 -0.12847836 0.12499833 0.026216695
0.44275102 -0.94685876 0.07337971 -0.21908848 -0.08308716 0.44347692 0.03951039 -0.087449275
0.53892404 0.0065882746 0.10398878 -0.2632768 -0.011575743 -0.032918356 -0.15801217 -0.27058333
0.057760164 -0.0981361 0.12239453 -0.004975162 -0.014189762 -0.12689695 -0.13147701 -0.14244673
-0.11488264 -0.14384429 -0.097711995 0.003698126 -0.07440745 -0.035362896 -0.11340769 -0.032204323
-0.049642567 2.15487e-06 -0.048646368 -0.08276573 0.06494288 0.050313324 -0.16563894 -0.14866525
0.028090874 -0.1797527 -0.0623858 0.019658422 0.10848307 -0.039411012 -0.11656039 0.064018115
0.024349444 0.10063436 -0.021862969 -0.081443176 0.04409659 -0.14619762 0.012786337 -0.1558473
-0.11001147 -0.08525288 0.04231731 0.008705798 -0.037442725 0.071650706 -0.1655797 0.12419239
-0.05961924 0.073730305 0.08957936 -0.0011612345 0.021427436 0.063271455 -0.1554672 -0.013628757
0.049467057 0.0085105 -0.03557751 0.017407525 0.022573467 -0.17135146 0.011929512 -0.1413021

w_group.2.bias f4 [32]
00000000: a234 5bbe f623 81bf 933b 383f f494 48be
00000010: c2d7 5b3f 6239 8dbe 22e7 c8be 0a21 ba3e
00000020: ec9e babe 41c2 80bf 7e7d 663e 7360 523f
00000030: 05f0 c03e e6aa 3b3d 925d b7be 415c 46bf
00000040: 400d 3cbf 49ad 2e3e c93f ee3e 6062 dd3e
00000050: ec63 8c3d bda2 3f3e c6c2 b33f c139 1dbf
00000060: 5ad6 37bf d5d9 2abe 495f 36bf 2003 c4bd
00000070: 6b36 b0bd 3e2a 413f fe00 51be 14eb 3f3f
-0.21406797 -1.00891 0.71965903 -0.19588071 0.85876095 -0.27582842 -0.3923884 0.36353332
-0.36449373 -1.0059282 0.22508809 0.8217842 0.3768312 0.04581728 -0.35813576 -0.7748452
-0.7345772 0.1705829 0.4653304 0.43239117 0.06854996 0.18714423 1.4043815 -0.6141625
-0.7181145 -0.16684659 -0.71239144 -0.095709085 -0.086041294 0.7545508 -0.20410535 0.74968076

w_agents.0.weight f4 [64, 5]
00000000: b7df fe3e 3715 87be 81df ff3e 70ce babd
00000010: 0124 ea3e 8893 8ebc d9d9 a43a b45b 0c3c
00000020: 0302 e1be ecb9 d9be ed03 9c3d 3ecb 1f3d
00000030: 9760 423d 8404 6cbf 0c6a 40be ddde d03d
00000040: 6413 73bc e352 a13e 7e0e 713f c886 a0bf
00000050: ff13 ba3d 1140 a9bd 1618 043f 0add 03bf
00000060: af55 b73d 5d52 c3be e877 53bf 26a3 c03d
00000070: 4157 583e ed25 2e3e 54d7 1a3e 7847 6e3c
00000080: a381 51bf 8f18 793e 0f2f 92bd 1690 fe3e
00000090: a467 3cbe 30a5 44bf 77ca 5c3e 84d4 1ebf
000000a0: f5a5 b73b 02b0 323c 2fc3 f73b b29d dabe
000000b0: 0028 2bbf fca8 e4bb 35fc 01bc 049c 9cbd
000000c0: 7b11 7abe b594 dcbe c15f 963a 9467 f1bb
000000d0: f595 e93d d260 943d fc41 02be 6e3b 0fbd
000000e0: 1ece 6fbd 2f3b 7f3e 2bb1 96be 0b12 9bbe
000000f0: fe19 7e3e 13d8 c7be 6aa1 0bbf a9f9 5dbf
00000100: a9ba 3dbf 70fe bfbc bfed 023b 3374 90be
00000110: 02c5 f4bd a396 99bd 6e19 bf3c 1cd1 533d
00000120: 8ba0 363e 44c6 c93e 6b4e 18bf 60ee 72bd
00000130: 97ec a4bd c82c 7e3e c8ae 9b3e 7e7e 52bf
00000140: eb2a 5a3e e027 89be 4c9e eebe 3907 b43f
00000150: 76e0 92bf 8518 0ebd 6d6f 013d 7f57 403e
00000160: 5fc6 483e 27cc c5be ec5e 16bd ff00 b6be
00000170: 3c98 d73f 944d 1540 2b21 fabf 12d0 f8bb
00000180: e578 013a c46a 0bbe 77da 28be fa10 16bf
00000190: 48c9 3dbe 75c2 4fbe 8970 363e d1ff 803e
000001a0: 1c10 f9bf 459e f93d e832 c83d 3f38 173d
000001b0: 98b3 983f 351f 81bf 5753 cabc cc73 b2bc
000001c0: 913c c53d ae9d 30be 94f2 43bd e31a b5bc
000001d0: b334 38bb eb37 81be e709 94bd e283 3cbf
000001e0: a92e 54bc c11e 96bb 1b20 81bf d326 c63d
000001f0: 6a0d 093b c69c 98bb afd4 173d 58fb 9d3d
00000200: 5211 0a3f c626 debe ba3e 9ebc 7ab4 28bc
00000210: 1862 dd3c dd58 1ebe 7640 76be 8ebb 663e
00000220: 41ad 163f b1db 0dbf 637a adbe e439 04bf
00000230: 27d8 99be 0047 b03e d813 893e 7361 093f
00000240: 5b34 94bf 5115 fe3e c74f b73b 5f14 043f
00000250: deb6 713c f93f 41bf 9d84 a8be 0685 f5bb
00000260: 7ac8 66bf 8b5f c53d edca 2cbf 9c70 1c3e
00000270: 6292 9bbc 4e5f 3cbe ea9a 8f3e 0251 6ebf
00000280: 1946 6dbe 03cf 993e 66e8 63bf 3f33 903f
00000290: 3729 f6be ed65 843d ea56 a63d 6c54 02bf
000002a0: a078 313f 2ece 16bf 8484 d13b 52b6 3c3d
000002b0: 2bbb bc3d 1b2b b63d 9aec 6abd 47b7 173e
000002c0: 2e3c 91bc 6e4e ab3e 5144 c6be 823f 80bf
000002d0: 10e8 cfbc 5e38 903d 2d30 8cbd 5fdd 1a3f
000002e0: fd02 c0be e460 803e 0eb5 6e3e 1cf3 c9bf
000002f0: 1da2 05be c461 75bf 1815 7a3c a811 053c
00000300: 23be a23d d82d c2be 755c 34bf 6ea9 2c3e
00000310: 3cab 703e ba9d 7e3e fb37 bc3e 8d6f afbf
00000320: b087 d23a abdb 78bd dec0 11bf e729 a9be
00000330: d4cb 3cbf d320 a83e c982 573d cf21 b1bc
00000340: 0c22 ef3f 3a0a a3bf ecbf 80be f787 ffbe
00000350: 7d4f 083f 881d 413f 6c83 48bf 6d9b f53e
00000360: 4253 89be 4e50 04bf e603 913f ffcc 3bbf
00000370: 9579 563e b4cc 333e e7b7 71be 813b 293f
00000380: 6453 e7be f920 96bc a05c 9d3e ed83 6dbe
00000390: fcb4 7b3f e09e 54bf 0bc9 91be 4510 76bd
000003a0: bb18 d3be 0ae1 e23f ec67 cabf 6816 803a
000003b0: 14ac c63d 690a 12bf 1909 b13e 5a06 81bf
000003c0: a906 bcbe 5e10 dc3d 8577 c3be 8919 c73f
000003d0: 18f9 85bf f172 9bbe cc19 a7be c7d8 193f
000003e0: 8628 113d 96bb e2be e200 e83d 2082 eebd
000003f0: e5b8 ef3d 52d5 8abf f1c7 013e fad8 87bc
0.49780056 -0.26383373 0.49975207 -0.09121406 0.45730594 -0.017404333 0.0012577131 0.008566786
-0.43946847 -0.4252466 0.07617936 0.039012186 0.047455397 -0.9219439 -0.18790454 0.10198758
-0.014836166 0.3150855 0.9416274 -1.2541132 0.09085845 -0.08264173 0.5159925 -0.51509154
0.0895189 -0.38148776 -0.8260484 0.09406118 0.21127035 0.17006655 0.15121204 0.014543407
-0.81838435 0.24325775 -0.07137882 0.49719304 -0.18398911 -0.76814556 0.21561609 -0.62043023
0.0056045004 0.010906221 0.0075611095 -0.42698437 -0.6685791 -0.0069781523 -0.007933666 -0.07646945
-0.24420731 -0.43082204 0.0011472629 -0.007367084 0.11405555 0.072450295 -0.12720484 -0.034968786
-0.058546178 0.2492492 -0.29432043 -0.30287203 0.24814603 -0.3903204 -0.54543173 -0.86709076
-0.74112946 -0.023436755 0.0019978133 -0.28213653 -0.11951639 -0.07499435 0.023327556 0.051713094
0.1783468 0.39409077 -0.59494656 -0.059309363 -0.080529384 0.2482177 0.30406785 -0.8222426
0.21305434 -0.26788235 -0.46605146 1.4064704 -1.147475 -0.034691352 0.031600405 0.18783377
0.19606923 -0.38632318 -0.03671162 -0.35547635 1.6843333 2.33286 -1.9541372 -0.0075931633
0.0004938974 -0.13614947 -0.16489588 -0.58619654 -0.18533814 -0.20289023 0.17816366 0.25195172
-1.9458041 0.12188391 0.097753346 0.036918875 1.1929808 -1.0087649 -0.024697943 -0.021783732
0.09630693 -0.1724765 -0.047838762 -0.022107547 -0.0028107583 -0.25237975 -0.07228451 -0.7363874
-0.012950578 -0.004581303 -1.0087923 0.09675374 0.0020912536 -0.0046573607 0.037068065 0.07713956
0.5393268 -0.43388957 -0.01931702 -0.010296935 0.027024314 -0.15463586 -0.24048027 0.22532484
0.58858114 -0.5541335 -0.33882436 -0.51650834 -0.30047724 0.3442917 0.26772952 0.5366432
-1.1578478 0.49625638 0.005594227 0.51593584 0.014753072 -0.7548824 -0.32913676 -0.0074926643
-0.9014965 0.09637364 -0.6749714 0.15277332 -0.0189907 -0.18395731 0.28047878 -0.9309236
-0.23171271 0.3004075 -0.89026487 1.1265639 -0.4807832 0.06464753 0.08122046 -0.5091007
0.69324684 -0.58908355 0.006393971 0.04607231 0.09215387 0.088949405 -0.057354547 0.14816009
-0.017728891 0.33458275 -0.38723996 -1.0019381 -0.02537921 0.07042001 -0.06845126 0.60494035
-0.3750228 0.25073922 0.23311254 -1.5777316 -0.13050123 -0.95852304 0.015263818 0.008121885
0.07946422 -0.379256 -0.7045358 0.16861507 0.2350282 0.24864855 0.3676146 -1.3705918
0.0016062167 -0.060756367 -0.56934917 -0.3303978 -0.7374852 0.32837543 0.05261496 -0.021622567
1.8682265 -1.2737496 -0.25146425 -0.4990842 0.5324629 0.75435686 -0.78325534 0.47970143
-0.26821333 -0.51685035 1.1329315 -0.73359674 0.20944817 0.17558557 -0.2360531 0.6610642
-0.4518081 -0.01832627 0.3073473 -0.23194857 0.98323035 -0.83054924 -0.28473696 -0.06007411
-0.41229805 1.7724926 -1.5812964 0.0009772303 0.0970079 -0.57047135 0.34577253 -1.0080063
-0.3672383 0.10745309 -0.38177124 1.5554668 -1.0466642 -0.3036113 -0.3263687 0.600964
0.035439037 -0.44283742 0.113282934 -0.11645913 0.11705188 -1.084635 0.12673928 -0.016582955

w_agents.0.bias f4 [64]
00000000: 6473 bdbe 4cf6 b5be 2009 9dbe 8f6a 4ebf
00000010: c62c efbe f531 6cbd 63cc 00be 8345 8bbe
00000020: 019e cbbe eaf6 4cbe 6fe2 1dbe 1cb8 1dbf
00000030: bc46 84bf e378 ddbe 374d 94be 28c2 61bf
00000040: e49e adbf 7be8 a5be 06d5 dbbf c9cb 96bd
00000050: fce7 b0bf 78cc 6abf 3576 03bf 1280 46be
00000060: d35f 10be 7728 dcbe c54a b0be b260 b2be
00000070: e609 96bf 9154 eebe f57f 7fbf 075a 68bf
00000080: cb17 86be 6345 46bf 84a1 b3be 1556 97bf
00000090: 07a2 06bf 51d7 a0bf 3dc6 64be 6edb 88bf
000000a0: 4e0e 33bf 16fb 71bf 34a6 9dbf eec8 8ebf
000000b0: 7b48 43bf 0fa6 b6bf f8f5 8abf 95e7 bdbe
000000c0: 47b2 d7be dee0 1cbf 79e6 29bf b5f3 893c
000000d0: a08f 2abe 6379 7d3d c42c 90bd 947a 92bf
000000e0: 7794 6cbf ea9e 07bf 4a47 45bf c5a1 e0be
000000f0: 079a cdbe f614 bbbf 534f d5be 88ca adbe
-0.370021 -0.35539472 -0.30671024 -0.80631346 -0.46713847 -0.05766483 -0.12577967 -0.2720147
-0.39768985 -0.20016065 -0.15418409 -0.61609054 -1.0334086 -0.43256292 -0.2896516 -0.88186884
-1.3564115 -0.3240393 -1.7174385 -0.07363088 -1.3820796 -0.91718245 -0.51352245 -0.19384792
-0.14099054 -0.42999622 -0.34432045 -0.34839398 -1.1721771 -0.46548894 -0.9980462 -0.9076237
-0.26190028 -0.77449626 -0.35084164 -1.1823145 -0.52590984 -1.2565709 -0.22341247 -1.0691965
-0.699437 -0.9452375 -1.2316346 -1.1155069 -0.7628247 -1.4269427 -1.0856314 -0.37090746
-0.42128202 -0.6128062 -0.663673 0.016839841 -0.16656351 0.06188334 -0.07039788 -1.1443658
-0.9241404 -0.5297686 -0.77061903 -0.4387342 -0.40156576 -1.4615772 -0.41662082 -0.33943582

w_agents.2.weight f4 [32, 64]
00000000: 0a95 ce3b 538c 16bd 7907 45bd d3c4 61bd
00000010: abb2 b7bd 652b 993b c32c 03be 5cc9 813d
00000020: 3f0e 583d 12e6 8bbd 6904 ebbc 7ca7 2b3d
00000030: 042a 8ebd 39e4 6c3d 64ce 693b de4c f73b
00000040: e174 a2bd 0e82 b3bc c1e4 d2bd ed76 21be
00000050: 9bc0 40be c50b 083c bea3 4ebe 7511 bfbd
00000060: 3de2 1bbe f3d5 50bb 5ab4 9fbb f8de a6bd
00000070: 6e53 b9bd 81e5 3f3d f166 a63c 9cd3 e6bc
00000080: 38a0 90b8 e90a dfbd c1fc 2cbd ce54 13be
00000090: b55a e1bd cac6 88bd ba44 38be 77ad 26bd
000000a0: 5865 66bd 9232 8abd 5c38 2d3d 2826 223d
000000b0: ac8e 493d bda1 c53c 9b23 bbbd 7bca 07bd
000000c0: f03c c9bd b521 1fbb 8e12 8bbd 9aed 0ebe
000000d0: 51bf c7bc 5d2c 05be 4916 f1bc 7068 c6bd
000000e0: 5098 66bc 150b 50bd 009e a4bd caed 7e3d
000000f0: dd78 eb3b bb06 ba3b 8a5e abbd cc74 97bd
00000100: b7c7 5dc0 8293 d0be b755 34bf 3bc6 babf
00000110: 7913 f2be 3aeb 49bf 810e 9abe 30e4 97be
00000120: 0db9 c43d 7279 82be ed67 1fbe ac1e e83c
00000130: 95ee 41bf 287d d6bd a1c8 393e 24f6 cebd
00000140: a273 583e 91e2 c9be c9e6 ce3f 70c9 f1bd
00000150: 5cfc 063d 3ce6 183f 79a8 35be 2160 833d
00000160: 5dc7 98bd 1b8d f5bc 15f1 19be 1ddd 823a
00000170: 39bc 6fbf af4c 12bf d1d9 b6bd 3396 86be
00000180: af90 01c0 7851 e3bd b9ff 89be 5e1a 48bf
00000190: cf55 7b39 bb87 c13e 7cbf 98be 8360 863f
000001a0: c841 22bd 6b38 913f ffff 49bf 23fe 8abd
000001b0: cf0c 9b3e 1348 c23d 928d 64be d776 b1bc
000001c0: 18a8 b2be 47d5 94bf 3596 bcbe 3827 a73d
000001d0: dd40 9cbe 3406 863e 2ed4 05be 4281 a5be
000001e0: a029 13be ccfa c63e 74bd f1be de93 873d
000001f0: 67ac 2a3e de58 fe3e 5cdf 3b3e 7e68 4dbe
00000200: 6b54 0bbe 81c2 c7bd b93c 3bbd a840 893d
00000210: 3342 96bd a7a6 01bd c7df d3bd 9534 13be
00000220: db67 eabd c40f 713d 9aad a0bc 194d 56bd
00000230: e445 a1bd 1452 ccbd b53a b7bc 8aa1 50bc
00000240: 320c acbd 4b2c 02be 82f4 6b3d f3f5 633d
00000250: 101a 0f3d 36c2 11be 4ad9 b53c 32d5 a7bd
00000260: 5414 d93d d47a 1fbd 4cb5 15be 4863 533c
00000270: 8fb7 49bd 06b9 3cbe cece 9fbd 7ea5 e63d
00000280: 5e33 c2bd 9668 e6bd 82e7 883c cedd 6e3d
00000290: cf2b 4fbe d7bb 86bc f14e a9bd 7636 683b
000002a0: 418d adbd e758 b13c c569 9e3c 1573 1bbd
000002b0: 3be1 f73d e3b0 acbb 3234 43bd 4a54 c8bc
000002c0: e908 92bc ff43 05bc cac7 583c a524 323c
000002d0: 94ae 00be 9046 dbbd 2c92 eabd 6ecb c13b
000002e0: 5783 82bc 8dc8 4fbb 9d20 8d3b e8a6 073d
000002f0: 3817 a0bc bc7b 403d 205b 06bd 7bea 623d
00000300: 2453 7cbe e5fd 83be 352b 1abe 4f4a 1c3d
00000310: 9fa7 03bd 3df7 733d 7629 51be 7f19 e13b
00000320: af5b 81be 456d 7abe 4c1e 74be e5af 2cbd
00000330: ec9e 28be 5122 48be 6324 77be 5aff f53c
00000340: ff17 15bd 4ae6 88be 8ca5 c53d 0321 333d
00000350: 9ef2 9c3d a1e4 3fbe f565 8bbd 39ea 29be
00000360: cf8f c4bd 9973 aabd 6bf8 1abe c373 06be
00000370: 0418 883d 61a6 27be 9925 9d3d 3c30 05be
00000380: 657b 053e 28cf 65be 512e f0bd ba5d 21be
00000390: 9700 3c3a d34f d2bc eaef 32be 36f9 b3bd
000003a0: 85b5 04be 263f f33d 6bce bfbd 7f28 9fba
000003b0: 8905 273e 6c18 b73d 5936 2dbd fe80 18bc
000003c0: 493a 66be feff 72be 0be4 99be 1be4 04bd
000003d0: 8f4a 8abe 984d dabd 95e6 83bd b3f0 dcbd
000003e0: e5ea c8bc 27c2 06bd 786b 05bd 4da6 0ebe
000003f0: d03b a0bd 80bd 2a3e 9b30 2ebe 2ee4 32bd
0.006304388 -0.036754917 -0.04810283 -0.055119347 -0.08969625 0.0046743625 -0.12810044 0.063372344
0.05274796 -0.06830992 -0.028688626 0.041907772 -0.069416076 0.057834838 0.0035675997 0.007547005
-0.07932449 -0.0219126 -0.102975376 -0.15768023 -0.18823473 0.008303587 -0.2017965 -0.093295015
-0.15223022 -0.0031865805 -0.0048737945 -0.08147997 -0.09049116 0.04684973 0.020312758 -0.028177075
-6.896298e-05 -0.10890753 -0.042233232 -0.14387819 -0.11003629 -0.06678541 -0.17994967 -0.040692773
-0.056248993 -0.06747927 0.042290077 0.03958717 0.049208328 0.024124974 -0.091376506 -0.033152085
-0.09826076 -0.0024281566 -0.067906484 -0.13957825 -0.024383219 -0.13005204 -0.029429572 -0.096878886
-0.0140744 -0.05079182 -0.080379486 0.062238492 0.007186039 0.005677072 -0.08367641 -0.07395324
-3.4653146 -0.4073754 -0.7044329 -1.4591745 -0.4728048 -0.7887455 -0.3008919 -0.2966628
0.09605608 -0.2548328 -0.15566988 0.028334938 -0.7575467 -0.104730904 0.1814294 -0.10105541
0.2113786 -0.3943067 1.616418 -0.11805999 0.032955512 0.5972631 -0.17740048 0.064148195
-0.074599005 -0.02997451 -0.15033372 0.000998411 -0.9364658 -0.5714826 -0.08928264 -0.26286468
-2.0244558 -0.11099523 -0.26952913 -0.78165233 0.00023969192 0.37798867 -0.2983359 1.0498203
-0.039613515 1.1345342 -0.78906244 -0.06786754 0.3028321 0.09486403 -0.2231963 -0.021663113
-0.3489387 -1.1627587 -0.3683335 0.08161777 -0.30518237 0.26176608 -0.13069221 -0.32325178
-0.14371347 0.38863218 -0.47214854 0.0662 0.16667329 0.49677175 0.18346924 -0.20059392
-0.13606422 -0.097538956 -0.045712207 0.06701785 -0.07336845 -0.031653073 -0.103454165 -0.14375527
-0.1144559 0.058852926 -0.01961403 -0.05231962 -0.07874659 -0.09976593 -0.02236686 -0.012733826
-0.084007636 -0.12712209 0.057606228 0.055654477 0.034936965 -0.14234242 0.022198338 -0.08194961
0.105995804 -0.038935497 -0.1461994 0.012902088 -0.04924732 -0.18429956 -0.07803117 0.11262034
-0.09482454 -0.11250417 0.016711954 0.058317 -0.20231555 -0.01644699 -0.0826701 0.0035432852
-0.08474208 0.021648837 0.019337544 -0.037951548 0.12103506 -0.00527011 -0.0476572 -0.024454255
-0.017826514 -0.008133887 0.013231227 0.010872995 -0.12566596 -0.10706818 -0.11453661 0.0059141433
-0.015931768 -0.003170523 0.0043068663 0.03311816 -0.019542322 0.046993002 -0.032801747 0.0553994
-0.2464109 -0.25779644 -0.15055545 0.038156804 -0.032142278 0.059561957 -0.20425972 0.0068694944
-0.25265262 -0.24455746 -0.23839682 -0.042159934 -0.16466874 -0.1954434 -0.24134974 0.030028988
-0.036399838 -0.26738197 0.09650716 0.043732654 0.07663463 -0.18739559 -0.06806556 -0.16593255
-0.09597742 -0.0832283 -0.15133826 -0.13130097 0.066452056 -0.16372062 0.07673187 -0.13006681
0.13035353 -0.22442305 -0.11727584 -0.1575841 0.0007171719 -0.025672829 -0.17474332 -0.087877676
-0.12959869 0.11877279 -0.09365543 -0.0012142806 0.16310705 0.08940205 -0.042288158 -0.009308098
-0.22483172 -0.23730466 -0.30056795 -0.0324441 -0.2701001 -0.10659331 -0.064404644 -0.10788097
-0.024526069 -0.0329 -0.032573193 -0.13930626 -0.07823908 0.16673851 -0.17010729 -0.04367464

w_agents.2.bias f4 [32]
00000000: 19b8 48be 4c43 adbe 01cf aebd 32d4 a4be
00000010: 5823 2fbe d265 ebbe 7e9a 4cbe d305 c4be
00000020: a3c1 a23e 76fa 6bbe 539e 9bbc c342 e4be
00000030: e584 91be 6b1f 24be 864c ebbd 2ac7 a3bb
00000040: 61b7 39be 0c48 8abd d83a e1bd f7dc b1be
00000050: 1ddf 443e 2741 883d dc77 2ebf 96f6 1cbe
00000060: e239 f4be d4ab 953c f31d a2bd 1078 a53d
00000070: 616f 073d 305c 703d 2a89 0e3e 4d19 c03e
-0.19601478 -0.33840406 -0.085355766 -0.32193142 -0.17103326 -0.4597612 -0.19980809 -0.38285694
0.31788358 -0.23044762 -0.018996393 -0.44582185 -0.28421703 -0.1602761 -0.11489205 -0.0049981074
-0.1813636 -0.06752023 -0.10997552 -0.34738895 0.19225736 0.06653052 -0.6815164 -0.1532844
-0.4770041 0.01827041 -0.079158686 0.08079541 0.033065204 0.058681667 0.13919511 0.37519303

Ws.0 f4 [32, 32]
00000000: d4ef ebbe 2061 dfbe e097 153f 065a 793f
00000010: 4896 76bf 5342 b4bc 4899 6cbf c914 a6be
00000020: df3b b4bf ee29 a93f 60e8 9c3f 7e14 553d
00000030: 977d cb3f 829a 373f daf3 2e3f 25c3 f63d
00000040: 5a00 c33e d6ba 803d 170e 8dbe 7226 823f
00000050: 79c0 03bf f830 0ebf 1ead 163e 0cfe 4d3f
00000060: 403b 2dbf 163e c7bf a8ef 9abf 59c3 7d3f
00000070: e5fb 843f 572a 0340 207b 503f dbba e7be
00000080: 9b9e 6a3d 6ed0 0d3f d4c0 21bf 8eb2 99bf
00000090: 6fb5 27c0 a6ca 90bf 6b86 48c0 fe7d 993e
000000a0: 04ed 4ebf 9659 88be 2278 c0be a258 0bc0
000000b0: 7bae 88bf c129 70bf 74fd abbd 1d9f e5bf
000000c0: 9e32 ab3e 34e8 41bf e8d6 a5bf 22e3 0ac0
000000d0: 5cad 063f 5475 653d f4f2 513f 43ee 373f
000000e0: 4309 2dbf 5a69 adbf b65f e9be 2845 863f
000000f0: abde 123f cdcb 2e3f 42b7 a53e 7b5f 973d
00000100: ecef b8bf 4c63 843f 0c5c 28bc eb0f a1be
00000110: e552 2540 ffbd e6be d4d4 3bbf ed65 c13f
00000120: b6ba 113d 6f0b b23f 15c7 17c0 58b1 8abf
00000130: e104 ac3f b056 e33e 1642 143f 8e52 193c
00000140: bf32 113f a0b3 97bf 7026 4ebe e2c7 943f
00000150: 8876 d0bd 1626 edbc 5776 9cbf e664 c43c
00000160: 8bcc e0bf a6a1 76bf 57e0 f43e 226b 013f
00000170: 7859 4b3e 2bc8 533d 28da e0c0 7450 c53d
00000180: 5264 9dbf eedf 033e 6325 503d 4187 d33f
00000190: a9a3 f2bf cdb8 863f 8186 99be df87 563e
000001a0: 1921 d63d a3b0 84bf 038b 933e 0713 9a3e
000001b0: a6ea 03bf 8578 86be 0288 203f eb66 f0be
000001c0: 0b32 05bf 82c7 df3f be3e 01bf bf0f 9c3f
000001d0: 8b4a f8bf 6e50 b1bf c389 553f 6f8f b93c
000001e0: 10f7 683e 7a78 ab3f 7a79 d03f 4157 9a3e
000001f0: eb09 533e 60f3 efbf b08f 7b3f 7fd0 1e3f
00000200: a8e3 703e 0726 04c0 6218 9dbf 89b7 d8bf
00000210: 15d9 0e3d 13ea fc3f 7d0a 91bf 0495 26bf
00000220: 0805 0cc0 fc6b 923f 3153 a13f 11b9 9c3f
00000230: 4b28 bcbf 71fa 0fbf abae 31bf 06a1 19be
00000240: 0deb ec3f 0ef0 b13f d9d2 1d3f dea7 073f
00000250: 2cb4 f43e 8592 b2be cfb5 12bf ec9f ccbf
00000260: 9699 1c40 a91c 05bf 41de 1ebf b637 4bbf
00000270: 33fb 2dbf 4545 0e40 d53c 333f 0d7d 6abe
00000280: 0b26 91bf a56e 723c 27a6 383f 0f75 46c0
00000290: 20bd bcbf cd84 073f e27a 7bbe 9a75 31bf
000002a0: 0b7b 923e 1264 323f 497b 9cbe c996 70bd
000002b0: d0cd 103f c39b 2f3f 8540 213f da63 703f
000002c0: f032 083d c004 8d3e 9f27 703f c85c c13f
000002d0: c432 a13f 8822 7bbf ffe2 5cbf ca63 a6bf
000002e0: 0126 1f3f 9ab4 e5be 84df a73e 110f e23e
000002f0: f251 3ebf 2db7 bbbe 20a1 e4be 5a9a 11bf
00000300: b169 83c0 0e43 6c3f 136a 9ebf 23b5 4abe
00000310: b9ca 19c0 a5c8 42c0 7474 ab3e 8b46 c7be
00000320: 745a 95bf 0149 c1be 981a bebd 4c3e 843d
00000330: 32cd 01c0 c1c4 8ebf cc8a 613f 84ed 7d3f
00000340: 0ee5 1440 790a d83e f8df 06bf 624b 953e
00000350: 2b3a 713d 8095 8e3f e741 4f3f bad9 19bf
00000360: 7f2a af3f 8166 ecbf a4f4 98bf 5b3d 9cbf
00000370: a91d a93f 984c 5abe f78e c1bf 8f4d b0bf
00000380: 6b6e 59be ec1f a73f 70f7 9abf 2d5d adbe
00000390: b2d0 d23e a7d0 11c0 ecf4 563f b3f2 443e
000003a0: 55c3 8c3f 43de 413f d55b 13bf d131 dcbe
000003b0: 1a08 d3be a35e 823f 84c1 0440 58d0 5b3e
000003c0: ab43 b33e 216e 1f3f 9059 59bf 0f4f c03f
000003d0: dd67 883b 96bb cdbe 9d46 c33f fa95 1ebf
000003e0: 5c36 2dc0 093d 67bf 272c 8c3f 2177 3cbf
000003f0: 0d94 c33e 841b 92bf cdd7 29be b230 8abf
-0.46081412 -0.43628788 0.5843487 0.9740299 -0.9632306 -0.022004282 -0.9242139 -0.32437733
-1.4080771 1.3215921 1.2258415 0.052021496 1.5897702 0.71720135 0.6834084 0.120489396
0.38086206 0.06285636 -0.27549812 1.0167983 -0.51465565 -0.5554347 0.14714476 0.8046577
-0.67668533 -1.5565822 -1.2104387 0.991262 1.0389372 2.0494592 0.81437874 -0.45259747
0.057280164 0.55396163 -0.6318486 -1.2007616 -2.6204488 -1.1311843 -3.1332042 0.29978937
-0.8083041 -0.2663085 -0.37591654 -2.1772847 -1.0678247 -0.9381371 -0.08397952 -1.7939183
0.33437055 -0.7574494 -1.2956209 -2.170113 0.52608275 0.056020096 0.8201134 0.71847934
-0.6759226 -1.3547776 -0.45580834 1.0489855 0.57371014 0.68279725 0.32366377 0.07391258
-1.4448218 1.0342803 -0.010275852 -0.31457457 2.5831845 -0.4506683 -0.73371625 1.510923
0.035578452 1.3909739 -2.371526 -1.0835371 1.3438989 0.44402075 0.5791334 0.0093580615
0.5671806 -1.1851692 -0.2013185 1.1623499 -0.10178858 -0.028948825 -1.2223614 0.023973893
-1.7562422 -0.96340406 0.47827408 0.50554097 0.19858348 0.051704567 -7.0266304 0.09634486
-1.229624 0.12878391 0.050816905 1.6525651 -1.8956195 1.0525147 -0.2998543 0.20950268
0.104555316 -1.0366405 0.28816995 0.30092642 -0.5152992 -0.26263824 0.6270753 -0.4695352
-0.52029485 1.748276 -0.5048636 1.2192305 -1.9397749 -1.385267 0.8341333 0.022651402
0.22750497 1.3396142 1.6287072 0.30144694 0.20609252 -1.8746147 0.98266125 0.6203689
0.23524344 -2.064821 -1.2273066 -1.693101 0.034874994 1.9758934 -1.1331326 -0.6507113
-2.187807 1.1439204 1.2603513 1.2243978 -1.4699796 -0.5624152 -0.6940715 -0.15002832
1.8509232 1.3901384 0.61649853 0.5299052 0.4779371 -0.3487741 -0.5730867 -1.5986304
2.4468741 -0.51996857 -0.6205788 -0.79381883 -0.67961425 2.2229779 0.700147 -0.22899266
-1.1339735 0.0147968875 0.7212853 -3.1008947 -1.4745216 0.5293701 -0.24558595 -0.6932007
0.286095 0.69683945 -0.3056281 -0.05873755 0.56564045 0.6859705 0.62989074 0.9390236
0.033251703 0.27542686 0.93810457 1.510644 1.2593617 -0.98099566 -0.8628387 -1.2999203
0.62167364 -0.4486435 0.32787716 0.4415212 -0.7434379 -0.3666319 -0.4465418 -0.56876147
-4.106652 0.9228982 -1.2376121 -0.1979566 -2.4029982 -3.0434964 0.33487284 -0.38921008
-1.1668229 -0.3775101 -0.09282416 0.06457195 -2.0281491 -1.1153795 0.8810241 0.99190545
2.3264804 0.4219549 -0.526855 0.29159075 0.058893364 1.1139374 0.80959934 -0.6009785
1.3684844 -1.8468782 -1.1949658 -1.2206224 1.3212177 -0.2131828 -1.5121754 -1.3773669
-0.21233527 1.3056617 -1.2106762 -0.3386015 0.41174847 -2.2783601 0.8396747 0.19233207
1.0997111 0.7572977 -0.57562 -0.43006757 -0.41217119 1.0185131 2.0743113 0.21466196
0.35012564 0.6227742 -0.84902287 1.5024127 0.004162772 -0.4018218 1.5255924 -0.61947596
-2.7064428 -0.9032751 1.0950974 -0.73619276 0.3819889 -1.1414647 -0.16586228 -1.0796111

Ws.1 f4 [32, 32]
00000000: e38f b5be 9175 3ec0 fec7 493f 6165 0cc0
00000010: e680 d1be 2495 98bf b5af cbbf 0b8a 0b3f
00000020: f9ee 6dbf be7f 27bf 1a06 b2be 3ecb 853f
00000030: f926 ccbf e70e 25bf 83cc c43e 69e4 823f
00000040: 018a 75bf 61a6 21bf 2e67 f7be ea4a 91bf
00000050: 3817 cebf f950 1e3f 4512 d13e 87aa 4b3f
00000060: 7cb6 2bc0 30e1 a83f 9bd0 ae3f 2333 3abf
00000070: 7b2d c73e 60f3 023f a020 62bf 44df b1be
00000080: 7214 5e3f b5b2 913f f4e3 b0be 5462 bfbe
00000090: 022f 0d3f 56cf bbbf e1a7 8dbe 18c0 40be
000000a0: 55f9 6f3f a27f 933f adc0 87be a26e c6bf
000000b0: 946c a43f e666 23bf b72a 97bf b3e1 34bf
000000c0: 8beb 99be f7cf 8cbe b068 75bf e762 fabe
000000d0: 8773 d63e 2b77 523e bd8f 1dbf c05d b8bd
000000e0: d8a7 d53d 3b98 0dbf 75af 29c0 86c7 1fbe
000000f0: f6c8 9abd 34c0 1dbe fb8d aabf 868a b23f
00000100: b93b b8bf c68d 2abf 7c6d dabf 631f 943d
00000110: 92cc cb3d 9d7e b73e 7802 7d3f f1bc 3c3f
00000120: cdcb 95be d602 583e 3be8 34bd d6a7 c2bf
00000130: 802f 813e 5f97 77bd ce85 8dbf 2b22 c7be
00000140: 53c4 0240 5e39 2fbf 2f8c fcbf c45d 85bf
00000150: f737 02c0 4a01 7ebd 9066 20bf d2ee 38be
00000160: ded7 083f 66cf 5140 f902 2ec0 c3b4 dfbf
00000170: 7c07 6abf 942f 1bbf 22bf 1a3f 8ee4 a1bf
00000180: 17b0 963f 51c2 b3bf 0d68 d7bf 2ab5 3a3f
00000190: 4187 ce3e e34e 8dbe 23bd 853f 8a6c 8d3f
000001a0: a14a 543f 851a 283e e0a7 0d40 b953 0dbf
000001b0: 08b4 83be 15f4 743f 2ad4 a13f a9d3 e7be
000001c0: 2c1d f7be 5bce 2fbf 43ed 04bc 9adb 73bf
000001d0: ec56 ca3e 07fa c5be acd9 673f 2537 1ec0
000001e0: a73a d0be b05b ad3e a7ab 93bf ba2e b13f
000001f0: 942e 3fbf fefc f03d bb49 e13f 2274 b03e
00000200: bab0 1c40 bad5 06bf 8873 e8be f685 82bf
00000210: 3d92 a5bf 6b3b a83f 84d5 fbbe 0f6f 3abf
00000220: 3d15 273f e14b 013e 2a81 1b3f ad9f 8cbf
00000230: 57df d03f 5934 84bf f03b 0140 9fb6 27bf
00000240: 6a7e 0b3f 5706 0e3f e406 0fbf 129a a93f
00000250: 6b42 2f3f 14e5 afbf 5ebe 95bf 23f9 40c0
00000260: 4d4e 833f 6208 51bf 6fba 1bc0 3c90 883f
00000270: f784 dd3e 371e afbf 3269 09c0 b9cd 5c3d
00000280: 8901 d03f 2923 1a3f d004 38bf 565c a2bf
00000290: e551 d3bc 6ce9 debe 20cf b83e 9957 33bf
000002a0: 8d2c 803f 7431 863e a4dd 2cc0 26ba 213e
000002b0: 6840 b33d 5ed1 ea3f 62b3 dc3e 3c32 7bbe
000002c0: a84a b8bf 3e00 9dbf c212 10bf 058e 6b3f
000002d0: acc4 1abc 3aa0 c03e e4ac c13f 049c 58bf
000002e0: 16fb 9d3e ec5e bcbe b1a8 243f 1c1a 90bf
000002f0: 7b29 273f cfa1 c3bf 55f6 f9bf 448d a6bf
00000300: 68a9 dc3d 203f a13f 55c7 bbbf 1bc9 34bf
00000310: faff c1bf 5092 b33e 24c7 a8b9 a904 6cbf
00000320: 3bde 3fbe 54fe 69bd 1e1a 663f c703 cc3e
00000330: 8feb 4cbf a57b b3bf 8dc8 8cbe 4810 473e
00000340: e922 473e 8552 b33f 8db6 a4bf 0fcb b6bf
00000350: 8f5f 8d3e eb2b a73f c74c 7a3f 5fe0 69bf
00000360: 125a 163f 38ce a2bd 988f 95bf 7510 0cc0
00000370: 22fd de3f f28d 2b3f 66f0 953e 6109 c6bf
00000380: 10a0 d6bf 6562 1cbf 85dd f73f ac11 8b3f
00000390: f7d6 7b3f b806 d53e be22 993f 8f73 b8bf
000003a0: c5fb 4d3e 9874 33bf 283b e83e 6979 253f
000003b0: 64ac d7be 4425 9a3f 3835 0abf 9567 05bf
000003c0: cb39 debc 9c92 cd3e ad97 c03e c79d 123f
000003d0: 5aec c03f d9d7 16c0 4411 783f 5524 02be
000003e0: d245 09bf bf2e 923e 0b23 b6be 712b a1bf
000003f0: 6d88 783f d18c f2bf 1b92 91be 98c0 c3bf
-0.3546134 -2.9759257 0.7882079 -2.1936877 -0.40918654 -1.1920514 -1.5912997 0.5450751
-0.9294277 -0.65429294 -0.3477028 1.045265 -1.5949394 -0.64475864 0.3843728 1.0225955
-0.959137 -0.631445 -0.48320907 -1.1350987 -1.6100836 0.61842304 0.4083425 0.7955708
-2.683013 1.3193722 1.3657411 -0.7273428 0.38901886 0.5115261 -0.8833103 -0.3474065
0.8674995 1.1382662 -0.34548914 -0.37379706 0.55149853 -1.4672649 -0.27667144 -0.18823278
0.93739825 1.1523325 -0.26514187 -1.5502512 1.2845635 -0.63828886 -1.180991 -0.7065689
-0.30062518 -0.27502415 -0.95862865 -0.48903582 0.41885015 0.20553271 -0.6154745 -0.090022564
0.10432404 -0.5531041 -2.651334 -0.15603456 -0.075578615 -0.15405351 -1.3324579 1.3948524
-1.4393226 -0.6662258 -1.7064662 0.07232549 0.09951128 0.35838786 0.9883189 0.737258
-0.2925705 0.21094832 -0.044166785 -1.520747 0.25231552 -0.060447093 -1.1056459 -0.38893256
2.0432327 -0.6844691 -1.9730281 -1.041924 -2.0346658 -0.062012948 -0.626565 -0.18059853
0.5345439 3.2782836 -2.7189314 -1.7477039 -0.9141767 -0.60619473 0.60447896 -1.2647874
1.1772488 -1.4043676 -1.6828629 0.72932684 0.40337566 -0.27599248 1.0448345 1.1048748
0.82926375 0.16416366 2.2133713 -0.55205876 -0.2572329 0.9568494 1.2642872 -0.4527867
-0.48264444 -0.6867425 -0.008113208 -0.9525696 0.3951944 -0.38667318 0.90566516 -2.4721158
-0.40669748 0.33859015 -1.1536759 1.3842385 -0.7468045 0.117670044 1.7600626 0.34463602
2.4482865 -0.5266987 -0.45400643 -1.0197132 -1.2935253 1.3143133 -0.49186337 -0.7282571
0.6526678 0.12626602 0.60743964 -1.0986229 1.6318158 -1.0328475 2.0192833 -0.6551303
0.5448977 0.55478424 -0.5586989 1.3250144 0.6846072 -1.3741784 -1.169872 -3.015206
1.025827 -0.81653416 -2.433254 1.0669017 0.43265507 -1.3681096 -2.1470456 0.05390713
1.6250468 0.602099 -0.71882343 -1.2684429 -0.025795886 -0.43537462 0.36095524 -0.7005554
1.0013596 0.26209605 -2.7010279 0.15793666 0.08752519 1.8345144 0.43105608 -0.24530882
-1.4397783 -1.2265699 -0.5627862 0.9201358 -0.009446304 0.37622243 1.5130887 -0.8461306
0.30855626 -0.3679117 0.643199 -1.1257968 0.6529767 -1.5283755 -1.95283 -1.3011861
0.10774499 1.2597389 -1.4670206 -0.7061936 -1.5156243 0.35072565 -0.00032191828 -0.9219461
-0.18737118 -0.05712731 0.898836 0.39846632 -0.80046934 -1.4022108 -0.27496758 0.19439805
0.19446911 1.4009558 -1.286821 -1.4280719 0.27611968 1.3060278 0.977734 -0.9135799
0.58731186 -0.07949489 -1.1684446 -2.1885045 1.7421 0.67013466 0.29284972 -1.5471612
-1.6767597 -0.6108764 1.9364477 1.0864768 0.98374885 0.41606688 1.1963727 -1.4410266
0.20115574 -0.7009978 0.45357633 0.6463838 -0.4212371 1.2042623 -0.53987455 -0.5211118
-0.027127167 0.40150917 0.3761572 0.57272 1.5072129 -2.3569243 0.96901345 -0.12709172
-0.5362216 0.2855129 -0.3557361 -1.2591382 0.9708317 -1.8949224 -0.28431782 -1.529315
