data/rl_model_1.pth (torch_old, 93650 bytes, 18 tensors)

w_a f4 [32, 32]
00000000: d51c c8bf bfe2 95be 7098 b63f 5861 dbbf
00000010: 3b52 5f3f 4f76 dc3e c99c 23c0 a710 ea3f
00000020: 6234 563f 77c6 c83f c729 bdbf e32a 1c40
00000030: f5d6 683e cc23 0d40 5f0c e33f fcbd 00c0
00000040: 300f 69bf 693c d5be c8be 0fc0 38b3 66bf
00000050: f76f c23f e48f e6bf e7f4 0cc0 5d44 c3bf
00000060: 7fb0 863f 9a59 26bf b500 8f3f fd76 383f
00000070: ee15 aa3f a201 593f e5f8 19c0 5a9b 043f
00000080: 2da5 10c0 67f0 e83f da02 ddbe 78ee 0a3f
00000090: 6ab6 a1bf 61d9 74bd ee8f d3bf 9ad5 283f
000000a0: b502 133f 6926 163f 407e fd3e 7947 d2be
000000b0: a4af 55bf e148 353f b645 b2bf 89d9 113f
000000c0: 8dc7 81bf 955c 8d3f da8d aa3f 8887 193f
000000d0: 6b2c b2bd 874a 32bf e937 a5bf 28f2 483f
000000e0: de9c db3d 6934 f2bf 9cc3 a23f 1ee6 df3f
000000f0: 9583 a93c 996b 2dbe b370 6e3f 1b24 e83e
00000100: 11d6 78bf 17ab b3be 351b ed3f 3b5a 46c0
00000110: f239 4fbe 1197 02c0 abcd 013e a997 3ebf
00000120: 9bbe fa3f b4ce 633f 4748 bbbf e5ec c0be
00000130: 0132 a6bf 26da 3bc0 6e92 3f3e 49c4 00bf
00000140: 0927 a7bf df5e c1bf edc1 ca3d a040 eb3c
00000150: 20c9 0640 a729 97bd a01c 9d3f 387f 71bf
00000160: df58 83bf 59aa 4f3f 878d 9dbf 1313 de3e
00000170: e0b0 b4bf c09c 44bf d008 97bf 4abb d13f
00000180: 524a 35c0 dcc5 4b3f 96bd 72bf 1377 f7bf
00000190: e4da 6f3f 2ebf 953f d7e7 44bf 5a69 2b3e
000001a0: 361f 663f cf5a 043f e0ff 953e df06 863f
000001b0: 8bd6 c43d e9e2 5abf 07a0 edbe e36e c0bf
000001c0: 43fd febf a813 36be a3c8 9cbf f6f2 2b3f
000001d0: d308 cf3f abc5 75bf b3ee 3ec0 7986 b0bf
000001e0: 7b2e 063f 3316 7e3f e841 fbbe 6d9d d3be
000001f0: 1601 ad3f 9299 1b40 35b5 a13f ecf5 ff3e
00000200: c526 8c3e da95 40bf 0863 c8bf c3be 6f3e
00000210: 1bc6 81bf a78f efbe 44c7 83be d48d c2bf
00000220: 58c9 0fbf f770 e73e d67a c23f 0ef4 3dbe
00000230: 6f7a 2dbf 6082 19be 7708 95bf d236 57be
00000240: 6c34 0c3f 4e66 b23d 9d5a a4bf a0d3 463f
00000250: 720d 25bf 499e cf3d f89a 713f 52d2 c6bf
00000260: 4913 8ebf 416b d53f 6afc 73bf 75f6 e33f
00000270: e085 533f a233 b23d 2da0 7240 7f8f b1bf
00000280: fbe8 92bf 2294 e63f e3d3 e53e e704 dabe
00000290: f6c4 5ebf 5c36 a6be a9d4 7f3f 1ae1 b13d
000002a0: bf73 dfbe b123 393f 0616 b1be e35e 2cbf
000002b0: 6a94 303f 3a3d 0fbf 6d84 713f 0f33 dabe
000002c0: 2d6b a4be eb96 173f b0cc 04bc 0a52 e8bb
000002d0: e117 62bf 5e38 de3f f7b2 16be 9a8c 233f
000002e0: 38b5 963f 91bf 3e3f 0ad1 4ebf d2e3 c53f
000002f0: 548c 10bf 3f52 2a3f 7e67 6c3e 5707 96be
00000300: 2706 66bf 1a8d 6e3f 3059 b0bf 52ec 0cc0
00000310: c944 e3be d3f7 97bf 6f57 293c d274 44be
00000320: 5515 4d3f cd46 d03f 3c0e a63c d5cb 37be
00000330: 93e7 11c0 1b70 d23f 3843 443f c251 1540
00000340: 1676 26bf 8529 973c 5e26 83bf 2b88 163f
00000350: 5e4e cd3f 9a85 b4be 5389 8abf 3626 32bf
00000360: f43b eebf 06fe a23f e306 3abe 555f 2cbf
00000370: 22c8 e23c 1d31 3dbf 37ae 993e f4ec 3f3e
00000380: 567a c5be cbd1 963f 1790 5abf 7092 92be
00000390: 64cc 8f3e 2501 883f f274 3ebf eae5 383f
000003a0: 0b7b be3f 310f 5f3f 320e ecbe 9cb3 873f
000003b0: 3c6d abbf aa49 d43c bc7f 5cbe b006 4abf
000003c0: 3764 be3e 108f 263f 7843 9fbf 58da c93d
000003d0: d2a9 7ebe f0f9 1ebf 6ced 913f 1068 5f3f
000003e0: 7193 073f d1c8 35be 8f10 1b3e e3a6 363f
000003f0: fb73 87bf fa88 9cbf 516a 2540 7f95 bc3e
-1.5633799 -0.29274556 1.426527 -1.7139082 0.8723485 0.43059012 -2.5564444 1.8286332
0.8367368 1.5685567 -1.4778374 2.4401176 0.2273825 2.2053099 1.773815 -2.0115957
-0.910388 -0.41647652 -2.2460194 -0.90117216 1.5190419 -1.8012662 -2.2024477 -1.5255238
1.0522612 -0.6498047 1.1172091 0.7205656 1.3287942 0.84768116 -2.4058163 0.5179955
-2.2600815 1.8198365 -0.43166238 0.54270124 -1.2633793 -0.05977762 -1.6528299 0.6595093
0.57426006 0.5865236 0.49510384 -0.41070154 -0.8347113 0.7081433 -1.3927524 0.5697256
-1.0139023 1.1043879 1.332454 0.5997243 -0.08699878 -0.6964497 -1.2907687 0.784945
0.107232794 -1.8922244 1.2715945 1.7492101 0.020692626 -0.16935576 0.93140715 0.45340046
-0.9720164 -0.3509147 1.8523928 -3.0992572 -0.20236948 -2.0404704 0.12676112 -0.74450165
1.9589418 0.8898728 -1.4631432 -0.37680736 -1.298401 -2.9351897 0.18708202 -0.5029951
-1.3058788 -1.5107077 0.0990027 0.028717339 2.1060257 -0.073809914 1.2274361 -0.94334745
-1.0261496 0.81119305 -1.2308816 0.43373927 -1.4116478 -0.7680168 -1.1799564 1.6385281
-2.8326612 0.79598784 -0.94820535 -1.9333214 0.93693376 1.1698968 -0.7691626 0.16739407
0.89891374 0.5170106 0.2929678 1.0470847 0.09611233 -0.8550249 -0.46411154 -1.503384
-1.9921039 -0.17780936 -1.224873 0.67167604 1.6174568 -0.9600474 -2.983319 -1.3791038
0.52414674 0.99252623 -0.4907372 -0.41331044 1.3515956 2.4312482 1.2633425 0.4999231
0.2737333 -0.75228655 -1.5655222 0.23412614 -1.0138582 -0.46789286 -0.25737965 -1.5199533
-0.561666 0.45203373 1.5193737 -0.1855013 -0.67764944 -0.1499114 -1.1643208 -0.21017006
0.5476749 0.08710919 -1.2840153 0.77666664 -0.6447364 0.101376124 0.9437709 -1.5532935
-1.1099635 1.6673356 -0.9530703 1.7809588 0.8262615 0.087012544 3.7910264 -1.3871917
-1.147735 1.8013957 0.4488822 -0.42581865 -0.8701929 -0.32463348 0.9993387 0.08685513
-0.43642995 0.72320086 -0.34587115 -0.67332286 0.6897646 -0.559528 0.9434269 -0.4261708
-0.3211302 0.5921466 -0.008105442 -0.007089858 -0.88317686 1.7360952 -0.14716707 0.63886416
1.1774054 0.7451106 -0.8078772 1.546015 -0.56464124 0.6653175 0.23086354 -0.29302475
-0.8985314 0.93184054 -1.3777218 -2.2019238 -0.44388416 -1.1872505 0.010335787 -0.19185188
0.80110675 1.6271607 0.02027046 -0.1794885 -2.2797592 1.6440462 0.7666507 2.333115
-0.65023935 0.018452415 -1.0246084 0.58801526 1.6039541 -0.3525818 -1.0823158 -0.69589555
-1.8612046 1.2733772 -0.1816669 -0.67332965 0.027683321 -0.73903066 0.30015728 0.18742734
-0.38569897 1.1782774 -0.85376114 -0.28627348 0.28085625 1.0625349 -0.74397194 0.7222582
1.48813 0.87132555 -0.4610458 1.0601687 -1.3392711 0.025914032 -0.21533102 -0.78916454
0.37185833 0.65062046 -1.2442465 0.09856099 -0.24869469 -0.62100124 1.140058 0.8726816
0.5295935 -0.17752387 0.15143035 0.713484 -1.058227 -1.2229302 2.584614 0.36832806

w_group.0.weight f4 [64, 8]
00000000: 3075 3ebd 6060 cb3c be18 6f3e 0a2d 88be
00000010: 6b67 aabe 0011 0f3d c82b aabd 80fb 053d
00000020: b53e 30be 9f13 dfbe cd91 2ebf 04cc 8ebd
00000030: 5c45 fe3d a5d4 5ebe 9204 61be 4be3 a1be
00000040: fcfe 12bf cef7 67be 4a8e 11bf e79b abbe
00000050: e382 e5be 34eb 91be 7884 e9be ae36 33bf
00000060: eb8b 80be 088f 523d f130 c33e 2c34 03bf
00000070: 2f72 bbbe 3e04 663e b40c efbe 15f7 c03d
00000080: a2e8 b3bd e54b 00bd fc9f 1f3f 5e79 bd3e
00000090: 8ca1 a53c 5a00 273e e7c9 6bbe 847b aebe
000000a0: fc3b f1be 1377 09be 3e2c db3d f9a5 41bf
000000b0: ffd6 5cbf 174c 8e3e 286a 423e 4d9b 96be
000000c0: 095e 0bbf 5c95 8c3e ff08 febd a54d 963f
000000d0: 0137 e1be 8e80 23be b5e7 08bf fe37 8cbe
000000e0: c007 3ebe 26fe 16bd 8e09 873f 612a 48bf
000000f0: 359a cabe 26a1 5abe fdf7 8b3d 35ac c6be
00000100: 06be 06be 2234 c9bc f14c 09bf 538f b33e
00000110: 95d7 a6be 288a 5ebe e3e9 a0be e731 b5be
00000120: 156d 43be d24d d6be 14b5 0cbf 7171 06bf
00000130: 97ad 0d3f d821 fd3d da7f adbe 207b 0dbf
00000140: ba2f bcbd bdc4 8e3d b508 41bf 5315 0c3f
00000150: 7103 4b3d c447 b3bd cad4 a33d 2546 f83d
00000160: 4967 1cbf 52eb 883e d1f9 1dbf 0914 843e
00000170: 240e e9be 4049 1a3d c442 d1be a21c 9ebe
00000180: db93 fd3e 582d d1be f619 a33e 8615 2b3f
00000190: 8eff e2be 76c9 43be 7bd8 41be 7d5a 01bf
000001a0: 4349 f63e 5e53 113f ad54 2c3f 513e f23f
000001b0: 57c3 08bf 3066 fcbc 76ae 16bf ace4 29bf
000001c0: cbe3 51be 2856 9cbe 3a98 003f 76e6 a23f
000001d0: d260 b6be aa89 22be 63c2 07bf ac40 37bf
000001e0: 9b42 023f 8280 95be 73ce 78be e5f7 99bf
000001f0: 07ac b3bd dee2 3b3e 393b 1cbf 83a3 4bbf
00000200: 1ca9 29be 4c46 32be 6444 bfbf 58ff a33e
00000210: b83f 253e 7986 a3be 454d 22be 786f 6bbe
00000220: 12ad e2ba 9263 943e 958c 0ebf e5ea 2ebc
00000230: ab17 69bf c029 c8bd 3b26 c0be d89b 92be
00000240: b1c9 60bd a91e 8ebb 5a7c 04bf 8604 3f3e
00000250: badf 99bf 806d 54bb 42c6 0abd 401b 17be
00000260: b59f 70bd 5019 09bc 9074 9a3d c795 c63e
00000270: dff4 a33e aa22 623e 5cc9 7abe 83a5 4ebe
00000280: 0234 a1be 3446 0ebf 91fd 213d 5af1 723f
00000290: ecd1 0cbe f645 2d3e 8b8b 84be f105 06bf
000002a0: eab4 eabe a6b0 b5be 9eaf 37be a6b6 5fbd
000002b0: 76f2 2bbf fcfe d9bd 7c51 32bf 1864 4cbf
000002c0: d39e 933e b7ef b6bd bf5d a73f 1e97 85bf
000002d0: 89f8 afbf 9365 a4be 6b43 bdbd 683a bebe
000002e0: 09a9 fc3e 4480 923c ddf8 3a3e 44f7 6bbf
000002f0: 64f3 e1bc a239 403e 35b5 8abe 76ee 0cbd
00000300: 735a 083f 7ee8 d3bd 92fd 973e dbf8 a5be
00000310: fd1f 48be 471b 953e 933d 243e da62 fb3c
00000320: a40c d8bc 2f0d 6dbe 5e67 933f a092 ba3e
00000330: 649e 14bf d86e 683d c342 e4be 344a a9be
00000340: 80a5 603e ee11 163e 31bb 253f d21d 3e3f
00000350: 255c d7be 8eb7 5a3e 2d13 02bf 2531 2dbe
00000360: 6fff 0c3f 7348 373f 3277 983e 5b08 473e
00000370: deb9 96be e06f 50bc eb99 cbbe dea1 6c3c
00000380: 1d52 48be bd77 6e3d 1181 c2be 0d0e febd
00000390: b0c4 223e 230e b1be 5915 ebbe 710f 12bf
000003a0: 1bfd 28bf a675 91be 6f10 4f3f a3a2 8abe
000003b0: 22c5 84bf 62bf 453e c8b4 0bbf 317b 11bf
000003c0: 74c4 803d 15e0 ed3d 5cce babe af4c e0bf
000003d0: a536 48bf ecfe 05be 7cd8 3dbc 99f6 84bc
000003e0: 9600 84bb cb77 e3be b4f9 4ebf 537b 043e
000003f0: 468c b4be d425 d2bd 95a1 07bf 2204 d6be
-0.046498477 0.024826229 0.23349282 -0.26596862 -0.33282027 0.03492832 -0.08309132 0.032710552
-0.17211421 -0.43569657 -0.68191224 -0.06972507 0.12415573 -0.21760805 -0.219744 -0.31618723
-0.57420325 -0.22653124 -0.5685774 -0.33517382 -0.4482642 -0.28499758 -0.45608878 -0.7000531
-0.2510675 0.051405936 0.38123277 -0.5125148 -0.36610553 0.22462556 -0.4668938 0.09422127
-0.087846056 -0.03132238 0.6235349 0.37006658 0.020218633 0.16308728 -0.23026238 -0.3407861
-0.47116077 -0.1342433 0.10701798 -0.7564388 -0.8626556 0.27792427 0.18985808 -0.2941536
-0.5444036 0.27457702 -0.124040596 1.1742445 -0.43987277 -0.15967008 -0.53478557 -0.2738647
-0.18557644 -0.03686347 1.0549791 -0.78189665 -0.39570776 -0.21350536 0.068344094 -0.3880326
-0.13158426 -0.024560992 -0.5363303 0.35070285 -0.3258635 -0.2173239 -0.3142844 -0.35389635
-0.1908458 -0.41856247 -0.54963803 -0.5251685 0.55343 0.12359971 -0.33886606 -0.55266
-0.091887906 0.069711186 -0.7540391 0.5472004 0.04956383 -0.087539226 0.07999571 0.12122754
-0.610951 0.26742035 -0.61709315 0.25796536 -0.455186 0.037667513 -0.4087125 -0.3088122
0.49526867 -0.40854907 0.31855744 0.6682972 -0.44335598 -0.1911982 -0.18930237 -0.505287
0.4810277 0.56767833 0.67316705 1.8925267 -0.53423065 -0.030810446 -0.58859956 -0.6636455
-0.20497052 -0.30534482 0.5023228 1.2726581 -0.35620743 -0.15872827 -0.53030986 -0.71583056
0.5088288 -0.29199606 -0.24297504 -1.2028776 -0.08773046 0.18348262 -0.61027867 -0.79546374
-0.16568416 -0.17409629 -1.4942746 0.3203075 0.16137588 -0.31938532 -0.15849788 -0.2299174
-0.0017294011 0.28982216 -0.5568326 -0.01067612 -0.9105174 -0.09773588 -0.37529168 -0.28634524
-0.054879848 -0.004337151 -0.51752245 0.1865407 -1.2021401 -0.00324139 -0.03388048 -0.14756489
-0.05874606 -0.008367851 0.07541764 0.38786146 0.3202276 0.22083536 -0.24490875 -0.20180325
-0.3148499 -0.5557587 0.03954846 0.94899523 -0.13751954 0.16921219 -0.25887713 -0.52352816
-0.4584115 -0.35486335 -0.17938086 -0.054617546 -0.6716684 -0.106443375 -0.69655585 -0.7984023
0.2883211 -0.08932441 1.3075484 -1.0436742 -1.3747722 -0.32108745 -0.092413746 -0.37153935
0.49347714 0.017883427 0.18258996 -0.9217417 -0.027581878 0.18771985 -0.27091375 -0.0344071
0.53263015 -0.10347079 0.29685646 -0.32416424 -0.19543453 0.29122373 0.16039114 0.030686785
-0.026373215 -0.2314956 1.151592 0.3643999 -0.58054185 0.056746334 -0.44582185 -0.33064425
0.21938133 0.14655277 0.64738756 0.7426425 -0.42062488 0.21359083 -0.5081051 -0.16913278
0.5507726 0.71594924 0.2977844 0.19436781 -0.2943868 -0.012721986 -0.39765868 0.014442889
-0.19562574 0.05821966 -0.37989095 -0.12405024 0.15895343 -0.34581098 -0.45914724 -0.5705481
-0.6601121 -0.2841007 0.8088445 -0.27077207 -1.037266 0.19311288 -0.54572725 -0.568286
0.062874705 0.11615006 -0.36485565 -1.7523402 -0.7820838 -0.13085526 -0.011587258 -0.016230868
-0.00402839 -0.44427332 -0.80849767 0.1293767 -0.3526327 -0.102611214 -0.5298093 -0.41800028

w_group.0.bias f4 [64]
00000000: c428 97be 1bfa c1be 081f 35bf 0ff5 e9be
00000010: 5220 ebbe 412d e3be 5931 94be 0d95 fbbe
00000020: 1819 11bf f9e0 96be 3bdf 45be 7003 0dbf
00000030: d319 efbe 6d90 dabe a9ef f3be 22c1 7cbe
00000040: 6fd0 8dbe a26c 85bd 9883 0abf 093d 0b3e
00000050: 696d 03bf 4890 4fbf 9f1b 34bf a4e9 c6be
00000060: ad2c 39be 7927 2abf 1fa6 f4be 6a2f ebbc
00000070: e3e7 a2bc ffbb cdbe 261f 60bd aceb eebe
00000080: c4a9 8fbe 2517 22bf a0df 0fbe de42 21be
00000090: 8af3 1abf e6c4 753e 4b87 c8be edaf 06bf
000000a0: 0beb 3a3e 7eaf 83be 08da edbe 4825 75be
000000b0: f47f 943d 3951 24be f855 84bd 402b 103e
000000c0: 016f 19be 0823 013e bdf2 f8be c818 12be
000000d0: 86d0 bebe b89b e2be b9f0 7ebe 1ef8 23be
000000e0: 98b5 23bf 5eee 9cbe cf60 6bbe a104 d8bc
000000f0: 8d2e 03bd 2f47 c4be d4ab 77be 567f 73bd
-0.2952329 -0.37886128 -0.70750475 -0.45694777 -0.45923096 -0.44370463 -0.289439 -0.49137154
-0.56678915 -0.29468516 -0.19323437 -0.5508337 -0.4669939 -0.42688313 -0.47643784 -0.2468305
-0.27698085 -0.06514861 -0.54107046 0.13597502 -0.5133882 -0.8107953 -0.70354646 -0.3885013
-0.18083449 -0.6646648 -0.4778299 -0.028709132 -0.019885963 -0.40182492 -0.054717205 -0.46664178
-0.28059208 -0.63316566 -0.1405015 -0.15748164 -0.6052786 0.24000892 -0.3916572 -0.5261219
0.18253724 -0.25719827 -0.46455407 -0.23940003 0.072509676 -0.16046609 -0.0646171 0.14078999
-0.14983751 0.1261102 -0.48622695 -0.14267266 -0.37268466 -0.4425943 -0.24896516 -0.16012618
-0.63948965 -0.3065061 -0.22986148 -0.026369395 -0.032026816 -0.3833556 -0.24186641 -0.05944761

w_group.2.weight f4 [32, 64]
00000000: 0469 bb3d 3113 dfbd da39 57bd 54f6 eebd
00000010: f614 b93c c997 7e3d ec60 21be 8fbf de3b
00000020: 474e 5abd 4331 ffbc b99b 7cbc 3e8d 863d
00000030: 1ab5 b4bd 28d2 debc 3563 f3bc 28ec a13d
00000040: 4c8d 4abb dd50 1cbe 9f89 3e3d 9c59 0fbe
00000050: a59c fbbd 3439 1abe bace b7bd 68bb c2bc
00000060: 59ed e43c 1e07 9d3d f00d fcbd d225 ad3d
00000070: 51ab 443d efd9 37bd 73c7 a63d 5a3f a43d
00000080: 4fd3 ee3c 40f8 66bd 1039 683d 841b cf3c
00000090: aaf7 45bd c7bc 803d 31f3 b33d 0a8e 05be
000000a0: ae4f f7bd 8c47 c83c 5a45 5fbd 8b8c 40be
000000b0: 35a3 be3d 91d6 06bc e4d2 20be c007 febd
000000c0: bf88 45be 0368 ca3c 82e8 cdbb e8a7 843d
000000d0: 3da4 c3bc 256f b83d 2020 80bd 0db9 95bc
000000e0: c3b8 ba3d bb50 e4bd 8dae debc 0897 ddbd
000000f0: 36d9 a5bd e6f2 14be 84f5 92bd 87c4 23be
00000100: 2acf 843d 0f03 963e 9292 2e3e 1bec 0c3e
00000110: 327a c0bd 0392 9c3e a99d 2ebe c446 823e
00000120: d42d 0dbe 9c3e 9c3e b919 18bf b59f 1d3d
00000130: 45b2 af3d 7523 333f 97c4 c3bd fa82 693e
00000140: 27f3 8c3e 2acc e0be 9063 88bd daf4 b03d
00000150: 80b0 e73e c56b ccbd 6559 163e bd9e d3bd
00000160: 1e30 11be 5692 a0bd 14d8 d93e e19e 73bc
00000170: 100f 0b3d 50dc 45bd f5b7 9abd 8407 803e
00000180: 0501 e9be 65f7 f13e 4d81 81be 4215 653e
00000190: a5ac 32bd 2e2e 82be f21c 2f3e 93a1 563c
000001a0: ea7f a2bd 7ebb 283f d6b5 003e b4fc d3be
000001b0: df5f e9bd b3f6 cfbd 35dc 17bf 4806 c33d
000001c0: b392 71be 3845 253e 83a1 77be 8491 86bd
000001d0: 6e2b 0abe c74b 313f 3da4 52be 3fdc 71be
000001e0: 539a 94be 91ef ab3d 363a 69be 2311 8ebe
000001f0: 0603 213d 0e83 4d3e 4e99 27be bf56 413d
00000200: 9e5f dfbd a563 2abe 4617 52be 4f50 4dbe
00000210: 55e9 22bd 79a7 4d3e 18df eb3c 57cd c1bd
00000220: 00d2 153d 8933 b93d 1e72 d33c 3f70 d13e
00000230: 600a aabe 20e4 ba3e 687d 96be d2c7 833d
00000240: 512f 833d 8b6e 85be 948d 533e d1e8 30bc
00000250: 913c 1bbf 5219 e3be ea7e 09bf 6173 4b3e
00000260: 7e58 bb3c 94bf 92be a7dc f0bc 0ccc 0e3d
00000270: 28f0 673d 5338 2c3d 35e2 a8bd 0a91 57bf
00000280: 94b9 73bf 7dfe d7be f427 c23b 1800 4d3e
00000290: abf5 d3bd daec 453d db9d 443a dc94 babd
000002a0: b172 8cbe 0cb2 1d3e a279 a23e 0177 62be
000002b0: a8af 8fbd d58f 03be 0dd5 0c3e 8864 be3c
000002c0: 0def 913e e31b 72bf 1b65 503d 0451 8b3e
000002d0: f9b6 a1bd 680f e33e 7023 b8bc 5fa0 673e
000002e0: 2340 063f 74e2 d73b 27e7 8a3e e078 1abd
000002f0: 54da afbe df10 e7be c564 4cbe f1b9 60be
00000300: ec95 6c3d 94fb c8bd fca9 fa3d af06 a3bb
00000310: 2d7c 68bc 46f1 01be e9a1 06be 8edd 11be
00000320: 9747 ebbd eb4b 13be 3a1d c8bd 425c 723b
00000330: ef62 98bd afd8 10bd 4a42 e8bd aee8 03bd
00000340: 0156 4bbd 629c 1036 6a41 47bd 1481 a9bd
00000350: c600 853d 5815 4e3d 419d 29be b43b 18be
00000360: d51e e63c 1711 38be 4188 7fbd b30a a13c
00000370: 5f2c de3d 716d 21bd 37b7 eebd ee1b 833d
00000380: 7c78 c73c 6319 ce3d f819 b3bc aecb a6bd
00000390: a09e 343d d4b4 15be c97d 513c 6f96 1fbe
000003a0: b24d e1bd 1099 aebd ea54 2d3d c3a2 0e3c
000003b0: 8b5d 19bd 9bbd 923d ba8d 29be 9458 fe3d
000003c0: 4e33 74bd eaff 963d 6275 b73d 9034 98ba
000003d0: 9788 af3c 7794 813d cb32 1fbe 264b 5fbc
000003e0: f89d 4a3d a06f 0b3c b9b9 11bd 3a9a 8e3c
000003f0: feeb b83c c276 2fbe 0074 433c 7fb1 10be
0.091508895 -0.10892332 -0.052545406 -0.11668077 0.022593003 0.062156472 -0.15759629 0.006797738
-0.053297307 -0.03115142 -0.015417987 0.065699086 -0.08823605 -0.02719982 -0.029710392 0.07906371
-0.0030906973 -0.15265222 0.046517964 -0.13999027 -0.12285737 -0.15060884 -0.08974977 -0.023771003
0.027945207 0.07667373 -0.12307346 0.08454479 0.048014943 -0.044885572 0.08143511 0.08019896
0.029153494 -0.056389093 0.056695044 0.025281675 -0.048331894 0.062860064 0.087866195 -0.13042465
-0.120757446 0.024448179 -0.0545095 -0.18803613 0.09308473 -0.008229868 -0.15705448 -0.12403822
-0.19290446 0.0247078 -0.0062838206 0.06477338 -0.023882026 0.09005574 -0.06256127 -0.018276716
0.09117272 -0.111482106 -0.027182842 -0.108198225 -0.0809807 -0.14545783 -0.07175735 -0.15992938
0.06484826 0.2929921 0.170481 0.13761942 -0.09398307 0.30580148 -0.1705233 0.25444615
-0.13787013 0.30516517 -0.5941425 0.038482387 0.08578924 0.6997598 -0.09558981 0.2280387
0.2752926 -0.43905765 -0.06659615 0.08640452 0.45251846 -0.09981493 0.14682539 -0.10333011
-0.14178512 -0.07840411 0.42547667 -0.014869423 0.03394991 -0.04830581 -0.07554618 0.25005734
-0.4550859 0.4725906 -0.2529396 0.2237139 -0.043621678 -0.25425857 0.17100886 0.013100046
-0.07934554 0.6591109 0.12569365 -0.41403735 -0.11395239 -0.10154476 -0.59320384 0.095226824
-0.23591118 0.16139686 -0.24182706 -0.06570724 -0.1349313 0.6925625 -0.20570464 -0.23619173
-0.2902399 0.08395303 -0.22776112 -0.2774745 0.039309524 0.20069525 -0.16367075 0.04720187
-0.109069094 -0.16639574 -0.2051669 -0.20050167 -0.039773304 0.20083417 0.028792903 -0.094629936
0.036577225 0.09043033 0.025811251 0.4090595 -0.3321104 0.3650217 -0.29392552 0.06434597
0.06405509 -0.260609 0.20659477 -0.010797695 -0.6063929 -0.44355255 -0.5370928 0.19868232
0.022869345 -0.28661788 -0.02940209 0.034862563 0.056625515 0.042045902 -0.082462706 -0.8420569
-0.95205045 -0.42186347 0.005925173 0.20019567 -0.10349592 0.048321582 0.0007500329 -0.09110424
-0.27431253 0.1539995 0.31733423 -0.22115709 -0.07015926 -0.12847836 0.13753147 0.023241296
0.28502694 -0.945738 0.05087767 0.27210248 -0.078962274 0.44347692 -0.022477835 0.2261977
0.52441615 0.0065882746 0.2712948 -0.03771293 -0.3434626 -0.4513006 -0.19960316 -0.21945931
0.057760164 -0.0981361 0.12239453 -0.004975162 -0.014189762 -0.12689695 -0.13147701 -0.14244673
-0.11488264 -0.14384429 -0.097711995 0.003698126 -0.07440745 -0.035362896 -0.11340769 -0.032204323
-0.049642567 2.15487e-06 -0.048646368 -0.08276573 0.06494288 0.050313324 -0.16563894 -0.14866525
0.028090874 -0.1797527 -0.0623858 0.019658422 0.10848307 -0.039411012 -0.11656039 0.064018115
0.024349444 0.10063436 -0.021862969 -0.081443176 0.04409659 -0.14619762 0.012786337 -0.1558473
-0.11001147 -0.08525288 0.04231731 0.008705798 -0.037442725 0.071650706 -0.1655797 0.12419239
-0.05961924 0.073730305 0.08957936 -0.0011612345 0.021427436 0.063271455 -0.1554672 -0.013628757
0.049467057 0.0085105 -0.03557751 0.017407525 0.022573467 -0.17135146 0.011929512 -0.1413021

w_group.2.bias f4 [32]
00000000: e92e 2fbe bd1d 0cbf 6be9 193f f494 48be
00000010: e9e5 183f 4aaf d33d b0fc 54be 8ec8 513e
00000020: 8fa8 c5bd e608 15bf 65c3 a43d a0ca f03e
00000030: 1394 ce3e d502 c83d 234d bdbe c338 cebe
00000040: c06f 7bbe 395d 203e 9f95 733e 10e5 263f
00000050: e5e9 98bc 7eaf c73d dea0 593f b937 c4be
00000060: 5ad6 37bf d9c5 cf3c 7685 f8be 2003 c4bd
00000070: 6b36 b0bd 151f c33e 13eb 2dbe da5c 113f
-0.17107739 -0.54732877 0.6012179 -0.19588071 0.59725815 0.10336168 -0.20799518 0.20486662
-0.096512906 -0.582167 0.08045081 0.4702959 0.40347347 0.09766165 -0.36972913 -0.4027768
-0.24554348 0.15660562 0.23787545 0.6519327 -0.018666217 0.09750269 0.8501109 -0.38323763
-0.7181145 0.025362896 -0.48539323 -0.095709085 -0.086041294 0.3810965 -0.16984205 0.56782305

w_agents.0.weight f4 [64, 5]
00000000: 5fc7 c83e a911 02be 3393 f13e 4e03 b3be
00000010: dbbb b13e 036b 5e3d 8501 6fbc d15a 8abd
00000020: 347f 05bf dcae 9ebe 3e10 0dbd 2a84 0c3b
00000030: 6699 693d bd67 25bf c42d dbbd 76a4 723c
00000040: c314 e3bd 3912 013f 3cfd d73e c971 69bf
00000050: 9a4e 883b dc81 7cbd a07a 073f 8c8f 26bf
00000060: a491 083d d15e 2bbe 4c97 a8be 37a5 0dbc
00000070: 67e0 0f3c 7d04 cd3d 146d 693e fad6 223d
00000080: 4a4e 5fbf 34cb fb3d dcc8 15be a985 9b3e
00000090: 8eda 713c 30fb 32bf eca5 283d 4d78 16bf
000000a0: 7c9d cb3c a228 7a3b 95dd 893d cf9e f8be
000000b0: c50c 1dbf fca8 e4bb 35fc 01bc 049c 9cbd
000000c0: 7b11 7abe b594 dcbe c15f 963a 9467 f1bb
000000d0: f595 e93d d260 943d fc41 02be 48dc 11bd
000000e0: 19ed 80bd 3326 7f3e c614 97be 80f3 9abe
000000f0: a9c7 323e aa09 6ebe 9e78 a5be 85c3 66bf
00000100: 2cd2 0bbf 70fe bfbc bfed 023b 3374 90be
00000110: 02c5 f4bd a396 99bd 6e19 bf3c 1cd1 533d
00000120: 8ba0 363e 44c6 c93e 6b4e 18bf 60ee 72bd
00000130: 97ec a4bd c82c 7e3e c8ae 9b3e 7e7e 52bf
00000140: 0be1 293e bdd1 c53d c788 4abf 29c0 ab3f
00000150: 3526 d5be 8518 0ebd 6d6f 013d 7f57 403e
00000160: 5fc6 483e 27cc c5be 1fb9 04be 04a2 19be
00000170: 8550 943f 605d c13f 3713 a7bf 12d0 f8bb
00000180: e578 013a c46a 0bbe 77da 28be fa10 16bf
00000190: 28e5 86be 9e3a 62be ade9 c53e 02ef c63d
000001a0: 362a b1bf 5089 fa3d 928f 973e e9d9 233d
000001b0: d01d 603f 2632 4dbf f583 40bd 87b9 e7bb
000001c0: a1ce e63d eb09 59be b5f0 83bc e31a b5bc
000001d0: b334 38bb eb37 81be e709 94bd e283 3cbf
000001e0: e590 91bd 1adc 7cbd df96 77bf 0775 d13b
000001f0: 9e46 ddbc c69c 98bb afd4 173d 58fb 9d3d
00000200: 5211 0a3f c626 debe ba3e 9ebc 7ab4 28bc
00000210: 1862 dd3c dd58 1ebe 7640 76be 80a6 333e
00000220: 7100 a33e 7ed2 e3be 0ccf dabe 3792 04bf
00000230: 5eda 1dbe 4977 863e 3e3a 0dbb eafc d73e
00000240: 4b58 20bf 2f76 803e 0a15 e4bd d2d2 ad3e
00000250: 3c46 c13b 0499 06bf c46c 62be 1371 9cbc
00000260: 247d 30bf 4b59 313d 737d c7be 9c70 1c3e
00000270: 6292 9bbc 4e5f 3cbe ea9a 8f3e 0251 6ebf
00000280: 4dfd 28be d693 7e3e 2e9d 46bf d693 9f3f
00000290: 5c79 b4be ed65 843d ea56 a63d 6c54 02bf
000002a0: a078 313f 2ece 16bf 8484 d13b 52b6 3c3d
000002b0: 2bbb bc3d 1b2b b63d 9aec 6abd d7aa 003e
000002c0: dbe5 3abe f4a6 3b3e 5b8e 32bf ff59 0dbf
000002d0: 10e8 cfbc 5e38 903d 2d30 8cbd 5fdd 1a3f
000002e0: fd02 c0be 66d6 4a3e c613 8d3e 1a02 9abf
000002f0: 41ad 8cbd 7c45 29bf 1815 7a3c a811 053c
00000300: 23be a23d d82d c2be 755c 34bf ef47 143e
00000310: be5c a13e c5b4 8a3e 7bd9 8d3e 09e9 a6bf
00000320: bba5 c8bd d26b fbbc f9ce 1dbf 9b9a 2cbe
00000330: 13a1 16bf 7058 863d c7dc 6dbd c309 ba3e
00000340: 6ec5 7f3f 0461 51bf c146 95be cb6a e7bd
00000350: 1812 9b3e ba27 e93e adc5 09bf 6ea4 a93e
00000360: 59f3 91be cadc 10bf 2213 283f bc7e eebe
00000370: b4d5 8b3d 0c1e 273e 4883 54be 25f2 103f
00000380: 6292 d1be aafa c5bc 4ed7 033f 3747 6bbe
00000390: 7c27 2d3f 2e08 85be 1af7 aa3d 2268 15bc
000003a0: ad65 bcbe fac3 883f eadb 84bf c718 7a3d
000003b0: b724 723e 767a 28bf 741e 8f3e 31ba 57bf
000003c0: 749d 2abe 095f b7bc d3e7 b9bd 7dc8 a73f
000003d0: 3b24 58bf 7edf a7be 494c 91be 4e38 203f
000003e0: 4f56 fbbd 7905 f6be a8fd 953d ca77 8fbc
000003f0: e1af 0e3e 6e68 67bf 5aad 313e ca9f 0d3d
0.39214608 -0.1270205 0.47182617 -0.3496346 0.34713635 0.054301273 -0.014587765 -0.06755603
-0.5214722 -0.30992782 -0.034439318 0.002144108 0.057031058 -0.6461142 -0.107020885 0.014809718
-0.11087944 0.5041843 0.4218539 -0.9118925 0.0041597607 -0.06164728 0.52921486 -0.65062785
0.03334202 -0.16735388 -0.3292793 -0.008645347 0.008781529 0.10010622 0.22795516 0.0397558
-0.87228835 0.12294617 -0.14627403 0.30375412 0.01476158 -0.6991453 0.04117386 -0.58777314
0.024855368 0.0038171192 0.067317165 -0.4855866 -0.6134761 -0.0069781523 -0.007933666 -0.07646945
-0.24420731 -0.43082204 0.0011472629 -0.007367084 0.11405555 0.072450295 -0.12720484 -0.035610467
-0.06295223 0.24916916 -0.29508036 -0.302639 0.17458977 -0.23245874 -0.32318586 -0.9014209
-0.5461757 -0.023436755 0.0019978133 -0.28213653 -0.11951639 -0.07499435 0.023327556 0.051713094
0.1783468 0.39409077 -0.59494656 -0.059309363 -0.080529384 0.2482177 0.30406785 -0.8222426
0.16589753 0.09659145 -0.79114956 1.3418018 -0.41630712 -0.034691352 0.031600405 0.18783377
0.19606923 -0.38632318 -0.12961243 -0.1500321 1.1587073 1.5106621 -1.3052739 -0.0075931633
0.0004938974 -0.13614947 -0.16489588 -0.58619654 -0.26346707 -0.22092673 0.38654843 0.09713556
-1.3841007 0.122332215 0.29601723 0.040002737 0.8754549 -0.80154645 -0.047000844 -0.007071677
0.1126988 -0.2119519 -0.016105989 -0.022107547 -0.0028107583 -0.25237975 -0.07228451 -0.7363874
-0.071077146 -0.061733343 -0.96714586 0.0063921246 -0.027011212 -0.0046573607 0.037068065 0.07713956
0.5393268 -0.43388957 -0.01931702 -0.010296935 0.027024314 -0.15463586 -0.24048027 0.17543983
0.31836274 -0.4449653 -0.4273609 -0.51785606 -0.15415332 0.26262882 -0.0021549608 0.42185146
-0.62634724 0.25090167 -0.111368254 0.33949906 0.005898265 -0.52577233 -0.22111803 -0.019096887
-0.6894095 0.043298047 -0.38962898 0.15277332 -0.0189907 -0.18395731 0.28047878 -0.9309236
-0.16502877 0.24861082 -0.7758359 1.2466991 -0.3524884 0.06464753 0.08122046 -0.5091007
0.69324684 -0.58908355 0.006393971 0.04607231 0.09215387 0.088949405 -0.057354547 0.1256517
-0.18251745 0.18325406 -0.6974847 -0.5521545 -0.02537921 0.07042001 -0.06845126 0.60494035
-0.3750228 0.19808349 0.27554148 -1.2031891 -0.06868983 -0.6612165 0.015263818 0.008121885
0.07946422 -0.379256 -0.7045358 0.14480565 0.3151607 0.2709104 0.27704987 -1.3039867
-0.097972356 -0.030691061 -0.6164394 -0.16855852 -0.5883953 0.06559837 -0.058071878 0.36335573
0.9991063 -0.8178866 -0.29155543 -0.11299666 0.30287242 0.4553812 -0.53817254 0.33133262
-0.28505972 -0.565869 0.65654194 -0.46581066 0.0682787 0.16320056 -0.20753205 0.56619483
-0.40931994 -0.024167378 0.51500404 -0.22976385 0.67638373 -0.25982803 0.08347912 -0.0091190655
-0.36796322 1.0684807 -1.0379612 0.061058786 0.23646818 -0.6581186 0.2795292 -0.8426848
-0.16661626 -0.022384183 -0.0907742 1.3108059 -0.84430283 -0.32787699 -0.28378513 0.62585914
-0.122723214 -0.4805105 0.07323772 -0.017513175 0.1393428 -0.9039372 0.17351285 0.034576215

w_agents.0.bias f4 [64]
00000000: fede f5be e5bf 75be 033f 67be c2bd f0be
00000010: abf9 05bf 57c0 02be 1e82 4dbe 400c 75be
00000020: f84f acbe eaf6 4cbe 6fe2 1dbe 0e86 1dbf
00000030: 2899 56bf e378 ddbe 374d 94be 28c2 61bf
00000040: c7d6 23bf 7be8 a5be db27 89bf c9cb 96bd
00000050: 93e7 51bf 24ed 35bf 50d7 f6be 1280 46be
00000060: 1b2d 2ebe 7728 dcbe c54a b0be c422 b3be
00000070: 48ee 23bf 9039 72be 3675 36bf 075a 68bf
00000080: 6ccb 08be 6345 46bf 84a1 b3be 0f11 3bbf
00000090: 07a2 06bf 3e95 75bf 3dc6 64be dc53 80bf
000000a0: 85ff 0cbf 9d7c fabe 1795 7cbf 9204 59bf
000000b0: 4055 3abf 99a7 5abf 0fb2 0abf 83ed 51be
000000c0: b921 60be 5187 26bf a6ec 1dbf 4ad7 babb
000000d0: a08f 2abe 7eda 333d 22e0 64be 5c10 33bf
000000e0: 16e0 0cbf e721 c4be e4b3 0ebf 4e4d a4be
000000f0: 079a cdbe 2f6d 8bbf 44fa 0dbe 6f3e e6be
-0.48021692 -0.23998983 -0.22582631 -0.47019774 -0.5233409 -0.12768684 -0.20069167 -0.23930454
-0.3365476 -0.20016065 -0.15418409 -0.61532676 -0.8382745 -0.43256292 -0.2896516 -0.88186884
-0.639996 -0.3240393 -1.0715288 -0.07363088 -0.8199398 -0.7106497 -0.48211145 -0.19384792
-0.17009394 -0.42999622 -0.34432045 -0.34987462 -0.64035463 -0.23654771 -0.712726 -0.9076237
-0.1335885 -0.77449626 -0.35084164 -0.73072904 -0.52590984 -0.9593085 -0.22341247 -1.0025592
-0.5507739 -0.48923197 -0.98664993 -0.847726 -0.7278633 -0.85411984 -0.54177946 -0.2050076
-0.21887864 -0.65050226 -0.6168922 -0.005701934 -0.16656351 0.043909542 -0.22351125 -0.6994684
-0.5502943 -0.38307115 -0.5574324 -0.3209023 -0.40156576 -1.0892695 -0.13865 -0.44969508

w_agents.2.weight f4 [32, 64]
00000000: 0a95 ce3b 538c 16bd 7907 45bd d3c4 61bd
00000010: abb2 b7bd 24a1 143d c32c 03be 5cc9 813d
00000020: 3f0e 583d 12e6 8bbd 6904 ebbc 7ca7 2b3d
00000030: 042a 8ebd 39e4 6c3d 64ce 693b de4c f73b
00000040: e174 a2bd 0e82 b3bc c1e4 d2bd ed76 21be
00000050: d795 23be c50b 083c bea3 4ebe 7511 bfbd
00000060: 3de2 1bbe f3d5 50bb 5ab4 9fbb f8de a6bd
00000070: 4779 79bd 81e5 3f3d 74ea 533d 9cd3 e6bc
00000080: 0ba0 fc3c e90a dfbd c1fc 2cbd ce54 13be
00000090: b55a e1bd cac6 88bd ba44 38be 77ad 26bd
000000a0: 5865 66bd 9232 8abd 99e2 963d 2826 223d
000000b0: ac8e 493d bda1 c53c 9b23 bbbd 7bca 07bd
000000c0: 96e8 88bd 3788 ee3c 8e12 8bbd 9aed 0ebe
000000d0: 51bf c7bc 5d2c 05be 4916 f1bc 7068 c6bd
000000e0: 5098 66bc 4556 a4bc 009e a4bd caed 7e3d
000000f0: dd78 eb3b bb06 ba3b 8a5e abbd cc74 97bd
00000100: 1f81 94bf f83b a6be 13e0 0fbf ec35 c7bf
00000110: 9837 66bd 8c09 25bf 9305 8dbe f10a a1be
00000120: 0db9 c43d 7279 82be ed67 1fbe ac1e e83c
00000130: 95ee 41bf 287d d6bd a1c8 393e 24f6 cebd
00000140: e780 353e 91e2 c9be 4323 4bbd 70c9 f1bd
00000150: 5cfc 063d 791f 263e 79a8 35be 2160 833d
00000160: beea 99bd 1b8d f5bc 15f1 19be 55ef ad3d
00000170: ab3a edbe 322c 17bf d1d9 b6bd 3396 86be
00000180: 11ff 25bf 7851 e3bd b9ff 89be 5e1a 48bf
00000190: cf55 7b39 3381 c93e 7cbf 98be 46c4 8b3f
000001a0: c841 22bd 72f9 023e ffff 49bf 23fe 8abd
000001b0: cf0c 9b3e bc2a 043e 916f 273e c828 df3c
000001c0: 55e7 9bbe 33d1 8cbf ec83 65be a548 273e
000001d0: dd40 9cbe 1d1b 8b3e fe22 d6bc 4281 a5be
000001e0: 1150 acbd ccfa c63e db61 00bf e5b1 1c3e
000001f0: 67ac 2a3e 09bf 003f a783 863e 7e68 4dbe
00000200: 6b54 0bbe 81c2 c7bd b93c 3bbd a840 893d
00000210: 3342 96bd a7a6 01bd c7df d3bd 9534 13be
00000220: db67 eabd c40f 713d 9aad a0bc 194d 56bd
00000230: e445 a1bd 1452 ccbd b53a b7bc 8aa1 50bc
00000240: 320c acbd 4b2c 02be 82f4 6b3d f3f5 633d
00000250: 101a 0f3d 36c2 11be 4ad9 b53c 32d5 a7bd
00000260: 5414 d93d d47a 1fbd 4cb5 15be 4863 533c
00000270: 8fb7 49bd 06b9 3cbe cece 9fbd 7ea5 e63d
00000280: 5e33 c2bd 9668 e6bd 82e7 883c cedd 6e3d
00000290: cf2b 4fbe d7bb 86bc f14e a9bd 7636 683b
000002a0: 418d adbd e758 b13c c569 9e3c 1573 1bbd
000002b0: 3be1 f73d e3b0 acbb 3234 43bd 4a54 c8bc
000002c0: e908 92bc ff43 05bc cac7 583c a524 323c
000002d0: 94ae 00be 9046 dbbd 2c92 eabd 6ecb c13b
000002e0: 5783 82bc 8dc8 4fbb 9d20 8d3b e8a6 073d
000002f0: 3817 a0bc bc7b 403d 205b 06bd 7bea 623d
00000300: 2453 7cbe e5fd 83be 352b 1abe 4f4a 1c3d
00000310: 9fa7 03bd bb9c ba3d 7629 51be 7f19 e13b
00000320: af5b 81be 456d 7abe 4c1e 74be e5af 2cbd
00000330: ec9e 28be 5122 48be 6324 77be 5aff f53c
00000340: ff17 15bd 4ae6 88be 8ca5 c53d 0321 333d
00000350: 9ef2 9c3d a1e4 3fbe f565 8bbd 39ea 29be
00000360: dbfe 83bd 9973 aabd 6bf8 1abe c373 06be
00000370: dae1 c33d 61a6 27be 81cf dd3d 3c30 05be
00000380: ead0 253e 28cf 65be 512e f0bd ba5d 21be
00000390: 9700 3c3a d34f d2bc eaef 32be 36f9 b3bd
000003a0: 85b5 04be 263f f33d 6bce bfbd 7f28 9fba
000003b0: 8905 273e 6c18 b73d 5936 2dbd fe80 18bc
000003c0: 524c 46be b0f5 61be 0be4 99be 1be4 04bd
000003d0: 8f4a 8abe 984d dabd fcf9 4cbd b3f0 dcbd
000003e0: e5ea c8bc d191 bdba 786b 05bd 4da6 0ebe
000003f0: d03b a0bd 80bd 2a3e 9b30 2ebe 2ee4 32bd
0.006304388 -0.036754917 -0.04810283 -0.055119347 -0.08969625 0.03628649 -0.12810044 0.063372344
0.05274796 -0.06830992 -0.028688626 0.041907772 -0.069416076 0.057834838 0.0035675997 0.007547005
-0.07932449 -0.0219126 -0.102975376 -0.15768023 -0.15975128 0.008303587 -0.2017965 -0.093295015
-0.15223022 -0.0031865805 -0.0048737945 -0.08147997 -0.060906675 0.04684973 0.051737264 -0.028177075
0.030838033 -0.10890753 -0.042233232 -0.14387819 -0.11003629 -0.06678541 -0.17994967 -0.040692773
-0.056248993 -0.06747927 0.07367439 0.03958717 0.049208328 0.024124974 -0.091376506 -0.033152085
-0.06684987 0.029117687 -0.067906484 -0.13957825 -0.024383219 -0.13005204 -0.029429572 -0.096878886
-0.0140744 -0.020060668 -0.080379486 0.062238492 0.007186039 0.005677072 -0.08367641 -0.07395324
-1.1601905 -0.32467628 -0.56201285 -1.5563331 -0.056205362 -0.6446769 -0.27543315 -0.3145366
0.09605608 -0.2548328 -0.15566988 0.028334938 -0.7575467 -0.104730904 0.1814294 -0.10105541
0.17724954 -0.3943067 -0.049594175 -0.11805999 0.032955512 0.16222943 -0.17740048 0.064148195
-0.07515477 -0.02997451 -0.15033372 0.084929146 -0.46333823 -0.5905181 -0.08928264 -0.26286468
-0.64842325 -0.11099523 -0.26952913 -0.78165233 0.00023969192 0.39356384 -0.2983359 1.0919273
-0.039613515 0.12790468 -0.78906244 -0.06786754 0.3028321 0.12906927 0.16351153 0.027241126
-0.3044993 -1.1001343 -0.22413605 0.16336305 -0.30518237 0.27169123 -0.026139732 -0.32325178
-0.08413709 0.38863218 -0.50149316 0.15302236 0.16667329 0.50291497 0.26272318 -0.20059392
-0.13606422 -0.097538956 -0.045712207 0.06701785 -0.07336845 -0.031653073 -0.103454165 -0.14375527
-0.1144559 0.058852926 -0.01961403 -0.05231962 -0.07874659 -0.09976593 -0.02236686 -0.012733826
-0.084007636 -0.12712209 0.057606228 0.055654477 0.034936965 -0.14234242 0.022198338 -0.08194961
0.105995804 -0.038935497 -0.1461994 0.012902088 -0.04924732 -0.18429956 -0.07803117 0.11262034
-0.09482454 -0.11250417 0.016711954 0.058317 -0.20231555 -0.01644699 -0.0826701 0.0035432852
-0.08474208 0.021648837 0.019337544 -0.037951548 0.12103506 -0.00527011 -0.0476572 -0.024454255
-0.017826514 -0.008133887 0.013231227 0.010872995 -0.12566596 -0.10706818 -0.11453661 0.0059141433
-0.015931768 -0.003170523 0.0043068663 0.03311816 -0.019542322 0.046993002 -0.032801747 0.0553994
-0.2464109 -0.25779644 -0.15055545 0.038156804 -0.032142278 0.09111925 -0.20425972 0.0068694944
-0.25265262 -0.24455746 -0.23839682 -0.042159934 -0.16466874 -0.1954434 -0.24134974 0.030028988
-0.036399838 -0.26738197 0.09650716 0.043732654 0.07663463 -0.18739559 -0.06806556 -0.16593255
-0.06445094 -0.0832283 -0.15133826 -0.13130097 0.09564562 -0.16372062 0.10830594 -0.13006681
0.16192976 -0.22442305 -0.11727584 -0.1575841 0.0007171719 -0.025672829 -0.17474332 -0.087877676
-0.12959869 0.11877279 -0.09365543 -0.0012142806 0.16310705 0.08940205 -0.042288158 -0.009308098
-0.19365051 -0.22066379 -0.30056795 -0.0324441 -0.2701001 -0.10659331 -0.05004309 -0.10788097
-0.024526069 -0.0014463012 -0.032573193 -0.13930626 -0.07823908 0.16673851 -0.17010729 -0.04367464

w_agents.2.bias f4 [32]
00000000: 598c 28be cfdb 3cbe 01cf aebd 0cb0 94be
00000010: f4c1 0ebe 7e83 b5be 528b 2ebe 98ab a3be
00000020: da19 743e 4e76 50be 6882 1ebc c342 e4be
00000030: e584 91be 760d 5cbd 864c ebbd 2cc2 c33d
00000040: 61b7 39be 10d8 a2bd d83a e1bd f7dc b1be
00000050: 1c42 483d 1044 fe3d 1e3e 57be 1284 a4bd
00000060: e239 f4be 1eb5 4f3e f31d a2bd cf6e ea3d
00000070: f083 84bc d986 eb3d 18bb 083e 12b1 873e
-0.16459788 -0.18443225 -0.085355766 -0.29040563 -0.13941175 -0.35451883 -0.17045334 -0.31966853
0.23837987 -0.2035763 -0.009674646 -0.44582185 -0.28421703 -0.053723775 -0.11489205 0.0955852
-0.1813636 -0.07951367 -0.10997552 -0.34738895 0.04889117 0.12415326 -0.2101979 -0.08033003
-0.4770041 0.20283934 -0.079158686 0.11446916 -0.016176194 0.115003295 0.1335262 0.2650228

Ws.0 f4 [32, 32]
00000000: d4ef ebbe aa7c dfbe 3407 163f 52a2 713f
00000010: 2c56 7fbf 5342 b4bc d8aa 64bf 643d 98be
00000020: 643d b0bf 304b ac3f 3a79 a13f 6b59 5b3d
00000030: cd7d cb3f 829a 373f 16ab 263f 25c3 f63d
00000040: 5a00 c33e 0e73 b73d e498 8bbe 9c63 823f
00000050: d77a 0cbf 0565 16bf e28b 3b3e 43de 453f
00000060: a13c 2dbf 163e c7bf fffa 9ebf 6b88 823f
00000070: 3049 853f 0cc9 0140 207b 503f e17f f8be
00000080: 0b14 583e ce63 003f ec8d c3bd f2a2 31bf
00000090: b775 b8bf f52a 6cbe 9a22 13c0 abb6 813f
000000a0: 7515 dbbe 7c06 51be 0ab9 db3e 6711 d1bf
000000b0: 58e1 8abf 1ee5 98bf 31b6 0dbe 1f8c e6bf
000000c0: 7910 8dbf bad3 e3be ed46 48bf 2bdb b7bf
000000d0: 1568 603f 41a5 873d 2b66 0f3f 389a f43e
000000e0: 6723 d6be fb7e aebf 0c56 52bf a88f a63f
000000f0: 820b 4d3f 7ce1 7c3f ad48 473f aa2a 943e
00000100: 89fc 10c0 a24d b53f db29 c9be 0880 0dbd
00000110: 95d1 1740 e560 1ebf e44d 76bf 2990 0e40
00000120: 7a36 113e 2bdf c43f 2267 e2bf 2fba 8dbf
00000130: 44f2 843f 1cc4 86be 72c4 313e 61a0 033d
00000140: 2c3f 2f3e 8638 3cbf 5232 6e3e f100 0a40
00000150: 6bf3 f6be 080f 16bf d06a c6be 6f07 c43e
00000160: f0d2 81be 20fe 80bf c920 863e b0d9 b63e
00000170: 9bd5 c73e 9213 36bf 4b49 26c0 6ebd 453e
00000180: 5264 9dbf 9e53 073e 9d40 443d 4187 d33f
00000190: a9a3 f2bf cdb8 863f 8186 99be df87 563e
000001a0: 7097 d63d 55e1 84bf 038b 933e 8e93 9a3e
000001b0: d45f 03bf f93a 87be a9bc 213f eb66 f0be
000001c0: 0b32 05bf 82c7 df3f be3e 01bf dc9a 9b3f
000001d0: 2ff3 f7bf 6e50 b1bf c389 553f 6f8f b93c
000001e0: 10f7 683e 7a78 ab3f 01ae d03f fcd7 9a3e
000001f0: 175b 543e 290f f0bf b08f 7b3f fb0e 1f3f
00000200: d9c8 743e 56e2 1ac0 b634 2fbf f160 b4bf
00000210: 170c bbbe bdb1 c83f 80cb 93bf c11c f8be
00000220: bcdb 0dc0 fe9a a53f a13b c13f 89bf 693f
00000230: 970a b7bf 6300 c5be a7ba aebe af65 4fbe
00000240: f37d 0140 6a0e 433f 8b71 313f 7cdf 013f
00000250: edf4 3bbd b95d 14bf 9a1f 81bf 5513 99bf
00000260: 00a8 dc3f 47e9 03bf 1476 7ebf ad59 13bf
00000270: cde7 16bf f8e5 0940 4e19 523e 0b57 9ebd
00000280: 0797 8ebf 2e3e d63d 6983 db3e 2011 81c0
00000290: c11a b8bf b5fa 793f a505 b23e 5afd 5cbf
000002a0: 85db 433e a5b3 493f 3a01 e73e 271a babe
000002b0: d1a1 ab3e e544 913e 67fe 4b3f dd54 223f
000002c0: b84e e9be b1c4 fa3e ebba 243f 3acc bd3f
000002d0: cbaa d23f 3a76 d7be 2b84 98be 9811 d6bf
000002e0: 1582 8d3f 6943 a0be a97a 1f3f 4a2c 83be
000002f0: f9b7 26be 3279 d6be 0fa5 c63e 47d1 e7be
00000300: 8354 10c0 7d94 893f 7e96 89be 7b77 f2bf
00000310: 38dd 05c0 ee15 26c0 5385 df3e 5762 cebf
00000320: 66b4 a1bf a4fc 25bd 19b7 babd 1007 14bd
00000330: 097d 3bbf 6a97 c2bf 724d cd3f 7193 1f3e
00000340: 5367 08bf 577b a9bd 680e 6abf ed8f c1bf
00000350: e114 f03e b017 673f bef2 143f 6759 8bbe
00000360: 314c bc3e fee2 f9bf 3812 0fbf 09fa 24bf
00000370: 579b f03e ef1d ca3e f346 763e 4bc2 b7be
00000380: 87c3 9bbe 95b5 853e 238a b4bf 8613 74be
00000390: d2e6 b13d 92a9 ebbf d8ee 8d3f ae4d c43e
000003a0: d9ed a03f c319 123e 18ab 94be cc6e 5d3d
000003b0: 867d 27c0 7ec4 7e3f c06f 0140 4725 bcbe
000003c0: 458e 453f 3b09 403e a060 6fbe f053 febe
000003d0: d75b cc3e d400 e23c 2d4f 6d3f 7d53 363d
000003e0: 1de6 d2be 84ce 63bf f483 523f 937e 7cbf
000003f0: 94f9 f13d d145 8ebe d081 01bf ab5e 80bf
-0.46081412 -0.436498 0.5860474 0.94388306 -0.9974086 -0.022004282 -0.89323187 -0.29734337
-1.3768735 1.3460445 1.261512 0.053552072 1.5897766 0.71720135 0.65104806 0.120489396
0.38086206 0.08957492 -0.27265084 1.0186648 -0.5487494 -0.58747894 0.1831508 0.7729227
-0.6767064 -1.5565822 -1.2420348 1.0197881 1.041296 2.027896 0.81437874 -0.48535064
0.21101396 0.5015229 -0.09548554 -0.6938926 -1.4410924 -0.23063262 -2.298987 1.0133871
-0.42789808 -0.2041263 0.4291461 -1.6333436 -1.085002 -1.1944921 -0.13839032 -1.8011512
-1.1020652 -0.44497472 -0.78233224 -1.436376 0.87658817 0.066233166 0.5601527 0.4777391
-0.41823885 -1.3632501 -0.8216255 1.301259 0.80095685 0.9878156 0.7784527 0.289388
-2.2654135 1.4164317 -0.39289746 -0.03454593 2.3721669 -0.618666 -0.962126 2.2275488
0.14180937 1.5380605 -1.7687724 -1.1072444 1.0386434 -0.26321495 0.17360094 0.03213537
0.17113942 -0.7352375 0.23261383 2.1563075 -0.48232588 -0.58616686 -0.38753366 0.3828692
-0.25356245 -1.0077553 0.26196888 0.35712957 0.39030156 -0.7112361 -2.5982234 0.19310543
-1.229624 0.13215491 0.047913183 1.6525651 -1.8956195 1.0525147 -0.2998543 0.20950268
0.10478103 -1.0381266 0.28816995 0.301907 -0.513181 -0.2641218 0.631785 -0.4695352
-0.52029485 1.748276 -0.5048636 1.2156634 -1.9371089 -1.385267 0.8341333 0.022651402
0.22750497 1.3396142 1.6303102 0.30242908 0.20737873 -1.8754627 0.98266125 0.62132233
0.23904742 -2.4200644 -0.68439806 -1.4092084 -0.3653266 1.5679241 -1.1546478 -0.48459437
-2.2165365 1.2937925 1.5096322 0.91307884 -1.4300107 -0.38476858 -0.3412678 -0.20253633
2.0233123 0.7619387 0.6931388 0.50731635 -0.045887876 -0.5795551 -1.0087769 -1.1959025
1.723877 -0.5152783 -0.9939892 -0.5755871 -0.5894745 2.1546612 0.20517465 -0.07731446
-1.113984 0.104610786 0.42873695 -4.0333405 -1.4383165 0.97648174 0.3476993 -0.86324084
0.19126709 0.7878974 0.45118123 -0.36348078 0.33521894 0.28372875 0.7968506 0.6341074
-0.4556787 0.4897819 0.64347714 1.482795 1.6458372 -0.42082387 -0.29788336 -1.6724119
1.1055323 -0.3130143 0.6229654 -0.25619727 -0.16281117 -0.4188934 0.38797805 -0.45276853
-2.2551582 1.074844 -0.2687263 -1.8942713 -2.0916271 -2.5950885 0.43656406 -1.6123761
-1.2633178 -0.04052414 -0.09116954 -0.036139548 -0.73237664 -1.5202458 1.603926 0.15583588
-0.5328266 -0.08275478 -0.9142823 -1.5122048 0.4689093 0.9027052 0.58182895 -0.27216646
0.3677688 -1.9522398 -0.55887175 -0.64444023 0.46993515 0.39475963 0.24050502 -0.3589042
-0.30422613 0.261151 -1.4104656 -0.23835573 0.086866036 -1.8411124 1.1088514 0.38340515
1.2572585 0.1426764 -0.29036784 0.054060742 -2.6170363 0.99518573 2.0224457 -0.3674719
0.7717021 0.18753521 -0.23376703 -0.49673414 0.39913818 0.027588286 0.9269894 0.044513214
-0.41191188 -0.8898699 0.82232594 -0.98630637 0.118151814 -0.2778764 -0.50588703 -1.002889

Ws.1 f4 [32, 32]
00000000: fa87 41be 38bc b5bf 0290 7f3f ad5a 8bbf
00000010: 0b40 85be 7a6b dabe ffd0 b4bf dca1 0c3f
00000020: 6da0 1cbf 814d 8b3e cc1f d93c a93b c23e
00000030: ee95 e1bf 8d2d 2dbe 237a 1c3c 3b56 f43e
00000040: c179 5c3e 7906 84bf 2e67 f7be b8b9 0dc0
00000050: 8633 d5bf 7f70 453f 9c3c d63e 14a4 fe3f
00000060: bcb2 94bf 2fca e33f c817 b13f 0e89 3bbf
00000070: 024b 883f ffe8 013f 7053 e5bf eb7d 2b3f
00000080: b797 503f e375 623f 3840 b1be 3603 72bf
00000090: 7521 923e 2514 78bf eb17 f6be a3bd 763e
000000a0: b779 443f 1d98 8e3f e1d6 7ebe c944 b3bf
000000b0: 12a8 ac3f e590 48bf 4e45 98bf 634c 54bf
000000c0: b705 30bf 5b0b 08bf b2f4 3fbf b17e c1be
000000d0: 2c48 963e 28fb 8c3e d340 50bf fbf5 4a3c
000000e0: aa5c 053f fda1 2bbf 626f 26c0 bd69 b33e
000000f0: 9d4e 66bf cc4e 56be e450 11bf 3113 b33f
00000100: 2070 97bf cf75 33bf e287 b4bf 0762 803e
00000110: b81b e53d b838 2b3f b03d 863f b0a0 783f
00000120: 4691 c3be 15b9 a93e db21 79be ba01 09bf
00000130: b2e8 5b3e ff50 f23d 1c56 82bf 39ec 96bd
00000140: f17c f03f a8fe 23bf 785d f3bf 5cc8 70bf
00000150: 5eb2 08c0 707d dfbd f502 35bf b891 adbd
00000160: f207 d63e dbb3 5640 bc82 21c0 171d fabf
00000170: 8069 48bf fae7 c0be 308f f73e 59e0 51bf
00000180: a44e 893f 95bc a6bf ae6d 22c0 6cc2 683f
00000190: 4cb3 fb3d 4a8c e1be 2e7e 8e3f f982 903f
000001a0: cdd7 673f c101 d43e baed e23f c528 dbbe
000001b0: 7962 fa3e 800f a33f 74ed 923f 46f1 73be
000001c0: dd97 6ebf a493 61be c6e4 5dbc 5c0c aebf
000001d0: bd56 05bf 1e20 8fbf 57fb aa3f c065 07c0
000001e0: 4df7 4cbe 089c fbbd 04bd 04bf 3bb0 d03f
000001f0: 76b8 52bf 91ed b03e 430b 0040 1e85 45be
00000200: e46f 1540 959b 04bf 86eb 453e 8064 9ebe
00000210: 1fc1 92bf 1928 573f 15e2 2ebf 08fd dbbf
00000220: c21a 693e 1a65 0f3f 6637 263f c183 17bf
00000230: b3eb 943f 3275 d5be 367f 1b40 3837 44bf
00000240: ad7a 1e3f 4361 45bd e406 0fbf ba24 973f
00000250: a8ec 973e caac cabf ca8a 18be c630 44c0
00000260: 3a8e a63f c5c9 90bf 5223 2abf 9717 0c3f
00000270: 4ac5 b03f a8d5 94bf de6f bebf b4e6 a3be
00000280: 31a6 523f d8cf b03f 1572 9dbd 24b7 87bf
00000290: 8b85 3fbf 5b27 abbf d8bf edb7 a6df 12bf
000002a0: d729 b33f 488c a8bd f128 f3bf 81c9 09c0
000002b0: 9b7e 0c3e 8e49 ba3f befb e03e 2314 83be
000002c0: b5a2 9cbf 6446 51bf 748e 11bf 7c76 e3bf
000002d0: c488 6dbe b8bc 103f 9286 ac3f 50a9 9bbf
000002e0: 9f23 3b3f 76dc 5ebf fe51 f23e d9ef dfbf
000002f0: eafc 353f efe5 60bf fcd4 b0bf e122 a0bf
00000300: 2d4a 2f3f cd5c e2bd 976b a0bf 0dc7 a6bf
00000310: 9222 acbf 4630 8b3e 190d 9f3e e33f b2bf
00000320: aa9c 4bbf 9c14 c93e 5b91 493f d51a 913f
00000330: d664 cabe 9fc4 87bd b5b5 03bf 9d38 873f
00000340: b65b b93e 0146 0240 1008 a5bf d3e4 1e3f
00000350: 9c14 0f3f d916 7a3f cf05 713f f9ee dabe
00000360: 6c82 263f 6ad1 5fbe 78ba 1fbf a7e7 84be
00000370: 6d08 e53f b417 1c3f 4944 18bf 5cfa 16bf
00000380: 18b3 d2bf 4b48 30bd 3138 f73f 5500 833f
00000390: 946c 1a3f b285 2ebe 9081 8f3f 43eb a1bf
000003a0: 81bc 53be 07c4 2fbf bc46 b63e 759d 8d3e
000003b0: 0af7 a4be d7dd 773f bdfc ffbc 0ba9 08bf
000003c0: ce46 a63d 8ca5 833e 547d 143f 4a35 133f
000003d0: f4dc a83f 5da3 e7bf 005f 953f 655c 6cbe
000003e0: 3822 32bf dac7 823d b3bc 46be 02e2 8fbf
000003f0: df44 ad3f 9a8e f9bf 170c 10be e0d2 73bf
-0.18899527 -1.4198065 0.99829113 -1.0887047 -0.26025423 -0.42660123 -1.412628 0.5493448
-0.6118229 0.27207568 0.02650442 0.37936142 -1.762388 -0.16911907 0.009550604 0.4772204
0.2153082 -1.0314475 -0.48320907 -2.2144604 -1.6656349 0.7712478 0.41843116 1.9893823
-1.1617045 1.7796077 1.3835382 -0.73256004 1.064789 0.5074615 -1.7916088 0.6698901
0.814815 0.8846113 -0.34619308 -0.9453615 0.2854115 -0.9690574 -0.48065123 0.24095778
0.7674822 1.1140171 -0.24886657 -1.4005367 1.3488791 -0.7834609 -1.189615 -0.82929057
-0.6875872 -0.5314233 -0.7498275 -0.3779197 0.29351938 0.27535367 -0.81348914 0.012387748
0.5209452 -0.6704405 -2.6005483 0.3504161 -0.89963704 -0.20928496 -0.56764054 1.3990232
-1.1831093 -0.70101637 -1.4103968 0.2507479 0.111869276 0.6688342 1.0487576 0.9712019
-0.38196772 0.3314902 -0.24329321 -0.5351826 0.21475485 0.11831855 -1.0182528 -0.07369275
1.8788129 -0.6406045 -1.9012899 -0.94055724 -2.1358867 -0.10912597 -0.7070764 -0.08475059
0.41802937 3.3547275 -2.5236044 -1.9540128 -0.7828598 -0.37676984 0.4835143 -0.8198295
1.0727124 -1.3026301 -2.5379443 0.90921664 0.122900575 -0.44052345 1.1132257 1.128997
0.9056366 0.41407588 1.7728798 -0.42804542 0.48903254 1.2739105 1.1478715 -0.23822507
-0.93200475 -0.22028977 -0.013543313 -1.3597522 -0.5208548 -1.1181676 1.3357953 -2.1155853
-0.20016213 -0.1228562 -0.51850915 1.6303781 -0.82312715 0.3455625 2.0006874 -0.19289061
2.3349543 -0.517999 0.19328126 -0.3093605 -1.1465186 0.8404556 -0.68313724 -1.7186594
0.22764114 0.56013644 0.6492828 -0.59185416 1.163443 -0.41690975 2.4296393 -0.7664676
0.6190594 -0.04818846 -0.5586989 1.1808083 0.29672742 -1.5833981 -0.14896694 -3.065477
1.3012154 -1.1311575 -0.66460145 0.54723495 1.3810208 -1.1627703 -1.4877889 -0.3201195
0.8228484 1.3813429 -0.07687775 -1.0602765 -0.74813145 -1.3371385 -2.8341936e-05 -0.5737251
1.3997144 -0.082298815 -1.8996869 -2.1529238 0.13720171 1.4553697 0.43942064 -0.256013
-1.2237154 -0.8174803 -0.5685799 -1.7770534 -0.23196703 0.5653796 1.3478568 -1.2161045
0.7310123 -0.87055147 0.4732818 -1.7495071 0.7108904 -0.8785085 -1.3814998 -1.2510644
0.6847256 -0.110528566 -1.2532834 -1.3029495 -1.344805 0.27185267 0.3106468 -1.3925747
-0.79535925 0.39273536 0.7873742 1.1336313 -0.39530057 -0.06629299 -0.5144914 1.0564152
0.36202782 2.0355227 -1.2893085 0.6206791 0.5589082 0.9769111 0.9414949 -0.42760447
0.6504276 -0.21857229 -0.62393904 -0.25957987 1.7893196 0.6097367 -0.59479195 -0.5897577
-1.6460905 -0.043037694 1.9314023 1.0234476 0.6032193 -0.17043188 1.1211414 -1.2649921
-0.20677377 -0.6865849 0.3560084 0.27659193 -0.32219726 0.96822876 -0.031248445 -0.5338294
0.08118974 0.2571224 0.58003736 0.5750319 1.319243 -1.809673 1.1669617 -0.2308212
-0.69583464 0.06385775 -0.1940792 -1.1240847 1.3536643 -1.9496644 -0.14067112 -0.95243645
