data/rl_model_2.pth (torch_old, 93650 bytes, 18 tensors)

w_a f4 [32, 32]
-1.5073134 0.68002796 1.8647298 -2.5514941 0.9213421 1.1043512 -2.0179925 1.3189065
0.7229203 2.142057 -0.92489815 2.4189427 0.31856775 3.3902764 1.6045235 -1.9375776
-0.25602734 -0.33071363 -2.9885585 -2.149492 1.0078448 -2.137781 -2.5475547 -1.4386271
0.9397138 -0.6498047 1.3788868 -0.06434233 1.7021831 1.45425 -2.5324838 0.8046385
-1.995744 2.0807803 -1.0042129 0.6213788 -1.0106559 0.4873064 -1.354078 0.73140144
0.5022422 0.48635566 0.55253804 -0.052074272 -0.13308822 0.20945124 -1.3820387 0.08180324
0.57012165 1.3132142 1.2343911 0.81507385 -0.105209805 -1.164338 -1.4116828 0.8179513
0.14811829 -1.0707046 1.2871385 1.6917344 -0.0014956073 0.12451054 0.7586909 0.17651147
-0.73778456 0.19450021 1.9725193 -3.0304263 -0.48676372 -1.8063805 0.47729176 -0.9646301
1.690199 1.1964349 -1.2151737 -0.5554935 -1.2206839 -2.8942492 0.23410624 -0.42651483
-1.1035004 -1.3234141 -0.3704192 -0.0728265 1.9744356 -0.19137801 1.0400695 -1.087691
-0.9914553 0.67899376 -0.97680604 0.45669955 -1.3302504 -0.4426916 -1.4442024 1.6599039
-2.5167308 1.167751 -0.74514586 -1.8158989 0.8405712 1.1752807 -0.7112586 0.3012835
0.6594017 0.776917 0.3198642 1.1263387 -0.1299548 -0.67979354 -0.3662463 -1.5006977
-1.6401083 -0.08627232 -1.4526399 0.77111727 1.535485 -1.1251783 -3.1102216 -0.97958595
0.39754912 0.99252623 -0.2948138 -0.94956034 1.5222329 2.6522446 0.67214066 0.64501065
0.42086014 -0.52870494 -2.0391638 0.23430918 -1.2413718 -0.51293486 -0.4004346 -1.9349529
-0.68315303 0.46151194 1.2918893 -0.46923748 -1.0919979 -0.2917162 -1.4269981 -0.008321889
0.8513646 0.14536965 -1.2392931 0.5564331 -0.6421093 -0.22163275 0.71061504 -1.2240453
-1.1265848 1.7597696 -1.0868012 1.9062728 0.92927945 0.082496665 3.757543 -1.6450788
-1.09645 2.5561416 0.7865453 -0.051969245 -0.57228833 -0.15463535 1.6048566 1.0164499
-1.5429834 1.117396 -0.0023237488 -0.5134003 0.52249616 -0.4196351 1.0910623 -0.7214518
0.3357163 0.7417733 0.32131892 -0.23584175 -0.78423494 1.3970028 -0.18919513 0.63732225
1.1926317 0.3595837 -0.5326829 1.1451812 0.16561295 0.5268907 0.014069592 -0.2425263
-0.9672624 1.3014562 -0.96807617 -2.5044947 -0.5508406 -1.2902036 -0.051399063 -0.7932184
0.5471487 1.7301556 -0.1031852 -0.20788705 -2.6593266 1.5180143 0.06381362 2.7382815
-1.1972078 -0.12821634 -1.2501358 0.41563332 1.5976049 -0.32233667 -1.2845535 -0.4973572
-1.9363742 1.2621665 0.038550198 -0.901005 0.3460769 -0.697017 0.34943384 0.28199112
-0.43902707 2.2827876 -0.5428791 -0.7607839 0.20887105 1.8281981 -0.31686205 0.6580334
1.4473224 1.4192312 -0.02500706 0.87603754 -1.2937709 0.16327025 -0.22587784 -0.939366
0.5775054 1.0047576 -1.4720244 0.12290203 -0.2996876 -0.99082 1.1201837 0.79472977
0.36719432 -0.43130675 0.51958543 0.6788707 -0.945214 -0.90861315 2.1597116 0.47594398
00000000: a5ef c0bf 5016 2e3f 77af ee3f ae4b 23c0
00000010: 13dd 6b3f 615b 8d3f ca26 01c0 eed1 a83f
00000020: 4e11 393f 7617 0940 20c6 6cbf f5cf 1a40
00000030: 501b a33e 4afa 5840 0761 cd3f 8b02 f8bf
00000040: 0416 83be 4c53 a9be 8b44 3fc0 4791 09c0
00000050: 0f01 813f 67d1 08c0 230b 23c0 ef24 b8bf
00000060: 1591 703f 9a59 26bf 5d7f b03f e9c5 83bd
00000070: 23e1 d93f dd24 ba3f 3714 22c0 cafc 4d3f
00000080: 8a74 ffbf 812b 0540 0c8a 80bf ae12 1f3f
00000090: 2c5d 81bf 3980 f93e 6e52 adbf 203d 3b3f
000000a0: f292 003f 9c03 f93e 2273 0d3f d54b 55bd
000000b0: 4748 08be 637a 563e a5e6 b0bf 7588 a73d
000000c0: 7ef3 113f 6717 a83f 8700 9e3f aea8 503f
000000d0: 3d78 d7bd 0709 95bf 06b2 b4bf 4265 513f
000000e0: 52ac 173e d90c 89bf f4c0 a43f c18a d83f
000000f0: 4108 c4ba 62ff fe3d 9139 423f 6cbf 343e
00000100: 73df 3cbf 102b 473e 837b fc3f 81f2 41c0
00000110: 1839 f9be 7a37 e7bf 965f f43e 00f2 76bf
00000120: 7158 d83f c724 993f d08a 9bbf d234 0ebf
00000130: 5f3f 9cbf 613b 39c0 8cb9 6f3e 2760 dabe
00000140: 803f 8dbf a265 a9bf 96a7 bdbe 0f26 95bd
00000150: 4eba fc3f 99f8 43be ff20 853f 7539 8bbf
00000160: 04d0 7dbf 89d2 2d3f f60f 7abf 86d4 e93e
00000170: a545 aabf 79a8 e2be a0db b8bf bb77 d43f
00000180: 1e12 21c0 dd78 953f e1c1 3ebf 606f e8bf
00000190: ad2f 573f 996f 963f 0b15 36bf d541 9a3e
000001a0: 8dce 283f 08e4 463f 3ec5 a33e de2b 903f
000001b0: df12 05be f306 2ebf a384 bbbe dd16 c0bf
000001c0: 12ef d1bf 8baf b0bd 1bf0 b9bf f167 453f
000001d0: c68a c43f d805 90bf df0d 47c0 25c6 7abf
000001e0: 8f8b cb3e 3316 7e3f d6f1 96be 6316 73bf
000001f0: 87d8 c23f 60be 2940 6911 2c3f 6b1f 253f
00000200: fb7a d73e 3559 07bf a981 02c0 bfee 6f3e
00000210: 45e5 9ebf b34f 03bf c405 cdbe 89ac f7bf
00000220: 1ee3 2ebf 4b4b ec3e a15c a53f e53f f0be
00000230: 96c6 8bbf d35b 95be e0a7 b6bf 8858 08bc
00000240: 08f3 593f c8db 143e 28a1 9ebf 6672 0e3f
00000250: 4661 24bf b2f3 62be deea 353f 84ad 9cbf
00000260: ee33 90bf 2140 e13f 4d1c 8bbf bf00 f43f
00000270: 42e5 6d3f 03f4 a83d 967b 7040 f191 d2bf
00000280: 7958 8cbf d397 2340 085b 493f b4dd 54bd
00000290: 7d81 12bf bb58 1ebe f16b cd3f 081b 823f
000002a0: 7b80 c5bf d506 8f3f 094a 18bb 346e 03bf
000002b0: 4fc2 053f 69da d6be eea7 8b3f 11b1 38bf
000002c0: 02e3 ab3e dbe4 3d3f ea83 a43e 8080 71be
000002d0: 9fc3 48bf fdd0 b23f 5ebc 41be 8d27 233f
000002e0: 28a8 983f 5b1b b83e e85d 08bf 4c95 923f
000002f0: 7196 293e 4fe2 063f 2584 663c d058 78be
00000300: 829e 77bf 1e96 a63f d7d3 77bf a449 20c0
00000310: e403 0dbf 6425 a5bf d387 52bd 5c10 4bbf
00000320: f011 0c3f bd75 dd3f c352 d3bd 58e0 54be
00000330: 6832 2ac0 4b4e c23f b7b0 823d 0140 2f40
00000340: 1b3e 99bf 254b 03be 7304 a0bf e4cd d43e
00000350: 517e cc3f 5009 a5be 406c a4bf 9aa5 febe
00000360: 1cdb f7bf ac8e a13f d0e6 1d3d 44a8 66bf
00000370: fe30 b13e b56f 32bf fee8 b23e 2461 903e
00000380: 28c8 e0be 3119 1240 20fa 0abf bcc2 42bf
00000390: 4be2 553e 6502 ea3f be3b a2be e074 283f
000003a0: dc41 b93f 5ea9 b53f 9bdb ccbc ff43 603f
000003b0: 499a a5bf 5130 273e 854c 67be 4a7a 70bf
000003c0: 65d7 133f e69b 803f 4c6b bcbf 0fb4 fb3d
000003d0: a770 99be 61a6 7dbf 2e62 8f3f 6973 4b3f
000003e0: e500 bc3e 3dd4 dcbe 8d03 053f 78ca 2d3f
000003f0: 8bf9 71bf df9a 68bf b738 0a40 eeae f33e

w_group.0.weight f4 [64, 8]
-0.04576143 0.021934621 0.22647901 -0.2800673 -0.3460355 0.03492832 -0.08448723 0.02590941
-0.27665675 -0.45568755 -0.7008424 0.059099298 0.23725198 -0.21760805 -0.29878092 -0.39522
-0.59874636 -0.19708364 -0.42429408 -0.10921399 -0.45693344 -0.28499758 -0.5603917 -0.80446523
-0.36017728 0.06495669 0.34772214 -0.45144546 -0.24702524 0.22462556 -0.40443596 0.15591636
-0.087846056 -0.03132238 0.6235349 0.37006658 0.020218633 0.16308728 -0.23026238 -0.3407861
-0.27857533 -0.17391993 -0.112350166 -0.71533763 -1.2473266 0.27792427 0.2796649 -0.20437697
-0.52953213 0.40563458 0.14525712 1.6486205 -0.44857287 -0.15967008 -0.62453175 -0.36362943
-0.24548778 -0.01003244 1.2836672 -1.5205183 0.20088552 -0.21350536 0.03187483 -0.42453787
-0.13158426 -0.024560992 -0.5363303 0.35070285 -0.3258635 -0.2173239 -0.3142844 -0.35389635
-0.008546803 -0.35977817 -0.5191938 -0.5932035 0.7707191 0.12359971 -0.41356912 -0.6262441
-0.07001001 0.029605739 -0.73817235 0.36638305 -0.027365346 -0.087539226 0.08126433 0.1224999
-0.6695187 0.17664878 -0.68230516 0.40914193 -0.61169714 0.037667513 -0.39605403 -0.29618505
0.48750883 -0.53533494 0.29123986 0.3963647 -0.57725805 -0.1911982 -0.23757224 -0.5535462
0.7571772 0.66707146 1.3382549 1.5469356 -0.73345935 -0.030810446 -0.523851 -0.59899485
-0.11715443 -0.3228951 0.49539566 1.2017353 -0.36261582 -0.15872827 -0.5836206 -0.7692421
0.7796458 -0.21857856 0.009557032 -0.8874654 -0.05101729 0.18348262 -0.67758465 -0.8627493
0.050952602 -0.14098229 -1.792722 0.31867397 0.15398115 -0.31938532 -0.12517671 -0.19660759
-0.0017294011 0.28982216 -0.5568326 -0.01067612 -0.9105174 -0.09773588 -0.37529168 -0.28634524
-0.054879848 -0.004337151 -0.51752245 0.1865407 -1.2021401 -0.00324139 -0.03388048 -0.14756489
-0.05874606 -0.008367851 0.07541764 0.38786146 0.3202276 0.22083536 -0.24490875 -0.20180325
-0.28574476 -0.7031902 -0.06345576 0.5869885 -0.07910726 0.16921219 -0.29738188 -0.5620294
-0.24457152 -0.37919033 -0.14451599 -0.11587431 -0.6226784 -0.106443375 -0.76738775 -0.8692254
0.22875486 -0.070369594 1.2451575 -1.1375368 -1.5365031 -0.32108745 -0.17264913 -0.451769
0.59430736 0.10234516 0.30264676 -1.1636909 -0.13615634 0.18771985 -0.31098178 -0.07444707
0.7896992 -0.100357845 0.4268793 -0.33129138 -0.11919258 0.29122373 0.15088508 0.021182723
0.1674357 -0.24046892 0.91381925 0.34859937 -0.55131704 0.056746334 -0.53704566 -0.4218041
0.21938133 0.14655277 0.64738756 0.7426425 -0.42062488 0.21359083 -0.5081051 -0.16913278
0.52724445 0.79137135 0.26314658 0.26766676 -0.38273817 -0.012721986 -0.4260531 -0.013948398
-0.33959845 0.053106748 -0.40248957 0.038016602 0.24382854 -0.34581098 -0.43543488 -0.5473224
-0.42248955 -0.3790222 0.7860714 -0.30220684 -1.0409125 0.19311288 -0.65084064 -0.67330766
-0.028857093 -0.0578262 -0.41023433 -2.1473305 -0.36722955 -0.13085526 0.10450584 0.09974061
0.009585392 -0.37167677 -0.61100024 -0.086015634 -0.5102591 -0.102611214 -0.60977083 -0.49788895
00000000: 5670 3bbd 3cb0 b33c 1dea 673e fb64 8fbe
00000010: 912b b1be 0011 0f3d a407 adbd f93f d43c
00000020: f4a5 8dbe e14f e9be 686a 33bf 1b12 723d
00000030: 2ff2 723e a5d4 5ebe d0f9 98be 475a cabe
00000040: 7147 19bf 4bd0 49be 133d d9be 96ab dfbd
00000050: 2ef3 e9be 34eb 91be d575 0fbf 6ff1 4dbf
00000060: 2869 b8be 0308 853d a308 b23e dc23 e7be
00000070: 2ff4 7cbe 3e04 663e 3b12 cfbe 8aa8 1f3e
00000080: a2e8 b3bd e54b 00bd fc9f 1f3f 5e79 bd3e
00000090: 8ca1 a53c 5a00 273e e7c9 6bbe 847b aebe
000000a0: 6da1 8ebe 1118 32be d817 e6bd 5e20 37bf
000000b0: 66a8 9fbf 174c 8e3e 3d30 8f3e 3248 51be
000000c0: 6b8f 07bf 56af cf3e 48be 143e ff05 d33f
000000d0: 58ab e5be 8e80 23be 50e1 1fbf a32d babe
000000e0: 2661 7bbe 1a5f 24bc 354f a43f 58a0 c2bf
000000f0: efb4 4d3e 26a1 5abe 2f8f 023d 075d d9be
00000100: 06be 06be 2234 c9bc f14c 09bf 538f b33e
00000110: 95d7 a6be 288a 5ebe e3e9 a0be e731 b5be
00000120: e407 0cbc d834 b8be e3e9 04bf 2fdc 17bf
00000130: d94d 453f d821 fd3d 55bf d3be 8951 20bf
00000140: 6861 8fbd bc87 f23c ddf8 3cbf 8f96 bb3e
00000150: 4a2d e0bc c447 b3bd ea6d a63d 3ae1 fa3d
00000160: 9465 2bbf 6be3 343e 8dab 2ebf 0d7b d13e
00000170: 2f98 1cbf 4049 1a3d 98c7 cabe 91a5 97be
00000180: c29a f93e b60b 09bf 641d 953e 50f0 ca3e
00000190: 2fc7 13bf 76c9 43be 2346 73be 34b5 0dbf
000001a0: 5dd6 413f 32c5 2a3f f04b ab3f fc01 c63f
000001b0: fec3 3bbf 3066 fcbc 191b 06bf ba57 19bf
000001c0: a9ee efbd 8252 a5be 80a4 fd3e 76d2 993f
000001d0: c8a8 b9be aa89 22be 2968 15bf 0ded 44bf
000001e0: de96 473f 0fd3 5fbe 1995 1c3c ef30 63bf
000001f0: 82f7 50bd dee2 3b3e 3076 2dbf 23dd 5cbf
00000200: adb3 503d a95d 10be ea77 e5bf 3c29 a33e
00000210: 3cad 1d3e 7986 a3be 532e 00be 8053 49be
00000220: 12ad e2ba 9263 943e 958c 0ebf e5ea 2ebc
00000230: ab17 69bf c029 c8bd 3b26 c0be d89b 92be
00000240: b1c9 60bd a91e 8ebb 5a7c 04bf 8604 3f3e
00000250: badf 99bf 806d 54bb 42c6 0abd 401b 17be
00000260: b59f 70bd 5019 09bc 9074 9a3d c795 c63e
00000270: dff4 a33e aa22 623e 5cc9 7abe 83a5 4ebe
00000280: 234d 92be 4604 34bf 18f5 81bd e144 163f
00000290: fd02 a2bd f645 2d3e 7042 98be 29e1 0fbf
000002a0: f570 7abe 3c25 c2be 00fc 13be 834f edbd
000002b0: da67 1fbf fcfe d9bd 8673 44bf 8e85 5ebf
000002c0: b73e 6a3e ef1d 90bd 5261 9f3f ce9a 91bf
000002d0: 22ac c4bf 9365 a4be efca 30be 444e e7be
000002e0: 8724 183f 579a d13d 84f4 9a3e d3f3 94bf
000002f0: 916c 0bbe a239 403e 0139 9fbe b577 98bd
00000300: ba29 4a3f 6a88 cdbd ec8f da3e 069f a9be
00000310: 3d1b f4bd 471b 953e 9e81 1a3e 6487 ad3c
00000320: 4474 2b3e 7c3d 76be 0ff0 693f 9e7b b23e
00000330: 1d23 0dbf d86e 683d d37b 09bf b5f6 d7be
00000340: 80a5 603e ee11 163e 31bb 253f d21d 3e3f
00000350: 255c d7be 8eb7 5a3e 2d13 02bf 2531 2dbe
00000360: 7ef9 063f 5097 4a3f 26bb 863e 9e0b 893e
00000370: 42f6 c3be e06f 50bc a223 dabe d287 64bc
00000380: d9df adbe 7686 593d 1d13 cebe 4cb7 1b3d
00000390: 30ae 793e 230e b1be 52f1 debe 521d 0cbf
000003a0: 8d50 d8be 330f c2be fa3b 493f dbba 9abe
000003b0: 9f3c 85bf 62bf 453e 7e9d 26bf e45d 2cbf
000003c0: b665 ecbc 2adb 6cbd 3c0a d2be dd6d 09c0
000003d0: 8305 bcbe ecfe 05be 2807 d63d ce44 cc3d
000003e0: 0c0c 1d3c 6b4c bebe 836a 1cbf f728 b0bd
000003f0: 57a0 02bf d425 d2bd f119 1cbf 4deb febe

w_group.0.bias f4 [64]
-0.30203402 -0.45789438 -0.8119169 -0.39525312 -0.45923096 -0.35392717 -0.37920365 -0.527889
-0.56678915 -0.36826733 -0.19196385 -0.53820693 -0.5152546 -0.36223692 -0.52984947 -0.31411672
-0.24367338 -0.06514861 -0.54107046 0.13597502 -0.55188686 -0.8816184 -0.783772 -0.42853963
-0.1903387 -0.7558258 -0.4778299 -0.057100166 0.0033370964 -0.5068473 0.06125416 -0.54652476
-0.33569187 -0.63316566 -0.09173928 -0.1523027 -0.6052786 0.26118377 -0.42091417 -0.5261219
0.13665107 -0.3536315 -0.5968947 -0.35005334 0.0022513848 -0.16046609 -0.03649356 0.14078999
-0.116508715 0.09769743 -0.59341043 -0.07619138 -0.41219994 -0.4425943 -0.24284057 -0.15455881
-0.737646 -0.3065061 -0.17248367 -0.06694597 -0.12944344 -0.42022124 -0.23647466 -0.064899996
00000000: 34a4 9abe 2271 eabe c9d9 4fbf 9e5e cabe
00000010: 5220 ebbe f135 b5be fb26 c2be bc23 07bf
00000020: 1819 11bf 898d bcbe 2c92 44be eec7 09bf
00000030: bae7 03bf 1e77 b9be 37a4 07bf e8d3 a0be
00000040: 8485 79be a26c 85bd 9883 0abf 093d 0b3e
00000050: 7548 0dbf beb1 61bf 48a5 48bf 8c69 dbbe
00000060: 26e8 42be cd7d 41bf 1fa6 f4be dde1 69bd
00000070: 30b3 5a3b bfc0 01bf a4e5 7a3d 0ce9 0bbf
00000080: cedf abbe 2517 22bf cee1 bbbd 3df5 1bbe
00000090: 8af3 1abf e1b9 853e 1082 d7be edaf 06bf
000000a0: 42ee 0b3e 300f b5be 17ce 18bf 313a b3be
000000b0: f88b 133b 3951 24be 457a 15bd 402b 103e
000000c0: 1f9c eebd 9715 c83d bfe9 17bf 3a0a 9cbd
000000d0: df0b d3be b89b e2be 33ab 78be aa44 1ebe
000000e0: 5ed6 3cbf 5eee 9cbe 8f9f 30be f81a 89bd
000000f0: d28c 04be 3d27 d7be 6a26 72be 4aea 84bd

w_group.2.weight f4 [32, 64]
0.091508895 -0.10892332 -0.052545406 -0.11668077 0.022593003 0.062156472 -0.15759629 0.006797738
-0.053297307 -0.018213945 -0.0368855 0.065699086 -0.093241066 -0.02719982 -0.029710392 0.074093744
-0.029416293 -0.15265222 0.046517964 -0.13999027 -0.12285737 -0.15060884 -0.08974977 -0.030347187
0.025096355 0.07667373 -0.12307346 0.08454479 0.048014943 -0.044885572 0.07626608 0.08019896
0.020036891 -0.056389093 0.050611697 0.025281675 -0.048331894 0.062860064 0.087866195 -0.13042465
-0.120757446 0.024448179 -0.0545095 -0.18803613 0.09308473 -0.008229868 -0.16443516 -0.12403822
-0.19290446 0.019602885 -0.0062838206 0.06477338 -0.023882026 0.09005574 -0.06256127 -0.022351822
0.085384935 -0.111482106 -0.03812998 -0.108198225 -0.0809807 -0.15444247 -0.07175735 -0.15992938
0.033342134 0.25335917 0.16798775 0.15589747 -0.09398307 0.33254707 -0.23919237 0.110640496
-0.13787013 0.19299343 -0.76181424 0.15371592 0.20610088 0.9969243 0.118073076 -0.2078019
0.3352037 -0.43905765 -0.06659615 0.08640452 0.48099944 -0.18189472 0.1643038 -0.0111690145
-0.13268568 -0.051625747 0.42547667 0.28561425 -0.0041335733 0.04673677 0.09042831 0.1532824
-0.6742378 0.4725906 0.34477422 0.33548573 -0.043621678 -0.18239768 0.19676596 0.013100046
-0.056082092 0.79808664 0.12569365 -0.4498077 -0.037259746 -0.10154476 -0.6229842 0.095226824
-0.12002639 0.0549172 -0.13795853 0.5315884 -0.12816897 0.6925625 0.09623449 -0.43666154
-0.65056306 0.08395303 -0.44231206 -0.17390218 0.22720689 0.1079275 0.008248015 0.10811954
-0.14253594 0.44788527 -0.11456999 -0.0056264764 -0.039773304 -0.00091319834 0.11561206 0.2563741
0.036577225 0.105691485 -0.14718477 0.55846685 -0.4912438 0.25393015 -0.29392552 -0.19202293
-0.19207683 -0.260609 0.20659477 -0.010797695 -0.74105555 -0.44355255 -0.6501242 0.39001164
-0.0022434625 -0.28661788 -0.02940209 -0.09608324 0.19114485 0.09476341 -0.044788036 -0.8420569
-0.96200335 -0.42186347 0.2951238 0.18053384 -0.10349592 0.13362998 0.0004914659 -0.09110424
-0.25437984 0.21308787 0.111501515 -0.2850139 0.27735755 -0.12847836 0.13266878 0.023241296
0.016751599 -0.94685876 0.07337971 0.09161263 -0.08308716 0.44347692 -0.09460621 -0.0016056988
0.53892404 0.0065882746 0.126631 -0.0326659 -0.030217161 0.008054714 -0.12382835 -0.25398058
0.057760164 -0.0981361 0.12239453 -0.004975162 -0.014189762 -0.12689695 -0.13147701 -0.14244673
-0.11488264 -0.14384429 -0.097711995 0.003698126 -0.07440745 -0.035362896 -0.11340769 -0.032204323
-0.049642567 2.15487e-06 -0.048646368 -0.08276573 0.06494288 0.050313324 -0.16563894 -0.14866525
0.028090874 -0.1797527 -0.0623858 0.019658422 0.10848307 -0.039411012 -0.11656039 0.064018115
0.024349444 0.10063436 -0.021862969 -0.081443176 0.04409659 -0.14619762 0.012786337 -0.1558473
-0.11001147 -0.08525288 0.04231731 0.008705798 -0.037442725 0.071650706 -0.1655797 0.12419239
-0.05961924 0.073730305 0.08957936 -0.0011612345 0.021427436 0.063271455 -0.1554672 -0.013628757
0.049467057 0.0085105 -0.03557751 0.017407525 0.022573467 -0.17135146 0.011929512 -0.1413021
00000000: 0469 bb3d 3113 dfbd da39 57bd 54f6 eebd
00000010: f614 b93c c997 7e3d ec60 21be 8fbf de3b
00000020: 474e 5abd 6935 95bc 4015 17bd 3e8d 863d
00000030: 2cf5 bebd 28d2 debc 3563 f3bc 76be 973d
00000040: 70fa f0bc dd50 1cbe 9f89 3e3d 9c59 0fbe
00000050: a59c fbbd 3439 1abe bace b7bd aa9a f8bc
00000060: df96 cd3c 1e07 9d3d f00d fcbd d225 ad3d
00000070: 51ab 443d efd9 37bd 6431 9c3d 5a3f a43d
00000080: 6824 a43c 40f8 66bd 364e 4f3d 841b cf3c
00000090: aaf7 45bd c7bc 803d 31f3 b33d 0a8e 05be
000000a0: ae4f f7bd 8c47 c83c 5a45 5fbd 8b8c 40be
000000b0: 35a3 be3d 91d6 06bc b161 28be c007 febd
000000c0: bf88 45be 3b96 a03c 82e8 cdbb e8a7 843d
000000d0: 3da4 c3bc 256f b83d 2020 80bd 2b1b b7bc
000000e0: 4cde ae3d bb50 e4bd 2f2e 1cbd 0897 ddbd
000000f0: 36d9 a5bd 2b26 1ebe 84f5 92bd 87c4 23be
00000100: c391 083d 4bb8 813e fb04 2c3e 96a3 1f3e
00000110: 327a c0bd 9c43 aa3e d8ee 74be 7c97 e23d
00000120: d42d 0dbe 12a0 453e 4206 43bf b567 1d3e
00000130: 1c0c 533e 6e36 7f3f 4cd0 f13d 05ca 54be
00000140: d29f ab3e 2acc e0be 9063 88bd daf4 b03d
00000150: 8f45 f63e 9c42 3abe 413f 283e 3efe 36bc
00000160: c1de 07be 8575 53bd 14d8 d93e 083c 923e
00000170: ed72 87bb 0e6f 3f3d 7a32 b93d 10f6 1c3e
00000180: d99a 2cbf 65f7 f13e 3f86 b03e c9c4 ab3e
00000190: a5ac 32bd 75c6 3abe 047d 493e 93a1 563c
000001a0: 56b6 65bd 684f 4c3f d6b5 003e 324d e6be
000001b0: ad9d 18bd b3f6 cfbd e47b 1fbf 4806 c33d
000001c0: 65d0 f5bd dcf0 603d 0045 0dbe 2d16 083f
000001d0: ba3e 03be c74b 313f 9716 c53d 1a92 dfbe
000001e0: 4d8b 26bf 91ef ab3d ba76 e2be 6a13 32be
000001f0: eca8 683e 1809 dd3d af22 073c c76d dd3d
00000200: f1f4 11be 3851 e53e aca3 eabd 4e5e b8bb
00000210: 55e9 22bd b463 6fba 04c6 ec3d 7743 833e
00000220: 00d2 153d c774 d83d 9bb7 16be aff7 0e3f
00000230: 4f84 fbbe 2203 823e 687d 96be a9a1 44be
00000240: caaf 44be 8b6e 85be 948d 533e d1e8 30bc
00000250: d1b5 3dbf 5219 e3be 8a6e 26bf 9baf c73e
00000260: 0e07 13bb 94bf 92be a7dc f0bc 4ac7 c4bd
00000270: 7abb 433e 5213 c23d a973 37bd 0a91 57bf
00000280: da45 76bf 7dfe d7be 771a 973e dddd 383e
00000290: abf5 d3bd 4cd6 083e b8d5 003a dc94 babd
000002a0: 133e 82be b533 5a3e e85a e43d 58ed 91be
000002b0: cf01 8e3e d58f 03be 53da 073e 8864 be3c
000002c0: a63a 893c 5665 72bf 1a48 963d 679f bb3d
000002d0: 9a29 aabd 680f e33e e7c0 c1bd 5076 d2ba
000002e0: edf6 093f 74e2 d73b 8fab 013e aecc 05bd
000002f0: fb89 f7bc ebf7 033c b899 fdbd be09 82be
00000300: ec95 6c3d 94fb c8bd fca9 fa3d af06 a3bb
00000310: 2d7c 68bc 46f1 01be e9a1 06be 8edd 11be
00000320: 9747 ebbd eb4b 13be 3a1d c8bd 425c 723b
00000330: ef62 98bd afd8 10bd 4a42 e8bd aee8 03bd
00000340: 0156 4bbd 629c 1036 6a41 47bd 1481 a9bd
00000350: c600 853d 5815 4e3d 419d 29be b43b 18be
00000360: d51e e63c 1711 38be 4188 7fbd b30a a13c
00000370: 5f2c de3d 716d 21bd 37b7 eebd ee1b 833d
00000380: 7c78 c73c 6319 ce3d f819 b3bc aecb a6bd
00000390: a09e 343d d4b4 15be c97d 513c 6f96 1fbe
000003a0: b24d e1bd 1099 aebd ea54 2d3d c3a2 0e3c
000003b0: 8b5d 19bd 9bbd 923d ba8d 29be 9458 fe3d
000003c0: 4e33 74bd eaff 963d 6275 b73d 9034 98ba
000003d0: 9788 af3c 7794 813d cb32 1fbe 264b 5fbc
000003e0: f89d 4a3d a06f 0b3c b9b9 11bd 3a9a 8e3c
000003f0: feeb b83c c276 2fbe 0074 433c 7fb1 10be

w_group.2.bias f4 [32]
-0.18312243 -0.6745366 0.6845248 -0.19588071 0.7572459 0.027186684 -0.26605597 0.3589596
-0.3092312 -0.6985836 -0.016942043 0.676225 0.43482807 0.05219161 -0.37099478 -0.47274873
-0.37752333 0.10196955 0.29418063 0.5947663 0.10578428 0.22237305 1.0363467 -0.5569646
-0.7181145 -0.05505291 -0.43072122 -0.095709085 -0.086041294 0.49688676 -0.20153892 0.72857946
00000000: 7284 3bbe 6eae 2cbf 043d 2f3f f494 48be
00000010: deda 413f 9cb6 de3c 7d38 88be 8dc9 b73e
00000020: 8d53 9ebe 60d6 32bf 0aca 8abc 151d 2d3f
00000030: c9a1 de3e dfc6 553d 07f3 bdbe 1f0c f2be
00000040: bd4a c1be 69d5 d03d d89e 963e 9b42 183f
00000050: 6ea5 d83d c3b5 633e 02a7 843f 3b95 0ebf
00000060: 5ad6 37bf 297f 61bd 7e87 dcbe 2003 c4bd
00000070: 6b36 b0bd f167 fe3e 3860 4ebe 2f84 3a3f

w_agents.0.weight f4 [64, 5]
0.48860767 -0.16345026 0.55835813 -0.27035347 0.2945679 -0.017404333 0.0012577131 0.008566786
-0.43946847 -0.4252466 -0.0112251 0.040985752 0.074353345 -0.7945724 -0.14380097 0.076584
-0.049157053 0.33777216 0.97847223 -1.2194973 0.018835768 -0.06586034 0.59846425 -0.6783789
0.0034754132 -0.2674044 -0.58728456 0.06818357 0.15189496 0.16805917 0.21000353 0.039454464
-0.8614823 0.1123087 -0.14168537 0.3451121 -0.0515446 -0.72234267 0.006858263 -0.6321997
0.024855368 0.0038171192 0.067317165 -0.4855866 -0.6134761 -0.0069781523 -0.007933666 -0.07646945
-0.24420731 -0.43082204 0.0011472629 -0.007367084 0.11405555 0.072450295 -0.12720484 -0.035610467
-0.06295223 0.24916916 -0.29508036 -0.302639 0.21130642 -0.2882291 -0.23813723 -0.9689058
-0.6262487 -0.023436755 0.0019978133 -0.28213653 -0.11951639 -0.07499435 0.023327556 0.051713094
0.1783468 0.39409077 -0.59494656 -0.059309363 -0.080529384 0.2482177 0.30406785 -0.8222426
0.087171026 -0.01403993 -0.5988257 1.3568082 -0.6456623 -0.034691352 0.031600405 0.18783377
0.19606923 -0.38632318 -0.0778728 -0.27225047 1.1519321 1.8059311 -1.597073 -0.0075931633
0.0004938974 -0.13614947 -0.16489588 -0.58619654 -0.26464576 -0.26578102 0.40370014 0.14355701
-1.5559567 0.12188391 0.097753346 0.036918875 1.1929808 -1.0087649 -0.024697943 -0.021783732
0.09630693 -0.1724765 -0.047838762 -0.022107547 -0.0028107583 -0.25237975 -0.07228451 -0.7363874
-0.058803074 -0.09092881 -0.9767778 0.0009837328 -0.054098085 -0.0046573607 0.037068065 0.07713956
0.5393268 -0.43388957 -0.01931702 -0.010296935 0.027024314 -0.15463586 -0.24048027 0.20014818
0.38947096 -0.49410987 -0.32618156 -0.5187497 -0.21053435 0.32374376 -0.093788356 0.35810596
-0.8293002 0.34353942 -0.16207348 0.40815145 0.026320897 -0.6377641 -0.3042451 -0.027392257
-0.8338201 0.22653632 -0.47616512 0.15277332 -0.0189907 -0.18395731 0.28047878 -0.9309236
-0.13261579 0.24444619 -0.9007152 1.3674918 -0.42641512 0.06464753 0.08122046 -0.5091007
0.69324684 -0.58908355 0.006393971 0.04607231 0.09215387 0.088949405 -0.057354547 0.26046056
-0.08930354 0.32173726 -0.5605821 -0.67897564 -0.02537921 0.07042001 -0.06845126 0.60494035
-0.3750228 0.21795543 0.29526383 -1.2895349 -0.03653139 -0.7260457 0.015263818 0.008121885
0.07946422 -0.379256 -0.7045358 0.16861507 0.2350282 0.24864855 0.3676146 -1.3705918
0.024503319 -0.06764076 -0.6023654 -0.27805504 -0.70890844 0.06792212 0.026692014 -0.20057648
1.2612927 -0.9038781 -0.32903257 -0.1796041 0.3697353 0.6264152 -0.60013974 0.31367302
-0.25057426 -0.6532742 0.5516011 -0.67531306 0.05553091 0.15625031 -0.18371241 0.5973237
-0.42476505 -0.039142605 0.55352 -0.1911255 0.61163825 -0.41338098 -0.02189771 -0.016592935
-0.5959682 1.2294377 -1.2364924 0.0009772303 0.0970079 -0.57047135 0.34577253 -1.0080063
-0.2546407 -0.00780427 -0.04617859 1.6388048 -1.027115 -0.3156122 -0.31733805 0.70122415
-0.007919091 -0.41886353 0.07033328 -0.011503027 0.15379214 -0.99447435 0.12616153 0.005019877
00000000: c92a fa3e 815f 27be 8ff0 0e3f c56b 8abe
00000010: 9bd1 963e 8893 8ebc d9d9 a43a b45b 0c3c
00000020: 0302 e1be ecb9 d9be 7be9 37bc ade0 273d
00000030: 9146 983d 1969 4bbf 9040 13be 12d8 9c3d
00000040: e858 49bd 79f0 ac3e 287d 7a3f 7d18 9cbf
00000050: 784d 9a3c c9e1 86bd f434 193f 3daa 2dbf
00000060: c2c3 633b 3be9 88be 4858 16bf d4a3 8b3d
00000070: 5a8a 1b3e b417 2c3e 2a0b 573e 019b 213d
00000080: 1b8a 5cbf 1b02 e63d f815 11be 88b2 b03e
00000090: 6e20 53bd 73eb 38bf 48bb e03b d7d7 21bf
000000a0: 7c9d cb3c a228 7a3b 95dd 893d cf9e f8be
000000b0: c50c 1dbf fca8 e4bb 35fc 01bc 049c 9cbd
000000c0: 7b11 7abe b594 dcbe c15f 963a 9467 f1bb
000000d0: f595 e93d d260 943d fc41 02be 48dc 11bd
000000e0: 19ed 80bd 3326 7f3e c614 97be 80f3 9abe
000000f0: b660 583e c492 93be 3fda 73be 360a 78bf
00000100: d651 20bf 70fe bfbc bfed 023b 3374 90be
00000110: 02c5 f4bd a396 99bd 6e19 bf3c 1cd1 533d
00000120: 8ba0 363e 44c6 c93e 6b4e 18bf 60ee 72bd
00000130: 97ec a4bd c82c 7e3e c8ae 9b3e 7e7e 52bf
00000140: b986 b23d bc07 66bc a44c 19bf e4ab ad3f
00000150: 204a 25bf 8518 0ebd 6d6f 013d 7f57 403e
00000160: 5fc6 483e 27cc c5be c67b 9fbd 6a64 8bbe
00000170: 8372 933f c028 e73f e36c ccbf 12d0 f8bb
00000180: e578 013a c46a 0bbe 77da 28be fa10 16bf
00000190: a67f 87be 7314 88be c9b1 ce3e 9c00 133e
000001a0: 9729 c7bf 459e f93d e832 c83d 3f38 173d
000001b0: 98b3 983f 351f 81bf 5753 cabc cc73 b2bc
000001c0: 913c c53d ae9d 30be 94f2 43bd e31a b5bc
000001d0: b334 38bb eb37 81be e709 94bd e283 3cbf
000001e0: 7edb 70bd e238 babd 1c0e 7abf 98f0 803a
000001f0: f495 5dbd c69c 98bb afd4 173d 58fb 9d3d
00000200: 5211 0a3f c626 debe ba3e 9ebc 7ab4 28bc
00000210: 1862 dd3c dd58 1ebe 7640 76be a5f3 4c3e
00000220: bd68 c73e f8fb fcbe 4501 a7be c8cc 04bf
00000230: 5196 57be bec1 a53e 1c14 c0bd aa59 b73e
00000240: 054d 54bf 66e4 af3e 97f6 25be 3af9 d03e
00000250: ec9e d73c 8244 23bf 04c6 9bbe ba65 e0bc
00000260: 3c75 55bf 23f9 673e eacb f3be 9c70 1c3e
00000270: 6292 9bbc 4e5f 3cbe ea9a 8f3e 0251 6ebf
00000280: 6fcc 07be 1a50 7a3e 4595 66bf f909 af3f
00000290: 1553 dabe ed65 843d ea56 a63d 6c54 02bf
000002a0: a078 313f 2ece 16bf 8484 d13b 52b6 3c3d
000002b0: 2bbb bc3d 1b2b b63d 9aec 6abd 165b 853e
000002c0: c6e4 b6bd bfba a43e 4f82 0fbf 59d1 2dbf
000002d0: 10e8 cfbc 5e38 903d 2d30 8cbd 5fdd 1a3f
000002e0: fd02 c0be b52f 5f3e d22c 973e 7b0f a5bf
000002f0: f0a1 15bd 22de 39bf 1815 7a3c a811 053c
00000300: 23be a23d d82d c2be 755c 34bf 6ea9 2c3e
00000310: 3cab 703e ba9d 7e3e fb37 bc3e 8d6f afbf
00000320: 2fbb c83c 3d87 8abd 9e34 1abf 3b5d 8ebe
00000330: 067b 35bf c11a 8b3d 36a9 da3c ec63 4dbe
00000340: 0a72 a13f 8e64 67bf f576 a8be 23ea 37be
00000350: f24d bd3e bf5c 203f c2a2 19bf c099 a03e
00000360: 454b 80be fa3c 27bf bb35 0d3f 51e1 2cbf
00000370: 6174 633d 1500 203e 1b1f 3cbe 35ea 183f
00000380: ce7a d9be ff53 20bd 7db3 0d3f 67b6 43be
00000390: 5394 1c3f aca6 d3be d462 b3bc e8ed 87bc
000003a0: 5f91 18bf 375e 9d3f 6245 9ebf 6816 803a
000003b0: 14ac c63d 690a 12bf 1909 b13e 5a06 81bf
000003c0: 4460 82be f6ba ffbb c325 3dbd 5bc4 d13f
000003d0: 8178 83bf ec97 a1be 227a a2be 6d83 333f
000003e0: 13bf 01bc 4875 d6be e50a 903d 3177 3cbc
000003f0: b07b 1d3e df95 7ebf 7d30 013e c87d a43b

w_agents.0.bias f4 [64]
-0.5327866 -0.35539472 -0.2626082 -0.7692233 -0.55320674 -0.059711296 -0.19610098 -0.2837384
-0.3365476 -0.20016065 -0.15418409 -0.61532676 -0.91832215 -0.43256292 -0.2896516 -0.88186884
-0.8695804 -0.3240393 -1.3630701 -0.07363088 -0.9919151 -0.91718245 -0.51352245 -0.19384792
-0.19718646 -0.42999622 -0.34432045 -0.35073927 -0.8434077 -0.34851456 -0.7992663 -0.9076237
-0.20753123 -0.77449626 -0.35084164 -0.8575698 -0.52590984 -1.0241206 -0.22341247 -1.0691965
-0.6714228 -0.57580703 -1.0486752 -1.0573034 -0.73887557 -1.0077405 -0.7416538 -0.37090746
-0.40192753 -0.58882844 -0.66424805 0.010932574 -0.16656351 0.06394076 -0.25563738 -0.9401602
-0.7041177 -0.42178175 -0.65305495 -0.37101322 -0.40156576 -1.2748525 -0.31527522 -0.41278756
00000000: b464 08bf 4cf6 b5be 9574 86be d1eb 44bf
00000010: f59e 0dbf d593 74bd b2ce 48be 2946 91be
00000020: f84f acbe eaf6 4cbe 6fe2 1dbe 0e86 1dbf
00000030: 2917 6bbf e378 ddbe 374d 94be 28c2 61bf
00000040: d29c 5ebf 7be8 a5be 1579 aebf c9cb 96bd
00000050: 26ee 7dbf 78cc 6abf 3576 03bf 1280 46be
00000060: 3feb 49be 7728 dcbe c54a b0be 1994 b3be
00000070: 91e9 57bf 8070 b2be b79c 4cbf 075a 68bf
00000080: 1183 54be 6345 46bf 84a1 b3be b289 5bbf
00000090: 07a2 06bf 6216 83bf 3dc6 64be 6edb 88bf
000000a0: 5de2 2bbf 1768 13bf fd3a 86bf b855 87bf
000000b0: f326 3dbf a4fd 80bf 06dd 3dbf 95e7 bdbe
000000c0: 72c9 cdbe 76bd 16bf 290c 2abf 8a1e 333c
000000d0: a08f 2abe 60f3 823d e7e2 82be 57ae 70bf
000000e0: 0f41 34bf c7f3 d7be 9c2e 27bf 72f5 bdbe
000000f0: 079a cdbe 5e2e a3bf c16b a1be e458 d3be

w_agents.2.weight f4 [32, 64]
0.006304388 -0.036754917 -0.04810283 -0.055119347 -0.08969625 0.03628649 -0.12810044 0.063372344
0.05274796 -0.06830992 -0.028688626 0.041907772 -0.069416076 0.057834838 0.0035675997 0.007547005
-0.07932449 -0.0219126 -0.102975376 -0.15768023 -0.15975128 0.008303587 -0.2017965 -0.093295015
-0.15223022 -0.0031865805 -0.0048737945 -0.08147997 -0.060906675 0.04684973 0.051737264 -0.028177075
0.030838033 -0.10890753 -0.042233232 -0.14387819 -0.11003629 -0.06678541 -0.17994967 -0.040692773
-0.056248993 -0.06747927 0.07367439 0.03958717 0.049208328 0.024124974 -0.091376506 -0.033152085
-0.06684987 0.029117687 -0.067906484 -0.13957825 -0.024383219 -0.13005204 -0.029429572 -0.096878886
-0.0140744 -0.020060668 -0.080379486 0.062238492 0.007186039 0.005677072 -0.08367641 -0.07395324
-2.3786385 -0.4073754 -0.7044329 -1.4591745 -0.4728048 -0.8371167 -0.23238352 -0.2966628
0.09605608 -0.2548328 -0.15566988 0.028334938 -0.7575467 -0.104730904 0.1814294 -0.10105541
0.2249363 -0.3943067 0.4738459 -0.11805999 0.032955512 0.5972631 -0.17740048 0.064148195
-0.08959338 -0.02997451 -0.15033372 0.000998411 -0.9364658 -0.5714826 -0.08928264 -0.26286468
-0.96897745 -0.11099523 -0.26952913 -0.78165233 0.00023969192 0.37798867 -0.2983359 1.0498203
-0.039613515 0.45745733 -0.78906244 -0.06786754 0.3028321 0.09486403 0.08357155 -0.021663113
-0.11878357 -1.1627587 -0.3683335 0.015760181 -0.30518237 0.2845786 -0.13069221 -0.32325178
-0.14371347 0.38863218 -0.47214854 0.0662 0.16667329 0.49677175 0.22083563 -0.20059392
-0.13606422 -0.097538956 -0.045712207 0.06701785 -0.07336845 -0.031653073 -0.103454165 -0.14375527
-0.1144559 0.058852926 -0.01961403 -0.05231962 -0.07874659 -0.09976593 -0.02236686 -0.012733826
-0.084007636 -0.12712209 0.057606228 0.055654477 0.034936965 -0.14234242 0.022198338 -0.08194961
0.105995804 -0.038935497 -0.1461994 0.012902088 -0.04924732 -0.18429956 -0.07803117 0.11262034
-0.09482454 -0.11250417 0.016711954 0.058317 -0.20231555 -0.01644699 -0.0826701 0.0035432852
-0.08474208 0.021648837 0.019337544 -0.037951548 0.12103506 -0.00527011 -0.0476572 -0.024454255
-0.017826514 -0.008133887 0.013231227 0.010872995 -0.12566596 -0.10706818 -0.11453661 0.0059141433
-0.015931768 -0.003170523 0.0043068663 0.03311816 -0.019542322 0.046993002 -0.032801747 0.0553994
-0.2464109 -0.25779644 -0.15055545 0.038156804 -0.032142278 0.09111925 -0.20425972 0.0068694944
-0.25265262 -0.24455746 -0.23839682 -0.042159934 -0.16466874 -0.1954434 -0.24134974 0.030028988
-0.036399838 -0.26738197 0.09650716 0.043732654 0.07663463 -0.18739559 -0.06806556 -0.16593255
-0.06445094 -0.0832283 -0.15133826 -0.13130097 0.09564562 -0.16372062 0.10830594 -0.13006681
0.16192976 -0.22442305 -0.11727584 -0.1575841 0.0007171719 -0.025672829 -0.17474332 -0.087877676
-0.12959869 0.11877279 -0.09365543 -0.0012142806 0.16310705 0.08940205 -0.042288158 -0.009308098
-0.19365051 -0.22066379 -0.30056795 -0.0324441 -0.2701001 -0.10659331 -0.05004309 -0.10788097
-0.024526069 -0.0014463012 -0.032573193 -0.13930626 -0.07823908 0.16673851 -0.17010729 -0.04367464
00000000: 0a95 ce3b 538c 16bd 7907 45bd d3c4 61bd
00000010: abb2 b7bd 24a1 143d c32c 03be 5cc9 813d
00000020: 3f0e 583d 12e6 8bbd 6904 ebbc 7ca7 2b3d
00000030: 042a 8ebd 39e4 6c3d 64ce 693b de4c f73b
00000040: e174 a2bd 0e82 b3bc c1e4 d2bd ed76 21be
00000050: d795 23be c50b 083c bea3 4ebe 7511 bfbd
00000060: 3de2 1bbe f3d5 50bb 5ab4 9fbb f8de a6bd
00000070: 4779 79bd 81e5 3f3d 74ea 533d 9cd3 e6bc
00000080: 0ba0 fc3c e90a dfbd c1fc 2cbd ce54 13be
00000090: b55a e1bd cac6 88bd ba44 38be 77ad 26bd
000000a0: 5865 66bd 9232 8abd 99e2 963d 2826 223d
000000b0: ac8e 493d bda1 c53c 9b23 bbbd 7bca 07bd
000000c0: 96e8 88bd 3788 ee3c 8e12 8bbd 9aed 0ebe
000000d0: 51bf c7bc 5d2c 05be 4916 f1bc 7068 c6bd
000000e0: 5098 66bc 4556 a4bc 009e a4bd caed 7e3d
000000f0: dd78 eb3b bb06 ba3b 8a5e abbd cc74 97bd
00000100: 9d3b 18c0 8293 d0be b755 34bf 3bc6 babf
00000110: 7913 f2be 484d 56bf f2f5 6dbe 30e4 97be
00000120: 0db9 c43d 7279 82be ed67 1fbe ac1e e83c
00000130: 95ee 41bf 287d d6bd a1c8 393e 24f6 cebd
00000140: b455 663e 91e2 c9be ee9b f23e 70c9 f1bd
00000150: 5cfc 063d 3ce6 183f 79a8 35be 2160 833d
00000160: bc7c b7bd 1b8d f5bc 15f1 19be 1ddd 823a
00000170: 39bc 6fbf af4c 12bf d1d9 b6bd 3396 86be
00000180: e80e 78bf 7851 e3bd b9ff 89be 5e1a 48bf
00000190: cf55 7b39 bb87 c13e 7cbf 98be 8360 863f
000001a0: c841 22bd d937 ea3e ffff 49bf 23fe 8abd
000001b0: cf0c 9b3e 1348 c23d 9027 ab3d d776 b1bc
000001c0: cd44 f3bd 47d5 94bf 3596 bcbe 7f1b 813c
000001d0: dd40 9cbe 49b4 913e 2ed4 05be 4281 a5be
000001e0: a029 13be ccfa c63e 74bd f1be de93 873d
000001f0: 67ac 2a3e de58 fe3e bc22 623e 7e68 4dbe
00000200: 6b54 0bbe 81c2 c7bd b93c 3bbd a840 893d
00000210: 3342 96bd a7a6 01bd c7df d3bd 9534 13be
00000220: db67 eabd c40f 713d 9aad a0bc 194d 56bd
00000230: e445 a1bd 1452 ccbd b53a b7bc 8aa1 50bc
00000240: 320c acbd 4b2c 02be 82f4 6b3d f3f5 633d
00000250: 101a 0f3d 36c2 11be 4ad9 b53c 32d5 a7bd
00000260: 5414 d93d d47a 1fbd 4cb5 15be 4863 533c
00000270: 8fb7 49bd 06b9 3cbe cece 9fbd 7ea5 e63d
00000280: 5e33 c2bd 9668 e6bd 82e7 883c cedd 6e3d
00000290: cf2b 4fbe d7bb 86bc f14e a9bd 7636 683b
000002a0: 418d adbd e758 b13c c569 9e3c 1573 1bbd
000002b0: 3be1 f73d e3b0 acbb 3234 43bd 4a54 c8bc
000002c0: e908 92bc ff43 05bc cac7 583c a524 323c
000002d0: 94ae 00be 9046 dbbd 2c92 eabd 6ecb c13b
000002e0: 5783 82bc 8dc8 4fbb 9d20 8d3b e8a6 073d
000002f0: 3817 a0bc bc7b 403d 205b 06bd 7bea 623d
00000300: 2453 7cbe e5fd 83be 352b 1abe 4f4a 1c3d
00000310: 9fa7 03bd bb9c ba3d 7629 51be 7f19 e13b
00000320: af5b 81be 456d 7abe 4c1e 74be e5af 2cbd
00000330: ec9e 28be 5122 48be 6324 77be 5aff f53c
00000340: ff17 15bd 4ae6 88be 8ca5 c53d 0321 333d
00000350: 9ef2 9c3d a1e4 3fbe f565 8bbd 39ea 29be
00000360: dbfe 83bd 9973 aabd 6bf8 1abe c373 06be
00000370: dae1 c33d 61a6 27be 81cf dd3d 3c30 05be
00000380: ead0 253e 28cf 65be 512e f0bd ba5d 21be
00000390: 9700 3c3a d34f d2bc eaef 32be 36f9 b3bd
000003a0: 85b5 04be 263f f33d 6bce bfbd 7f28 9fba
000003b0: 8905 273e 6c18 b73d 5936 2dbd fe80 18bc
000003c0: 524c 46be b0f5 61be 0be4 99be 1be4 04bd
000003d0: 8f4a 8abe 984d dabd fcf9 4cbd b3f0 dcbd
000003e0: e5ea c8bc d191 bdba 786b 05bd 4da6 0ebe
000003f0: d03b a0bd 80bd 2a3e 9b30 2ebe 2ee4 32bd

w_agents.2.bias f4 [32]
-0.16459788 -0.26769894 -0.085355766 -0.29040563 -0.13941175 -0.36486647 -0.19980809 -0.35523134
0.27270207 -0.2035763 0.006253379 -0.44582185 -0.28421703 -0.08076206 -0.11489205 0.0747439
-0.1813636 -0.05934024 -0.10997552 -0.34738895 0.10201876 0.15607855 -0.3301883 -0.1343338
-0.4770041 0.08666001 -0.079158686 0.0919105 -0.038535204 0.09898256 0.095398694 0.28979763
00000000: 598c 28be d60f 89be 01cf aebd 0cb0 94be
00000010: f4c1 0ebe c7cf babe 7e9a 4cbe e2e0 b5be
00000020: 9b9f 8b3e 4e76 50be 25e9 cc3b c342 e4be
00000030: e584 91be 9466 a5bd 864c ebbd 5413 993d
00000040: 61b7 39be c00e 73bd d83a e1bd f7dc b1be
00000050: 36ef d03d 0ed3 1f3e 710e a9be cd8e 09be
00000060: e239 f4be ce7a b13d f31d a2bd 923b bc3d
00000070: 17d7 1dbd 5eb7 ca3d 6460 c33d 5b60 943e

Ws.0 f4 [32, 32]
-0.46081412 -0.436498 0.5860474 0.9740299 -0.9667347 -0.022004282 -0.9212992 -0.32549807
-1.4060794 1.3217639 1.2316873 0.053552072 1.5897766 0.71720135 0.68104094 0.120489396
0.38086206 0.06285636 -0.27265084 1.0186648 -0.5180884 -0.5576828 0.15313713 0.80296755
-0.6767064 -1.5565822 -1.2128763 0.9912746 1.041296 2.0494592 0.81437874 -0.45549643
0.5601328 0.08477094 -0.25921744 -0.60626525 -1.6488879 -0.091979995 -2.320284 0.9428917
-0.79442775 -0.7046035 0.27764496 -0.9355109 -0.3656686 -0.45551115 -0.45177722 -1.9959387
-0.23254058 -0.7261683 -1.1476973 -2.4567714 0.83600074 0.058566894 0.72734296 0.23077248
-0.75524867 -1.2664137 -0.8666223 1.2651807 0.44951037 0.90184 0.6236973 0.11300626
-2.320002 1.47422 -0.11122205 -0.2574014 2.4391143 -0.6238099 -0.41857946 1.5470502
0.11067878 1.3242091 -2.1349156 -1.1716229 1.3451508 0.043228853 0.11313554 -0.058631554
0.36316782 -0.7487533 0.06954604 1.7948805 -0.305679 -0.70734024 -0.74558926 0.19410025
-0.76408005 -0.878334 0.33964378 0.40726113 0.13136247 -0.44199464 -3.1923478 0.019820577
-1.229624 0.13215491 0.047913183 1.6525651 -1.8956195 1.0525147 -0.2998543 0.20950268
0.10478103 -1.0381266 0.28816995 0.301907 -0.513181 -0.2641218 0.631785 -0.4695352
-0.52029485 1.748276 -0.5048636 1.2156634 -1.9371089 -1.385267 0.8341333 0.022651402
0.22750497 1.3396142 1.6303102 0.30242908 0.20737873 -1.8754627 0.98266125 0.62132233
0.11027285 -2.3267148 -1.0062177 -1.6600298 -0.040901873 1.9141331 -1.1975241 -0.5929208
-2.197549 1.1850675 1.4388041 1.0086383 -1.0412968 -0.3645323 -0.50412244 0.39978772
1.7415707 1.030616 0.8221388 0.38981375 0.07861289 -0.262054 -0.7980685 -1.5083324
1.7941422 -0.5126395 -0.93632203 -0.46463674 -0.49035746 2.1991534 0.49615723 -0.111634694
-1.248115 0.15390213 0.38870433 -3.6588755 -1.4317669 0.8118261 0.20673673 -0.90430605
0.2616417 0.63525754 0.10415438 -0.04718444 0.44082606 0.43288597 0.8552753 0.8171112
0.0039200056 0.78042156 0.8113805 1.4580338 1.6458373 -0.5411263 0.011604301 -1.5031993
0.94091636 -0.32101387 0.66173613 -0.0132535705 -0.32056314 -0.38491789 0.11318199 -0.5501759
-2.0963778 0.8134921 -0.25841695 -0.958693 -1.8596756 -3.2011657 0.80734587 -1.0085043
-1.1466961 0.021826336 -0.2038146 -0.92527515 -1.4293567 -1.1610707 1.5679489 1.3304225
1.4323527 -0.33468792 -1.0682609 -1.2722688 0.6408392 0.97413695 1.0173903 -0.20188686
0.67072064 -1.8349856 -0.46995673 -0.9360278 0.9270403 0.22949015 -0.04150754 -0.32768396
-0.05662468 0.87859154 -1.217957 0.19817576 0.29288048 -2.5078921 1.0607475 0.52665925
0.7282677 -0.25307107 -0.31783265 -0.26482686 -1.316424 1.0315802 2.259769 0.088672064
0.515225 0.8006994 -0.30726457 -0.30463773 0.6315168 -0.24677369 1.205694 0.012432315
-1.2036157 -0.89597696 1.0488625 -0.6768244 0.17998958 -0.6805832 -0.93537694 -0.7191275
00000000: d4ef ebbe aa7c dfbe 3407 163f 065a 793f
00000010: ed7b 77bf 5342 b4bc 44da 6bbf afa7 a6be
00000020: 69fa b3bf 8f2f a93f eea7 9d3f 6b59 5b3d
00000030: cd7d cb3f 829a 373f b358 2e3f 25c3 f63d
00000040: 5a00 c33e d6ba 803d e498 8bbe 9c63 823f
00000050: 71a1 04bf 4dc4 0ebf fbcf 1c3e 488f 4d3f
00000060: a13c 2dbf 163e c7bf 883f 9bbf 2cc4 7d3f
00000070: 3049 853f 572a 0340 207b 503f d436 e9be
00000080: dd64 0f3f 639c ad3d 26b8 84be 3334 1bbf
00000090: c20e d3bf 0260 bcbd 887f 14c0 5a61 713f
000000a0: 9e5f 4bbf e560 34bf 7b27 8e3e a47d 6fbf
000000b0: ea38 bbbe c238 e9be 584f e7be eb7a ffbf
000000c0: 1e1f 6ebe 2ae6 39bf bfe7 92bf be3b 1dc0
000000d0: 2504 563f d7e3 6f3d 2633 3a3f 9f4f 6c3e
000000e0: fa57 41bf d819 a2bf f6da 5dbf 71f1 a13f
000000f0: 3926 e63e fcde 663f a0aa 1f3f d36f e73d
00000100: ea7a 14c0 3eb3 bc3f 63c8 e3bd 1eca 83be
00000110: 731a 1c40 01b2 1fbf 0c50 d6be be05 c63f
00000120: 8eab e23d af7f a93f 75a2 08c0 bdf7 95bf
00000130: e72d ac3f bd10 313d 9bb3 e73d a427 70bd
00000140: 22f1 b93e 4cae 3fbf 276e 8e3d a5be e53f
00000150: f581 9cbe 4014 35bf f0de 3ebf 37c2 463e
00000160: c09a 43bf 7fda 60bf cae5 ad3e 8884 d03e
00000170: e283 063e 1f4d e2be 6d4f 4cc0 c35e a23c
00000180: 5264 9dbf 9e53 073e 9d40 443d 4187 d33f
00000190: a9a3 f2bf cdb8 863f 8186 99be df87 563e
000001a0: 7097 d63d 55e1 84bf 038b 933e 8e93 9a3e
000001b0: d45f 03bf f93a 87be a9bc 213f eb66 f0be
000001c0: 0b32 05bf 82c7 df3f be3e 01bf dc9a 9b3f
000001d0: 2ff3 f7bf 6e50 b1bf c389 553f 6f8f b93c
000001e0: 10f7 683e 7a78 ab3f 01ae d03f fcd7 9a3e
000001f0: 175b 543e 290f f0bf b08f 7b3f fb0e 1f3f
00000200: bbd6 e13d e5e8 14c0 becb 80bf db7b d4bf
00000210: b988 27bd 5002 f53f 7848 99bf a8c9 17bf
00000220: a5a4 0cc0 4bb0 973f bc2a b83f 0f1b 813f
00000230: 3749 85bf faa3 babe 2b0e 01bf fab0 cc3e
00000240: caeb de3f 3aeb 833f b077 523f ab95 c73e
00000250: cbff a03d f12b 86be 384e 4cbf 0911 c1bf
00000260: 74a6 e53f 583c 03bf cdb2 6fbf dee4 edbe
00000270: 2210 fbbe eebe 0c40 5208 fe3e bba0 e4bd
00000280: 3bc2 9fbf 8598 1d3e 4104 c73e 042b 6ac0
00000290: 2344 b7bf d6d3 4f3f cbb2 533e 9a80 67bf
000002a0: e7f5 853e 3da0 223f e44e d53d 7944 41bd
000002b0: f4b3 e13e 3ba3 dd3e 52f3 5a3f 332e 513f
000002c0: 6473 803b b5c9 473f a2b6 4f3f daa0 ba3f
000002d0: ccaa d23f 4187 0abf f71f 3e3c d668 c0bf
000002e0: e5df 703f ee5b a4be 8a67 293f 8125 59bc
000002f0: da20 a4be f513 c5be f6cb e73d 54d8 0cbf
00000300: 0e2b 06c0 0541 503f 3a4f 84be e86c 75bf
00000310: da09 eebf e6df 4cc0 38ae 4e3f ab16 81bf
00000320: f0c6 92bf 25cd b23c c6b4 50be d5de 6cbf
00000330: 29f5 b6bf f79d 94bf 8db2 c83f 494b aa3f
00000340: 5557 b73f 375c abbe c6bc 88bf b4d9 a2bf
00000350: 0a0e 243f 0a61 793f d839 823f 6ebb 4ebe
00000360: 59b4 2b3f cfe0 eabf 2b9e f0be 859f 6fbf
00000370: 8352 6d3f 77ff 6a3e cf03 2abd 31c6 a7be
00000380: 48ef 67bd 60eb 603f 04e6 9bbf 96ee 4a3e
00000390: 6ef4 953e 4e81 20c0 93c6 873f 24d3 063f
000003a0: c16f 3a3f 8892 81be f6ba a2be 6397 87be
000003b0: 9580 a8bf d20a 843f 0ea0 1040 b399 b53d
000003c0: c9e5 033f a3fa 4c3f c851 9dbe 7af9 9bbe
000003d0: 16ab 213f 3eb2 7cbe 2e54 9a3f e9b0 4b3c
000003e0: 1410 9abf bf5e 65bf 2041 863f 5d44 2dbf
000003f0: 304f 383e b33a 2ebf dd74 6fbf bd18 38bf

Ws.1 f4 [32, 32]
0.17015418 -1.5932616 0.8248917 -1.3213155 -0.26759464 -0.40697587 -1.3154794 0.7143966
-0.72692174 -0.14340496 -0.34054098 0.41073158 -1.9911867 -0.64017946 0.2981802 0.8465516
-0.4393393 -0.9296357 -0.48320907 -2.1784842 -2.3602574 0.6639557 0.41674566 1.8762116
-1.6375929 1.6614242 1.4386226 -0.78986114 0.5908526 0.5074615 -1.4603578 0.60749817
0.75401455 0.9007878 -0.33726972 -0.6988127 0.42592195 -0.94239223 -0.45928404 0.20750539
0.7499906 1.1220186 0.07857939 -0.9874994 1.2734344 -0.8813563 -1.2701769 -0.79433066
-0.53341967 -0.2754563 -0.82260835 -0.41903806 0.23422651 0.1792629 -0.73982465 -0.013609034
0.6049489 -0.59651005 -2.775301 0.12090489 -0.7430635 -0.20951387 -1.0179014 1.4123925
-1.2956313 -0.55946857 -1.3216603 0.22784802 0.081283286 0.46663776 0.96453285 1.0698326
-0.24256864 0.2314208 -0.27133474 -0.41651785 0.25606635 0.108690985 -0.97548646 -0.1749567
1.8961741 -0.59160936 -1.986778 -1.0605955 -2.223532 -0.040630266 -0.7790678 -0.020011403
0.5045336 3.306272 -2.634393 -2.0450523 -0.82796544 -0.37628657 0.5465339 -1.0125742
1.0246495 -1.1098616 -2.5900137 1.0726707 0.40637216 -0.82506984 1.3703804 0.78633505
0.9429567 0.11826879 1.8808572 -0.4694784 0.27907825 1.3245865 1.2175623 -0.32402983
-0.9986217 -0.39411205 -0.013543313 -1.3066266 -0.3893798 -0.41154248 1.2809687 -1.5911263
-0.74092025 -0.14376637 -0.9783806 1.5652168 -0.8032203 0.3455625 1.9518926 -0.117054366
2.2508852 -0.21800186 -0.0137622105 -0.775088 -1.0558934 1.1608983 -0.5139418 -1.1949344
0.4627994 0.45268792 0.5733573 -0.70804197 1.4457651 -0.2788732 2.459835 -0.8489619
0.44660157 0.03724645 -0.5586989 1.036431 0.13088822 -1.582907 -0.5603009 -3.4041016
1.4567671 -1.2493908 -1.2911339 0.71310306 0.9146689 -1.1627703 -1.6600124 -0.26148975
1.0392417 1.3201747 -0.00281808 -1.4000386 -0.64306784 -0.44191912 -0.14875594 -0.7401813
0.9741933 -0.37378097 -2.7986782 -2.6055348 0.12973517 1.5367054 0.62145305 -0.27212873
-1.3526816 -1.3043975 -0.5685799 -0.7132559 0.060790233 -0.099068455 1.3021113 -1.6081597
0.7569274 -0.8313755 0.5676028 -1.6102434 0.76674694 -0.8785085 -1.4201951 -1.9348115
0.5152215 0.6585655 -1.4564643 -1.4154075 -1.1589571 0.24650648 0.25669292 -1.1067733
-0.49552333 0.05498335 0.765438 0.93600374 -0.39758453 -0.703398 -0.5228176 0.7004603
0.86830735 2.0395896 -1.2893085 0.104660586 0.49962652 1.1007158 1.0020546 -0.9973163
0.26996467 -0.040502865 -0.28289908 -1.2358471 1.7515763 0.6097367 -0.5097344 -1.0324613
-1.7569953 -0.4156793 2.0008295 1.0789379 0.8335533 -0.12846442 1.1910483 -1.3715807
-0.12916203 -0.6074205 0.46108532 0.5019069 -0.3126919 0.91432655 -0.25330806 -0.6529741
0.17184445 -0.043163788 0.5122224 0.31573755 1.3473159 -2.199889 1.1388711 -0.28269392
-0.7530124 0.16655158 -0.34850848 -0.915169 1.2212828 -1.9496644 -0.2834592 -0.9741057
00000000: e63c 2e3e ffef cbbf 1a2c 533f de20 a9bf
00000010: 2a02 89be 245f d0be a161 a8bf b2e2 363f
00000020: 8b17 3abf c0d8 12be 635b aebe 694b d23e
00000030: 35df febf cde2 23bf 13ab 983e 9bb7 583f
00000040: 15f1 e0be 9bfc 6dbf 2e67 f7be 496c 0bc0
00000050: 750e 17c0 00f9 293f b05f d53e b427 f03f
00000060: a59c d1bf 8ca9 d43f c924 b83f 5734 4abf
00000070: 1e42 173f ffe8 013f 01ed babf 0085 1b3f
00000080: 1907 413f 079a 663f 9eae acbe 64e5 32bf
00000090: 7112 da3e 9e40 71bf 4727 ebbe 4b7c 543e
000000a0: 62ff 3f3f 4e9e 8f3f 3bee a03d c3cc 7cbf
000000b0: e6ff a23f 91a0 61bf 2895 a2bf 4159 4bbf
000000c0: 318e 08bf 9c08 8dbe 7696 52bf 288c d6be
000000d0: 13d9 6f3e b290 373e 2665 3dbf 6df8 5ebc
000000e0: eedd 1a3f e2b4 18bf 889e 31c0 fc9c f73d
000000f0: 6939 3ebf ce8a 56be 984a 82bf 47c9 b43f
00000100: 3fd7 a5bf 5539 0fbf 2a2c a9bf fe50 693e
00000110: da77 a63d 25eb ee3e a0eb 763f 46f0 883f
00000120: ea63 78be 93f9 6c3e 63ec 8abe d441 d5be
00000130: 211b 833e 6199 de3d 7bb9 79bf d927 33be
00000140: d5b5 f23f b673 17bf be4e febf 98c1 87bf
00000150: 594e 0ec0 ec6b 26bd fd70 47bf f4ee a3bc
00000160: 1d29 013f f699 5340 e599 28c0 23e2 02c0
00000170: 8bf5 53bf a2a8 c0be a5e9 0b3f 089c 81bf
00000180: b727 833f f20f 8ebf c9c2 25c0 464d 893f
00000190: 0310 d03e c737 53bf a068 af3f 414d 493f
000001a0: 9c65 713f e836 f23d eebf f03f 795f f0be
000001b0: 58e3 8e3e 0d8c a93f 15d9 9b3f 3de7 a5be
000001c0: aca5 7fbf 0ec9 c9be c6e4 5dbc 8a3f a7bf
000001d0: ca5c c7be b2b5 d2be c8f6 a33f 07aa cbbf
000001e0: f3ac 3dbf 7e37 13be 2777 7abf 0659 c83f
000001f0: d89f 4dbf 91ed b03e 9ed7 f93f 33ba efbd
00000200: 810e 1040 e13b 5fbe e57a 61bc 2b6c 46bf
00000210: 8427 87bf 5198 943f b191 03bf 9cf3 98bf
00000220: 0bf4 ec3e b6c6 e73e 8bc7 123f 3d42 35bf
00000230: d50e b93f 78c8 8ebe f06d 1d40 9155 59bf
00000240: f6a8 e43e bc8f 183d e406 0fbf c5a9 843f
00000250: 9007 063e b29c cabf e16f 0fbf cddc 59c0
00000260: 5877 ba3f 0aec 9fbf e043 a5bf ec8d 363f
00000270: be27 6a3f a8d5 94bf 497b d4bf fce1 85be
00000280: df05 853f 7cfb a83f 89af 38bb 7734 b3bf
00000290: 18a0 24bf 3943 e2be 7a53 18be 867c 3dbf
000002a0: bb64 793f 3860 bfbe 8b1d 33c0 15c1 26c0
000002b0: 4cd9 043e c3b2 c43f 8c17 1f3f 7554 8bbe
000002c0: ac24 adbf 7ff6 a6bf 748e 11bf f097 36bf
000002d0: 2eff 783d 67e4 cabd 95ab a63f 2dd8 cdbf
000002e0: fec5 413f 06d5 54bf 6b4e 113f 751c cebf
000002f0: 8749 443f efe5 60bf f4c8 b5bf e7a7 f7bf
00000300: 8ee5 033f c097 283f 6c6d babf 132c b5bf
00000310: b558 94bf 326c 7c3e 416d 833e bfaa 8dbf
00000320: 3cb5 fdbe 3936 613d bff3 433f f19d 6f3f
00000330: 3390 cbbe e411 34bf 60d7 05bf 5e51 333f
00000340: 6449 5e3f a388 0240 1008 a5bf 4a58 d63d
00000350: 0ccf ff3e 41e4 8c3f 5343 803f 1f50 7fbf
00000360: cf38 8a3e 55e6 25bd 26d8 90be 3d30 9ebf
00000370: a733 e03f b417 1c3f f47d 02bf b127 84bf
00000380: 39e5 e0bf ebd3 d4be 970d 0040 a31a 8a3f
00000390: c063 553f 2d8c 03be 4574 983f f58f afbf
000003a0: 0d43 04be e97f 1bbf 6013 ec3e f87c 003f
000003b0: 2719 a0be 4e11 6a3f 98b1 81be 5029 27bf
000003c0: fef7 2f3e 83cc 30bd 0221 033f 5aa8 a13e
000003d0: d974 ac3f fbca 0cc0 87c6 913f 42bd 90be
000003e0: 6cc5 40bf 7f8c 2a3e b46f b2be 8448 6abf
000003f0: ff52 9c3f 9a8e f9bf 9021 91be fe5e 79bf
