data/rl_model_9.pth (torch_old, 93650 bytes, 18 tensors)

w_a f4 [32, 32]
0	0xbff720c1	-1.9306871
1	0x400c502f	2.192394
2	0x406638c6	3.5972152
3	0xc06ba697	-3.6820428
4	0x4026ca76	2.6061072
5	0xbf0d4dda	-0.5519692
6	0xc021601f	-2.5214918
7	0x3f78db98	0.97210073
8	0x400ca0ff	2.1973264
9	0x40815bd8	4.0424614
10	0xbf0b9daf	-0.5453748
11	0x40ed3edf	7.4139247
12	0xbd42cb66	-0.047557257
13	0x40751894	3.8296251
14	0x40018868	2.0239506
15	0xbfd588b2	-1.6682341
16	0xc057a473	-3.3694122
17	0xbfbdec3b	-1.4837717
18	0xc0788c0f	-3.8835485
19	0xc0762471	-3.8459742
20	0x3f37bb7b	0.7177045
21	0xc0486979	-3.1314375
22	0xc014dfc8	-2.3261585
23	0xbfcffd11	-1.6249105
24	0x3f83c707	1.0295113
25	0xbf374612	-0.71591294
26	0x3fda061b	1.7033113
27	0xc0195474	-2.3957796
28	0x401f8b73	2.4928863
29	0x3f72e52f	0.94880956
30	0xc03d55cc	-2.9583616
31	0x403e375e	2.9721293
32	0xbfa9c5a7	-1.3263444
33	0x3e7c6c3c	0.24650663
34	0xbfef34f8	-1.868804
35	0x3fd33c9c	1.6502872
36	0x3d1731f7	0.036912885
37	0xbe720124	-0.23633248
38	0xbce3a444	-0.027788289
39	0x3f606991	0.8766108
40	0xbf81be67	-1.0136231
41	0xbf30a1a3	-0.6899664
42	0x3e3f812b	0.18701617
43	0xbfd96fc3	-1.6987232
44	0x3e35b673	0.1774538
45	0xbe664929	-0.22488846
46	0xc0673276	-3.612455
47	0xbf99e9c8	-1.2024469
48	0x3f8dde32	1.1083434
49	0x40015789	2.0209677
50	0x3f166d3d	0.58760434
51	0x3e967dad	0.29392758
52	0xbf26ba76	-0.65128267
53	0xbffd173f	-1.9772719
54	0xc03117f9	-2.7670882
55	0x3e46ff9f	0.19433449
56	0xbed43787	-0.41448614
57	0xbeaa078c	-0.33208883
58	0x3da755c9	0.08170659
59	0x3f03e2d0	0.51517963
60	0xbf701e55	-0.93796283
61	0x3deb9e24	0.11504772
62	0x3f128f7a	0.5725018
63	0xbd10db79	-0.035365555
64	0x3f091294	0.5354397
65	0xbecc23ee	-0.39871162
66	0x401333f5	2.3000462
67	0xc00c563c	-2.1927633
68	0xbfa2bf70	-1.2714672
69	0xbfc6ce67	-1.5531739
70	0x3f3dcbf3	0.74139327
71	0xbf815bf2	-1.0106184
72	0x3fe16b93	1.7610954
73	0x4027d5cd	2.6224244
74	0xbf885195	-1.0649897
75	0x3e16de0f	0.14733146
76	0xbf3cfa36	-0.7381929
77	0xbffcd5c3	-1.9752735
78	0xbf405ea4	-0.7514441
79	0x3e9262b1	0.2859092
80	0xbfa2633f	-1.2686538
81	0xbe5a560d	-0.21321888
82	0xbfbae037	-1.4599675
83	0xbe9fc5fa	-0.31205732
84	0x3fee6b86	1.8626564
85	0xbf553a0d	-0.83291703
86	0x3fb3e1e4	1.4053311
87	0xbecc0748	-0.39849305
88	0xbed24d8a	-0.41074783
89	0x3f9a5fbb	1.2060465
90	0xbf8edec5	-1.1161734
91	0xbed66983	-0.41877374
92	0xc02434ea	-2.5657296
93	0x3de7a99a	0.11311646
94	0xc00271dc	-2.0381994
95	0x3fb57c3a	1.4178536
96	0xc01d0231	-2.4532588
97	0x400170bd	2.022506
98	0x3ff9b575	1.9508501
99	0xc08f7d0f	-4.484016
100	0x40367f02	2.851502
101	0xbfcd1172	-1.6020949
102	0x3e02b3b3	0.12763862
103	0xc035db47	-2.8415086
104	0x40337130	2.8037834
105	0x4022e18d	2.5450165
106	0x3fed79a0	1.8552742
107	0x40b24e92	5.572091
108	0x3ff81dd6	1.9384105
109	0x3e01a56d	0.12660761
110	0xbe3edbb6	-0.186385
111	0xbfaabe70	-1.3339367
112	0xc069c770	-3.6527977
113	0xc01bc679	-2.4339888
114	0xbf9cbf9c	-1.2245975
115	0x3f54fd22	0.8319875
116	0x4002caf1	2.0436366
117	0xbe5346ef	-0.20632528
118	0xc000a408	-2.0100117
119	0xbff52070	-1.9150524
120	0x3f4bb69e	0.79575527
121	0x3faed47c	1.3658595
122	0x3f4dfc5b	0.8046319
123	0xbf92e3d5	-1.1475779
124	0x4059a20c	3.4005156
125	0x4090ddac	4.5270596
126	0x3c90c914	0.017674007
127	0x4037a4cb	2.8694332
128	0xbd95c441	-0.07312823
129	0xbd0c6df7	-0.03428456
130	0xc020d66e	-2.5130877
131	0x3e940da0	0.28916645
132	0xbfd055c2	-1.6276171
133	0xbf035fd0	-0.51318073
134	0xbe38554a	-0.18001285
135	0xc00bf1db	-2.1866367
136	0xbfed92c5	-1.8560416
137	0x3e48b9dc	0.1960215
138	0x3f664a07	0.89956707
139	0xbecb7159	-0.39734915
140	0xbf8a8f8a	-1.0825055
141	0xbf68e642	-0.90976346
142	0xbf47ce47	-0.7804913
143	0xbe0c81bf	-0.13721369
144	0x3eee73b2	0.46572644
145	0x3dbb83d7	0.09156006
146	0xbfa7514d	-1.3071686
147	0xbe2b3464	-0.16719204
148	0xbebf0ae3	-0.37312993
149	0xbe3a1ee9	-0.18175854
150	0xbee2909a	-0.44250947
151	0xbf48eed1	-0.78489405
152	0xbf74ba19	-0.9559646
153	0x40128bdb	2.289786
154	0xbf10bbd7	-0.5653662
155	0x407125c2	3.7679296
156	0x3fd42c74	1.6576066
157	0xbf01027f	-0.50394434
158	0x409b7edc	4.859236
159	0xc01421ce	-2.3145633
160	0x3f04f029	0.51928955
161	0x3fd287f5	1.6447741
162	0x400a5236	2.1612678
163	0xbe649b86	-0.22324952
164	0x3ee10377	0.43947956
165	0x3f73914f	0.951436
166	0x40648326	3.5705047
167	0x3ec0ed3d	0.37680998
168	0xc01231d2	-2.2842908
169	0x3f8efc18	1.1170683
170	0xbf5d9387	-0.86553234
171	0x3f846769	1.0344058
172	0x3fc640f6	1.5488575
173	0x3e93561c	0.28776634
174	0x3f7fcbb8	0.99920225
175	0xbf957d17	-1.1678799
176	0x3f5a5fb9	0.8530231
177	0x401652cd	2.3488038
178	0x3e764622	0.24050191
179	0x3f21692f	0.6305112
180	0x3dd4b860	0.10386729
181	0x4001795b	2.023032
182	0xbbddea37	-0.0067723054
183	0xbe751630	-0.23934245
184	0x3fab2e5d	1.3373524
185	0x3eecd9e5	0.4625999
186	0x3e95e94a	0.29279548
187	0x3f953cae	1.1659143
188	0xbf85a5fe	-1.0441282
189	0x3f070161	0.5273648
190	0x3e9ebe03	0.31004342
191	0xbeb3e1f2	-0.3513332
192	0xbeb85d33	-0.36008605
193	0x3eb643c0	0.35598564
194	0xbec71d9a	-0.38889772
195	0xc0287834	-2.6323366
196	0xbfe2fa93	-1.7732719
197	0xbf8e36cd	-1.1110474
198	0xbf80f676	-1.0075214
199	0xc01db4d7	-2.4641626
200	0x3f7e8fd4	0.99438214
201	0x3f64169c	0.89097
202	0x3c0b06d4	0.008485515
203	0xbe2c99dd	-0.16855569
204	0xc00cf66f	-2.202541
205	0x3f6a0e86	0.9142841
206	0xbebd55bc	-0.36979473
207	0x401cf14f	2.4522283
208	0xc0285777	-2.6303384
209	0xbf643812	-0.89148057
210	0xc01dea06	-2.4674087
211	0x3e32093a	0.17386332
212	0x401ad861	2.4194567
213	0x3dfab965	0.122423925
214	0xbffda49c	-1.981586
215	0xbf8c5bb9	-1.0965492
216	0xbfcf96bf	-1.6217879
217	0x3f6d1604	0.9261172
218	0x3e2a6548	0.16640198
219	0xbf0f4adf	-0.5597362
220	0x3e43507c	0.19073671
221	0x3e74391d	0.23849912
222	0x3f3330a0	0.6999607
223	0xbea897d5	-0.3292834
224	0xbf36167b	-0.7112805
225	0x4019e961	2.4048693
226	0x3ebce395	0.3689238
227	0x3de76618	0.1129877
228	0x3c1da233	0.009621191
229	0x3f8a3950	1.079874
230	0x3ef1150b	0.47086367
231	0x3f44d360	0.7688503
232	0x4022df72	2.544888
233	0x401bc4c1	2.433884
234	0xbea1bf45	-0.3159124
235	0x40206ebb	2.5067585
236	0x3f1f6a27	0.6227135
237	0x3f66f78d	0.9022148
238	0x3cabf07f	0.0209887
239	0xbe249c85	-0.16075332
240	0xbe4b04de	-0.19826075
241	0x3f9fd67d	1.2487332
242	0xbff29b19	-1.8953582
243	0x3ec9b143	0.39393052
244	0xbe55601d	-0.20837446
245	0xbf513920	-0.8172779
246	0x3f9c18c3	1.2195057
247	0x3e3855b1	0.18001439
248	0x3ef464a4	0.47733033
249	0x3daf30e9	0.08554251
250	0x3f9e0441	1.2345048
251	0xbe8d10ac	-0.27551782
252	0xbfb0fdde	-1.3827474
253	0xbeec3403	-0.46133432
254	0x3fb30ab8	1.3987646
255	0x3fa66ee9	1.3002597

w_group.0.weight f4 [64, 8]
0	0xbd3b7056	-0.04576143
1	0x3cb3b03c	0.021934621
2	0x3e67ea1d	0.22647901
3	0xbe8f64fb	-0.2800673
4	0xbeb12b91	-0.3460355
5	0x3d0f1100	0.03492832
6	0xbdad07a4	-0.08448723
7	0x3cd43ff9	0.02590941
8	0xbf98e16f	-1.1943797
9	0xbf466de5	-0.77511436
10	0xc00b2e83	-2.1747139
11	0x3f8e4bb6	1.1116855
12	0xbf10b6cd	-0.5652893
13	0xbe5ed4a5	-0.21760805
14	0xbf1b9a2e	-0.60782135
15	0xbf35a229	-0.7095056
16	0xbf5b7532	-0.857257
17	0xbddfdbdc	-0.10930607
18	0xbef3dd1d	-0.47629634
19	0xbed6115b	-0.41810116
20	0xbe51143a	-0.20417872
21	0xbe91eb34	-0.28499758
22	0xbf09d092	-0.5383388
23	0xbf48557c	-0.7825544
24	0xbf4a2358	-0.7896018
25	0x3f1fd827	0.624392
26	0x3f8b33ac	1.0875144
27	0xbfc691cf	-1.5513247
28	0x3ee62361	0.44948867
29	0x3e66043e	0.22462556
30	0xbf11d264	-0.56961656
31	0xbc31362a	-0.010816136
32	0xbdb3e8a2	-0.087846056
33	0xbd004be5	-0.03132238
34	0x3f1f9ffc	0.6235349
35	0x3ebd795e	0.37006658
36	0x3ca5a18c	0.020218633
37	0x3e27005a	0.16308728
38	0xbe6bc9e7	-0.23026238
39	0xbeae7b84	-0.3407861
40	0x3e8db3d8	0.27676272
41	0x3d833e3a	0.06408353
42	0xbf706fbf	-0.9392051
43	0xbe530a67	-0.20609437
44	0xc0136efc	-2.303649
45	0x3e8e4c17	0.27792427
46	0x3eba518e	0.36390346
47	0xbdf62a18	-0.120197475
48	0xbf72afa8	-0.9479928
49	0x3e8f186a	0.27948314
50	0x3f64ec4a	0.8942305
51	0x3f818253	1.0117897
52	0xbef0e7b0	-0.47051764
53	0xbe23808e	-0.15967008
54	0xbf3251ae	-0.69655883
55	0xbedf1f98	-0.43578792
56	0xbf470271	-0.777381
57	0x3f15449c	0.58307815
58	0x40215c9e	2.521278
59	0xbfd5f77d	-1.6716152
60	0xbe589292	-0.21149662
61	0xbe5aa126	-0.21350536
62	0xbdf16485	-0.11786751
63	0xbf131431	-0.57452685
64	0xbdf6f3f8	-0.12058252
65	0x3e21678b	0.15762155
66	0xbee62aa0	-0.44954395
67	0x3ee00972	0.43757206
68	0xbec64602	-0.38725287
69	0xbe5e8a28	-0.2173239
70	0xbeb4a23e	-0.3528003
71	0xbec9caa5	-0.39412418
72	0xbc0c07e4	-0.008546803
73	0xbeb834d8	-0.35977817
74	0xbf04e9e3	-0.5191938
75	0xbf17dc2f	-0.5932035
76	0x3f454dd9	0.7707191
77	0x3dfd21d8	0.12359971
78	0xbed3bf55	-0.41356912
79	0xbf205189	-0.6262441
80	0x3f7ba7ae	0.98302734
81	0x3d445ca2	0.047939904
82	0xbf82671f	-1.018772
83	0x3ec87b16	0.39156407
84	0xbfbff91c	-1.4997897
85	0xbdb347c4	-0.087539226
86	0x3e81957f	0.2530937
87	0x3e96afec	0.29431093
88	0xbe9f1a42	-0.3107472
89	0x3e8ce031	0.27514794
90	0x3dcd57bf	0.10026502
91	0xbf06b65a	-0.52621996
92	0xbf145e25	-0.57956153
93	0x3d1a4940	0.037667513
94	0xbf568ec8	-0.83811617
95	0xbf3cc196	-0.7373289
96	0x3f88f14f	1.0698642
97	0xbf0ebf94	-0.55761075
98	0x3fca3352	1.5796912
99	0x3f772f7b	0.96556824
100	0xbf19ec94	-0.60126615
101	0xbe43c976	-0.1911982
102	0xbf23de95	-0.6401151
103	0xbf74a9c3	-0.95571536
104	0x3f3e2bc9	0.7428556
105	0x3fb93286	1.4468544
106	0x3f7104e4	0.9414809
107	0x3f141092	0.57837784
108	0xbee8fa27	-0.4550335
109	0xbcfc6630	-0.030810446
110	0xbf3bb04a	-0.7331587
111	0xbf4ef569	-0.80843216
112	0xbdefeea9	-0.11715443
113	0xbea55282	-0.3228951
114	0x3efda480	0.49539566
115	0x3f99d276	1.2017353
116	0xbeb9a8c8	-0.36261582
117	0xbe2289aa	-0.15872827
118	0xbf156829	-0.5836206
119	0xbf44ed0d	-0.7692421
120	0x3fbc7b9b	1.4725221
121	0xbf0e43fd	-0.5557249
122	0x3fc5bb85	1.5447851
123	0xbf8f340f	-1.1187762
124	0xbe55ef01	-0.20891954
125	0x3e3be2de	0.18348262
126	0xbed9cb5b	-0.4253796
127	0xbf1d1057	-0.6135306
128	0xbd4dab5c	-0.05021225
129	0xbe840847	-0.25787565
130	0xc0368e74	-2.8524446
131	0xbef13cf9	-0.4711683
132	0x3ed09313	0.4073721
133	0xbea38679	-0.31938532
134	0xbe10d364	-0.14143139
135	0xbe5a051f	-0.21291016
136	0x3e094c7e	0.13408086
137	0x3e6c1c2f	0.23057626
138	0xbee0d552	-0.4391275
139	0xbd6c2f5a	-0.057662345
140	0xbf781a68	-0.9691529
141	0xbdc829c0	-0.09773588
142	0xbee7d9ce	-0.4528336
143	0xbeb822f4	-0.35964167
144	0xbcbddc96	-0.023176473
145	0x3cdc8a6e	0.026921477
146	0xbef9389a	-0.48675996
147	0x3e2204ab	0.15822093
148	0xbf9d9b3b	-1.2312998
149	0xbb546d80	-0.00324139
150	0xbd861a9d	-0.06548045
151	0xbe36a436	-0.17836079
152	0xbd12d236	-0.035845004
153	0xbca89db3	-0.02058301
154	0x3e6b4e69	0.2297913
155	0x3ec8c50f	0.39212844
156	0x3ef530ec	0.47888887
157	0x3e6222aa	0.22083536
158	0xbe966bc7	-0.29379103
159	0xbe814335	-0.25246587
160	0xbfbfe71c	-1.4992404
161	0xbf8d3f56	-1.1034954
162	0x3de347f6	0.1109771
163	0x3e409a65	0.18808897
164	0xbf58ff9f	-0.84765047
165	0x3e2d45f6	0.16921219
166	0xbf002202	-0.5005189
167	0xbf43e3ba	-0.7651936
168	0xbe7a70f5	-0.24457152
169	0xbec2253c	-0.37919033
170	0xbe13fc00	-0.14451599
171	0xbded4f83	-0.11587431
172	0xbf1f67da	-0.6226784
173	0xbdd9fefc	-0.106443375
174	0xbf447386	-0.76738775
175	0xbf5e858e	-0.8692254
176	0x3e6a3eb7	0.22875486
177	0xbd901def	-0.070369594
178	0x3f9f6152	1.2451575
179	0xbf919ace	-1.1375368
180	0xbfc4ac22	-1.5365031
181	0xbea46593	-0.32108745
182	0xbe30caef	-0.17264913
183	0xbee74e44	-0.451769
184	0x3f042b03	0.5162813
185	0x3eeaa80a	0.4583133
186	0x3d64409f	0.05572569
187	0xbf4e6b0b	-0.80632085
188	0xbebf8529	-0.3740628
189	0x3e4039a2	0.18771985
190	0xbf02f0aa	-0.51148474
191	0xbe8da610	-0.27665758
192	0x40493086	3.1435866
193	0xbe47474e	-0.19460794
194	0x3ecdb7a9	0.40179184
195	0xbe89637a	-0.26833707
196	0xbf3db310	-0.7410135
197	0x3e951b47	0.29122373
198	0x3e87390c	0.2641071
199	0x3e099e93	0.13439398
200	0x3e2b7444	0.1674357
201	0xbe763d7c	-0.24046892
202	0x3f69f00f	0.91381925
203	0x3eb27b9e	0.34859937
204	0xbf0d231d	-0.55131704
205	0x3d686ed8	0.056746334
206	0xbf097bd3	-0.53704566
207	0xbed7f6b5	-0.4218041
208	0x3e60a580	0.21938133
209	0x3e1611ee	0.14655277
210	0x3f25bb31	0.64738756
211	0x3f3e1dd2	0.7426425
212	0xbed75c25	-0.42062488
213	0x3e5ab78e	0.21359083
214	0xbf02132d	-0.5081051
215	0xbe2d3125	-0.16913278
216	0x3f367279	0.7126842
217	0x3fa2c221	1.2715493
218	0x3ea0db5b	0.31417355
219	0xbd849690	-0.0647403
220	0xbf007c9b	-0.5019013
221	0xbc506fe0	-0.012721986
222	0xbe9ec56a	-0.3100999
223	0x3dd0d3be	0.101966366
224	0xbe6bea4a	-0.23038593
225	0xbea29a4e	-0.3175835
226	0xbe83ff82	-0.25780874
227	0xbf956265	-1.1670653
228	0x3da7d87c	0.08195588
229	0xbeb10e23	-0.34581098
230	0xbf1ee9a5	-0.62075263
231	0xbf3b72f4	-0.7322228
232	0xbec16860	-0.37774944
233	0xbec00f7f	-0.37511823
234	0x3f4c2bb4	0.79754186
235	0xbf8afa8e	-1.0857713
236	0xbf7da55e	-0.99080455
237	0x3e45bf62	0.19311288
238	0xbf34ff69	-0.70702225
239	0xbf3b8810	-0.7325449
240	0xbe949e45	-0.29027
241	0x3eceed38	0.4041536
242	0xbf1f5d04	-0.62251306
243	0xc080c63a	-4.0241976
244	0xbe6a6aaa	-0.22892252
245	0xbe05feec	-0.13085526
246	0x3d5ffd4f	0.054684933
247	0x3d4bb45d	0.049732555
248	0x3c1d0c0c	0.009585392
249	0xbebe4c6b	-0.37167677
250	0xbf1c6a83	-0.61100024
251	0xbdb028f7	-0.086015634
252	0xbf02a057	-0.5102591
253	0xbdd225d4	-0.102611214
254	0xbf1c19f1	-0.60977083
255	0xbefeeb4d	-0.49788895

w_group.0.bias f4 [64]
0	0xbe9aa434	-0.30203402
1	0xbf45ad1c	-0.7721727
2	0xbf4a3dd8	-0.79000616
3	0xbf0fde30	-0.56198406
4	0xbeeb2052	-0.45923096
5	0xbe8a1d46	-0.2697546
6	0xbee71900	-0.4513626
7	0xbf2d88e7	-0.6778702
8	0xbf1b658e	-0.60701835
9	0xbebc8d89	-0.36826733
10	0xbca523de	-0.020158704
11	0xbf7ab784	-0.9793627
12	0xbf6add37	-0.917438
13	0xbf125899	-0.5716644
14	0xbf07a437	-0.52984947
15	0xbd84e7ff	-0.06489562
16	0xbe851d2b	-0.25998816
17	0xbe0dc49e	-0.13844535
18	0xbf1265d3	-0.5718662
19	0x3daeb877	0.085312776
20	0xbf414b09	-0.7550512
21	0xbf61b1be	-0.8816184
22	0xbf48a548	-0.783772
23	0xbf21784d	-0.6307419
24	0xbd9df3d6	-0.07712524
25	0xbf417dcd	-0.7558258
26	0xbef4a61f	-0.4778299
27	0x3d70e15e	0.058808677
28	0xbe39eea9	-0.18157448
29	0xbf10eb82	-0.56609356
30	0x3c383b61	0.011244626
31	0xbf0be90c	-0.54652476
32	0xbe66c861	-0.22537376
33	0xbf2a0ee8	-0.66428995
34	0x3c334d3d	0.010943708
35	0xbe9e8b1d	-0.3096551
36	0xbf1af38a	-0.6052786
37	0x3ec277fe	0.37982172
38	0xbed78210	-0.42091417
39	0xbf06afed	-0.5261219
40	0xbcd968b1	-0.026539179
41	0xbf0a6c26	-0.5407127
42	0xbea87c76	-0.32907456
43	0xbef20dc1	-0.47276118
44	0x3d001b04	0.031275764
45	0xbe245139	-0.16046609
46	0x3c9346e4	0.01797814
47	0x3e013215	0.12616761
48	0xbc890aee	-0.016728844
49	0xbd48623b	-0.048921805
50	0xbf22841b	-0.63482827
51	0x3e33c87e	0.1755695
52	0xbed30bdf	-0.41219994
53	0xbee29bb8	-0.4425943
54	0xbe849f70	-0.2590289
55	0xbebc43f6	-0.367706
56	0xbf4bab68	-0.7955842
57	0xbe9cee5e	-0.3065061
58	0xbd6f14f6	-0.0583696
59	0x3daab9f0	0.08336246
60	0xbeb8ec38	-0.3611772
61	0xbef797b1	-0.4835792
62	0xbd8fd237	-0.07022517
63	0xbc70bd93	-0.0146936355

w_group.2.weight f4 [32, 64]
0	0x3dbb6904	0.091508895
1	0xbddf1331	-0.10892332
2	0xbd5739da	-0.052545406
3	0xbdeef654	-0.11668077
4	0x3cb914f6	0.022593003
5	0x3cff0e98	0.031134889
6	0xbe2160ec	-0.15759629
7	0x3bdebf8f	0.006797738
8	0xbd5a4e47	-0.053297307
9	0xbc953569	-0.018213945
10	0xbd88e91c	-0.06685087
11	0x3d868d3e	0.065699086
12	0xbdbef52c	-0.093241066
13	0xbcded228	-0.02719982
14	0xbcf36335	-0.029710392
15	0x3d97be76	0.074093744
16	0xbd72b457	-0.059254017
17	0xbe1c50dd	-0.15265222
18	0x3d3e899f	0.046517964
19	0xbe0f599c	-0.13999027
20	0xbdfb9ca5	-0.12285737
21	0xbe1a3934	-0.15060884
22	0xbdb7ceba	-0.08974977
23	0xbcf89aaa	-0.030347187
24	0xbbc3fbb3	-0.0059809326
25	0x3d9d071e	0.07667373
26	0xbdfc0df0	-0.12307346
27	0x3dad25d2	0.08454479
28	0x3d44ab51	0.048014943
29	0xbd37d9ef	-0.044885572
30	0x3d3795aa	0.044820465
31	0x3da43f5a	0.08019896
32	0x3ca42468	0.020036891
33	0xbd66f840	-0.056389093
34	0x3ca23396	0.019799989
35	0x3ccf1b84	0.025281675
36	0xbd45f7aa	-0.048331894
37	0x3d03e017	0.03219613
38	0x3db3f331	0.087866195
39	0xbe058e0a	-0.13042465
40	0xbdf74fae	-0.120757446
41	0x3cc8478c	0.024448179
42	0xbd5f455a	-0.0545095
43	0xbe408c8b	-0.18803613
44	0x3dbea335	0.09308473
45	0xbc06d691	-0.008229868
46	0xbe43e822	-0.1913152
47	0xbdfe07c0	-0.12403822
48	0xbe5fbcd6	-0.21849379
49	0x3ca0963b	0.019602885
50	0xbbcde882	-0.0062838206
51	0x3d84a7e8	0.06477338
52	0xbcc3a43d	-0.023882026
53	0x3db86f25	0.09005574
54	0xbd802020	-0.06256127
55	0xbd5ac2f1	-0.053408567
56	0x3daede4c	0.085384935
57	0xbde450bb	-0.111482106
58	0xbd8e6731	-0.06953276
59	0xbddd9708	-0.108198225
60	0xbda5d936	-0.0809807
61	0xbe1e262b	-0.15444247
62	0xbd92f584	-0.07175735
63	0xbe23c487	-0.15992938
64	0x3d0891c3	0.033342134
65	0x3e597460	0.212358
66	0x3ef1c174	0.47217906
67	0x3e30043f	0.1718912
68	0xbdc07a32	-0.09398307
69	0x3eeafeab	0.4589742
70	0xbf356b06	-0.7086643
71	0xbe999112	-0.29993492
72	0xbe7bdeb0	-0.24596667
73	0x3e45a012	0.19299343
74	0x3e92d05b	0.28674588
75	0x3ea3ae9f	0.31969163
76	0x3f12192e	0.5706967
77	0x3f7bad92	0.9831172
78	0x3df1d04c	0.118073076
79	0x3f34c9e0	0.70620537
80	0x3de6729a	0.11252327
81	0xbee0cc2a	-0.43905765
82	0xbd886390	-0.06659615
83	0x3c026fb9	0.007961207
84	0x3f29c2a9	0.6631265
85	0xbe3a429c	-0.18189472
86	0x3e283f41	0.1643038
87	0xbc36fe3e	-0.0111690145
88	0xbf3fe177	-0.7495341
89	0xbd537585	-0.051625747
90	0x3ed9d814	0.42547667
91	0x3e47bad6	0.19504866
92	0xbcd5dc54	-0.026106037
93	0xbcb08080	-0.021545649
94	0xbdb32096	-0.0874645
95	0x3e1cf610	0.1532824
96	0xbf1e099b	-0.61733407
97	0x3ee20032	0.44140774
98	0xbf95cf29	-1.1703845
99	0x3d7a782a	0.061149754
100	0xbd32aca5	-0.043621678
101	0xbf9b759b	-1.2145265
102	0x3e497d04	0.19676596
103	0x3c56a193	0.013100046
104	0xbe58c6e7	-0.21169625
105	0x3f4174bd	0.75568753
106	0x3e00b5d6	0.12569365
107	0xbf062e7c	-0.5241468
108	0xbdc3325e	-0.09531091
109	0xbdcff6b3	-0.10154476
110	0xbfc249d4	-1.517878
111	0x3dc30648	0.095226824
112	0xbe55362c	-0.20821446
113	0x3d60f0dc	0.0549172
114	0xbe540a84	-0.20707136
115	0x3f49daf5	0.78849727
116	0xbe033eba	-0.12816897
117	0x3f314bc7	0.6925625
118	0xbf04deaf	-0.5190229
119	0xbf75c878	-0.96009016
120	0xbf268b4d	-0.65056306
121	0x3dabef91	0.08395303
122	0xbf93396b	-1.1501898
123	0xbe9102ce	-0.28322452
124	0x3d510bdd	0.051036704
125	0xbf6f1142	-0.9338571
126	0xbfcb98ca	-1.5906003
127	0xbf2379f9	-0.6385799
128	0xbe11f4f1	-0.14253594
129	0xbec348b1	-0.38141397
130	0xbd1d8140	-0.03845334
131	0x3e4813a6	0.19538745
132	0xbd22e955	-0.039773304
133	0x3dbf9814	0.093551785
134	0xbe308fea	-0.17242399
135	0x3f1851d9	0.5949989
136	0x3d15d200	0.036577225
137	0x3dd874c7	0.105691485
138	0x3ecd5cf0	0.40109968
139	0x3f4dbe63	0.8036863
140	0xbe4fa078	-0.20276058
141	0x3f0b60d0	0.544446
142	0xbe967d68	-0.29392552
143	0xbe96379d	-0.29339305
144	0x3eaab35b	0.33339962
145	0xbe2d46aa	-0.16921487
146	0x3e538d94	0.20659477
147	0xbe5f2bd9	-0.2179407
148	0xbf64eda5	-0.89425117
149	0xbee31952	-0.44355255
150	0xbf266e8a	-0.6501242
151	0xbe857a63	-0.26069936
152	0x3ee123af	0.43972537
153	0xbe92bf94	-0.28661788
154	0xbcf0dca7	-0.02940209
155	0x3ec3e53e	0.38260835
156	0x3e5b3daa	0.21410242
157	0x3dc21352	0.09476341
158	0xbf5a3218	-0.85232687
159	0xbf57910a	-0.8420569
160	0xbde20aa5	-0.110371865
161	0xbed7fe7d	-0.42186347
162	0xbe5dcd0c	-0.2166025
163	0xbe5e15cb	-0.21688001
164	0xbdd3f5ab	-0.10349592
165	0x3e35666f	0.17714857
166	0x3a00d5b8	0.0004914659
167	0xbdba94dc	-0.09110424
168	0xbe8b851d	-0.27249995
169	0x3e0f649d	0.14003225
170	0xbef790a7	-0.48352548
171	0xbead93db	-0.33901867
172	0xbf05bbc1	-0.52239615
173	0xbe038fd5	-0.12847836
174	0x3cc4b8a3	0.024013823
175	0x3cd6c465	0.026216695
176	0x3e08b329	0.13349594
177	0xbf641f36	-0.89110124
178	0x3dc0b6ed	0.0940989
179	0xbf1d83ea	-0.6152941
180	0xbdaa299a	-0.08308716
181	0x3ee30f68	0.44347692
182	0x3e9407bb	0.28912148
183	0xbe01965c	-0.12655014
184	0x3f041f3e	0.5161017
185	0x3bd7e274	0.0065882746
186	0x3dce33a9	0.10068447
187	0xbf0acf0d	-0.54222184
188	0xbd8dc3ba	-0.069220975
189	0xbed72330	-0.42019033
190	0x3cc2dedb	0.023787906
191	0xbef70042	-0.48242384
192	0x3d6c95ec	0.057760164
193	0xbdc8fb94	-0.0981361
194	0x3dfaa9fc	0.12239453
195	0xbba306af	-0.004975162
196	0xbc687c2d	-0.014189762
197	0xbe01f146	-0.12689695
198	0xbe06a1e9	-0.13147701
199	0xbe11dd8e	-0.14244673
200	0xbdeb4797	-0.11488264
201	0xbe134beb	-0.14384429
202	0xbdc81d3a	-0.097711995
203	0x3b725c42	0.003698126
204	0xbd9862ef	-0.07440745
205	0xbd10d8af	-0.035362896
206	0xbde8424a	-0.11340769
207	0xbd03e8ae	-0.032204323
208	0xbd4b5601	-0.049642567
209	0x36109c62	2.15487e-06
210	0xbd47416a	-0.048646368
211	0xbda98114	-0.08276573
212	0x3d8500c6	0.06494288
213	0x3d4e1558	0.050313324
214	0xbe299d41	-0.16563894
215	0xbe183bb4	-0.14866525
216	0x3ce61ed5	0.028090874
217	0xbe381117	-0.1797527
218	0xbd7f8841	-0.0623858
219	0x3ca10ab3	0.019658422
220	0x3dde2c5f	0.10848307
221	0xbd216d71	-0.039411012
222	0xbdeeb737	-0.11656039
223	0x3d831bee	0.064018115
224	0x3cc7787c	0.024349444
225	0x3dce1963	0.10063436
226	0xbcb319f8	-0.021862969
227	0xbda6cbae	-0.081443176
228	0x3d349ea0	0.04409659
229	0xbe15b4d4	-0.14619762
230	0x3c517dc9	0.012786337
231	0xbe1f966f	-0.1558473
232	0xbde14db2	-0.11001147
233	0xbdae9910	-0.08525288
234	0x3d2d54ea	0.04231731
235	0x3c0ea2c3	0.008705798
236	0xbd195d8b	-0.037442725
237	0x3d92bd9b	0.071650706
238	0xbe298dba	-0.1655797
239	0x3dfe5894	0.12419239
240	0xbd74334e	-0.05961924
241	0x3d96ffea	0.073730305
242	0x3db77562	0.08957936
243	0xba983490	-0.0011612345
244	0x3caf8897	0.021427436
245	0x3d819477	0.063271455
246	0xbe1f32cb	-0.1554672
247	0xbc5f4b26	-0.013628757
248	0x3d4a9df8	0.049467057
249	0x3c0b6fa0	0.0085105
250	0xbd11b9b9	-0.03557751
251	0x3c8e9a3a	0.017407525
252	0x3cb8ebfe	0.022573467
253	0xbe2f76c2	-0.17135146
254	0x3c437400	0.011929512
255	0xbe10b17f	-0.1413021

w_group.2.bias f4 [32]
0	0xbe5b34a2	-0.21406797
1	0xbfbcdb75	-1.4754473
2	0x3f3e19de	0.7425822
3	0xbe4894f4	-0.19588071
4	0x3f77cc32	0.9679595
5	0xbdd0f9fc	-0.10203931
6	0xbf0d85aa	-0.5528208
7	0x3e8ad97f	0.2711906
8	0xbecd1f4e	-0.40062946
9	0xbfdd9d53	-1.7313637
10	0x3f0d7361	0.5525418
11	0x3f973663	1.1813473
12	0x3dfaf7f7	0.12254327
13	0xbe3d4db6	-0.18486676
14	0xbf9c3638	-1.2204046
15	0xbfca46ca	-1.5802853
16	0xbf8baafd	-1.0911556
17	0x3f0dc0dd	0.5537241
18	0x3ec509bc	0.3848399
19	0x3ec48947	0.38385984
20	0x3ef3d80a	0.47625762
21	0x3f0b6f53	0.5446674
22	0x3fef123f	1.8677443
23	0xbf0fb349	-0.5613294
24	0xbf37d65a	-0.7181145
25	0xbe88f992	-0.26752907
26	0xbf97cb08	-1.1858835
27	0xbdc40320	-0.095709085
28	0xbdb0366b	-0.086041294
29	0x3f1a4f04	0.6027682
30	0xbe586099	-0.21130599
31	0x3eff1a91	0.49824956

w_agents.0.weight f4 [64, 5]
0	0x3e3865f6	0.18007645
1	0xbd789f0b	-0.06069855
2	0x3ee873e9	0.45400932
3	0x3d8ae2ec	0.06781563
4	0x3f18d563	0.597006
5	0xbc8e9388	-0.017404333
6	0x3aa4d9d9	0.0012577131
7	0x3c0c5bb4	0.008566786
8	0xbee10203	-0.43946847
9	0xbed9b9ec	-0.4252466
10	0x3d6d1a3f	0.05788636
11	0x3cf44eec	0.02982279
12	0xbbc46799	-0.005993795
13	0xbf862794	-1.0480828
14	0xbe70c50d	-0.23512669
15	0x3dd0dedd	0.10198758
16	0xbc731364	-0.014836166
17	0x3ea152e3	0.3150855
18	0x3f710e7e	0.9416274
19	0xbfa086c8	-1.2541132
20	0xbe0d8d1c	-0.1382336
21	0xbdab4d41	-0.083643444
22	0x3f358e6f	0.7092046
23	0xbf3216f1	-0.69566256
24	0xbe3624b0	-0.17787433
25	0xbe8c8e4e	-0.2745232
26	0xbf36ed82	-0.7145616
27	0x3d4b7ea4	0.04968132
28	0x3e3343e9	0.17506374
29	0x3e215ccd	0.15758057
30	0x3edf54ee	0.43619484
31	0x3df8d368	0.121496975
32	0xbf260f90	-0.64867496
33	0x3ebed93a	0.37275106
34	0xbc293894	-0.010328431
35	0x3f0a57a0	0.54039955
36	0xbe7acaf1	-0.24491479
37	0xbe2511af	-0.16120027
38	0xbe69953f	-0.22810839
39	0xbf4e176e	-0.805045
40	0x3bb7a5f5	0.0056045004
41	0x3c32b002	0.010906221
42	0x3bf7c32f	0.0075611095
43	0xbeda9db2	-0.42698437
44	0xbf2b2800	-0.6685791
45	0xbbe4a8fc	-0.0069781523
46	0xbc01fc35	-0.007933666
47	0xbd9c9c04	-0.07646945
48	0xbe7a117b	-0.24420731
49	0xbedc94b5	-0.43082204
50	0x3a965fc1	0.0011472629
51	0xbbf16794	-0.007367084
52	0x3de995f5	0.11405555
53	0x3d9460d2	0.072450295
54	0xbe0241fc	-0.12720484
55	0xbd0f3b6e	-0.034968786
56	0xbd6fce1e	-0.058546178
57	0x3e7f3b2f	0.2492492
58	0xbe96b12b	-0.29432043
59	0xbe9b120b	-0.30287203
60	0x3f104927	0.5636162
61	0xbe9611b7	-0.2931039
62	0xbe894d83	-0.2681695
63	0xbe4ac6e5	-0.19802435
64	0xbf77dcb8	-0.96821165
65	0xbcbffe70	-0.023436755
66	0x3b02edbf	0.0019978133
67	0xbe907433	-0.28213653
68	0xbdf4c502	-0.11951639
69	0xbd9996a3	-0.07499435
70	0x3cbf196e	0.023327556
71	0x3d53d11c	0.051713094
72	0x3e36a08b	0.1783468
73	0x3ec9c644	0.39409077
74	0xbf184e6b	-0.59494656
75	0xbd72ee60	-0.059309363
76	0xbda4ec97	-0.080529384
77	0x3e7e2cc8	0.2482177
78	0x3e9baec8	0.30406785
79	0xbf527e7e	-0.8222426
80	0x3d6ead30	0.058270633
81	0xbdd87cfa	-0.105707124
82	0xbf001ca9	-0.5004373
83	0x3fa3a310	1.2784138
84	0xbfa726c3	-1.3058704
85	0xbd0e1885	-0.034691352
86	0x3d016f6d	0.031600405
87	0x3e40577f	0.18783377
88	0x3e48c65f	0.19606923
89	0xbec5cc27	-0.38632318
90	0x3ebb787b	0.36615357
91	0xbeda0f43	-0.4258977
92	0x3f41d915	0.75721866
93	0x40530b3a	3.2975602
94	0xc01dbf22	-2.4647908
95	0xbbf8d012	-0.0075931633
96	0x3a0178e5	0.0004938974
97	0xbe0b6ac4	-0.13614947
98	0xbe28da77	-0.16489588
99	0xbf1610fa	-0.58619654
100	0xbe3cf411	-0.18452479
101	0xbe4e68d2	-0.20157173
102	0x3e364e08	0.17803204
103	0x3e80e3ca	0.2517379
104	0xbff9126a	-1.9458745
105	0x3df99e45	0.12188391
106	0x3dc832e8	0.097753346
107	0x3d17383f	0.036918875
108	0x3f98b398	1.1929808
109	0xbf811f35	-1.0087649
110	0xbcca5357	-0.024697943
111	0xbcb273cc	-0.021783732
112	0x3dc53c91	0.09630693
113	0xbe309dae	-0.1724765
114	0xbd43f294	-0.047838762
115	0xbcb51ae3	-0.022107547
116	0xbb3834b3	-0.0028107583
117	0xbe8137eb	-0.25237975
118	0xbd9409e7	-0.07228451
119	0xbf3c83e2	-0.7363874
120	0x3cb810dd	0.022468979
121	0x3d19f148	0.03758362
122	0xbf8c0c33	-1.0941223
123	0x3db39c16	0.087700054
124	0x3be3ff26	0.0069579063
125	0xbb989cc6	-0.0046573607
126	0x3d17d4af	0.037068065
127	0x3d9dfb58	0.07713956
128	0x3f0a1152	0.5393268
129	0xbede26c6	-0.43388957
130	0xbc9e3eba	-0.01931702
131	0xbc28b47a	-0.010296935
132	0x3cdd6218	0.027024314
133	0xbe1e58dd	-0.15463586
134	0xbe764076	-0.24048027
135	0xbd27845b	-0.04089771
136	0x3ec06f0b	0.3758472
137	0xbf0c71aa	-0.5486094
138	0x3f1ad620	0.6048298
139	0xbf980385	-1.1876074
140	0xbe4a83c3	-0.19776826
141	0x3ef744d4	0.482947
142	0x3ec73deb	0.38914427
143	0xbe290775	-0.16506751
144	0xbfdba9c5	-1.7161185
145	0x3e73c6de	0.2380633
146	0x3c9f8452	0.019472275
147	0x3f4a556a	0.7903658
148	0x3ef7fe4c	0.484362
149	0xbf6566b2	-0.89609826
150	0xbd9242b4	-0.07141629
151	0xbd6b1d66	-0.057401083
152	0xbf4fd13e	-0.81178653
153	0x3e13c277	0.14429651
154	0xbf6b8a8e	-0.9200829
155	0x3e1c709c	0.15277332
156	0xbc9b9262	-0.0189907
157	0xbe3c5f4e	-0.18395731
158	0x3e8f9aea	0.28047878
159	0xbf6e5102	-0.9309236
160	0xbd80996d	-0.06279264
161	0x3d4931d5	0.04911979
162	0xbf9bfdf5	-1.2186877
163	0x3f98a58f	1.1925524
164	0xbf4f3836	-0.80945146
165	0x3d8465ed	0.06464753
166	0x3da656ea	0.08122046
167	0xbf02546c	-0.5091007
168	0x3f3178a0	0.69324684
169	0xbf16ce2e	-0.58908355
170	0x3bd18484	0.006393971
171	0x3d3cb652	0.04607231
172	0x3dbcbb2b	0.09215387
173	0x3db62b1b	0.088949405
174	0xbd6aec9a	-0.057354547
175	0x3e17b747	0.14816009
176	0xbc913c2e	-0.017728891
177	0x3eab4e6e	0.33458275
178	0xbec64451	-0.38723996
179	0xbf803f82	-1.0019381
180	0xbccfe810	-0.02537921
181	0x3d90385e	0.07042001
182	0xbd8c302d	-0.06845126
183	0x3f1add5f	0.60494035
184	0xbec002fd	-0.3750228
185	0x3e96a17b	0.29420075
186	0x3ebfa63a	0.37431508
187	0xbfd6f79f	-1.6794318
188	0xbd1785eb	-0.03699295
189	0xbf95a000	-1.1689453
190	0x3c7a1518	0.015263818
191	0x3c0511a8	0.008121885
192	0x3da2be23	0.07946422
193	0xbec22dd8	-0.379256
194	0xbf345c75	-0.7045358
195	0x3e2ca96e	0.16861507
196	0x3e70ab3c	0.2350282
197	0x3e7e9dba	0.24864855
198	0x3ebc37fb	0.3676146
199	0xbfaf6f8d	-1.3705918
200	0x3ad287b0	0.0016062167
201	0xbd78dbab	-0.060756367
202	0xbf11c0de	-0.56934917
203	0xbea929e7	-0.3303978
204	0xbf3ccbd4	-0.7374852
205	0x3eda4e9c	0.426381
206	0x3e1512a5	0.14557894
207	0xbe580d94	-0.2109893
208	0x401e7a92	2.476231
209	0xbfeaaa8e	-1.8333299
210	0xbdcad458	-0.099037826
211	0xbee4c837	-0.44684002
212	0x3fbc2d41	1.470131
213	0x403a6b05	2.912782
214	0xbf9ee433	-1.2413391
215	0x3eb614fa	0.3556288
216	0xbecdd155	-0.4019877
217	0xbf352131	-0.7075377
218	0x4025fc49	2.5935233
219	0xbf4cf7d6	-0.8006567
220	0xbd6c4e72	-0.057692
221	0x3f0aac1a	0.54168856
222	0xbf00f136	-0.5036806
223	0x3fdda6a3	1.7316478
224	0xbf196fe1	-0.5993634
225	0xbc9620f9	-0.01832627
226	0x3e9d5ca0	0.3073473
227	0xbe6d83ed	-0.23194857
228	0x3f7bb4fc	0.98323035
229	0xbf549ee0	-0.83054924
230	0x3e93c691	0.28862432
231	0x3d25d881	0.040489677
232	0x3e92ba64	0.2865783
233	0x402b9ce8	2.6814518
234	0xc00b0011	-2.171879
235	0xbbaa8f76	-0.00520509
236	0x3d9853d2	0.074378625
237	0xbf0cf56f	-0.55062
238	0x3eb67b93	0.35641155
239	0xbf82d6d2	-1.0221808
240	0xbe77f4dc	-0.242145
241	0xbec8184d	-0.3908104
242	0xbebaead0	-0.36507273
243	0x401d853d	2.4612572
244	0xbfdcb1f7	-1.724181
245	0xbea0f1a4	-0.31434357
246	0xbe8770f4	-0.26453364
247	0x3f57c6ef	0.84287924
248	0xbdd11a64	-0.10210112
249	0xbf657ebf	-0.89646524
250	0x3e33506a	0.17511144
251	0xbdca0b72	-0.09865464
252	0x3db29214	0.087192684
253	0xbf909458	-1.1295271
254	0x3d8d13f1	0.06888569
255	0xbd76e285	-0.06027462

w_agents.0.bias f4 [64]
0	0xbe6bd045	-0.23028667
1	0xbeb5f64c	-0.35539472
2	0xbeb53676	-0.35393113
3	0xbf4e6a8f	-0.80631346
4	0xbf3c0dcf	-0.7345857
5	0xbd8f372c	-0.06992945
6	0xbd8480eb	-0.06469902
7	0xbee9c686	-0.45659274
8	0xbecb9e01	-0.39768985
9	0xbe4cf6ea	-0.20016065
10	0xbe1de26f	-0.15418409
11	0xbf1db81c	-0.61609054
12	0xbfa15d61	-1.2606622
13	0xbedd78e3	-0.43256292
14	0xbe944d37	-0.2896516
15	0xbf61c228	-0.88186884
16	0xbfc30201	-1.5234987
17	0xbea5e87b	-0.3240393
18	0xc00e329c	-2.221839
19	0xbd96cbc9	-0.07363088
20	0xbfb0f012	-1.3823264
21	0xbf6acc78	-0.91718245
22	0xbf037635	-0.51352245
23	0xbe468012	-0.19384792
24	0xbe0b63ed	-0.13612337
25	0xbedc2877	-0.42999622
26	0xbeb04ac5	-0.34432045
27	0xbf819a27	-1.0125169
28	0xbfdd8130	-1.730505
29	0xbf1b1627	-0.60580677
30	0xbfa026e4	-1.2511868
31	0xbf685a07	-0.9076237
32	0xbf1734b6	-0.59064806
33	0xbf464563	-0.77449626
34	0xbeb3a184	-0.35084164
35	0xbf975615	-1.1823145
36	0xbf06a207	-0.52590984
37	0xbfbbcf60	-1.4672661
38	0xbe64c63d	-0.22341247
39	0xbf88db6e	-1.0691965
40	0xbf330e4e	-0.699437
41	0xbfc0b1d2	-1.5054266
42	0xbfd77a04	-1.6834111
43	0xbf9743dd	-1.1817585
44	0xbf684f3a	-0.9074589
45	0xbfb6a60f	-1.4269427
46	0xbfd63d9f	-1.6737555
47	0xbec63009	-0.38708523
48	0xbf8cc956	-1.0998943
49	0xbf887aaf	-1.066244
50	0xbf38b67b	-0.72153443
51	0xbe6527c1	-0.22378446
52	0xbe2a8fa0	-0.16656351
53	0xbda05125	-0.07827977
54	0xbcc16fd2	-0.02361289
55	0xbfd0e7b1	-1.6320707
56	0xbf8f978f	-1.1218127
57	0xbf3bc580	-0.73348236
58	0xbf399aee	-0.7250203
59	0xbef83d40	-0.4848423
60	0xbecd9a07	-0.40156576
61	0xbfbb14f6	-1.4615772
62	0xbf75d5ea	-0.9602953
63	0xbdcf99e6	-0.10136776

w_agents.2.weight f4 [32, 64]
0	0x3bce950a	0.006304388
1	0xbd168c53	-0.036754917
2	0xbd450779	-0.04810283
3	0xbd61c4d3	-0.055119347
4	0xbdb7b2ab	-0.08969625
5	0x3b992b65	0.0046743625
6	0xbe032cc3	-0.12810044
7	0x3d81c95c	0.063372344
8	0x3d580e3f	0.05274796
9	0xbd8be612	-0.06830992
10	0xbceb0469	-0.028688626
11	0x3d2ba77c	0.041907772
12	0xbd8e2a04	-0.069416076
13	0x3d6ce439	0.057834838
14	0x3b69ce64	0.0035675997
15	0x3bf74cde	0.007547005
16	0xbda274e1	-0.07932449
17	0xbcb3820e	-0.0219126
18	0xbdd2e4c1	-0.102975376
19	0xbe2176ed	-0.15768023
20	0xbe40c09b	-0.18823473
21	0x3c080bc5	0.008303587
22	0xbe4ea3be	-0.2017965
23	0xbdbf1175	-0.093295015
24	0xbe1be23d	-0.15223022
25	0xbb50d5f3	-0.0031865805
26	0xbb9fb45a	-0.0048737945
27	0xbda6def8	-0.08147997
28	0xbdb9536e	-0.09049116
29	0x3d3fe581	0.04684973
30	0x3ca666f1	0.020312758
31	0xbce6d39c	-0.028177075
32	0xb890a038	-6.896298e-05
33	0xbddf0ae9	-0.10890753
34	0xbd2cfcc1	-0.042233232
35	0xbe1354ce	-0.14387819
36	0xbde15ab5	-0.11003629
37	0xbd88c6ca	-0.06678541
38	0xbe3844ba	-0.17994967
39	0xbd26ad77	-0.040692773
40	0xbd666558	-0.056248993
41	0xbd8a3292	-0.06747927
42	0x3d2d385c	0.042290077
43	0x3d222628	0.03958717
44	0x3d498eac	0.049208328
45	0x3cc5a1bd	0.024124974
46	0xbdbb239b	-0.091376506
47	0xbd07ca7b	-0.033152085
48	0xbdc93cf0	-0.09826076
49	0xbb1f21b5	-0.0024281566
50	0xbd8b128e	-0.067906484
51	0xbe0eed9a	-0.13957825
52	0xbcc7bf51	-0.024383219
53	0xbe052c5d	-0.13005204
54	0xbcf11649	-0.029429572
55	0xbdc66870	-0.096878886
56	0xbc669850	-0.0140744
57	0xbd500b15	-0.05079182
58	0xbda49e00	-0.080379486
59	0x3d7eedca	0.062238492
60	0x3beb78dd	0.007186039
61	0x3bba06bb	0.005677072
62	0xbdab5e8a	-0.08367641
63	0xbd9774cc	-0.07395324
64	0xc0654c3f	-3.5827787
65	0xbed09382	-0.4073754
66	0xbf3455b7	-0.7044329
67	0xbfbac63b	-1.4591745
68	0xbef21379	-0.4728048
69	0xbf44faf1	-0.76945406
70	0xbef9d61d	-0.48796168
71	0xbe97e430	-0.2966628
72	0x3dc4b90d	0.09605608
73	0xbe827972	-0.2548328
74	0xbe1f67ed	-0.15566988
75	0x3ce81eac	0.028334938
76	0xbf41ee95	-0.7575467
77	0xbdd67d28	-0.104730904
78	0x3e39c8a1	0.1814294
79	0xbdcef624	-0.10105541
80	0x3e5873a2	0.2113786
81	0xbec9e291	-0.3943067
82	0x3fa59557	1.29362
83	0xbdf1c970	-0.11805999
84	0x3d06fc5c	0.032955512
85	0x3f18e63c	0.5972631
86	0xbe35a879	-0.17740048
87	0x3d836021	0.064148195
88	0xbd98c75d	-0.074599005
89	0xbcf58d1b	-0.02997451
90	0xbe19f115	-0.15033372
91	0x3a82dd1d	0.000998411
92	0xbf6fbc39	-0.9364658
93	0xbf124caf	-0.5714826
94	0xbdb6d9d1	-0.08928264
95	0xbe869633	-0.26286468
96	0xc020b193	-2.5108383
97	0xbde35178	-0.11099523
98	0xbe89ffb9	-0.26952913
99	0xbf481a5e	-0.78165233
100	0x397b55cf	0.00023969192
101	0x3ec187bb	0.37798867
102	0xbe98bf7c	-0.2983359
103	0x3f866083	1.0498203
104	0xbd2241c8	-0.039613515
105	0x3f34494a	0.7042433
106	0xbf49ffff	-0.78906244
107	0xbdd4103f	-0.10354661
108	0x3e9b0ccf	0.3028321
109	0x3dc24813	0.09486403
110	0xbf2954dd	-0.66145116
111	0xbcb176d7	-0.021663113
112	0xbf7ea55a	-0.99471056
113	0xbf94d547	-1.1627587
114	0xbebc9635	-0.3683335
115	0xbd933407	-0.07187658
116	0xbe9c40dd	-0.30518237
117	0x3d2b9088	0.041885883
118	0xbe4605b8	-0.19338119
119	0xbea58142	-0.32325178
120	0xbe1329a0	-0.14371347
121	0x3ec6facc	0.38863218
122	0xbef1bd74	-0.47214854
123	0x3d8793de	0.0662
124	0x3e2aac67	0.16667329
125	0x3efe58de	0.49677175
126	0xbdaa6c98	-0.08321494
127	0xbe4d687e	-0.20059392
128	0xbe0b546b	-0.13606422
129	0xbdc7c281	-0.097538956
130	0xbd3b3cb9	-0.045712207
131	0x3d8940a8	0.06701785
132	0xbd964233	-0.07336845
133	0xbd80cbd4	-0.06288877
134	0xbdd3dfc7	-0.103454165
135	0xbe133495	-0.14375527
136	0xbdea67db	-0.1144559
137	0x3d710fc4	0.058852926
138	0xbca0ad9a	-0.01961403
139	0xbd564d19	-0.05231962
140	0xbda145e4	-0.07874659
141	0xbdcc5214	-0.09976593
142	0xbcb73ab5	-0.02236686
143	0xbc50a18a	-0.012733826
144	0xbdac0c32	-0.084007636
145	0xbe022c4b	-0.12712209
146	0x3d6bf482	0.057606228
147	0x3d63f5f3	0.055654477
148	0x3d0f1a10	0.034936965
149	0xbe11c236	-0.14234242
150	0x3cb5d94a	0.022198338
151	0xbda7d532	-0.08194961
152	0x3d985502	0.07438089
153	0xbd1f7ad4	-0.038935497
154	0xbe15b54c	-0.1461994
155	0x3c536348	0.012902088
156	0xbd49b78f	-0.04924732
157	0xbe3cb906	-0.18429956
158	0xbd9fcece	-0.07803117
159	0x3de6a57e	0.11262034
160	0xbdfc4ced	-0.1231936
161	0xbde66896	-0.11250417
162	0x3c88e782	0.016711954
163	0x3d6eddce	0.058317
164	0xbe4f2bcf	-0.20231555
165	0xbc86bbd7	-0.01644699
166	0xbda94ef1	-0.0826701
167	0x3b683676	0.0035432852
168	0xbdad8d41	-0.08474208
169	0x3cb158e7	0.021648837
170	0x3c9e69c5	0.019337544
171	0xbd1b7315	-0.037951548
172	0x3df7e13b	0.12103506
173	0xbbacb0e3	-0.00527011
174	0xbd433432	-0.0476572
175	0xbcc8544a	-0.024454255
176	0xbc9208e9	-0.017826514
177	0xbc0543ff	-0.008133887
178	0x3c58c7ca	0.013231227
179	0x3c3224a5	0.010872995
180	0xbe00ae94	-0.12566596
181	0xbddb4690	-0.10706818
182	0xbdea922c	-0.11453661
183	0x3bc1cb6e	0.0059141433
184	0xbc828357	-0.015931768
185	0xbd0c9bc3	-0.034328233
186	0x3b8d209d	0.0043068663
187	0x3ad9fc70	0.0016631018
188	0xbca01738	-0.019542322
189	0x3d407bbc	0.046993002
190	0xbd065b20	-0.032801747
191	0x3d62ea7b	0.0553994
192	0xbe7c5324	-0.2464109
193	0xbe83fde5	-0.25779644
194	0xbe1a2b35	-0.15055545
195	0x3d1c4a4f	0.038156804
196	0xbd03a79f	-0.032142278
197	0x3d73f73d	0.059561957
198	0xbe512976	-0.20425972
199	0x3be1197f	0.0068694944
200	0xbe815baf	-0.25265262
201	0xbe7a6d45	-0.24455746
202	0xbe741e4c	-0.23839682
203	0xbd2cafe5	-0.042159934
204	0xbe289eec	-0.16466874
205	0xbe482251	-0.1954434
206	0xbe772463	-0.24134974
207	0x3cf5ff5a	0.030028988
208	0xbd1517ff	-0.036399838
209	0xbe88e64a	-0.26738197
210	0x3dc5a58c	0.09650716
211	0x3d332103	0.043732654
212	0x3d9cf29e	0.07663463
213	0xbe3fe4a1	-0.18739559
214	0xbd8b65f5	-0.06806556
215	0xbe29ea39	-0.16593255
216	0xbdc48fcf	-0.09597742
217	0xbdaa7399	-0.0832283
218	0xbe1af86b	-0.15133826
219	0xbe0673c3	-0.13130097
220	0x3d881804	0.066452056
221	0xbe27a661	-0.16372062
222	0x3d9d2599	0.07673187
223	0xbe05303c	-0.13006681
224	0x3e057b65	0.13035353
225	0xbe65cf28	-0.22442305
226	0xbdf02e51	-0.11727584
227	0xbe215dba	-0.1575841
228	0x3a3c0097	0.0007171719
229	0xbcd24fd3	-0.025672829
230	0xbe32efea	-0.17474332
231	0xbdb3f936	-0.087877676
232	0xbe04b585	-0.12959869
233	0x3df33f26	0.11877279
234	0xbdbfce6b	-0.09365543
235	0xba9f287f	-0.0012142806
236	0x3e270589	0.16310705
237	0x3db7186c	0.08940205
238	0xbd2d3659	-0.042288158
239	0xbc1880fe	-0.009308098
240	0xbe663a49	-0.22483172
241	0xbe72fffe	-0.23730466
242	0xbe99e40b	-0.30056795
243	0xbd04e41b	-0.0324441
244	0xbe8a4a8f	-0.2701001
245	0xbdda4d98	-0.10659331
246	0xbd83e695	-0.064404644
247	0xbddcf0b3	-0.10788097
248	0xbcc8eae5	-0.024526069
249	0xbd06c227	-0.0329
250	0xbd056b78	-0.032573193
251	0xbe0ea64d	-0.13930626
252	0xbda03bd0	-0.07823908
253	0x3e2abd80	0.16673851
254	0xbe2e309b	-0.17010729
255	0xbd32e42e	-0.04367464

w_agents.2.bias f4 [32]
0	0xbe48b819	-0.19601478
1	0xbf0d162d	-0.5511196
2	0xbdef9d97	-0.1169998
3	0xbea4d432	-0.32193142
4	0xbe2f2358	-0.17103326
5	0xbf34a195	-0.70559055
6	0xbe4c9a7e	-0.19980809
7	0xbed3fe0b	-0.41404757
8	0x3ed96cc8	0.42465806
9	0xbe6bfa76	-0.23044762
10	0xbdc27136	-0.094942495
11	0xbee442c3	-0.44582185
12	0xbe99e46b	-0.30057082
13	0xbeec889f	-0.46197984
14	0xbdeb4c86	-0.11489205
15	0xbec51f32	-0.38500363
16	0xbe39b761	-0.1813636
17	0xbd9d72e2	-0.07687928
18	0xbde13ad8	-0.10997552
19	0xbec1717b	-0.3778189
20	0x3e09569f	0.1341195
21	0x3d249689	0.040182624
22	0xbfa12fbe	-1.2592695
23	0xbdda976f	-0.10673415
24	0xbef439e2	-0.4770041
25	0x3d6d33a8	0.05791059
26	0xbda21df3	-0.079158686
27	0xbd78129c	-0.060564622
28	0x3bd37fcf	0.006454445
29	0xbc2d3543	-0.010571781
30	0x3e2f8f75	0.17144568
31	0x3f00c36c	0.5029819

Ws.0 f4 [32, 32]
0	0xbeebefd4	-0.46081412
1	0xbedf6120	-0.43628788
2	0x3f1597e0	0.5843487
3	0x3f795a06	0.9740299
4	0xbf769648	-0.9632306
5	0xbcb44253	-0.022004282
6	0xbf6c9948	-0.9242139
7	0xbea614c9	-0.32437733
8	0xbfb43bdf	-1.4080771
9	0x3fa929ee	1.3215921
10	0x3f9ce860	1.2258415
11	0x3d55147e	0.052021496
12	0x3fcb7d97	1.5897702
13	0x3f379a82	0.71720135
14	0x3f2ef3da	0.6834084
15	0x3df6c325	0.120489396
16	0x3ec3005a	0.38086206
17	0x3d80bad6	0.06285636
18	0xbe8d0e17	-0.27549812
19	0x3f822672	1.0167983
20	0xbf03c079	-0.51465565
21	0xbf0e30f8	-0.5554347
22	0x3e16ad1e	0.14714476
23	0x3f4dfe0c	0.8046577
24	0xbf2d3b40	-0.67668533
25	0xbfc73e16	-1.5565822
26	0xbf9aefa8	-1.2104387
27	0x3f7dc359	0.991262
28	0x3f84fbe5	1.0389372
29	0x40032a57	2.0494592
30	0x3f507b20	0.81437874
31	0xbee7badb	-0.45259747
32	0xbdfb3ecf	-0.12267839
33	0x3f1f46dd	0.62217504
34	0xc0157f44	-2.3358927
35	0x3e875a96	0.264363
36	0xbff22cf4	-1.8919969
37	0xbeacd1c2	-0.33753783
38	0xc02b018e	-2.67197
39	0x3fd0a095	1.6299006
40	0xbe702326	-0.23450908
41	0xbf1ae332	-0.6050292
42	0xbe7b9d1b	-0.2457165
43	0xc05d128b	-3.4542568
44	0xbe1594ac	-0.14607495
45	0xbfc20d47	-1.5160302
46	0xbf72c41d	-0.94830495
47	0xbffd1b5f	-1.9773978
48	0x3f1674f6	0.5877222
49	0xbfb916d9	-1.4460098
50	0xbfafa1aa	-1.3721211
51	0xc075f529	-3.8430884
52	0xbedfde03	-0.4372407
53	0xbf695d7e	-0.9115828
54	0x3ebb0fdf	0.36535546
55	0x3d71286e	0.058876447
56	0xbe3152ab	-0.17316692
57	0xbf9dd872	-1.2331679
58	0x3f2d863d	0.67782956
59	0xbfd6c45e	-1.6778677
60	0x3f63e63e	0.89023197
61	0x3fcd50d5	1.6040293
62	0x3f36ac10	0.71356297
63	0x3ff222e6	1.89169
64	0xc0052717	-2.0805109
65	0x3fb1842a	1.3868458
66	0xbee1229e	-0.43971723
67	0xbfa64415	-1.2989527
68	0x40001f16	2.0018973
69	0xbeca4eb2	-0.39513165
70	0xbdfb532f	-0.122717254
71	0x3fdf9b97	1.7469357
72	0x3f38ea79	0.72232777
73	0x3fe9d7c8	1.8268976
74	0xbf6ea42a	-0.93219244
75	0xbfb8e111	-1.4443685
76	0x3eeea012	0.466065
77	0x3df81424	0.121132165
78	0x3f5af182	0.8552476
79	0x3d40d804	0.04708101
80	0x3f165813	0.5872814
81	0xc014666d	-2.3187516
82	0x3f9376ff	1.152069
83	0x3f8b36a1	1.0876046
84	0x3f268876	0.6505197
85	0x3f18e2d6	0.59721124
86	0xbfbbb05d	-1.4663197
87	0x3e0268d8	0.12735307
88	0xc07757a5	-3.8647244
89	0x3dc6bc60	0.097038984
90	0xbe5c8366	-0.215345
91	0x3f8d2aa1	1.1028634
92	0xbc9cf8b1	-0.019161554
93	0x3dbb20b3	0.09137096
94	0xc1172a16	-9.447775
95	0x3f02dea2	0.5112096
96	0xbf9d6452	-1.229624
97	0x3e03dfee	0.12878391
98	0x3d502563	0.050816905
99	0x3fd38741	1.6525651
100	0xbff2a3a9	-1.8956195
101	0x3f86b8cd	1.0525147
102	0xbe998681	-0.2998543
103	0x3e5687df	0.20950268
104	0x3dd62119	0.104555316
105	0xbf84b0a3	-1.0366405
106	0x3e938b03	0.28816995
107	0x3e9a1307	0.30092642
108	0xbf03eaa6	-0.5152992
109	0xbe867885	-0.26263824
110	0x3f208802	0.6270753
111	0xbef066eb	-0.4695352
112	0xbf05320b	-0.52029485
113	0x3fdfc782	1.748276
114	0xbf013ebe	-0.5048636
115	0x3f9c0fbf	1.2192305
116	0xbff84a8b	-1.9397749
117	0xbfb1506e	-1.385267
118	0x3f5589c3	0.8341333
119	0x3cb98f6f	0.022651402
120	0x3e68f710	0.22750497
121	0x3fab787a	1.3396142
122	0x3fd0797a	1.6287072
123	0x3e9a5741	0.30144694
124	0x3e5309eb	0.20609252
125	0xbfeff360	-1.8746147
126	0x3f7b8fb0	0.98266125
127	0x3f1ed07f	0.6203689
128	0x3dfb68c7	0.12275844
129	0xbff53584	-1.9156957
130	0xbfd838a2	-1.6892283
131	0xc0574393	-3.3634994
132	0x3f0cf615	0.5506299
133	0x4009210b	2.1426418
134	0xbe3cf604	-0.18453223
135	0xbf0050f2	-0.5012351
136	0xc0168840	-2.352066
137	0x3fbc0478	1.4688864
138	0x3f88b072	1.0678847
139	0x3fc7cac9	1.560876
140	0xbfac4020	-1.3457069
141	0xbe8d33fa	-0.27578717
142	0x3effa051	0.49927
143	0x3f6ccbe1	0.92498595
144	0x3f862dd2	1.0482733
145	0x3efd79df	0.49507043
146	0xbf5b3f5a	-0.8564354
147	0xbd6b6c6b	-0.057476442
148	0x3ee63838	0.44964767
149	0xbeba2732	-0.3635803
150	0x3ded56c7	0.11588817
151	0xbfc06931	-1.5032102
152	0x4057acf6	3.3699317
153	0xbf849dfa	-1.0360711
154	0xbf0c1ecb	-0.54734486
155	0xbf9b5122	-1.2134135
156	0xbf91dfdf	-1.1396445
157	0x3fe5b4be	1.7945783
158	0x3f3d774c	0.7401016
159	0xbef51599	-0.4786804
160	0xc0b90b25	-5.7826104
161	0x3d467656	0.048452698
162	0x3ee6a6fa	0.45049268
163	0xc0a89e81	-5.2693486
164	0xbf65948d	-0.89679796
165	0x3ede4e8d	0.43419304
166	0xbf2bf7e2	-0.67175114
167	0xbf9bd5ed	-1.217466
168	0x3f1d6ba1	0.61492354
169	0x3f40ed53	0.7536213
170	0xbebc862b	-0.36821112
171	0xbc324489	-0.010880598
172	0x3fa5da9d	1.295734
173	0x3d8e73fb	0.06955715
174	0x3e8a5397	0.270169
175	0x3f756985	0.95864135
176	0xbff28b05	-1.8948675
177	0x3d8bcee9	0.06826574
178	0xbaaeacc6	-0.0013326637
179	0x3f97b493	1.1851982
180	0x3f5eca88	0.8702779
181	0xbeb26699	-0.348439
182	0xc05e8fb5	-3.4775212
183	0xc044ad42	-3.0730748
184	0x3e7f897a	0.24954787
185	0xbf30bf58	-0.6904197
186	0xbdfeb46a	-0.12436755
187	0x3f39e335	0.72612315
188	0xbe12387c	-0.1427936
189	0xbe96f73f	-0.2948551
190	0xbfa59afa	-1.293792
191	0xbf453d7a	-0.7704693
192	0xbfa971f3	-1.32379
193	0xc031b4f5	-2.7766697
194	0xbf458aec	-0.771651
195	0xc0130bf0	-2.2976036
196	0xc02039b6	-2.5035224
197	0xc04a47ef	-3.1606405
198	0xbf6178d8	-0.8807502
199	0xbf66b76f	-0.9012365
200	0xbf8d00c9	-1.1015865
201	0xbf9960f3	-1.1982712
202	0xbecc4823	-0.39898786
203	0xbec71094	-0.38879836
204	0x3d2951b0	0.04133767
205	0x3eb2a38c	0.348904
206	0x4005a5ba	2.0882401
207	0x3f617cbf	0.8808097
208	0x405ee3e2	3.4826589
209	0x3ff04ec0	1.8774033
210	0xbe82b883	-0.25531396
211	0x3de198ad	0.11015449
212	0xbdc0ab6c	-0.09407696
213	0xbf7cb59f	-0.9871463
214	0xbf9213e7	-1.1412324
215	0xbfa165f3	-1.2609237
216	0x3fb1bf6a	1.388654
217	0xbfea4c56	-1.8304546
218	0xbf9106b4	-1.1330171
219	0xbfa4aed2	-1.2865851
220	0x3fa0e431	1.2569638
221	0xbf5c5f3d	-0.8608282
222	0xbfd42e04	-1.6576543
223	0xbf1601c5	-0.5859645
224	0xbfd9dc37	-1.7020329
225	0x3ed21dba	0.41038305
226	0xbe53881d	-0.20657392
227	0x3f80fb50	1.0076694
228	0xbf4968b6	-0.786754
229	0xbf6ac3c3	-0.9170496
230	0x3f0c57bd	0.5482138
231	0x3e826812	0.25470024
232	0x3e7236a1	0.23653652
233	0x3da123bf	0.07868146
234	0xbe11c4f8	-0.14235294
235	0x3d90102b	0.07034334
236	0x3ed76bba	0.42074376
237	0xbf3cbc28	-0.73724604
238	0x3feb7647	1.839547
239	0x3f232ffc	0.63745093
240	0x3e5aa7a8	0.21353018
241	0x3dea4c21	0.11440302
242	0xbede565b	-0.4342526
243	0x3f447bcb	0.76751393
244	0xbebb486a	-0.36578685
245	0xbfbc41e7	-1.4707612
246	0x3f9b3bdb	1.2127641
247	0xbeadd1d4	-0.3394915
248	0xbfa35605	-1.2760626
249	0x3ed6cbd1	0.41952375
250	0x3f338693	0.7012722
251	0x3d9d8301	0.07691003
252	0x3e7c5df6	0.24645218
253	0xbe53885f	-0.2065749
254	0x3fc3a713	1.5285362
255	0xbec27366	-0.37978667
