data/rl_model_8.pth (torch_old, 93650 bytes, 18 tensors)

w_a f4 [32, 32]
00000000: be23 16c0 8280 0340 3e5a 5340 2803 4fc0
00000010: 00d1 1b40 c892 1cbf 8799 35c0 7cf6 863f
00000020: cdac 0240 7261 7540 30b4 32bf a111 e940
00000030: abc2 e43d bb73 5c40 8a09 0440 a8fd d3bf
00000040: b811 49c0 b021 ddbf c24f 7ac0 9150 67c0
00000050: 4d98 5a3f 9feb 58c0 e4fb 1ec0 aec5 c1bf
00000060: 4aae 893f 1246 37bf 0db1 ca3f 819d e2bf
00000070: 3f75 0840 c8ba 393f ff98 4fc0 a802 2340
00000080: 73b4 cdbf ff3f 5a3e d845 eabf 5d43 c23f
00000090: 3699 84be 3b2c 2cbe b29b 39be 45c4 753f
000000a0: 1ba4 b6bf 1c99 53bf 3dba 013f f9ab bfbf
000000b0: 0938 323d 0d67 e8be f070 64c0 b4b4 a3bf
000000c0: 2570 b23f c9b2 f03f 6d57 3b3f d3f8 223f
000000d0: f2b2 49bf 2223 fabf 09e5 29c0 eeda e03e
000000e0: f1d6 b6be 6305 aabe 02ca ea3d e1c5 5c3f
000000f0: 46a0 89bf de4a 51be 55f5 823e 40c1 cbbd
00000100: 99d4 643d fdd9 05bf f888 2240 49c7 04c0
00000110: 29bd 89bf 7fa8 cfbf 520b 823f a7fe 26bf
00000120: 5aa3 b43f e25d 0140 58c9 7dbf a2a1 e03e
00000130: 46c6 b9be 6d0b eebf 6561 2ebf c547 1a3f
00000140: 5640 aabf eac7 75bd e3b0 9fbf 52ed 393d
00000150: df75 0840 1440 18bf 59a3 d13f 36c1 8dbe
00000160: fa92 ccbe b8c5 293f 27e5 6ebf d7a4 28bf
00000170: e540 16c0 630d 133e f9a6 0bc0 fa94 bc3f
00000180: 70ac 3bc0 b347 0740 9c9e b83f 635f 7dc0
00000190: 2596 2740 8bb9 9fbf d5af e0be 29c9 1cc0
000001a0: aa6f 1f40 6594 1e40 5e68 dd3f 807f ae40
000001b0: 36e0 f33f e86a b5be eb4f 8cbd 964a acbf
000001c0: b396 6bc0 0e5e 0bc0 380e 99bf 4cdf 7e3f
000001d0: 40d1 0340 934a c2bf 9087 0dc0 a3cc efbf
000001e0: 2f3f 513f 8ad4 ae3f 6943 983e efd8 23bf
000001f0: 4d0f 4e40 37bc 8740 9095 dbbe a9db 1a40
00000200: b6df 4ebc 1255 e6be 469f 14c0 d251 413f
00000210: 989e cdbf 88b1 0bbf b4c0 23be d54b 04c0
00000220: 13c5 bcbf 2051 5abe d060 813f 5eef c6be
00000230: 7ade 57bf 7e7c 79bf 8e9d 8ebf df1f a3bc
00000240: b9e3 233e 5656 043e 46e5 c3bf 4cdf 3abe
00000250: e1d1 d7be 35e3 1abb 97cd 3bbe 8bb8 5cbf
00000260: ffeb 80bf e0e7 fd3f 7177 c5be 112a 3540
00000270: c630 ee3f fa54 f4be 7ba2 9740 19c6 1fc0
00000280: 646d fd3d 49d7 d43f b0ca 0040 5ede c6bb
00000290: 595a d63e e09e 263f 7fcf 6140 209e 783f
000002a0: 9173 bdbf 6d64 7d3f e35b 0d3d 6962 3a3f
000002b0: 4a31 b93f 65a3 5e3e 0273 8a3f 20a1 a6bf
000002c0: fd02 703f ae98 0240 0315 d83d f003 e93e
000002d0: 851f d4bd dc2c 0440 272f d53c 3c4a 033e
000002e0: cc02 aa3f a9c5 883e b7b0 723e 9d86 673f
000002f0: ef32 72bf 007b 5e3f 989c 123f e85a 33bf
00000300: 34ed dcbe 9b17 0c3f e81a 173d fdf8 21c0
00000310: 9a72 d5bf 0bf6 7bbf 83db 6bbf b62e 16c0
00000320: 48f7 8f3f 3988 923f 262e 143e 2ceb 8fbd
00000330: 8160 f1bf 7dc0 8d3f 8eb5 a7be 2ee7 2940
00000340: f090 2fc0 f3cc f1be 1937 1bc0 c8a4 993d
00000350: 0909 1e40 575f 4c3d aca2 e8bf 1894 86bf
00000360: e480 cebf 3682 633f 9656 9d3e 86ef 4dbf
00000370: c5fa 543e d989 b43e 127d ed3e 8c23 42be
00000380: 85a9 70bf 69e6 1b40 d792 333f f9ca 823e
00000390: 8e0d 343e 1441 c03f b840 5b3e 46de 6c3f
000003a0: 80b7 1740 4ab4 1e40 924d 02be aa13 1740
000003b0: 6043 0c3f 0e6b 933f 7cba bd3d 3108 873e
000003c0: 41c1 6dbe ea43 b73f 3d17 debf 58cf 103f
000003d0: a15b 04bd ac6c 97bf 05a2 a33f 30ec d23e
000003e0: 1685 e83e f947 99be 0b1b 993f 75fe 51be
000003f0: 674a a9bf ddab b3be cea7 9d3f 9841 9d3f
-2.3459315 2.0547185 3.302383 -3.2345676 2.4346313 -0.6116147 -2.8374956 1.0543971
2.041797 3.8340726 -0.69806194 7.283402 0.111699425 3.4445636 2.0630822 -1.6561785
-3.1417065 -1.7275906 -3.911118 -3.6142924 0.8538864 -3.3893812 -2.4841242 -1.5138452
1.0756314 -0.71591294 1.5835282 -1.7704316 2.1321561 0.7255063 -3.2437131 2.5470371
-1.6070694 0.21313475 -1.8302565 1.5176808 -0.2589814 -0.16813748 -0.181258 0.9600261
-1.4268831 -0.826555 0.506748 -1.4974357 0.04351047 -0.45391122 -3.5693932 -1.2789521
1.3940474 1.8804561 0.73180276 0.63660926 -0.78788674 -1.9541972 -2.6546042 0.4391703
-0.35710862 -0.33207235 0.11464311 0.8623944 -1.0752037 -0.20438716 0.25577798 -0.09948969
0.05586681 -0.5228575 2.53961 -2.0746634 -1.0760852 -1.6223296 1.0159705 -0.6523232
1.4112351 2.0213552 -0.9913535 0.43873316 -0.36284083 -1.8597237 -0.6811736 0.6026576
-1.3300884 -0.060005106 -1.2475857 0.045392342 2.1321943 -0.59472775 1.6377975 -0.2768647
-0.39955884 0.6631732 -0.9331841 -0.65876526 -2.3477108 0.14360575 -2.1820662 1.4732964
-2.9323997 2.1137512 1.4423404 -3.958947 2.618539 -1.2478498 -0.4388415 -2.4497778
2.4911904 2.4778073 1.7297475 5.453064 1.9052799 -0.35433125 -0.06851181 -1.3460262
-3.681073 -2.1776156 -1.1957464 0.99559474 2.0596466 -1.5179008 -2.211399 -1.8734325
0.81737036 1.3658612 0.2973893 -0.6400289 3.219684 4.2417254 -0.42887545 2.419657
-0.012626579 -0.44986778 -2.3222213 0.7551547 -1.6064024 -0.54567766 -0.15991479 -2.0671284
-1.4747642 -0.21320009 1.010767 -0.38854498 -0.8432385 -0.97455585 -1.1141832 -0.019912658
0.16004838 0.1292356 -1.5304344 -0.18249243 -0.42152312 -0.002363396 -0.18340145 -0.8621909
-1.007202 1.9836388 -0.3856769 2.8306925 1.8608634 -0.47721082 4.738584 -2.496466
0.1237438 1.66282 2.012371 -0.0060689887 0.41865805 0.65086174 3.5282896 0.9711628
-1.4800893 0.9898136 0.034511458 0.7280641 1.4468167 0.21742018 1.0816348 -1.3017921
0.9375456 2.0405688 0.10550883 0.45510817 -0.103575744 2.065238 0.02602346 0.12821287
1.3282104 0.26713303 0.23700224 0.9043978 -0.9460897 0.86906433 0.57270193 -0.70060587
-0.43149722 0.5472352 0.036890894 -2.530822 -1.6675599 -0.98422307 -0.92131823 -2.346601
1.1247339 1.1447822 0.14470729 -0.07027277 -1.8857576 1.1074368 -0.32755703 2.654735
-2.7432213 -0.47226676 -2.425238 0.07502133 2.4693015 0.04989561 -1.8174644 -1.0513945
-1.6133084 0.8887056 0.30730122 -0.8044361 0.20798786 0.3526142 0.46384484 -0.18958873
-0.94008666 2.4359381 0.70145935 0.2554548 0.17583296 1.501986 0.21411407 0.9252666
2.370575 2.479754 -0.12724903 2.3605752 0.54790306 1.1517045 0.09264085 0.26373437
-0.23218252 1.4317601 -1.7350842 0.5656638 -0.032313947 -1.1830039 1.278382 0.41195822
0.45414037 -0.29937723 1.1961378 -0.20507224 -1.3225831 -0.3509206 1.2316835 1.2285643

w_group.0.weight f4 [64, 8]
00000000: 5670 3bbd 3cb0 b33c 1dea 673e fb64 8fbe
00000010: 912b b1be 0011 0f3d a407 adbd f93f d43c
00000020: e32e 71bf 99b6 60bf 26ec 03c0 55d4 113f
00000030: 354c ecbe a5d4 5ebe a3af 1bbf 20af 35bf
00000040: 3275 5bbf dcdb dfbd 1ddd f3be 5b11 d6be
00000050: 3a14 51be 34eb 91be 92d0 09bf 7c55 48bf
00000060: 1d59 59bf 6326 103f 2fde 973f bf44 d6bf
00000070: e38a 323f 3e04 663e a476 01bf d564 593d
00000080: a2e8 b3bd e54b 00bd fc9f 1f3f 5e79 bd3e
00000090: 8ca1 a53c 5a00 273e e7c9 6bbe 847b aebe
000000a0: aef3 e53e b744 6d3d 695d 59bf 1972 b0be
000000b0: 3d34 0dc0 174c 8e3e f63a c93e 4483 babd
000000c0: a8af 72bf 6a18 8f3e 4aec 643f 5382 813f
000000d0: b0e7 f0be 8e80 23be ae51 32bf 981f dfbe
000000e0: ab6f 0dbf 1170 fd3e 3c96 2c40 3e10 f2bf
000000f0: 74df 4cbe 26a1 5abe f976 75bd 573f 04bf
00000100: f8f3 f6bd 8b67 213e a02a e6be 7209 e03e
00000110: 0246 c6be 288a 5ebe 3ea2 b4be a5ca c9be
00000120: e407 0cbc d834 b8be e3e9 04bf 2fdc 17bf
00000130: d94d 453f d821 fd3d 55bf d3be 8951 20bf
00000140: 8a94 7c3f 73e3 b0bb b75b 54bf 41c8 ac3e
00000150: 02d3 a4bf c447 b3bd 80e8 7c3e fe8e 933e
00000160: 421a 9fbe 31e0 8c3e bf57 cd3d 5ab6 06bf
00000170: 255e 14bf 4049 1a3d c88e 56bf 96c1 3cbf
00000180: 4ff1 883f 94bf 0ebf 5233 ca3f 7b2f 773f
00000190: 94ec 19bf 76c9 43be 95de 23bf c3a9 74bf
000001a0: 5f71 0d3f 0aa1 a93f 45df b43f 5ce9 3b3f
000001b0: 9000 04bf 3066 fcbc 4a05 36bf 174a 49bf
000001c0: a9ee efbd 8252 a5be 80a4 fd3e 76d2 993f
000001d0: c8a8 b9be aa89 22be 2968 15bf 0ded 44bf
000001e0: 46c7 ca3f 90a4 e5be 3a71 b63f 2531 9bbf
000001f0: fbd0 70be dee2 3b3e 40c6 bdbe 860d 0fbf
00000200: 4ff1 2abd 23c8 78be 8f0b 2fc0 7b46 06bf
00000210: a205 023f 7986 a3be 8d44 32be da72 7bbe
00000220: 7e4c 093e 2f1c 6c3e 52d5 e0be 5a2f 6cbd
00000230: 681a 78bf c029 c8bd ced9 e7be f422 b8be
00000240: 96dc bdbc 6e8a dc3c 9a38 f9be ab04 223e
00000250: 3b9b 9dbf 806d 54bb 9d1a 86bd 36a4 36be
00000260: 36d2 12bd b39d a8bc 694e 6b3e 0fc5 c83e
00000270: ec30 f53e aa22 623e c76b 96be 3543 81be
00000280: d355 75bf e528 8cbf 5b00 253f a995 443e
00000290: 3167 22bf f645 2d3e e096 04bf e957 48bf
000002a0: f570 7abe 3c25 c2be 00fc 13be 834f edbd
000002b0: da67 1fbf fcfe d9bd 8673 44bf 8e85 5ebf
000002c0: b73e 6a3e ef1d 90bd 5261 9f3f ce9a 91bf
000002d0: 22ac c4bf 9365 a4be efca 30be 444e e7be
000002e0: 5f6e 2c3f 7634 b53e 7407 6dbd b87f 7dbf
000002f0: f9f0 ccbe a239 403e d126 00bf cd47 87be
00000300: 0d8b 2b40 2a56 23be 2c2b b23e 7aa1 30be
00000310: ee83 2abf 471b 953e 72b4 593e 9ec1 a93d
00000320: 4474 2b3e 7c3d 76be 0ff0 693f 9e7b b23e
00000330: 1d23 0dbf d86e 683d d37b 09bf b5f6 d7be
00000340: 80a5 603e ee11 163e 31bb 253f d21d 3e3f
00000350: 255c d7be 8eb7 5a3e 2d13 02bf 2531 2dbe
00000360: 968d 113f c6c8 9a3f fa75 503e 5044 39be
00000370: 94ae 24bf e06f 50bc 0135 95be 4112 f73d
00000380: 4aea 6bbe 4e9a a2be 82ff 83be 6562 95bf
00000390: 7cd8 a73d 230e b1be a5e9 1ebf f472 3bbf
000003a0: 6068 c1be 7f0f c0be b42b 4c3f 8efa 8abf
000003b0: 5ea5 7dbf 62bf 453e 69ff 34bf 1088 3bbf
000003c0: 8e48 88be 861e ce3e 4b59 b3be 8214 6dc0
000003d0: 1f0c 47be ecfe 05be d7ca 7a3d 2ede 663d
000003e0: 0c0c 1d3c 6b4c bebe 836a 1cbf f728 b0bd
000003f0: 57a0 02bf d425 d2bd f119 1cbf 4deb febe
-0.04576143 0.021934621 0.22647901 -0.2800673 -0.3460355 0.03492832 -0.08448723 0.02590941
-0.9421217 -0.8777862 -2.0612884 0.5696462 -0.4615189 -0.21760805 -0.60814875 -0.70970345
-0.857257 -0.10930607 -0.47629634 -0.41810116 -0.20417872 -0.28499758 -0.5383388 -0.7825544
-0.849016 0.56308573 1.186468 -1.673973 0.69743174 0.22462556 -0.50571656 0.053074677
-0.087846056 -0.03132238 0.6235349 0.37006658 0.020218633 0.16308728 -0.23026238 -0.3407861
0.44912475 0.05792686 -0.8490816 -0.3446205 -2.2063134 0.27792427 0.39302796 -0.09107068
-0.9479928 0.27948314 0.8942305 1.0117897 -0.47051764 -0.15967008 -0.69655883 -0.43578792
-0.55248517 0.49499562 2.6966696 -1.8911207 -0.20007116 -0.21350536 -0.059927914 -0.5165915
-0.12058252 0.15762155 -0.44954395 0.43757206 -0.38725287 -0.2173239 -0.3528003 -0.39412418
-0.008546803 -0.35977817 -0.5191938 -0.5932035 0.7707191 0.12359971 -0.41356912 -0.6262441
0.9866415 -0.005398208 -0.82952446 0.33746532 -1.2876894 -0.087539226 0.24698067 0.28820032
-0.3107472 0.27514794 0.10026502 -0.52621996 -0.57956153 0.037667513 -0.83811617 -0.7373289
1.0698642 -0.55761075 1.5796912 0.96556824 -0.60126615 -0.1911982 -0.6401151 -0.95571536
0.55251116 1.325227 1.4130636 0.73402953 -0.5156336 -0.030810446 -0.7110182 -0.7862868
-0.11715443 -0.3228951 0.49539566 1.2017353 -0.36261582 -0.15872827 -0.5836206 -0.7692421
1.5842063 -0.44852114 1.4253304 -1.2124373 -0.2351722 0.18348262 -0.37065315 -0.5588001
-0.041734036 -0.24295096 -2.7350805 -0.52451295 0.50789845 -0.31938532 -0.17408963 -0.24555531
0.13408086 0.23057626 -0.4391275 -0.057662345 -0.9691529 -0.09773588 -0.4528336 -0.35964167
-0.023176473 0.026921477 -0.48675996 0.15822093 -1.2312998 -0.00324139 -0.06548045 -0.17836079
-0.035845004 -0.02058301 0.2297913 0.39212844 0.47888887 0.22083536 -0.29379103 -0.25246587
-0.9583408 -1.094998 0.6445367 0.19197716 -0.6343871 0.16921219 -0.51792717 -0.7825914
-0.24457152 -0.37919033 -0.14451599 -0.11587431 -0.6226784 -0.106443375 -0.76738775 -0.8692254
0.22875486 -0.070369594 1.2451575 -1.1375368 -1.5365031 -0.32108745 -0.17264913 -0.451769
0.6735591 0.35391587 -0.057868436 -0.9902301 -0.40027598 0.18771985 -0.5005923 -0.26421967
2.680362 -0.15950838 0.34798563 -0.17249098 -0.6660756 0.29122373 0.2126024 0.08288883
0.1674357 -0.24046892 0.91381925 0.34859937 -0.55131704 0.056746334 -0.53704566 -0.4218041
0.21938133 0.14655277 0.64738756 0.7426425 -0.42062488 0.21359083 -0.5081051 -0.16913278
0.5685667 1.2092521 0.20357504 -0.18092465 -0.64328885 -0.012721986 -0.29142 0.120640285
-0.23038593 -0.3175835 -0.25780874 -1.1670653 0.08195588 -0.34581098 -0.62075263 -0.7322228
-0.37774944 -0.37511823 0.79754186 -1.0857713 -0.99080455 0.19311288 -0.70702225 -0.7325449
-0.26617855 0.40257663 -0.35029063 -3.7043767 -0.19438218 -0.13085526 0.0612286 0.05636423
0.009585392 -0.37167677 -0.61100024 -0.086015634 -0.5102591 -0.102611214 -0.60977083 -0.49788895

w_group.0.bias f4 [64]
00000000: 34a4 9abe 14ba 45bf d83d 4abf 8e06 ffbe
00000010: 5220 ebbe 0967 76be 0019 e7be 0fb4 1ebf
00000020: 8e65 1bbf 898d bcbe f72d d7bc 84b7 7abf
00000030: 37dd 6abf 49ad 0cbf 37a4 07bf 5887 26bc
00000040: c0d3 95be 9ec4 0dbe d365 12bf 77b8 ae3d
00000050: 34bf 45bf beb1 61bf 48a5 48bf 8349 1ebf
00000060: b9b7 03be cd7d 41bf 1fa6 f4be b4b0 9e3d
00000070: a9ee 39be 82eb 10bf b06f 923c 0ce9 0bbf
00000080: 61c8 66be e80e 2abf 7ad5 053e 06f1 acbe
00000090: 8af3 1abf d0a2 bf3e 1082 d7be edaf 06bf
000000a0: 3cdf 5ebc 266c 0abf 4270 80be b33c a3be
000000b0: b920 7b3d 3951 24be 6df1 4c3c 1532 013e
000000c0: 53d5 1abd 3b62 48bd 1b84 22bf 8017 043e
000000d0: df0b d3be b89b e2be 3a68 96be 2892 a3be
000000e0: 68ab 4bbf 5eee 9cbe 5d30 3abd d5a8 613d
000000f0: 38ec b8be dcf4 f8be 08f3 fbbd 2a81 5ebc
-0.30203402 -0.7723706 -0.79000616 -0.49809688 -0.45923096 -0.24062742 -0.4513626 -0.619935
-0.60701835 -0.36826733 -0.026267035 -0.9793627 -0.917438 -0.5495191 -0.52984947 -0.010164104
-0.29263115 -0.13844535 -0.5718662 0.085312776 -0.7724488 -0.8816184 -0.783772 -0.6183092
-0.12863053 -0.7558258 -0.4778299 0.07748547 -0.18157448 -0.56609356 0.017875522 -0.54652476
-0.22537376 -0.66428995 0.13069716 -0.33777636 -0.6052786 0.37428904 -0.42091417 -0.5261219
-0.013603028 -0.5407127 -0.25085646 -0.31882247 0.061310504 -0.16046609 0.012508732 0.12616761
-0.037801098 -0.048921805 -0.63482827 0.1289959 -0.41219994 -0.4425943 -0.29376394 -0.31947446
-0.7955842 -0.3065061 -0.04545628 0.05509265 -0.3611772 -0.48624313 -0.12302214 -0.0135806

w_group.2.weight f4 [32, 64]
00000000: 0469 bb3d 3113 dfbd da39 57bd 54f6 eebd
00000010: f614 b93c 980e ff3c ec60 21be 8fbf de3b
00000020: 474e 5abd 6935 95bc 1ce9 88bd 3e8d 863d
00000030: 2cf5 bebd 28d2 debc 3563 f3bc 76be 973d
00000040: 57b4 72bd dd50 1cbe 9f89 3e3d 9c59 0fbe
00000050: a59c fbbd 3439 1abe bace b7bd aa9a f8bc
00000060: b3fb c3bb 1e07 9d3d f00d fcbd d225 ad3d
00000070: 51ab 443d efd9 37bd aa95 373d 5a3f a43d
00000080: 6824 a43c 40f8 66bd 9633 a23c 841b cf3c
00000090: aaf7 45bd 17e0 033d 31f3 b33d 0a8e 05be
000000a0: ae4f f7bd 8c47 c83c 5a45 5fbd 8b8c 40be
000000b0: 35a3 be3d 91d6 06bc 22e8 43be c007 febd
000000c0: d6bc 5fbe 3b96 a03c 82e8 cdbb e8a7 843d
000000d0: 3da4 c3bc 256f b83d 2020 80bd f1c2 5abd
000000e0: 4cde ae3d bb50 e4bd 3167 8ebd 0897 ddbd
000000f0: 36d9 a5bd 2b26 1ebe 84f5 92bd 87c4 23be
00000100: c391 083d 6074 593e 74c1 f13e 3f04 303e
00000110: 327a c0bd abfe ea3e 066b 35bf 1291 99be
00000120: b0de 7bbe 12a0 453e 5bd0 923e 9fae a33e
00000130: 2e19 123f 92ad 7b3f 4cd0 f13d e0c9 343f
00000140: 9a72 e63d 2acc e0be 9063 88bd b96f 023c
00000150: a9c2 293f 9c42 3abe 413f 283e 3efe 36bc
00000160: 77e1 3fbf 8575 53bd 14d8 d93e d6ba 473e
00000170: 54dc d5bc 8080 b0bc 9620 b3bd 10f6 1c3e
00000180: 9b09 1ebf 3200 e23e 29cf 95bf 2a78 7a3d
00000190: a5ac 32bd 9b75 9bbf 047d 493e 93a1 563c
000001a0: e7c6 58be bd74 413f d6b5 003e 7c2e 06bf
000001b0: 5e32 c3bd b3f6 cfbd d449 c2bf 4806 c33d
000001c0: 2c36 55be dcf0 603d 840a 54be f5da 493f
000001d0: ba3e 03be c74b 313f afde 04bf 78c8 75bf
000001e0: 4d8b 26bf 91ef ab3d 6b39 93bf ce02 91be
000001f0: dd0b 513d 4211 6fbf ca98 cbbf f979 23bf
00000200: f1f4 11be b0ff 20bf 4081 1dbd 8a44 e13e
00000210: 55e9 22bd 41eb 5c3e ea8f 30be 84ac c93e
00000220: 00d2 153d c774 d83d e4a2 373e 63be 4d3f
00000230: 78a0 4fbe 27d2 103f 687d 96be 6588 1d3c
00000240: 2dc1 04bd aa46 2dbe 948d 533e d92b 5fbe
00000250: 0995 40bf 5219 e3be 8a6e 26bf e5f5 d7bd
00000260: e2b4 c93e 94bf 92be a7dc f0bc 0098 823e
00000270: aa3d 5b3e 5213 c23d fbf3 b7be 0a91 57bf
00000280: a50a e2bd 7dfe d7be bd5c f53b efd2 eabd
00000290: abf5 d3bd 3427 503e b8d5 003a dc94 babd
000002a0: 36a8 53be 9d64 0f3e 16cd 373e 2359 01be
000002b0: bd11 59bd d58f 03be 0620 a83d 65c4 d63c
000002c0: 5ac2 773e 361f 64bf edb6 c03d 562c 0dbf
000002d0: 9a29 aabd 680f e33e df1e b63e 25dc e2bd
000002e0: 3e1f 043f 74e2 d73b bc75 3b3e 23a2 c9be
000002f0: bac3 8dbd 7792 3cbf 23b6 ce3d ec84 13bf
00000300: ec95 6c3d 94fb c8bd fca9 fa3d af06 a3bb
00000310: 2d7c 68bc 46f1 01be e9a1 06be 8edd 11be
00000320: 9747 ebbd eb4b 13be 3a1d c8bd 425c 723b
00000330: ef62 98bd afd8 10bd 4a42 e8bd aee8 03bd
00000340: 0156 4bbd 629c 1036 6a41 47bd 1481 a9bd
00000350: c600 853d 5815 4e3d 419d 29be b43b 18be
00000360: d51e e63c 1711 38be 4188 7fbd b30a a13c
00000370: 5f2c de3d 716d 21bd 37b7 eebd ee1b 833d
00000380: 7c78 c73c 6319 ce3d f819 b3bc aecb a6bd
00000390: a09e 343d d4b4 15be c97d 513c 6f96 1fbe
000003a0: b24d e1bd 1099 aebd ea54 2d3d c3a2 0e3c
000003b0: 8b5d 19bd 9bbd 923d ba8d 29be 9458 fe3d
000003c0: 4e33 74bd eaff 963d 6275 b73d 9034 98ba
000003d0: 9788 af3c 7794 813d cb32 1fbe 264b 5fbc
000003e0: f89d 4a3d a06f 0b3c b9b9 11bd 3a9a 8e3c
000003f0: feeb b83c c276 2fbe 0074 433c 7fb1 10be
0.091508895 -0.10892332 -0.052545406 -0.11668077 0.022593003 0.031134889 -0.15759629 0.006797738
-0.053297307 -0.018213945 -0.06685087 0.065699086 -0.093241066 -0.02719982 -0.029710392 0.074093744
-0.059254017 -0.15265222 0.046517964 -0.13999027 -0.12285737 -0.15060884 -0.08974977 -0.030347187
-0.0059809326 0.07667373 -0.12307346 0.08454479 0.048014943 -0.044885572 0.044820465 0.08019896
0.020036891 -0.056389093 0.019799989 0.025281675 -0.048331894 0.03219613 0.087866195 -0.13042465
-0.120757446 0.024448179 -0.0545095 -0.18803613 0.09308473 -0.008229868 -0.1913152 -0.12403822
-0.21849379 0.019602885 -0.0062838206 0.06477338 -0.023882026 0.09005574 -0.06256127 -0.053408567
0.085384935 -0.111482106 -0.06953276 -0.108198225 -0.0809807 -0.15444247 -0.07175735 -0.15992938
0.033342134 0.212358 0.47217906 0.1718912 -0.09398307 0.4589742 -0.7086643 -0.29993492
-0.24596667 0.19299343 0.28674588 0.31969163 0.5706967 0.9831172 0.118073076 0.70620537
0.11252327 -0.43905765 -0.06659615 0.007961207 0.6631265 -0.18189472 0.1643038 -0.0111690145
-0.7495341 -0.051625747 0.42547667 0.19504866 -0.026106037 -0.021545649 -0.0874645 0.1532824
-0.61733407 0.44140774 -1.1703845 0.061149754 -0.043621678 -1.2145265 0.19676596 0.013100046
-0.21169625 0.75568753 0.12569365 -0.5241468 -0.09531091 -0.10154476 -1.517878 0.095226824
-0.20821446 0.0549172 -0.20707136 0.78849727 -0.12816897 0.6925625 -0.5190229 -0.96009016
-0.65056306 0.08395303 -1.1501898 -0.28322452 0.051036704 -0.9338571 -1.5906003 -0.6385799
-0.14253594 -0.6289015 -0.03845334 0.43997604 -0.039773304 0.21574117 -0.17242399 0.3938943
0.036577225 0.105691485 0.17933232 0.8036863 -0.20276058 0.5657067 -0.29392552 0.0096150385
-0.03241079 -0.16921487 0.20659477 -0.2179407 -0.7522741 -0.44355255 -0.6501242 -0.105449475
0.39395815 -0.28661788 -0.02940209 0.25506592 0.21410242 0.09476341 -0.3592833 -0.8420569
-0.110371865 -0.42186347 0.007487862 -0.11466014 -0.10349592 0.20327455 0.0004914659 -0.09110424
-0.20669636 0.14003225 0.17949328 -0.12631659 -0.052995432 -0.12847836 0.08209233 0.026216695
0.24195233 -0.89110124 0.0940989 -0.55145776 -0.08308716 0.44347692 0.35570428 -0.110771455
0.5161017 0.0065882746 0.18306631 -0.39381513 -0.069220975 -0.7366099 0.100933336 -0.576247
0.057760164 -0.0981361 0.12239453 -0.004975162 -0.014189762 -0.12689695 -0.13147701 -0.14244673
-0.11488264 -0.14384429 -0.097711995 0.003698126 -0.07440745 -0.035362896 -0.11340769 -0.032204323
-0.049642567 2.15487e-06 -0.048646368 -0.08276573 0.06494288 0.050313324 -0.16563894 -0.14866525
0.028090874 -0.1797527 -0.0623858 0.019658422 0.10848307 -0.039411012 -0.11656039 0.064018115
0.024349444 0.10063436 -0.021862969 -0.081443176 0.04409659 -0.14619762 0.012786337 -0.1558473
-0.11001147 -0.08525288 0.04231731 0.008705798 -0.037442725 0.071650706 -0.1655797 0.12419239
-0.05961924 0.073730305 0.08957936 -0.0011612345 0.021427436 0.063271455 -0.1554672 -0.013628757
0.049467057 0.0085105 -0.03557751 0.017407525 0.022573467 -0.17135146 0.011929512 -0.1413021

w_group.2.bias f4 [32]
00000000: a234 5bbe 75db bcbf 747b 203f f494 48be
00000010: bf21 763f 797b e6bd eab3 c9be e8d4 4a3e
00000020: 4e1f cdbe 1780 e5bf ff37 1f3f b100 993f
00000030: 8678 393e 13f2 b4bb b944 94bf f712 c3bf
00000040: 03e8 82bf 4b5f f63e 118b e03e 3664 d53e
00000050: be96 993e 83a6 123f bd86 de3f b17a 0fbf
00000060: 5ad6 37bf b9be 67be 7ecb 95bf 2003 c4bd
00000070: 6b36 b0bd 626d 303f 9960 58be fb9a e43e
-0.21406797 -1.4754473 0.62688375 -0.19588071 0.9614524 -0.11254019 -0.39395076 0.1980778
-0.40062946 -1.7929715 0.6219482 1.1953336 0.18112382 -0.0055220216 -1.1583472 -1.5240163
-1.0227054 0.48119578 0.438561 0.41678017 0.2999782 0.57285327 1.7384869 -0.5604659
-0.7181145 -0.22631349 -1.1702726 -0.095709085 -0.086041294 0.68916905 -0.21130599 0.4464949

w_agents.0.weight f4 [64, 5]
00000000: 9cf6 bb3e 7472 563d b671 ec3e 216a 72bc
00000010: 152d 153f 8893 8ebc d9d9 a43a b45b 0c3c
00000020: 0302 e1be ecb9 d9be d64a 803d 044c 943d
00000030: 8f10 163c 3aa8 82bf c3a3 79be ddde d03d
00000040: 6413 73bc e352 a13e 7e0e 713f c886 a0bf
00000050: 9129 ccbd 1054 37bd 7a35 1e3f af96 37bf
00000060: 0567 cbbd 0c13 89be 8c80 2ebf 20c1 1d3d
00000070: 935e 2f3e 43bf 183e aecc a83e e361 933b
00000080: 25c1 32bf 8fd8 d43e 2fa1 c0bc 7ab5 073f
00000090: 5faa 96be dd2a 00bf 9927 eabd df32 4ebf
000000a0: f5a5 b73b 02b0 323c 2fc3 f73b b29d dabe
000000b0: 0028 2bbf fca8 e4bb 35fc 01bc 049c 9cbd
000000c0: 7b11 7abe b594 dcbe c15f 963a 9467 f1bb
000000d0: f595 e93d d260 943d fc41 02be 6e3b 0fbd
000000e0: 1ece 6fbd 2f3b 7f3e 2bb1 96be 0b12 9bbe
000000f0: dc78 023f 7edc cdbe 4509 a9be b4eb ffbe
00000100: a4cd 63bf 70fe bfbc bfed 023b 3374 90be
00000110: 02c5 f4bd a396 99bd 6e19 bf3c 1cd1 533d
00000120: 8ba0 363e 44c6 c93e 6b4e 18bf 60ee 72bd
00000130: 97ec a4bd c82c 7e3e c8ae 9b3e 7e7e 52bf
00000140: 30ad 6e3d fa7c d8bd a91c 00bf 10a3 a33f
00000150: c326 a7bf 8518 0ebd 6d6f 013d 7f57 403e
00000160: 5fc6 483e 27cc c5be 6dfc 183e 88b5 d0be
00000170: fee7 943f fffe 4c40 d52f 0cc0 12d0 f8bb
00000180: e578 013a c46a 0bbe 77da 28be fa10 16bf
00000190: 11f4 3cbe d268 4ebe 084e 363e cae3 803e
000001a0: 6a12 f9bf 459e f93d e832 c83d 3f38 173d
000001b0: 98b3 983f 351f 81bf 5753 cabc cc73 b2bc
000001c0: 913c c53d ae9d 30be 94f2 43bd e31a b5bc
000001d0: b334 38bb eb37 81be e709 94bd e283 3cbf
000001e0: ff95 8e3d 2011 a23d e365 86bf a590 fb3d
000001f0: e2ef 6f3c c69c 98bb afd4 173d 58fb 9d3d
00000200: 5211 0a3f c626 debe ba3e 9ebc 7ab4 28bc
00000210: 1862 dd3c dd58 1ebe 7640 76be d872 dbbd
00000220: 3230 d33e a1dd 00bf a813 d63e 8375 81bf
00000230: 6e7b 85be 0b71 bf3e 9335 053f 03ab 2fbd
00000240: ffa5 d2bf fedb a83e 981f 2d3e b3d8 2f3f
00000250: cf05 63bd eed2 5abf b442 92bd 661d 6bbd
00000260: 3ed1 4fbf 77c2 133e 8e8a 6bbf 9c70 1c3e
00000270: 6292 9bbc 4e5f 3cbe ea9a 8f3e 0251 6ebf
00000280: 0661 903b 7f52 29ba 945a 95bf a0ff 973f
00000290: e266 3dbf ed65 843d ea56 a63d 6c54 02bf
000002a0: a078 313f 2ece 16bf 8484 d13b 52b6 3c3d
000002b0: 2bbb bc3d 1b2b b63d 9aec 6abd 47b7 173e
000002c0: 2e3c 91bc 6e4e ab3e 5144 c6be 823f 80bf
000002d0: 10e8 cfbc 5e38 903d 2d30 8cbd 5fdd 1a3f
000002e0: fd02 c0be cea6 903e ccdd 713e b068 d9bf
000002f0: cda8 3bbe 0934 94bf 1815 7a3c a811 053c
00000300: 23be a23d d82d c2be 755c 34bf 6ea9 2c3e
00000310: 3cab 703e ba9d 7e3e fb37 bc3e 8d6f afbf
00000320: b087 d23a abdb 78bd dec0 11bf e729 a9be
00000330: d4cb 3cbf 6b30 d93e 13a5 3c3d 8d94 9fbe
00000340: cc99 1640 a442 dfbf 0b73 3dbd cbbe f3be
00000350: e530 a13f 632d 2f40 dc67 80bf 6a2c c93e
00000360: 71d9 8bbe fd1a 32bf fc54 1a40 1f94 34bf
00000370: cd0b f23d 4755 fa3e c80e 41bf 5a11 9f3f
00000380: 0091 3dbf f920 96bc a05c 9d3e ed83 6dbe
00000390: fcb4 7b3f e09e 54bf c659 59be 8efb 7d3d
000003a0: a70a fbbe 8ec0 2a40 70df 02c0 768f aabb
000003b0: d253 983d 6ff5 0cbf 937b b63e d2d6 82bf
000003c0: e106 90be 6427 cfbe df9f cbbe a568 0840
000003d0: 3157 cabf a3a9 85be aaa0 f43c 6866 433f
000003e0: 063d c9be 71d3 5abf 83c2 383e 6bad 12be
000003f0: a67d 083e 590b 96bf 7f71 983d a9c9 39bd
0.36711586 0.052355245 0.46180505 -0.014795811 0.58271915 -0.017404333 0.0012577131 0.008566786
-0.43946847 -0.4252466 0.06264274 0.07241061 0.009159221 -1.0207589 -0.24378876 0.10198758
-0.014836166 0.3150855 0.9416274 -1.2541132 -0.09968866 -0.044757903 0.6180035 -0.717143
-0.09931759 -0.26772344 -0.68164897 0.038514256 0.17125921 0.1491671 0.32968658 0.004497753
-0.69825965 0.4157147 -0.023514358 0.53011286 -0.29426858 -0.50065404 -0.11433334 -0.80546373
0.0056045004 0.010906221 0.0075611095 -0.42698437 -0.6685791 -0.0069781523 -0.007933666 -0.07646945
-0.24420731 -0.43082204 0.0011472629 -0.007367084 0.11405555 0.072450295 -0.12720484 -0.034968786
-0.058546178 0.2492492 -0.29432043 -0.30287203 0.50965667 -0.40207285 -0.33014885 -0.49984515
-0.8898566 -0.023436755 0.0019978133 -0.28213653 -0.11951639 -0.07499435 0.023327556 0.051713094
0.1783468 0.39409077 -0.59494656 -0.059309363 -0.080529384 0.2482177 0.30406785 -0.8222426
0.058270633 -0.105707124 -0.5004373 1.2784138 -1.3058704 -0.034691352 0.031600405 0.18783377
0.19606923 -0.38632318 0.14940043 -0.40763497 1.1633298 3.2030637 -2.1904194 -0.0075931633
0.0004938974 -0.13614947 -0.16489588 -0.58619654 -0.18452479 -0.20157173 0.17803204 0.2517379
-1.9458745 0.12188391 0.097753346 0.036918875 1.1929808 -1.0087649 -0.024697943 -0.021783732
0.09630693 -0.1724765 -0.047838762 -0.022107547 -0.0028107583 -0.25237975 -0.07228451 -0.7363874
0.06962203 0.079134226 -1.0499843 0.12283448 0.014644595 -0.0046573607 0.037068065 0.07713956
0.5393268 -0.43388957 -0.01931702 -0.010296935 0.027024314 -0.15463586 -0.24048027 -0.10715264
0.41247708 -0.5033818 0.41811872 -1.0113987 -0.26070732 0.37390932 0.5203487 -0.0428877
-1.6456908 0.3298034 0.16906583 0.6869003 -0.05542546 -0.85478103 -0.07141629 -0.057401083
-0.81178653 0.14429651 -0.9200829 0.15277332 -0.0189907 -0.18395731 0.28047878 -0.9309236
0.0044060973 -0.0006459131 -1.1668267 1.1874886 -0.7398511 0.06464753 0.08122046 -0.5091007
0.69324684 -0.58908355 0.006393971 0.04607231 0.09215387 0.088949405 -0.057354547 0.14816009
-0.017728891 0.33458275 -0.38723996 -1.0019381 -0.02537921 0.07042001 -0.06845126 0.60494035
-0.3750228 0.28252262 0.23619765 -1.6985073 -0.18326111 -1.157838 0.015263818 0.008121885
0.07946422 -0.379256 -0.7045358 0.16861507 0.2350282 0.24864855 0.3676146 -1.3705918
0.0016062167 -0.060756367 -0.56934917 -0.3303978 -0.7374852 0.42419752 0.046055865 -0.31168023
2.353137 -1.7442212 -0.04625229 -0.476065 1.2593046 2.7371452 -1.0031695 0.39291698
-0.27314332 -0.6957243 2.411437 -0.70538515 0.11818657 0.48893186 -0.7541318 1.242717
-0.7404938 -0.01832627 0.3073473 -0.23194857 0.98323035 -0.83054924 -0.21225652 0.06200748
-0.49031565 2.6680026 -2.0448875 -0.00520509 0.074378625 -0.55062 0.35641155 -1.0221808
-0.28130248 -0.4045974 -0.3977041 2.131387 -1.5807859 -0.26105985 0.029861767 0.76328135
-0.3930437 -0.85478884 0.1804295 -0.14323966 0.13329181 -1.1722213 0.07443523 -0.045358334

w_agents.0.bias f4 [64]
00000000: 4375 7abe 4cf6 b5be 74a5 b9be 8f6a 4ebf
00000010: 30f0 27bf 7982 a0bd d286 9fbd da04 eabe
00000020: 019e cbbe eaf6 4cbe 6fe2 1dbe 1cb8 1dbf
00000030: 5455 97bf e378 ddbe 374d 94be 28c2 61bf
00000040: 0102 c3bf 7be8 a5be d83e f9bf c9cb 96bd
00000050: 12f0 b0bf 78cc 6abf 3576 03bf 1280 46be
00000060: ab84 03be 7728 dcbe c54a b0be 7ddc 57bf
00000070: db87 d4bf f695 10bf e426 a0bf 075a 68bf
00000080: 3963 05bf 6345 46bf 84a1 b3be 1556 97bf
00000090: 07a2 06bf 0a61 babf 3dc6 64be 6edb 88bf
000000a0: 4e0e 33bf 8343 b5bf 87ef b8bf bc16 8bbf
000000b0: 4170 86bf 0fa6 b6bf 6b1c c6bf 0930 c6be
000000c0: 0dcd 74bf 052e 83bf 204b 37bf 35b3 46be
000000d0: a08f 2abe 903b 7abd 7c1d 61bc b1e7 d0bf
000000e0: 40bd 80bf 8a8f 3abf 836b 46bf 86c0 d6be
000000f0: 079a cdbe f614 bbbf af55 47bf 25f1 15be
-0.24458794 -0.35539472 -0.36259043 -0.80631346 -0.6560087 -0.07837386 -0.07789387 -0.45706826
-0.39768985 -0.20016065 -0.15418409 -0.61609054 -1.1822915 -0.43256292 -0.2896516 -0.88186884
-1.5234987 -0.3240393 -1.9472303 -0.07363088 -1.3823264 -0.91718245 -0.51352245 -0.19384792
-0.12843578 -0.42999622 -0.34432045 -0.84320813 -1.660396 -0.5647882 -1.2511868 -0.9076237
-0.52104527 -0.77449626 -0.35084164 -1.1823145 -0.52590984 -1.4560864 -0.22341247 -1.0691965
-0.699437 -1.4161228 -1.4448098 -1.0866313 -1.0503007 -1.4269427 -1.5477422 -0.38708523
-0.9562538 -1.0248419 -0.71599007 -0.194043 -0.16656351 -0.06109196 -0.01373994 -1.6320707
-1.0057755 -0.72875273 -0.775078 -0.4194376 -0.40156576 -1.4615772 -0.7786512 -0.1464277

w_agents.2.weight f4 [32, 64]
00000000: 0a95 ce3b 538c 16bd 7907 45bd d3c4 61bd
00000010: abb2 b7bd 652b 993b c32c 03be 5cc9 813d
00000020: 3f0e 583d 12e6 8bbd 6904 ebbc 7ca7 2b3d
00000030: 042a 8ebd 39e4 6c3d 64ce 693b de4c f73b
00000040: e174 a2bd 0e82 b3bc c1e4 d2bd ed76 21be
00000050: 9bc0 40be c50b 083c bea3 4ebe 7511 bfbd
00000060: 3de2 1bbe f3d5 50bb 5ab4 9fbb f8de a6bd
00000070: 6e53 b9bd 81e5 3f3d f166 a63c 9cd3 e6bc
00000080: 38a0 90b8 e90a dfbd c1fc 2cbd ce54 13be
00000090: b55a e1bd cac6 88bd ba44 38be 77ad 26bd
000000a0: 5865 66bd 9232 8abd 5c38 2d3d 2826 223d
000000b0: ac8e 493d bda1 c53c 9b23 bbbd 7bca 07bd
000000c0: f03c c9bd b521 1fbb 8e12 8bbd 9aed 0ebe
000000d0: 51bf c7bc 5d2c 05be 4916 f1bc 7068 c6bd
000000e0: 5098 66bc 150b 50bd 009e a4bd caed 7e3d
000000f0: dd78 eb3b bb06 ba3b 8a5e abbd cc74 97bd
00000100: 3f4c 65c0 8293 d0be b755 34bf 3bc6 babf
00000110: 7913 f2be f1fa 44bf 1dd6 f9be 30e4 97be
00000120: 0db9 c43d 7279 82be ed67 1fbe ac1e e83c
00000130: 95ee 41bf 287d d6bd a1c8 393e 24f6 cebd
00000140: a273 583e 91e2 c9be 5795 a53f 70c9 f1bd
00000150: 5cfc 063d 3ce6 183f 79a8 35be 2160 833d
00000160: 5dc7 98bd 1b8d f5bc 15f1 19be 1ddd 823a
00000170: 39bc 6fbf af4c 12bf d1d9 b6bd 3396 86be
00000180: 93b1 20c0 7851 e3bd b9ff 89be 5e1a 48bf
00000190: cf55 7b39 bb87 c13e 7cbf 98be 8360 863f
000001a0: c841 22bd 4a49 343f ffff 49bf 3f10 d4bd
000001b0: cf0c 9b3e 1348 c23d dd54 29bf d776 b1bc
000001c0: 5aa5 7ebf 47d5 94bf 3596 bcbe 0734 93bd
000001d0: dd40 9cbe 8890 2b3d b805 46be 4281 a5be
000001e0: a029 13be ccfa c63e 74bd f1be de93 873d
000001f0: 67ac 2a3e de58 fe3e 986c aabd 7e68 4dbe
00000200: 6b54 0bbe 81c2 c7bd b93c 3bbd a840 893d
00000210: 3342 96bd d4cb 80bd c7df d3bd 9534 13be
00000220: db67 eabd c40f 713d 9aad a0bc 194d 56bd
00000230: e445 a1bd 1452 ccbd b53a b7bc 8aa1 50bc
00000240: 320c acbd 4b2c 02be 82f4 6b3d f3f5 633d
00000250: 101a 0f3d 36c2 11be 4ad9 b53c 32d5 a7bd
00000260: 0255 983d d47a 1fbd 4cb5 15be 4863 533c
00000270: 8fb7 49bd 06b9 3cbe cece 9fbd 7ea5 e63d
00000280: ed4c fcbd 9668 e6bd 82e7 883c cedd 6e3d
00000290: cf2b 4fbe d7bb 86bc f14e a9bd 7636 683b
000002a0: 418d adbd e758 b13c c569 9e3c 1573 1bbd
000002b0: 3be1 f73d e3b0 acbb 3234 43bd 4a54 c8bc
000002c0: e908 92bc ff43 05bc cac7 583c a524 323c
000002d0: 94ae 00be 9046 dbbd 2c92 eabd 6ecb c13b
000002e0: 5783 82bc c39b 0cbd 9d20 8d3b 70fc d93a
000002f0: 3817 a0bc bc7b 403d 205b 06bd 7bea 623d
00000300: 2453 7cbe e5fd 83be 352b 1abe 4f4a 1c3d
00000310: 9fa7 03bd 3df7 733d 7629 51be 7f19 e13b
00000320: af5b 81be 456d 7abe 4c1e 74be e5af 2cbd
00000330: ec9e 28be 5122 48be 6324 77be 5aff f53c
00000340: ff17 15bd 4ae6 88be 8ca5 c53d 0321 333d
00000350: 9ef2 9c3d a1e4 3fbe f565 8bbd 39ea 29be
00000360: cf8f c4bd 9973 aabd 6bf8 1abe c373 06be
00000370: 0418 883d 61a6 27be 9925 9d3d 3c30 05be
00000380: 657b 053e 28cf 65be 512e f0bd ba5d 21be
00000390: 9700 3c3a d34f d2bc eaef 32be 36f9 b3bd
000003a0: 85b5 04be 263f f33d 6bce bfbd 7f28 9fba
000003b0: 8905 273e 6c18 b73d 5936 2dbd fe80 18bc
000003c0: 493a 66be feff 72be 0be4 99be 1be4 04bd
000003d0: 8f4a 8abe 984d dabd 95e6 83bd b3f0 dcbd
000003e0: e5ea c8bc 27c2 06bd 786b 05bd 4da6 0ebe
000003f0: d03b a0bd 80bd 2a3e 9b30 2ebe 2ee4 32bd
0.006304388 -0.036754917 -0.04810283 -0.055119347 -0.08969625 0.0046743625 -0.12810044 0.063372344
0.05274796 -0.06830992 -0.028688626 0.041907772 -0.069416076 0.057834838 0.0035675997 0.007547005
-0.07932449 -0.0219126 -0.102975376 -0.15768023 -0.18823473 0.008303587 -0.2017965 -0.093295015
-0.15223022 -0.0031865805 -0.0048737945 -0.08147997 -0.09049116 0.04684973 0.020312758 -0.028177075
-6.896298e-05 -0.10890753 -0.042233232 -0.14387819 -0.11003629 -0.06678541 -0.17994967 -0.040692773
-0.056248993 -0.06747927 0.042290077 0.03958717 0.049208328 0.024124974 -0.091376506 -0.033152085
-0.09826076 -0.0024281566 -0.067906484 -0.13957825 -0.024383219 -0.13005204 -0.029429572 -0.096878886
-0.0140744 -0.05079182 -0.080379486 0.062238492 0.007186039 0.005677072 -0.08367641 -0.07395324
-3.5827787 -0.4073754 -0.7044329 -1.4591745 -0.4728048 -0.76945406 -0.48796168 -0.2966628
0.09605608 -0.2548328 -0.15566988 0.028334938 -0.7575467 -0.104730904 0.1814294 -0.10105541
0.2113786 -0.3943067 1.29362 -0.11805999 0.032955512 0.5972631 -0.17740048 0.064148195
-0.074599005 -0.02997451 -0.15033372 0.000998411 -0.9364658 -0.5714826 -0.08928264 -0.26286468
-2.5108383 -0.11099523 -0.26952913 -0.78165233 0.00023969192 0.37798867 -0.2983359 1.0498203
-0.039613515 0.7042433 -0.78906244 -0.10354661 0.3028321 0.09486403 -0.66145116 -0.021663113
-0.99471056 -1.1627587 -0.3683335 -0.07187658 -0.30518237 0.041885883 -0.19338119 -0.32325178
-0.14371347 0.38863218 -0.47214854 0.0662 0.16667329 0.49677175 -0.08321494 -0.20059392
-0.13606422 -0.097538956 -0.045712207 0.06701785 -0.07336845 -0.06288877 -0.103454165 -0.14375527
-0.1144559 0.058852926 -0.01961403 -0.05231962 -0.07874659 -0.09976593 -0.02236686 -0.012733826
-0.084007636 -0.12712209 0.057606228 0.055654477 0.034936965 -0.14234242 0.022198338 -0.08194961
0.07438089 -0.038935497 -0.1461994 0.012902088 -0.04924732 -0.18429956 -0.07803117 0.11262034
-0.1231936 -0.11250417 0.016711954 0.058317 -0.20231555 -0.01644699 -0.0826701 0.0035432852
-0.08474208 0.021648837 0.019337544 -0.037951548 0.12103506 -0.00527011 -0.0476572 -0.024454255
-0.017826514 -0.008133887 0.013231227 0.010872995 -0.12566596 -0.10706818 -0.11453661 0.0059141433
-0.015931768 -0.034328233 0.0043068663 0.0016631018 -0.019542322 0.046993002 -0.032801747 0.0553994
-0.2464109 -0.25779644 -0.15055545 0.038156804 -0.032142278 0.059561957 -0.20425972 0.0068694944
-0.25265262 -0.24455746 -0.23839682 -0.042159934 -0.16466874 -0.1954434 -0.24134974 0.030028988
-0.036399838 -0.26738197 0.09650716 0.043732654 0.07663463 -0.18739559 -0.06806556 -0.16593255
-0.09597742 -0.0832283 -0.15133826 -0.13130097 0.066452056 -0.16372062 0.07673187 -0.13006681
0.13035353 -0.22442305 -0.11727584 -0.1575841 0.0007171719 -0.025672829 -0.17474332 -0.087877676
-0.12959869 0.11877279 -0.09365543 -0.0012142806 0.16310705 0.08940205 -0.042288158 -0.009308098
-0.22483172 -0.23730466 -0.30056795 -0.0324441 -0.2701001 -0.10659331 -0.064404644 -0.10788097
-0.024526069 -0.0329 -0.032573193 -0.13930626 -0.07823908 0.16673851 -0.17010729 -0.04367464

w_agents.2.bias f4 [32]
00000000: 19b8 48be 2d16 0dbf 979d efbd 32d4 a4be
00000010: 5823 2fbe 6e96 34bf 7e9a 4cbe 0bfe d3be
00000020: 18fa c13e 76fa 6bbe 18d3 b5bd c342 e4be
00000030: 6be4 99be 2ec2 debe 864c ebbd ca0a 57be
00000040: 61b7 39be 7c16 ebbd d83a e1bd 7b71 c1be
00000050: a31c 033e 1a24 013d be2f a1bf 640c 01be
00000060: e239 f4be 4a92 273a f31d a2bd f621 87bc
00000070: 41e3 35bb 8294 113c 439c 273e 265a f63e
-0.19601478 -0.5511196 -0.1169998 -0.32193142 -0.17103326 -0.7054204 -0.19980809 -0.41404757
0.3788612 -0.23044762 -0.088781536 -0.44582185 -0.30057082 -0.43507522 -0.11489205 -0.2100021
-0.1813636 -0.11478898 -0.10997552 -0.3778189 0.12803893 0.03152857 -1.2592695 -0.12602383
-0.4770041 0.0006392343 -0.079158686 -0.016495686 -0.0027753862 0.008885505 0.16368203 0.48115653

Ws.0 f4 [32, 32]
00000000: d4ef ebbe 2061 dfbe e097 153f 065a 793f
00000010: 4896 76bf 5342 b4bc 4899 6cbf c914 a6be
00000020: df3b b4bf ee29 a93f 60e8 9c3f 7e14 553d
00000030: 977d cb3f 829a 373f daf3 2e3f 25c3 f63d
00000040: 5a00 c33e d6ba 803d 170e 8dbe 7226 823f
00000050: 79c0 03bf f830 0ebf 1ead 163e 0cfe 4d3f
00000060: 403b 2dbf 163e c7bf a8ef 9abf 59c3 7d3f
00000070: e5fb 843f 572a 0340 207b 503f dbba e7be
00000080: cf3e fbbd dd46 1f3f 447f 15c0 965a 873e
00000090: f42c f2bf c2d1 acbe 8e01 2bc0 95a0 d03f
000000a0: 2623 70be 32e3 1abf 1b9d 7bbe 8b12 5dc0
000000b0: ac94 15be 470d c2bf 1dc4 72bf 5f1b fdbf
000000c0: f674 163f d916 b9bf aaa1 afbf 29f5 75c0
000000d0: 03de dfbe 7e5d 69bf df0f bb3e 6e28 713d
000000e0: ab52 31be 72d8 9dbf 3d86 2d3f 5ec4 d6bf
000000f0: 3ee6 633f d550 cd3f 10ac 363f e622 f23f
00000100: 5a0c d6bf cab3 933f fc69 c9be 72cb 84bf
00000110: cc6f 0040 0222 0cbe 9cc5 853d c3d6 e93f
00000120: 9f09 fe3e 5366 d73f fd89 88bf 5a83 c7bf
00000130: cfad 1b3f 1feb a93e bff1 343f 1210 103f
00000140: 1474 0e3f 7aca 0bc0 0fd7 773f 0ee7 873f
00000150: 1296 8b3e 5c58 613f f961 95bf 49f3 2e3d
00000160: 7003 33c0 5b71 69bf a101 4cbe 4634 8b3f
00000170: 2737 923e b35b 19be c56f 15c1 7083 313f
00000180: 5264 9dbf eedf 033e 6325 503d 4187 d33f
00000190: a9a3 f2bf cdb8 863f 8186 99be df87 563e
000001a0: 1921 d63d a3b0 84bf 038b 933e 0713 9a3e
000001b0: a6ea 03bf 8578 86be 0288 203f eb66 f0be
000001c0: 0b32 05bf 82c7 df3f be3e 01bf bf0f 9c3f
000001d0: 8b4a f8bf 6e50 b1bf c389 553f 6f8f b93c
000001e0: 10f7 683e 7a78 ab3f 7a79 d03f 4157 9a3e
000001f0: eb09 533e 60f3 efbf b08f 7b3f 7fd0 1e3f
00000200: d1f9 433e a18f 03c0 52f9 ccbf 0017 60c0
00000210: db99 8f3e 44ff 0c40 6f35 c2be f0fe 0cbf
00000220: 1fa6 f3bf a1eb b83f 7495 8c3f 4bb3 b93f
00000230: 1d70 a4bf 4f6e 62be 7530 fb3e 8e17 ae3f
00000240: 976a 6d3f 939d 4e3f b489 34bf 2e16 0abe
00000250: 28d7 273f 1c56 04bf 8e9f 91be 45cd c4bf
00000260: 0d1b 4940 fa9d 84bf 8f3d 43bf 3c44 87bf
00000270: 6c6e 97bf cde1 f23f c435 9a3f 3e22 0bbf
00000280: 0f6d b8c0 1fc2 3bbd 9fd8 073f 472e 9fc0
00000290: ecfe 82bf 9503 403f 63b3 eabe 6adc 85bf
000002a0: e138 0f3f fd4d 7e3f 852d 1abf ef9b 9cbe
000002b0: 59a9 883f 3e86 bb3e 6d9b 853e efb0 483f
000002c0: 22cf 7cbf 283d 553e d74e 4fbe a91f a03f
000002d0: 2b6c 3d3f b7b2 c2be 385c 55c0 1035 57c0
000002e0: 1e2e 103d 5c7c 93be bbc8 bcbd 7bd8 2a3f
000002f0: d351 7cbe 59db 67be 0c0d d6bf 7a9d 24bf
00000300: 42a5 c2bf c700 ffbf 3202 5ebf f2f6 6ebf
00000310: b37b 1fc0 92f1 35c0 f883 afbd d4b1 2ebf
00000320: bda2 a7bf 1f14 3abf add4 3dbf d60b ddbd
00000330: 5195 d5bf 5f9e 143e 0a9d 1740 6391 a03f
00000340: c150 4c40 6b1c 0940 f829 4cbe ad4e 683f
00000350: 7e2c 893e 63f1 9abe 5c30 14bf f85a bbbe
00000360: 2db9 cf3f 564c eabf 7601 05bf 90c7 cebf
00000370: cf61 e63f 1ce5 20bf d10d 69bf 26a9 4ebf
00000380: 0233 e1be fbe2 56bc 32c9 3fbf 3c2d 453f
00000390: eea9 b9be ed3c 92bf c79b 473f c7b3 ac3e
000003a0: 4b60 ab3e bd53 6c3d 51b9 61bd 2f77 59be
000003b0: 9427 563e 4a99 a6be 31ca df3f e6d6 0dbf
000003c0: 0f25 1d3e c9f3 0e3f 820a ffbe 9ce6 1d3f
000003d0: 4e96 97be 1b7d b5bf 12db 603f 6d24 4abf
000003e0: b95e cbbf 995c 5a3e da53 223f b154 2bbe
000003f0: cea2 afba 9f56 debd 41fa a73f 7fef bfbe
-0.46081412 -0.43628788 0.5843487 0.9740299 -0.9632306 -0.022004282 -0.9242139 -0.32437733
-1.4080771 1.3215921 1.2258415 0.052021496 1.5897702 0.71720135 0.6834084 0.120489396
0.38086206 0.06285636 -0.27549812 1.0167983 -0.51465565 -0.5554347 0.14714476 0.8046577
-0.67668533 -1.5565822 -1.2104387 0.991262 1.0389372 2.0494592 0.81437874 -0.45259747
-0.12267839 0.62217504 -2.3358927 0.264363 -1.8919969 -0.33753783 -2.67197 1.6299006
-0.23450908 -0.6050292 -0.2457165 -3.4542568 -0.14607495 -1.5160302 -0.94830495 -1.9773978
0.5877222 -1.4460098 -1.3721211 -3.8430884 -0.4372407 -0.9115828 0.36535546 0.058876447
-0.17316692 -1.2331679 0.67782956 -1.6778677 0.89023197 1.6040293 0.71356297 1.89169
-1.6722519 1.1539242 -0.39338672 -1.0374587 2.0068235 -0.13684848 0.065318316 1.8268665
0.49616715 1.6828102 -1.0667111 -1.558696 0.60812086 0.33187196 0.70681375 0.5627452
0.5564587 -2.1842332 0.9681253 1.0617387 0.27262932 0.8802545 -1.1670524 0.042712484
-2.7970848 -0.9118859 -0.19922496 1.0875328 0.28557703 -0.14976387 -9.3397875 0.6934118
-1.229624 0.12878391 0.050816905 1.6525651 -1.8956195 1.0525147 -0.2998543 0.20950268
0.104555316 -1.0366405 0.28816995 0.30092642 -0.5152992 -0.26263824 0.6270753 -0.4695352
-0.52029485 1.748276 -0.5048636 1.2192305 -1.9397749 -1.385267 0.8341333 0.022651402
0.22750497 1.3396142 1.6287072 0.30144694 0.20609252 -1.8746147 0.98266125 0.6203689
0.19138266 -2.0556414 -1.6013587 -3.5014038 0.2804707 2.2030802 -0.37931392 -0.55076504
-1.9035071 1.4446908 1.098311 1.4507841 -1.2846714 -0.22112392 0.49060407 1.3600938
0.9274077 0.8070919 -0.7052262 -0.13485023 0.6556268 -0.5169389 -0.28442043 -1.5375143
3.142276 -1.0360711 -0.76265806 -1.0567698 -1.1830573 1.8975159 1.2047658 -0.54349124
-5.763313 -0.045839425 0.5306491 -4.974399 -1.0234046 0.75005466 -0.45839986 -1.045789
0.55946165 0.9933775 -0.6022571 -0.30587718 1.0676681 0.36625856 0.26095143 0.7839498
-0.9875356 0.2082411 -0.20244919 1.2509662 0.73993176 -0.38026974 -3.3337536 -3.3626137
0.03520023 -0.28805816 -0.09217974 0.66736573 -0.24640588 -0.22642268 -1.6722732 -0.6430279
-1.5206683 -1.9922112 -0.867221 -0.9334556 -2.491925 -2.8428693 -0.08570093 -0.68240094
-1.3096539 -0.7268695 -0.7415264 -0.10793273 -1.6686193 0.14513539 2.36896 1.2544369
3.1924288 2.1423595 -0.19937885 0.9074505 0.26791757 -0.30262288 -0.5788629 -0.3659284
1.6228386 -1.8304546 -0.51955354 -1.6154652 1.7998599 -0.62849593 -0.9103671 -0.8072685
-0.43984228 -0.01311564 -0.74916375 0.7702215 -0.3626246 -1.1424843 0.7797207 0.3373091
0.33471903 0.057697047 -0.055108372 -0.21236871 0.20913535 -0.32538825 1.7483579 -0.55406034
0.15346168 0.55840737 -0.49812704 0.61680007 -0.2960686 -1.4178804 0.87834275 -0.7896183
-1.5888282 0.21324386 0.634092 -0.16731526 -0.001339996 -0.108563654 1.3123246 -0.3748741

Ws.1 f4 [32, 32]
00000000: e113 033f e57f 3dbf 8eda bfbe e48d eebf
00000010: ddae 3dbf 7578 cdbf ce2d 76c0 c1f1 593f
00000020: b682 68bf 2a4d 94bf 6ce6 9fbe fa24 3c3f
00000030: 7cfc d4bf 7791 fabf 6725 d63d c09b 8a3f
00000040: 7e7b e0be 57ac 67bf 0906 dfbe f961 0940
00000050: 3c1f e3bf 36f3 413f 8222 7b3f c33b c33e
00000060: 5745 13c0 bde6 9c3f 4f0f bc3f 0102 01bf
00000070: bc68 9b3e 0d91 4a3f 947c 4a3d 59c3 8c3d
00000080: f775 293f c387 493f cd95 a1bd 82c5 e83e
00000090: f112 f33d c936 39bf d7ea c7bd 33dc bdbe
000000a0: 8cd4 8d3f 33a0 a63f 9a08 bdbe 94e2 93be
000000b0: 91e5 b43f b514 343f 68d5 c5bf 1fa7 75be
000000c0: 4fde 17bd 2950 083f 6ee6 f0be 1561 41bf
000000d0: 11d6 54be f403 e23e 45b4 a2be ab23 b93c
000000e0: 0a7c 97be 7352 aabf a045 1fc0 30ef aebd
000000f0: df49 afbe 0c23 25bf 4f40 f53e ff63 b43f
00000100: cc19 04c0 a484 56bf 1223 0fc0 8a57 84be
00000110: 4e72 153e de6d 983d 6562 c93e c795 6d3e
00000120: 84c6 02bf f2e4 adbe 8226 3c3f 33a1 14c0
00000130: 4cc0 283e a294 d3be af08 1bbf 2286 68bf
00000140: c8f4 1040 3005 bcbf e2f3 07c0 ddae 14bf
00000150: 92c0 09c0 04f6 e9be 4fbb 90be a72d abbe
00000160: d061 923e 88c3 4c40 8d08 21c0 ac14 01c0
00000170: 505e 52bf 5b5f 27bf 0fbf 8d3f 6e7c 91bf
00000180: bf21 61be ff94 86bf 9f7c 57bf b01e 013e
00000190: ee6d 9a3f 41a9 633f cbc9 e53f ae54 2240
000001a0: 0746 703f 63c2 a53e 5c7d 1140 b2e3 6dbf
000001b0: 272b 44be bb5c 753f 9b42 b13f a28e ffbe
000001c0: bb2c ca3e e7a9 fa3e 2284 e03e d0c4 afbf
000001d0: 5ed8 54be 8725 1ebe b205 853f b012 d0bf
000001e0: cc93 b4bc fffa 4c3d 8434 7bbf b252 a63f
000001f0: 2f4b 33bf 9ccb 813c f462 cb3f 44ab 7a3f
00000200: 4437 2440 1d9d 89bf f2d1 f5be 6a5a 0bc0
00000210: e717 7dbf 0121 a13f 2fd3 c3be 20a9 21bf
00000220: 367a f63e 1f81 2a3f 3d96 3f3e 9113 debe
00000230: 1d74 c53f 6df7 6ebf f641 7b3f bf7e f0bf
00000240: 54cf 083f 8345 2b3f 23aa 26bf f214 aa3f
00000250: 8db8 a63f a0cc 8abf 2179 cbbf 59df 31c0
00000260: 8c6f 72be a521 0ebf 6050 32c0 25ad 473f
00000270: ae36 edbe 6b9b 16bf 84d8 3ec0 abf6 07bf
00000280: cfe2 dd3f 581d e53f 8eb2 d2be 1e0c 45bf
00000290: 917f 833e 3219 10c0 8925 24bf cdeb 0dbf
000002a0: 77a1 133f 8fe9 383f ea9b 85c0 ebe3 aa3f
000002b0: 4049 803e 6c03 eb3f 0945 b63f 322a e5be
000002c0: 5a67 87bf ba48 17bf db8d b0bf 01cc 11bf
000002d0: ed0d b43e 6b47 983e 538b cf3f 6424 e5be
000002e0: f1c4 303e ff85 243d 4d23 313f 942f e3bf
000002f0: bf2a 0b3f cd0a 89bf bd46 1ac0 e636 93bf
00000300: 3fce 9bbd 3835 2a3f b4ea a3bf 6ab4 00bf
00000310: d701 6dbf 77f1 b53e c9c3 d73e 21ce 07c0
00000320: ab35 5a3e 1c33 113f 2cf5 1b3f f215 0c3f
00000330: 3f8e 76bf 3014 d8be 9d24 3dbf 6004 f93e
00000340: 5341 66bf 1dcd 1b3f 08b0 c3bf 0d86 01c0
00000350: f5cd 503f 0dba 593f 474f 9b3f 285d ddbf
00000360: bc75 de3e 2d9d 27bf 47c2 d2bc 53b4 6bc0
00000370: f3ab fb3f c2ea a53f 29b3 0f3f 14d8 03c0
00000380: 9fcc 9bbf 5fff c1bf 0ea8 ce3f 445a bd3f
00000390: ca35 173f 0104 093f f885 c13f b31d ddbf
000003a0: 5ca1 cb3e 9966 90bf df44 ff3e 1915 453f
000003b0: 259e 42bf 224c c23f a396 09bf e5fb 0ebe
000003c0: 6489 acbd 90da edbc 2075 1e3f 5abe a03f
000003d0: 4fc6 d43f b1d0 fdbf 6c9a 843f d4c8 cabd
000003e0: 18cd 8d3d cbf5 d0bc 964e b7bf 0aad 4cbf
000003f0: d6bc 273f 0fd1 ffbe 440b 57be 2134 e0bf
0.5120221 -0.74023277 -0.37471431 -1.8637052 -0.74094945 -1.6052386 -3.8465457 0.8513451
-0.9082445 -1.1586049 -0.31230485 0.7349392 -1.6639552 -1.9575642 0.10456353 1.0828781
-0.43844217 -0.90497345 -0.43559292 2.1466048 -1.7743907 0.75761735 0.9809953 0.38131532
-2.3011072 1.2257916 1.4692172 -0.5039368 0.30353343 0.7912758 0.049435213 0.06873197
0.66195625 0.7872278 -0.078899 0.45463187 0.11868847 -0.7234922 -0.09761589 -0.3708206
1.1080489 1.3017639 -0.36920625 -0.28883803 1.4132558 0.70344096 -1.5455751 -0.23989533
-0.037077244 0.53247315 -0.47050804 -0.7553876 -0.20784785 0.4414364 -0.3177816 0.022600016
-0.29586822 -1.3306412 -2.4886246 -0.08541715 -0.34236047 -0.645066 0.47900626 1.4093016
-2.0640745 -0.83796144 -2.2365155 -0.25848037 0.14594385 0.074428305 0.39332882 0.23201667
-0.5108416 -0.33963734 0.7349626 -2.3223388 0.16479605 -0.41324335 -0.60560125 -0.9082967
2.2649403 -1.4689083 -2.1242604 -0.5807932 -2.1523786 -0.45695508 -0.28267905 -0.33433267
0.2859025 3.1994343 -2.516147 -2.0168867 -0.8217516 -0.65379876 1.1073931 -1.1366098
-0.2198553 -1.051422 -0.8417453 0.12609363 1.2064798 0.88930136 1.7952207 2.5364184
0.93856853 0.32374868 2.2732763 -0.9292556 -0.19157086 0.9584462 1.3848451 -0.49913508
0.39487252 0.4895775 0.4385081 -1.3731937 -0.20785663 -0.15444003 1.0392363 -1.6255703
-0.022043131 0.050044056 -0.9812701 1.2993987 -0.70036596 0.015844159 1.5889573 0.9791758
2.5658731 -1.0751072 -0.48011738 -2.1773934 -0.988646 1.2588197 -0.38247058 -0.6314869
0.48140115 0.66603273 0.18709655 -0.43374303 1.542606 -0.9334629 0.98147523 -1.878868
0.5344136 0.6690294 -0.6510336 1.3287642 1.302507 -1.0843697 -1.5896341 -2.779257
-0.23675364 -0.5552009 -2.7861557 0.7799857 -0.4633078 -0.588309 -2.981965 -0.5311076
1.7334841 1.789958 -0.4115185 -0.76971614 0.25683263 -2.2515378 -0.64119774 -0.5543793
0.5766825 0.7223138 -4.1752825 1.3350805 0.25055885 1.8360419 1.4239818 -0.44758755
-1.0578415 -0.59095347 -1.3793291 -0.5695191 0.35166875 0.29741988 1.6214393 -0.44754326
0.17262627 0.04016685 0.6919449 -1.7748895 0.543621 -1.0706421 -2.4105675 -1.1501129
-0.07607698 0.66487455 -1.2806001 -0.5027529 -0.9258093 0.35535786 0.4214156 -2.121956
0.21309535 0.5671861 0.6092098 0.54720986 -0.963108 -0.42202902 -0.7388399 0.4863615
-0.89943427 0.60859853 -1.5288095 -2.0238068 0.81564265 0.85049516 1.2133569 -1.7294054
0.434492 -0.65474206 -0.025727404 -3.682881 1.966185 1.2962267 0.5613275 -2.0600634
-1.217182 -1.5156058 1.6145036 1.4793172 0.5906645 0.53521734 1.5119009 -1.7274688
0.39771545 -1.128131 0.49857232 0.7698532 -0.7602256 1.5179484 -0.5374548 -0.13963278
-0.08424643 -0.029034883 0.6189747 1.2558091 1.6623019 -1.9829313 1.0359626 -0.09901586
0.06923884 -0.025507828 -1.4320858 -0.79951537 0.65522516 -0.49964187 -0.21000391 -1.7515908
