crowd_nav/data/rl_model_8.pth (torch_old, 93650 bytes, 18 tensors)

w_a f4 [32, 32]
0	0xc0327e49	-2.7889578
1	0xc01a19b4	-2.4078188
2	0x3f0b8461	0.5449887
3	0xbf45eafc	-0.7731168
4	0x3fb04524	1.37711
5	0xbfe3525c	-1.7759509
6	0xbf877d3a	-1.0585091
7	0xbf84ceba	-1.0375588
8	0xbccc5555	-0.024943033
9	0xbf17d102	-0.59303296
10	0xbf2b6331	-0.6694823
11	0x3f5d6dd1	0.8649569
12	0x3f9b48df	1.2131613
13	0x3ed0a263	0.4074889
14	0x3f46cb2d	0.7765377
15	0xbf00344c	-0.500798
16	0x3f621277	0.88309425
17	0x3f385bab	0.72014874
18	0xbed97028	-0.4246838
19	0x3d580bbf	0.052745577
20	0xbcfd2cb3	-0.030905103
21	0xc055b41b	-3.3391178
22	0xb9b5edac	-0.0003470009
23	0x3fc5a8db	1.5442156
24	0x3fdc888d	1.7229172
25	0x3fe8e032	1.8193419
26	0x3dbbd6c3	0.09171822
27	0x3f42d9de	0.7611369
28	0x3f9e606e	1.2373178
29	0xbd9d806b	-0.076905094
30	0xbf9ac3ef	-1.2091044
31	0x3f5242ec	0.82133365
32	0xbf891ab9	-1.071128
33	0x3e6b9a4a	0.23008075
34	0xbfc2840e	-1.519655
35	0x3f0a2ede	0.53977764
36	0xbe621a23	-0.22080283
37	0x40039609	2.0560324
38	0x3e5dbe0e	0.21654531
39	0xbf3728ee	-0.7154683
40	0xbe8e0591	-0.27738622
41	0x3ec79316	0.38979405
42	0x3ef57214	0.47938597
43	0x3ecf4787	0.4048426
44	0xbf3bb0b6	-0.73316514
45	0x3f59aaa5	0.8502601
46	0xbdf5167f	-0.119671814
47	0x3fcf66d3	1.6203254
48	0x3ff7162c	1.9303641
49	0x400444c5	2.0666974
50	0xbef187c5	-0.47173896
51	0x3f41acc6	0.75654256
52	0x3ebb8e37	0.3663194
53	0xbf99cefc	-1.2016292
54	0x3fa1deaa	1.2646077
55	0x3fd1c958	1.638957
56	0x3f5d43e1	0.864317
57	0xbe200d9a	-0.15630189
58	0x3fdd5153	1.7290443
59	0x3edb2eb3	0.42809066
60	0x3eb7f2b0	0.35927343
61	0xbe3bd756	-0.18343863
62	0x3e4bfd91	0.19920947
63	0x3f1adc82	0.6049272
64	0x3e8588db	0.26080975
65	0xbfb1da14	-1.3894677
66	0x3ee598fd	0.44843283
67	0xbf446f0d	-0.7673195
68	0x405adbe4	3.419671
69	0xbfe4126d	-1.7818123
70	0x406a3c6d	3.659938
71	0x3e6ee391	0.23328997
72	0xbf0f5b71	-0.55998904
73	0x3fb77b9d	1.4334599
74	0x3f77350b	0.9656531
75	0x3fcb765b	1.5895494
76	0xc09a2c83	-4.8179336
77	0xbe8ff164	-0.28113854
78	0x4006e095	2.1074574
79	0x3fb9c2a9	1.451253
80	0xc00266e8	-2.037531
81	0xbe3d1874	-0.1846636
82	0x3d2432da	0.04008756
83	0x3eb16286	0.3464548
84	0x3f9c3bc9	1.2205745
85	0x3eebee7e	0.46080393
86	0x3fac4818	1.3459501
87	0xbdd7b54f	-0.10532629
88	0x3e24e6c1	0.1610365
89	0x400f8ba7	2.2428987
90	0x3f82e187	1.0225075
91	0xbfc67db7	-1.5507115
92	0xbea8b73d	-0.329523
93	0x3f7b6314	0.98198056
94	0xbd3985cd	-0.045293618
95	0x4025a89a	2.5884156
96	0x3f463699	0.7742706
97	0xbd5cd497	-0.05391368
98	0xc033a68a	-2.8070397
99	0xbf3a57ad	-0.7279003
100	0xbdf84efa	-0.121244386
101	0x3f4da88c	0.8033531
102	0xbfaf818c	-1.371141
103	0xbe25fb6a	-0.16209188
104	0x3fb51e21	1.414982
105	0xc04af355	-3.1711018
106	0xbf0df24d	-0.55447847
107	0x3fefa095	1.8720881
108	0x3f173113	0.59059256
109	0xbefb33bd	-0.4906291
110	0xbe72533e	-0.23664567
111	0xbfa22df8	-1.2670279
112	0x3eda0939	0.4258516
113	0xbf5726bb	-0.84043473
114	0xbe4724b7	-0.194476
115	0xbd01b20d	-0.031663943
116	0x3f4b5480	0.7942581
117	0xbf60cd9d	-0.8781374
118	0xbeecc28b	-0.46242175
119	0xbf8f9428	-1.1217089
120	0x3f56c2a0	0.83890724
121	0xbad07db6	-0.0015906605
122	0xbf963fb8	-1.1738195
123	0x3ecebb14	0.40377104
124	0x3f16ef27	0.5895867
125	0x3dfa2cb9	0.122155614
126	0x3d9eb7db	0.077499114
127	0xbe23f525	-0.16011484
128	0x3fa0a7f7	1.2551259
129	0x3ec5d334	0.38637698
130	0xc0888ad0	-4.266945
131	0x3ec77e85	0.38963714
132	0xbf0847d2	-0.5323459
133	0x3ea5e36c	0.32400072
134	0xbe78a14b	-0.24280278
135	0xbf024a5b	-0.5089471
136	0xbf5773cb	-0.8416106
137	0xbf26b752	-0.65123475
138	0x3f45a187	0.77199596
139	0xbea6fe12	-0.32615715
140	0x3f0b2142	0.5434762
141	0x3e84eab6	0.2596032
142	0xbf04ee84	-0.51926446
143	0x3ede4abb	0.4341639
144	0xbf3bdd74	-0.73384786
145	0xbe51d6aa	-0.20492044
146	0xbf8f1060	-1.1176872
147	0x3ee5ba7a	0.44868833
148	0xbf444057	-0.76660675
149	0x3f05778d	0.52135545
150	0x3f4f945a	0.8108574
151	0xbe57aed9	-0.21062793
152	0xbf01357b	-0.5047223
153	0xbeccdf71	-0.40014222
154	0x3f739e31	0.95163256
155	0x3e9d532d	0.3072752
156	0x3e8fb53f	0.28067967
157	0x3dd4e36e	0.10394941
158	0x3f94d08a	1.1626141
159	0xbf3cdde3	-0.7377607
160	0xbeed365b	-0.46330532
161	0xbed12b7d	-0.4085349
162	0xc01953d4	-2.3957415
163	0x3f7d94a1	0.99054915
164	0xbfa35420	-1.2760048
165	0x3f044eda	0.5168282
166	0xbdf69238	-0.12039608
167	0xbe971791	-0.29510167
168	0x3ea448d0	0.32086802
169	0x3f4f91e4	0.81081986
170	0x3ea1de61	0.31614974
171	0xbebbbbf2	-0.36666828
172	0x3f8f9364	1.1216855
173	0xbe91ea73	-0.28499183
174	0x3eaeb368	0.3412125
175	0xbf8be146	-1.0928123
176	0x3ef625ae	0.48075622
177	0x3e9b85f3	0.30375633
178	0xbf1f4f1d	-0.6223009
179	0x3f231a91	0.6371241
180	0x3d8f4962	0.069964185
181	0x3e8e577a	0.27801114
182	0xc06c9878	-3.696806
183	0x3f9b43e5	1.2130095
184	0xbf990115	-1.1953455
185	0xbfab6375	-1.3389727
186	0xbfca78a1	-1.5818063
187	0xbfa36605	-1.2765509
188	0xbf9cc143	-1.2246479
189	0x3fa1e8e5	1.2649199
190	0x3e453555	0.19258626
191	0x3f217d45	0.6308177
192	0x3f85973e	1.043678
193	0xbf2a0666	-0.66416013
194	0xbfccefee	-1.6010721
195	0xbe6a7e8b	-0.22899835
196	0xbedfe0c7	-0.4372618
197	0xbf425ba2	-0.7592107
198	0xbe023cb9	-0.12718476
199	0x3cf88805	0.030338297
200	0xbfaa9377	-1.3326253
201	0x3f707132	0.9392272
202	0x3e1344b2	0.14381674
203	0xbe4c2feb	-0.19940154
204	0xbf8a3807	-1.0798348
205	0x3e97f846	0.29681605
206	0x3f9b39ce	1.2127016
207	0x3f107147	0.5642285
208	0x3fa44773	1.2834305
209	0x3e70b2d9	0.23505725
210	0x3f71efe6	0.9450668
211	0xbd93805b	-0.07202216
212	0xbf7a478c	-0.9776542
213	0x3e60b519	0.21944083
214	0xbf8c2c99	-1.095111
215	0xbdbe30cb	-0.0928665
216	0xbf1b8058	-0.6074271
217	0xbee7bbb6	-0.452604
218	0x3dddf49a	0.1083767
219	0xbe14b1a2	-0.14520887
220	0xbfba2b39	-1.454444
221	0xbf2a0b65	-0.66423637
222	0xbeb9998e	-0.36249965
223	0xbe637378	-0.22212017
224	0x3f40067f	0.7500991
225	0x3f805600	1.0026245
226	0xbd8cd255	-0.06876055
227	0x3f788c98	0.9708953
228	0xbda4496c	-0.080218166
229	0x3da3a728	0.07990867
230	0xbebc2098	-0.36743617
231	0xbdda97d9	-0.10673494
232	0xbe44161a	-0.19149056
233	0xbec3152c	-0.3810209
234	0x3f62a716	0.885362
235	0x3fc0322b	1.501531
236	0x3fc87d84	1.5663304
237	0x3e9eebff	0.31039426
238	0xbea8275b	-0.32842526
239	0xbf1085d2	-0.56454194
240	0xbf47c31f	-0.78032106
241	0x4002d13e	2.0440211
242	0xbeaccdd6	-0.3375079
243	0xbe13976f	-0.14413236
244	0xbe198322	-0.1499143
245	0x3f6b6f5a	0.91966784
246	0x3fb5835f	1.4180716
247	0xbfbee0da	-1.4912369
248	0xbe325381	-0.17414667
249	0x3eaac857	0.33355972
250	0x3f594682	0.8487321
251	0x3daf15c6	0.08549075
252	0x3ed7138f	0.4200711
253	0xbeae05f6	-0.33988923
254	0x3f2af0ca	0.66773665
255	0xbca11784	-0.019664533

w_group.0.weight f4 [64, 8]
0	0xbdcda20c	-0.100406736
1	0xbc32a9a7	-0.010904706
2	0x3f913aa4	1.1346021
3	0xbf75df1a	-0.9604355
4	0xbeaa676b	-0.33282027
5	0xbedd2a72	-0.43196446
6	0xbe257126	-0.16156444
7	0xbede4b90	-0.43417025
8	0xbe48bdf6	-0.19603714
9	0xbe10de7a	-0.14147368
10	0xbf284335	-0.6572755
11	0xbf8541de	-1.0410726
12	0xbe55596a	-0.2083489
13	0xbf18036f	-0.5938024
14	0xbf79bb51	-0.9755145
15	0xbf13612c	-0.5757015
16	0xbe90c9ff	-0.2827911
17	0xbe7233c8	-0.23652565
18	0x3f982658	1.1886702
19	0xbd643f4b	-0.055724423
20	0xbe92a9e6	-0.28645247
21	0xbf3f7492	-0.7478725
22	0x3d29f060	0.041489005
23	0xbf4cb5db	-0.7996499
24	0xbdb85596	-0.09000699
25	0x3e305659	0.17220439
26	0x3f3798c9	0.71717507
27	0xbf8257ed	-1.0183083
28	0xbe8ecbc8	-0.27889848
29	0x3f0d315f	0.5515346
30	0xbf89707d	-1.0737454
31	0x3f0c4ae0	0.5480175
32	0x3e5c698b	0.21524636
33	0x3dbb2c64	0.09139326
34	0x3f878076	1.0586078
35	0xbece6149	-0.40308598
36	0x3e4d2696	0.2003425
37	0x3e706456	0.23475775
38	0x3f01060b	0.50399846
39	0xbda0b2f8	-0.078466356
40	0xbd1db212	-0.0384999
41	0xbc55e06b	-0.013053994
42	0xbd5f5cc8	-0.054531842
43	0xbddf560d	-0.10905085
44	0xbda1fbb8	-0.0790934
45	0x3d42ee97	0.04759082
46	0xbeb07ab6	-0.3446862
47	0xbeda3e64	-0.42625725
48	0xbe81a807	-0.25323507
49	0xbcbb98d7	-0.022900028
50	0x3f9b7686	1.2145545
51	0x3f879735	1.059302
52	0x3dbf5260	0.09341884
53	0xbf210cdd	-0.6291025
54	0xbf36c468	-0.7139344
55	0xbeec7637	-0.4618394
56	0x3e38dca6	0.1805292
57	0xbd8b487b	-0.06800934
58	0x3eac6c37	0.3367631
59	0xbf84dd7f	-1.0380095
60	0x3e8bc99b	0.2730225
61	0xbf2eb7fc	-0.6824949
62	0xbe6548f3	-0.22391109
63	0xbf314ddd	-0.69259435
64	0xbde52b85	-0.11189941
65	0xbd630c29	-0.05543152
66	0xbf21cb95	-0.63201267
67	0x3f38fb29	0.7225824
68	0x3c637960	0.0138839185
69	0xbf1ecb84	-0.6202929
70	0xbe8a87fa	-0.27056867
71	0xbe9c9a02	-0.3058625
72	0xbd7eb7b0	-0.062186897
73	0xbc2f2295	-0.010689397
74	0xbef75fbe	-0.48315233
75	0x3c7aee13	0.01531555
76	0x3e97b101	0.2962723
77	0xbe37a4c5	-0.17933948
78	0xbeb0b527	-0.34513208
79	0xbf243ae1	-0.6415234
80	0xbf6d1ab6	-0.9261888
81	0x3ea96093	0.33081493
82	0xbe8101c9	-0.25196674
83	0x3e4e70e5	0.20160253
84	0x3ea723ef	0.32644603
85	0xbf156493	-0.5835659
86	0x3feb1d31	1.8368284
87	0xbe8bf48b	-0.2733501
88	0xbe95ab0c	-0.2923206
89	0x3e021db2	0.1270664
90	0x3e398189	0.1811582
91	0x3ec2fe43	0.3808461
92	0xbe2d6964	-0.16934735
93	0xbeedd3b2	-0.46450573
94	0xbf482ad8	-0.78190374
95	0xbf0c69d5	-0.54848987
96	0x3e3fb335	0.18720706
97	0xbd9f9ef9	-0.077939935
98	0xbece9747	-0.4034979
99	0x3f4b9512	0.7952434
100	0xbe0f5a2b	-0.1399924
101	0xbf307109	-0.6892248
102	0x3e6e49a3	0.23270278
103	0xbf56dc3a	-0.8392979
104	0x3e8a81de	0.27052206
105	0x3e8d6cb9	0.2762201
106	0xbe72ee47	-0.23723708
107	0x3d74cf1d	0.05976783
108	0xbe1d6e4a	-0.15374103
109	0xbef2edc5	-0.4744703
110	0xbf9c8a2a	-1.2229664
111	0xbf3f6184	-0.7475817
112	0xbe6f099d	-0.23343511
113	0xbe116355	-0.14198048
114	0xbfc29040	-1.5200272
115	0x3e4bb6f8	0.19894016
116	0x3e678e72	0.22612932
117	0xbeb9e034	-0.36303866
118	0xbfcf9615	-1.6217676
119	0xbf08560e	-0.5325631
120	0xbf1e4b49	-0.61833626
121	0x3ee6dc0b	0.45089754
122	0x3f5b1faa	0.8559519
123	0xbe911b10	-0.2834096
124	0x3d041740	0.032248735
125	0xbe983d31	-0.29734185
126	0xc011c5a5	-2.2776883
127	0xbf53d4ea	-0.82746756
128	0xbdcefb0f	-0.101064794
129	0xbd807fe8	-0.06274396
130	0xbead00cf	-0.3378968
131	0xbf4e72bb	-0.80643815
132	0x3df969f4	0.12178412
133	0xbf4e176b	-0.80504483
134	0x3f2d718b	0.6775138
135	0xbee4752d	-0.44620648
136	0xbf727e1b	-0.9472367
137	0x3f1748df	0.5909557
138	0x3feefafc	1.8670344
139	0xbfeb65dd	-1.8390461
140	0xbe92330c	-0.2855457
141	0xbe9a69a8	-0.30158734
142	0xbf819dbc	-1.0126262
143	0xbdd9f71e	-0.10642837
144	0x3ed54b3f	0.4165897
145	0x3f4cc611	0.79989725
146	0x3e0081f5	0.12549575
147	0x3dab8093	0.08374133
148	0xbe677f6d	-0.22607203
149	0x3db2cc86	0.08730416
150	0x3ed738d8	0.42035556
151	0x3e8d97c9	0.27654865
152	0xbe372c24	-0.17887932
153	0x3e97edba	0.29673558
154	0xbfee8da0	-1.863697
155	0x3f2bc242	0.6709329
156	0x3eae4b55	0.3404185
157	0xbe12e950	-0.14346814
158	0xbe0df665	-0.13863523
159	0xbeb9f158	-0.36316943
160	0x3e251ea3	0.16124968
161	0xbe20ebd1	-0.15714957
162	0x3f426421	0.75934035
163	0x3f7e0ad1	0.99235255
164	0xbe4c79bc	-0.19968313
165	0xbda11ec1	-0.07867194
166	0xbfb56c23	-1.4173626
167	0xbf124e77	-0.5715098
168	0xbdd7416e	-0.105105266
169	0xbd7755de	-0.060384624
170	0x3f79db81	0.9760056
171	0xbe81fff0	-0.25390577
172	0xbe9ddd4d	-0.30832902
173	0xbee4c387	-0.44680426
174	0xbf35c05c	-0.7099664
175	0xbf2b4880	-0.669075
176	0x3dab1a68	0.08354646
177	0xbd742b18	-0.05961141
178	0x3f33e0a4	0.7026465
179	0xbf472d97	-0.7780394
180	0xbeafde3d	-0.34349242
181	0xbf3e599c	-0.74355483
182	0x3f0905ec	0.5352466
183	0xbedf59fa	-0.43623334
184	0x3e5ec2cc	0.21753997
185	0x3e769d09	0.24083342
186	0xbf036d1c	-0.5133836
187	0xbf9fc045	-1.2480551
188	0x3c8f8fd0	0.01752463
189	0x3da4e041	0.080505855
190	0x3f80aeef	1.0053385
191	0x3e11fbc4	0.14256197
192	0x3e73f7e8	0.23825037
193	0x3e198303	0.14991383
194	0x3e56b265	0.2096649
195	0xbd42e626	-0.047582768
196	0xbd65b8d8	-0.056084484
197	0xbecd4fca	-0.40099937
198	0xbe81964a	-0.25309974
199	0xbf112cc2	-0.5670892
200	0x3e8d029d	0.27541056
201	0xbe6f675d	-0.23379274
202	0x3ed0d7e2	0.40789706
203	0x3fe1765f	1.7614249
204	0x3e3f90e2	0.18707612
205	0x3da0f23e	0.07858704
206	0xbfea34b1	-1.829733
207	0x3e93b3de	0.28848165
208	0x40024113	2.0352218
209	0x3ce4e77c	0.027942412
210	0xbe875e4a	-0.26439124
211	0xbfd50fd7	-1.6645459
212	0x3d363a50	0.044489205
213	0x3e32ad74	0.1744898
214	0xbf3d0e55	-0.73849994
215	0x3e519329	0.20466293
216	0xbea8ec49	-0.3299277
217	0x3fb8195f	1.4382743
218	0xbe1f4ba5	-0.155562
219	0xbc883cfa	-0.016630638
220	0xbe4075cc	-0.18794936
221	0xbe7c0bda	-0.24613896
222	0xbf756aa2	-0.95865834
223	0xbd9227c6	-0.071364924
224	0x3e87997d	0.2648429
225	0xbe65098a	-0.2236692
226	0xbfbffebd	-1.4999615
227	0x3f52fb05	0.82414275
228	0x3df3b674	0.119000345
229	0xbf5d386e	-0.8641423
230	0x3d3cef96	0.046126924
231	0xbf4857ea	-0.78259146
232	0xbd4cfab1	-0.050043765
233	0xbd9228c3	-0.07136681
234	0x3f97ff33	1.1874756
235	0xbe896b18	-0.2683952
236	0xbe950ae8	-0.29109883
237	0xbe33f579	-0.17574109
238	0xbf9cac32	-1.224005
239	0xbed7e273	-0.42164955
240	0x3c5cfca2	0.013487967
241	0x3f213759	0.6297508
242	0xbfe8230f	-1.8135699
243	0xbf810547	-1.0079736
244	0xbe9f2e0d	-0.3108982
245	0xbf1f9591	-0.62337595
246	0x3f606418	0.8765273
247	0xbe2184f3	-0.15773372
248	0xbdcdd3ca	-0.10050161
249	0xbdc04825	-0.093887605
250	0xbf7c95f1	-0.9866629
251	0x3f8fa160	1.1221123
252	0xbe211102	-0.15729144
253	0xbee28bae	-0.44247192
254	0xbf6952d7	-0.9114203
255	0xbee1b080	-0.4407997

w_group.0.bias f4 [64]
0	0xbf431a2f	-0.7621183
1	0xbf236cbd	-0.63837796
2	0xbf4e9e13	-0.8070995
3	0xbb4e7c61	-0.003150724
4	0xbe49a173	-0.19690494
5	0xbf136857	-0.57581085
6	0xbef46fa5	-0.47741428
7	0xbf4bc26f	-0.7959356
8	0xbf04cd4d	-0.51875764
9	0xbec4601c	-0.38354576
10	0xbf16794c	-0.58778834
11	0xbf4a5f22	-0.7905141
12	0xbf4d0f56	-0.80101526
13	0xbf02c4c0	-0.51081467
14	0xbe961ae6	-0.29317397
15	0xbe8ec0d8	-0.27881503
16	0xbefc8da1	-0.49326804
17	0x3deb0b54	0.1147677
18	0xbdef850e	-0.116953
19	0xbccfff27	-0.02539022
20	0xbf0fb5e0	-0.56136894
21	0xbf2e74b0	-0.681468
22	0xbf44ab54	-0.76823926
23	0xbe589d15	-0.21153672
24	0xbf47535e	-0.77861583
25	0xbd3a7dd6	-0.045530163
26	0xbdd50e70	-0.10403144
27	0xbdea8612	-0.11451353
28	0xbe6d7cb1	-0.23192097
29	0xbe82a811	-0.2551885
30	0xbe48ed66	-0.1962181
31	0xbefa97cc	-0.48943937
32	0x3dbe2897	0.09285086
33	0xbe25fc05	-0.16209419
34	0xbe4ebae2	-0.20188478
35	0xbe72be52	-0.23705414
36	0xbf2255f8	-0.6341243
37	0x3d6ceba0	0.057841897
38	0xbe522ccd	-0.20524903
39	0xbf31f1c6	-0.6950954
40	0xbe8fef28	-0.2811215
41	0xbe3fd16a	-0.18732229
42	0xbece02ae	-0.4023642
43	0x3df95852	0.12175049
44	0xbe6f1ad7	-0.23350082
45	0xbec05a51	-0.37568906
46	0xbe567a6d	-0.20945139
47	0xbe41963b	-0.18904965
48	0xbf388f93	-0.72094077
49	0x3dd5498c	0.104144186
50	0xbe5b215c	-0.21399444
51	0xbf306970	-0.68910885
52	0xbf673f7d	-0.9033125
53	0xbef9aa03	-0.4876252
54	0x3d025fee	0.031829767
55	0xbf0ac46f	-0.54205984
56	0xbe536229	-0.20642914
57	0xbf13a036	-0.5766634
58	0xbe8d2b72	-0.2757221
59	0x3e751734	0.23934633
60	0xbc80982c	-0.015697561
61	0xbf0fed72	-0.5622169
62	0xbe978679	-0.29594782
63	0xbebc1427	-0.36734125

w_group.2.weight f4 [32, 64]
0	0x3d8a87ab	0.06764158
1	0xbe9e1858	-0.30877948
2	0xbdbaa291	-0.09113038
3	0xbeecea3d	-0.4627246
4	0xbdc1dd13	-0.09465995
5	0x3d8d9fe4	0.06915262
6	0xbdb2640a	-0.08710487
7	0x3de1e017	0.1102907
8	0xbe14d1cf	-0.1453316
9	0xbcff2d00	-0.031149387
10	0x3e2beefb	0.16790383
11	0x3dcea931	0.100908644
12	0xbe1e4e07	-0.15459453
13	0x3ebe3663	0.3715087
14	0x3eb66dc9	0.35630634
15	0xbb760299	-0.003753817
16	0x3d5c345c	0.05376087
17	0xbe4cacaa	-0.19987741
18	0x3ecdc4ec	0.40189302
19	0xbe0352ef	-0.12824605
20	0xbee1f45d	-0.44131747
21	0xbe790b0c	-0.2432062
22	0xbe39162b	-0.18074863
23	0xbe603330	-0.21894526
24	0x3ead27af	0.3381934
25	0xbd07f3bd	-0.03319143
26	0x3e240ed7	0.16021286
27	0x3f11499d	0.5675295
28	0x3f07e0af	0.53077215
29	0xbf01505d	-0.5051325
30	0x3f21da95	0.63224155
31	0x3c81f0b5	0.015861848
32	0xbe989fed	-0.29809514
33	0xbf4f2961	-0.80922514
34	0xbdd67bbe	-0.10472821
35	0xbf170a68	-0.59000254
36	0x3deb602b	0.11492952
37	0xbd3fc11b	-0.04681502
38	0x3c3ad6b2	0.011403726
39	0x3cebb188	0.028771177
40	0xbe659d53	-0.22423296
41	0xbe4ca895	-0.19986184
42	0xbaef2de0	-0.0018247925
43	0xbf4021ed	-0.75051767
44	0x3e4c9e8b	0.19982354
45	0xbe2dc3ec	-0.1696927
46	0x3ea3ccb1	0.31992105
47	0x3e5a1530	0.21297145
48	0x3f3ac37b	0.7295453
49	0xbe5b346e	-0.21406719
50	0xbd1f7d89	-0.03893808
51	0x3ebdd916	0.37079686
52	0xbf72337a	-0.94609797
53	0x3f88a719	1.0675994
54	0xbd93177f	-0.07182216
55	0x3c1e163f	0.009648859
56	0x3e601af0	0.21885276
57	0x3e9f0e20	0.31065464
58	0xbdcd051a	-0.10010739
59	0xbdb230bf	-0.08700704
60	0xbe206b97	-0.15666042
61	0xbe2023c5	-0.15638645
62	0xbddc68de	-0.10762189
63	0xbdfc0607	-0.12305837
64	0x3f156a49	0.58365303
65	0x3eeb5bcc	0.45968473
66	0x3e87d94d	0.26532975
67	0xbe8023d3	-0.25027332
68	0xbeae81b2	-0.34083325
69	0x3e01a91e	0.1266217
70	0xbdf32afd	-0.11873434
71	0x3eaa1573	0.3321949
72	0x3d08843c	0.033329234
73	0xbc482ce0	-0.01221773
74	0x3eca87a3	0.39556608
75	0x3e22fef0	0.15917563
76	0xbe16d169	-0.14728321
77	0x3ca9acc7	0.02071227
78	0x3e4345dd	0.1906962
79	0x3f2a06d0	0.66416645
80	0x3ec1910b	0.37805972
81	0x3f280e5b	0.65646905
82	0xbd1ff96c	-0.039056227
83	0xbf338bbb	-0.70135087
84	0xbe933774	-0.28753245
85	0x3e82f2d2	0.25575882
86	0x3e96a3e6	0.2942192
87	0xbfa9dced	-1.3270546
88	0xbc06aa84	-0.008219365
89	0xbd527023	-0.051376473
90	0x3d34c26d	0.04413073
91	0x3ea1233f	0.31472203
92	0xbe3d2a0e	-0.18473074
93	0x3ea99b37	0.33126232
94	0xbea6acb7	-0.32553646
95	0xbc43313f	-0.011913597
96	0x3e02c72a	0.12771288
97	0xbf3f828d	-0.7480858
98	0xbe6c3b8d	-0.23069592
99	0x3e1647a6	0.14675769
100	0xbe554bc5	-0.20829685
101	0x3f020c07	0.507996
102	0x3b00a487	0.0019629316
103	0x3cf4c19a	0.029877473
104	0x3df94136	0.12170641
105	0x3ec471ad	0.38367978
106	0xbda490fc	-0.08035466
107	0xbfc6f4f0	-1.5543499
108	0xbf04b243	-0.51834506
109	0xbd8c7bbd	-0.06859539
110	0x3c63606b	0.013877968
111	0xbf144f6f	-0.57933706
112	0x3e9802c2	0.29689604
113	0xbdb06047	-0.086121134
114	0xbaaa038d	-0.0012971029
115	0x3e2b1d6b	0.16710441
116	0xbebb7aaa	-0.36617023
117	0x3ec90c2e	0.39267105
118	0x3e3fe98d	0.18741436
119	0xbe9ec8d4	-0.31012595
120	0xbd2c76b1	-0.04210538
121	0xbf23a6be	-0.63926303
122	0x3d6aab15	0.057292063
123	0xbd446ed9	-0.047957275
124	0xbdb6f72b	-0.08933862
125	0x3d36b042	0.044601686
126	0x3d692980	0.056924343
127	0xbe052108	-0.13000882
128	0xbddf5f9e	-0.109069094
129	0x3dd6c767	0.10487252
130	0xbd7b0eb1	-0.061293308
131	0xbe75fbec	-0.24021882
132	0x3dfd6907	0.12373548
133	0x3d98a62f	0.07453572
134	0x3cef7edd	0.029235298
135	0x3d4cc623	0.049993645
136	0x3de78ada	0.11305781
137	0xbdf1bfaf	-0.11804139
138	0x3d13a8bd	0.036049593
139	0xbe31f741	-0.17379476
140	0xbdecee4f	-0.11568891
141	0xbde7598f	-0.11296379
142	0x3e1cc6ba	0.15310183
143	0xbe6da578	-0.23207653
144	0xbcc86bc1	-0.024465444
145	0xbdc21979	-0.09477515
146	0xbe86cb64	-0.2632705
147	0xbe82f98f	-0.25581023
148	0xbe224c92	-0.15849522
149	0x3e0a741b	0.13520853
150	0x3df3d20e	0.11905299
151	0xbd38f819	-0.04515848
152	0xbe2a98df	-0.16659878
153	0xbeaf72d5	-0.34267297
154	0x3eb0f948	0.34565187
155	0xbe80c73d	-0.25152007
156	0xbd23a869	-0.03995553
157	0xbdc70085	-0.09716896
158	0x3bcd3386	0.0062622456
159	0xbe0a5f34	-0.1351288
160	0x3e90ac55	0.2825648
161	0xbebd03af	-0.36916873
162	0x3dae6323	0.085150026
163	0xbdbc00bb	-0.09179827
164	0xbdbfd4f5	-0.0936679
165	0xbe6e2a19	-0.23258246
166	0xbe232a3e	-0.15934083
167	0xbe325493	-0.17415075
168	0xbe88c3fc	-0.26712024
169	0xbb828029	-0.003982563
170	0x3de2c726	0.11073141
171	0xbe48d205	-0.19611366
172	0xbdda4a87	-0.10658746
173	0x3d8460b8	0.0646376
174	0xbdf740af	-0.12072884
175	0x3e3e67ee	0.18594334
176	0xbc9dd592	-0.019266877
177	0xbb2eb9f9	-0.0026661141
178	0xbcee6b2a	-0.029103834
179	0xbe706206	-0.23474893
180	0x3d4564bb	0.048191767
181	0x3c93dc3c	0.018049352
182	0xbfaa5682	-1.330765
183	0x3d4fc96c	0.0507292
184	0x3d2d911c	0.042374715
185	0xbd6a437d	-0.057193268
186	0x3d04c4a9	0.032414112
187	0xbef4895a	-0.4776104
188	0x3dabbaf1	0.083852656
189	0xbd5c8cb0	-0.053845108
190	0xbda1ed70	-0.07906616
191	0xbd20ed28	-0.03928867
192	0x3d6c95ec	0.057760164
193	0xbe53fac8	-0.20701134
194	0x3d989c7c	0.07451722
195	0xbebe7d55	-0.37204996
196	0xbda37b72	-0.0798253
197	0xbd98f36e	-0.074683055
198	0xbde20570	-0.11036193
199	0xbe225815	-0.15853913
200	0xbdd65f97	-0.10467451
201	0xbe02d8b8	-0.12777984
202	0xbd9bdc28	-0.07610351
203	0x3b9921be	0.004673212
204	0x3d929558	0.07157391
205	0xbe52b866	-0.20578155
206	0xbea00458	-0.31253314
207	0xbe624c43	-0.22099404
208	0xbd922208	-0.07135397
209	0x3cf72caa	0.030172665
210	0xbe2fc8bb	-0.17166416
211	0xbe38e674	-0.18056661
212	0xbc284743	-0.010270896
213	0x3c54e9f6	0.012995234
214	0xbd6b50de	-0.057450168
215	0xbe538890	-0.20657563
216	0xbc8987c4	-0.01678837
217	0xbd24f95b	-0.040276866
218	0xbe8652aa	-0.26234943
219	0xbea86aef	-0.32894084
220	0x3d9d5def	0.07683932
221	0xbe597531	-0.21236111
222	0xbd857420	-0.0651629
223	0x3d8e9321	0.06961656
224	0xbd4fd7b9	-0.05074284
225	0x3c6b27e1	0.01435277
226	0x3aac8d88	0.0013164738
227	0xbd20c3ee	-0.039249353
228	0x3dd1bcdb	0.102410994
229	0xbde36747	-0.11103683
230	0x3cae698a	0.02129056
231	0x3dc07da4	0.09398964
232	0xbe4e2b64	-0.2013374
233	0xbda30428	-0.07959777
234	0x3d4db5b4	0.050222114
235	0x3d6d0b9d	0.057872403
236	0xbe076b2a	-0.13224474
237	0x3dbf14ed	0.09330163
238	0xbe9b9bf5	-0.30392423
239	0x3d9bf314	0.07614723
240	0x3e2d4dc7	0.16924201
241	0x3ddfbaac	0.10924277
242	0x3dc5e9e3	0.09663751
243	0x3df3c4d7	0.119027786
244	0x3d157b61	0.036494616
245	0x3e9238b0	0.28558874
246	0xbe2c69cb	-0.16837232
247	0x3caa66f0	0.020801038
248	0x3d69d20d	0.057085086
249	0x3d6316ba	0.055441596
250	0x3ad30166	0.0016098439
251	0xbe44c779	-0.19216718
252	0x3d6e5083	0.05818225
253	0xbe1eeae5	-0.15519293
254	0x3da2a220	0.07941079
255	0xbdc757ed	-0.097335674

w_group.2.bias f4 [32]
0	0xbf3e499e	-0.7433108
1	0xbf4d4f70	-0.80199337
2	0x3e1b320a	0.15155807
3	0xbeb1ec05	-0.3475038
4	0x3ea14cf0	0.3150401
5	0xbee43981	-0.44575122
6	0xbe8a2a6b	-0.26985487
7	0xbf2aa0e0	-0.66651726
8	0x3d815087	0.063141875
9	0xbdec5899	-0.11540336
10	0xbe167bea	-0.14695707
11	0xbd3eecaf	-0.046612438
12	0xbd5641e4	-0.052308932
13	0xbdf4307f	-0.119233124
14	0x3dfdf0a7	0.123994164
15	0xbe623e83	-0.22094159
16	0xbee79f59	-0.4523876
17	0xbe9b184e	-0.3029198
18	0xbfab307a	-1.3374169
19	0x3f0411df	0.5158977
20	0xbe194c8c	-0.14970607
21	0xbc2be15d	-0.0104907425
22	0x3d79a92c	0.06095235
23	0xbc89fd79	-0.016844498
24	0xbdc6a8b9	-0.0970015
25	0xbea4ab86	-0.32162112
26	0xbf04cbe8	-0.51873636
27	0xbdf95aba	-0.12175508
28	0xbd1ec72b	-0.03876416
29	0xbef4fd9c	-0.4784974
30	0xbea8dab5	-0.3297936
31	0x3de65997	0.11247557

w_agents.0.weight f4 [64, 5]
0	0x3da260f6	0.0792865
1	0xbd34d106	-0.044144653
2	0x3dc89aef	0.09795176
3	0x3db1d606	0.086834
4	0x3da145cf	0.07874643
5	0x3bf61475	0.007509763
6	0xbcb46651	-0.022021445
7	0xbec1ac5d	-0.37826815
8	0xbe2d364d	-0.16915245
9	0xbee417cf	-0.44549415
10	0xbb81b9dc	-0.0039589237
11	0x3dc3d41f	0.09561943
12	0x3db4006f	0.08789145
13	0x3e07c567	0.13258897
14	0xbe67db3b	-0.22642224
15	0xbd5494f0	-0.05189985
16	0x3d9aef72	0.07565202
17	0x3e499fa1	0.196898
18	0x3dea1f62	0.11431767
19	0xbf38aa98	-0.72135305
20	0xbd9b7afb	-0.07591816
21	0x3e464522	0.1936231
22	0x3f3cab2d	0.73698694
23	0xbfa51d14	-1.2899499
24	0xbe4565e2	-0.19277146
25	0xbe9d424b	-0.3071464
26	0xbee13c10	-0.43991137
27	0x3cd4f33a	0.025994886
28	0x3f2e52f4	0.68095326
29	0xbf2ee609	-0.68319756
30	0x3bc73edc	0.0060804915
31	0x3e8c21f7	0.27369663
32	0xbe4d55ff	-0.20052336
33	0x3f0d58ca	0.55213606
34	0xbf362233	-0.71145934
35	0x3d12e9f1	0.035867635
36	0xbda58714	-0.08082405
37	0xbd865fb5	-0.065612234
38	0x3e2450f8	0.16046512
39	0xbf34b56a	-0.70589316
40	0xbe9cf751	-0.30657437
41	0x3d34d825	0.044151444
42	0xbd9ca13e	-0.07647942
43	0xbf6b413d	-0.9189642
44	0xbef808b6	-0.48444146
45	0xbea20d30	-0.31650686
46	0xbd7dc899	-0.061958883
47	0xbeda523b	-0.42640862
48	0xbe12400e	-0.14282247
49	0xbfd40b96	-1.6566036
50	0xbedce9c2	-0.43147093
51	0x3f458032	0.77148736
52	0x3f9d9781	1.231186
53	0xbec7e979	-0.39045313
54	0xbf17e997	-0.59340805
55	0x3d85b0d8	0.06527871
56	0xbdf96a4b	-0.12178477
57	0x3f941098	1.1567564
58	0x3f48bd20	0.7841358
59	0xbf6beefa	-0.92161524
60	0xbdb5b402	-0.088722244
61	0xbde8786a	-0.11351092
62	0xbf13ea64	-0.57779527
63	0x3fd14c0e	1.6351335
64	0xbf88f5dd	-1.0700032
65	0xbc0200d0	-0.007934764
66	0x3ccbc192	0.024872575
67	0xbc8f6924	-0.01750619
68	0x3e6fddc3	0.23424439
69	0x3d029632	0.03188152
70	0x3d426ef9	0.047469113
71	0x3f1f72cf	0.6228456
72	0x3e1ba40b	0.15199296
73	0x3fa457de	1.2839315
74	0xbfa93d31	-1.3221799
75	0xbd817818	-0.06321734
76	0x3e92515e	0.28577703
77	0x3ee76c94	0.45200026
78	0x3f23468d	0.63779527
79	0xbf5c2f4f	-0.8600969
80	0x3f04f030	0.51929
81	0x3d0939d5	0.03350242
82	0xbf93509e	-1.1508977
83	0x3dbd318c	0.09237966
84	0xbf65c7be	-0.8975791
85	0xbd43a22c	-0.04776208
86	0x3f08a41e	0.5337542
87	0x3f650d29	0.89473206
88	0x400131ef	2.0186727
89	0xbf8bd3f3	-1.0924057
90	0xbe9aa3b7	-0.3020303
91	0x3c442342	0.011971297
92	0x3f2d497d	0.6769026
93	0x3f943bf1	1.1580793
94	0xbffd13fb	-1.9771723
95	0xbc369f31	-0.011146353
96	0x3da12bd6	0.07869689
97	0xbcab1f1b	-0.020888856
98	0x3e9d0c1a	0.30673295
99	0xbf2cc765	-0.6749175
100	0x3c2e396f	0.01063381
101	0xbc62a8b9	-0.013834172
102	0xbe111be5	-0.14170797
103	0x3ed790c8	0.42102647
104	0xbf697061	-0.911871
105	0xbe3c054a	-0.18361393
106	0x3f37740b	0.7166144
107	0x3f046843	0.5172159
108	0x4044b780	3.0737
109	0xbf09581c	-0.5365007
110	0xbb73046e	-0.0037081498
111	0x3e0f7d1a	0.14012566
112	0xbdae7264	-0.08517912
113	0x3f2b90e0	0.67017937
114	0xbe2757fe	-0.1634216
115	0x3ef67289	0.48134258
116	0x3f8c484e	1.0959566
117	0x3f3c58f8	0.73573256
118	0x3fc7403f	1.5566481
119	0xbfd2f448	-1.6480799
120	0xbed63b72	-0.41842228
121	0x3f90cf00	1.1313171
122	0xbf10c838	-0.5655551
123	0x400660b9	2.0996535
124	0xbf8962ba	-1.0733254
125	0x3db7b38e	0.08969794
126	0x3e1b6a79	0.15177335
127	0xbca8e75c	-0.020618133
128	0x3e89f13d	0.26941863
129	0xbf024ac5	-0.5089534
130	0x3d452775	0.048133332
131	0x3e71acc5	0.23601063
132	0xbd8bbcee	-0.06823145
133	0x3ea948df	0.3306341
134	0xbf0d960f	-0.55307096
135	0xbe08e721	-0.13369419
136	0x3e94ebcb	0.29086146
137	0x3f14b48c	0.5808799
138	0x3f65f911	0.8983317
139	0xbf9533a8	-1.1656389
140	0xbefb8aad	-0.4912924
141	0x3f951791	1.1647817
142	0xbb72dc65	-0.0037057635
143	0x3f5690f7	0.8381495
144	0xbf8df611	-1.1090719
145	0x3ef4e8c9	0.4783385
146	0xbdfa17e7	-0.1221159
147	0x3d106721	0.0352546
148	0x3f53facc	0.8280456
149	0xbf8ccf0d	-1.1000687
150	0xbeefe3de	-0.46853536
151	0x3e94740e	0.28994793
152	0xbf684cbe	-0.907421
153	0x3fdc7d6c	1.7225776
154	0xbf8c74e7	-1.0973176
155	0x3da42718	0.08015269
156	0x3d972eff	0.07382011
157	0x3e4b0b50	0.19828534
158	0x3c07c931	0.008287714
159	0xbf145236	-0.57937944
160	0x3e54a124	0.20764595
161	0x3e2a4548	0.16627991
162	0xbf8827c5	-1.0637137
163	0x3fdb7b81	1.7147065
164	0xbf1bc7d2	-0.60851777
165	0x3e72cab4	0.23710138
166	0x3fc61e16	1.5477931
167	0x3f4ffbfe	0.81243885
168	0x401ce855	2.4516804
169	0xbede49a4	-0.43415558
170	0x3e51d792	0.2049239
171	0x3fadbb9b	1.3572878
172	0xbe3b698e	-0.18301985
173	0x403eb746	2.9799361
174	0x3e60a164	0.21936566
175	0x3dedea0c	0.116169065
176	0xbeabd232	-0.33558804
177	0xbf71cb19	-0.9445053
178	0x3faaa29d	1.3330876
179	0xbf874edd	-1.0570942
180	0xbf53f160	-0.82790184
181	0x4000fde8	2.0154972
182	0x3f29572a	0.66148627
183	0xbf2bdddc	-0.67135406
184	0xbe8ecfc6	-0.27892894
185	0xbeb55169	-0.35413674
186	0x3f90b026	1.1303756
187	0x3e062c0b	0.13102739
188	0x3fdf0cd3	1.7425789
189	0xbf6890df	-0.90846056
190	0x3ce51acc	0.02796688
191	0x3ed7a867	0.42120668
192	0x3e300b36	0.17191777
193	0xbf78b071	-0.9714423
194	0xbeb23936	-0.34809273
195	0x3d6ae9d9	0.05735192
196	0x3e929724	0.28630936
197	0x3f295afa	0.66154444
198	0xbbb6eaf0	-0.005582206
199	0xbfb30d72	-1.3988478
200	0xbd7c67a6	-0.061622284
201	0x3e24d1e7	0.16095696
202	0x3e26f549	0.16304506
203	0x3f08ee34	0.5348847
204	0xbf0ada67	-0.54239506
205	0x3e46ce70	0.19414687
206	0x40158eac	2.336833
207	0xbc2f9d46	-0.010718649
208	0xbf4c61ed	-0.7983692
209	0xbe7c52e7	-0.24641
210	0x3d8a7275	0.06760112
211	0x3f8f9643	1.1217731
212	0xbef8d906	-0.48603076
213	0xbfb20337	-1.3907231
214	0xbee195ec	-0.44059694
215	0x3f07382f	0.52820104
216	0xbecd2331	-0.4006591
217	0x3e5c0747	0.21487151
218	0xbeea3354	-0.45742285
219	0xbf6a4c3f	-0.9152259
220	0x3f1e118e	0.61745536
221	0x3f2a579d	0.6653994
222	0xbf44ed61	-0.7692471
223	0x3fefe2b7	1.8741063
224	0xbeac8d7a	-0.33701688
225	0xbe53690a	-0.20645538
226	0x3fceebd1	1.6165715
227	0xbe8750bd	-0.26428786
228	0x3f882d17	1.063876
229	0xbed92612	-0.42411858
230	0xbea967c1	-0.3308697
231	0x3fad13b5	1.3521639
232	0xbf8a41f4	-1.0801377
233	0x3fd139a9	1.6345721
234	0xbfb8f558	-1.4449873
235	0xbe7c3204	-0.24628454
236	0x3eed82d4	0.46388876
237	0xbf492bc0	-0.7858238
238	0x3ead0f2a	0.33800632
239	0xbf847a53	-1.034983
240	0x3f36f0f9	0.71461445
241	0x3fac8dc6	1.3480766
242	0x3e8157fe	0.25262445
243	0x3fa0e17b	1.2568811
244	0xbfc105d1	-1.50799
245	0x3e8eb050	0.2786889
246	0xbf163da7	-0.58687824
247	0xbfaf542d	-1.3697563
248	0x3ee8f385	0.4549829
249	0xbf8f7a5d	-1.1209217
250	0xbdf716d7	-0.12064903
251	0x3d9af9d1	0.0756718
252	0x3ebc9a7b	0.3683661
253	0xbfcfd96d	-1.6238228
254	0xbe02ffdb	-0.12792914
255	0xbe1bd190	-0.1521666

w_agents.0.bias f4 [64]
0	0xbf406ea3	-0.7516882
1	0xbec0633b	-0.37575707
2	0xbeb1f153	-0.34754428
3	0xbe8f507e	-0.27991098
4	0xbf3fe403	-0.74957293
5	0xbf694a49	-0.91128975
6	0xbf43ec9c	-0.7653291
7	0xbeb72635	-0.35771337
8	0xbe5475b7	-0.2074803
9	0xbfb67797	-1.4255246
10	0xbf1edb8c	-0.6205375
11	0xbf9d685f	-1.2297477
12	0xbfaf5bb0	-1.3699856
13	0xbea6aa7b	-0.3255194
14	0xbf8354cd	-1.0260254
15	0xbf6d95f4	-0.92806935
16	0xbf8f9027	-1.1215867
17	0xbf83b8f3	-1.0290817
18	0xbfdf98a6	-1.746846
19	0xbe26b9e2	-0.16281846
20	0xbeb60a4a	-0.35554725
21	0xbee394e4	-0.44449532
22	0xbf1f2e8c	-0.621804
23	0xbf8d5cb4	-1.1043916
24	0xbf9a8e04	-1.207459
25	0xbf013c83	-0.5048296
26	0xbf28379f	-0.6570987
27	0xbf7fcb9c	-0.9992006
28	0xbf8fcf8c	-1.1235213
29	0xbf4fb3bf	-0.81133646
30	0xbfb45f4f	-1.4091586
31	0xbf107e10	-0.56442356
32	0xbec77802	-0.38958746
33	0xbf1e6bbf	-0.6188316
34	0xbd96ced6	-0.073636696
35	0xbf9c5149	-1.2212306
36	0xbedacee0	-0.42735958
37	0xbf9a82cb	-1.2071165
38	0x3e086a19	0.13321723
39	0xbf8e42bf	-1.1114119
40	0xbf01bd44	-0.5067942
41	0x3da983c4	0.082770854
42	0xbf6370bf	-0.8884391
43	0xbfa60ab2	-1.2972014
44	0xbf27c51f	-0.6553516
45	0xbf825d4c	-1.0184722
46	0xbf719d4a	-0.9438063
47	0xbecb7031	-0.39734033
48	0xbf620130	-0.8828306
49	0xbfa53a90	-1.2908497
50	0xbf6b1d84	-0.9184191
51	0xbf4a6ada	-0.7906929
52	0xbe3e2997	-0.18570553
53	0xbecb210a	-0.39673644
54	0xbf43bdaf	-0.7646131
55	0xbee434e9	-0.44571617
56	0xbf072eba	-0.52805674
57	0xbf0011a8	-0.5002694
58	0xbeeeb438	-0.4662187
59	0xbd3cd4ba	-0.04610131
60	0x3d90a467	0.07062607
61	0xbf29457f	-0.6612167
62	0xbfa78de5	-1.3090178
63	0xbf02310f	-0.5085611

w_agents.2.weight f4 [32, 64]
0	0x3d234816	0.03986367
1	0xbe01b31a	-0.12665978
2	0xbcd933f7	-0.026514037
3	0xbd0b1fcf	-0.033965882
4	0xbe041b56	-0.12901053
5	0x3d29f487	0.041492965
6	0xbd976649	-0.07392556
7	0x3cdfb275	0.027306775
8	0x3c2fcabb	0.010729487
9	0xbe17b68a	-0.14815727
10	0x3cc542cc	0.024079703
11	0x3e2015c5	0.15633304
12	0xbcb1bd2d	-0.021696651
13	0x3cecbc6f	0.028898446
14	0x3c4082bb	0.011749919
15	0xbd76dd44	-0.06026961
16	0xbdb28423	-0.08716609
17	0xbd473693	-0.04863603
18	0xbe08ba18	-0.13352239
19	0xbd9001a7	-0.07031565
20	0xbdfd5555	-0.123697914
21	0xbddafd41	-0.106928356
22	0xbe6fb0ae	-0.23407242
23	0xbe36a4a1	-0.17836238
24	0xbda5162f	-0.08060872
25	0x3d87341c	0.06601736
26	0x3b68ee4e	0.0035542431
27	0xbdf261cc	-0.118350595
28	0xbe4935da	-0.19649449
29	0x3c855c5e	0.016279396
30	0x3d541e4b	0.051786702
31	0xbbe947c0	-0.007119149
32	0x3d4a9aa5	0.049463887
33	0xbdd1a181	-0.102358826
34	0xbcf39d74	-0.029738165
35	0xbdc83b72	-0.09776963
36	0xbe568d5e	-0.20952365
37	0xbe08b325	-0.13349588
38	0xbde90cc2	-0.113793865
39	0xbe2756e6	-0.16341743
40	0xbd8db888	-0.06919962
41	0xbe0beefb	-0.13665383
42	0xbc85222c	-0.016251646
43	0x3da4c81a	0.08045979
44	0x3c881dce	0.016615774
45	0xbd85ebd9	-0.06539125
46	0xbe5430cd	-0.20721741
47	0xbc8e29f3	-0.017353987
48	0xbc5af28d	-0.013363493
49	0x3b90dd0e	0.004420883
50	0xbe09d204	-0.13459021
51	0xbe6fad94	-0.23406059
52	0xbc8cc46f	-0.01718351
53	0x3c241de2	0.01001689
54	0x3c5eca81	0.013598085
55	0xbe290d1e	-0.1650891
56	0x3c8c9f8a	0.017165918
57	0xbd9b2f54	-0.075773865
58	0xbe5046dd	-0.20339532
59	0x3d942356	0.07233302
60	0xbc993a4f	-0.018704562
61	0x3c73afbf	0.014873444
62	0xbd3eeb34	-0.046611026
63	0xbe1ba6e5	-0.15200384
64	0x3d5c1867	0.05373421
65	0xbe65662e	-0.2240226
66	0xbf027b03	-0.5096895
67	0xbe44c28f	-0.19214843
68	0xc00b0039	-2.1718886
69	0x3e35d9e4	0.177589
70	0x3ebdbfd8	0.37060428
71	0x3d0974ec	0.03355877
72	0x3e81872c	0.2529844
73	0xbf38e0a4	-0.72217774
74	0x3e65f6ac	0.22457379
75	0xbf663775	-0.8992837
76	0xbfd1ab93	-1.6380485
77	0x3cacd466	0.021097373
78	0xbeb5f019	-0.35534742
79	0xbe804707	-0.2505419
80	0x40002215	2.0020802
81	0x3f214237	0.6299166
82	0x3f091661	0.5354977
83	0x3e1ba7e4	0.15200764
84	0xbd559d0c	-0.052151725
85	0xbe8d8e94	-0.2764784
86	0xbd910554	-0.070810944
87	0xbf2a2aca	-0.6647154
88	0x3fdcbdab	1.7245382
89	0xbddc2212	-0.10748686
90	0x3b0b4833	0.002125275
91	0xbfb345c8	-1.400567
92	0x3ecabf34	0.39599
93	0xbf274e59	-0.65353924
94	0xbf9a8195	-1.2070795
95	0xbd9b689b	-0.07588311
96	0xbf767747	-0.9627575
97	0xbe6ccd99	-0.23125304
98	0xc005db51	-2.091511
99	0x3f169509	0.5882116
100	0x3ea6618d	0.324963
101	0x3ee9844b	0.45608744
102	0xc03b1cf9	-2.9236434
103	0xbebdf9ca	-0.37104636
104	0xbddb3f51	-0.10705436
105	0xbe84f1ee	-0.25965828
106	0xc01c36cf	-2.4408453
107	0xbe377c2b	-0.1791846
108	0xbe62cdbd	-0.22148795
109	0x3ed4ec70	0.41586637
110	0xbe8a99c4	-0.2707044
111	0xbf86afd7	-1.0522412
112	0xbd035743	-0.03206564
113	0x3f0b4be8	0.544127
114	0xbfd2afa9	-1.6459857
115	0xbf08780e	-0.5330819
116	0x3a0ff1ac	0.0005491029
117	0xbf1c51c9	-0.61062294
118	0x3e89c692	0.2690931
119	0xbd3eca4e	-0.04657965
120	0xbeb8db29	-0.36104706
121	0x3a35978c	0.00069271843
122	0xbdecffd4	-0.11572233
123	0xbfcffedf	-1.6249655
124	0x3c456b55	0.012049516
125	0xbfa12173	-1.2588333
126	0x3e1eb0fe	0.15497205
127	0xbc91a262	-0.017777625
128	0xbda5d48b	-0.0809718
129	0xbe940671	-0.28911164
130	0xbcab047b	-0.02087616
131	0x3ecedf17	0.4040458
132	0xbe554961	-0.20828773
133	0xbc73dc90	-0.014884129
134	0xbc69fca2	-0.014281424
135	0xbf114d7a	-0.56758845
136	0xbd881327	-0.06644278
137	0x3e2abcd0	0.16673589
138	0xbd06eb6c	-0.03293936
139	0xbd83c1cf	-0.064334504
140	0x3e851550	0.25992823
141	0xbea331d5	-0.31873956
142	0xbd92c26b	-0.071659885
143	0x3e7f1b4d	0.24912758
144	0xbe08bc35	-0.13353045
145	0xbf1063b3	-0.5640213
146	0xbd39c207	-0.045351055
147	0x3e5d17ee	0.2159116
148	0xbeb3b0e7	-0.35095903
149	0xbe9498fe	-0.29022974
150	0xbe1381e7	-0.14405023
151	0xbdcfaea9	-0.10140736
152	0x3d881453	0.066445015
153	0xbed696e2	-0.4191199
154	0xbd8143c9	-0.06311757
155	0x3cc08885	0.023502598
156	0x3d58f296	0.052965723
157	0xbed4c6af	-0.41557834
158	0xbe8979fd	-0.26850882
159	0x3dad14d1	0.08451236
160	0x3d10270c	0.035193488
161	0xbeab3550	-0.33439112
162	0xbca99d29	-0.020704823
163	0x3c32052f	0.010865494
164	0xbc47b4e4	-0.012189124
165	0xbe573bcb	-0.21018903
166	0xbe4874b5	-0.1957577
167	0x3b0e3787	0.0021700577
168	0x3e38d344	0.18049341
169	0xbab9227f	-0.001412466
170	0xbe2d055a	-0.16896573
171	0xbf08162e	-0.53158844
172	0xbeab3995	-0.3344237
173	0xbe89038c	-0.2676052
174	0xbeddb1f2	-0.43299824
175	0xbe248d9c	-0.16069645
176	0x3cad2457	0.021135492
177	0xbd2022a0	-0.03909552
178	0xbe0e373f	-0.13888262
179	0xbd2ec6ea	-0.042670168
180	0xbdff7e14	-0.12475219
181	0x3d5bc5f4	0.05365558
182	0xbe026e35	-0.12737353
183	0x3d5e79f8	0.054315537
184	0xbd242578	-0.040074795
185	0x3d4753bb	0.048663836
186	0xbd6cebf9	-0.05784223
187	0x3e3c0bbe	0.18363854
188	0x3d40376a	0.046927847
189	0x3e466a9e	0.19376609
190	0xbe583bc2	-0.21116546
191	0xbe2634cb	-0.16231076
192	0xbd403687	-0.046927
193	0xbb75f330	-0.0037528984
194	0xbc3aec27	-0.011408842
195	0x3e71f5bf	0.23628901
196	0xbe9f9925	-0.31171528
197	0xbe8247d4	-0.25445426
198	0x3e696ad4	0.22794658
199	0x3cf2f074	0.029655673
200	0xbd83f697	-0.06443518
201	0xbf0130e5	-0.5046523
202	0x3f324c5a	0.69647753
203	0x3ee64000	0.44970703
204	0x3ecc0dc5	0.39854255
205	0xbd2abc20	-0.041683316
206	0xbf8c3d6c	-1.0956244
207	0x3e2c3633	0.1681755
208	0x3dd3374b	0.10313281
209	0xba7cd3b1	-0.00096445816
210	0x3e7b02da	0.24512807
211	0x3cf6880e	0.030094173
212	0x3d74f682	0.0598054
213	0x3db5bbce	0.088737115
214	0x3c935f65	0.017989824
215	0x3f058b70	0.5216589
216	0xc00648c1	-2.0981905
217	0x3d02e2bc	0.031954512
218	0x3e94142b	0.28921637
219	0x3d2a1955	0.041528065
220	0xbd975acf	-0.07390367
221	0xbe4d7fe5	-0.20068319
222	0xbf12781c	-0.5721452
223	0x3d05556a	0.03255216
224	0xbde6ee3d	-0.11275909
225	0xbe907501	-0.28214267
226	0xbeeb8529	-0.4600003
227	0x3df5e885	0.1200724
228	0xbebd775f	-0.37005135
229	0xbe5e6d10	-0.21721292
230	0xbe5ea0bd	-0.21741004
231	0xbf601b00	-0.875412
232	0x3c7c4ecc	0.015399646
233	0x3d5d2a14	0.053995207
234	0x3eafc6d5	0.34331384
235	0x3e24e8fc	0.16104501
236	0x3e5436ca	0.20724025
237	0xbf6ab1de	-0.91677654
238	0x3f01bb84	0.5067675
239	0x3f30072d	0.6876095
240	0x3e0cdbdd	0.13755746
241	0xbf24a076	-0.64307344
242	0xbf0fc93c	-0.56166434
243	0x3f396fc8	0.7243619
244	0x3dbe3f1d	0.09289382
245	0x3e6062c8	0.21912682
246	0xbdd19b67	-0.10234719
247	0xbd87fb7d	-0.066397645
248	0x3d6e0e7d	0.058119286
249	0x3e171786	0.14755067
250	0xbdc124d6	-0.09430854
251	0xbda8435a	-0.08215971
252	0x3c4acc6d	0.0123778405
253	0x3e8abdc2	0.270979
254	0x3f2995bd	0.6624411
255	0xbe8491e4	-0.25892556

w_agents.2.bias f4 [32]
0	0xbe617abe	-0.22019479
1	0x3d232856	0.03983339
2	0xbf06ce99	-0.52658993
3	0x3f129c27	0.5726952
4	0xbf219d73	-0.63130873
5	0xbe17a232	-0.14807966
6	0xbc7a571c	-0.015279558
7	0xbdf5b16d	-0.11996732
8	0xbda2bbad	-0.079459526
9	0xbe612296	-0.2198585
10	0xbe2f7973	-0.17136173
11	0xbe35648d	-0.17714138
12	0xbdb64282	-0.08899404
13	0xbe0605f2	-0.13088205
14	0xbd2c0d60	-0.042004943
15	0x3da8eaab	0.08247884
16	0x3e6a025a	0.2285246
17	0xbdf7e3be	-0.12103985
18	0xbe0de5b9	-0.13857163
19	0xbe114192	-0.1418517
20	0x3d89a5f1	0.06721104
21	0x3e9f1f76	0.3107869
22	0xbe740615	-0.23830445
23	0x3c1affa6	0.009460365
24	0xbdfd2692	-0.12360872
25	0xbea761ed	-0.326919
26	0xbf71955a	-0.9436852
27	0xbe2e1dbf	-0.17003535
28	0x3b57293e	0.0032830979
29	0xbc9337d7	-0.017970962
30	0x3e9adbfc	0.3024596
31	0xbe63526f	-0.22199415

Ws.0 f4 [32, 32]
0	0xbf661772	-0.89879525
1	0x3e8b8436	0.27249306
2	0x3e288d8c	0.16460246
3	0x3f33826c	0.70120883
4	0xbf240ca4	-0.6408179
5	0x3f5dd694	0.86655545
6	0xbf67583c	-0.9036901
7	0xbf853faf	-1.041006
8	0xbfdc01cb	-1.7188047
9	0x3fcaea65	1.5852782
10	0x3f9b4c0b	1.2132581
11	0xbf1b2d77	-0.6061625
12	0x3f9269e6	1.1438568
13	0x3f0b6d8e	0.5446404
14	0x3f19289f	0.5982761
15	0x3e42f41c	0.19038433
16	0x3f2caee4	0.6745436
17	0x3ee7bec3	0.45262727
18	0xbebfa6a7	-0.37431833
19	0x3f76c023	0.9638693
20	0xbe78c6b8	-0.24294555
21	0xbf4f2504	-0.80915856
22	0xbff64d3b	-1.9242319
23	0x3f89d064	1.0766721
24	0xbf978c92	-1.1839774
25	0xbfc9066b	-1.5705084
26	0xbf4dceb7	-0.80393547
27	0x3f247012	0.64233506
28	0x3f335d5b	0.70064324
29	0x3fd97f2a	1.6991932
30	0x3e3b8766	0.18313369
31	0xbe788a7a	-0.24271575
32	0x3c9f0d74	0.019415595
33	0xbe823a56	-0.25435132
34	0xbd7570fc	-0.059922203
35	0xc0bfd11f	-5.9942775
36	0xbf9fd364	-1.2486386
37	0xbf9456c5	-1.158898
38	0x3e96f400	0.29483032
39	0x3f9a5fc7	1.2060479
40	0xbfed2cae	-1.852926
41	0x3f0f430e	0.5596169
42	0x3e88da4b	0.26729044
43	0xbebf52c7	-0.37367842
44	0xbf2f7c01	-0.6854859
45	0xbee7f0c3	-0.45300874
46	0xbeb63181	-0.35584643
47	0xbf51bb10	-0.8192606
48	0x3e2d8c31	0.1694801
49	0xbf0134b3	-0.5047104
50	0xbfb9c99b	-1.451465
51	0xbf103674	-0.5633309
52	0x3e938e39	0.28819445
53	0x3facc58b	1.3497785
54	0x3db0c335	0.08630983
55	0x3f129d04	0.57270837
56	0x3f75b414	0.959779
57	0x3e31de29	0.17369904
58	0x3ebf2691	0.3733411
59	0xbdfd42d3	-0.12366261
60	0x3f311e9c	0.6918733
61	0xc01093bd	-2.2590172
62	0xbe02b360	-0.12763739
63	0x3e5a9ed4	0.2134965
64	0x3f06817c	0.5254133
65	0xbd8406cf	-0.06446611
66	0xbd13e533	-0.036107253
67	0x3f0afc65	0.54291373
68	0x3fa17bb7	1.261588
69	0x3ee338bd	0.44379225
70	0xc00a730a	-2.1632714
71	0x405dadef	3.463741
72	0xbf344457	-0.7041678
73	0x3fcbc8f9	1.5920707
74	0xbf3cc3f1	-0.7373648
75	0x3e4eff89	0.20214666
76	0xbe1c4a9e	-0.15262839
77	0x3f567100	0.83766174
78	0xbeffb427	-0.49942133
79	0xbfe10eb1	-1.7582608
80	0xbeffa2f6	-0.49929017
81	0xbe85b156	-0.2611186
82	0x3d22d3a5	0.03975262
83	0x4015f2ad	2.3429368
84	0xbf978711	-1.1838094
85	0xbf25b7c3	-0.64733523
86	0xbf8d46ab	-1.1037191
87	0x3f9512b3	1.1646332
88	0xbb26e80d	-0.0025467903
89	0x3e542ef7	0.2072104
90	0xbe2ab8dc	-0.16672081
91	0x3f5ec049	0.87012154
92	0x3ed9fc76	0.42575425
93	0xc02ccfb9	-2.7001784
94	0xbfa39836	-1.2780826
95	0xbe84824e	-0.25880665
96	0xbf57f377	-0.8435587
97	0x3f9ae13f	1.209999
98	0x3f37a36b	0.7173373
99	0xbfb43614	-1.4079003
100	0xc01010b3	-2.2510192
101	0x3f104764	0.56358933
102	0x3f241636	0.6409639
103	0x3f6e583d	0.9310339
104	0x3b87ece2	0.0041481117
105	0xbf8894b8	-1.0670385
106	0xbe6d7a1b	-0.23191111
107	0xbd9d855d	-0.07691453
108	0x3eb35861	0.35028365
109	0xc02efd14	-2.7341967
110	0x3eb48cea	0.3526376
111	0xc0179491	-2.3684428
112	0xbee33f1a	-0.4438408
113	0x3fcf86ec	1.621305
114	0xbf5c28b0	-0.85999584
115	0x3fa2052f	1.2657832
116	0xc0058838	-2.0864391
117	0xbfa07516	-1.2535732
118	0x3d80171a	0.06254406
119	0xbe37f55d	-0.17964692
120	0x3f007586	0.50179327
121	0x3f8097ff	1.0046386
122	0x3e579710	0.2105372
123	0x3f8d65ae	1.1046655
124	0x3fa89f9d	1.317371
125	0xbf6e972d	-0.93199426
126	0x3f360600	0.71102905
127	0x3f90199b	1.1257814
128	0x3f823e45	1.0175253
129	0xc03fb68b	-2.9955165
130	0xc0147d58	-2.3201504
131	0x3f01823d	0.5058935
132	0xbe9ec27f	-0.31007764
133	0x3fdbd15d	1.7173268
134	0xbf7a7217	-0.9783034
135	0xbf607979	-0.8768535
136	0xc0279568	-2.618494
137	0x3f64f1f2	0.8943168
138	0x3fe97bf0	1.8240948
139	0x3eafbdb3	0.34324417
140	0xbf9dab4d	-1.2317902
141	0xbdb87bfa	-0.09008022
142	0xbf232971	-0.6373511
143	0x3f562161	0.8364468
144	0x3f9b7ede	1.2148092
145	0x3ef56f5f	0.47936532
146	0x3f5cb26e	0.8620976
147	0x3fb06fe1	1.3784143
148	0x3f55443f	0.8330726
149	0xbfb3ab20	-1.4036598
150	0xc00ebc4d	-2.230243
151	0x3dbbb958	0.09166211
152	0x3f94404c	1.1582122
153	0x3ecc9b7f	0.39962384
154	0xbe8de9ec	-0.2771753
155	0xbfe4d864	-1.7878537
156	0xbdb11789	-0.08647067
157	0x3f9735c2	1.181328
158	0x3edd4adb	0.43221173
159	0xbe04a752	-0.12954453
160	0xc082148a	-4.065007
161	0xbf40e016	-0.7534193
162	0xbf49c372	-0.7881385
163	0xc033578b	-2.8022182
164	0x3fa3e254	1.2803445
165	0x3f46ce6f	0.7765874
166	0x3ef4f8f9	0.478462
167	0xbea22996	-0.31672353
168	0x3e9824aa	0.29715472
169	0x3db0bf27	0.086302094
170	0xbf7c6c85	-0.9860309
171	0xbeb6b7ce	-0.35687107
172	0x3ff6f629	1.9293872
173	0x3e992d10	0.29917192
174	0xbebe92df	-0.3722143
175	0xbf75db68	-0.9603791
176	0xc0189863	-2.384301
177	0xbea74909	-0.3267291
178	0x3e574582	0.21022609
179	0x3fa78390	1.3087025
180	0xbeec5abc	-0.46162975
181	0x3e94833f	0.29006383
182	0xc03898d8	-2.8843288
183	0xbfa98273	-1.3242935
184	0x3e0b2ec1	0.13592054
185	0xbf163b54	-0.5868428
186	0x3e91806f	0.284183
187	0xc0489262	-3.1339345
188	0xbf5b08ef	-0.85560507
189	0xc010723a	-2.2569718
190	0x3f7c70af	0.9860944
191	0x3e59b6b5	0.21261103
192	0x3efe1f7e	0.49633402
193	0x3fbf3d8a	1.4940655
194	0x3ef8d723	0.48601636
195	0xc06f6c27	-3.740976
196	0xc09a9f8a	-4.831975
197	0xbf134ed8	-0.5754218
198	0xbf56d4fe	-0.8391875
199	0x3f0b568a	0.54428923
200	0x3ff81836	1.9382389
201	0xbfd0fe72	-1.632765
202	0x3fc53452	1.5406592
203	0x3d8b9484	0.068154365
204	0x3fa18204	1.2617803
205	0xbfa912db	-1.3208879
206	0x3ff99bcc	1.950067
207	0xc079bedb	-3.902274
208	0xbf58ef12	-0.8473979
209	0xbf26df63	-0.6518461
210	0x3f791d62	0.9731046
211	0xc005c6d7	-2.0902612
212	0xbfbe9d06	-1.489167
213	0xc0067f2c	-2.101512
214	0x3f8326ad	1.0246178
215	0x3fe4de96	1.7880428
216	0x40383789	2.8783896
217	0xbf7f5298	-0.99735403
218	0x3f4bf332	0.7966796
219	0xbfb6cc1c	-1.4281039
220	0x3f92edf6	1.147887
221	0x3f9fba3e	1.2478712
222	0x3eabcb30	0.33553457
223	0xbfa98b12	-1.3245566
224	0x3f50e154	0.81593823
225	0x3e2f5a9b	0.17124407
226	0xbf01ec59	-0.5075126
227	0xbf478714	-0.7794049
228	0x3ea72e3e	0.32652467
229	0xbfaa9485	-1.3326575
230	0xbdb6e248	-0.089298785
231	0x3f8225fa	1.016784
232	0x3f109408	0.5647588
233	0x3e2ec7c2	0.17068389
234	0xbd845896	-0.06462209
235	0x3f0e1b8e	0.55510795
236	0xbfee23d3	-1.8604683
237	0x3f2b24af	0.6685285
238	0x3fb7a391	1.4346792
239	0xbf6d51db	-0.92703027
240	0xc0018101	-2.0234988
241	0xbe8449aa	-0.2583745
242	0xbf2c9473	-0.67414016
243	0xc0b7fff4	-5.7499943
244	0xc014308e	-2.3154635
245	0xbe118637	-0.14211355
246	0x3f702349	0.9380384
247	0xbd94d8bd	-0.07267902
248	0xbf41d8ec	-0.7572162
249	0x3f826ffb	1.0190424
250	0x3f15aaa2	0.5846349
251	0x3f1975bf	0.5994529
252	0x3fe6e1f9	1.8037711
253	0xc04203d2	-3.0314832
254	0xc0238989	-2.5552695
255	0xbf365fde	-0.7124003
