crowd_nav/data/rl_model_3.pth (torch_old, 93650 bytes, 18 tensors)

w_a f4 [32, 32]
00000000: bebd bebf be22 f0bf dc22 bc3f 295d cfbe
00000010: b023 1c3f 5d5b 03c0 3446 7bbf db9d bcbd
00000020: 0f08 cabf ab84 46bf a60d 8cbf e094 69bd
00000030: 47b6 143f d58e 5f3f d2b7 943f c328 6fbf
00000040: 87f4 c13f 02e7 c03e 7ce4 843e e31e eb3e
00000050: 910d b23e 4406 34c0 e055 453e db4f b33f
00000060: 40bf 1e40 f681 82be 77f5 92bd d2e0 8d3f
00000070: 7201 2040 8e07 9b3f 459e 843f e1c5 52bf
00000080: c5be adbf c5a9 213f 860d aebf 8546 d33f
00000090: 189e 21be 1fe7 aabe afb0 a9bf d6fe 9fbf
000000a0: ecd7 643e b54e d93d cc32 cd3e 5178 53bf
000000b0: 522e 07bf d27f 023f 1a09 463e 3caa 3940
000000c0: 896f 1040 a953 f73f 0a4f 5f3e 80c3 773f
000000d0: bd67 173f 5413 033e 19ea 1d3e 387b db3f
000000e0: bd88 163f 1990 babf 4c71 f53f 1b6b 153f
000000f0: edfb bfbe 2d09 013e ebae 873e b8c5 213f
00000100: 8131 28bf 37c9 86bd 1d71 a73f fabb f3bf
00000110: 2a45 913f d774 7cc0 1bbe fe3f f0fe 15c0
00000120: a0b6 903e 58c7 1b3f 81a9 da3e f90e 8c3f
00000130: 3982 f0bf d90e b4bf f1cf 053e ca2a 943f
00000140: 473e 76be e152 e4bf 2b90 04bd 3418 963e
00000150: 978e 2a40 b4de 343e 32b8 893f 5991 0d3e
00000160: 55c6 813e 908f a83f 8ac4 783f c9cc 0cbe
00000170: 3335 afbf 9ad7 01bd 2056 2dbf 9510 2940
00000180: 3be2 58be ec51 893e d6ab 3ac0 cfce 78bf
00000190: 41af f03e ceae ab3e 2808 c5be 8855 883d
000001a0: c3e2 183f 16b3 15c0 153d b43d f168 d13f
000001b0: 5df1 e33e b8b3 bdbf b1ab 20bf 1e83 65bf
000001c0: 2632 383f b70a 1040 ce80 5fbf 412b a3be
000001d0: 03c8 a13f 0c27 a4bf e47d dabf f784 94bf
000001e0: f9b8 193f f272 a03f bcfc 2bbf a842 a53e
000001f0: d98b 913e 603f 583f 05af 4a3f 7ec2 e2be
00000200: f448 753f b95d 9cbe ab1f bdbf 56fd c23d
00000210: 5033 3cbf dc29 4e3f d19c fcbe a6d5 08bf
00000220: b425 e1bf a577 b0be e876 bf3e 9f90 80bf
00000230: f049 53bf adc3 a43d 5c8c 1abf 47f6 8b3f
00000240: 82a7 35bf 9565 c03f 6669 6ebf cd68 e63e
00000250: b4ad dfbe 15ed e0be 817d 013f c55e cdbe
00000260: 8f28 71bf c804 dc3f f9c1 893e 63e1 683f
00000270: e285 08bf 9bb1 a7bb c6fa e23f c9f8 4ebf
00000280: 8d02 60bf 758a e13e 51ef 9dbf 94e9 073d
00000290: ab29 54bf 3643 7bbe 49b0 9e3f 4c90 18bf
000002a0: 5423 0c3e 8005 92be 6f73 e2be 71d9 3dbf
000002b0: e44e 553f abed 2dbf 9b0e b03e 43a8 10bf
000002c0: f4c2 323f 9a3b f73e fcca 79be 02e3 58bf
000002d0: 7e12 19bf 63b2 143f e032 25c0 9a95 483f
000002e0: 238e 8abe 9616 0c3f 1f35 aebf f579 8d3e
000002f0: 27f7 cb3e 33c5 d03d 3698 6fbd 81da e6be
00000300: 37c7 433f 16da 82bf ddff 8dbf 37b2 5abf
00000310: 5405 92bf a70c a9bf 5b88 3e3d d55c e4be
00000320: 1391 5abf f26c b03f 50c5 903e 557f f63e
00000330: 1412 08c0 df49 6b3f 3d07 af3f 62fe e8be
00000340: 447f ba3f 3405 f13d 6c28 c43e d1d1 89bd
00000350: 537f 76bf 9437 aebe f2f5 d3bd 6d4e 4c3f
00000360: bc47 3dbf b0c6 86be 628a 10bf a64b ae3e
00000370: 3ddd 05bf c1ae 79be cce5 42bf 1f1e 8d3e
00000380: 1ffc d43e 3c49 1640 fef5 8dbe 9f56 de3e
00000390: 8bdb 183e f0a8 c43d 8faa a53e bb06 113e
000003a0: 8a1b 83be 672f 423e 1228 713f 9f1e e23f
000003b0: d5cb e13e 4aef 5a3f 9165 3fbf 1ab9 6ebf
000003c0: 9168 483f 16f7 c23f 3143 26be 781c 35be
000003d0: e7aa 00be 920c 4b3f 31a0 8e3f 97aa a6bf
000003e0: 5083 083f 273b 853e 6acb 5b3f ae25 fbbe
000003f0: aa73 073e b1d6 ebbe 7c13 543f c997 2a3f
-1.4901655 -1.8760602 1.4698138 -0.40500763 0.60991955 -2.0524514 -0.98153996 -0.09209796
-1.5783709 -0.77546185 -1.0941665 -0.057026744 0.58090633 0.8732732 1.1618598 -0.9342157
1.5152749 0.37676245 0.2595557 0.45922002 0.34775975 -2.8128824 0.1927104 1.4008745
2.480423 -0.25489777 -0.07175725 1.1084235 2.5000882 1.211168 1.03608 -0.8233319
-1.3573843 0.6314967 -1.3597877 1.6505896 -0.15782964 -0.33379456 -1.3257045 -1.2499645
0.22347993 0.10610715 0.40077817 -0.82605463 -0.52805054 0.5097629 0.1933941 2.9010153
2.2568076 1.9322406 0.21807495 0.96782684 0.5914267 0.12800342 0.15421332 1.7146978
0.58802396 -1.4575225 1.91752 0.58366555 -0.37496892 0.12601157 0.2650064 0.6319232
-0.65700537 -0.065813474 1.3081394 -1.9041741 1.1349232 -3.9446313 1.9901766 -2.3436852
0.28264332 0.6085105 0.42707446 1.0942069 -1.8789741 -1.4067031 0.13067605 1.1575558
-0.24047194 -1.7837793 -0.03236405 0.2931534 2.664953 0.1766308 1.0759337 0.13824977
0.25346628 1.3168812 0.97174895 -0.13749994 -1.368811 -0.031699754 -0.6770954 2.641637
-0.2118005 0.26820314 -2.916738 -0.97190565 0.47008708 0.33531803 -0.38482785 0.06656939
0.5972101 -2.3390555 0.08800713 1.636015 0.44520083 -1.4820471 -0.6276198 -0.89653194
0.7195152 2.250654 -0.87305915 -0.31868938 1.2639164 -1.2824416 -1.7069669 -1.1603078
0.6004787 1.2535079 -0.6718252 0.32277417 0.28427008 0.844717 0.7917331 -0.4428901
0.9581444 -0.30540255 -1.4775289 0.09520976 -0.73515797 0.8053262 -0.4933839 -0.53451
-1.7589631 -0.34466282 0.37395406 -1.0044135 -0.82534695 0.08045135 -0.6037042 1.0934533
-0.7095872 1.5031 -0.93129575 0.45001832 -0.43687212 -0.4393088 0.5058213 -0.40111366
-0.9420251 1.7188959 0.26905802 0.9096891 -0.5332929 -0.005117608 1.773278 -0.80848366
-0.8750389 0.44050947 -1.2338659 0.03318174 -0.8287608 -0.24537358 1.2397548 -0.5959518
0.13685352 -0.2851982 -0.44228694 -0.74159914 0.833235 -0.6794078 0.34386143 -0.56506747
0.69828725 0.4828766 -0.24393839 -0.84721386 -0.5979384 0.58084697 -2.5812302 0.78353274
-0.27061567 0.54721963 -1.3609961 0.27632108 0.39837 0.10193863 -0.05849477 -0.4508858
0.7647585 -1.0222805 -1.1093708 -0.85428184 -1.1407876 -1.3206986 0.046516757 -0.44602075
-0.85377616 1.3783247 0.28275537 0.48144022 -2.1261034 0.91909593 1.3674084 -0.4550658
1.4570088 0.117685705 0.3831209 -0.067294724 -0.9628803 -0.34026778 -0.10349645 0.7980717
-0.7393758 -0.26323462 -0.56461155 0.3404209 -0.5229071 -0.2438307 -0.7613189 0.27562043
0.41598603 2.3482199 -0.2772674 0.43425462 0.14927499 0.09602535 0.32356688 0.14162724
-0.25606948 0.18963395 0.9420177 1.7665595 0.44100824 0.85521376 -0.74764353 -0.9325119
0.78284556 1.5231655 -0.16236569 -0.17686641 -0.12565194 0.79316056 1.1142637 -1.302081
0.53325367 0.26021692 0.8585726 -0.49052185 0.13227716 -0.46062234 0.8284223 0.66637856

w_group.0.weight f4 [64, 8]
00000000: 0ca2 cdbd a7a9 32bc a43a 913f 1adf 75bf
00000010: 6b67 aabe 722a ddbe 2671 25be 904b debe
00000020: f6bd 48be 7ade 10be 3543 28bf de41 85bf
00000030: 6a59 55be 6f03 18bf 51bb 79bf 2c61 13bf
00000040: ffc9 90be c833 72be 5826 983f 4b3f 64bd
00000050: e6a9 92be 9274 3fbf 60f0 293d dbb5 4cbf
00000060: 2445 193e 1e1b 433e ff77 663f 8937 2dbf
00000070: c8cb 8ebe d995 f43e c7f2 1dbf 71ca f23e
00000080: e4c7 dd3c d3cf c83e fb90 173e 04cb a33e
00000090: 9626 4d3e f8c5 983e 274d 86bd 29e8 72bc
000000a0: 12b2 1dbd 6be0 55bc c85c 5fbd 0d56 dfbd
000000b0: b8fb a1bd 97ee 423d b67a b0be 643e dabe
000000c0: 07a8 81be d798 bbbc 8676 9b3f 3597 873f
000000d0: 6052 bf3d dd0c 21bf 68c4 36bf 3776 ecbe
000000e0: a6dc 383e 7b48 8bbd 376c ac3e 7fdd 84bf
000000f0: 9bc9 8b3e fcb7 2ebf f348 65be dd4d 31bf
00000100: 852b e5bd 290c 63bd 95cb 21bf 29fb 383f
00000110: 6079 633c 84cb 1ebf fa87 8abe 029a 9cbe
00000120: b0b7 7ebd 9522 2fbc be5f f7be 13ee 7a3c
00000130: 01b1 973e c5a4 37be 27b5 b0be e13a 24bf
00000140: d834 18bf 35c7 023f 1ff8 23be 6a4e ef3d
00000150: ef23 a73e 5468 f6be 2592 9f3f b027 2fbe
00000160: a05f bbbe 690a 4b3e 28c0 533e 7555 d03e
00000170: 6469 2dbe fae5 c8be bcec 35bf 6b02 f5be
00000180: 35b3 3f3e f99e 9fbd 4797 cebe 1295 4b3f
00000190: 2b5a 0fbe 0971 30bf a349 6e3e 3adc 56bf
000001a0: de81 8a3e b96c 8d3e 47ee 72be 1dcf 743d
000001b0: 4a6e 1dbe c5ed f2be 2a8a 9cbf 8461 3fbf
000001c0: 684c 87be 9e96 31be d924 c6bf 7e4b 313e
000001d0: 728e 673e eb12 aabe 7cd9 cbbf 4c0e 01bf
000001e0: 9ff9 b0be 17c0 083d aa8e 90bf 96db b9bb
000001f0: 4017 043d 1076 793d 0a4a 05c0 70ba dabe
00000200: 0ffb cebd e87f 80bd cf00 adbe bb72 4ebf
00000210: f469 f93d 6b17 4ebf 8b71 2d3f 2d75 e4be
00000220: f060 f2be 6da1 1d3f f8f4 663f a2c8 a9bf
00000230: 0c33 92be 1a8f 94be 85dc 6bbf 8d56 c2bd
00000240: fe73 d33e 3c17 173f 1fe6 68be f228 a73e
00000250: 6d7f 67be 0116 f4bd 5006 503f e586 8f3d
00000260: 108d 9ebe f979 aa3e 59ce 8dbf 3574 073f
00000270: 554b ae3e f844 c33d cacc 03bf cba5 febd
00000280: a31e 253e d1eb 20be 2164 423f d10a 7e3f
00000290: bc79 4cbe c11e a1bd 236c b5bf 774e 12bf
000002a0: 6e41 d7bd de55 77bd 81db 793f f0ff 81be
000002b0: 4ddd 9dbe 87c3 e4be 5cc0 35bf 8048 2bbf
000002c0: 681a ab3d 182b 74bd a4e0 333f 972d 47bf
000002d0: 3dde afbe 9c59 3ebf ec05 093f fa59 dfbe
000002e0: 722c b93e 2f54 9d3d aeca a8bd c8c3 33be
000002f0: d08f 8f3c 636b 253e a654 4a3e cdf7 643e
00000300: e8f7 733e 0383 193e 65b2 563e 26e6 42bd
00000310: d8b8 65bd ca4f cdbe 4a96 81be c22c 11bf
00000320: 7c1c 603e e4b4 3bbe def5 963e 24d9 ab3f
00000330: e290 3f3e 295c 63bc aad3 9abf 76bc 483e
00000340: d7de 283f be79 3e3e 4139 94bf ad33 4abf
00000350: 503a 363d 5ec1 9a3d f52b 94be d5d1 d83d
00000360: 6d55 04be ddde 8c3f 6a9d 4c3e 33fa b53e
00000370: cc75 40be 8dc6 b5be dc30 46bf b08e 38be
00000380: 7d99 873e 8a09 65be bdfe bfbf 05fb 523f
00000390: 74b6 f33d 6e38 5dbf 96ef 3c3d ea57 48bf
000003a0: b1fa 4cbd c328 92bd 33ff 973f 186b 89be
000003b0: e80a 95be 79f5 33be 32ac 9cbf 73e2 d7be
000003c0: 04c6 29be f44d ae3e 7967 80bf 92e0 d2be
000003d0: 0d2e 9fbe 974b 44bf e954 243f 9e62 98be
000003e0: cad3 cdbd 2548 c0bd f195 7cbf 60a1 8f3f
000003f0: 0211 21be ae8b e2be d752 69bf 80b0 e1be
-0.100406736 -0.010904706 1.1346021 -0.9604355 -0.33282027 -0.43196446 -0.16156444 -0.43417025
-0.19603714 -0.14147368 -0.6572755 -1.0410726 -0.2083489 -0.5938024 -0.9755145 -0.5757015
-0.2827911 -0.23652565 1.1886702 -0.055724423 -0.28645247 -0.7478725 0.041489005 -0.7996499
0.14967781 0.19053313 0.9002685 -0.67662865 -0.27889848 0.47770575 -0.61698574 0.47420076
0.027072854 0.39221057 0.148014 0.31990826 0.2003425 0.29838538 -0.065576844 -0.014825859
-0.0384999 -0.013053994 -0.054531842 -0.10905085 -0.0790934 0.04759082 -0.3446862 -0.42625725
-0.25323507 -0.022900028 1.2145545 1.059302 0.09341884 -0.6291025 -0.7139344 -0.4618394
0.1805292 -0.06800934 0.3367631 -1.0380095 0.2730225 -0.6824949 -0.22391109 -0.69259435
-0.11189941 -0.05543152 -0.63201267 0.7225824 0.0138839185 -0.6202929 -0.27056867 -0.3058625
-0.062186897 -0.010689397 -0.48315233 0.01531555 0.2962723 -0.17933948 -0.34513208 -0.6415234
-0.59455633 0.51085216 -0.1601262 0.11684878 0.32644603 -0.4812647 1.2466475 -0.17104983
-0.36596394 0.1982819 0.2067877 0.406902 -0.16934735 -0.39237958 -0.71064353 -0.47853407
0.18720706 -0.077939935 -0.4034979 0.7952434 -0.1399924 -0.6892248 0.23270278 -0.8392979
0.27052206 0.2762201 -0.23723708 0.05976783 -0.15374103 -0.4744703 -1.2229664 -0.7475817
-0.2642548 -0.17342612 -1.5479995 0.17313954 0.22612932 -0.33217558 -1.5925746 -0.5041244
-0.34565446 0.033386316 -1.1293538 -0.0056719286 0.032248735 0.06090361 -2.082644 -0.42720366
-0.101064794 -0.06274396 -0.3378968 -0.80643815 0.12178412 -0.80504483 0.6775138 -0.44620648
-0.47339582 0.6157444 0.9021754 -1.3264353 -0.2855457 -0.29015428 -0.9213336 -0.094891645
0.41299433 0.5901983 -0.22744034 0.32648426 -0.22607203 -0.119182594 0.8125963 0.07008151
-0.30966997 0.33296183 -1.1078597 0.5291169 0.3404185 0.09534639 -0.5148436 -0.12433966
0.16124968 -0.15714957 0.75934035 0.99235255 -0.19968313 -0.07867194 -1.4173626 -0.5715098
-0.105105266 -0.060384624 0.9760056 -0.25390577 -0.30832902 -0.44680426 -0.7099664 -0.669075
0.08354646 -0.05961141 0.7026465 -0.7780394 -0.34349242 -0.74355483 0.5352466 -0.43623334
0.36166722 0.07682072 -0.08241783 -0.17555153 0.01752463 0.16154246 0.19758853 0.22360153
0.23825037 0.14991383 0.2096649 -0.047582768 -0.056084484 -0.40099937 -0.25309974 -0.5670892
0.21885866 -0.18330723 0.29484457 1.3425641 0.18707612 -0.013876953 -1.2095845 0.19603142
0.65965027 0.18601128 -1.1579973 -0.789851 0.044489205 0.07556413 -0.28939787 0.10586897
-0.12923212 1.1005512 0.19981924 0.3554245 -0.18794936 -0.35503045 -0.77418303 -0.18023181
0.2648429 -0.2236692 -1.4999615 0.82414275 0.119000345 -0.8641423 0.046126924 -0.78259146
-0.050043765 -0.07136681 1.1874756 -0.2683952 -0.29109883 -0.17574109 -1.224005 -0.42164955
-0.16579443 0.3404385 -1.0031577 -0.4118696 -0.3108982 -0.7667784 0.6419206 -0.2976274
-0.10050161 -0.093887605 -0.9866629 1.1221123 -0.15729144 -0.44247192 -0.9114203 -0.4407997

w_group.0.bias f4 [64]
00000000: 2f1a 43bf bd6c 23bf 139e 4ebf 19a3 9dbd
00000010: e977 08be 5768 13bf a56f f4be 6fc2 4bbf
00000020: 4dcd 04bf 1c60 c4be e794 f8be 8176 38bf
00000030: 560f 4dbf c0c4 02bf 5f8b 87be c9af f83d
00000040: a18d fcbe 7a56 013e c197 a5be e38f 5a3e
00000050: e0b5 0fbf b074 2ebf 54ab 44bf 1fa1 05be
00000060: 5e53 47bf c34a 0dbe 9fb0 4fbe 49bd 64be
00000070: b17c 6dbe 11a8 82be 1a17 acbe cc97 fabe
00000080: 7fde f83d aa26 eabd 23e9 a2bd ff8a a4be
00000090: f855 22bf 06cb be3d cd2c 52be c6f1 31bf
000000a0: 5eab 0b3b e52e 2dbc ae02 cebe 74ef bbbd
000000b0: 05ad 3dbe 4194 b0be 0e26 adbe 3b96 41be
000000c0: 938f 38bf 8c49 d53d 5c21 5bbe 2b2f 29bf
000000d0: ec97 25bf 03aa f9be 07c3 be3d e65c 0cbf
000000e0: 2962 53be 36a0 13bf 722b 8dbe cb1b e73d
000000f0: 2c98 80bc 72ed 0fbf 7986 97be 2714 bcbe
-0.7621183 -0.63837796 -0.8070995 -0.07697124 -0.13326992 -0.57581085 -0.47741428 -0.7959356
-0.51875764 -0.38354576 -0.48551103 -0.7205582 -0.80101526 -0.51081467 -0.2647352 0.12142903
-0.49326804 0.12630644 -0.32342342 0.21343951 -0.56136894 -0.681468 -0.76823926 -0.13049744
-0.77861583 -0.1379805 -0.2028222 -0.22337832 -0.23192097 -0.2551885 -0.33611375 -0.48943937
0.12151813 -0.11433156 -0.079546236 -0.32137296 -0.6341243 0.093160674 -0.20524903 -0.6950954
0.002131186 -0.010570263 -0.4023642 -0.091765314 -0.18523033 -0.3448811 -0.33818096 -0.18904965
-0.72094077 0.104144186 -0.21399444 -0.660876 -0.6468494 -0.4876252 0.09314542 -0.5482925
-0.20642914 -0.5766634 -0.2757221 0.11284598 -0.015697561 -0.5622169 -0.29594782 -0.36734125

w_group.2.weight f4 [32, 64]
00000000: ab87 8a3d 5818 9ebe 91a2 babd 3dea ecbe
00000010: 13dd c1bd e49f 8d3d 0a64 b2bd 17e0 e13d
00000020: cfd1 14be 002d ffbc fbee 2b3e 31a9 ce3d
00000030: 074e 1ebe 6336 be3e c96d b63e 9902 76bb
00000040: 5c34 5c3d aaac 4cbe ecc4 cd3e ef52 03be
00000050: 5df4 e1be 0c0b 79be 2b16 39be 3033 60be
00000060: af27 ad3e bdf3 07bd d70e 243e 9d49 113f
00000070: afe0 073f 5d50 01bf 95da 213f b5f0 813c
00000080: ed9f 98be 6129 4fbf be7b d6bd 680a 17bf
00000090: 2b60 eb3d 1bc1 3fbd b2d6 3a3c 88b1 eb3c
000000a0: 539d 65be 95a8 4cbe e02d efba ed21 40bf
000000b0: 8b9e 4c3e ecc3 2dbe b1cc a33e 3015 5a3e
000000c0: 7bc3 3a3f 6e34 5bbe 897d 1fbd 16d9 bd3e
000000d0: 7a33 72bf 19a7 883f 7f17 93bd 3f16 1e3c
000000e0: f01a 603e 200e 9f3e 1a05 cdbd bf30 b2bd
000000f0: 976b 20be c523 20be de68 dcbd 0706 fcbd
00000100: 496a 153f cc5b eb3e 4dd9 873e 2a5f 73be
00000110: 3f66 7cbe 1ea9 013e fd2a f3bd 7315 aa3e
00000120: 3c84 083d e02c 48bc b7d2 563e f0fe 223e
00000130: 69d1 16be c7ac a93c 1129 593e f3be 2b3e
00000140: 0b91 c13e 2cc8 843e a1b2 00be 8d95 05bf
00000150: 7437 93be d2f2 823e e6a3 963e be00 e5be
00000160: 84aa 06bc 4c29 233e 6dc2 343d 6d9d a23d
00000170: 0e2a 3dbe 379b a93e 8e06 12bf 3f31 43bc
00000180: 4fc9 b2be c27c 20bf 8d3b 6cbe 243f b43d
00000190: c54b 55be 42ef b83e 87a4 003b 9ac1 f43c
000001a0: 0b8c e43d ad56 523e fc90 a4bd 928f c5be
000001b0: 357d f8be 71de aebd 6b60 633c 6f4f 14bf
000001c0: c202 983e 4760 b0bd 8d03 aaba 6b1d 2b3e
000001d0: 94c5 40bf 2e0c c93e 2aa0 d33d fc1b 02be
000001e0: b176 2cbd bea6 23bf 15ab 6a3d a0e5 ab3d
000001f0: 2bf7 b6bd 42b0 363d 8029 693d 0821 05be
00000200: 9e5f dfbd 67c7 d63d b10e 7bbd c5bb d5be
00000210: b7c3 d1bd 2fa6 983d dd7e ef3c 23c6 4c3d
00000220: da8a e73d afbf f1bd bda8 133d 41f7 31be
00000230: 4fee ecbd 8f59 e7bd bac6 1c3e 78a5 6dbe
00000240: c16b c8bc 7919 c2bd a42d ce3b 5e82 55bd
00000250: 924c 22be 1b74 0a3e 0ed2 f33d 9cb3 94ba
00000260: df98 2abe 04a0 edbd 4973 c93d 99f7 43be
00000270: 69a8 23bd 8500 c7bd 4164 f13c 345f 0abe
00000280: fde0 a0bd 4f08 86bd de9d 3a3c 6e20 d9bd
00000290: f5d4 bfbd 192a 6ebe 3e2a 23be 9354 32be
000002a0: fa51 17be 5d0e a0bb 26c7 e23d a98f 203d
000002b0: 956e 45be b860 843d 263a ccbd ee67 3e3e
000002c0: 92d5 9dbc f9b9 2ebb 2a6b eebc 24ad 67be
000002d0: bb64 453d 3cdc 933c 076a c8be a8bd 9f3d
000002e0: 1c91 2d3d 7d43 6abd a9c4 043d 98ff 90be
000002f0: f1ba ab3d b08c 5cbd 70ed a1bd 28ed 20bd
00000300: ec95 6c3d c8fa 53be 7c9c 983d 557d bebe
00000310: 727b a3bd 6ef3 98bd 7005 e2bd 1558 22be
00000320: 975f d6bd b8d8 02be 28dc 9bbd be21 993b
00000330: 5895 923d 66b8 52be 5804 a0be 434c 62be
00000340: 0822 92bd aa2c f73c bbc8 2fbe 74e6 38be
00000350: 4347 28bc f6e9 543c de50 6bbd 9088 53be
00000360: c487 89bc 5bf9 24bd aa52 86be ef6a a8be
00000370: ef5d 9d3d 3175 59be 2074 85bd 2193 8e3d
00000380: b9d7 4fbd e127 6b3c 888d ac3a eec3 20bd
00000390: dbbc d13d 4767 e3bd 8a69 ae3c a47d c03d
000003a0: 642b 4ebe 2804 a3bd b4b5 4d3d 9d0b 6d3d
000003b0: 2a6b 07be ed14 bf3d f59b 9bbe 14f3 9b3d
000003c0: c74d 2d3e acba df3d e3e9 c53d d7c4 f33d
000003d0: 617b 153d b038 923e cb69 2cbe f066 aa3c
000003e0: 0dd2 693d ba16 633d 6601 d33a 79c7 44be
000003f0: 8350 6e3d e5ea 1ebe 20a2 a23d ed57 c7bd
0.06764158 -0.30877948 -0.09113038 -0.4627246 -0.09465995 0.06915262 -0.08710487 0.1102907
-0.1453316 -0.031149387 0.16790383 0.100908644 -0.15459453 0.3715087 0.35630634 -0.003753817
0.05376087 -0.19987741 0.40189302 -0.12824605 -0.44131747 -0.2432062 -0.18074863 -0.21894526
0.3381934 -0.03319143 0.16021286 0.5675295 0.53077215 -0.5051325 0.63224155 0.015861848
-0.29809514 -0.80922514 -0.10472821 -0.59000254 0.11492952 -0.04681502 0.011403726 0.028771177
-0.22423296 -0.19986184 -0.0018247925 -0.75051767 0.19982354 -0.1696927 0.31992105 0.21297145
0.7295453 -0.21406719 -0.03893808 0.37079686 -0.94609797 1.0675994 -0.07182216 0.009648859
0.21885276 0.31065464 -0.10010739 -0.08700704 -0.15666042 -0.15638645 -0.10762189 -0.12305837
0.58365303 0.45968473 0.26532975 -0.23766771 -0.24648379 0.1266217 -0.11873434 0.3321949
0.033329234 -0.01221773 0.20978819 0.15917563 -0.14728321 0.02071227 0.21207072 0.1677206
0.37805972 0.2593397 -0.12568142 -0.5218132 -0.28753245 0.25575882 0.2942192 -0.4472713
-0.008219365 0.15933722 0.04413073 0.07940183 -0.18473074 0.33126232 -0.5704125 -0.011913597
-0.3491921 -0.62690365 -0.23069592 0.088011056 -0.20829685 0.3612004 0.0019629316 0.029877473
0.111595236 0.20540877 -0.08035466 -0.38586098 -0.48533025 -0.08538521 0.013877968 -0.57933706
0.29689604 -0.086121134 -0.0012971029 0.16710441 -0.7530148 0.39267105 0.10333283 -0.12705988
-0.04210538 -0.63926303 0.057292063 0.08393407 -0.08933862 0.044601686 0.056924343 -0.13000882
-0.109069094 0.10487252 -0.061293308 -0.4174482 -0.10242408 0.07453572 0.029235298 0.049993645
0.11305781 -0.11804139 0.036049593 -0.17379476 -0.11568891 -0.11296379 0.15310183 -0.23207653
-0.024465444 -0.09477515 0.006292062 -0.05212628 -0.15849522 0.13520853 0.11905299 -0.0011345032
-0.16659878 -0.11602786 0.09836442 -0.1913742 -0.03995553 -0.09716896 0.02946675 -0.1351288
-0.07855413 -0.065445535 0.0113901775 -0.106018886 -0.0936679 -0.23258246 -0.15934083 -0.17415075
-0.14777365 -0.0048845247 0.11073141 0.039199505 -0.19280465 0.0646376 -0.099720284 0.18594334
-0.019266877 -0.0026661141 -0.029103834 -0.22624642 0.048191767 0.018049352 -0.39143392 0.07799846
0.042374715 -0.057193268 0.032414112 -0.28320003 0.083852656 -0.053845108 -0.07906616 -0.03928867
0.057760164 -0.20701134 0.07451722 -0.37204996 -0.0798253 -0.074683055 -0.11036193 -0.15853913
-0.10467451 -0.12777984 -0.07610351 0.004673212 0.07157391 -0.20578155 -0.31253314 -0.22099404
-0.07135397 0.030172665 -0.17166416 -0.18056661 -0.010270896 0.012995234 -0.057450168 -0.20657563
-0.01678837 -0.040276866 -0.26234943 -0.32894084 0.07683932 -0.21236111 -0.0651629 0.06961656
-0.05074284 0.01435277 0.0013164738 -0.039249353 0.102410994 -0.11103683 0.02129056 0.09398964
-0.2013374 -0.07959777 0.050222114 0.057872403 -0.13224474 0.09330163 -0.30392423 0.07614723
0.16924201 0.10924277 0.09663751 0.119027786 0.036494616 0.28558874 -0.16837232 0.020801038
0.057085086 0.055441596 0.0016098439 -0.19216718 0.05818225 -0.15519293 0.07941079 -0.097335674

w_group.2.bias f4 [32]
00000000: 9e49 3ebf 24cd ebbe 3d03 f8bc 05ec b1be
00000010: 982f da3e ab8a 353d f101 5ebe c36f 31be
00000020: 8750 813d 1c13 c8bd ea7b 16be 4f24 0cbd
00000030: e441 56bd 7f30 f4bd 2747 19be 833e 62be
00000040: 599f e7be 5e3a b3be 3e7f 92bf 22ed b23a
00000050: 8c4c 19be 5de1 2bbc cec0 a53c 79fd 89bc
00000060: b9a8 c6bd 417b 7abd e8cb 04bf ba5a f9bd
00000070: 2bc7 1ebd 29fb 523e 8e22 b6be 2bce b73d
-0.7433108 -0.46054947 -0.030274982 -0.3475038 0.42614436 0.044321697 -0.21680428 -0.1732779
0.063141875 -0.0976927 -0.14695707 -0.034214314 -0.052308932 -0.119233124 -0.14968549 -0.22094159
-0.4523876 -0.35005468 -1.1445081 0.0013650993 -0.14970607 -0.0104907425 0.020233538 -0.016844498
-0.0970015 -0.0611527 -0.51873636 -0.12175508 -0.03876416 0.20603622 -0.35573238 0.0897487

w_agents.0.weight f4 [64, 5]
00000000: f660 a23d 06d1 34bd ef9a c83d 06d6 b13d
00000010: cf45 a13d 7514 f63b 5166 b4bc 5dac c1be
00000020: 4d36 2dbe cf17 e4be dcb9 81bb 1fd4 c33d
00000030: 6f00 b43d 67c5 073e 3bdb 67be f094 54bd
00000040: 72ef 9a3d a19f 493e 621f ea3d 98aa 38bf
00000050: eb73 1f3d 5b41 b8bd 721c 263f ae4e 74bf
00000060: d46f 29be 9706 62be c91a e9be 1822 673e
00000070: c7dd 5f3f 4cd5 89be d6f8 143d 2000 9c3e
00000080: a7f2 67be e10b 063f 2e0e 30bf f1e9 123d
00000090: 1487 a5bd b55f 86bd f850 243e 6ab5 34bf
000000a0: 4a4c 1fbe 0d71 cebd aaa3 82be ca80 64bf
000000b0: bdec e0be 5ac6 a8be 3d16 0f3d 148e bfbe
000000c0: 8670 dabd 5454 aebf 1cd5 abbe 12dd c93e
000000d0: 93ed 6d3f 8556 b5be 6cd8 fdbe 30fd a8bd
000000e0: 19a4 85be 7901 a23f 34ca 333f 5cc2 47bf
000000f0: cfc1 00be 23c3 afbc 78fb 7cbf 73f8 a43f
00000100: c0b2 ddbe d000 02bc 92c1 cb3c 2469 8fbc
00000110: c3dd 6f3e 3296 023d 3413 2b3e 858f 313f
00000120: 3293 96bd eca6 823f 7031 88bf 1878 81bd
00000130: 5e51 923e 946c e73e 8d46 233f 4f2f 5cbf
00000140: 66f9 6b3e 0598 3e3e 8e5b 90bf d250 a93e
00000150: 7718 fcbe 833f 49be 5241 a23d 01b4 523f
00000160: 3531 c03f ff87 f8be 6fba c5be 4592 0dbe
00000170: 1683 653f 7908 9d3f b33d b5bf 319f 36bc
00000180: d62b a13d 1b1f abbc 1a0c 9d3e 65c7 2cbf
00000190: 6f39 2e3c b9a8 62bc e51b 11be c890 d73e
000001a0: 6170 69bf 94de 9abd 9a4d 033f 6d78 853d
000001b0: 964b e03f e24b 74be c9db d1bd 5241 503e
000001c0: 0193 04be 4cad 283f 2969 53bd e51f febd
000001d0: 9507 c53e 4967 083f dd86 d33f cb9f a1bf
000001e0: dd28 b8bc c87f 913d 43c0 debe 4ab1 d03f
000001f0: 6ccd 26bf 8eb3 b73d 796a 1b3e 5ce7 a8bc
00000200: 3df1 893e c54a 02bf 7527 453d c5ac 713e
00000210: eebc 8bbd df48 a93e 0f96 0dbf aefd 58be
00000220: 0db9 463f 6b11 ca3e 53d9 813e 9f08 4ebf
00000230: 348c eabe eddb 2a3f 74f0 0ebd 0a35 b13e
00000240: d58d 43bf 9c94 9e3e fa76 933c cdf5 74be
00000250: aed9 313f b135 05bf fe75 93be 63ee 0f3e
00000260: 452c 91be d841 c83f 4289 66bf 1827 a43d
00000270: ff2e 973d 500b 4b3e 31c9 073c 3652 14bf
00000280: 9e71 84bc d077 233f a75d 69bf 36c3 b93f
00000290: 1a3c 18bf 089b 013e 5176 4e3f e288 2f3f
000002a0: 2db9 db3f b845 abbe 0823 d23d 0afc 8a3f
000002b0: e9f1 18be b972 7c3f dd90 633e 26df 3d3e
000002c0: e6c9 b7bd d4b8 85bf 6f51 c63e 4dd0 47bf
000002d0: 8616 c8be e95d ab3f a1ef 123f 99c7 1dbf
000002e0: 73cf 97be fa89 a8be c672 3c3f 22d2 19bf
000002f0: f149 443f 7dcb afbe d36c 033c a7e2 693e
00000300: d7e7 193e d793 65bf 4102 bebe d9e9 6a3d
00000310: 2497 923e fa5a 293f f0ea b6bb 720d b3bf
00000320: a667 7cbd e7d1 243e 49f5 263e 34ee 083f
00000330: 67da 0abf 91a5 13bd 7eca b23f 9377 eb3c
00000340: 16f1 13bf 69e2 82be dcbc 23be 83ed 8a3f
00000350: 1565 a4bd 6876 8bbf 90bc 98be 578e 823e
00000360: f7d6 b3be a29f 00bf 4118 17be a481 aabe
00000370: 5d70 723e 571a b53c f527 27bf 88f6 a23f
00000380: a8aa 0cbe 9600 aebc ecf3 b03f d51b babe
00000390: 8cf6 923f 3420 3f3d 7a2c 2bbe d046 173f
000003a0: 40be 3dbf 983b a53f 30ea 8ebf d109 a73c
000003b0: b2d8 a03e 8585 29bf 373d 443e dc8f 4abf
000003c0: 354b a83e 3731 623f 8b89 033d be1e be3e
000003d0: dabf b6bf 16f4 0dbc ccc4 0bbf dd8e 12bf
000003e0: 1ed8 183f e15b 55bf 04b0 0bbe a6e8 1f3d
000003f0: 8925 e53e af64 a5bf 8e74 3c3c 161c f2bd
0.0792865 -0.044144653 0.09795176 0.086834 0.07874643 0.007509763 -0.022021445 -0.37826815
-0.16915245 -0.44549415 -0.0039589237 0.09561943 0.08789145 0.13258897 -0.22642224 -0.05189985
0.07565202 0.196898 0.11431767 -0.72135305 0.038928907 -0.089968406 0.64887154 -0.95432556
-0.16546565 -0.22072826 -0.45528248 0.225716 0.8744778 -0.26920545 0.03637012 0.30468845
-0.22651158 0.52361876 -0.68771636 0.035867635 -0.08082405 -0.065612234 0.16046512 -0.70589316
-0.15556446 -0.100801565 -0.2551549 -0.89259017 -0.43930617 -0.3296383 0.034933317 -0.37413085
-0.106659934 -1.3619485 -0.33561027 0.39426476 0.92940634 -0.35417572 -0.4957918 -0.08251417
-0.2610176 1.26567 0.7023041 -0.78030944 -0.12573932 -0.021455353 -0.9882121 1.2888321
-0.43300438 -0.007934764 0.024872575 -0.01750619 0.23424439 0.03188152 0.16706544 0.6935962
-0.07352294 1.020719 -1.0640087 -0.06321734 0.28577703 0.45200026 0.63779527 -0.8600969
0.23044357 0.18612678 -1.127794 0.33069474 -0.49237415 -0.19653134 0.07922615 0.82305914
1.5015017 -0.48541257 -0.386188 -0.13825329 0.89653146 1.2268211 -1.4159454 -0.011146353
0.07869689 -0.020888856 0.30673295 -0.6749175 0.01063381 -0.013834172 -0.14170797 0.42102647
-0.911871 -0.07561985 0.51290286 0.0651711 1.7523067 -0.23857072 -0.10246999 0.20337418
-0.12946703 0.6588943 -0.05161396 -0.12408427 0.38482347 0.532826 1.6525532 -1.262689
-0.022480423 0.071044505 -0.4350606 1.6304104 -0.651572 0.08969794 0.15177335 -0.020618133
0.26941863 -0.5089534 0.048133332 0.23601063 -0.06823145 0.3306341 -0.55307096 -0.21190521
0.77626115 0.39466414 0.25361118 -0.80481905 -0.45810091 0.6674183 -0.034897283 0.34610778
-0.76388294 0.30972755 0.018001068 -0.2392189 0.6947278 -0.5203505 -0.28800958 0.14055781
-0.28354087 1.5645094 -0.9005319 0.08015269 0.07382011 0.19828534 0.008287714 -0.57937944
-0.016167458 0.63854694 -0.9115853 1.4512699 -0.5946671 0.12656796 0.80649287 0.6856824
1.7165886 -0.3345163 0.10260588 1.0858166 -0.14936031 0.9861255 0.2222323 0.18542156
-0.08974056 -1.044703 0.38734004 -0.78052217 -0.39079684 1.3388034 0.57396895 -0.61632687
-0.2965046 -0.32917768 0.7361263 -0.6008626 0.76675326 -0.34334937 0.008021551 0.22840367
0.15029846 -0.8967871 -0.37111095 0.05735192 0.28630936 0.66154444 -0.005582206 -1.3988478
-0.061622284 0.16095696 0.16304506 0.5348847 -0.54239506 -0.03604657 1.3968046 0.02874354
-0.5778974 -0.25563362 -0.15990013 1.0853733 -0.08027092 -1.089551 -0.29831362 0.25499222
-0.35124943 -0.5024358 -0.14755346 -0.33302033 0.23675676 0.022107286 -0.65295345 1.2731485
-0.13736975 -0.021240514 1.3824439 -0.3634936 1.148149 0.04666157 -0.16716185 0.59092426
-0.74118423 1.2908812 -1.1165218 0.020390423 0.31415325 -0.6621936 0.19163977 -0.7912576
0.32869878 0.88356346 0.032113593 0.3713283 -1.4277298 -0.008664152 -0.54597163 -0.5724924
0.5970477 -0.8334332 -0.13641363 0.03904023 0.447552 -1.2921351 0.011502398 -0.11821763

w_agents.0.bias f4 [64]
00000000: a36e 40bf 3b63 c0be 53f1 b1be 7e50 8fbe
00000010: 9de4 38bf 8f7a febe 6e8a 3cbf 3526 b7be
00000020: 833c 26be 85cd 90bf 0cdc 05bf da6a 8bbf
00000030: e29a 39bf 7baa a6be b9cf 41bf f495 6dbf
00000040: 1558 37bf cb92 d8be 9e60 97bf e2b9 26be
00000050: 4a0a b6be ef6e 16be ba96 02bf d687 38bf
00000060: cb58 4bbf 833c 01bf 9f37 28bf 4f0e 23bf
00000070: dd3c 47bf 4ba4 6cbe 5013 9cbf 107e 10bf
00000080: 9a66 c0be 51f1 04bf 1978 91bd d378 75bf
00000090: d309 e4be fc30 24bf df85 e13d bf42 8ebf
000000a0: 44bd 01bf f7a0 963d 751e 3fbf a2fe 36bf
000000b0: 6768 e9be a221 0cbf 06c2 1dbf 9f41 1dbe
000000c0: e87b 4dbf 9281 80bf 1569 47bf f167 29bf
000000d0: 9729 3ebe cb73 34bf 07eb e6be e934 e4be
000000e0: 3612 b2be fd14 0abf c49b dcbe bd1e 15be
000000f0: 67a4 903d b639 30bf d36a 27bf 60b3 8dbe
-0.7516882 -0.37575707 -0.34754428 -0.27991098 -0.72223836 -0.4970288 -0.73648727 -0.35771337
-0.16234021 -1.131272 -0.5228889 -1.0891984 -0.7250196 -0.3255194 -0.75707585 -0.92806935
-0.7161878 -0.42299494 -1.182636 -0.16281846 -0.35554725 -0.14690755 -0.5101124 -0.7208227
-0.7943236 -0.5048296 -0.6570987 -0.6369371 -0.77827245 -0.23109548 -1.2193394 -0.56442356
-0.3757828 -0.5193072 -0.07102985 -0.9588749 -0.44538745 -0.64137244 0.11011862 -1.1114119
-0.5067942 0.0735492 -0.7465585 -0.7148229 -0.45587465 -0.5473882 -0.6162418 -0.15357064
-0.8026719 -1.0039542 -0.7789472 -0.66174227 -0.18570553 -0.70489186 -0.45101187 -0.44571617
-0.3477952 -0.53938276 -0.4308759 -0.14562507 0.07062607 -0.6883806 -0.65397376 -0.27675915

w_agents.2.weight f4 [32, 64]
00000000: 1648 233d 1ab3 01be f733 d9bc cf1f 0bbd
00000010: 561b 04be 87f4 293d 4966 97bd 75b2 df3c
00000020: bbca 2f3c 8ab6 17be cc42 c53c c515 203e
00000030: 2dbd b1bc 6fbc ec3c bb82 403c 44dd 76bd
00000040: 2384 b2bd 9336 47bd 18ba 08be a701 90bd
00000050: 5555 fdbd 41fd dabd aeb0 6fbe a1a4 36be
00000060: 2f16 a5bd 1c34 873d 4eee 683b cc61 f2bd
00000070: da35 49be 5e5c 853c 4b1e 543d c047 e9bb
00000080: a59a 4a3d 81a1 d1bd 749d f3bc 723b c8bd
00000090: 5e8d 56be 25b3 08be c20c e9bd e656 27be
000000a0: 88b8 8dbd fbee 0bbe 2c22 85bc 1ac8 a43d
000000b0: ce1d 883c d9eb 85bd cd30 54be f329 8ebc
000000c0: 8df2 5abc 0edd 903b 04d2 09be 94ad 6fbe
000000d0: 6fc4 8cbc e21d 243c 81ca 5e3c 1e0d 29be
000000e0: 8a9f 8c3c 542f 9bbd dd46 50be 5623 943d
000000f0: 4f3a 99bc bfaf 733c 34eb 3ebd e5a6 1bbe
00000100: 6718 5c3d 2e66 65be 037b 02bf 8fc2 44be
00000110: 4f90 f0bf 5395 a5bc d8bf bd3e ec74 093d
00000120: 553b 793c 6057 3ebf 7e1d 43be 9e6e 7abf
00000130: 47d9 d7bf 66d4 ac3c 1ddf b2be 0747 80be
00000140: a65e 203f d215 243f 4d43 323f e4a7 1b3e
00000150: 0c9d 55bd f08c 62bf 391d bc3b c1e6 30bf
00000160: f6a2 473f 1222 dcbd 3348 0b3b b9bd 84bf
00000170: aea4 bd3e fcf4 c2bc a6c1 ddbf 9b68 9bbd
00000180: 68eb 5cbf 0f88 c2be 0407 d7bf de4e 0d3f
00000190: 4408 9a3e 1696 623e 1a08 ddbf caf9 bdbe
000001a0: 513f dbbd ccfb 1f3e e655 cbbf 0c2f 863e
000001b0: 241e 84bd 3fc6 39bd 8aa6 93be cc27 e2be
000001c0: 8db5 83bc 609a 203e c216 8fbf 4015 12be
000001d0: acf1 0f3a e245 323f 663e 623e 4eca 3ebd
000001e0: 46f5 e4bf 4bd5 efbc 3f32 0abf 440d 18bf
000001f0: 556b 453c 0be2 88bf 538b 3a3d 8749 843e
00000200: 8bd4 a5bd 7106 94be 7b04 abbc 17df ce3e
00000210: 6149 55be 90dc 73bc a2fc 69bc 7a4d 11bf
00000220: fa07 0fbd d0bc 2a3e 6ceb 06bd cfc1 83bd
00000230: 5015 853e d531 a3be 6bc2 92bd 4d1b 7f3e
00000240: da38 d2bd b363 10bf 07c2 39bd ee17 5d3e
00000250: e7b0 b3be fe98 94be e781 13be a9ae cfbd
00000260: 5314 883d e296 d6be c943 81bd 8588 c03c
00000270: 96f2 583d afc6 d4be fd79 89be d114 ad3d
00000280: 0c27 103d 5035 abbe ed99 43bc 2f05 323c
00000290: 0693 f8bc cb3b 57be 4898 26be 8737 0e3b
000002a0: 44d3 383e 53aa 1c3d 28a2 0abe 2e16 08bf
000002b0: 9539 abbe 2b2e 8fbe f2b1 ddbe 7232 1ebe
000002c0: 5724 ad3c a022 20bd 3f37 0ebe eac6 2ebd
000002d0: 147e ffbd f4c5 5b3d cc98 e7bd f879 5e3d
000002e0: 7825 24bd adb6 b23d 22fe f3bc 18a7 663e
000002f0: 6a37 403d 9e6a 463e c23b 58be cb34 26be
00000300: 8736 40bd 30f3 75bb 27ec 3abc bff5 713e
00000310: 61c9 5cbe 4ca5 46bd d46a 693e 74f0 f23c
00000320: 73a9 88bd 3563 13bf c22f 973e b37b 053e
00000330: ef16 163e 20bc 2abd d76a ccbf 3336 2c3e
00000340: 3157 b13e 2655 c23e ebed ddbe 0e88 f63c
00000350: 82f6 743d 2951 8abe bf77 2dbd 34ac 723e
00000360: bf0f 00bc bce2 023d 2b14 943e 8b1b a9be
00000370: ca3a 893e 6033 eebc 20bb 3fbf 6a55 053d
00000380: c1cb d13e 6e12 fbbb 4968 463c 81f3 39be
00000390: 39f1 8abe cf18 7f3d d7ff 7dbe 001b 60bf
000003a0: cc4e 7c3c b6dc 393e 61d0 1f3d 503d 243e
000003b0: aa48 043e 6d67 03be 0457 a73e 5a1e 143e
000003c0: 8690 b43d 4151 80be ea91 f3be 72b9 983e
000003d0: 1d3f be3d 1ad9 a73e e93b 303d 7dfb 87bd
000003e0: 1288 cabd 141e 453d 86ba a5bd 23e0 3c3c
000003f0: 6dcc 4a3c 30e6 b03e f13a 67bf 3385 8c3c
0.03986367 -0.12665978 -0.026514037 -0.033965882 -0.12901053 0.041492965 -0.07392556 0.027306775
0.010729487 -0.14815727 0.024079703 0.15633304 -0.021696651 0.028898446 0.011749919 -0.06026961
-0.08716609 -0.04863603 -0.13352239 -0.07031565 -0.123697914 -0.106928356 -0.23407242 -0.17836238
-0.08060872 0.06601736 0.0035542431 -0.118350595 -0.19649449 0.016279396 0.051786702 -0.007119149
0.049463887 -0.102358826 -0.029738165 -0.09776963 -0.20952365 -0.13349588 -0.113793865 -0.16341743
-0.06919962 -0.13665383 -0.016251646 0.08045979 0.016615774 -0.06539125 -0.20721741 -0.017353987
-0.013363493 0.004420883 -0.13459021 -0.23406059 -0.01718351 0.01001689 0.013598085 -0.1650891
0.017165918 -0.075773865 -0.20339532 0.07233302 -0.018704562 0.014873444 -0.046611026 -0.15200384
0.05373421 -0.2240226 -0.5096895 -0.19214843 -1.879404 -0.020212805 0.37060428 0.03355877
0.0152119 -0.74352074 -0.19054219 -0.9782504 -1.6863183 0.021097373 -0.34935847 -0.2505419
0.6264442 0.64095795 0.6963394 0.15200764 -0.052151725 -0.88496304 0.0057407883 -0.691021
0.77983034 -0.10748686 0.002125275 -1.0370399 0.37039703 -0.023798458 -1.7324722 -0.07588311
-0.862967 -0.3799443 -1.6799016 0.55198467 0.3008443 0.22127566 -1.7268097 -0.37104636
-0.10705436 0.15623397 -1.5885589 0.2620777 -0.06451061 -0.045355078 -0.28837997 -0.44170988
-0.016077781 0.1568389 -1.117882 -0.14265919 0.0005491029 0.6963788 0.22094116 -0.04657965
-1.7887352 -0.02927651 -0.5398292 -0.5939524 0.012049516 -1.0693983 0.045543026 0.25837347
-0.0809718 -0.28911164 -0.02087616 0.4040458 -0.20828773 -0.014884129 -0.014281424 -0.56758845
-0.034919716 0.16673589 -0.03293936 -0.064334504 0.25992823 -0.31873956 -0.071659885 0.24912758
-0.1026475 -0.5640213 -0.045351055 0.2159116 -0.35095903 -0.29022974 -0.14405023 -0.10140736
0.066445015 -0.4191199 -0.06311757 0.023502598 0.052965723 -0.41557834 -0.26850882 0.08451236
0.035193488 -0.33439112 -0.011938554 0.010865494 -0.030343544 -0.21018903 -0.16269028 0.0021700577
0.18049341 0.03824837 -0.1353842 -0.53158844 -0.3344237 -0.2796491 -0.43299824 -0.15448931
0.021135492 -0.03909552 -0.13888262 -0.042670168 -0.12475219 0.05365558 -0.113084406 0.054315537
-0.040074795 0.08726249 -0.029784266 0.22524679 0.046927847 0.19376609 -0.21116546 -0.16231076
-0.046927 -0.0037528984 -0.011408842 0.23628901 -0.21561195 -0.048497483 0.22794658 0.029655673
-0.06672945 -0.5757325 0.29528624 0.13035469 0.14657186 -0.041683316 -1.5970105 0.1681755
0.34636834 0.37955588 -0.4334558 0.030094173 0.0598054 -0.27015045 -0.042350527 0.23698503
-0.007816254 0.031954512 0.28921637 -0.33028826 0.26802665 -0.029077232 -0.74894905 0.03255216
0.40975764 -0.007662109 0.012109824 -0.18159296 -0.27137163 0.06227952 -0.24804626 -0.875412
0.015399646 0.18150601 0.039017085 0.16039014 0.12918344 -0.12832423 0.32683575 0.14464703
0.08816628 -0.25061992 -0.4757226 0.29828984 0.09289382 0.32782823 0.043025885 -0.066397645
-0.098892346 0.048124388 -0.08092217 0.011528048 0.0123778405 0.3455062 -0.9032431 0.017153358

w_agents.2.bias f4 [32]
00000000: be7a 61be 7500 343d 8cd7 fabe fd27 ea3e
00000010: 13d0 a9be cefd e9bd 3f0d 24bc 0ba9 033e
00000020: adbb a2bd caa8 44be 14cb 18be 8d64 35be
00000030: b1e4 883d 3ad6 45be 600d 2cbd a5d1 733e
00000040: 784e 963e bee3 f7bd 4d1e ddbd 9241 11be
00000050: 2598 fdbc 3090 7e3e 7511 55be 7d83 f33d
00000060: eab7 57be e8ab 84be d784 16be 3a0f b9bd
00000070: 7d0f 6bbd 9b2e efbc d3b0 bb3e 9d2d 8cbe
-0.22019479 0.04394575 -0.48992574 0.45733634 -0.3316656 -0.114253625 -0.010012924 0.12857454
-0.079459526 -0.19205013 -0.14921218 -0.17714138 0.066842444 -0.19320002 -0.042004943 0.23810442
0.29356742 -0.12103985 -0.10796795 -0.1418517 -0.030956337 0.2485969 -0.2080744 0.11890314
-0.21066251 -0.25912404 -0.14699112 -0.09036107 -0.057387818 -0.029197028 0.36658344 -0.2737855

Ws.0 f4 [32, 32]
00000000: 7217 66bf 3684 8b3e 8c8d 283e 6c82 333f
00000010: a40c 24bf 94d6 5d3f 3c58 67bf af3f 85bf
00000020: cb01 dcbf 65ea ca3f 0b4c 9b3f 772d 1bbf
00000030: e669 923f 8e6d 0b3f 9f28 193f 1cf4 423e
00000040: e4ae 2c3f c3be e73e a7a6 bfbe 23c0 763f
00000050: b8c6 78be 0425 4fbf 3b4d f6bf 64d0 893f
00000060: 928c 97bf 6b06 c9bf b7ce 4dbf 1270 243f
00000070: 5b5d 333f 2a7f d93f 6687 3b3e 7a8a 78be
00000080: 06fc e53f 8b6b aebe 92db e4be cf9f 86c0
00000090: e22d 7dbf d6c4 bbbe d096 88bf c439 553f
000000a0: d803 a73e a69d bfbe 1bb5 2c3f 1fc2 b13e
000000b0: 0cb4 c03f 451b 8ebe f9ab c93e 4acc a0bf
000000c0: 29e1 ebbf 782f abbe 8f94 91bf fd4a 64bf
000000d0: baff 923f e1b5 9ebd 858f 9b3f 6870 0f3f
000000e0: 196e 923f 9ca3 7fbf 6d31 213e 883e fa3e
000000f0: c661 2f3e 08d1 1dc0 2963 0abf b819 80bf
00000100: 58cb 183f d7cf d33e 96cb 3d3c 2366 2f3f
00000110: 77db a43f 5bb3 423e 1db9 bdbf 992c 2940
00000120: 373d 4cbe 04dd ee3f 0c02 40bf 188c 0abd
00000130: b05b d3bd 4e98 6e3f bdec 4abe 22f9 f3bf
00000140: 89ea e7be 89f5 d83e a5d3 223d 1a42 2040
00000150: 09a2 8cbf 4f11 0dbf 1d70 8ebf 616a 913f
00000160: b771 f43d b4bb b03e da10 7ebe cd48 8b3f
00000170: e565 a33d 2fbf 2ec0 5e9f 85bf ca7f 01bf
00000180: f2aa 9fbf 34ef 243f c73d 15be 13cc 0ebf
00000190: 0721 efbf 8a11 253f 49bb f43e f39f 153f
000001a0: 9bb2 ac3e 3cf2 9abf cbdf 843e 1e88 cb3e
000001b0: 0f2d 0b3e 06e0 b3bf 1a5f dd3e 93f2 64c0
000001c0: 5c7a 3bbf 30d5 d33f 0047 debf 8cd5 e33e
000001d0: 306a 0dc0 0ce9 8ebf cf9b c63f 73b7 76be
000001e0: e50a 073e 4fcf 753f b5de 0c3f 3055 f33e
000001f0: fa44 393f 83f3 e5bf 0c8b a43f 33b0 073f
00000200: 6e6b c43f e5cc 76c0 bde0 64bf 2790 333e
00000210: 43bc 14bf 9a93 af3f 0613 80bf c841 1dbf
00000220: e543 13c0 84d9 783f 14f4 0740 05f9 1a3f
00000230: af2c 27bf 4e99 77bf 78ac 8dbd 1b1b 9a3f
00000240: f67b 8b3f 52dc e73e da3c 5e3e dbf7 be3f
00000250: 4421 bc3e 35b9 4bbf 2419 55bf 63c5 74be
00000260: ad49 de3f 0f93 523d eb2e d7bd 0f15 06bf
00000270: 9b23 853e 3251 d53f 1a98 d43e 7e9e 6e3e
00000280: eb68 c5bf 5e3e 8abf 7309 33bf 0611 f5bf
00000290: 8b25 f3bc da4f 953f 1379 b73f b89b b8be
000002a0: 1229 dd3f 8630 2c3f 5865 043f e87a 32bf
000002b0: 4bf1 7e3f cd16 68bd 7505 503e e82e 173f
000002c0: a62b 44be d539 31be 6994 943e 7287 853f
000002d0: c33e c83f 45c6 853f e801 a0bf 2d5a 1fbf
000002e0: b589 633f 6774 053f 62b6 913e 6782 04bf
000002f0: 6cc4 4bbf b3c7 bbbf 4cab 263f 21e7 6bbf
00000300: ccd3 7c3f a2b5 173f 69db 653f a1ba 90c0
00000310: 46b3 22c0 29ac 5b3e ca1b aabf 412d 29bf
00000320: ef55 8a3f bb3b c0be 987c 9c3f ac10 d0be
00000330: 2d40 a8bd 17e0 86bf f9ee ca3f 265b 81c0
00000340: 240a a73f 46f9 11be e3e6 21bf 2aa0 08c0
00000350: 289c 9ebf fd68 00c0 3a78 3c3f 3780 4c3f
00000360: 3770 0140 7aca d5bf 55c8 9cbf 7e6c 08c0
00000370: e96a df3f 64b1 973f d5e5 babe 8cb9 86bf
00000380: 881e c73e 7e57 39be adb1 05c0 33b7 1fbf
00000390: 6153 5c3d a194 8dbf d25c 8e3e cdf9 803f
000003a0: 527f 7c3f 207e c93e 4f90 58be bb99 123f
000003b0: 397b b7bf 7be5 2f3f 45f7 ad3f 41e3 1cbe
000003c0: b6de 0ec0 7379 afbe 7276 91bf f4ac 6cc0
000003d0: c089 b3bf 7240 23be fbf4 293f 55dd d1be
000003e0: 219a 50bf 6acb 713f f154 8f3e a30c 66bf
000003f0: 9489 113f 02cd f2bf a2b6 24bf 3101 8fbf
-0.89879525 0.27249306 0.16460246 0.70120883 -0.6408179 0.86655545 -0.9036901 -1.041006
-1.7188047 1.5852782 1.2132581 -0.6061625 1.1438568 0.5446404 0.5982761 0.19038433
0.6745436 0.45262727 -0.37431833 0.9638693 -0.24294555 -0.80915856 -1.9242319 1.0766721
-1.1839774 -1.5705084 -0.80393547 0.64233506 0.70064324 1.6991932 0.18313369 -0.24271575
1.7967536 -0.34066424 -0.4469877 -4.207008 -0.98898137 -0.3667361 -1.0671024 0.8329127
0.3262012 -0.37424964 0.67463845 0.34718415 1.5054946 -0.2775518 0.39389017 -1.2562344
-1.8428088 -0.33434653 -1.1373461 -0.89176923 1.1484292 -0.077495344 1.2153174 0.56030893
1.1439849 -0.99859023 0.1574151 0.48875833 0.17127141 -2.4658833 -0.54057556 -1.0007849
0.5968528 0.41369507 0.011584183 0.68515223 1.2879475 0.19013731 -1.4822117 2.643347
-0.19945227 1.8661199 -0.75003123 -0.03382501 -0.103202224 0.9320115 -0.19816871 -1.9060404
-0.45296124 0.42374828 0.03975262 2.5040345 -1.0986949 -0.55104536 -1.1127964 1.1360589
0.11935752 0.34518206 -0.24811116 1.0881592 0.07978419 -2.730419 -1.043926 -0.50585616
-1.2474043 0.64427495 -0.14574347 -0.5578014 -1.8681954 0.6447989 0.47799137 0.5844719
0.33730015 -1.2105174 0.2595199 0.39752287 0.13591407 -1.4052742 0.4323662 -3.5773056
-0.7323358 1.6549435 -1.7365417 0.4449886 -2.2096062 -1.116487 1.5516299 -0.24093418
0.1318775 0.9601945 0.55027324 0.4752593 0.72370875 -1.7964939 1.2854934 0.53003234
1.5345285 -3.8562558 -0.89405423 0.17535459 -0.58099765 1.371692 -1.0005805 -0.614285
-2.301019 0.972069 2.1242723 0.60536224 -0.65302557 -0.967183 -0.069176614 1.2039522
1.0897205 0.4528528 0.217029 1.491939 0.3674413 -0.7957948 -0.83241487 -0.23903422
1.7366234 0.051409777 -0.10506996 -0.5237588 0.26003727 1.6665404 0.41522294 0.23302647
-1.5422643 -1.0800283 -0.69936293 -1.914582 -0.029680988 1.1664994 1.4333824 -0.36056304
1.7278159 0.6726154 0.5171714 -0.6971879 0.99586934 -0.05666237 0.20314582 0.5905595
-0.19157276 -0.17307217 0.29019478 1.043196 1.5644153 1.0451132 -1.2500582 -0.6224697
0.88882 0.5213074 0.2845946 -0.5176148 -0.7959659 -1.4670318 0.6510513 -0.9214955
0.98760676 0.59261525 0.8978792 -4.522782 -2.542192 0.21452393 -1.328973 -0.66084677
1.0807475 -0.3754557 1.2225523 -0.4063772 -0.082153656 -1.0537137 1.5854179 -4.0423765
1.304997 -0.14255247 -0.6324293 -2.1347756 -1.2391405 -2.006408 0.7362095 0.7988314
2.022474 -1.6702416 -1.2248636 -2.1316218 1.7454501 1.185101 -0.36503473 -1.0525374
0.3889048 -0.18099782 -2.0889695 -0.62388915 0.053790454 -1.1060983 0.2780519 1.0076233
0.98631775 0.39354038 -0.211488 0.57265824 -1.433448 0.68709534 1.3591086 -0.15321065
-2.2323432 -0.34272346 -1.1364272 -3.6980562 -1.4026413 -0.15942553 0.66389436 -0.40989175
-0.8148518 0.9445101 0.27994493 -0.8986303 0.5685055 -1.8968813 -0.64341176 -1.1172239

Ws.1 f4 [32, 32]
00000000: 8f45 8d3f c12c 31be 0297 1a3f c64a 3d3e
00000010: 979b f33f af3b 5ebb b03c 8ebf 8ecf 693e
00000020: 3940 acbf edeb 22c0 38da b2bd 1a31 44be
00000030: 5764 15c0 e43d e73e 24db 903f 2423 73be
00000040: e091 9b3e a6ae 56bf 8aa4 c2bd db55 91bf
00000050: 0930 c5bf 3601 a63f b534 763f 2f77 67bf
00000060: 960c 14c0 fc6b af3f b012 b0bf eea6 5cbe
00000070: f6f3 a13e bb7e ecbe b733 d8bf 2502 b93f
00000080: 57c5 8e3f 1b30 033e 90f6 91bf 6abc 2ac0
00000090: f503 20bf b938 fd3d c289 fabe 1126 acbe
000000a0: a2a1 9c3f 3707 5a3e b4f5 863e 83da b3bf
000000b0: 30ec 813f 9bf3 aebf c430 aebf cd98 babe
000000c0: 4461 80bf ea29 dbbe 3e09 5cbf 512c 32bf
000000d0: f04d 953f 5a6d 153e 30a2 a6bf f55f 5cbf
000000e0: 7113 67be 7b88 03bf f016 0dc0 c373 813e
000000f0: e3dc 063f 960f 013f bca4 5fbf 1489 433f
00000100: e93e 76bf 699b 7f3e 15fd cabf 5399 a43c
00000110: e3a7 e5be a7da 8e3f 0162 c13f edf8 053f
00000120: 7e58 b3be 3375 97bf a2e1 433e 3828 91be
00000130: 8340 c9be 180e 55bf 7da0 72bf b745 573d
00000140: 8d33 3d40 be33 6ebf 4f9f 15c0 9e52 3dc0
00000150: 1fc5 d4bf fea3 013f 6c47 aebf afca 15bf
00000160: 902e 4a3e cc44 5440 a282 12c0 b0a6 3bbf
00000170: 7876 8bbe d6f8 bebf edcc 8d3d 4461 f1be
00000180: c37d 173f 7c4d 0f3e 9a4c 4fbf 5e54 5bbf
00000190: 6d84 043f f324 27c0 dc62 0f40 8fca 6bc0
000001a0: e3fe 5dbf 012d 583f 91cd 7b3f 7f0e 8b3e
000001b0: 9cad 0abe 23bb 5a3f a4d3 b6bf c256 4fbf
000001c0: 80e2 153f 4e40 183e 57f8 6e3e ab1d 47c0
000001d0: c958 1bbf c96f 18bf 68d9 c53f acb3 c7be
000001e0: 322a 6cbf db19 d8be 608a 0d3f af25 77bf
000001f0: 903b a03f 4b0b 89be e3e3 cf3f 581f e5bf
00000200: c7d7 1540 4e7d 40be c820 cfbe a997 083f
00000210: 7cb2 98bf 2479 cc3f 7f7b 2dbf cf68 21c0
00000220: 631b 8bbe 13fb 803e a08d ff3f e28d 6c3e
00000230: fd6e 0e3f b16b fbbe 20ca 1340 e4f2 363d
00000240: bdeb aa3e 0904 c0bd 350f f3be ee4f 9dbf
00000250: 4a6e 80bf 3799 a1bf a3ee c13d a50a 31c0
00000260: 73e7 3d3f cd4d ccbf 3a60 1a3e 5284 c43f
00000270: cf6a f43e 8ff0 29c0 837b 07c0 3a91 9abe
00000280: 70b2 83bf a5c7 803f 3a78 323f 1b2b 60bf
00000290: b57f aabf 6edd 90bf 420e 87bf 7419 73bd
000002a0: 6173 33be 453a 89be bd41 ebbf 2c2a 99bf
000002b0: 1060 16bf 4eca a03f 59aa 6f3e c8dd acbe
000002c0: 632c 8ebf 2106 1dbf 1fe8 82bf d2e6 8ebf
000002d0: 1b41 8c3f 5e3e 92bf 035b 2e3e 054f febf
000002e0: f4c9 ec3c 8a2e 58bc cace 673e 9361 f73e
000002f0: a243 623f 0303 6cbf 8b18 06bf 0315 e3bf
00000300: a672 743f f5f7 58be c2e8 a8bf a05e 41bd
00000310: f05e 75bf 285f 3e3e 4f7a a8bd eff2 e1bc
00000320: 42fd 35bf 5788 6c3d 630b 233f 69d2 b73f
00000330: c498 b5be fa33 093e 4550 07bf b50f 98be
00000340: cee4 c2bd 02d0 e03f 8103 acbf 233a ae3f
00000350: 79ce 033e c9ff 57bf 11fe 0f3f 83d1 7f3e
00000360: f759 6b3f c2d7 aebf 3401 03be 0e4c 6cbf
00000370: 3c23 a63f 047c bd3e 0e96 bcbf 369c 9abf
00000380: 307c c6bf 5748 d93e 1868 bc3f 4345 603f
00000390: 0583 30bd 8f59 d63c d9d8 813f 4a30 d2bf
000003a0: 5bb2 3bbe edec 00c0 ee67 9d3e 6642 af3e
000003b0: 7862 38bf 75b4 2ebf 60a4 3ebe 1072 92bf
000003c0: 0fb4 afbd 6ae1 0bbd f4ea de3f f9ad 83bf
000003d0: 056d 943f ef17 b8bf 3e0c 4b3f 300c a8bf
000003e0: 914a 97bf 0661 b5be a0df c13e b4c3 89bc
000003f0: 5b20 c13f 9196 0bc0 cb48 ba3e 11a0 9cbe
1.1036853 -0.17302229 0.6038667 0.18485555 1.9031857 -0.0033910086 -1.111227 0.22833082
-1.3457099 -2.5456498 -0.08733028 -0.19159356 -2.3342493 0.45164406 1.1316876 -0.23743874
0.3038473 -0.8386024 -0.095040396 -1.1354326 -1.5405284 1.296912 0.96174175 -0.90416235
-2.3132682 1.3704829 -1.3755703 -0.21548054 0.3163144 -0.46190438 -1.6890782 1.445378
1.1153973 0.1281132 -1.140337 -2.66775 -0.6250604 0.123643346 -0.48933226 -0.33622792
1.2236826 0.21291815 0.26359332 -1.405106 1.0150204 -1.3668092 -1.3608632 -0.36444703
-1.0029683 -0.42805415 -0.859516 -0.6959887 1.166441 0.14592496 -1.3018246 -0.8608392
-0.2256601 -0.5138013 -2.204525 0.25283632 0.52680796 0.5041441 -0.8736074 0.7638104
-0.96189743 0.24961628 -1.5858485 0.020092642 -0.4485465 1.1160477 1.5108033 0.52332956
-0.35028452 -1.1832641 0.19129041 -0.28350997 -0.3930703 -0.8322463 -0.94776136 0.05255672
2.9562714 -0.930477 -2.3378484 -2.9581676 -1.6622657 0.5064086 -1.3615546 -0.58512396
0.19744325 3.316699 -2.2892232 -0.7330122 -0.27238822 -1.4919689 0.06923852 -0.4714452
0.5917627 0.13994402 -0.8097626 -0.8567561 0.51764566 -2.6116302 2.240409 -3.6842382
-0.8671705 0.8444367 0.98360544 0.27159497 -0.13542789 0.854418 -1.4283338 -0.80991757
0.58548737 0.1486828 0.23336922 -3.1111858 -0.6068235 -0.5954557 1.5456972 -0.39004266
-0.92251885 -0.42207226 0.5528927 -0.96541876 1.2518177 -0.26766428 1.624142 -1.790019
2.341295 -0.187978 -0.40454698 0.53356415 -1.1929469 1.5974469 -0.67766565 -2.522022
-0.27169332 0.25191554 1.9965096 0.23100999 0.55638105 -0.491056 2.3092117 0.044665232
0.3338298 -0.0937577 -0.4747254 -1.2290018 -1.0033658 -1.2624882 0.094693445 -2.7662747
0.7418129 -1.5961243 0.1507577 1.5352881 0.47737738 -2.6553075 -2.1169136 -0.30188924
-1.028883 1.0060927 0.697147 -0.87565774 -1.3320223 -1.1317575 -1.0551226 -0.059350446
-0.17524482 -0.2680227 -1.8379437 -1.1965995 -0.5874033 1.2561738 0.23404826 -0.33762956
-1.1107296 -0.61337477 -1.0227088 -1.1164191 1.0957369 -1.1425283 0.17026906 -1.9867865
0.028904893 -0.0131946895 0.22637478 0.4831663 0.8838445 -0.92192096 -0.523812 -1.7740787
0.9548744 -0.21188338 -1.3196032 -0.047209382 -0.9584799 0.18590987 -0.082264535 -0.02758166
-0.71089566 0.05774721 0.6368925 1.4361087 -0.35468113 0.13398734 -0.52856857 -0.29699484
-0.09516297 1.7563479 -1.3438569 1.3611492 0.12871732 -0.8437467 0.5624705 0.24982266
0.9193415 -1.3659594 -0.12793428 -0.9230355 1.2979503 0.3700868 -1.4733293 -1.2078922
-1.5506649 0.42438003 1.4719267 0.87605685 -0.0430937 0.026165752 1.0144302 -1.6420987
-0.18329756 -2.0144608 0.30743355 0.34230345 -0.7202525 -0.68244106 -0.18617392 -1.1441059
-0.08579265 -0.03415052 1.7415452 -1.0287467 1.159577 -1.4382304 0.79315555 -1.3128719
-1.1819631 -0.35425586 0.37865925 -0.016816951 1.5087999 -2.1810648 0.36383662 -0.3059087
