crowd_nav/data/rl_model_9.pth (torch_old, 93650 bytes, 18 tensors)

w_a f4 [32, 32]
00000000: 479a 2cc0 6f98 16c0 51cb 0b3f 983e 8abf
00000010: 6653 833f c32b d8bf 2c2e b2bf 9eb3 7dbf
00000020: d762 c83f 06c1 b4be e80b 1abf ad2a 9a3f
00000030: 1f47 a03f 1e09 973e e437 843f 2568 63be
00000040: e65a 923f 2f30 d73e 1297 c0be 499f 9e3e
00000050: d47e b5be 3f11 55c0 f507 273e 9149 c63f
00000060: 2334 763f 1417 f73f f774 4b3e 98bd 633f
00000070: 813d 9c3f 6256 6abc 3060 c0bf 693f 3a3f
00000080: 151b 9fbf 4bed 8f3e 38da e7bf 3116 253e
00000090: 3151 3cbf 2fa2 0440 434a 753e 3a2e 053d
000000a0: 32db 8cbe a151 113f 3845 a33e 7b15 a03e
000000b0: 7035 6bbf 2c0d 493f e520 57bc 2ab4 9d3f
000000c0: d4a0 f83f a993 1140 1a7f 85be ae58 02bf
000000d0: e466 e93e e9fc ebbf 8e59 a33f 2156 ab3f
000000e0: d8b4 3a3f c343 7e3e 51ae e63f 0698 053e
000000f0: 1880 163c c7c1 10bf 28b3 0b3e 14f6 143f
00000100: 7eda 913d 08b8 d9bf 8848 de3d 8449 26bf
00000110: 70fc 8640 09c1 95bf d13d 3f40 38e1 873e
00000120: 5c07 273f 6743 0240 d5b7 803f 50d7 0740
00000130: e427 9ec0 b38f 813e 5cea 1b40 fa6a e63f
00000140: 6257 0bc0 ed10 cfbe e4fa 1e3e 0322 35bd
00000150: 641c 8f3f 883d b63e 46e1 833f ecb6 abbe
00000160: 0321 b0be 3e4e e73f 48da 633f bb75 97bf
00000170: aa9d 75bf 9e31 9a3f 4803 973e 391e 2740
00000180: 08a8 c63f cdac 72bd 3f84 1bc0 e52f 34bf
00000190: 060e fabd d5d7 2e3f 924e adbf 9500 abbd
000001a0: 2f88 a13f ef3a 39c0 7f9d fc3c 45de 0940
000001b0: 49d9 2d3f c513 f5be ae99 19be 4a70 b5bf
000001c0: f29c bd3e a3e7 8ebf bdea 95be f6a0 dcbc
000001d0: eca5 293f b491 07bf 41b2 94bf 306a 9dbf
000001e0: 3049 263f 332c 0e3f 9e96 7dbf 0d29 bb3e
000001f0: 98da 223f 50fc 7a3d 1c08 983d 760e 26be
00000200: 4b04 683e 3b6a 173f eac1 87c0 92d0 f43e
00000210: 81c1 b4be 88a8 a03e 2250 2f3e 8c9e acbd
00000220: 04ba 2fbf deba 55bf b633 b93e 3602 20be
00000230: 3c08 b63d 03f2 a63e 55dd 11bf e411 863e
00000240: cdd7 ebbe 62ab 96be ed89 6ebf fca3 9b3e
00000250: af16 1bbf eed3 4e3f 9d29 0d3f ca85 afbe
00000260: bb6f a7be 19a2 febd 7c39 9e3f 8d76 253e
00000270: f2cb c33e b483 c53d eb43 853f e164 f5be
00000280: 8371 12bf 5e85 39bf 1b1b 0cc0 65e5 5d3f
00000290: cb76 91bf fd28 ff3e 37ac fdbd a70e 863d
000002a0: ef7d 7cbd 7013 0a3f 5fa2 393e 48db 2cbf
000002b0: ef6e c43f 1906 19bf 3fac 903e 2b48 98bf
000002c0: 0bdc 173f e6fc 273f daf5 33bf 6dc5 383f
000002d0: f589 ecbd 2c86 8c3f 6657 70c0 22b0 3c3f
000002e0: 8e13 86bf 6c45 acbf 0416 95bf 7ff7 b2bf
000002f0: 95da c8bf d947 9a3f 73ea 963b 0d5c 273f
00000300: db75 f33e e314 6fbf c763 bfbf 7068 86be
00000310: 237b cabe 024f febe 50d8 6bbe ad06 1b3c
00000320: a478 93bf dae1 853f 7267 bd3c 4e5e 1dbe
00000330: f839 84bf 5154 d43e ad80 9a3f 8ed6 ae3e
00000340: 8cc6 9e3f 8ea3 703e d9ac 233f cf88 87be
00000350: 8980 c7be 5149 8f3f d65f edbe d6c8 11bf
00000360: 0720 2cbf e098 efbe 650b 3e3e 1658 dbbe
00000370: c88c cabf 35d3 f6be 306e e2be 19e6 15bd
00000380: b9d9 323f c84b 223f c8f6 ce3d 63f7 983f
00000390: aefe f5bd ea52 873d b154 c4be 6a6d f2bd
000003a0: 3185 0a3e 56c4 b8be 71ef 763f 5b05 cf3f
000003b0: c2e4 953f 577b 393e 9c7b cfbe a93e 92bf
000003c0: d928 a5bf b225 e23f 572d 4bbe 1300 1c3d
000003d0: 8e2a 07bc 4065 983f d454 7d3f 9a49 84bf
000003e0: a635 8dbe 94a8 75be cd9e 213f 720c 713f
000003f0: a138 2d3f 371a dcbe d567 0b3f abdc 7bbc
-2.6969163 -2.3530538 0.5460711 -1.0800352 1.0259826 -1.6888355 -1.392034 -0.991022
1.5655164 -0.35303515 -0.6017442 1.2044274 1.2521704 0.29499143 1.0329556 -0.22207697
1.143399 0.4202895 -0.37615258 0.309809 -0.35448325 -3.3291776 0.16311629 1.5491201
0.96173304 1.9303918 0.19868837 0.8896117 1.220627 -0.014302822 -1.5029354 0.72753006
-1.243014 0.28110728 -1.811347 0.16121747 -0.7356139 2.072399 0.2395411 0.03251479
-0.27510983 0.5676518 0.31888747 0.31266388 -0.91878414 0.78535724 -0.013130401 1.2320607
1.9424081 2.2746375 -0.26073533 -0.50916564 0.45586312 -1.8436557 1.2761705 1.338566
0.72932196 0.24830537 1.8021947 0.13046274 0.009185813 -0.5654568 0.13642561 0.58187985
0.07121752 -1.7009287 0.10853678 -0.64955926 4.218315 -1.1699535 2.988148 0.26539016
0.65245605 2.035364 1.0056101 2.1225166 -4.9423695 0.25304946 2.4361792 1.8001397
-2.1772084 -0.404426 0.15525395 -0.04422189 1.1180539 0.3559382 1.0303123 -0.33537996
-0.34400186 1.8070753 0.89004946 -1.1832803 -0.959437 1.2046392 0.2949469 2.6112196
1.5520029 -0.059246827 -2.4299467 -0.7038558 -0.12209706 0.68298084 -1.3539603 -0.083497204
1.2619685 -2.894222 0.030836819 2.1541913 0.67909676 -0.47866645 -0.1500003 -1.4174893
0.37033802 -1.116444 -0.29280654 -0.02693222 0.662688 -0.529567 -1.1616899 -1.2298031
0.64955425 0.5553619 -0.9905795 0.36554757 0.636148 0.06127578 0.07423422 -0.16216454
0.22657888 0.5914647 -4.242421 0.47815377 -0.35303882 0.3137858 0.17120412 -0.08428678
-0.6864321 -0.8348826 0.36172265 -0.15625843 0.08888289 0.32606515 -0.5697835 0.26185524
-0.4606308 -0.2942763 -0.9317921 0.30398548 -0.6058149 0.8079213 0.5514162 -0.3428176
-0.3270243 -0.124332614 1.2361293 0.16158505 0.38241535 0.09644261 1.0411352 -0.47928527
-0.57204455 -0.7246913 -2.1891544 0.86678153 -1.1364378 0.4983596 -0.12386363 0.065457635
-0.061643537 0.5393591 0.18128346 -0.67522097 1.5346354 -0.5977493 0.28256413 -1.1897024
0.59320134 0.6562027 -0.70297015 0.7217625 -0.11549751 1.0978446 -3.7553344 0.7370626
-1.0474718 -1.3458686 -1.1647344 -1.398178 -1.5691706 1.2053176 0.0046055852 0.65374833
0.47550854 -0.93391246 -1.4952325 -0.26251554 -0.3954707 -0.49669653 -0.23031735 0.009462041
-1.1521192 1.045955 0.023120616 -0.15368006 -1.0330191 0.41470578 1.2070519 0.34148067
1.2404342 0.23499891 0.6393562 -0.26471564 -0.38965252 1.1194249 -0.4636218 -0.56947076
-0.6723637 -0.46796322 0.18559034 -0.42840642 -1.5824213 -0.48208013 -0.4422469 -0.03659639
0.6986347 0.63396883 0.101056635 1.1950496 -0.12011467 0.066076115 -0.38345864 -0.11837275
0.13527371 -0.36087292 0.9645911 1.6173509 1.1710436 0.18113457 -0.40523994 -1.1425372
-1.2903091 1.7667754 -0.19841515 0.03808601 -0.008249892 1.1905899 0.9895756 -1.0334961
-0.27579993 -0.23990089 0.63132936 0.94159615 0.67664534 -0.4298875 0.5445531 -0.015372436

w_group.0.weight f4 [64, 8]
00000000: 0ca2 cdbd a7a9 32bc a43a 913f 1adf 75bf
00000010: 6b67 aabe 722a ddbe 2671 25be 904b debe
00000020: f6bd 48be 7ade 10be 3543 28bf de41 85bf
00000030: 6a59 55be 6f03 18bf 51bb 79bf 2c61 13bf
00000040: ffc9 90be c833 72be 5826 983f 4b3f 64bd
00000050: e6a9 92be 9274 3fbf 60f0 293d dbb5 4cbf
00000060: 4f2e 5bbd 853b 243e 456e 2b3f f447 88bf
00000070: c8cb 8ebe 9b78 0c3f c55a 8fbf 9d92 0b3f
00000080: 85c1 963e f84e 773c f738 b33f 84c6 c4be
00000090: 9626 4d3e 1b43 543e f382 1f3f 79f4 d8bd
000000a0: 12b2 1dbd 6be0 55bc c85c 5fbd 0d56 dfbd
000000b0: b8fb a1bd 97ee 423d b67a b0be 643e dabe
000000c0: 07a8 81be d798 bbbc 8676 9b3f 3597 873f
000000d0: 6052 bf3d dd0c 21bf 68c4 36bf 3776 ecbe
000000e0: a6dc 383e 7b48 8bbd 376c ac3e 7fdd 84bf
000000f0: 9bc9 8b3e fcb7 2ebf f348 65be dd4d 31bf
00000100: 852b e5bd 290c 63bd 95cb 21bf 29fb 383f
00000110: 6079 633c 84cb 1ebf fa87 8abe 029a 9cbe
00000120: b0b7 7ebd 9522 2fbc be5f f7be 13ee 7a3c
00000130: 01b1 973e c5a4 37be 27b5 b0be e13a 24bf
00000140: 7e57 6bbf f15b a23e 2d5e e2be 5150 f43a
00000150: ef23 a73e fc39 16bf 11bc f93f 57a0 8dbe
00000160: 0cab 95be b21d 023e 8981 393e 43fe c23e
00000170: 6469 2dbe b2d3 edbe d82a 48bf d569 0cbf
00000180: 35b3 3f3e f99e 9fbd 4797 cebe 1295 4b3f
00000190: 2b5a 0fbe 0971 30bf a349 6e3e 3adc 56bf
000001a0: de81 8a3e b96c 8d3e 47ee 72be 1dcf 743d
000001b0: 4a6e 1dbe c5ed f2be 2a8a 9cbf 8461 3fbf
000001c0: 9d09 6fbe 5563 11be 4090 c2bf f8b6 4b3e
000001d0: 728e 673e 34e0 b9be 1596 cfbf 0e56 08bf
000001e0: fc75 18bf 9806 123f 370f 9d3f 6c91 c7be
000001f0: 4017 043d 7cf3 bfbe 2071 10c0 97a4 67bf
00000200: 0ffb cebd e87f 80bd cf00 adbe bb72 4ebf
00000210: f469 f93d 6b17 4ebf 8b71 2d3f 2d75 e4be
00000220: a4b2 81bf c53d 0c3f e2c5 e33f 7c76 f8bf
00000230: 0c33 92be 6065 a2be 218c 68bf 3be4 f9bd
00000240: 4ac4 d83e 7d68 563f 101b 403e 84e0 5b3e
00000250: 6d7f 67be a852 ee3d a8fe af3e 9879 9c3e
00000260: 290f afbe 9323 b43e f461 00c0 cdad 083f
00000270: 554b ae3e c3f7 2dbe fba2 163d 857a c7be
00000280: a31e 253e d1eb 20be 2164 423f d10a 7e3f
00000290: bc79 4cbe c11e a1bd 236c b5bf 774e 12bf
000002a0: 6e41 d7bd de55 77bd 81db 793f f0ff 81be
000002b0: 4ddd 9dbe 87c3 e4be 5cc0 35bf 8048 2bbf
000002c0: 681a ab3d 182b 74bd a4e0 333f 972d 47bf
000002d0: 3dde afbe 9c59 3ebf ec05 093f fa59 dfbe
000002e0: afb0 8f3e 0bd4 a43e ec39 f3be d7c4 a2bf
000002f0: d08f 8f3c d814 ba3d 3207 853f 6e94 1c3e
00000300: e8f7 733e 0383 193e 65b2 563e 26e6 42bd
00000310: d8b8 65bd ca4f cdbe 4a96 81be c22c 11bf
00000320: a537 753e f675 5bbe 3469 833e e314 f03f
00000330: e290 3f3e 4bcf aa3d 8144 fdbf d72a 963e
00000340: 7303 0440 a482 ebbd 2f65 b7be 9c81 05c0
00000350: 503a 363d 3b2c 3b3e 7b37 27bf 5d07 5a3e
00000360: 0c13 adbe c725 c23f 841c 1fbe b564 4dbd
00000370: cc75 40be 106b 77be 09f6 63bf efe7 88bd
00000380: 7d99 873e 8a09 65be bdfe bfbf 05fb 523f
00000390: 74b6 f33d 6e38 5dbf 96ef 3c3d ea57 48bf
000003a0: b1fa 4cbd c328 92bd 33ff 973f 186b 89be
000003b0: e80a 95be 79f5 33be 32ac 9cbf 73e2 d7be
000003c0: 0080 6d3e 55a7 663f 20be d5bf aaad a1bf
000003d0: 0d2e 9fbe e5fd 16bf 9d19 4d3f d2a4 febd
000003e0: cad3 cdbd 2548 c0bd f195 7cbf 60a1 8f3f
000003f0: 0211 21be ae8b e2be d752 69bf 80b0 e1be
-0.100406736 -0.010904706 1.1346021 -0.9604355 -0.33282027 -0.43196446 -0.16156444 -0.43417025
-0.19603714 -0.14147368 -0.6572755 -1.0410726 -0.2083489 -0.5938024 -0.9755145 -0.5757015
-0.2827911 -0.23652565 1.1886702 -0.055724423 -0.28645247 -0.7478725 0.041489005 -0.7996499
-0.05351096 0.1603833 0.6696513 -1.0646958 -0.27889848 0.5487153 -1.1199576 0.5452059
0.2944452 0.015094511 1.4001759 -0.38432705 0.2003425 0.20728724 0.6230919 -0.105935045
-0.0384999 -0.013053994 -0.054531842 -0.10905085 -0.0790934 0.04759082 -0.3446862 -0.42625725
-0.25323507 -0.022900028 1.2145545 1.059302 0.09341884 -0.6291025 -0.7139344 -0.4618394
0.1805292 -0.06800934 0.3367631 -1.0380095 0.2730225 -0.6824949 -0.22391109 -0.69259435
-0.11189941 -0.05543152 -0.63201267 0.7225824 0.0138839185 -0.6202929 -0.27056867 -0.3058625
-0.062186897 -0.010689397 -0.48315233 0.01531555 0.2962723 -0.17933948 -0.34513208 -0.6415234
-0.9193038 0.3171077 -0.44212475 0.0018639659 0.32644603 -0.5868223 1.9510518 -0.27661392
-0.2923206 0.1270664 0.1811582 0.3808461 -0.16934735 -0.46450573 -0.78190374 -0.54848987
0.18720706 -0.077939935 -0.4034979 0.7952434 -0.1399924 -0.6892248 0.23270278 -0.8392979
0.27052206 0.2762201 -0.23723708 0.05976783 -0.15374103 -0.4744703 -1.2229664 -0.7475817
-0.23343511 -0.14198048 -1.5200272 0.19894016 0.22612932 -0.36303866 -1.6217676 -0.5325631
-0.5955503 0.5704131 1.2270268 -0.38978136 0.032248735 -0.3749045 -2.2569046 -0.9048552
-0.101064794 -0.06274396 -0.3378968 -0.80643815 0.12178412 -0.80504483 0.6775138 -0.44620648
-1.0132642 0.5478175 1.7794764 -1.9411159 -0.2855457 -0.31717968 -0.9083882 -0.12201735
0.42337257 0.83753186 0.18760324 0.21472365 -0.22607203 0.11636859 0.34373975 0.3056152
-0.34191254 0.3518339 -2.0059786 0.533902 0.3404185 -0.16989045 0.036776524 -0.38960662
0.16124968 -0.15714957 0.75934035 0.99235255 -0.19968313 -0.07867194 -1.4173626 -0.5715098
-0.105105266 -0.060384624 0.9760056 -0.25390577 -0.30832902 -0.44680426 -0.7099664 -0.669075
0.08354646 -0.05961141 0.7026465 -0.7780394 -0.34349242 -0.74355483 0.5352466 -0.43623334
0.28064486 0.32193026 -0.47505128 -1.2716321 0.01752463 0.09086007 1.0392821 0.15290996
0.23825037 0.14991383 0.2096649 -0.047582768 -0.056084484 -0.40099937 -0.25309974 -0.5670892
0.23947008 -0.21431717 0.256662 1.8756374 0.18707612 0.08340319 -1.9786531 0.2932956
2.0627105 -0.11499527 -0.35819384 -2.0860357 0.044489205 0.18278591 -0.6531903 0.21291871
-0.33803594 1.5167779 -0.15538222 -0.05014487 -0.18794936 -0.24161935 -0.89047295 -0.06684863
0.2648429 -0.2236692 -1.4999615 0.82414275 0.119000345 -0.8641423 0.046126924 -0.78259146
-0.050043765 -0.07136681 1.1874756 -0.2683952 -0.29109883 -0.17574109 -1.224005 -0.42164955
0.2319336 0.9009908 -1.6698647 -1.2631123 -0.3108982 -0.5898116 0.8011721 -0.12433781
-0.10050161 -0.093887605 -0.9866629 1.1221123 -0.15729144 -0.44247192 -0.9114203 -0.4407997

w_group.0.bias f4 [64]
00000000: 2f1a 43bf bd6c 23bf 139e 4ebf 0acb c3bb
00000010: 2dc2 65be 5768 13bf a56f f4be 6fc2 4bbf
00000020: 4dcd 04bf 1c60 c4be d04e 17bf 225f 4abf
00000030: 560f 4dbf c0c4 02bf e61a 96be ae60 b6be
00000040: a18d fcbe 521d cb3d ebff b3bd 8945 54bd
00000050: e0b5 0fbf b074 2ebf 54ab 44bf 4a04 4ebe
00000060: 5e53 47bf 26c8 26bd be26 c4bd 0d46 e1bd
00000070: b17c 6dbe 11a8 82be c5ba 26be cc97 fabe
00000080: 7ddb a53d 372e f2bd 0a42 8bbe 644a 37be
00000090: f855 22bf e1b7 bcbb cd2c 52be c6f1 31bf
000000a0: d883 91be 5571 f8bd ae02 cebe 4381 3b3e
000000b0: 83e2 83be 515a c0be 5694 5bbe 3b96 41be
000000c0: 938f 38bf 8c49 d53d 5c21 5bbe 7069 30bf
000000d0: decd 64bf 03aa f9be 464f f4ba e048 ffbe
000000e0: 2962 53be 36a0 13bf 722b 8dbe bb15 843e
000000f0: 2c98 80bc 72ed 0fbf 7986 97be 2714 bcbe
-0.7621183 -0.63837796 -0.8070995 -0.005975132 -0.22437353 -0.57581085 -0.47741428 -0.7959356
-0.51875764 -0.38354576 -0.59104633 -0.7905141 -0.80101526 -0.51081467 -0.29317397 -0.35620636
-0.49326804 0.09917702 -0.08789047 -0.051824126 -0.56136894 -0.681468 -0.76823926 -0.20118824
-0.77861583 -0.04071822 -0.09577702 -0.10999689 -0.23192097 -0.2551885 -0.16282184 -0.48943937
0.08098505 -0.11825221 -0.2719882 -0.17899472 -0.6341243 -0.0057592248 -0.20524903 -0.6950954
-0.284209 -0.12130991 -0.4023642 0.18311028 -0.25758752 -0.37568906 -0.21443304 -0.18904965
-0.72094077 0.104144186 -0.21399444 -0.68910885 -0.8937663 -0.4876252 -0.0018639348 -0.49860287
-0.20642914 -0.5766634 -0.2757221 0.2579783 -0.015697561 -0.5622169 -0.29594782 -0.36734125

w_group.2.weight f4 [32, 64]
00000000: ab87 8a3d 5818 9ebe 91a2 babd 3dea ecbe
00000010: 13dd c1bd e49f 8d3d 0a64 b2bd 17e0 e13d
00000020: cfd1 14be 002d ffbc fbee 2b3e 31a9 ce3d
00000030: 074e 1ebe 6336 be3e c96d b63e 9902 76bb
00000040: 5c34 5c3d aaac 4cbe ecc4 cd3e ef52 03be
00000050: 5df4 e1be 0c0b 79be 2b16 39be 3033 60be
00000060: af27 ad3e bdf3 07bd d70e 243e 9d49 113f
00000070: afe0 073f 5d50 01bf 95da 213f b5f0 813c
00000080: ed9f 98be 6129 4fbf be7b d6bd 680a 17bf
00000090: 2b60 eb3d 1bc1 3fbd b2d6 3a3c 88b1 eb3c
000000a0: 539d 65be 95a8 4cbe e02d efba ed21 40bf
000000b0: 8b9e 4c3e ecc3 2dbe b1cc a33e 3015 5a3e
000000c0: 7bc3 3a3f 6e34 5bbe 897d 1fbd 16d9 bd3e
000000d0: 7a33 72bf 19a7 883f 7f17 93bd 3f16 1e3c
000000e0: f01a 603e 200e 9f3e 1a05 cdbd bf30 b2bd
000000f0: 976b 20be c523 20be de68 dcbd 0706 fcbd
00000100: 496a 153f cc5b eb3e 4dd9 873e 39d6 c1be
00000110: 550b 13bf 1ea9 013e fd2a f3bd 7315 aa3e
00000120: 3c84 083d e02c 48bc 4246 f43e f0fe 223e
00000130: 69d1 16be c7ac a93c dd45 433e f3be 203f
00000140: 0b91 c13e 23c6 3c3f 0077 e63d c01e 24bf
00000150: 7437 93be d2f2 823e e6a3 963e 9ddd 98bf
00000160: 84aa 06bc 9012 44bf 6dc2 343d 7c59 c93e
00000170: 0e2a 3dbe 379b a93e f873 aebe 3f31 43bc
00000180: e087 c2be 0741 35bf 8d3b 6cbe 6386 373e
00000190: c54b 55be 77ef 063f 87a4 003b 9ac1 f43c
000001a0: ba08 033e 03ac a43e fc90 a4bd 04ea 99bf
000001b0: d4a9 1dbf bd7b 8cbd 6b60 633c 6f4f 14bf
000001c0: c202 983e 4760 b0bd 8d03 aaba 6b1d 2b3e
000001d0: b4da debe 2e0c c93e 3a2f 293e 43f0 dbbe
000001e0: b176 2cbd bea6 23bf 15ab 6a3d 8c82 c03c
000001f0: 2bf7 b6bd 42b0 363d 8029 693d 0821 05be
00000200: 9e5f dfbd 67c7 d63d b10e 7bbd 86e1 473c
00000210: 6449 c23d 2fa6 983d dd7e ef3c 23c6 4c3d
00000220: da8a e73d afbf f1bd bda8 133d 41f7 31be
00000230: 4fee ecbd 8f59 e7bd bac6 1c3e 78a5 6dbe
00000240: c16b c8bc 7919 c2bd d6f1 8ebe f9d2 0cbf
00000250: 924c 22be 1b74 0a3e 0ed2 f33d 4e89 363e
00000260: df98 2abe 441e cebe bada 0c3f 3dc7 80be
00000270: 69a8 23bd 8500 c7bd 18e5 c73d 345f 0abe
00000280: d886 f73d 90fe 2dbf 202c 2a3e 2d14 ccbd
00000290: f5d4 bfbd 192a 6ebe 3e2a 23be 9354 32be
000002a0: c19f 2cbe 4b36 d2be 26c7 e23d ee96 2dbe
000002b0: b049 f8be b860 843d 3c24 65be ee67 3e3e
000002c0: 92d5 9dbc f9b9 2ebb 2a6b eebc 0662 70be
000002d0: bb64 453d 3cdc 933c 301f c0bf 3714 16bb
000002e0: 1c91 2d3d 7d43 6abd a9c4 043d 7965 43bf
000002f0: f1ba ab3d b08c 5cbd 70ed a1bd 28ed 20bd
00000300: ec95 6c3d c8fa 53be 7c9c 983d 557d bebe
00000310: 727b a3bd 6ef3 98bd 7005 e2bd 1558 22be
00000320: 975f d6bd b8d8 02be 28dc 9bbd be21 993b
00000330: 5895 923d 66b8 52be 5804 a0be 434c 62be
00000340: 0822 92bd aa2c f73c bbc8 2fbe 74e6 38be
00000350: 4347 28bc f6e9 543c de50 6bbd 9088 53be
00000360: c487 89bc 5bf9 24bd aa52 86be ef6a a8be
00000370: ef5d 9d3d 3175 59be 2074 85bd 2193 8e3d
00000380: b9d7 4fbd e127 6b3c 888d ac3a eec3 20bd
00000390: dbbc d13d 4767 e3bd 8a69 ae3c a47d c03d
000003a0: 642b 4ebe 2804 a3bd b4b5 4d3d 9d0b 6d3d
000003b0: 2a6b 07be ed14 bf3d f59b 9bbe 14f3 9b3d
000003c0: c74d 2d3e acba df3d e3e9 c53d d7c4 f33d
000003d0: 617b 153d b038 923e cb69 2cbe f066 aa3c
000003e0: 0dd2 693d ba16 633d 6601 d33a 79c7 44be
000003f0: 8350 6e3d e5ea 1ebe 20a2 a23d ed57 c7bd
0.06764158 -0.30877948 -0.09113038 -0.4627246 -0.09465995 0.06915262 -0.08710487 0.1102907
-0.1453316 -0.031149387 0.16790383 0.100908644 -0.15459453 0.3715087 0.35630634 -0.003753817
0.05376087 -0.19987741 0.40189302 -0.12824605 -0.44131747 -0.2432062 -0.18074863 -0.21894526
0.3381934 -0.03319143 0.16021286 0.5675295 0.53077215 -0.5051325 0.63224155 0.015861848
-0.29809514 -0.80922514 -0.10472821 -0.59000254 0.11492952 -0.04681502 0.011403726 0.028771177
-0.22423296 -0.19986184 -0.0018247925 -0.75051767 0.19982354 -0.1696927 0.31992105 0.21297145
0.7295453 -0.21406719 -0.03893808 0.37079686 -0.94609797 1.0675994 -0.07182216 0.009648859
0.21885276 0.31065464 -0.10010739 -0.08700704 -0.15666042 -0.15638645 -0.10762189 -0.12305837
0.58365303 0.45968473 0.26532975 -0.3785875 -0.57439166 0.1266217 -0.11873434 0.3321949
0.033329234 -0.01221773 0.47709852 0.15917563 -0.14728321 0.02071227 0.1906962 0.62791365
0.37805972 0.7373983 0.11253166 -0.6410942 -0.28753245 0.25575882 0.2942192 -1.1942631
-0.008219365 -0.76590824 0.04413073 0.39326084 -0.18473074 0.33126232 -0.34072852 -0.011913597
-0.3799429 -0.7080235 -0.23069592 0.17922358 -0.20829685 0.52709144 0.0019629316 0.029877473
0.12796298 0.32162485 -0.08035466 -1.2024541 -0.6158726 -0.06859539 0.013877968 -0.57933706
0.29689604 -0.086121134 -0.0012971029 0.16710441 -0.43526232 0.39267105 0.16521922 -0.42956743
-0.04210538 -0.63926303 0.057292063 0.02349975 -0.08933862 0.044601686 0.056924343 -0.13000882
-0.109069094 0.10487252 -0.061293308 0.012199765 0.094866544 0.07453572 0.029235298 0.049993645
0.11305781 -0.11804139 0.036049593 -0.17379476 -0.11568891 -0.11296379 0.15310183 -0.23207653
-0.024465444 -0.09477515 -0.2791888 -0.5500942 -0.15849522 0.13520853 0.11905299 0.17825815
-0.16659878 -0.40257466 0.5502125 -0.25152007 -0.03995553 -0.09716896 0.09760493 -0.1351288
0.12086266 -0.67966557 0.16618395 -0.09964786 -0.0936679 -0.23258246 -0.15934083 -0.17415075
-0.16857816 -0.41057047 0.11073141 -0.16952106 -0.4849372 0.0646376 -0.22377104 0.18594334
-0.019266877 -0.0026661141 -0.029103834 -0.23474893 0.048191767 0.018049352 -1.5009518 -0.0022900233
0.042374715 -0.057193268 0.032414112 -0.7632671 0.083852656 -0.053845108 -0.07906616 -0.03928867
0.057760164 -0.20701134 0.07451722 -0.37204996 -0.0798253 -0.074683055 -0.11036193 -0.15853913
-0.10467451 -0.12777984 -0.07610351 0.004673212 0.07157391 -0.20578155 -0.31253314 -0.22099404
-0.07135397 0.030172665 -0.17166416 -0.18056661 -0.010270896 0.012995234 -0.057450168 -0.20657563
-0.01678837 -0.040276866 -0.26234943 -0.32894084 0.07683932 -0.21236111 -0.0651629 0.06961656
-0.05074284 0.01435277 0.0013164738 -0.039249353 0.102410994 -0.11103683 0.02129056 0.09398964
-0.2013374 -0.07959777 0.050222114 0.057872403 -0.13224474 0.09330163 -0.30392423 0.07614723
0.16924201 0.10924277 0.09663751 0.119027786 0.036494616 0.28558874 -0.16837232 0.020801038
0.057085086 0.055441596 0.0016098439 -0.19216718 0.05818225 -0.15519293 0.07941079 -0.097335674

w_group.2.bias f4 [32]
00000000: 9e49 3ebf 9a91 61bf 55d1 6d3d 05ec b1be
00000010: 6325 a83e 50c2 1ebf 6b2a 8abe 03b7 65bf
00000020: 8750 813d 9958 ecbd ea7b 16be afec 3ebd
00000030: e441 56bd 7f30 f4bd 74ff 9e3d 833e 62be
00000040: 599f e7be bde5 c6be b13e b2bf fc64 e43e
00000050: 8c4c 19be 5de1 2bbc 4c80 183c 79fd 89bc
00000060: b9a8 c6bd 86ab a4be e8cb 04bf ba5a f9bd
00000070: 2bc7 1ebd d269 05bf 94fa 8cbe 5e55 fe3d
-0.7433108 -0.88112795 0.058060963 -0.3475038 0.32841024 -0.6201525 -0.26985487 -0.8973238
0.063141875 -0.11540336 -0.14695707 -0.046612438 -0.052308932 -0.119233124 0.077635676 -0.22094159
-0.4523876 -0.3884715 -1.3925382 0.44608295 -0.14970607 -0.0104907425 0.009307932 -0.016844498
-0.0970015 -0.32162112 -0.51873636 -0.12175508 -0.03876416 -0.52114594 -0.27534926 0.12418626

w_agents.0.weight f4 [64, 5]
00000000: f660 a23d 06d1 34bd ef9a c83d 06d6 b13d
00000010: cf45 a13d 7514 f63b 5166 b4bc 5dac c1be
00000020: 4d36 2dbe cf17 e4be dcb9 81bb 1fd4 c33d
00000030: 6f00 b43d 67c5 073e 3bdb 67be f094 54bd
00000040: 72ef 9a3d a19f 493e 621f ea3d 98aa 38bf
00000050: b23f 27be d5e5 7a3e 2e04 2d3f 69d6 a8bf
00000060: b173 7dbe 57ed 8abe ed00 cabe 1c03 0ebe
00000070: 6e95 413f 530d 3ebf dc3e c73b f721 8c3e
00000080: ff55 4dbe ca58 0d3f 3322 36bf f1e9 123d
00000090: 1487 a5bd b55f 86bd f850 243e 6ab5 34bf
000000a0: fe00 92be ded3 75bd 98f3 5dbd 74af 70bf
000000b0: 38ac 06bf 300d a2be 99c8 7dbd 3b52 dabe
000000c0: 0e40 12be 960b d4bf 9e3c 01bf 1b06 323f
000000d0: 88df a53f 7ed9 dcbe 9761 26bf d8b0 853d
000000e0: 4b6a f9bd 9810 943f 20bd 483f faee 6bbf
000000f0: d58e 87be 379b 31be 7f20 fbbe 0dca d53f
00000100: cfca 7ebf d000 02bc 92c1 cb3c 2469 8fbc
00000110: c3dd 6f3e 3296 023d f96e 423d cf72 1f3f
00000120: 0ba4 1b3e de57 a43f 313d a9bf 1878 81bd
00000130: 5e51 923e 946c e73e 8d46 233f 4f2f 5cbf
00000140: 431f 873e 7172 6dbe d756 75bf 2f66 633c
00000150: bf8b 9abf a81f 03be f249 533e c97c 5d3f
00000160: 2165 0440 0480 8bbf b7a3 9abe 4223 443c
00000170: 7d49 2d3f f13b 943f fb13 fdbf 319f 36bc
00000180: d62b a13d 1b1f abbc 1a0c 9d3e 65c7 2cbf
00000190: 6f39 2e3c b9a8 62bc e51b 11be c890 d73e
000001a0: 6170 69bf c8b9 9abe 2d07 313f c691 153f
000001b0: 3c8e 4240 8d51 07bf 6e04 73bb 1a7d 0f3e
000001c0: 6472 aebd e090 2b3f fe57 27be aded 813e
000001d0: 5cb7 2b3f 0ad9 0c3f 57b8 c73f c970 f3bf
000001e0: d5a3 d9be e8a2 243f b556 9ebe d3f8 1a40
000001f0: 33fb 96bf 8eb3 b73d 796a 1b3e 5ce7 a8bc
00000200: 3df1 893e c54a 02bf 7527 453d c5ac 713e
00000210: eebc 8bbd df48 a93e 0f96 0dbf 21e7 08be
00000220: cbeb 943e 8cb4 143f 11f9 653f a833 95bf
00000230: 5a3c 07bf 5e77 863f 7ac4 503e 8e7f 983f
00000240: f301 98bf 126e 073f 22d9 633e 46db 82bd
00000250: 2bc0 953f 716f 98bf 14d4 17bf 15c7 573f
00000260: b053 62bf bc43 0640 a283 7ebf 1827 a43d
00000270: ff2e 973d 500b 4b3e 31c9 073c 3652 14bf
00000280: bec1 fb3d ffb8 c53e 420d 8cbf 2265 d33f
00000290: f4a6 27bf 1330 863e 8231 d23f fd4c 4c3f
000002a0: 377b 2c40 1b89 d9be 005e 2e3e 1e57 c03f
000002b0: 536a 82be f225 4d40 1a76 4d3e 16f7 773d
000002c0: f5dc f9be 67f9 73be d9dd 0b3f 08c2 8bbf
000002d0: 3de9 56bf 345d 0740 ecb2 293f b2b8 3ebf
000002e0: a9a7 9bbe a1cd 243e 8822 a93f 864f eabe
000002f0: dedd da3f b68a 4bbf abc9 13bd 6dcf d83e
00000300: 02a4 393e 9fda 7ebf 0933 bebe d9e9 6a3d
00000310: 2497 923e fa5a 293f f0ea b6bb 720d b3bf
00000320: a667 7cbd e7d1 243e 49f5 263e 34ee 083f
00000330: 67da 0abf abc4 333d 7d48 2440 9450 5c3c
00000340: 1a70 51bf 2a08 42be 4b09 6c3e e475 8a3f
00000350: 3e47 09bf 4474 bcbf 21cd e9be 1065 f73e
00000360: 073f febe 305a bc3e 59fc 36be 9e56 61bf
00000370: 8d22 e83e 9459 283f 4ac3 33bf 6a58 0340
00000380: eacb f1be 619b ecbd 2534 db3f e687 a7be
00000390: 4fef 753f 988e 07bf 1c47 acbe d6e1 c53f
000003a0: 4531 88bf 057a dd3f a630 babf c117 a2be
000003b0: 8c50 fb3e c1ce 57bf 2609 d23e 6e97 88bf
000003c0: 0b50 433f 3b47 c23f 7d0b 7e3e b373 9d3f
000003d0: 88a1 c6bf b8be c13e e824 15bf 466f c5bf
000003e0: b3c0 ae3e 9032 8abf 5628 c4bc 8c89 f23d
000003f0: b1d4 943e 7517 d0bf bce3 05be 4d1b 82bc
0.0792865 -0.044144653 0.09795176 0.086834 0.07874643 0.007509763 -0.022021445 -0.37826815
-0.16915245 -0.44549415 -0.0039589237 0.09561943 0.08789145 0.13258897 -0.22642224 -0.05189985
0.07565202 0.196898 0.11431767 -0.72135305 -0.16332892 0.24501736 0.675845 -1.3190433
-0.24751164 -0.271342 -0.3945383 -0.13868374 0.75618637 -0.7423908 0.0060804915 0.27369663
-0.20052336 0.55213606 -0.71145934 0.035867635 -0.08082405 -0.065612234 0.16046512 -0.70589316
-0.28516382 -0.060016505 -0.054187387 -0.9401772 -0.52606535 -0.31650686 -0.061958883 -0.42640862
-0.14282247 -1.6566036 -0.5048312 0.69540566 1.2958841 -0.43134683 -0.6499266 0.06527871
-0.12178477 1.1567564 0.7841358 -0.92161524 -0.2647616 -0.17344366 -0.4904823 1.6702286
-0.9952821 -0.007934764 0.024872575 -0.01750619 0.23424439 0.03188152 0.047469113 0.6228456
0.15199296 1.2839315 -1.3221799 -0.06321734 0.28577703 0.45200026 0.63779527 -0.8600969
0.26391038 -0.23188187 -0.9583563 0.013879343 -1.2073897 -0.12805045 0.20633677 0.8651853
2.0686724 -1.0898442 -0.3020303 0.011971297 0.6769026 1.1580793 -1.9771723 -0.011146353
0.07869689 -0.020888856 0.30673295 -0.6749175 0.01063381 -0.013834172 -0.14170797 0.42102647
-0.911871 -0.30219865 0.69151574 0.5842556 3.0399313 -0.5285881 -0.0037081498 0.14012566
-0.08517912 0.67017937 -0.1634216 0.25376645 0.6707666 0.55018675 1.5603131 -1.9018794
-0.42507806 0.64311075 -0.30925527 2.421437 -1.179541 0.08969794 0.15177335 -0.020618133
0.26941863 -0.5089534 0.048133332 0.23601063 -0.06823145 0.3306341 -0.55307096 -0.13369419
0.29086146 0.5808799 0.8983317 -1.1656389 -0.52826464 1.0505178 0.2038745 1.1913927
-1.1875595 0.5290233 0.22250798 -0.06389479 1.169927 -1.1909009 -0.5930798 0.8428815
-0.88408947 2.0978842 -0.99419606 0.08015269 0.07382011 0.19828534 0.008287714 -0.57937944
0.12292813 0.38617703 -1.0941546 1.6515238 -0.65489125 0.26208553 1.6421359 0.79804975
2.6950204 -0.42487416 0.17028046 1.5026586 -0.25471744 3.205441 0.20064583 0.060538374
-0.4880139 -0.23825608 0.5463539 -1.0918589 -0.83949643 2.1150637 0.6628864 -0.7450057
-0.30401352 0.16094066 1.3213663 -0.45763797 1.7098958 -0.7950853 -0.036080997 0.42345753
0.1812897 -0.9955234 -0.37148312 0.05735192 0.28630936 0.66154444 -0.005582206 -1.3988478
-0.061622284 0.16095696 0.16304506 0.5348847 -0.54239506 0.04388873 2.5669243 0.013446946
-0.8181168 -0.18948427 0.2305042 1.0817227 -0.5362433 -1.4722981 -0.45664313 0.48319292
-0.4965746 0.36787558 -0.178697 -0.8802279 0.4533886 0.65761685 -0.7021986 2.0522714
-0.47225887 -0.11553074 1.7125288 -0.3272087 0.9606828 -0.52951956 -0.33648002 1.5459545
-1.0640036 1.7302862 -1.4546096 -0.31658748 0.4908489 -0.84299856 0.41022605 -1.0671213
0.7629401 1.5177988 0.2480907 1.2300934 -1.5518045 0.3784082 -0.5825944 -1.5424583
0.34131393 -1.079668 -0.023945015 0.11842641 0.2906852 -1.6257159 -0.13075155 -0.015882159

w_agents.0.bias f4 [64]
00000000: a36e 40bf 3b63 c0be 53f1 b1be 7e50 8fbe
00000010: bde8 4dbf 946a 78bf 9cec 43bf 3526 b7be
00000020: 3114 7fbe 9777 b6bf a854 2dbf 5f68 9dbf
00000030: c0db a4bf 7baa a6be cd54 83bf f495 6dbf
00000040: 0131 b7bf 423b 83bf a698 dfbf e2b9 26be
00000050: 4a0a b6be c584 dfbe 8c2e 1fbf 094c adbf
00000060: 4a19 a8bf 833c 01bf 9f37 28bf 9ccb 7fbf
00000070: 9fdc 99bf 4df7 66bf 7423 a7bf 107e 10bf
00000080: eb35 dfbe 4207 1cbf 741c bdbd f994 a0bf
00000090: 8097 e7be e9c7 88bf a5ed e03d bf42 8ebf
000000a0: 44bd 01bf 140d 0f3e c58c 67bf 1992 a1bf
000000b0: f362 4abf 9ddd 8fbf c606 74bf 1ae7 dbbe
000000c0: 0336 6dbf daf0 9fbf bed5 6bbf 4863 69bf
000000d0: 9729 3ebe 9543 c2be 069f 54bf e934 e4be
000000e0: a289 f8be 1422 f5be 8b9f fcbe 1ed3 e9bc
000000f0: 67a4 903d 0f0c 39bf 5b29 95bf f0f1 dcbe
-0.7516882 -0.37575707 -0.34754428 -0.27991098 -0.80433255 -0.97037625 -0.7653291 -0.35771337
-0.24910046 -1.4255246 -0.677073 -1.2297477 -1.2879562 -0.3255194 -1.0260254 -0.92806935
-1.431183 -1.0252459 -1.746846 -0.16281846 -0.35554725 -0.43655983 -0.621804 -1.3538829
-1.3132718 -0.5048296 -0.6570987 -0.9992006 -1.2020453 -0.902211 -1.3057694 -0.56442356
-0.43595824 -0.60948575 -0.09233943 -1.2545463 -0.45232773 -1.0686008 0.10982827 -1.1114119
-0.5067942 0.13969833 -0.9044917 -1.262271 -0.79057235 -1.1239506 -0.95322835 -0.42949754
-0.9266054 -1.2495377 -0.9212302 -0.91167116 -0.18570553 -0.37942186 -0.8305515 -0.44571617
-0.48542506 -0.47877562 -0.49340472 -0.028543051 0.07062607 -0.72284025 -1.1653246 -0.43153334

w_agents.2.weight f4 [32, 64]
00000000: 1648 233d 1ab3 01be f733 d9bc cf1f 0bbd
00000010: 561b 04be 87f4 293d 4966 97bd 75b2 df3c
00000020: bbca 2f3c 8ab6 17be cc42 c53c c515 203e
00000030: 2dbd b1bc 6fbc ec3c bb82 403c 44dd 76bd
00000040: 2384 b2bd 9336 47bd 18ba 08be a701 90bd
00000050: 5555 fdbd 41fd dabd aeb0 6fbe a1a4 36be
00000060: 2f16 a5bd 1c34 873d 4eee 683b cc61 f2bd
00000070: da35 49be 5e5c 853c 4b1e 543d c047 e9bb
00000080: a59a 4a3d 81a1 d1bd 749d f3bc 723b c8bd
00000090: 5e8d 56be 25b3 08be c20c e9bd e656 27be
000000a0: 88b8 8dbd fbee 0bbe 2c22 85bc 1ac8 a43d
000000b0: ce1d 883c d9eb 85bd cd30 54be f329 8ebc
000000c0: 8df2 5abc 0edd 903b 04d2 09be 94ad 6fbe
000000d0: 6fc4 8cbc e21d 243c 81ca 5e3c 1e0d 29be
000000e0: 8a9f 8c3c 542f 9bbd dd46 50be 5623 943d
000000f0: 4f3a 99bc bfaf 733c 34eb 3ebd e5a6 1bbe
00000100: 6718 5c3d 2e66 65be 037b 02bf 8fc2 44be
00000110: 92cb ffbf f12a fc3d d8bf bd3e ec74 093d
00000120: 15b8 a13e a4e0 38bf 8924 393e 7537 66bf
00000130: 07c1 cebf 66d4 ac3c 19f0 b5be 0747 80be
00000140: 8114 0440 8154 343f 6116 093f e4a7 1b3e
00000150: 0c9d 55bd c5ff 97be 5405 91bd ca2a 2abf
00000160: 1034 d73f 1222 dcbd 3348 0b3b c845 b3bf
00000170: a64f 5e3e 26c7 e5be 072b acbf 9b68 9bbd
00000180: 92c6 23bf d85c 5abe d24b 08c0 b14e e23e
00000190: 8da6 933e 8767 e53e bb9f 0ac0 caf9 bdbe
000001a0: 513f dbbd bed3 21bf cf36 1cc0 b108 0abe
000001b0: 6540 0cbc 8214 cb3e f04e 77be ff98 55bf
000001c0: 1a82 81be dd02 423f 06a7 0fbf 0e78 08bf
000001d0: acf1 0f3a 9498 f5be c367 bf3e 4eca 3ebd
000001e0: 8c36 16bf 9a8c ab3d 9d2d cc3b 937d 94bf
000001f0: 556b 453c 772c 2ebf 2906 a03e 7110 733d
00000200: 8bd4 a5bd 7106 94be 7b04 abbc 17df ce3e
00000210: 6149 55be 90dc 73bc a2fc 69bc 7a4d 11bf
00000220: 1b4a 8ebd d0bc 2a3e 6ceb 06bd cfc1 83bd
00000230: 5015 853e d531 a3be 6bc2 92bd 4d1b 7f3e
00000240: 35bc 08be b363 10bf 07c2 39bd ee17 5d3e
00000250: e7b0 b3be fe98 94be e781 13be a9ae cfbd
00000260: 5314 883d e296 d6be c943 81bd 8588 c03c
00000270: 96f2 583d afc6 d4be fd79 89be d114 ad3d
00000280: 0c27 103d 5035 abbe 299d a9bc 2f05 323c
00000290: d0fc 09bd cb3b 57be a929 5ebe 8737 0e3b
000002a0: 44d3 383e e089 f0bc 2f37 46be 2e16 08bf
000002b0: baed adbe 8c03 89be f2b1 ddbe 9c8d 24be
000002c0: 43a8 833c a022 20bd 3f37 0ebe eac6 2ebd
000002d0: 147e ffbd f4c5 5b3d 356e 02be f879 5e3d
000002e0: 7825 24bd 58e8 b93c 8041 9fbd f443 1e3e
000002f0: 6a37 403d 9e6a 463e c23b 58be cb34 26be
00000300: 8736 40bd 30f3 75bb 27ec 3abc bff5 713e
00000310: 72a9 bfbe f37d f3bd d46a 693e 74f0 f23c
00000320: afe7 ebbd e530 01bf e567 143f 0040 e63e
00000330: a358 b93e 20bc 2abd 6c3d 8cbf 3336 2c3e
00000340: 9e9a aa3e 31e5 e6be da02 7b3e 0e88 f63c
00000350: 82f6 743d 6443 db3e 655f 933c aae1 ca3e
00000360: 2b1d fabf bce2 023d 2b14 943e 5519 2a3d
00000370: aafb ff3e 8998 eb3c a6c3 f5be 6a55 053d
00000380: bdda ac3c d994 0dbf 4759 d5be 39e5 a1be
00000390: 7cd5 c5be cfa8 55be 63be 3cbe 001b 60bf
000003a0: cc4e 7c3c a38a 59bd bcd0 f03e 35c8 13bc
000003b0: bccf f23d edc0 4fbf ab84 1c3f 1851 e53e
000003c0: a189 bb3e 928c 48bf bbd8 03bf ef91 c83f
000003d0: 1d3f be3d 7131 3c3d c92c a53d 7dfb 87bd
000003e0: 156d ef3d afe5 513d e426 e73c 5309 62bd
000003f0: 6dcc 4a3c 5c73 d03e feee e83e 7a57 72be
0.03986367 -0.12665978 -0.026514037 -0.033965882 -0.12901053 0.041492965 -0.07392556 0.027306775
0.010729487 -0.14815727 0.024079703 0.15633304 -0.021696651 0.028898446 0.011749919 -0.06026961
-0.08716609 -0.04863603 -0.13352239 -0.07031565 -0.123697914 -0.106928356 -0.23407242 -0.17836238
-0.08060872 0.06601736 0.0035542431 -0.118350595 -0.19649449 0.016279396 0.051786702 -0.007119149
0.049463887 -0.102358826 -0.029738165 -0.09776963 -0.20952365 -0.13349588 -0.113793865 -0.16341743
-0.06919962 -0.13665383 -0.016251646 0.08045979 0.016615774 -0.06539125 -0.20721741 -0.017353987
-0.013363493 0.004420883 -0.13459021 -0.23406059 -0.01718351 0.01001689 0.013598085 -0.1650891
0.017165918 -0.075773865 -0.20339532 0.07233302 -0.018704562 0.014873444 -0.046611026 -0.15200384
0.05373421 -0.2240226 -0.5096895 -0.19214843 -1.9984 0.12312878 0.37060428 0.03355877
0.31585756 -0.72217774 0.18080343 -0.8992837 -1.6152657 0.021097373 -0.35534742 -0.2505419
2.0637515 0.7044144 0.5354977 0.15200764 -0.052151725 -0.29687324 -0.070810944 -0.6647154
1.6812763 -0.10748686 0.002125275 -1.400567 0.21710071 -0.448785 -1.3450631 -0.07588311
-0.6397487 -0.2132448 -2.1296277 0.44200662 0.28838006 0.44805548 -2.1659992 -0.37104636
-0.10705436 -0.6321372 -2.4408453 -0.13479878 -0.008560275 0.39664084 -0.24151206 -0.8343658
-0.25294572 0.7578562 -0.5611423 -0.5330819 0.0005491029 -0.4796797 0.3738385 -0.04657965
-0.5867698 0.08376427 0.0062310235 -1.1600822 0.012049516 -0.680366 0.312547 0.05934185
-0.0809718 -0.28911164 -0.02087616 0.4040458 -0.20828773 -0.014884129 -0.014281424 -0.56758845
-0.06947728 0.16673589 -0.03293936 -0.064334504 0.25992823 -0.31873956 -0.071659885 0.24912758
-0.13353045 -0.5640213 -0.045351055 0.2159116 -0.35095903 -0.29022974 -0.14405023 -0.10140736
0.066445015 -0.4191199 -0.06311757 0.023502598 0.052965723 -0.41557834 -0.26850882 0.08451236
0.035193488 -0.33439112 -0.020704823 0.010865494 -0.033688366 -0.21018903 -0.2169558 0.0021700577
0.18049341 -0.029362619 -0.19356988 -0.53158844 -0.33970433 -0.2676052 -0.43299824 -0.16069645
0.016071444 -0.03909552 -0.13888262 -0.042670168 -0.12475219 0.05365558 -0.12737353 0.054315537
-0.040074795 0.022693798 -0.07776165 0.1545561 0.046927847 0.19376609 -0.21116546 -0.16231076
-0.046927 -0.0037528984 -0.011408842 0.23628901 -0.37433964 -0.11889257 0.22794658 0.029655673
-0.115187995 -0.5046523 0.5797103 0.44970703 0.36200437 -0.041683316 -1.0956244 0.1681755
0.3332109 -0.45096734 0.24512807 0.030094173 0.0598054 0.42824852 0.017989824 0.39625293
-1.9540151 0.031954512 0.28921637 0.041528065 0.49996692 0.028759258 -0.4800083 0.03255216
0.021100396 -0.5530525 -0.41669676 -0.31620196 -0.38639438 -0.20865177 -0.18432002 -0.875412
0.015399646 -0.05311073 0.47034252 -0.009019901 0.118560284 -0.81153756 0.61139935 0.44788432
0.3662844 -0.78339493 -0.5150258 1.5669535 0.09289382 0.04594559 0.08065183 -0.066397645
0.116907276 0.051244434 0.028216787 -0.055184674 0.0123778405 0.40713012 0.45494837 -0.23666182

w_agents.2.bias f4 [32]
00000000: be7a 61be efe2 48bd 8a2e 0cbf f4ee 043f
00000010: 1e10 3fbf 32a2 17be 3abc 95bd cee5 cdbd
00000020: adbb a2bd 9622 61be 7379 2fbe 8d64 35be
00000030: 77ff 173d 26e5 b7bd 600d 2cbd fa38 113d
00000040: 36c5 503e bd5f 1cbe 6c08 2dbe 9241 11be
00000050: 6abf 853a 6a1e a93e 1506 74be d296 fdbc
00000060: b2b7 c5bd c6a6 a8be 366d 52bf 46ad 3cbe
00000070: bf8c 823d 48e7 273d 881f 833e cb0e 55be
-0.22019479 -0.049044546 -0.5475851 0.51927114 -0.7463397 -0.14807966 -0.07311292 -0.100535974
-0.079459526 -0.2198585 -0.17136173 -0.17714138 0.037108865 -0.089792535 -0.042004943 0.035454728
0.2038773 -0.15270896 -0.16897744 -0.1418517 0.001020414 0.33031017 -0.23830445 -0.030955706
-0.09654178 -0.32939738 -0.8219789 -0.18425474 0.063745014 0.04099205 0.25609994 -0.20806424

Ws.0 f4 [32, 32]
00000000: 7217 66bf 3684 8b3e 8c8d 283e 6c82 333f
00000010: a40c 24bf 94d6 5d3f 3c58 67bf af3f 85bf
00000020: cb01 dcbf 65ea ca3f 0b4c 9b3f 772d 1bbf
00000030: e669 923f 8e6d 0b3f 9f28 193f 1cf4 423e
00000040: e4ae 2c3f c3be e73e a7a6 bfbe 23c0 763f
00000050: b8c6 78be 0425 4fbf 3b4d f6bf 64d0 893f
00000060: 928c 97bf 6b06 c9bf b7ce 4dbf 1270 243f
00000070: 5b5d 333f 2a7f d93f 6687 3b3e 7a8a 78be
00000080: fdd7 cb3e a167 89be 57a0 063f 1918 a0c0
00000090: 74c0 acbf 4bc9 69bf 08e0 503f 1382 513f
000000a0: c424 a2bf 7f5a cf3e 780c c33e 1495 babe
000000b0: a6f6 cfbf 323e 85bf 17cf 243f 4052 90bf
000000c0: 281d fb3e d2a3 67bf 4353 a6bf b229 8bbf
000000d0: fcdc 66be deba 783f a90b 223d 65dc 573e
000000e0: 76d3 2d3f f53d 8c3e 91fd 5b3f 935e cebe
000000f0: 52e0 263e 42fa 6dbf 66a5 3abf a9b6 233e
00000100: ec1f 0c3f 7abc a03d 3070 0d3e 6647 0f3f
00000110: 4521 af3f 8e29 413e e3f3 0fc0 5963 8040
00000120: ed9b 4cbf 6e5f b63f 760a bbbf d49d af3e
00000130: d8ef d5be 9593 013f 86c8 88be 7f57 06c0
00000140: c7b6 35bf a294 24bf afb8 973d 2fc7 1140
00000150: 2b0d 7cbf ff9a 29bf 6c24 8dbf 7fc3 c03f
00000160: ddb4 26be 0959 20be a45d 8e3e 9637 803f
00000170: 12a0 ef3e a05b 00c0 2b93 cfbf 931b ebbe
00000180: da51 8bbf 3940 a63f e416 7f3f 4290 b6bf
00000190: 0fac 07c0 0850 033f 2a3f 3c3f 604f 983f
000001a0: 2756 d1bd c7fe 2fbf 5dcc fdbe de12 fcbd
000001b0: 4c03 f93e 03b2 3ac0 1c49 9e3e fe35 07c0
000001c0: e4ab 0abf 9eb1 e53f 202e 74bf 91be ae3f
000001d0: eb3f 06c0 2a38 91bf 89ac 7dbe b19d b53c
000001e0: dc55 373f 5e42 763f 2a82 c43e 2e0a 613f
000001f0: 7bb5 a13f 7a35 82bf 483f 4d3e e36a 833f
00000200: cdfb 8b3f 5f3e 3dc0 e6c8 07c0 1de9 1c3f
00000210: 3822 05bf 685d ce3f edca a0bf 3429 39bf
00000220: c291 38c0 3f4d 7a3f b707 da3f dbe5 793e
00000230: 5d5f aabf c0ff 6ebe aaf7 31bf 2518 473f
00000240: 348b 9a3f b165 c73e 9f60 523f f8f3 c83f
00000250: 819e ac3e 77e2 c5bf c740 0fc0 d025 963e
00000260: 25fd 923f 3ae6 d23e 12f6 49be 54e8 d1bf
00000270: 2111 6abd ace2 8d3f 9287 833e 8923 b9be
00000280: 5a05 80c0 28a6 12bf fa9f 3cbf b7b7 59c0
00000290: 6fb1 8e3f fd4b 4e3f 21d2 a43e 3b05 07bf
000002a0: 5173 543e 4572 853e 9134 77bf 2c89 26bf
000002b0: a6f6 eb3f d6bd a43e e514 2bbf adf9 7ebf
000002c0: 2d92 34c0 e396 8ebe b471 99be 8e12 9e3f
000002d0: e165 0abf fce2 873e 725a 3dc0 93c3 35bf
000002e0: 6541 483d d413 97be ccff 093f b6c5 43c0
000002f0: 8172 ffbd e407 06c0 a668 153f de24 963e
00000300: 587f 433f b5e4 a73f bcff cc3d 6d76 5cc0
00000310: 51ce a9c0 9374 aebf bf7f 89bf 4338 a23f
00000320: d6b9 a33f 904d cebf e600 8e3f 912b 6c3c
00000330: ca1a c43f 180c 6fbf 7632 b33f 7836 64c0
00000340: 184c 8fbf e2a1 4dbf 70b3 493f 0108 0ec0
00000350: b5ba f6bf 21f0 edbf 70c1 403f 29b1 e33f
00000360: c18e 5b40 b16d a9bf 79e9 d93e 9f5d 53bf
00000370: e319 6f3f b415 093f d257 ba3d ceb7 50bf
00000380: 36a2 873f 6ad0 c33e 769a ecbe b86a 27bf
00000390: af15 c13e fe93 9ebf 3059 eabd 0b58 523f
000003a0: 52f1 043f e363 393e bf56 debd ab1f 1f3f
000003b0: 416e e4bf 83f7 083f 7dfa ad3f 3c96 6bbf
000003c0: e4c9 ffbf de24 2abe 6848 f2be 2ae5 c7c0
000003d0: 60d3 0cc0 1f0a 3bbf 302c 893f db78 67be
000003e0: facc 82bf ee3e 8b3f 1345 3b3f 571b 183f
000003f0: 20e4 c33f 21bb 81c0 9f2d e7bf e169 02bf
-0.89879525 0.27249306 0.16460246 0.70120883 -0.6408179 0.86655545 -0.9036901 -1.041006
-1.7188047 1.5852782 1.2132581 -0.6061625 1.1438568 0.5446404 0.5982761 0.19038433
0.6745436 0.45262727 -0.37431833 0.9638693 -0.24294555 -0.80915856 -1.9242319 1.0766721
-1.1839774 -1.5705084 -0.80393547 0.64233506 0.70064324 1.6991932 0.18313369 -0.24271575
0.39813223 -0.26836875 0.5258841 -5.0029416 -1.3496232 -0.91322774 0.81591845 0.818391
-1.266747 0.4049873 0.3809545 -0.36441863 -1.6247146 -1.0409606 0.64378494 -1.1275101
0.49045682 -0.90484345 -1.299416 -1.0872099 -0.22545236 0.97160137 0.0395619 0.21080168
0.6790079 0.2739102 0.85933787 -0.4030653 0.16296509 -0.9295999 -0.7290863 0.15987648
0.5473621 0.07848449 0.13812327 0.5596832 1.3682028 0.18863508 -2.2492607 4.0121274
-0.79925424 1.4247873 -1.4612567 0.343001 -0.4178455 0.5061582 -0.26715487 -2.0990903
-0.7098202 -0.64289296 0.074082725 2.2777822 -0.9845759 -0.6625213 -1.102674 1.5059661
-0.16279931 -0.15658964 0.27805817 1.0016963 0.4680181 -2.0055923 -1.6216787 -0.45919475
-1.0884354 1.2988349 0.99644303 -1.4262774 -2.1198766 0.51293993 0.7353388 1.1899223
-0.102215104 -0.68748134 -0.4956998 -0.12308286 0.48635328 -2.917115 0.30915153 -2.1126704
-0.54168534 1.794483 -0.9538288 1.3651906 -2.0976512 -1.1345265 -0.24772848 0.02216992
0.71615386 0.9619502 0.38380557 0.8790616 1.2633508 -1.017257 0.20043671 1.0266994
1.0936219 -2.9569318 -2.1216369 0.612932 -0.5200534 1.6122255 -1.2561928 -0.72328496
-2.8838964 0.9777412 1.7033604 0.24404089 -1.3310353 -0.23339748 -0.6951853 0.77771217
1.2073731 0.38944772 0.8217868 1.5699453 0.3371468 -1.5459737 -2.2383287 0.29325724
1.1483504 0.41191274 -0.19722775 -1.6399026 -0.05714524 1.10848 0.2568937 -0.36159924
-4.0006533 -0.57284784 -0.73681605 -3.401838 1.1147898 0.805847 0.32191566 -0.52742356
0.20747115 0.26063743 -0.96564585 -0.6505306 1.8434646 0.32176083 -0.6682876 -0.99599725
-2.8214219 -0.27849492 -0.2996956 1.2349412 -0.54061705 0.26540363 -2.9586453 -0.7100155
0.04889049 -0.29507315 0.5390594 -3.0589423 -0.12473012 -2.0942316 0.58362806 0.29325002
0.76366186 1.3116671 0.10009715 -3.4447281 -5.306435 -1.3629326 -1.074211 1.267342
1.2791088 -1.611742 1.1094024 0.014414684 1.5320675 -0.9337783 1.3999774 -3.5658245
-1.1195097 -0.8032514 0.78789425 -2.2192385 -1.9275728 -1.8588907 0.7529516 1.778844
3.430588 -1.32366 0.42560938 -0.8256473 0.93398875 0.5354874 0.09098782 -0.81530464
1.0596378 0.38244945 -0.46211594 -0.65397215 0.37711856 -1.2388914 -0.114427924 0.8216559
0.51930726 0.1810451 -0.10856389 0.62157696 -1.7846147 0.5350267 1.3592068 -0.92026114
-1.9983487 -0.16615626 -0.47320867 -6.246724 -2.2004013 -0.7306232 1.071661 -0.22604696
-1.0218804 1.087858 0.73152274 0.5941672 1.5303993 -4.054093 -1.8060797 -0.5094281

Ws.1 f4 [32, 32]
00000000: aba0 b43f b012 90bf 5e34 a8be 1ace b43f
00000010: 4f4a e43f 4461 92bf a910 d5be 2f2d f63f
00000020: 64fe 6cbf 3db8 5ec0 c78e 37bf c5a6 02bf
00000030: 5256 26c0 e1ab bc3e 9954 eebe c223 133d
00000040: 653f d23e 15c1 14bf 694e c7bf d37e 0440
00000050: 4d27 43c0 3598 773f 7188 273f edbe fbbf
00000060: 40c9 08c0 2f9e be3f 0618 4bbf 9885 b4be
00000070: f4a7 09c0 f48d 21be cc4d e5bf 5573 1e40
00000080: ca9d 973f f27c d9be b46f 1dc0 0392 29c0
00000090: be4f a2bf e691 b43f bf47 f9be cc8b f03e
000000a0: cb65 4c3f 91f1 af3e 3820 b43f f6a9 74be
000000b0: ba9b 513e 24d1 0fc0 b8a1 fdbf d2f5 1ebd
000000c0: 3ebf 13bf 1ef5 cbbf 3cb4 5cbf 89db ccbf
000000d0: c511 8e3f 4372 e73e d8a1 87bd 61c2 0dbf
000000e0: d1c2 cdbf 4701 a3bf 52cb 03c0 9528 563f
000000f0: 2e83 36bf 0390 383e 3852 61bf bd39 ab3e
00000100: 25d0 24c0 fc7c cf3f ecbb cdbf 9682 973e
00000110: 3513 65be 1044 c43f a124 d93d c67b 3cbe
00000120: 7561 d7bf cd0d a7bf 79d7 c3bc cb80 1cbf
00000130: d844 4cbf 21f1 adbe 3eb0 aebf e647 be3f
00000140: 3094 a13f 4d15 61bf bff9 12c0 0f12 edbf
00000150: b27b 5cbf 7dae 8fbf 2229 04be c3c2 4a3e
00000160: 1f21 2c40 82ce 5040 b16c c0bf 168b c63f
00000170: 8129 aabf c019 df3f 19f0 2e3d 0d39 243e
00000180: ea6b dbbf 1601 2dbe 9972 fcbd eca5 c73f
00000190: 48ac f63e ab0d e9bf 4523 7e3f 2855 02c0
000001a0: ae0a eebe a203 03c0 3144 4c3f e376 19bf
000001b0: 086e aebd 628b 883f 2b27 50bf 58f4 453f
000001c0: 8ceb 1d3f e67f 773f 0067 753e 9d93 94bf
000001d0: 7431 4cc0 e6a9 d9bf ef2c 543f 0c73 4ebe
000001e0: 1ae5 4dc0 7914 8cbf cd06 a43e 9c36 16c0
000001f0: f82a 173f 2039 72be 4eda cb3f c679 91bf
00000200: 36dc 2840 4dbe 0ebf e66b 0cbe 240d 443f
00000210: 77db 0fbe 9b72 1e3e 09c3 2ebf 3e84 c0bf
00000220: 6927 abbf 565c 5cc0 109f 3140 05a9 1bbf
00000230: 6c21 40bb 7e74 75bc c159 f13f fdce d33e
00000240: 2fa4 8b3f e4a3 acbe e775 c5be 2a0d 4ec0
00000250: fe5f 96be 73b1 abbf 0600 56bf 8154 83c0
00000260: 7f80 583f 1bc4 09bf a382 923f 1408 853f
00000270: 5a4d 0240 f404 4cc0 0bf0 05c0 df43 99bf
00000280: d3b6 913d 82dd 2b3f aba5 993f 1a61 f7be
00000290: ee14 82bf fa90 f9be 4d6c d9bf 27ad 413f
000002a0: 76e4 d23e 583e b6be 6785 e0bf bd63 c3bf
000002b0: 8f4e 47bd af37 a3bd 918c 433f d523 bebe
000002c0: 7d68 30bf ebe1 a0be dfc4 6fbf 241c e2bf
000002d0: 7124 a03f 9ae7 81bf dc87 dabe e219 23c0
000002e0: aaa8 3bbd 35c4 a1be 7323 de3e 519e 7fbe
000002f0: 2fef 0a40 0249 27be 0392 14bf 9810 2fc0
00000300: 7e13 8d3f e8fc ffbe 75fd 87bf 30fa 893d
00000310: 6569 63be 84f7 283e e6c7 d1be c804 be3e
00000320: 032b 7fbf 5da8 60bf 0f64 d03e 316c 9d3f
00000330: aec7 70bf e91e 373d 3229 94bf bbb2 87be
00000340: ae94 3e3d 347d b23f 506e 7dbf ec55 b03f
00000350: 8434 c0be c869 04c0 cafc 373f d9d2 4cbe
00000360: 5468 903f 8d8e 61bf 197e 0ebe 3e73 3bc0
00000370: 123c 7a3f f412 183f 4a09 dbbf 49c5 8ebf
00000380: 4d52 9cbf ded1 1d3f 0aa3 c73f 36a3 f33e
00000390: 1088 c6be 52da 7abf ec6c 9a3f 0b3e 0fc0
000003a0: 3266 1c3e 82fd 3fc0 da5b 65bf 8922 8f3d
000003b0: 2878 a83e 7ee6 b3bf 9db7 e2bf 849d 69bf
000003c0: 7043 32be b698 a93d 7d14 f03f 268d 36bf
000003d0: cfcc 06bf 93ba 09c0 267b 893f f907 e2bf
000003e0: 3202 d4bf 81d1 6fbf d3be 4c3f 6581 b33e
000003f0: 0f4c b83f 4794 e6bf 8dac 9f3d 579a cf3e
1.4111532 -1.1255703 -0.32852453 1.4125397 1.7835177 -1.1435933 -0.41614273 1.9232539
-0.9257567 -3.479995 -0.71702236 -0.5103572 -2.5990186 0.36849883 -0.46548918 0.035922773
0.4106399 -0.5810712 -1.5570804 2.0702407 -3.0492737 0.96716624 0.6544257 -1.9667641
-2.1372833 1.4892024 -0.7933353 -0.35258174 -2.150876 -0.15776807 -1.7914367 2.4757893
1.1845028 -0.42478138 -2.4599428 -2.6495368 -1.2680585 1.4107025 -0.4868755 0.46981657
0.79842824 0.34363988 1.4072332 -0.2389296 0.20469561 -2.24714 -1.9814978 -0.03880865
-0.5771369 -1.5934179 -0.86212516 -1.6004497 1.1099173 0.45204362 -0.06622666 -0.55374724
-1.6075078 -1.2734765 -2.0592847 0.83655673 -0.71293914 0.18023686 -0.8801608 0.33442488
-2.5752041 1.6210017 -1.6072974 0.29591817 -0.22370608 1.5333271 0.106026895 -0.18406591
-1.6826617 -1.3051087 -0.023906456 -0.6113402 -0.7979255 -0.3397303 -1.3647535 1.4865692
1.2623348 -0.8792313 -2.2964933 -1.8521136 -0.86126244 -1.1225125 -0.12906316 0.19800858
2.6895216 3.2626042 -1.503317 1.5511196 -1.3293916 1.7429733 0.042709444 0.16037388
-1.7142308 -0.16894946 -0.12326545 1.559751 0.48178315 -1.8207296 0.9927257 -2.0364475
-0.46492523 -2.0470967 0.7979155 -0.5994703 -0.085170805 1.0667536 -0.81309766 0.77325964
0.6168754 0.9667953 0.23965073 -1.1607548 -3.1905184 -1.7004974 0.82881063 -0.20161074
-3.2171082 -1.0943748 0.3203644 -2.347083 0.5904994 -0.23654604 1.5925996 -1.1365287
2.6384406 -0.55759126 -0.13713035 0.7658255 -0.14048563 0.15473406 -0.6826635 -1.5040357
-1.3371402 -3.4431357 2.7753334 -0.6080478 -0.0029316796 -0.014981387 1.8855516 0.41368857
1.090948 -0.3371879 -0.38566515 -3.2195535 -0.2937011 -1.3413528 -0.83593786 -4.1040654
0.8457107 -0.5381486 1.1446117 1.039309 2.0359712 -3.1878023 -2.092776 -1.1973838
0.07114949 0.6713487 1.2003683 -0.4831627 -1.0162637 -0.4874342 -1.6986176 0.75654835
0.41189927 -0.3559444 -1.7540711 -1.5264813 -0.048658904 -0.07969605 0.7638636 -0.37136713
-0.68909436 -0.31422362 -0.93659776 -1.7664838 1.2511121 -1.0148804 -0.42681777 -2.5484548
-0.045815147 -0.31595007 0.4338642 -0.24962737 2.1708486 -0.16336444 -0.58035296 -2.7353878
1.1021574 -0.4999764 -1.0624224 0.067371726 -0.22208174 0.1650067 -0.40972823 0.37113023
-0.99675006 -0.877569 0.4070134 1.2298642 -0.9405469 0.044707213 -1.1575072 -0.26503548
0.04652851 1.3944459 -0.9899645 1.3776221 -0.37540066 -2.0689564 0.718701 -0.20002307
1.1281838 -0.8810814 -0.1391529 -2.9289088 0.9774791 0.5940392 -1.711221 -1.1153957
-1.2212616 0.61648357 1.559663 0.47585458 -0.38775682 -0.9798938 1.206449 -2.2381618
0.1527336 -2.999848 -0.8959328 0.06989009 0.32904172 -1.4054716 -1.7712284 -0.91255975
-0.17408538 0.082810804 1.8756253 -0.71309125 -0.52656263 -2.1520126 1.0740707 -1.7658683
-1.656317 -0.9367905 0.79978675 0.35059658 1.4398211 -1.8014001 0.07796583 0.4054744
