crowd_nav/data/rl_model_5.pth (torch_old, 93650 bytes, 18 tensors)

w_a f4 [32, 32]
0	0xc0010c53	-2.0163772
1	0xc002be8a	-2.0428796
2	0x3e542744	0.20718104
3	0x3f2a75f0	0.6658621
4	0x3ff871fa	1.9409783
5	0xc02128fa	-2.518126
6	0xbe82e393	-0.2556425
7	0x3f89b02c	1.0756888
8	0xbf31ebbe	-0.6950034
9	0xbf279f44	-0.65477395
10	0xbf694b7f	-0.9113082
11	0xbe4b3960	-0.19846106
12	0xbf854357	-1.0411175
13	0x3f75a0a4	0.95948243
14	0x3ff38e19	1.902774
15	0xbfba1e77	-1.4540547
16	0x40136972	2.3033109
17	0x3f9cfd69	1.2264835
18	0xbe33bab7	-0.17551695
19	0x3ef6365b	0.48088345
20	0xbdb47c12	-0.08812727
21	0xc02ad22b	-2.6690776
22	0x3ef73b96	0.48287648
23	0x3fa00abe	1.2503278
24	0x401c85c2	2.445664
25	0x3fd81275	1.6880633
26	0xbe5e0a5e	-0.21683642
27	0x3f8bd464	1.0924191
28	0x40235e4d	2.5526307
29	0x3f66df3c	0.9018438
30	0xbefbab5e	-0.4915418
31	0xbf7fcd35	-0.99922496
32	0xbfc82cd9	-1.5638686
33	0x3e6f347f	0.2335987
34	0xbf9eac27	-1.2396287
35	0x3fdcfe33	1.7265075
36	0x3e62489b	0.2209801
37	0x3e95bd4b	0.29245982
38	0xbf98492e	-1.1897333
39	0xbf75ead3	-0.9606144
40	0x3e3f61e8	0.18689692
41	0xbdb085ab	-0.08619245
42	0x3e37eef0	0.17962241
43	0xbeae4b81	-0.3404198
44	0xbd75b677	-0.059988465
45	0x3edaa3dc	0.4270314
46	0x3e6ba1d9	0.23010959
47	0x400e7fb4	2.2265444
48	0x4034e936	2.826734
49	0x3ff9b1b8	1.950736
50	0xbea4858e	-0.32133144
51	0xbe18547b	-0.14875977
52	0xbe029cb2	-0.12755087
53	0xbedc9c6c	-0.4308809
54	0x3fbabd1f	1.4588965
55	0x3fbb7b7c	1.464706
56	0x3e5087ca	0.203643
57	0xbf87a71f	-1.0597876
58	0x3fe1873b	1.7619394
59	0x3f4f0848	0.8087201
60	0xbefce2ea	-0.49391872
61	0x3e5a31f0	0.21308112
62	0x3e5bf41c	0.21479839
63	0x3f1c5ab3	0.61075896
64	0xbcf826a3	-0.03029186
65	0x3da9a752	0.08283867
66	0x3f8c6ceb	1.0970739
67	0xbfa9dff1	-1.3271466
68	0x40418d79	3.0242598
69	0xc05fa63a	-3.4945207
70	0x40246f8b	2.569308
71	0xbfabb8e5	-1.34158
72	0xbd688011	-0.05676276
73	0x3f59859b	0.8496949
74	0x3f57ecf4	0.84345937
75	0x3f5c42e7	0.86039585
76	0xc00ebc8f	-2.2302587
77	0xbf49819d	-0.787134
78	0x3fc6a670	1.5519543
79	0x3f7f78fa	0.9979397
80	0xbea86f6d	-0.3289751
81	0xbff76b47	-1.9329613
82	0xbee3b6a0	-0.4447527
83	0x3ee877f9	0.45404032
84	0x3ff876c0	1.941124
85	0x3f8846f4	1.0646653
86	0x3f812b9c	1.0091434
87	0x3f023b82	0.5087205
88	0x3e279c8e	0.16368315
89	0x3fca1ce4	1.5790067
90	0x3f5808ec	0.84388614
91	0xbec1538f	-0.37759063
92	0xc008a1ab	-2.1348674
93	0x3edb1448	0.4278891
94	0xbf64547a	-0.891914
95	0x3fef9822	1.8718302
96	0x3ed1154f	0.4083657
97	0x3eaf70fd	0.3426589
98	0xc051530e	-3.2706943
99	0xbf753549	-0.9578443
100	0x3e3bd4ba	0.18342867
101	0x3f7ccca3	0.9874975
102	0xbefe913d	-0.49720183
103	0x3ea13d89	0.3149226
104	0x3f51c076	0.819343
105	0xc00c640e	-2.1936069
106	0x3e37d568	0.17952502
107	0x404359ec	3.0523634
108	0x3f0515cc	0.51986384
109	0xbf00fc27	-0.50384754
110	0xbf297e2d	-0.66208154
111	0xbfa03729	-1.2516834
112	0x3f2166a0	0.6304722
113	0x3f8148bc	1.0100322
114	0xbf14bf90	-0.581048
115	0xbef006a0	-0.46880054
116	0x3f932951	1.1496984
117	0xbf8c2084	-1.0947423
118	0xbf28ddb7	-0.6596331
119	0xbf8f658d	-1.1202866
120	0x3f20635f	0.6265163
121	0x3f33316d	0.6999729
122	0xbd96d625	-0.073650636
123	0x3e9efba6	0.31051368
124	0x3ec2f7ce	0.38079685
125	0x3f1ce4db	0.61286706
126	0x3f0db397	0.5535216
127	0xbe67ead6	-0.22648177
128	0x3f46cdbc	0.77657676
129	0xbe1151b4	-0.14191324
130	0xc052fa5a	-3.2965302
131	0x3eb19bdb	0.3468922
132	0xbf3c9135	-0.7365907
133	0x3f5500da	0.83204424
134	0xbe9d5c7e	-0.30734628
135	0xbf064c92	-0.5246059
136	0xbea3c3fa	-0.31985456
137	0xbec50304	-0.38478863
138	0x3f8607fa	1.0471184
139	0xbe8d1709	-0.27556637
140	0xbf1771f9	-0.59158283
141	0x3eb63e40	0.35594368
142	0xbf10aac7	-0.56510586
143	0x3f3a9245	0.7287944
144	0xbf2dbc69	-0.67865616
145	0xbd66d65e	-0.05635678
146	0xbf754dd1	-0.95821863
147	0x3e9f7aa8	0.31148267
148	0xbe80b64b	-0.25139078
149	0xbe825271	-0.25453523
150	0x3f29a83b	0.66272324
151	0xbeff5b33	-0.49874267
152	0xbf6903a7	-0.910212
153	0x3f3f5648	0.7474103
154	0x3f03ef7b	0.51537293
155	0x3f17d102	0.59303296
156	0xbdfca137	-0.12335437
157	0x3e843e5d	0.2582883
158	0x3fcd7da4	1.6053967
159	0xbf3cee52	-0.7380115
160	0xbf8d352f	-1.1031855
161	0x3fc46035	1.534186
162	0xbfc28d5f	-1.5199393
163	0x3f07dc24	0.5307028
164	0xbf3883c1	-0.7207604
165	0xbe6e5e6a	-0.23278204
166	0xbe922d78	-0.28550315
167	0xbee589d7	-0.44831726
168	0x3f1f7053	0.6228077
169	0xbc836702	-0.016040329
170	0x3e238f0e	0.1597254
171	0xbf1a5755	-0.6028951
172	0x3f88d2f1	1.0689374
173	0xbf1e096d	-0.6173313
174	0x3e8cbfb3	0.27490005
175	0xbf85cfc9	-1.0454036
176	0x3f662ced	0.899123
177	0x3f050b4a	0.5197035
178	0xbf4dd9e2	-0.8041059
179	0x3ec13c64	0.37741387
180	0x3d9d448e	0.076790914
181	0x3d8bc8b5	0.06825391
182	0xc04e9282	-3.2276921
183	0x3f9de2b1	1.2334806
184	0xbd2bea2b	-0.041971367
185	0xbf5876ec	-0.8455646
186	0xbf3836af	-0.7195844
187	0xbf9cf8e6	-1.2263458
188	0xbe3e9de7	-0.18614922
189	0x3fbc1fc0	1.4697189
190	0x3e9211ed	0.285293
191	0xbf02d57e	-0.51107013
192	0x3f47fffb	0.7812497
193	0xbf569255	-0.83817035
194	0xbf00a247	-0.50247616
195	0xbf85b683	-1.0446323
196	0xbf414239	-0.7549167
197	0xbf846943	-1.0344623
198	0x3e46132f	0.19343255
199	0xbdc9fe02	-0.09862901
200	0xbfc5bcb8	-1.5448217
201	0x3f9788c7	1.1838616
202	0x3e7fbdb1	0.24974705
203	0x3ecaa216	0.39576787
204	0xc00c0220	-2.1876297
205	0x3ebeebfa	0.3728941
206	0x3fa2476b	1.2678045
207	0xbf051942	-0.51991665
208	0x3f822bf2	1.0169661
209	0x3e161c6b	0.14659278
210	0x3f34647e	0.7046584
211	0x3e097e94	0.13427192
212	0xbfa8eb8d	-1.3196884
213	0x3f085e38	0.53268766
214	0xbf14839c	-0.5801332
215	0x3f784328	0.9697747
216	0xbf1a8e25	-0.60373145
217	0xbed137f3	-0.40862998
218	0xbe92805c	-0.28613555
219	0x3e2b654e	0.16737863
220	0xbfbc14fb	-1.4693903
221	0xbea30dbb	-0.31846413
222	0xbf19455c	-0.5987146
223	0x3d17e695	0.037085135
224	0x3e7238c2	0.23654464
225	0x3ff085cc	1.8790832
226	0xbe7bba4b	-0.24582784
227	0x3f1d7197	0.6150145
228	0x3e8d1d4b	0.2756141
229	0x3ee81df8	0.45335364
230	0xbe67b6eb	-0.22628371
231	0x3d78b487	0.06071904
232	0x3e11efec	0.14251679
233	0x3b09667a	0.0020965622
234	0x3f9984a7	1.1993607
235	0x3ffd628e	1.9795702
236	0x3edcca7e	0.4312324
237	0x3eaa5920	0.33271122
238	0xbf1e56c6	-0.61851156
239	0xbf15c48e	-0.58503044
240	0x3f6b202e	0.9184598
241	0x4006bd57	2.1053064
242	0xbf54386f	-0.8289861
243	0xbe575b70	-0.21030974
244	0xbdaacfff	-0.08340453
245	0x3fa60577	1.2970418
246	0x3f4d6b8e	0.8024224
247	0xc0265880	-2.5991516
248	0x3ed821d7	0.42213318
249	0x3f323dd0	0.6962557
250	0x3f5b1299	0.8557525
251	0xbf9826e0	-1.1886864
252	0xbe00c1e3	-0.12573962
253	0xbf064e99	-0.5246368
254	0x3f2c6036	0.67334306
255	0x3ec5b2d3	0.38612995

w_group.0.weight f4 [64, 8]
0	0xbdcda20c	-0.100406736
1	0xbc32a9a7	-0.010904706
2	0x3f913aa4	1.1346021
3	0xbf75df1a	-0.9604355
4	0xbeaa676b	-0.33282027
5	0xbedd2a72	-0.43196446
6	0xbe257126	-0.16156444
7	0xbede4b90	-0.43417025
8	0xbe48bdf6	-0.19603714
9	0xbe10de7a	-0.14147368
10	0xbf284335	-0.6572755
11	0xbf8541de	-1.0410726
12	0xbe55596a	-0.2083489
13	0xbf18036f	-0.5938024
14	0xbf79bb51	-0.9755145
15	0xbf13612c	-0.5757015
16	0xbe90c9ff	-0.2827911
17	0xbe7233c8	-0.23652565
18	0x3f982658	1.1886702
19	0xbd643f4b	-0.055724423
20	0xbe92a9e6	-0.28645247
21	0xbf3f7492	-0.7478725
22	0x3d29f060	0.041489005
23	0xbf4cb5db	-0.7996499
24	0x3d3d9b23	0.046290528
25	0x3d883457	0.06650608
26	0x3f370ab6	0.7150072
27	0xbf7b6f63	-0.9821684
28	0xbe8ecbc8	-0.27889848
29	0x3eef2bc3	0.46713075
30	0xbf4ca530	-0.79939556
31	0x3eed5fec	0.46362245
32	0x3de11486	0.10990243
33	0x3e9a2ed0	0.3011384
34	0x3e05fb95	0.13084252
35	0xbe1af485	-0.1513234
36	0x3e4d2696	0.2003425
37	0x3e9c4a6a	0.30525523
38	0x3d89790b	0.0671254
39	0xbc027eb3	-0.007964778
40	0xbd1db212	-0.0384999
41	0xbc55e06b	-0.013053994
42	0xbd5f5cc8	-0.054531842
43	0xbddf560d	-0.10905085
44	0xbda1fbb8	-0.0790934
45	0x3d42ee97	0.04759082
46	0xbeb07ab6	-0.3446862
47	0xbeda3e64	-0.42625725
48	0xbe81a807	-0.25323507
49	0xbcbb98d7	-0.022900028
50	0x3f9b7686	1.2145545
51	0x3f879735	1.059302
52	0x3dbf5260	0.09341884
53	0xbf210cdd	-0.6291025
54	0xbf36c468	-0.7139344
55	0xbeec7637	-0.4618394
56	0x3e38dca6	0.1805292
57	0xbd8b487b	-0.06800934
58	0x3eac6c37	0.3367631
59	0xbf84dd7f	-1.0380095
60	0x3e8bc99b	0.2730225
61	0xbf2eb7fc	-0.6824949
62	0xbe6548f3	-0.22391109
63	0xbf314ddd	-0.69259435
64	0xbde52b85	-0.11189941
65	0xbd630c29	-0.05543152
66	0xbf21cb95	-0.63201267
67	0x3f38fb29	0.7225824
68	0x3c637960	0.0138839185
69	0xbf1ecb84	-0.6202929
70	0xbe8a87fa	-0.27056867
71	0xbe9c9a02	-0.3058625
72	0xbd7eb7b0	-0.062186897
73	0xbc2f2295	-0.010689397
74	0xbef75fbe	-0.48315233
75	0x3c7aee13	0.01531555
76	0x3e97b101	0.2962723
77	0xbe37a4c5	-0.17933948
78	0xbeb0b527	-0.34513208
79	0xbf243ae1	-0.6415234
80	0xbf3af6d5	-0.73032886
81	0x3f04820d	0.5176094
82	0xbd420c63	-0.047375094
83	0x3ed58272	0.41701084
84	0x3ea723ef	0.32644603
85	0xbf0c95ed	-0.5491627
86	0x3faead0e	1.3646562
87	0xbe74ab9f	-0.23893593
88	0xbebb5fa0	-0.36596394
89	0x3e4b0a69	0.1982819
90	0x3e53c028	0.2067877
91	0x3ed05575	0.406902
92	0xbe2d6964	-0.16934735
93	0xbec8e5fa	-0.39237958
94	0xbf35ecbc	-0.71064353
95	0xbef5026b	-0.47853407
96	0x3e3fb335	0.18720706
97	0xbd9f9ef9	-0.077939935
98	0xbece9747	-0.4034979
99	0x3f4b9512	0.7952434
100	0xbe0f5a2b	-0.1399924
101	0xbf307109	-0.6892248
102	0x3e6e49a3	0.23270278
103	0xbf56dc3a	-0.8392979
104	0x3e8a81de	0.27052206
105	0x3e8d6cb9	0.2762201
106	0xbe72ee47	-0.23723708
107	0x3d74cf1d	0.05976783
108	0xbe1d6e4a	-0.15374103
109	0xbef2edc5	-0.4744703
110	0xbf9c8a2a	-1.2229664
111	0xbf3f6184	-0.7475817
112	0xbe874c68	-0.2642548
113	0xbe31969e	-0.17342612
114	0xbfc624d9	-1.5479995
115	0x3e314b7e	0.17313954
116	0x3e678e72	0.22612932
117	0xbeaa12eb	-0.33217558
118	0xbfcbd97c	-1.5925746
119	0xbf010e4c	-0.5041244
120	0xbea9b016	-0.33142155
121	0x3d042b14	0.032267645
122	0xbfa93ad4	-1.3221078
123	0xbf0a4d02	-0.54023755
124	0x3d041740	0.032248735
125	0xbd7dd8a7	-0.061974194
126	0xc011c341	-2.2775424
127	0xbf0cd160	-0.5500698
128	0xbdcefb0f	-0.101064794
129	0xbd807fe8	-0.06274396
130	0xbead00cf	-0.3378968
131	0xbf4e72bb	-0.80643815
132	0x3df969f4	0.12178412
133	0xbf4e176b	-0.80504483
134	0x3f2d718b	0.6775138
135	0xbee4752d	-0.44620648
136	0xbf22b313	-0.63554496
137	0x3f087a67	0.5331177
138	0x3fed0cc4	1.8519521
139	0xbfc617e8	-1.5476046
140	0xbe92330c	-0.2855457
141	0xbe8753ff	-0.2643127
142	0xbf8be86a	-1.0930302
143	0xbd8da0e9	-0.06915457
144	0x3ef26c44	0.47348225
145	0x3f45eec1	0.77317435
146	0xbaeb1134	-0.0017934204
147	0x3df5cf9e	0.120024905
148	0xbe677f6d	-0.22607203
149	0x3b5f878a	0.0034107887
150	0x3f0659d3	0.5248081
151	0x3e454931	0.19266202
152	0xbe96b3e9	-0.29434136
153	0x3ec10c98	0.3770492
154	0xbf92c34f	-1.1465853
155	0x3f42dabb	0.76115006
156	0x3eae4b55	0.3404185
157	0xbc97fbc0	-0.018552661
158	0xbeaa8e34	-0.33311617
159	0xbe73f240	-0.2382288
160	0x3e251ea3	0.16124968
161	0xbe20ebd1	-0.15714957
162	0x3f426421	0.75934035
163	0x3f7e0ad1	0.99235255
164	0xbe4c79bc	-0.19968313
165	0xbda11ec1	-0.07867194
166	0xbfb56c23	-1.4173626
167	0xbf124e77	-0.5715098
168	0xbdd7416e	-0.105105266
169	0xbd7755de	-0.060384624
170	0x3f79db81	0.9760056
171	0xbe81fff0	-0.25390577
172	0xbe9ddd4d	-0.30832902
173	0xbee4c387	-0.44680426
174	0xbf35c05c	-0.7099664
175	0xbf2b4880	-0.669075
176	0x3dab1a68	0.08354646
177	0xbd742b18	-0.05961141
178	0x3f33e0a4	0.7026465
179	0xbf472d97	-0.7780394
180	0xbeafde3d	-0.34349242
181	0xbf3e599c	-0.74355483
182	0x3f0905ec	0.5352466
183	0xbedf59fa	-0.43623334
184	0x3eb98dba	0.3624094
185	0x3e4fe8c6	0.2030364
186	0xbeb36162	-0.35035235
187	0xbf0d865f	-0.5528316
188	0x3c8f8fd0	0.01752463
189	0x3d9afeb5	0.07568113
190	0x3f42fa69	0.76163346
191	0x3e0d0d2c	0.13774556
192	0x3e73f7e8	0.23825037
193	0x3e198303	0.14991383
194	0x3e56b265	0.2096649
195	0xbd42e626	-0.047582768
196	0xbd65b8d8	-0.056084484
197	0xbecd4fca	-0.40099937
198	0xbe81964a	-0.25309974
199	0xbf112cc2	-0.5670892
200	0x3ea1b9de	0.31587118
201	0xbe4ccb09	-0.19999327
202	0x3f0e9414	0.556947
203	0x3fcc16a1	1.5944406
204	0x3e3f90e2	0.18707612
205	0x3d345b90	0.044032633
206	0xbfac80e7	-1.3476838
207	0x3e8203e4	0.25393593
208	0x3fc32363	1.5245174
209	0x3e7ec8a9	0.24881233
210	0xbf58eb64	-0.8473418
211	0xbf43ee75	-0.7653573
212	0x3d363a50	0.044489205
213	0x3de52bee	0.111900195
214	0xbf1a7558	-0.603353
215	0x3e118e3c	0.14214414
216	0xbc281d16	-0.010260841
217	0x3fa400e9	1.2812778
218	0x3e4a307c	0.19745058
219	0x3e2fff38	0.17187202
220	0xbe4075cc	-0.18794936
221	0xbe57d476	-0.21077141
222	0xbf904048	-1.1269617
223	0xbd1373b1	-0.035999004
224	0x3e87997d	0.2648429
225	0xbe65098a	-0.2236692
226	0xbfbffebd	-1.4999615
227	0x3f52fb05	0.82414275
228	0x3df3b674	0.119000345
229	0xbf5d386e	-0.8641423
230	0x3d3cef96	0.046126924
231	0xbf4857ea	-0.78259146
232	0xbd4cfab1	-0.050043765
233	0xbd9228c3	-0.07136681
234	0x3f97ff33	1.1874756
235	0xbe896b18	-0.2683952
236	0xbe950ae8	-0.29109883
237	0xbe33f579	-0.17574109
238	0xbf9cac32	-1.224005
239	0xbed7e273	-0.42164955
240	0xbe29c604	-0.16579443
241	0x3eae4df4	0.3404385
242	0xbf806779	-1.0031577
243	0xbed2e092	-0.4118696
244	0xbe9f2e0d	-0.3108982
245	0xbf444b97	-0.7667784
246	0x3f2454e9	0.6419206
247	0xbe98629e	-0.2976274
248	0xbdcdd3ca	-0.10050161
249	0xbdc04825	-0.093887605
250	0xbf7c95f1	-0.9866629
251	0x3f8fa160	1.1221123
252	0xbe211102	-0.15729144
253	0xbee28bae	-0.44247192
254	0xbf6952d7	-0.9114203
255	0xbee1b080	-0.4407997

w_group.0.bias f4 [64]
0	0xbf431a2f	-0.7621183
1	0xbf236cbd	-0.63837796
2	0xbf4e9e13	-0.8070995
3	0xbdb34efa	-0.08755298
4	0xbe017126	-0.12640819
5	0xbf136857	-0.57581085
6	0xbef46fa5	-0.47741428
7	0xbf4bc26f	-0.7959356
8	0xbf04cd4d	-0.51875764
9	0xbec4601c	-0.38354576
10	0xbf0daae2	-0.5533887
11	0xbf387681	-0.7205582
12	0xbf4d0f56	-0.80101526
13	0xbf02c4c0	-0.51081467
14	0xbe878b5f	-0.2647352
15	0xbabca58c	-0.0014392599
16	0xbefc8da1	-0.49326804
17	0x3e1bb051	0.15203978
18	0xbe4da8ed	-0.20083971
19	0x3dcbe118	0.099550426
20	0xbf0fb5e0	-0.56136894
21	0xbf2e74b0	-0.681468
22	0xbf44ab54	-0.76823926
23	0xbe5d8bca	-0.21635357
24	0xbf47535e	-0.77861583
25	0xbda40072	-0.080078974
26	0xbe2a8b9c	-0.16654819
27	0xbda217d9	-0.07914705
28	0xbe6d7cb1	-0.23192097
29	0xbe82a811	-0.2551885
30	0xbeac171a	-0.33611375
31	0xbefa97cc	-0.48943937
32	0x3e3c5839	0.1839303
33	0xbe1e396e	-0.15451595
34	0xbd529cc5	-0.05141904
35	0xbe952bdd	-0.29135028
36	0xbf2255f8	-0.6341243
37	0x3e0fd607	0.14046489
38	0xbe522ccd	-0.20524903
39	0xbf31f1c6	-0.6950954
40	0xbde2cfef	-0.110748164
41	0xbde162fc	-0.11005208
42	0xbece02ae	-0.4023642
43	0xbc6a6311	-0.014305846
44	0xbe416935	-0.1888779
45	0xbeb09441	-0.3448811
46	0xbeb10c0f	-0.34579512
47	0xbe41963b	-0.18904965
48	0xbf388f93	-0.72094077
49	0x3dd5498c	0.104144186
50	0xbe5b215c	-0.21399444
51	0xbf292f2b	-0.660876
52	0xbf40aa2c	-0.7525966
53	0xbef9aa03	-0.4876252
54	0x3d3bc20b	0.04583935
55	0xbefdf76f	-0.4960284
56	0xbe536229	-0.20642914
57	0xbf13a036	-0.5766634
58	0xbe8d2b72	-0.2757221
59	0x3e1ef7ad	0.15524168
60	0xbc80982c	-0.015697561
61	0xbf0fed72	-0.5622169
62	0xbe978679	-0.29594782
63	0xbebc1427	-0.36734125

w_group.2.weight f4 [32, 64]
0	0x3d8a87ab	0.06764158
1	0xbe9e1858	-0.30877948
2	0xbdbaa291	-0.09113038
3	0xbeecea3d	-0.4627246
4	0xbdc1dd13	-0.09465995
5	0x3d8d9fe4	0.06915262
6	0xbdb2640a	-0.08710487
7	0x3de1e017	0.1102907
8	0xbe14d1cf	-0.1453316
9	0xbcff2d00	-0.031149387
10	0x3e2beefb	0.16790383
11	0x3dcea931	0.100908644
12	0xbe1e4e07	-0.15459453
13	0x3ebe3663	0.3715087
14	0x3eb66dc9	0.35630634
15	0xbb760299	-0.003753817
16	0x3d5c345c	0.05376087
17	0xbe4cacaa	-0.19987741
18	0x3ecdc4ec	0.40189302
19	0xbe0352ef	-0.12824605
20	0xbee1f45d	-0.44131747
21	0xbe790b0c	-0.2432062
22	0xbe39162b	-0.18074863
23	0xbe603330	-0.21894526
24	0x3ead27af	0.3381934
25	0xbd07f3bd	-0.03319143
26	0x3e240ed7	0.16021286
27	0x3f11499d	0.5675295
28	0x3f07e0af	0.53077215
29	0xbf01505d	-0.5051325
30	0x3f21da95	0.63224155
31	0x3c81f0b5	0.015861848
32	0xbe989fed	-0.29809514
33	0xbf4f2961	-0.80922514
34	0xbdd67bbe	-0.10472821
35	0xbf170a68	-0.59000254
36	0x3deb602b	0.11492952
37	0xbd3fc11b	-0.04681502
38	0x3c3ad6b2	0.011403726
39	0x3cebb188	0.028771177
40	0xbe659d53	-0.22423296
41	0xbe4ca895	-0.19986184
42	0xbaef2de0	-0.0018247925
43	0xbf4021ed	-0.75051767
44	0x3e4c9e8b	0.19982354
45	0xbe2dc3ec	-0.1696927
46	0x3ea3ccb1	0.31992105
47	0x3e5a1530	0.21297145
48	0x3f3ac37b	0.7295453
49	0xbe5b346e	-0.21406719
50	0xbd1f7d89	-0.03893808
51	0x3ebdd916	0.37079686
52	0xbf72337a	-0.94609797
53	0x3f88a719	1.0675994
54	0xbd93177f	-0.07182216
55	0x3c1e163f	0.009648859
56	0x3e601af0	0.21885276
57	0x3e9f0e20	0.31065464
58	0xbdcd051a	-0.10010739
59	0xbdb230bf	-0.08700704
60	0xbe206b97	-0.15666042
61	0xbe2023c5	-0.15638645
62	0xbddc68de	-0.10762189
63	0xbdfc0607	-0.12305837
64	0x3f156a49	0.58365303
65	0x3eeb5bcc	0.45968473
66	0x3e87d94d	0.26532975
67	0xbe735f2a	-0.23766771
68	0xbe7c663f	-0.24648379
69	0x3e01a91e	0.1266217
70	0xbdf32afd	-0.11873434
71	0x3eaa1573	0.3321949
72	0x3d08843c	0.033329234
73	0xbc482ce0	-0.01221773
74	0x3e56d2b7	0.20978819
75	0x3e22fef0	0.15917563
76	0xbe16d169	-0.14728321
77	0x3ca9acc7	0.02071227
78	0x3e592911	0.21207072
79	0x3e2bbef3	0.1677206
80	0x3ec1910b	0.37805972
81	0x3e84c82c	0.2593397
82	0xbe00b2a1	-0.12568142
83	0xbf05958d	-0.5218132
84	0xbe933774	-0.28753245
85	0x3e82f2d2	0.25575882
86	0x3e96a3e6	0.2942192
87	0xbee500be	-0.4472713
88	0xbc06aa84	-0.008219365
89	0x3e23294c	0.15933722
90	0x3d34c26d	0.04413073
91	0x3da29d6d	0.07940183
92	0xbe3d2a0e	-0.18473074
93	0x3ea99b37	0.33126232
94	0xbf12068e	-0.5704125
95	0xbc43313f	-0.011913597
96	0xbeb2c94f	-0.3491921
97	0xbf207cc2	-0.62690365
98	0xbe6c3b8d	-0.23069592
99	0x3db43f24	0.088011056
100	0xbe554bc5	-0.20829685
101	0x3eb8ef42	0.3612004
102	0x3b00a487	0.0019629316
103	0x3cf4c19a	0.029877473
104	0x3de48c0b	0.111595236
105	0x3e5256ad	0.20540877
106	0xbda490fc	-0.08035466
107	0xbec58f92	-0.38586098
108	0xbef87d35	-0.48533025
109	0xbdaede71	-0.08538521
110	0x3c63606b	0.013877968
111	0xbf144f6f	-0.57933706
112	0x3e9802c2	0.29689604
113	0xbdb06047	-0.086121134
114	0xbaaa038d	-0.0012971029
115	0x3e2b1d6b	0.16710441
116	0xbf40c594	-0.7530148
117	0x3ec90c2e	0.39267105
118	0x3dd3a02a	0.10333283
119	0xbe021bfc	-0.12705988
120	0xbd2c76b1	-0.04210538
121	0xbf23a6be	-0.63926303
122	0x3d6aab15	0.057292063
123	0x3dabe5a0	0.08393407
124	0xbdb6f72b	-0.08933862
125	0x3d36b042	0.044601686
126	0x3d692980	0.056924343
127	0xbe052108	-0.13000882
128	0xbddf5f9e	-0.109069094
129	0x3dd6c767	0.10487252
130	0xbd7b0eb1	-0.061293308
131	0xbed5bbc5	-0.4174482
132	0xbdd1c3b7	-0.10242408
133	0x3d98a62f	0.07453572
134	0x3cef7edd	0.029235298
135	0x3d4cc623	0.049993645
136	0x3de78ada	0.11305781
137	0xbdf1bfaf	-0.11804139
138	0x3d13a8bd	0.036049593
139	0xbe31f741	-0.17379476
140	0xbdecee4f	-0.11568891
141	0xbde7598f	-0.11296379
142	0x3e1cc6ba	0.15310183
143	0xbe6da578	-0.23207653
144	0xbcc86bc1	-0.024465444
145	0xbdc21979	-0.09477515
146	0x3bce2da4	0.006292062
147	0xbd55825e	-0.05212628
148	0xbe224c92	-0.15849522
149	0x3e0a741b	0.13520853
150	0x3df3d20e	0.11905299
151	0xba94b39c	-0.0011345032
152	0xbe2a98df	-0.16659878
153	0xbdeda004	-0.11602786
154	0x3dc97349	0.09836442
155	0xbe43f799	-0.1913742
156	0xbd23a869	-0.03995553
157	0xbdc70085	-0.09716896
158	0x3cf16441	0.02946675
159	0xbe0a5f34	-0.1351288
160	0xbda0e0fd	-0.07855413
161	0xbd86084f	-0.065445535
162	0x3c3a9dde	0.0113901775
163	0xbdd9206e	-0.106018886
164	0xbdbfd4f5	-0.0936679
165	0xbe6e2a19	-0.23258246
166	0xbe232a3e	-0.15934083
167	0xbe325493	-0.17415075
168	0xbe1751fa	-0.14777365
169	0xbba00e5d	-0.0048845247
170	0x3de2c726	0.11073141
171	0x3d208fa9	0.039199505
172	0xbe456e95	-0.19280465
173	0x3d8460b8	0.0646376
174	0xbdcc3a26	-0.099720284
175	0x3e3e67ee	0.18594334
176	0xbc9dd592	-0.019266877
177	0xbb2eb9f9	-0.0026661141
178	0xbcee6b2a	-0.029103834
179	0xbe67ad24	-0.22624642
180	0x3d4564bb	0.048191767
181	0x3c93dc3c	0.018049352
182	0xbec86a07	-0.39143392
183	0x3d9fbda8	0.07799846
184	0x3d2d911c	0.042374715
185	0xbd6a437d	-0.057193268
186	0x3d04c4a9	0.032414112
187	0xbe90ff98	-0.28320003
188	0x3dabbaf1	0.083852656
189	0xbd5c8cb0	-0.053845108
190	0xbda1ed70	-0.07906616
191	0xbd20ed28	-0.03928867
192	0x3d6c95ec	0.057760164
193	0xbe53fac8	-0.20701134
194	0x3d989c7c	0.07451722
195	0xbebe7d55	-0.37204996
196	0xbda37b72	-0.0798253
197	0xbd98f36e	-0.074683055
198	0xbde20570	-0.11036193
199	0xbe225815	-0.15853913
200	0xbdd65f97	-0.10467451
201	0xbe02d8b8	-0.12777984
202	0xbd9bdc28	-0.07610351
203	0x3b9921be	0.004673212
204	0x3d929558	0.07157391
205	0xbe52b866	-0.20578155
206	0xbea00458	-0.31253314
207	0xbe624c43	-0.22099404
208	0xbd922208	-0.07135397
209	0x3cf72caa	0.030172665
210	0xbe2fc8bb	-0.17166416
211	0xbe38e674	-0.18056661
212	0xbc284743	-0.010270896
213	0x3c54e9f6	0.012995234
214	0xbd6b50de	-0.057450168
215	0xbe538890	-0.20657563
216	0xbc8987c4	-0.01678837
217	0xbd24f95b	-0.040276866
218	0xbe8652aa	-0.26234943
219	0xbea86aef	-0.32894084
220	0x3d9d5def	0.07683932
221	0xbe597531	-0.21236111
222	0xbd857420	-0.0651629
223	0x3d8e9321	0.06961656
224	0xbd4fd7b9	-0.05074284
225	0x3c6b27e1	0.01435277
226	0x3aac8d88	0.0013164738
227	0xbd20c3ee	-0.039249353
228	0x3dd1bcdb	0.102410994
229	0xbde36747	-0.11103683
230	0x3cae698a	0.02129056
231	0x3dc07da4	0.09398964
232	0xbe4e2b64	-0.2013374
233	0xbda30428	-0.07959777
234	0x3d4db5b4	0.050222114
235	0x3d6d0b9d	0.057872403
236	0xbe076b2a	-0.13224474
237	0x3dbf14ed	0.09330163
238	0xbe9b9bf5	-0.30392423
239	0x3d9bf314	0.07614723
240	0x3e2d4dc7	0.16924201
241	0x3ddfbaac	0.10924277
242	0x3dc5e9e3	0.09663751
243	0x3df3c4d7	0.119027786
244	0x3d157b61	0.036494616
245	0x3e9238b0	0.28558874
246	0xbe2c69cb	-0.16837232
247	0x3caa66f0	0.020801038
248	0x3d69d20d	0.057085086
249	0x3d6316ba	0.055441596
250	0x3ad30166	0.0016098439
251	0xbe44c779	-0.19216718
252	0x3d6e5083	0.05818225
253	0xbe1eeae5	-0.15519293
254	0x3da2a220	0.07941079
255	0xbdc757ed	-0.097335674

w_group.2.bias f4 [32]
0	0xbf3e499e	-0.7433108
1	0xbeebcd24	-0.46054947
2	0xbcf8033d	-0.030274982
3	0xbeb1ec05	-0.3475038
4	0x3eca6878	0.39532828
5	0xbd9128f9	-0.07087893
6	0xbe6d94b5	-0.23201258
7	0xbed69d59	-0.41916922
8	0x3d815087	0.063141875
9	0xbdec5899	-0.11540336
10	0xbe167bea	-0.14695707
11	0xbd3eecaf	-0.046612438
12	0xbd5641e4	-0.052308932
13	0xbdf4307f	-0.119233124
14	0xbd90462f	-0.070446365
15	0xbe623e83	-0.22094159
16	0xbee79f59	-0.4523876
17	0xbeb33a5e	-0.35005468
18	0xbf901572	-1.1256545
19	0x3e937f4c	0.28808057
20	0xbe194c8c	-0.14970607
21	0xbc2be15d	-0.0104907425
22	0x3e8feb63	0.28109273
23	0xbc89fd79	-0.016844498
24	0xbdc6a8b9	-0.0970015
25	0xbe630f5c	-0.22173828
26	0xbf04cbe8	-0.51873636
27	0xbdf95aba	-0.12175508
28	0xbd1ec72b	-0.03876416
29	0xbe0d41d1	-0.13794638
30	0xbe8d552d	-0.27604046
31	0x3e68a8ca	0.22720638

w_agents.0.weight f4 [64, 5]
0	0x3da260f6	0.0792865
1	0xbd34d106	-0.044144653
2	0x3dc89aef	0.09795176
3	0x3db1d606	0.086834
4	0x3da145cf	0.07874643
5	0x3bf61475	0.007509763
6	0xbcb46651	-0.022021445
7	0xbec1ac5d	-0.37826815
8	0xbe2d364d	-0.16915245
9	0xbee417cf	-0.44549415
10	0xbb81b9dc	-0.0039589237
11	0x3dc3d41f	0.09561943
12	0x3db4006f	0.08789145
13	0x3e07c567	0.13258897
14	0xbe67db3b	-0.22642224
15	0xbd5494f0	-0.05189985
16	0x3d9aef72	0.07565202
17	0x3e499fa1	0.196898
18	0x3dea1f62	0.11431767
19	0xbf38aa98	-0.72135305
20	0x3e166d5d	0.14690156
21	0xbdc7ba2b	-0.097523056
22	0x3f241537	0.6409487
23	0xbf88a82c	-1.0676322
24	0xbe76d102	-0.24103168
25	0xbeaebed0	-0.34129953
26	0xbeb15d37	-0.3464143
27	0x3ea6de87	0.3259165
28	0x3f30a013	0.68994254
29	0xbec7fbcb	-0.3905929
30	0x3bc73edc	0.0060804915
31	0x3e8c21f7	0.27369663
32	0xbe4d55ff	-0.20052336
33	0x3f0d58ca	0.55213606
34	0xbf362233	-0.71145934
35	0x3d12e9f1	0.035867635
36	0xbda58714	-0.08082405
37	0xbd865fb5	-0.065612234
38	0x3e2450f8	0.16046512
39	0xbf34b56a	-0.70589316
40	0xbe2f17e7	-0.17098962
41	0xbd7d443a	-0.061832644
42	0xbe31d4db	-0.17366354
43	0xbf781986	-0.96913946
44	0xbef87b83	-0.48531732
45	0xbea20d30	-0.31650686
46	0xbd7dc899	-0.061958883
47	0xbeda523b	-0.42640862
48	0xbe12400e	-0.14282247
49	0xbfd40b96	-1.6566036
50	0xbee00112	-0.43750817
51	0x3ed1ea1e	0.4099893
52	0x3f8a51da	1.0806229
53	0xbeaeb13b	-0.3411959
54	0xbf0937c3	-0.5360071
55	0x3d85b0d8	0.06527871
56	0xbdf96a4b	-0.12178477
57	0x3f941098	1.1567564
58	0x3f48bd20	0.7841358
59	0xbf6beefa	-0.92161524
60	0xbe838cff	-0.2569351
61	0xbe1d1445	-0.15339763
62	0xbf6bdec2	-0.92136776
63	0x3fe063b0	1.7530422
64	0xbf1a1b6b	-0.60198087
65	0xbc0200d0	-0.007934764
66	0x3ccbc192	0.024872575
67	0xbc8f6924	-0.01750619
68	0x3e6fddc3	0.23424439
69	0x3d029632	0.03188152
70	0x3d19081d	0.037361253
71	0x3f54402c	0.8291042
72	0x3e3ed0fd	0.1863441
73	0x3f95f963	1.1716732
74	0xbf8e5b5f	-1.1121634
75	0xbd817818	-0.06321734
76	0x3e92515e	0.28577703
77	0x3ee76c94	0.45200026
78	0x3f23468d	0.63779527
79	0xbf5c2f4f	-0.8600969
80	0x3ebb17cd	0.36541596
81	0x3edfc042	0.4370137
82	0xbf979d8a	-1.1844952
83	0x3e5c44c3	0.21510606
84	0xbf0cf467	-0.5506043
85	0xbe7f7fc5	-0.24951084
86	0x3dea8b62	0.114523664
87	0x3f70d1e9	0.940703
88	0x3fe74d8e	1.8070543
89	0xbf281632	-0.6565887
90	0xbef76052	-0.48315674
91	0xbe118894	-0.14212257
92	0x3f602158	0.8755088
93	0x3f71ef42	0.94505703
94	0xbfdab73a	-1.7087166
95	0xbc369f31	-0.011146353
96	0x3da12bd6	0.07869689
97	0xbcab1f1b	-0.020888856
98	0x3e9d0c1a	0.30673295
99	0xbf2cc765	-0.6749175
100	0x3c2e396f	0.01063381
101	0xbc62a8b9	-0.013834172
102	0xbe111be5	-0.14170797
103	0x3ed790c8	0.42102647
104	0xbf697061	-0.911871
105	0xbd6b24f1	-0.057408277
106	0x3ee03a1c	0.43794334
107	0x3e6a4799	0.22878875
108	0x4017508b	2.364291
109	0xbe975689	-0.2955821
110	0xbb73046e	-0.0037081498
111	0x3e0f7d1a	0.14012566
112	0xbdae7264	-0.08517912
113	0x3f2b90e0	0.67017937
114	0xbe2757fe	-0.1634216
115	0x3e9800d9	0.29688147
116	0x3f89bdc6	1.0761039
117	0x3f4394e8	0.7639909
118	0x3fd5a314	1.6690392
119	0xbf9dad01	-1.2318422
120	0xbe083b10	-0.1330378
121	0x3eae7958	0.34076953
122	0xbeb6ffb9	-0.35741976
123	0x3ff7d894	1.9362969
124	0xbf392734	-0.72325444
125	0x3db7b38e	0.08969794
126	0x3e1b6a79	0.15177335
127	0xbca8e75c	-0.020618133
128	0x3e89f13d	0.26941863
129	0xbf024ac5	-0.5089534
130	0x3d452775	0.048133332
131	0x3e71acc5	0.23601063
132	0xbd8bbcee	-0.06823145
133	0x3ea948df	0.3306341
134	0xbf0d960f	-0.55307096
135	0xbe29a9d8	-0.16568696
136	0x3ea2210c	0.31665838
137	0x3f1caa12	0.61197007
138	0x3f5f1bc2	0.8715173
139	0xbf914232	-1.1348326
140	0xbef24579	-0.47318628
141	0x3f49b69a	0.7879425
142	0xbc90f166	-0.017693233
143	0x3f2f0b8c	0.68376994
144	0xbf53d79d	-0.82750875
145	0x3ebffbdc	0.3749684
146	0x3cfb1dbe	0.03065383
147	0xbddfbd23	-0.10924747
148	0x3f79bbd6	0.9755224
149	0xbf19ca2b	-0.6007411
150	0xbead2fa4	-0.3382541
151	0xbd93b101	-0.07211495
152	0xbf4cadff	-0.79952997
153	0x3fd09091	1.6294118
154	0xbf835bfb	-1.0262445
155	0x3da42718	0.08015269
156	0x3d972eff	0.07382011
157	0x3e4b0b50	0.19828534
158	0x3c07c931	0.008287714
159	0xbf145236	-0.57937944
160	0x3e04008e	0.12890837
161	0x3e683863	0.2267776
162	0xbf6f88a5	-0.9356788
163	0x3fb5cdca	1.4203427
164	0xbf13254c	-0.57478786
165	0x3e9784ac	0.29593408
166	0x3f858942	1.0432513
167	0x3f51aca8	0.8190408
168	0x40000caf	2.0007741
169	0xbed54e27	-0.41661188
170	0x3dd2a6ea	0.102857426
171	0x3f9a4a46	1.2053916
172	0xbd7e8215	-0.062135775
173	0x3fa77450	1.3082371
174	0x3e529cf3	0.20567684
175	0x3dd28acc	0.1028038
176	0xbe3c8d58	-0.18413293
177	0xbf75405c	-0.9580133
178	0x3f5dc1cc	0.86623836
179	0xbf87e326	-1.0616195
180	0xbf0dab0c	-0.5533912
181	0x3fdc1fb9	1.7197181
182	0x3f2af995	0.6678708
183	0xbf32e31c	-0.6987779
184	0xbeb2f2cd	-0.34950867
185	0xbec3a58b	-0.38212237
186	0x3f877181	1.0581514
187	0xbee6b65e	-0.4506101
188	0x3f9357d3	1.1511177
189	0xbed20295	-0.41017595
190	0xbcbb3e61	-0.022856893
191	0x3ea611d4	0.32435477
192	0x3e252613	0.16127805
193	0xbf6dd2db	-0.92899865
194	0xbec52208	-0.38502526
195	0x3d6ae9d9	0.05735192
196	0x3e929724	0.28630936
197	0x3f295afa	0.66154444
198	0xbbb6eaf0	-0.005582206
199	0xbfb30d72	-1.3988478
200	0xbd7c67a6	-0.061622284
201	0x3e24d1e7	0.16095696
202	0x3e26f549	0.16304506
203	0x3f08ee34	0.5348847
204	0xbf0ada67	-0.54239506
205	0x3d223bef	0.03960794
206	0x3fef9801	1.8718263
207	0xbcea4008	-0.028594986
208	0xbf3007e0	-0.68762016
209	0xbe87d49a	-0.2652939
210	0xbe299a73	-0.16562824
211	0x3fa15907	1.2605294
212	0xbe583113	-0.2111247
213	0xbf934edf	-1.1508445
214	0xbea46bce	-0.32113498
215	0x3ee90dd4	0.45518363
216	0xbef4b17e	-0.47791666
217	0xbe6250b8	-0.22101104
218	0xbdaa74c1	-0.0832305
219	0xbf3024be	-0.68806064
220	0x3eb08830	0.34478903
221	0x3eb39230	0.3507247
222	0xbf1fbde2	-0.62399113
223	0x40028f2a	2.039988
224	0xbe351f97	-0.17687832
225	0x3d25e50b	0.040501636
226	0x3fb6ee3e	1.4291456
227	0xbec5020b	-0.3847812
228	0x3f8d2cb5	1.1029269
229	0xbd647596	-0.0557762
230	0xbeaccf67	-0.33751985
231	0x3f8cd1ff	1.1001586
232	0xbf513174	-0.81716084
233	0x3fcbaf11	1.5912801
234	0xbfa96014	-1.3232446
235	0xbdd7bd7c	-0.10534188
236	0x3e8e28d5	0.27765527
237	0xbf2244f0	-0.6338644
238	0x3d6fecac	0.058575317
239	0xbf5f0d75	-0.8712991
240	0x3ef9aad3	0.4876314
241	0x3ecf2463	0.40457448
242	0x3eae9a52	0.34102112
243	0x3f78c5e4	0.9717696
244	0xbfd0ffc2	-1.6328051
245	0x3e55822a	0.20850435
246	0xbf082400	-0.5317993
247	0xbf59c956	-0.8507284
248	0x3f10c1c4	0.5654566
249	0xbf580431	-0.84381396
250	0xbccd02a2	-0.02502567
251	0x3c484301	0.012223006
252	0x3eac9eba	0.3371485
253	0xbfb54118	-1.416049
254	0xbd2a5b1a	-0.041590787
255	0xbe35c1eb	-0.17749755

w_agents.0.bias f4 [64]
0	0xbf406ea3	-0.7516882
1	0xbec0633b	-0.37575707
2	0xbeb1f153	-0.34754428
3	0xbe8f507e	-0.27991098
4	0xbf4c3eca	-0.7978331
5	0xbf1e5867	-0.6185364
6	0xbf43ec9c	-0.7653291
7	0xbeb72635	-0.35771337
8	0xbe555d9b	-0.20836489
9	0xbfb67797	-1.4255246
10	0xbf1027f0	-0.5631094
11	0xbf9d685f	-1.2297477
12	0xbf64c7f1	-0.89367586
13	0xbea6aa7b	-0.3255194
14	0xbf4d887f	-0.802864
15	0xbf6d95f4	-0.92806935
16	0xbf46426a	-0.7744509
17	0xbf182235	-0.59427196
18	0xbfbce149	-1.4756252
19	0xbe26b9e2	-0.16281846
20	0xbeb60a4a	-0.35554725
21	0xbe5094ea	-0.20369306
22	0xbf1f2e8c	-0.621804
23	0xbf3044d8	-0.6885505
24	0xbf5d7cc7	-0.8651852
25	0xbf013c83	-0.5048296
26	0xbf28379f	-0.6570987
27	0xbf77a3de	-0.96734416
28	0xbf578615	-0.8418897
29	0xbe9f84cc	-0.31156003
30	0xbfaba862	-1.3410761
31	0xbf107e10	-0.56442356
32	0xbeb6309f	-0.3558397
33	0xbf19f333	-0.6013672
34	0xbdb317ba	-0.0874476
35	0xbf9ec4d9	-1.2403823
36	0xbeff2131	-0.4983001
37	0xbf353d44	-0.7079661
38	0x3dc515e8	0.09623319
39	0xbf8e42bf	-1.1114119
40	0xbf01bd44	-0.5067942
41	0x3d82d9d5	0.063892044
42	0xbf44e398	-0.7690978
43	0xbf88f98f	-1.0701159
44	0xbefd89b8	-0.49519134
45	0xbf265e73	-0.6498787
46	0xbf5292d0	-0.8225527
47	0xbe6f3af1	-0.23362328
48	0xbf810167	-1.0078553
49	0xbf81c454	-1.013804
50	0xbf55023c	-0.83206534
51	0xbf68a646	-0.90878713
52	0xbe3e2997	-0.18570553
53	0xbf40f78c	-0.75377727
54	0xbeefeae9	-0.4685891
55	0xbee434e9	-0.44571617
56	0xbecc460c	-0.39897192
57	0xbf03e38f	-0.515191
58	0xbef2ecd7	-0.4744632
59	0xbccef2f6	-0.025262337
60	0x3d90a467	0.07062607
61	0xbf279eea	-0.6547686
62	0xbf87402b	-1.0566458
63	0xbed7b5ac	-0.42130792

w_agents.2.weight f4 [32, 64]
0	0x3d234816	0.03986367
1	0xbe01b31a	-0.12665978
2	0xbcd933f7	-0.026514037
3	0xbd0b1fcf	-0.033965882
4	0xbe041b56	-0.12901053
5	0x3d29f487	0.041492965
6	0xbd976649	-0.07392556
7	0x3cdfb275	0.027306775
8	0x3c2fcabb	0.010729487
9	0xbe17b68a	-0.14815727
10	0x3cc542cc	0.024079703
11	0x3e2015c5	0.15633304
12	0xbcb1bd2d	-0.021696651
13	0x3cecbc6f	0.028898446
14	0x3c4082bb	0.011749919
15	0xbd76dd44	-0.06026961
16	0xbdb28423	-0.08716609
17	0xbd473693	-0.04863603
18	0xbe08ba18	-0.13352239
19	0xbd9001a7	-0.07031565
20	0xbdfd5555	-0.123697914
21	0xbddafd41	-0.106928356
22	0xbe6fb0ae	-0.23407242
23	0xbe36a4a1	-0.17836238
24	0xbda5162f	-0.08060872
25	0x3d87341c	0.06601736
26	0x3b68ee4e	0.0035542431
27	0xbdf261cc	-0.118350595
28	0xbe4935da	-0.19649449
29	0x3c855c5e	0.016279396
30	0x3d541e4b	0.051786702
31	0xbbe947c0	-0.007119149
32	0x3d4a9aa5	0.049463887
33	0xbdd1a181	-0.102358826
34	0xbcf39d74	-0.029738165
35	0xbdc83b72	-0.09776963
36	0xbe568d5e	-0.20952365
37	0xbe08b325	-0.13349588
38	0xbde90cc2	-0.113793865
39	0xbe2756e6	-0.16341743
40	0xbd8db888	-0.06919962
41	0xbe0beefb	-0.13665383
42	0xbc85222c	-0.016251646
43	0x3da4c81a	0.08045979
44	0x3c881dce	0.016615774
45	0xbd85ebd9	-0.06539125
46	0xbe5430cd	-0.20721741
47	0xbc8e29f3	-0.017353987
48	0xbc5af28d	-0.013363493
49	0x3b90dd0e	0.004420883
50	0xbe09d204	-0.13459021
51	0xbe6fad94	-0.23406059
52	0xbc8cc46f	-0.01718351
53	0x3c241de2	0.01001689
54	0x3c5eca81	0.013598085
55	0xbe290d1e	-0.1650891
56	0x3c8c9f8a	0.017165918
57	0xbd9b2f54	-0.075773865
58	0xbe5046dd	-0.20339532
59	0x3d942356	0.07233302
60	0xbc993a4f	-0.018704562
61	0x3c73afbf	0.014873444
62	0xbd3eeb34	-0.046611026
63	0xbe1ba6e5	-0.15200384
64	0x3d5c1867	0.05373421
65	0xbe65662e	-0.2240226
66	0xbf027b03	-0.5096895
67	0xbe44c28f	-0.19214843
68	0xbfe3ab7a	-1.7786705
69	0x3afe5662	0.0019404406
70	0x3ebdbfd8	0.37060428
71	0x3d0974ec	0.03355877
72	0x3e111606	0.14168558
73	0xbf38e0a4	-0.72217774
74	0xbc7da060	-0.015480131
75	0xbf663775	-0.8992837
76	0xbfeb4a6a	-1.8382084
77	0x3cacd466	0.021097373
78	0xbeb5f019	-0.35534742
79	0xbe804707	-0.2505419
80	0x3f9af822	1.2106974
81	0x3f04816a	0.5175997
82	0x3f49a429	0.78766114
83	0x3e1ba7e4	0.15200764
84	0xbd559d0c	-0.052151725
85	0xbf5b3d40	-0.85640335
86	0xbd910554	-0.070810944
87	0xbf2a2aca	-0.6647154
88	0x3f88e3d4	1.0694528
89	0xbddc2212	-0.10748686
90	0x3b0b4833	0.002125275
91	0xbfb3494a	-1.4006741
92	0x3f45be77	0.7724375
93	0xbea55f64	-0.3229934
94	0xbfbdd52d	-1.4830681
95	0xbd9b689b	-0.07588311
96	0xbfa06ea7	-1.2533768
97	0xbec071fd	-0.37586966
98	0xbfb5cc0b	-1.4202894
99	0x3ea4177f	0.32049176
100	0x3e971259	0.29506186
101	0x3f04c2b2	0.5185958
102	0xc02b33c0	-2.6750336
103	0xbebdf9ca	-0.37104636
104	0xbddb3f51	-0.10705436
105	0x3ed6fa69	0.41987923
106	0xc009ed58	-2.1551113
107	0xbde2829d	-0.11060069
108	0x3eba72f6	0.36415833
109	0xbe9aeb46	-0.30257624
110	0xbf26f4f9	-0.6521755
111	0xbf4e1b45	-0.8051036
112	0xbcf6c1b9	-0.030121671
113	0x3ec7a237	0.38990948
114	0xbfa8094e	-1.312784
115	0xbf381c14	-0.71917844
116	0x3a0ff1ac	0.0005491029
117	0x3e177330	0.14790034
118	0x3f196302	0.599167
119	0xbd3eca4e	-0.04657965
120	0xbe90901a	-0.2823494
121	0xbc4c00ed	-0.012451393
122	0xbdbf840c	-0.09351358
123	0xbfc397ee	-1.528074
124	0x3c456b55	0.012049516
125	0xc00d193b	-2.204665
126	0xbe2f1a93	-0.17099981
127	0x3ebb22eb	0.36550078
128	0xbda5d48b	-0.0809718
129	0xbe940671	-0.28911164
130	0xbcab047b	-0.02087616
131	0x3ecedf17	0.4040458
132	0xbe554961	-0.20828773
133	0xbc73dc90	-0.014884129
134	0xbc69fca2	-0.014281424
135	0xbf114d7a	-0.56758845
136	0xbd2a3679	-0.041555855
137	0x3e2abcd0	0.16673589
138	0xbd06eb6c	-0.03293936
139	0xbd83c1cf	-0.064334504
140	0x3e851550	0.25992823
141	0xbea331d5	-0.31873956
142	0xbd92c26b	-0.071659885
143	0x3e7f1b4d	0.24912758
144	0xbdf78252	-0.120854035
145	0xbf1063b3	-0.5640213
146	0xbd39c207	-0.045351055
147	0x3e5d17ee	0.2159116
148	0xbeb3b0e7	-0.35095903
149	0xbe9498fe	-0.29022974
150	0xbe1381e7	-0.14405023
151	0xbdcfaea9	-0.10140736
152	0x3d881453	0.066445015
153	0xbed696e2	-0.4191199
154	0xbd8143c9	-0.06311757
155	0x3cc08885	0.023502598
156	0x3d58f296	0.052965723
157	0xbed4c6af	-0.41557834
158	0xbe8979fd	-0.26850882
159	0x3dad14d1	0.08451236
160	0x3d10270c	0.035193488
161	0xbeab3550	-0.33439112
162	0xbcf92e56	-0.030417603
163	0x3c32052f	0.010865494
164	0xbd0784ca	-0.033085622
165	0xbe573bcb	-0.21018903
166	0xbe3846df	-0.17995785
167	0x3b0e3787	0.0021700577
168	0x3e38d344	0.18049341
169	0x3c559f7a	0.01303851
170	0xbe1e2277	-0.15442835
171	0xbf08162e	-0.53158844
172	0xbeab3995	-0.3344237
173	0xbe95cf3a	-0.29259664
174	0xbeddb1f2	-0.43299824
175	0xbe248d9c	-0.16069645
176	0x3cad2457	0.021135492
177	0xbd2022a0	-0.03909552
178	0xbe0e373f	-0.13888262
179	0xbd2ec6ea	-0.042670168
180	0xbdff7e14	-0.12475219
181	0x3d5bc5f4	0.05365558
182	0xbe026e35	-0.12737353
183	0x3d5e79f8	0.054315537
184	0xbd242578	-0.040074795
185	0x3d80bfd3	0.062865876
186	0xbd2c3e44	-0.04205157
187	0x3e4a9ac3	0.197856
188	0x3d40376a	0.046927847
189	0x3e466a9e	0.19376609
190	0xbe583bc2	-0.21116546
191	0xbe2634cb	-0.16231076
192	0xbd403687	-0.046927
193	0xbb75f330	-0.0037528984
194	0xbc3aec27	-0.011408842
195	0x3e71f5bf	0.23628901
196	0xbd693e32	-0.05694408
197	0xbe6a5cc2	-0.22886947
198	0x3e696ad4	0.22794658
199	0x3cf2f074	0.029655673
200	0x3acf498b	0.0015814764
201	0xbf0130e5	-0.5046523
202	0x3f01e629	0.5074182
203	0x3ee64000	0.44970703
204	0x3de85822	0.11344935
205	0xbd2abc20	-0.041683316
206	0xbf500851	-0.8126269
207	0x3e2c3633	0.1681755
208	0x3e86f705	0.26360336
209	0x3f496158	0.7866416
210	0xbdedb9a3	-0.11607673
211	0x3cf6880e	0.030094173
212	0x3d74f682	0.0598054
213	0xbed502cc	-0.41603696
214	0x3c935f65	0.017989824
215	0x3e4fc7c7	0.20291053
216	0x3dc31e7e	0.095273
217	0x3d02e2bc	0.031954512
218	0x3e94142b	0.28921637
219	0x3d92dc85	0.07170967
220	0x3dff599a	0.12468262
221	0x3cf45cf1	0.029829474
222	0xbed13758	-0.40862536
223	0x3d05556a	0.03255216
224	0x3ebf4be8	0.373626
225	0x3e3f22c3	0.18665604
226	0x3da7d6f9	0.081953
227	0xbec481f1	-0.38380387
228	0xbee51f0f	-0.44750258
229	0xbc654d8a	-0.013995538
230	0xbe6839c4	-0.22678286
231	0xbf601b00	-0.875412
232	0x3c7c4ecc	0.015399646
233	0x3d170d53	0.03687794
234	0x3d592829	0.053016815
235	0x3dd50829	0.10401947
236	0x3d698c4f	0.057018574
237	0xbe96451d	-0.29349604
238	0x3e0f6b12	0.14005688
239	0x3ed056d9	0.4069126
240	0x3ea857a3	0.32879362
241	0xbd33ae38	-0.04386732
242	0xbed8a5df	-0.4231405
243	0x3f2a5ac6	0.6654476
244	0x3dbe3f1d	0.09289382
245	0x3e0c8c7c	0.13725466
246	0x3e24eed9	0.16106738
247	0xbd87fb7d	-0.066397645
248	0xbe22e600	-0.1590805
249	0xbd832ce7	-0.06405049
250	0xbe2189ba	-0.15775195
251	0xbda70b4c	-0.081564516
252	0x3c4acc6d	0.0123778405
253	0x3e6ac6f1	0.22927453
254	0xbf0cdd04	-0.55024743
255	0xbd8ec320	-0.06970811

w_agents.2.bias f4 [32]
0	0xbe617abe	-0.22019479
1	0x3d829440	0.06375933
2	0xbf02c4bf	-0.5108146
3	0x3ed6552d	0.4186186
4	0xbec08446	-0.37600917
5	0xbe17a232	-0.14807966
6	0xbc7be13e	-0.015373526
7	0xbcad4c02	-0.021154407
8	0xbda2bbad	-0.079459526
9	0xbe44a8ca	-0.19205013
10	0xbe2f7973	-0.17136173
11	0xbe35648d	-0.17714138
12	0x3ddb0762	0.106947675
13	0xbe12f559	-0.14351405
14	0xbd2c0d60	-0.042004943
15	0x3e672e05	0.22576149
16	0x3ebfdc32	0.37472683
17	0xbdf7e3be	-0.12103985
18	0xbe0de5b9	-0.13857163
19	0xbe114192	-0.1418517
20	0x3ccc796c	0.024960242
21	0x3e9ff01e	0.31237882
22	0xbe551175	-0.2080744
23	0x3dcd4a73	0.10023966
24	0xbe7de849	-0.24795641
25	0xbe977b4f	-0.29586264
26	0xbeaa6881	-0.33282855
27	0xbe13282e	-0.14370796
28	0xbe02d824	-0.12777764
29	0x3b8a3b7b	0.0042185164
30	0x3ee6ac28	0.4505322
31	0xbe645371	-0.22297455

Ws.0 f4 [32, 32]
0	0xbf661772	-0.89879525
1	0x3e8b8436	0.27249306
2	0x3e288d8c	0.16460246
3	0x3f33826c	0.70120883
4	0xbf240ca4	-0.6408179
5	0x3f5dd694	0.86655545
6	0xbf67583c	-0.9036901
7	0xbf853faf	-1.041006
8	0xbfdc01cb	-1.7188047
9	0x3fcaea65	1.5852782
10	0x3f9b4c0b	1.2132581
11	0xbf1b2d77	-0.6061625
12	0x3f9269e6	1.1438568
13	0x3f0b6d8e	0.5446404
14	0x3f19289f	0.5982761
15	0x3e42f41c	0.19038433
16	0x3f2caee4	0.6745436
17	0x3ee7bec3	0.45262727
18	0xbebfa6a7	-0.37431833
19	0x3f76c023	0.9638693
20	0xbe78c6b8	-0.24294555
21	0xbf4f2504	-0.80915856
22	0xbff64d3b	-1.9242319
23	0x3f89d064	1.0766721
24	0xbf978c92	-1.1839774
25	0xbfc9066b	-1.5705084
26	0xbf4dceb7	-0.80393547
27	0x3f247012	0.64233506
28	0x3f335d5b	0.70064324
29	0x3fd97f2a	1.6991932
30	0x3e3b8766	0.18313369
31	0xbe788a7a	-0.24271575
32	0x3f8453e7	1.0338105
33	0xbedabe5d	-0.4272336
34	0xbce6c6cf	-0.028170971
35	0xc0b1155f	-5.533859
36	0xbfe5293a	-1.7903206
37	0xbf8cd8ee	-1.1003702
38	0xbee5e085	-0.44897857
39	0x3ebaf7e6	0.36517256
40	0x3d12d937	0.035851683
41	0x3ece182e	0.40252823
42	0x3ebc4875	0.3677403
43	0xbe0f4942	-0.1399279
44	0x3f3c9ffc	0.73681617
45	0xbe751777	-0.23934732
46	0x3e1ac65f	0.15114735
47	0xbf68f5cf	-0.91000074
48	0xbf0702bf	-0.52738565
49	0xbf14a34e	-0.58061683
50	0xbfadbdd7	-1.357356
51	0xbf34e40c	-0.7066047
52	0x3faa2176	1.3291461
53	0xbd2e7d76	-0.042600118
54	0x3ecad0cf	0.39612433
55	0x3dd8b6d1	0.105817445
56	0x3fd38faa	1.6528218
57	0xbeab4120	-0.33448124
58	0x3ea695f1	0.3253627
59	0x3f3a295d	0.72719365
60	0xbd973ae6	-0.07384281
61	0xc029e2cf	-2.6544683
62	0xbfd750a0	-1.682148
63	0xbfad6334	-1.3545899
64	0x3f18cb58	0.5968528
65	0x3ed3cfd7	0.41369507
66	0x3c3dcb96	0.011584183
67	0x3f2f6623	0.68515223
68	0x3fa4db77	1.2879475
69	0x3e42b4cf	0.19014286
70	0xbfbdb80d	-1.4821793
71	0x40292c99	2.643347
72	0xbe4c469b	-0.19948809
73	0x3feedc50	1.8660984
74	0xbf40009e	-0.7500094
75	0xbd0a9f62	-0.033843406
76	0xbdd35bb0	-0.103202224
77	0x3f6e98e9	0.9320207
78	0xbe4ae764	-0.19814831
79	0xbff3f922	-1.9060404
80	0xbee7ea89	-0.45296124
81	0x3ed8f7a2	0.4237643
82	0x3d22d3a5	0.03975262
83	0x4020421a	2.5040345
84	0xbf8ca209	-1.0986949
85	0xbf0d114f	-0.55104536
86	0xbf8e701d	-1.1127964
87	0x3f916a61	1.1360589
88	0x3df47c02	0.11937715
89	0x3eb0bf96	0.34521168
90	0xbe7e0c5e	-0.24809405
91	0x3f8b48cd	1.0881592
92	0x3da365e5	0.07978419
93	0xc02ebf2f	-2.730419
94	0xbf859f5e	-1.043926
95	0xbf017fea	-0.50585806
96	0xbf128f3b	-0.572498
97	0x3f6f1668	0.93393564
98	0x3ea3b0cf	0.31970832
99	0xbf5c5aef	-0.86076254
100	0xbffe752a	-1.9879506
101	0x3f042712	0.51622117
102	0x3ef86ae7	0.4851906
103	0x3ee76433	0.45193633
104	0x3dba5f49	0.091002055
105	0xbfa4d5dc	-1.2877765
106	0x3f083574	0.53206563
107	0x3e6a0d59	0.22856654
108	0xbe00e787	-0.1258832
109	0xbfffb3e1	-1.997677
110	0xbc2664c7	-0.010155863
111	0xc0184399	-2.3791258
112	0xbf28a7c8	-0.65881014
113	0x3f8c812d	1.0976921
114	0xbf84fc60	-1.0389519
115	0x3f1ed0e1	0.62037474
116	0xbfd5ea0b	-1.6712049
117	0xbf4ba85d	-0.79553777
118	0x3ebc3c0d	0.36764565
119	0xbe806e62	-0.25084215
120	0x3eba61f9	0.36402872
121	0x3f93868f	1.1525439
122	0x3ec8d7f5	0.39227262
123	0x3ef1bf41	0.47216228
124	0x3f22c047	0.6357464
125	0xbfd1ecf0	-1.6400433
126	0x3faa1735	1.3288332
127	0x3f1b5bb6	0.60686815
128	0x3f9d7d93	1.2303947
129	0xc056b700	-3.3549194
130	0xc0026aa0	-2.0377579
131	0x3ec661b0	0.38746405
132	0xbf22df51	-0.63622004
133	0x3fb954c5	1.4478995
134	0xbf6ce2a5	-0.9253333
135	0xbf0e31e6	-0.5554489
136	0xc00a7aef	-2.1637533
137	0x3f62f7a5	0.88659126
138	0x3ff803ea	1.9376194
139	0x3ef461ee	0.47730964
140	0xbf54810d	-0.83009416
141	0xbf1acf8c	-0.6047294
142	0xbe9793ce	-0.29604954
143	0x3f57170d	0.8401955
144	0x3f8880c1	1.0664293
145	0x3f0ef7cd	0.55846864
146	0x3f303881	0.6883622
147	0x3fb7ce9a	1.4359925
148	0x3f2122a1	0.62943465
149	0xbf8e1512	-1.110018
150	0xbfdf8bd6	-1.746455
151	0x3d28a896	0.0411764
152	0x3fb4d10d	1.4126297
153	0x3eb20139	0.34766558
154	0xbe5963ca	-0.21229473
155	0xbf4d33e7	-0.8015732
156	0x3e7195df	0.23592328
157	0x3fbe45bd	1.4865032
158	0x3f017d68	0.5058198
159	0x3eab44c4	0.33450902
160	0xc01480a0	-2.3203506
161	0xbfbe3aa9	-1.4861652
162	0xbf8962f5	-1.0733324
163	0xbf9c4f0a	-1.2211621
164	0x3fa00f5e	1.250469
165	0x3faa5850	1.3308201
166	0x3f9aa193	1.2080559
167	0xbd51da38	-0.0512335
168	0x3faebfb2	1.3652251
169	0x3ee544e3	0.4477912
170	0xbf211b64	-0.6293242
171	0xbf038eb9	-0.5138965
172	0x3fb2ac59	1.3958846
173	0x3f080481	0.5313187
174	0xbf1392b0	-0.576457
175	0xbea96ec7	-0.3309233
176	0xbf8917ae	-1.0710351
177	0xbe93f28a	-0.2889598
178	0xbe6e81b8	-0.23291671
179	0x3ed81e10	0.42210436
180	0x3f4c4b16	0.7980207
181	0x3e1c997d	0.15292926
182	0xbfc6efff	-1.5541991
183	0xbf8986e9	-1.0744296
184	0xbd1d2b86	-0.038371585
185	0xbe57d323	-0.21076636
186	0xbe53fe41	-0.20702459
187	0xbfe181bb	-1.7617716
188	0xbf9ec595	-1.2404047
189	0xc0566f2b	-3.3505352
190	0x3f9c74ae	1.2223108
191	0x3d424682	0.047430523
192	0x3f352049	0.7075239
193	0x3f7c3979	0.98525196
194	0x3f40795a	0.7518517
195	0xc09a05cd	-4.813208
196	0xc056392d	-3.3472397
197	0xbf4a22a6	-0.7895912
198	0xbfa14ea1	-1.2602121
199	0xbdf818ac	-0.12114081
200	0x3f7c8360	0.9863796
201	0xbf0170a6	-0.5056251
202	0x3febd5d1	1.8424627
203	0xbe500490	-0.2031424
204	0x3d0d2862	0.03446234
205	0xbfd31d85	-1.6493384
206	0x400d7fa4	2.2109156
207	0xc0d05f00	-6.5115967
208	0x3ed91455	0.42398325
209	0xbf051d62	-0.5199796
210	0x3eef28d3	0.46710834
211	0xc0067b0a	-2.1012597
212	0xbfa03a0b	-1.2517713
213	0xbfedb146	-1.8569725
214	0x3ea93b09	0.33052853
215	0x3f704c50	0.93866444
216	0x4004a722	2.072701
217	0xbf9fcf12	-1.2485068
218	0xbf1ba60c	-0.6080024
219	0xc02c9144	-2.6963663
220	0x3fa54ff2	1.2915022
221	0x3f953a13	1.1658348
222	0x3e5d7a95	0.21628793
223	0xbfac98c1	-1.3484117
224	0x3f5cad22	0.8620168
225	0x3ea87b52	0.32906586
226	0xbf99eb51	-1.2024938
227	0xbf54bbf8	-0.8309932
228	0x3e8a6c71	0.2703586
229	0xbfc67b5b	-1.5506395
230	0x3d973a42	0.07384159
231	0x3f2c5045	0.6730998
232	0x3f59aa94	0.85025907
233	0x3ef100ca	0.47070915
234	0xbdda9563	-0.106730245
235	0x3f4de9b5	0.80434734
236	0xc01f0f34	-2.485303
237	0x3f4240a0	0.7587986
238	0x3fb93bcf	1.4471377
239	0xbf371431	-0.71515185
240	0xc03c269b	-2.9398563
241	0xbe8938a6	-0.26801032
242	0xbfbfbcca	-1.4979489
243	0xc076e38c	-3.8576384
244	0xbfacce77	-1.3500508
245	0xbed57910	-0.41693926
246	0x3f697a1c	0.9120195
247	0xbf35808c	-0.7089927
248	0xbf0c085b	-0.5470025
249	0x3f59e61e	0.85116756
250	0x3e518b2a	0.20463243
251	0xbead336d	-0.33828297
252	0x3ef46e44	0.47740376
253	0xbff1114d	-1.8833405
254	0xbfd95233	-1.697821
255	0xbf8f3835	-1.1189028
