crowd_nav/data/rl_model_2.pth (torch_old, 93650 bytes, 18 tensors)

w_a f4 [32, 32]
0	0xbf4073d8	-0.75176764
1	0xbfed0603	-1.851746
2	0x3f18f1b9	0.5974384
3	0xbf2cb2f2	-0.6746055
4	0x3e4b8c2b	0.19877689
5	0xbfe07452	-1.7535498
6	0xbf84ce6b	-1.0375494
7	0xbe0c3b58	-0.13694513
8	0xbfc06780	-1.5031586
9	0x3cc3ff43	0.02392543
10	0xbf7e2bfc	-0.99285865
11	0x3d385c26	0.045009755
12	0xbd845bba	-0.06462808
13	0x3fa09984	1.2546849
14	0x3f6d0349	0.9258314
15	0x3e180bb5	0.14848216
16	0x3fa7f2aa	1.312093
17	0xbe8c2dc3	-0.27378663
18	0xbe2efe5f	-0.17089222
19	0x3f0bc67a	0.54599726
20	0x3e4803fb	0.19532768
21	0xc00e40b1	-2.2226985
22	0x3e08fbb2	0.13377264
23	0x3fa872d6	1.3160045
24	0x3ff428bc	1.9074931
25	0xbeede283	-0.46461877
26	0xbe0f6cba	-0.1400632
27	0x3f94d4e0	1.1627464
28	0x3fccac08	1.599
29	0xbcd0f64c	-0.025508069
30	0xbe50320a	-0.20331588
31	0xbf4e1fc2	-0.8051721
32	0xbfb9f1f1	-1.452696
33	0x3f0d6efe	0.55247486
34	0xbfa8c797	-1.318591
35	0x3f961999	1.1726562
36	0xbe6e1a16	-0.23252138
37	0xbe07a54f	-0.13246654
38	0xbf4026a9	-0.7505899
39	0xbfe70063	-1.8046993
40	0x3e3d3a49	0.18479265
41	0xbd6b81b4	-0.05749674
42	0x3e630431	0.22169568
43	0xbf89fe91	-1.0780813
44	0xbf948dab	-1.1605734
45	0xbd3abd5a	-0.045590736
46	0xbe7209cf	-0.23636554
47	0x400abe6f	2.1678731
48	0x3f97fa4c	1.187326
49	0x40006c87	2.006624
50	0x3e951e6a	0.29124767
51	0x3fd61c5b	1.6727403
52	0xbf320662	-0.6954099
53	0x3e0653c5	0.13117893
54	0xbe704cc5	-0.23466785
55	0x3f7ae54f	0.9800615
56	0x3f15ed81	0.5856553
57	0xbfc490d5	-1.5356699
58	0x40112eb4	2.2684755
59	0x3f8c078c	1.0939803
60	0xbeeb805e	-0.45996374
61	0xbe835135	-0.25647894
62	0x3ed82c92	0.42221504
63	0x3f26fbda	0.65228045
64	0xbf68cedc	-0.9094064
65	0x3e63c7f0	0.22244239
66	0x3fc1423b	1.5098337
67	0xbfd98dc3	-1.6996387
68	0xbf07adfd	-0.5299986
69	0xc080195f	-4.003097
70	0x3fe9dda0	1.827076
71	0xc0186ce5	-2.3816464
72	0x3e92530f	0.28578994
73	0x3e73204a	0.23742786
74	0xbcc81010	-0.024421722
75	0x3f0d3e5d	0.55173284
76	0xc004cd2b	-2.0750225
77	0xc0129cb6	-2.2908149
78	0x3d0802ed	0.033205915
79	0x3fb47b00	1.4100037
80	0xbed65a30	-0.41865683
81	0xbfd894b0	-1.6920376
82	0x3ed77619	0.4208229
83	0xbe4e41db	-0.2014231
84	0x40159acd	2.3375733
85	0x3ed05f12	0.40697533
86	0x3f97580d	1.1823746
87	0x3d6850b4	0.05671759
88	0xbce42e71	-0.027854176
89	0x3f9fb295	1.2476374
90	0x3f087e0e	0.53317344
91	0xbe8439c0	-0.2582531
92	0xbf9bc100	-1.2168274
93	0xbf14a908	-0.5807042
94	0x3cbfc4a4	0.023409195
95	0x401756ef	2.364681
96	0xbf1c1266	-0.60965574
97	0xbe59cd68	-0.21269763
98	0xc00a49df	-2.1607587
99	0xbf6dde3f	-0.92917246
100	0x3eaa32a8	0.33241773
101	0x3ee2730b	0.44228396
102	0xbce3adfd	-0.027792925
103	0xbdcecfe7	-0.10098248
104	0x3eaf81a1	0.34278587
105	0xbfb62720	-1.423069
106	0x3ef4496b	0.47712263
107	0x3fd9a082	1.7002108
108	0x3eaa5b9f	0.33273026
109	0xbfc26ea6	-1.5190017
110	0xbf47f949	-0.78114754
111	0xbf2ff9c4	-0.6874049
112	0x3f3cb5a6	0.73714674
113	0x402fd62d	2.7474473
114	0xbf3cea56	-0.7379507
115	0x3e76d03e	0.24102876
116	0x3f9b89a3	1.2151378
117	0xbfcc2174	-1.5947709
118	0xbfc6b2ad	-1.5523278
119	0xbfaa6749	-1.331277
120	0x3f1a90b5	0.60377055
121	0x3fa44f7b	1.2836756
122	0xbee62273	-0.44948158
123	0x3e95e6a6	0.29277533
124	0x3e79b891	0.24386813
125	0x3faf719c	1.3706546
126	0x3f6a43cf	0.9150972
127	0xbe8a68a7	-0.27032968
128	0xbe9b590a	-0.3034137
129	0xbef12ad8	-0.47103
130	0xbf8bbc36	-1.0916812
131	0xbd26ec80	-0.040752888
132	0xbf412ce4	-0.7545912
133	0x3f6d209e	0.92627895
134	0xbea03d24	-0.31296647
135	0xbf103bfd	-0.56341535
136	0xbfd1d008	-1.6391611
137	0x3e383d00	0.1799202
138	0x3f2d5174	0.6770241
139	0xbed077a3	-0.40716276
140	0xbf872bf8	-1.0560293
141	0x3e014162	0.12622598
142	0xbf3ccd2d	-0.73750573
143	0x3f9b2b71	1.2122632
144	0xbf0c10f7	-0.54713386
145	0x3f6ff09e	0.9372653
146	0xbf79f565	-0.9764007
147	0x3eba0aa4	0.36336243
148	0xbeec6efb	-0.4617842
149	0xbf235d8a	-0.63814604
150	0x3e33fb55	0.17576344
151	0xbf105964	-0.563864
152	0xbf79dfa0	-0.9760685
153	0x3fef46ad	1.8693444
154	0x3f186240	0.5952492
155	0x3f7139d5	0.9422887
156	0xbec34ac7	-0.38142988
157	0xbeb431ea	-0.3519433
158	0x3febbf30	1.8417721
159	0xbf54af63	-0.8308012
160	0xbf1fb1e6	-0.62380826
161	0x3f77b1db	0.9675576
162	0xbf6b86fc	-0.92002845
163	0xbe2a26cf	-0.16616367
164	0xbf5e5e7d	-0.8686293
165	0xbeaaf530	-0.33390188
166	0x3fadcad8	1.3577528
167	0xbf05e7dd	-0.5230692
168	0xbf868431	-1.0509092
169	0xbeb4e80f	-0.35333297
170	0xbedf907a	-0.43664914
171	0xbf568b81	-0.83806616
172	0x3f69a93d	0.9127386
173	0xbebd5c15	-0.36984316
174	0x3ee6dc68	0.45090032
175	0xbeeee240	-0.4665699
176	0x3ef947d4	0.48687613
177	0x3edbf67b	0.42961487
178	0x3ea53148	0.3226416
179	0xbfb1f756	-1.3903606
180	0xbf12b814	-0.5731213
181	0x3ee8becb	0.45458063
182	0xc01d7413	-2.4602096
183	0x3f7c4046	0.98535573
184	0x3d00554a	0.031331338
185	0x3f308db3	0.68966216
186	0xbf7064c6	-0.9390377
187	0x3f615dd0	0.8803377
188	0x3e8728af	0.26398227
189	0xbeb02286	-0.3440134
190	0xbe932fc0	-0.28747368
191	0xbe07cd7a	-0.13261977
192	0x3f4090a2	0.7522069
193	0xbec6fbc7	-0.38863966
194	0xbfa3c819	-1.279544
195	0xbfacf192	-1.3511221
196	0xbf9be7c2	-1.2180102
197	0xbfad0ee8	-1.3520174
198	0x3dab795b	0.08372756
199	0xbf1c6aeb	-0.61100644
200	0xbf551533	-0.8323547
201	0x3faa9de1	1.3329431
202	0x3e4a013f	0.19727038
203	0x3f3ec9b2	0.7452651
204	0xc024e091	-2.5762064
205	0x3f7fe9cf	0.9996614
206	0x3fbfca77	1.4983662
207	0xbe931be0	-0.28732204
208	0x3fba0b70	1.453474
209	0x3dfbfb5e	0.12303804
210	0xbe04ff22	-0.1298795
211	0x3de8ff67	0.11376839
212	0xbf0a091d	-0.53920156
213	0xbdf8f6e6	-0.12156467
214	0xbe639b7f	-0.22227286
215	0x3f323811	0.696168
216	0xbf45c25f	-0.7724971
217	0x3e122b8c	0.14274424
218	0xbf03f520	-0.51545906
219	0x3f2687cd	0.65050966
220	0xbf1bb864	-0.6082823
221	0xbf41d8f9	-0.757217
222	0xbf3fa94c	-0.748677
223	0x3efabd59	0.48972586
224	0x3e1d7f7e	0.15380666
225	0x401dcb20	2.4655228
226	0x3b4b1aac	0.003099124
227	0x3e970b74	0.29500926
228	0x3e7a7737	0.2445954
229	0x3db6d3d5	0.089271225
230	0x3ea055fd	0.31315604
231	0x3de0d3f7	0.10977929
232	0x3ef88305	0.4853746
233	0x3e8b04a2	0.27151972
234	0x3f3c41c7	0.7353787
235	0x3faf5e8d	1.370073
236	0xbe7a8bb7	-0.2446736
237	0x3f71c142	0.94435513
238	0xbf7fd5ba	-0.99935496
239	0xbf482bc7	-0.781918
240	0x3f109a8f	0.5648584
241	0x3fe9601c	1.8232455
242	0xbe90b6a0	-0.28264332
243	0xbdc6e373	-0.09711351
244	0xbf80aa0b	-1.0051893
245	0x3ec0a191	0.37623265
246	0x3f215a29	0.630282
247	0xbf86cf09	-1.0531932
248	0x3eba8eb6	0.36437005
249	0xbbbffe04	-0.0058591384
250	0x3f3db8fe	0.741104
251	0xbf3909b3	-0.72280425
252	0x3da7cf4f	0.08193838
253	0xbf453906	-0.77040136
254	0x3f57db97	0.8431944
255	0x3f3fa7b9	0.748653

w_group.0.weight f4 [64, 8]
0	0xbdcda20c	-0.100406736
1	0xbc32a9a7	-0.010904706
2	0x3f913aa4	1.1346021
3	0xbf75df1a	-0.9604355
4	0xbeaa676b	-0.33282027
5	0xbedd2a72	-0.43196446
6	0xbe257126	-0.16156444
7	0xbede4b90	-0.43417025
8	0xbe48bdf6	-0.19603714
9	0xbe10de7a	-0.14147368
10	0xbf284335	-0.6572755
11	0xbf8541de	-1.0410726
12	0xbe55596a	-0.2083489
13	0xbf18036f	-0.5938024
14	0xbf79bb51	-0.9755145
15	0xbf13612c	-0.5757015
16	0xbe90c9ff	-0.2827911
17	0xbe7233c8	-0.23652565
18	0x3f982658	1.1886702
19	0xbd643f4b	-0.055724423
20	0xbe92a9e6	-0.28645247
21	0xbf3f7492	-0.7478725
22	0x3d29f060	0.041489005
23	0xbf4cb5db	-0.7996499
24	0x3e0a434d	0.13502236
25	0x3e72e1bc	0.23718923
26	0x3f426626	0.75937116
27	0xbeffba37	-0.49946758
28	0xbe8ecbc8	-0.27889848
29	0x3f0098eb	0.50233334
30	0xbf2b5aed	-0.66935617
31	0x3eff6630	0.4988265
32	0xbd9eb733	-0.07749786
33	0x3ed21106	0.41028613
34	0x3eb5777d	0.35442725
35	0x3ef29773	0.47381172
36	0x3e4d2696	0.2003425
37	0x3e8b0443	0.2715169
38	0xbdc90dc0	-0.09817076
39	0xbd2ac197	-0.041688528
40	0xbd1db212	-0.0384999
41	0xbc55e06b	-0.013053994
42	0xbd5f5cc8	-0.054531842
43	0xbddf560d	-0.10905085
44	0xbda1fbb8	-0.0790934
45	0x3d42ee97	0.04759082
46	0xbeb07ab6	-0.3446862
47	0xbeda3e64	-0.42625725
48	0xbe81a807	-0.25323507
49	0xbcbb98d7	-0.022900028
50	0x3f9b7686	1.2145545
51	0x3f879735	1.059302
52	0x3dbf5260	0.09341884
53	0xbf210cdd	-0.6291025
54	0xbf36c468	-0.7139344
55	0xbeec7637	-0.4618394
56	0x3e38dca6	0.1805292
57	0xbd8b487b	-0.06800934
58	0x3eac6c37	0.3367631
59	0xbf84dd7f	-1.0380095
60	0x3e8bc99b	0.2730225
61	0xbf2eb7fc	-0.6824949
62	0xbe6548f3	-0.22391109
63	0xbf314ddd	-0.69259435
64	0xbde52b85	-0.11189941
65	0xbd630c29	-0.05543152
66	0xbf21cb95	-0.63201267
67	0x3f38fb29	0.7225824
68	0x3c637960	0.0138839185
69	0xbf1ecb84	-0.6202929
70	0xbe8a87fa	-0.27056867
71	0xbe9c9a02	-0.3058625
72	0xbd7eb7b0	-0.062186897
73	0xbc2f2295	-0.010689397
74	0xbef75fbe	-0.48315233
75	0x3c7aee13	0.01531555
76	0x3e97b101	0.2962723
77	0xbe37a4c5	-0.17933948
78	0xbeb0b527	-0.34513208
79	0xbf243ae1	-0.6415234
80	0xbedc7054	-0.4305445
81	0x3ebc5568	0.3678391
82	0xbd19240f	-0.037387904
83	0x3e659abe	0.2242231
84	0x3ea723ef	0.32644603
85	0xbee741af	-0.451673
86	0x3f9c07f0	1.2189922
87	0xbe10db60	-0.14146185
88	0xbebb5fa0	-0.36596394
89	0x3e4b0a69	0.1982819
90	0x3e53c028	0.2067877
91	0x3ed05575	0.406902
92	0xbe2d6964	-0.16934735
93	0xbec8e5fa	-0.39237958
94	0xbf35ecbc	-0.71064353
95	0xbef5026b	-0.47853407
96	0x3e3fb335	0.18720706
97	0xbd9f9ef9	-0.077939935
98	0xbece9747	-0.4034979
99	0x3f4b9512	0.7952434
100	0xbe0f5a2b	-0.1399924
101	0xbf307109	-0.6892248
102	0x3e6e49a3	0.23270278
103	0xbf56dc3a	-0.8392979
104	0x3e8a81de	0.27052206
105	0x3e8d6cb9	0.2762201
106	0xbe72ee47	-0.23723708
107	0x3d74cf1d	0.05976783
108	0xbe1d6e4a	-0.15374103
109	0xbef2edc5	-0.4744703
110	0xbf9c8a2a	-1.2229664
111	0xbf3f6184	-0.7475817
112	0xbea6e1ce	-0.3259415
113	0xbe4e8bd6	-0.2017053
114	0xbfce4ab7	-1.6116551
115	0x3e2f1eb4	0.17101556
116	0x3e678e72	0.22612932
117	0xbe8642df	-0.26222894
118	0xbfc36af0	-1.526701
119	0xbede562c	-0.4342512
120	0xbda34db5	-0.07973806
121	0x3e3582b1	0.17725636
122	0xbf35a59e	-0.70955837
123	0xbf018c23	-0.50604457
124	0x3d041740	0.032248735
125	0x3e2c995e	0.1685538
126	0xbfe68999	-1.8010741
127	0xbea39bd8	-0.31954837
128	0xbdcefb0f	-0.101064794
129	0xbd807fe8	-0.06274396
130	0xbead00cf	-0.3378968
131	0xbf4e72bb	-0.80643815
132	0x3df969f4	0.12178412
133	0xbf4e176b	-0.80504483
134	0x3f2d718b	0.6775138
135	0xbee4752d	-0.44620648
136	0x3cd5c38c	0.02609422
137	0x3f3f252d	0.746661
138	0x3eba3eb0	0.36375952
139	0xbfbb9d95	-1.4657465
140	0xbe92330c	-0.2855457
141	0xbe9b8afb	-0.3037947
142	0xbf6fba20	-0.9364338
143	0xbdde250e	-0.10846911
144	0x3e8c07d7	0.2734973
145	0x3f052262	0.5200559
146	0xbe1f331c	-0.1554684
147	0x3ed52e69	0.4163697
148	0xbe677f6d	-0.22607203
149	0xbe208253	-0.15674715
150	0x3f408be2	0.75213444
151	0x3d0532d6	0.032519184
152	0xbe838df6	-0.25694245
153	0x3e95bc0b	0.29245028
154	0xbf7957d4	-0.9739964
155	0x3f179f66	0.592276
156	0x3eae4b55	0.3404185
157	0x3e054042	0.13012794
158	0xbf1a6056	-0.60303247
159	0xbdb76bb2	-0.08956088
160	0x3e251ea3	0.16124968
161	0xbe20ebd1	-0.15714957
162	0x3f426421	0.75934035
163	0x3f7e0ad1	0.99235255
164	0xbe4c79bc	-0.19968313
165	0xbda11ec1	-0.07867194
166	0xbfb56c23	-1.4173626
167	0xbf124e77	-0.5715098
168	0xbdd7416e	-0.105105266
169	0xbd7755de	-0.060384624
170	0x3f79db81	0.9760056
171	0xbe81fff0	-0.25390577
172	0xbe9ddd4d	-0.30832902
173	0xbee4c387	-0.44680426
174	0xbf35c05c	-0.7099664
175	0xbf2b4880	-0.669075
176	0x3dab1a68	0.08354646
177	0xbd742b18	-0.05961141
178	0x3f33e0a4	0.7026465
179	0xbf472d97	-0.7780394
180	0xbeafde3d	-0.34349242
181	0xbf3e599c	-0.74355483
182	0x3f0905ec	0.5352466
183	0xbedf59fa	-0.43623334
184	0x3ebe56b6	0.3717553
185	0x3d8d53b4	0.06900731
186	0xbd9c6513	-0.07636466
187	0x3e3dafac	0.18524045
188	0x3c8f8fd0	0.01752463
189	0x3e52b167	0.20575486
190	0x3e3bd2e9	0.18342175
191	0x3e891e82	0.26781088
192	0x3e73f7e8	0.23825037
193	0x3e198303	0.14991383
194	0x3e56b265	0.2096649
195	0xbd42e626	-0.047582768
196	0xbd65b8d8	-0.056084484
197	0xbecd4fca	-0.40099937
198	0xbe81964a	-0.25309974
199	0xbf112cc2	-0.5670892
200	0x3ded7105	0.115938224
201	0xbe921a90	-0.2853589
202	0xbd142a4a	-0.036173142
203	0x3f9bb7fc	1.2165523
204	0x3e3f90e2	0.18707612
205	0xbe2adae1	-0.16685058
206	0xbf6c0375	-0.92192775
207	0x3d307715	0.043082315
208	0x3ed1f4aa	0.41006976
209	0x3e75762b	0.23970859
210	0xbf83e447	-1.030404
211	0xbf86e50b	-1.0538648
212	0x3d363a50	0.044489205
213	0x3e07a5eb	0.13246886
214	0xbe5abb1d	-0.2136044
215	0x3e26af56	0.16277823
216	0x3e338b75	0.17533667
217	0x3f8e8d0c	1.1136794
218	0x3ec7c165	0.39014736
219	0x3dd918f2	0.10600461
220	0xbe4075cc	-0.18794936
221	0xbebb7d87	-0.36619207
222	0xbef8fef0	-0.48632002
223	0xbe43fa0b	-0.19138353
224	0x3e87997d	0.2648429
225	0xbe65098a	-0.2236692
226	0xbfbffebd	-1.4999615
227	0x3f52fb05	0.82414275
228	0x3df3b674	0.119000345
229	0xbf5d386e	-0.8641423
230	0x3d3cef96	0.046126924
231	0xbf4857ea	-0.78259146
232	0xbd4cfab1	-0.050043765
233	0xbd9228c3	-0.07136681
234	0x3f97ff33	1.1874756
235	0xbe896b18	-0.2683952
236	0xbe950ae8	-0.29109883
237	0xbe33f579	-0.17574109
238	0xbf9cac32	-1.224005
239	0xbed7e273	-0.42164955
240	0xbe29c604	-0.16579443
241	0x3eae4df4	0.3404385
242	0xbf806779	-1.0031577
243	0xbed2e092	-0.4118696
244	0xbe9f2e0d	-0.3108982
245	0xbf444b97	-0.7667784
246	0x3f2454e9	0.6419206
247	0xbe98629e	-0.2976274
248	0xbdcdd3ca	-0.10050161
249	0xbdc04825	-0.093887605
250	0xbf7c95f1	-0.9866629
251	0x3f8fa160	1.1221123
252	0xbe211102	-0.15729144
253	0xbee28bae	-0.44247192
254	0xbf6952d7	-0.9114203
255	0xbee1b080	-0.4407997

w_group.0.bias f4 [64]
0	0xbf431a2f	-0.7621183
1	0xbf236cbd	-0.63837796
2	0xbf4e9e13	-0.8070995
3	0xbd5667e3	-0.052345168
4	0xbe23f9ed	-0.16013308
5	0xbf136857	-0.57581085
6	0xbef46fa5	-0.47741428
7	0xbf4bc26f	-0.7959356
8	0xbf04cd4d	-0.51875764
9	0xbec4601c	-0.38354576
10	0xbee96ea8	-0.45592237
11	0xbf387681	-0.7205582
12	0xbf4d0f56	-0.80101526
13	0xbf02c4c0	-0.51081467
14	0xbe4789d3	-0.1948617
15	0x3e6a952f	0.22908472
16	0xbefc8da1	-0.49326804
17	0x3de6df08	0.112730086
18	0xbeb8d2db	-0.3609837
19	0x3e7e2d51	0.24821974
20	0xbf0fb5e0	-0.56136894
21	0xbf2e74b0	-0.681468
22	0xbf44ab54	-0.76823926
23	0xbdb0b68f	-0.0862857
24	0xbf47535e	-0.77861583
25	0xbe94f4f3	-0.2909313
26	0xbe156a80	-0.14591408
27	0xbe7028b1	-0.23453023
28	0xbe6d7cb1	-0.23192097
29	0xbe82a811	-0.2551885
30	0xbeac171a	-0.33611375
31	0xbefa97cc	-0.48943937
32	0x3df4d780	0.11955166
33	0xbcd0e6b2	-0.02550063
34	0xbdb7bd18	-0.08971614
35	0xbea438af	-0.32074496
36	0xbf2255f8	-0.6341243
37	0x3dcc434d	0.09973774
38	0xbe522ccd	-0.20524903
39	0xbf31f1c6	-0.6950954
40	0x3ca152c4	0.019692786
41	0xbcecf3c4	-0.02892483
42	0xbece02ae	-0.4023642
43	0xbdbb524c	-0.09146556
44	0xbe2fd611	-0.17171504
45	0xbeb09441	-0.3448811
46	0xbe8babce	-0.27279514
47	0xbe41963b	-0.18904965
48	0xbf388f93	-0.72094077
49	0x3dd5498c	0.104144186
50	0xbe5b215c	-0.21399444
51	0xbf292f2b	-0.660876
52	0xbf14a6bc	-0.58066916
53	0xbef9aa03	-0.4876252
54	0x3de35512	0.1110021
55	0xbf0fa91f	-0.56117433
56	0xbe536229	-0.20642914
57	0xbf13a036	-0.5766634
58	0xbe8d2b72	-0.2757221
59	0x3d98912e	0.07449566
60	0xbc80982c	-0.015697561
61	0xbf0fed72	-0.5622169
62	0xbe978679	-0.29594782
63	0xbebc1427	-0.36734125

w_group.2.weight f4 [32, 64]
0	0x3d8a87ab	0.06764158
1	0xbe9e1858	-0.30877948
2	0xbdbaa291	-0.09113038
3	0xbeecea3d	-0.4627246
4	0xbdc1dd13	-0.09465995
5	0x3d8d9fe4	0.06915262
6	0xbdb2640a	-0.08710487
7	0x3de1e017	0.1102907
8	0xbe14d1cf	-0.1453316
9	0xbcff2d00	-0.031149387
10	0x3e2beefb	0.16790383
11	0x3dcea931	0.100908644
12	0xbe1e4e07	-0.15459453
13	0x3ebe3663	0.3715087
14	0x3eb66dc9	0.35630634
15	0xbb760299	-0.003753817
16	0x3d5c345c	0.05376087
17	0xbe4cacaa	-0.19987741
18	0x3ecdc4ec	0.40189302
19	0xbe0352ef	-0.12824605
20	0xbee1f45d	-0.44131747
21	0xbe790b0c	-0.2432062
22	0xbe39162b	-0.18074863
23	0xbe603330	-0.21894526
24	0x3ead27af	0.3381934
25	0xbd07f3bd	-0.03319143
26	0x3e240ed7	0.16021286
27	0x3f11499d	0.5675295
28	0x3f07e0af	0.53077215
29	0xbf01505d	-0.5051325
30	0x3f21da95	0.63224155
31	0x3c81f0b5	0.015861848
32	0xbe989fed	-0.29809514
33	0xbf4f2961	-0.80922514
34	0xbdd67bbe	-0.10472821
35	0xbf170a68	-0.59000254
36	0x3deb602b	0.11492952
37	0xbd3fc11b	-0.04681502
38	0x3c3ad6b2	0.011403726
39	0x3cebb188	0.028771177
40	0xbe659d53	-0.22423296
41	0xbe4ca895	-0.19986184
42	0xbaef2de0	-0.0018247925
43	0xbf4021ed	-0.75051767
44	0x3e4c9e8b	0.19982354
45	0xbe2dc3ec	-0.1696927
46	0x3ea3ccb1	0.31992105
47	0x3e5a1530	0.21297145
48	0x3f3ac37b	0.7295453
49	0xbe5b346e	-0.21406719
50	0xbd1f7d89	-0.03893808
51	0x3ebdd916	0.37079686
52	0xbf72337a	-0.94609797
53	0x3f88a719	1.0675994
54	0xbd93177f	-0.07182216
55	0x3c1e163f	0.009648859
56	0x3e601af0	0.21885276
57	0x3e9f0e20	0.31065464
58	0xbdcd051a	-0.10010739
59	0xbdb230bf	-0.08700704
60	0xbe206b97	-0.15666042
61	0xbe2023c5	-0.15638645
62	0xbddc68de	-0.10762189
63	0xbdfc0607	-0.12305837
64	0x3f156a49	0.58365303
65	0x3eeb5bcc	0.45968473
66	0x3e87d94d	0.26532975
67	0xbe35117e	-0.17682454
68	0xbe7c663f	-0.24648379
69	0x3e01a91e	0.1266217
70	0xbdf32afd	-0.11873434
71	0x3eaa1573	0.3321949
72	0x3d08843c	0.033329234
73	0xbc482ce0	-0.01221773
74	0x3e56d2b7	0.20978819
75	0x3e22fef0	0.15917563
76	0xbe16d169	-0.14728321
77	0x3ca9acc7	0.02071227
78	0x3e592911	0.21207072
79	0x3e2bbef3	0.1677206
80	0x3ec1910b	0.37805972
81	0x3e84c82c	0.2593397
82	0xbe00b2a1	-0.12568142
83	0xbf05958d	-0.5218132
84	0xbe933774	-0.28753245
85	0x3e82f2d2	0.25575882
86	0x3e96a3e6	0.2942192
87	0xbed9eb03	-0.42562112
88	0xbc06aa84	-0.008219365
89	0x3e23294c	0.15933722
90	0x3d34c26d	0.04413073
91	0x3da29d6d	0.07940183
92	0xbe3d2a0e	-0.18473074
93	0x3ea99b37	0.33126232
94	0xbf12068e	-0.5704125
95	0xbc43313f	-0.011913597
96	0xbeb2c94f	-0.3491921
97	0xbf15704f	-0.58374494
98	0xbe6c3b8d	-0.23069592
99	0x3db43f24	0.088011056
100	0xbe554bc5	-0.20829685
101	0x3eb8ef42	0.3612004
102	0x3b00a487	0.0019629316
103	0x3cf4c19a	0.029877473
104	0x3e445111	0.1917155
105	0x3e96a803	0.29425058
106	0xbda490fc	-0.08035466
107	0xbec58f92	-0.38586098
108	0xbef8cf14	-0.48595488
109	0xbdaede71	-0.08538521
110	0x3c63606b	0.013877968
111	0xbf144f6f	-0.57933706
112	0x3e9802c2	0.29689604
113	0xbdb06047	-0.086121134
114	0xbaaa038d	-0.0012971029
115	0x3e2b1d6b	0.16710441
116	0xbf40c594	-0.7530148
117	0x3ec90c2e	0.39267105
118	0x3e3dc997	0.18533932
119	0xbe021bfc	-0.12705988
120	0xbd2c76b1	-0.04210538
121	0xbf23a6be	-0.63926303
122	0x3d6aab15	0.057292063
123	0x3dabe5a0	0.08393407
124	0xbdb6f72b	-0.08933862
125	0x3d36b042	0.044601686
126	0x3d692980	0.056924343
127	0xbe052108	-0.13000882
128	0xbddf5f9e	-0.109069094
129	0x3dd6c767	0.10487252
130	0xbd7b0eb1	-0.061293308
131	0xbed5bbc5	-0.4174482
132	0xbdd1c3b7	-0.10242408
133	0x3d98a62f	0.07453572
134	0x3cef7edd	0.029235298
135	0x3d4cc623	0.049993645
136	0x3de78ada	0.11305781
137	0xbdf1bfaf	-0.11804139
138	0x3d13a8bd	0.036049593
139	0xbe31f741	-0.17379476
140	0xbdecee4f	-0.11568891
141	0xbde7598f	-0.11296379
142	0x3e1cc6ba	0.15310183
143	0xbe6da578	-0.23207653
144	0xbcc86bc1	-0.024465444
145	0xbdc21979	-0.09477515
146	0x3bce2da4	0.006292062
147	0xbd55825e	-0.05212628
148	0xbe224c92	-0.15849522
149	0x3e0a741b	0.13520853
150	0x3df3d20e	0.11905299
151	0xba94b39c	-0.0011345032
152	0xbe2a98df	-0.16659878
153	0xbdeda004	-0.11602786
154	0x3dc97349	0.09836442
155	0xbe43f799	-0.1913742
156	0xbd23a869	-0.03995553
157	0xbdc70085	-0.09716896
158	0x3cf16441	0.02946675
159	0xbe0a5f34	-0.1351288
160	0xbda0e0fd	-0.07855413
161	0xbd86084f	-0.065445535
162	0x3c3a9dde	0.0113901775
163	0xbdd9206e	-0.106018886
164	0xbdbfd4f5	-0.0936679
165	0xbe6e2a19	-0.23258246
166	0xbe232a3e	-0.15934083
167	0xbe325493	-0.17415075
168	0xbe1751fa	-0.14777365
169	0xbba00e5d	-0.0048845247
170	0x3de2c726	0.11073141
171	0x3d208fa9	0.039199505
172	0xbe456e95	-0.19280465
173	0x3d8460b8	0.0646376
174	0xbdcc3a26	-0.099720284
175	0x3e3e67ee	0.18594334
176	0xbc9dd592	-0.019266877
177	0xbb2eb9f9	-0.0026661141
178	0xbcee6b2a	-0.029103834
179	0xbe67ad24	-0.22624642
180	0x3d4564bb	0.048191767
181	0x3c93dc3c	0.018049352
182	0xbec86a07	-0.39143392
183	0x3d9fbda8	0.07799846
184	0x3d2d911c	0.042374715
185	0xbd6a437d	-0.057193268
186	0x3d04c4a9	0.032414112
187	0xbe90ff98	-0.28320003
188	0x3dabbaf1	0.083852656
189	0xbd5c8cb0	-0.053845108
190	0xbda1ed70	-0.07906616
191	0xbd20ed28	-0.03928867
192	0x3d6c95ec	0.057760164
193	0xbe53fac8	-0.20701134
194	0x3d989c7c	0.07451722
195	0xbebe7d55	-0.37204996
196	0xbda37b72	-0.0798253
197	0xbd98f36e	-0.074683055
198	0xbde20570	-0.11036193
199	0xbe225815	-0.15853913
200	0xbdd65f97	-0.10467451
201	0xbe02d8b8	-0.12777984
202	0xbd9bdc28	-0.07610351
203	0x3b9921be	0.004673212
204	0x3d929558	0.07157391
205	0xbe52b866	-0.20578155
206	0xbea00458	-0.31253314
207	0xbe624c43	-0.22099404
208	0xbd922208	-0.07135397
209	0x3cf72caa	0.030172665
210	0xbe2fc8bb	-0.17166416
211	0xbe38e674	-0.18056661
212	0xbc284743	-0.010270896
213	0x3c54e9f6	0.012995234
214	0xbd6b50de	-0.057450168
215	0xbe538890	-0.20657563
216	0xbc8987c4	-0.01678837
217	0xbd24f95b	-0.040276866
218	0xbe8652aa	-0.26234943
219	0xbea86aef	-0.32894084
220	0x3d9d5def	0.07683932
221	0xbe597531	-0.21236111
222	0xbd857420	-0.0651629
223	0x3d8e9321	0.06961656
224	0xbd4fd7b9	-0.05074284
225	0x3c6b27e1	0.01435277
226	0x3aac8d88	0.0013164738
227	0xbd20c3ee	-0.039249353
228	0x3dd1bcdb	0.102410994
229	0xbde36747	-0.11103683
230	0x3cae698a	0.02129056
231	0x3dc07da4	0.09398964
232	0xbe4e2b64	-0.2013374
233	0xbda30428	-0.07959777
234	0x3d4db5b4	0.050222114
235	0x3d6d0b9d	0.057872403
236	0xbe076b2a	-0.13224474
237	0x3dbf14ed	0.09330163
238	0xbe9b9bf5	-0.30392423
239	0x3d9bf314	0.07614723
240	0x3e2d4dc7	0.16924201
241	0x3ddfbaac	0.10924277
242	0x3dc5e9e3	0.09663751
243	0x3df3c4d7	0.119027786
244	0x3d157b61	0.036494616
245	0x3e9238b0	0.28558874
246	0xbe2c69cb	-0.16837232
247	0x3caa66f0	0.020801038
248	0x3d69d20d	0.057085086
249	0x3d6316ba	0.055441596
250	0x3ad30166	0.0016098439
251	0xbe44c779	-0.19216718
252	0x3d6e5083	0.05818225
253	0xbe1eeae5	-0.15519293
254	0x3da2a220	0.07941079
255	0xbdc757ed	-0.097335674

w_group.2.bias f4 [32]
0	0xbf3e499e	-0.7433108
1	0xbebef55e	-0.37296575
2	0xbcf8033d	-0.030274982
3	0xbeb1ec05	-0.3475038
4	0x3ef09e38	0.4699571
5	0x3d7a66f4	0.06113334
6	0xbe5e01f1	-0.21680428
7	0xbe0ce939	-0.13760842
8	0x3d815087	0.063141875
9	0xbda724b8	-0.081613004
10	0x3ddc0fd6	0.10745208
11	0x3d6f708a	0.058456935
12	0xbd5641e4	-0.052308932
13	0xbdf4307f	-0.119233124
14	0xbe73384b	-0.23751943
15	0xbe623e83	-0.22094159
16	0xbee79f59	-0.4523876
17	0xbeb33a5e	-0.35005468
18	0xbf82098b	-1.0159162
19	0xbe177227	-0.1478964
20	0xbe194c8c	-0.14970607
21	0xbc2be15d	-0.0104907425
22	0x3ae85be4	0.0017727581
23	0xbc89fd79	-0.016844498
24	0xbdc6a8b9	-0.0970015
25	0xbe00d81b	-0.12582438
26	0xbf04cbe8	-0.51873636
27	0xbdf95aba	-0.12175508
28	0xbd1ec72b	-0.03876416
29	0x3e8e0713	0.27739772
30	0xbeb47368	-0.35244298
31	0x3d04240d	0.032260943

w_agents.0.weight f4 [64, 5]
0	0x3da260f6	0.0792865
1	0xbd34d106	-0.044144653
2	0x3dc89aef	0.09795176
3	0x3db1d606	0.086834
4	0x3da145cf	0.07874643
5	0x3bf61475	0.007509763
6	0xbcb46651	-0.022021445
7	0xbec1ac5d	-0.37826815
8	0xbe2d364d	-0.16915245
9	0xbee417cf	-0.44549415
10	0xbb81b9dc	-0.0039589237
11	0x3dc3d41f	0.09561943
12	0x3db4006f	0.08789145
13	0x3e07c567	0.13258897
14	0xbe67db3b	-0.22642224
15	0xbd5494f0	-0.05189985
16	0x3d9aef72	0.07565202
17	0x3e499fa1	0.196898
18	0x3dea1f62	0.11431767
19	0xbf38aa98	-0.72135305
20	0x3d9ae9e3	0.075641416
21	0x3bd1ff74	0.006408626
22	0x3f17837a	0.5918499
23	0xbf6be293	-0.921426
24	0xbdebfda8	-0.115229905
25	0xbe80d5c8	-0.25163102
26	0xbee31130	-0.4434905
27	0x3eb656bf	0.35613057
28	0x3f8aeab6	1.0852878
29	0xbe833172	-0.2562366
30	0x3d14f8d6	0.03637012
31	0x3e9c0020	0.30468845
32	0xbe67f2a7	-0.22651158
33	0x3f060be1	0.52361876
34	0xbf300e2e	-0.68771636
35	0x3d12e9f1	0.035867635
36	0xbda58714	-0.08082405
37	0xbd865fb5	-0.065612234
38	0x3e2450f8	0.16046512
39	0xbf34b56a	-0.70589316
40	0xbe197a26	-0.14988002
41	0xbcf59ac3	-0.029981023
42	0xbe5822ee	-0.21107075
43	0xbf6313f0	-0.887023
44	0xbed120f4	-0.40845454
45	0xbe9f9bca	-0.31173545
46	0xbe5f932e	-0.21833488
47	0xbee45ecc	-0.44603574
48	0xbe2f55ee	-0.17122623
49	0xbf979445	-1.1842123
50	0xbe738b7d	-0.2378368
51	0x3ebf3820	0.37347507
52	0x3f63dd1d	0.8900927
53	0xbe905069	-0.28186348
54	0xbee79466	-0.45230407
55	0xbdd61fa3	-0.10455253
56	0xbe8d4aa6	-0.27596015
57	0x3f8fc18d	1.1230942
58	0x3ecdbb41	0.40181926
59	0xbf23a9e2	-0.63931096
60	0xbe246072	-0.16052416
61	0xbdd1b95c	-0.102404326
62	0xbf690132	-0.9101745
63	0x3f93ccee	1.1546915
64	0xbeb6e5b4	-0.35722125
65	0xbc0200d0	-0.007934764
66	0x3ccbc192	0.024872575
67	0xbc8f6924	-0.01750619
68	0x3e6fddc3	0.23424439
69	0x3d029632	0.03188152
70	0x3df4729b	0.11935922
71	0x3f094794	0.53624845
72	0xbda2e6dc	-0.07954189
73	0x3f6fed82	0.93721783
74	0xbf65c80d	-0.8975838
75	0xbd817818	-0.06321734
76	0x3e92515e	0.28577703
77	0x3ee76c94	0.45200026
78	0x3f23468d	0.63779527
79	0xbf5c2f4f	-0.8600969
80	0x3e54948c	0.20759791
81	0x3ed5df4b	0.41771922
82	0xbf86e866	-1.0539672
83	0x3e9bfbf5	0.30465665
84	0xbed6bc7d	-0.4194068
85	0xbe2b3a1d	-0.16721387
86	0x3d3d74c9	0.046253953
87	0x3f501aee	0.8129109
88	0x3faa044a	1.3282559
89	0xbefc6768	-0.49297643
90	0xbe813746	-0.25237483
91	0xbd8b5533	-0.0680336
92	0x3f6b4951	0.91908747
93	0x3fb29430	1.3951473
94	0xbf9c7566	-1.2223327
95	0xbc369f31	-0.011146353
96	0x3da12bd6	0.07869689
97	0xbcab1f1b	-0.020888856
98	0x3e9d0c1a	0.30673295
99	0xbf2cc765	-0.6749175
100	0x3c2e396f	0.01063381
101	0xbc62a8b9	-0.013834172
102	0xbe111be5	-0.14170797
103	0x3ed790c8	0.42102647
104	0xbf697061	-0.911871
105	0xbd3718f5	-0.044701535
106	0x3f35f244	0.71072793
107	0x3e1b344d	0.1515667
108	0x3fb176d9	1.3864394
109	0xbe7190fd	-0.23590465
110	0x3c32ecb4	0.010920692
111	0x3f16f89d	0.58973104
112	0x3dfecca1	0.124413736
113	0x3ebf147d	0.3732032
114	0x3e3ad85c	0.18246597
115	0xbe42b1f3	-0.19013195
116	0x3f129f03	0.5727388
117	0x3f19cb12	0.60075486
118	0x3f9804f2	1.1876509
119	0xbf99b8e2	-1.2009547
120	0xbcdc4563	-0.026888555
121	0xbb84208c	-0.0040322
122	0xbf13d8fb	-0.5775296
123	0x3fa4224b	1.2822965
124	0xbf14fde5	-0.5819991
125	0x3db7b38e	0.08969794
126	0x3e1b6a79	0.15177335
127	0xbca8e75c	-0.020618133
128	0x3e89f13d	0.26941863
129	0xbf024ac5	-0.5089534
130	0x3d452775	0.048133332
131	0x3e71acc5	0.23601063
132	0xbd8bbcee	-0.06823145
133	0x3ea948df	0.3306341
134	0xbf0d960f	-0.55307096
135	0xbe64ee60	-0.22356558
136	0x3f368bde	0.7130717
137	0x3ea0b8bd	0.31390944
138	0x3e21132a	0.15729967
139	0xbf3d1a46	-0.73868215
140	0xbeb78c78	-0.35849357
141	0x3f2f3606	0.6844181
142	0x3c123566	0.008923864
143	0x3ec15169	0.37757424
144	0xbf32a951	-0.69789606
145	0x3ea5b4fd	0.32364646
146	0xbac63384	-0.0015121554
147	0xbe278bbd	-0.163619
148	0x3ee648cb	0.44977412
149	0xbed0c4bb	-0.40775093
150	0xbe6dd58a	-0.2322599
151	0x3d8b2add	0.06795285
152	0xbea9cabd	-0.3316249
153	0x3f8df5f7	1.1090688
154	0xbf4e5246	-0.8059429
155	0x3da42718	0.08015269
156	0x3d972eff	0.07382011
157	0x3e4b0b50	0.19828534
158	0x3c07c931	0.008287714
159	0xbf145236	-0.57937944
160	0x3ce2d865	0.027691076
161	0x3f1be829	0.60901123
162	0xbf664c82	-0.8996049
163	0x3fae32e7	1.3609284
164	0xbf140a0d	-0.57827836
165	0x3dd97497	0.10617941
166	0x3f186af3	0.5953819
167	0x3f349dbe	0.70553195
168	0x3f9cea7a	1.2259057
169	0xbeb1ee5b	-0.34752163
170	0x3df9c011	0.12194837
171	0x3f52f137	0.82399315
172	0xbdc672d7	-0.09689873
173	0x3f40b9b4	0.7528336
174	0x3e6583cd	0.2241356
175	0x3e5f0bf8	0.2178191
176	0xbdc29095	-0.09500233
177	0xbf769786	-0.96324956
178	0xbcf12eda	-0.029441286
179	0xbf25e643	-0.64804476
180	0xbea8eed2	-0.32994705
181	0x3f83c290	1.0293751
182	0x3f07ace5	0.5299819
183	0xbef4d9dd	-0.47822466
184	0xbe8d5eee	-0.27611488
185	0xbe7e6c47	-0.24845992
186	0x3f3d1b24	0.7386954
187	0xbf059203	-0.5217592
188	0x3eb7322f	0.35780475
189	0xbe522aa6	-0.20524082
190	0x3d195fdb	0.03744493
191	0x3e455c76	0.19273552
192	0x3dfe4aae	0.12416588
193	0xbf6169ac	-0.8805187
194	0xbeba24c1	-0.36356166
195	0x3d02bfde	0.03192126
196	0x3ea255d1	0.31706098
197	0x3f2d362c	0.67660785
198	0xbd08537f	-0.033282753
199	0xbfb0507f	-1.3774565
200	0xbd7c67a6	-0.061622284
201	0x3e24d1e7	0.16095696
202	0x3e26f549	0.16304506
203	0x3f08ee34	0.5348847
204	0xbf0ada67	-0.54239506
205	0xbdcae035	-0.09906045
206	0x3f625941	0.8841744
207	0x3de3fd88	0.111323416
208	0xbf17d90a	-0.5931555
209	0xbea4c78d	-0.32183495
210	0xbdeb05a2	-0.11475684
211	0x3f79ea48	0.9762311
212	0xbdf911f8	-0.121616304
213	0xbf87ee08	-1.0619516
214	0xbe9a37a7	-0.30120584
215	0x3e7872c5	0.24262531
216	0xbeb85aa5	-0.36006656
217	0xbec90a94	-0.39265883
218	0xbe4881a7	-0.19580708
219	0xbeb9f15a	-0.3631695
220	0x3e4bdc41	0.19908239
221	0x3d3e5a0f	0.046472605
222	0xbf2033af	-0.6257886
223	0x3f988aeb	1.1917394
224	0xbd817ed8	-0.06323022
225	0x3c746262	0.014916034
226	0x3fb43912	1.4079916
227	0xbe8d74cd	-0.27628174
228	0x3f7fc40c	0.9990852
229	0x3d4e2940	0.050332308
230	0xbd9278b6	-0.0715193
231	0x3ec80ef5	0.3907391
232	0xbf358e13	-0.70919913
233	0x3f82d860	1.0222282
234	0xbf68dbce	-0.90960395
235	0x3d912847	0.070877604
236	0x3e896cd8	0.26840854
237	0xbf2d00ee	-0.67579544
238	0x3e83cf7f	0.25744244
239	0xbf42c07a	-0.76074946
240	0x3e954b95	0.29159227
241	0x3f23cb83	0.6398241
242	0x3d06d62a	0.032919087
243	0x3f033969	0.51259476
244	0xbfb20a32	-1.3909361
245	0xbccb0448	-0.024782315
246	0xbf0e2f94	-0.5554135
247	0xbf2a6152	-0.6655475
248	0x3ea63607	0.32463095
249	0xbf65ecde	-0.89814556
250	0xbd896e06	-0.067104384
251	0x3d72d613	0.05928619
252	0x3ebb2231	0.36549523
253	0xbf9fd989	-1.2488261
254	0x3d1c4da5	0.038159985
255	0xba98276c	-0.0011608428

w_agents.0.bias f4 [64]
0	0xbf406ea3	-0.7516882
1	0xbec0633b	-0.37575707
2	0xbeb1f153	-0.34754428
3	0xbe8f507e	-0.27991098
4	0xbf2c0773	-0.67198867
5	0xbef7d80a	-0.48407012
6	0xbf3c8a6e	-0.73648727
7	0xbeb72635	-0.35771337
8	0xbe06a45b	-0.13148634
9	0xbf742fb7	-0.9538531
10	0xbef5720f	-0.47938582
11	0xbf72dd37	-0.948688
12	0xbf263469	-0.6492372
13	0xbea6aa7b	-0.3255194
14	0xbf173f9e	-0.5908145
15	0xbf6d95f4	-0.92806935
16	0xbf24a8a8	-0.6431985
17	0xbedc706b	-0.43054518
18	0xbf7d2b71	-0.9889441
19	0xbe26b9e2	-0.16281846
20	0xbeb60a4a	-0.35554725
21	0xbe13da2c	-0.14438695
22	0xbe9123ff	-0.28347775
23	0xbf28ae30	-0.6589079
24	0xbf39a618	-0.72519064
25	0xbf013c83	-0.5048296
26	0xbf28379f	-0.6570987
27	0xbf121db3	-0.5707657
28	0xbf364cf6	-0.71211183
29	0xbdf27881	-0.118393905
30	0xbf9068b6	-1.1281955
31	0xbf107e10	-0.56442356
32	0xbeb804d9	-0.35941198
33	0xbf084915	-0.53236514
34	0xbd8da91d	-0.069170214
35	0xbf538cd0	-0.8263674
36	0xbed9a0bf	-0.42505452
37	0xbf00d5ef	-0.50326437
38	0x3df0f317	0.11765116
39	0xbf8ab613	-1.0836815
40	0xbf01bd44	-0.5067942
41	0x3bf034e4	0.007330524
42	0xbf3fe23a	-0.7495457
43	0xbf3eba16	-0.74502695
44	0xbec36ec8	-0.38170457
45	0xbf0b37cd	-0.5438202
46	0xbed1a0de	-0.40943044
47	0xbdfc062c	-0.12305865
48	0xbf441522	-0.76594746
49	0xbf88cc2a	-1.0687306
50	0xbf409595	-0.75228244
51	0xbf2b1fad	-0.6684521
52	0xbe3e2997	-0.18570553
53	0xbf0b332a	-0.54374945
54	0xbeca298d	-0.39484826
55	0xbedbcb47	-0.42928526
56	0xbeb37c54	-0.35055792
57	0xbef91d1a	-0.48655015
58	0xbebef752	-0.37298065
59	0xbe993658	-0.29924273
60	0x3d90a467	0.07062607
61	0xbf34624f	-0.70462507
62	0xbf038b97	-0.5138487
63	0xbe8e0472	-0.27737767

w_agents.2.weight f4 [32, 64]
0	0x3d234816	0.03986367
1	0xbe01b31a	-0.12665978
2	0xbcd933f7	-0.026514037
3	0xbd0b1fcf	-0.033965882
4	0xbe041b56	-0.12901053
5	0x3d29f487	0.041492965
6	0xbd976649	-0.07392556
7	0x3cdfb275	0.027306775
8	0x3c2fcabb	0.010729487
9	0xbe17b68a	-0.14815727
10	0x3cc542cc	0.024079703
11	0x3e2015c5	0.15633304
12	0xbcb1bd2d	-0.021696651
13	0x3cecbc6f	0.028898446
14	0x3c4082bb	0.011749919
15	0xbd76dd44	-0.06026961
16	0xbdb28423	-0.08716609
17	0xbd473693	-0.04863603
18	0xbe08ba18	-0.13352239
19	0xbd9001a7	-0.07031565
20	0xbdfd5555	-0.123697914
21	0xbddafd41	-0.106928356
22	0xbe6fb0ae	-0.23407242
23	0xbe36a4a1	-0.17836238
24	0xbda5162f	-0.08060872
25	0x3d87341c	0.06601736
26	0x3b68ee4e	0.0035542431
27	0xbdf261cc	-0.118350595
28	0xbe4935da	-0.19649449
29	0x3c855c5e	0.016279396
30	0x3d541e4b	0.051786702
31	0xbbe947c0	-0.007119149
32	0x3d4a9aa5	0.049463887
33	0xbdd1a181	-0.102358826
34	0xbcf39d74	-0.029738165
35	0xbdc83b72	-0.09776963
36	0xbe568d5e	-0.20952365
37	0xbe08b325	-0.13349588
38	0xbde90cc2	-0.113793865
39	0xbe2756e6	-0.16341743
40	0xbd8db888	-0.06919962
41	0xbe0beefb	-0.13665383
42	0xbc85222c	-0.016251646
43	0x3da4c81a	0.08045979
44	0x3c881dce	0.016615774
45	0xbd85ebd9	-0.06539125
46	0xbe5430cd	-0.20721741
47	0xbc8e29f3	-0.017353987
48	0xbc5af28d	-0.013363493
49	0x3b90dd0e	0.004420883
50	0xbe09d204	-0.13459021
51	0xbe6fad94	-0.23406059
52	0xbc8cc46f	-0.01718351
53	0x3c241de2	0.01001689
54	0x3c5eca81	0.013598085
55	0xbe290d1e	-0.1650891
56	0x3c8c9f8a	0.017165918
57	0xbd9b2f54	-0.075773865
58	0xbe5046dd	-0.20339532
59	0x3d942356	0.07233302
60	0xbc993a4f	-0.018704562
61	0x3c73afbf	0.014873444
62	0xbd3eeb34	-0.046611026
63	0xbe1ba6e5	-0.15200384
64	0x3d5c1867	0.05373421
65	0xbe65662e	-0.2240226
66	0xbf027b03	-0.5096895
67	0xbe44c28f	-0.19214843
68	0xbfc15e5e	-1.5106924
69	0x3e5e0d1e	0.21684691
70	0x3ebdbfd8	0.37060428
71	0x3d0974ec	0.03355877
72	0xbd691674	-0.05690618
73	0xbf5c0b44	-0.8595469
74	0xbeb1eec3	-0.34752473
75	0xbf3270c2	-0.69703305
76	0xbf944bab	-1.1585592
77	0x3cacd466	0.021097373
78	0xbeb2df1d	-0.34935847
79	0xbe804707	-0.2505419
80	0x3e8a1b70	0.26974058
81	0x3ebead6c	0.37241685
82	0xbdc0c395	-0.09412304
83	0x3e1ba7e4	0.15200764
84	0xbd559d0c	-0.052151725
85	0xbecfd42a	-0.40591556
86	0x3de0783c	0.10960433
87	0xbf0c6cdf	-0.54853624
88	0x3ea8ffe9	0.33007744
89	0xbddc2212	-0.10748686
90	0x3b0b4833	0.002125275
91	0xbf391d0c	-0.72309947
92	0x3ec8d271	0.39223054
93	0x3e0cf1f8	0.13764179
94	0xbf96c02c	-1.1777396
95	0xbd9b689b	-0.07588311
96	0xbe80f11a	-0.25183946
97	0xbed41817	-0.4142463
98	0xbe5388b0	-0.20657611
99	0x3e12d4cc	0.14338988
100	0x3eb223c6	0.34792918
101	0x3e591159	0.21198024
102	0xbf74dab9	-0.95646244
103	0xbebdf9ca	-0.37104636
104	0xbddb3f51	-0.10705436
105	0x3e5c0d59	0.21489467
106	0xbef04ab6	-0.46932
107	0x3e9f73d1	0.31143048
108	0x3d6c20e0	0.05764854
109	0xbc73df21	-0.014884741
110	0xbe318eec	-0.17339677
111	0xbd9bee7c	-0.07613847
112	0xbc8b7e25	-0.017027924
113	0xbcee2cae	-0.02907404
114	0xbf748bb3	-0.95525664
115	0xbdecc555	-0.115610756
116	0x3a0ff1ac	0.0005491029
117	0x3ec7ce76	0.39024705
118	0x3e4ac102	0.19800189
119	0xbd44261d	-0.04788791
120	0xbf2f5032	-0.68481743
121	0xbe93fa79	-0.28902033
122	0xbef203a1	-0.47268394
123	0xbec8cbbd	-0.3921794
124	0x3c456b55	0.012049516
125	0xbf6c24f8	-0.9224391
126	0x3ee01d12	0.4377218
127	0x3e82b915	0.2553183
128	0xbda5d48b	-0.0809718
129	0xbe940671	-0.28911164
130	0xbcab047b	-0.02087616
131	0x3ecedf17	0.4040458
132	0xbe554961	-0.20828773
133	0xbac8fbd4	-0.001533384
134	0xbc69fca2	-0.014281424
135	0xbf114d7a	-0.56758845
136	0xbc073080	-0.008251309
137	0x3e377aa1	0.17917873
138	0xbd06eb6c	-0.03293936
139	0xbd83c1cf	-0.064334504
140	0x3e8d68e3	0.27619085
141	0xbea331d5	-0.31873956
142	0xbd92c26b	-0.071659885
143	0x3e7f1b4d	0.24912758
144	0xbda0b220	-0.07846475
145	0xbf1063b3	-0.5640213
146	0xbd39c207	-0.045351055
147	0x3e5d17ee	0.2159116
148	0xbeb3b0e7	-0.35095903
149	0xbe9498fe	-0.29022974
150	0xbe1381e7	-0.14405023
151	0xbdcfaea9	-0.10140736
152	0x3da96457	0.082710914
153	0xbed696e2	-0.4191199
154	0xbd8143c9	-0.06311757
155	0x3cc08885	0.023502598
156	0x3d58f296	0.052965723
157	0xbed4c6af	-0.41557834
158	0xbe8979fd	-0.26850882
159	0x3dad14d1	0.08451236
160	0x3d413f8b	0.04717974
161	0xbeab3550	-0.33439112
162	0x3c5f8f26	0.013644969
163	0x3c32052f	0.010865494
164	0xbbf3f73a	-0.007445243
165	0xbe573bcb	-0.21018903
166	0xbe0c0a7d	-0.13675876
167	0x3b0e3787	0.0021700577
168	0x3e38d344	0.18049341
169	0x3d886189	0.06659228
170	0xbde02e3c	-0.109463185
171	0xbf08162e	-0.53158844
172	0xbeab3995	-0.3344237
173	0xbe8294c0	-0.25504112
174	0xbeddb1f2	-0.43299824
175	0xbe07c50d	-0.13258763
176	0x3cad2457	0.021135492
177	0xbcd95498	-0.026529595
178	0xbe0e373f	-0.13888262
179	0xbd2ec6ea	-0.042670168
180	0xbdff7e14	-0.12475219
181	0x3d8d6b0a	0.06905182
182	0xbdb30f9a	-0.0874321
183	0x3d5e79f8	0.054315537
184	0xbcc92137	-0.02455197
185	0x3deb794c	0.11497745
186	0xbbf0e9e7	-0.007352102
187	0x3e82a471	0.25516084
188	0x3d40376a	0.046927847
189	0x3e466a9e	0.19376609
190	0xbe44e4bf	-0.19227885
191	0xbe2634cb	-0.16231076
192	0xbd403687	-0.046927
193	0xbb75f330	-0.0037528984
194	0xbc3aec27	-0.011408842
195	0x3e71f5bf	0.23628901
196	0xbe881f5b	-0.26586422
197	0x3d04fccd	0.032467652
198	0x3e696ad4	0.22794658
199	0x3cf2f074	0.029655673
200	0xbdb60834	-0.08888283
201	0xbe8c3e82	-0.2739144
202	0x3e818216	0.2529456
203	0xbd220e36	-0.039564334
204	0x3edb0822	0.42779642
205	0xbd2abc20	-0.041683316
206	0xbf1a5409	-0.6028448
207	0x3e2c3633	0.1681755
208	0x3e97a5ad	0.29618588
209	0x3e83e9ff	0.25764462
210	0xbf3c8040	-0.73633194
211	0x3cf6880e	0.030094173
212	0x3d74f682	0.0598054
213	0xbe8321f8	-0.25611854
214	0x3cdcb097	0.026939673
215	0x3e0c1340	0.13679218
216	0xbd80000a	-0.062500075
217	0x3d02e2bc	0.031954512
218	0x3e94142b	0.28921637
219	0xbea573b6	-0.32314843
220	0x3e63544f	0.2220013
221	0x3d689f29	0.056792412
222	0xbf7c4a9c	-0.98551345
223	0x3d05556a	0.03255216
224	0x3eff9490	0.49918032
225	0x3e0bfcc8	0.13670647
226	0x3b12cff5	0.0022401784
227	0xbcb39cd3	-0.021925366
228	0xbdd421d4	-0.10358015
229	0x3d8982b3	0.06714382
230	0xbe7ee490	-0.24891877
231	0xbf601b00	-0.875412
232	0x3c7c4ecc	0.015399646
233	0x3e5d3c6f	0.21605085
234	0xbe05da64	-0.1307159
235	0x3e54caa4	0.20780426
236	0x3d7f918f	0.062394675
237	0xbe7a75ba	-0.24458972
238	0x3ec3b376	0.38222855
239	0x3e094f15	0.13409074
240	0x3d906e71	0.07052315
241	0xbeb2342b	-0.34805426
242	0xbec7a4c7	-0.38992903
243	0xbdaf2c17	-0.08553331
244	0x3dbe3f1d	0.09289382
245	0xbdbe80c1	-0.093019016
246	0x3e03cda8	0.1287142
247	0xbdbd5ee2	-0.09246613
248	0xbd53fea1	-0.051756505
249	0x3d3918c2	0.045189627
250	0x3b6bd33f	0.0035984067
251	0xba576cbd	-0.00082178024
252	0x3c4acc6d	0.0123778405
253	0x3e6ec411	0.23316981
254	0xbdb3fc8a	-0.087884024
255	0x3d59ca50	0.053171456

w_agents.2.bias f4 [32]
0	0xbe617abe	-0.22019479
1	0xbc015e14	-0.007895965
2	0xbee61e22	-0.44944865
3	0x3ecd45b8	0.40092254
4	0xbed4eb00	-0.4158554
5	0xbde9fdce	-0.114253625
6	0xbd124edc	-0.035719737
7	0x3e3a8e53	0.18218355
8	0xbda2bbad	-0.079459526
9	0xbe44a8ca	-0.19205013
10	0xbe0614e0	-0.130939
11	0xbe35648d	-0.17714138
12	0x3dd37279	0.10324568
13	0xbdb2f5c8	-0.08738285
14	0xbd2c0d60	-0.042004943
15	0x3e619b44	0.22031885
16	0x3e4fc02c	0.20288152
17	0xbdf7e3be	-0.12103985
18	0xbddd1e4d	-0.10796795
19	0xbdf832d8	-0.12119073
20	0x39e99aba	0.00044556503
21	0x3e8601c3	0.2617322
22	0xbe551175	-0.2080744
23	0x3d990883	0.074723266
24	0xbe5de5e3	-0.21669726
25	0xbe8d20b5	-0.27564016
26	0xbddc9a8b	-0.10771664
27	0xbde4f024	-0.11178616
28	0xbbce2e32	-0.006292128
29	0xbcd1df69	-0.025619226
30	0x3edfeec9	0.43736866
31	0xbe7ccf6b	-0.24688499

Ws.0 f4 [32, 32]
0	0xbf661772	-0.89879525
1	0x3e8b8436	0.27249306
2	0x3e288d8c	0.16460246
3	0x3f33826c	0.70120883
4	0xbf240ca4	-0.6408179
5	0x3f5dd694	0.86655545
6	0xbf67583c	-0.9036901
7	0xbf853faf	-1.041006
8	0xbfdc01cb	-1.7188047
9	0x3fcaea65	1.5852782
10	0x3f9b4c0b	1.2132581
11	0xbf1b2d77	-0.6061625
12	0x3f9269e6	1.1438568
13	0x3f0b6d8e	0.5446404
14	0x3f19289f	0.5982761
15	0x3e42f41c	0.19038433
16	0x3f2caee4	0.6745436
17	0x3ee7bec3	0.45262727
18	0xbebfa6a7	-0.37431833
19	0x3f76c023	0.9638693
20	0xbe78c6b8	-0.24294555
21	0xbf4f2504	-0.80915856
22	0xbff64d3b	-1.9242319
23	0x3f89d064	1.0766721
24	0xbf978c92	-1.1839774
25	0xbfc9066b	-1.5705084
26	0xbf4dceb7	-0.80393547
27	0x3f247012	0.64233506
28	0x3f335d5b	0.70064324
29	0x3fd97f2a	1.6991932
30	0x3e3b8766	0.18313369
31	0xbe788a7a	-0.24271575
32	0x3f9648eb	1.1741003
33	0xbd98c3d0	-0.07459223
34	0xbe495de8	-0.19664729
35	0xc04f7756	-3.2416587
36	0x3e65b141	0.22430898
37	0xbe8552f0	-0.2603984
38	0xbfb0a233	-1.3799499
39	0x3f578c9d	0.84198934
40	0xbed8fa79	-0.42378595
41	0xbf1ff8b9	-0.62488896
42	0x3f7e7637	0.9939913
43	0x3edf36a3	0.43596372
44	0x3fa2d2c0	1.2720566
45	0x3e5c6621	0.21523334
46	0x3ef28a7c	0.4737128
47	0xbe97c9ea	-0.29646236
48	0xbfef7ad6	-1.8709362
49	0xbe1a5e70	-0.15075088
50	0xbf7dd15a	-0.9914757
51	0xbf1e9fbf	-0.61962503
52	0x3f437f31	0.76365954
53	0xbeaa8691	-0.3330579
54	0x3ec277f6	0.37982148
55	0x3f3f4cd8	0.7472663
56	0x3f87567a	1.0573266
57	0xbf252217	-0.6450514
58	0x3ca21ca9	0.019789057
59	0x3f48f751	0.78502375
60	0x3f988996	1.1916988
61	0xbf8e1a49	-1.1101772
62	0xbe8542b4	-0.26027453
63	0xbe9aaea9	-0.3021138
64	0x3f18cf77	0.59691566
65	0x3ed3cfd7	0.41369507
66	0x3c4c6687	0.012475616
67	0x3f2f6623	0.68515223
68	0x3fa4eecc	1.2885375
69	0x3e42c42a	0.19020143
70	0xbfbe3dbe	-1.4862592
71	0x4028f327	2.6398408
72	0xbe4c3d1a	-0.19945183
73	0x3fef3e6c	1.8690925
74	0xbf408000	-0.7519531
75	0xbd14a2e1	-0.036288146
76	0xbdd35bb0	-0.103202224
77	0x3f6fb878	0.9364085
78	0xbe483752	-0.19552353
79	0xbff3f922	-1.9060404
80	0xbee7ea89	-0.45296124
81	0x3ed7d4ad	0.42154446
82	0x3d22d3a5	0.03975262
83	0x4020421a	2.5040345
84	0xbf8ca209	-1.0986949
85	0xbf0d114f	-0.55104536
86	0xbf8e701d	-1.1127964
87	0x3f916a61	1.1360589
88	0x3df454fc	0.11930272
89	0x3eae80d5	0.34082666
90	0xbe79e0cd	-0.24402161
91	0x3f8b48cd	1.0881592
92	0x3da3ef2d	0.080046035
93	0xc02ebf2f	-2.730419
94	0xbf859fd1	-1.0439397
95	0xbf00bc70	-0.5028753
96	0xbfbcee3e	-1.4760206
97	0x3f431c4b	0.76215047
98	0xbe6b8f4e	-0.23003885
99	0x3cb89c59	0.02253549
100	0xc00290ba	-2.0400834
101	0x3f2dea88	0.6793599
102	0x3f0e9ad4	0.55705
103	0x3ed369b2	0.41291577
104	0x3f4a29a8	0.7896981
105	0xbf9af622	-1.2106364
106	0x3efe7d54	0.49704993
107	0x3e6c9baf	0.23106264
108	0x3e4ce151	0.20007826
109	0xbfc4e20b	-1.5381483
110	0x3ea95038	0.33069015
111	0xc03167f9	-2.771971
112	0xbf26264a	-0.64902174
113	0x3fdd3d32	1.72843
114	0xbff9490b	-1.9475416
115	0x3e3ce99c	0.1844849
116	0xc027ed77	-2.6238687
117	0xbf49d387	-0.7883839
118	0x3f9ab2f9	1.2085868
119	0xbea034e5	-0.31290355
120	0x3dee27e4	0.11628702
121	0x3fa03ce8	1.2518587
122	0x3f70c422	0.94049275
123	0x3e72ad97	0.23699032
124	0x3ec3be28	0.38231015
125	0xc00a95af	-2.165386
126	0x3f9e7157	1.2378339
127	0x3f17e1eb	0.593291
128	0x3fc320f0	1.5244427
129	0xc07036bc	-3.7533407
130	0xbf15715a	-0.58376086
131	0x3cd91293	0.026498115
132	0xbedb898f	-0.42878386
133	0x3fbafe34	1.4608827
134	0xbf821f77	-1.0165852
135	0xbef248cb	-0.47321162
136	0xc013ef3b	-2.3114765
137	0x3f8189b2	1.0120146
138	0x4008ef04	2.1395884
139	0x3f34d389	0.7063528
140	0xbf5f1a49	-0.8714948
141	0xbf8f7682	-1.1208041
142	0x3d9d6973	0.076861285
143	0x3f5b1299	0.8557525
144	0x3f92bc83	1.1463779
145	0x3f057ec0	0.5214653
146	0x3f1e6573	0.6187355
147	0x3fd1709d	1.6362492
148	0x3f559cb8	0.8344226
149	0xbf283b33	-0.6571533
150	0xbf8ff881	-1.1247712
151	0xbe08df54	-0.13366443
152	0x3fd8e0be	1.6943586
153	0x3cfdf404	0.031000145
154	0xbdf5201e	-0.119690165
155	0xbe58f055	-0.2118543
156	0x3ec67362	0.38759905
157	0x3fdc459d	1.7208744
158	0x3eaf5cd8	0.34250522
159	0x3e2b7321	0.16743137
160	0xbf9ae39a	-1.2100708
161	0xbf965158	-1.1743574
162	0xbe989392	-0.29800087
163	0xbff266b8	-1.8937597
164	0x3ea6d0f9	0.32581308
165	0x3f9c9800	1.2233887
166	0x3fa64633	1.2990173
167	0xbedddf95	-0.43334642
168	0x3ff0b91e	1.8806493
169	0x3f0b3aa5	0.5438636
170	0x3eea6155	0.45777383
171	0xbf412095	-0.7544034
172	0x3f6eadfe	0.9323424
173	0x3e1c1fd3	0.15246515
174	0x3e348147	0.1762744
175	0x3f5296bb	0.82261246
176	0x3f11f270	0.57010555
177	0xbd2acfff	-0.041702267
178	0x3f85d270	1.0454845
179	0x3fad481e	1.3537633
180	0x3fdae6b4	1.7101655
181	0x3f727e82	0.94724286
182	0xbfabe1df	-1.3428305
183	0xbed528c7	-0.41632673
184	0x3f97aaa8	1.1848955
185	0x3ef730d2	0.48279434
186	0x3f1d8e51	0.6154528
187	0xbf252a34	-0.6451752
188	0xbf38d4da	-0.72199786
189	0xbf659613	-0.8968212
190	0x3f116d6f	0.5680761
191	0xbf3015dd	-0.6878336
192	0x3f92732e	1.14414
193	0x3f2fc489	0.68659264
194	0xbe22dc38	-0.1590432
195	0xc06055c4	-3.5052347
196	0xc0191018	-2.3916073
197	0x3eae95b5	0.34098592
198	0xbfd1f5c5	-1.6403128
199	0xbf94ee6e	-1.1635263
200	0x3f97f1e1	1.187069
201	0xbe9535a4	-0.29142487
202	0x3fd3ea28	1.6555834
203	0xbf1d7268	-0.61502695
204	0x3d9ef506	0.07761578
205	0xbf69cc13	-0.9132702
206	0x3f6018b1	0.87537676
207	0xc00881a6	-2.132913
208	0x3f812695	1.0089899
209	0xbef980a9	-0.48730972
210	0xbf3ecf66	-0.74535215
211	0xbfd333f3	-1.6500229
212	0xbf9f9d71	-1.2469922
213	0xbf9b5d9c	-1.2137942
214	0x3f54e02a	0.8315455
215	0x3f84663c	1.03437
216	0x3fcf80ed	1.621122
217	0xbfb99833	-1.4499573
218	0xbfcb97db	-1.5905718
219	0xbfcd0741	-1.6017839
220	0x3fccf91e	1.6013525
221	0x3f46dd71	0.7768164
222	0xbdd7e6a3	-0.10542037
223	0xbe869258	-0.26283526
224	0xbdcfb28e	-0.101414785
225	0xbe2f0187	-0.17090426
226	0xbfb68bdf	-1.4261435
227	0xbecd7bb2	-0.40133435
228	0x3db269d9	0.08711595
229	0xbfe8bd47	-1.8182763
230	0x3ea73bd4	0.32662833
231	0x3f405a53	0.75137824
232	0x3f4fddc2	0.8119775
233	0x3efa8d2d	0.48935834
234	0xbed0d8da	-0.40790445
235	0x3f0cd4dc	0.550123
236	0xbefa3590	-0.4886899
237	0x3ed57733	0.41692504
238	0x3fbac763	1.4592098
239	0xbe075ba6	-0.13218555
240	0xbf84419c	-1.0332522
241	0xbf110476	-0.5664743
242	0xbf9c57bb	-1.2214273
243	0xc00ef5eb	-2.2337596
244	0xbfc156c7	-1.5104607
245	0x3e5687d2	0.20950249
246	0x3e4fe36c	0.20301598
247	0xbeb18276	-0.34669846
248	0xbf7e8e4f	-0.99435896
249	0x3f827e21	1.0194741
250	0x3ecf7974	0.4052235
251	0xbf99863b	-1.1994089
252	0x3f238839	0.63879734
253	0xbfd47b19	-1.6600066
254	0xbf0a9777	-0.54137367
255	0xbf8d4692	-1.1037161
