crowd_nav/data/rl_model_6.pth (torch_old, 93650 bytes, 18 tensors)

w_a f4 [32, 32]
000000 fe 29 25 c0 bc 77 15 c0 fd 38 3d 3f e1 cd 5d 3e
       -2.580688 -2.335433 0.7391508 0.21660568
000010 62 f6 0d 40 0c 6d 2b c0 e3 42 85 be 8f 66 ee 3e
       2.218163 -2.6785307 -0.26027593 0.4656262
000020 cf c3 66 bf 49 6a 2b bf f4 57 63 bf ce 25 df 3c
       -0.9014253 -0.66959053 -0.8880608 0.027239706
000030 94 86 6b bf 61 5d e7 3e 7b 99 d2 3f be 1d 83 bf
       -0.92002225 0.4518843 1.6453089 -1.0243452
000040 9f f1 db 3f ca 04 a8 3f c8 f9 92 be a6 90 b3 3e
       1.7183112 1.3126462 -0.28706193 0.35071295
000050 41 65 c9 bd cb b5 2f c0 fc 4c b4 3d 34 23 9b 3f
       -0.09833766 -2.7454708 0.08803746 1.2120118
000060 64 18 06 40 5d 0e 9c 3f ed 8a 83 be 5a b3 8d 3f
       2.0952387 1.2191883 -0.2569193 1.1070359
000070 f4 dd 2e 40 b5 b0 6b 3f 3e 16 bf be 94 4e 55 bf
       2.732297 0.9206651 -0.37321657 -0.83323026
000080 8f 0b b2 bf c1 7a 77 3e 1d d1 cf bf e6 e7 b7 3f
       -1.3909777 0.2416792 -1.6235691 1.4367645
000090 1d 28 93 3d 27 13 29 3e 63 08 81 bf e3 da ae bf
       0.071853854 0.16511212 -1.0080684 -1.3660549
0000a0 47 28 04 bd 59 f7 61 3e 28 54 b0 3e 2c 98 d2 be
       -0.032264974 0.22067012 0.34439206 -0.41131723
0000b0 08 ce c2 3d 85 52 13 3f 00 d9 12 3e 6b 35 f4 3f
       0.095119536 0.5754779 0.14340591 1.9078802
0000c0 e9 7b 13 40 8d dd fc 3f c1 a5 d7 be 24 8a 12 bf
       2.3044379 1.9755112 -0.42118648 -0.57242036
0000d0 dd 05 03 3d 30 b2 46 bf d3 ab a8 3f 49 20 e0 3f
       0.031988014 -0.7761564 1.3177437 1.7509853
0000e0 0e 79 a5 3d c9 b5 8f bf 51 4e bd 3f 34 df 62 3f
       0.0807973 -1.1227351 1.4789525 0.8862183
0000f0 95 3d d6 be e9 70 06 bf 90 16 5f 3e 0b a6 4b 3f
       -0.41843858 -0.5251604 0.2178595 0.79550236
000100 73 62 18 be fe ed ab be eb 46 4d 3f 62 83 3d bf
       -0.14881305 -0.3358001 0.8018634 -0.740286
000110 6d 6f 4f 40 fe a0 30 c0 6a 4c 39 40 9b a1 5c bf
       3.241176 -2.7598262 2.895289 -0.8618409
000120 8b 07 c0 bf ee 12 9b 3f 64 6c 9f 3f 5b d0 80 3f
       -1.5002302 1.2115152 1.2454953 1.0063585
000130 9e 9c 2d c0 4f db cf be 27 34 2d 40 9b e9 98 3f
       -2.7126842 -0.40597007 2.7063081 1.1946291
000140 7b 9f 85 bf 97 0e a3 bf 8b 7f 36 3e 1b 0f ce 3e
       -1.0439295 -1.2738827 0.17822091 0.402459
000150 77 e0 c7 3f 4b db 2b 3f cc 9b 8c 3f b4 ef f0 3e
       1.5615376 0.6713149 1.0985045 0.4705788
000160 f1 4c 63 be b6 9c e9 3f 8b 40 21 3f 5b 8c 1b bf
       -0.2219732 1.8250949 0.6298911 -0.6076104
000170 ef 70 a8 bf a9 4b 56 3f 17 51 10 3e d8 a4 fd 3f
       -1.3159465 0.837092 0.14093433 1.9815931
000180 4c 54 64 3e 4b 6b 99 bc 62 4c 48 c0 30 07 5a bf
       0.22297782 -0.01872792 -3.129662 -0.8516722
000190 3e 69 58 bd 99 41 6d 3f e8 33 6a bf db 76 80 3e
       -0.05283474 0.9267822 -0.9148545 0.2509068
0001a0 a9 ad 9b 3f c4 fb 0d c0 d7 9f 8e be 19 81 42 40
       1.2162372 -2.2184916 -0.27856323 3.0391295
0001b0 68 a6 53 3f 40 c6 44 bf 15 e6 00 bf 10 78 a0 bf
       0.8267579 -0.76865005 -0.5035108 -1.253664
0001c0 49 d0 f2 3e 3a bf df bd cb 88 01 bf 02 09 e4 be
       0.47424534 -0.109251454 -0.50599355 -0.44538122
0001d0 42 b1 81 3f 57 67 83 bf 77 4d 19 bf a1 38 89 bf
       1.013222 -1.0265912 -0.59883827 -1.0720407
0001e0 34 23 20 3f 16 36 3f be 78 f8 e8 bd 3b f0 fa 3e
       0.62553716 -0.18672976 -0.11375517 0.49011406
0001f0 47 ec 1f 3f 6f 49 67 3e ab 01 d7 3e f0 70 68 be
       0.62469906 0.22586606 0.4199346 -0.22699332
000200 63 53 6d 3f d7 de 85 3e 0f 25 83 c0 40 d0 f0 3e
       0.92705363 0.26146576 -4.0982738 0.47033882
000210 1d 9c 1c bf f6 fd 0a 3f 9e 0b 23 bf a9 95 f9 be
       -0.6117571 0.54293764 -0.636896 -0.48746994
000220 ce df a0 be 83 b1 6b bf b0 b8 1e 3f 8a e9 e6 be
       -0.3142075 -0.92067736 0.6200056 -0.4510005
000230 b5 2a 50 bd e8 00 9d 3e 60 b3 11 bf bd 15 20 3f
       -0.05082198 0.30664754 -0.5691433 0.6253317
000240 d9 ea 54 bf 88 9d 85 bf 49 41 49 bf 7c 52 b5 3e
       -0.8317085 -1.04387 -0.7861524 0.35414493
000250 d9 25 3a be bd 79 4b be d5 3a 61 3f 35 1a af be
       -0.181785 -0.19870658 0.87980396 -0.34199682
000260 a6 eb 4e bf a0 da c5 3d 85 8e 33 3f b5 87 0f 3f
       -0.8082832 0.0966084 0.7013934 0.5606645
000270 1a 1a 1a 3d bd 08 a2 3e 27 bd b9 3f 70 74 4f bf
       0.03762255 0.31647292 1.451085 -0.81037045
000280 80 0f 8c bf 59 8b a4 3e a2 04 01 c0 5b e0 fc 3e
       -1.094223 0.32137564 -2.0159078 0.4938992
000290 d6 af 89 bf 6d f4 77 3e 6a 17 7c 3e 38 d6 84 bf
       -1.0756786 0.24214335 0.24618307 -1.0377874
0002a0 36 93 5f 3f b1 b0 e7 3e 9e 8c a2 3e d0 b0 86 bf
       0.87334 0.45251992 0.31747907 -1.0522709
0002b0 e9 c5 68 3f 6c 4c 72 be 81 b0 f9 3e c1 e6 bb bf
       0.90926987 -0.23661965 0.48767474 -1.4679796
0002c0 a3 8c 86 3f f5 d1 0e 3f 73 59 62 bf ec 07 69 bd
       1.0511669 0.5578912 -0.8841774 -0.05689232
0002d0 e3 ce 80 3e b8 d7 1b 3e 7f 97 59 c0 0a 0f 92 3f
       0.25157842 0.15219009 -3.3998716 1.141084
0002e0 17 2e ee be ea dd a6 bf 20 b1 bc bf dd 20 cc bf
       -0.4651954 -1.3036473 -1.4741554 -1.5947529
0002f0 d0 00 72 bf 5e 3c e1 3f cd 86 08 3e be de 3d bf
       -0.9453249 1.7596548 0.13332672 -0.74168
000300 d9 b8 95 3f 4b 67 87 bf 02 e7 86 bf c2 aa 2a bf
       1.1697036 -1.0578398 -1.0539248 -0.66666806
000310 1e c4 45 bf 2b a8 84 bf 81 3c 1a 3e a7 a0 2c bd
       -0.77252376 -1.0363821 0.15062143 -0.042145398
000320 f6 dc cb bf a5 4a 38 3f 90 2e 90 bd 7a 97 b5 3c
       -1.5926807 0.719889 -0.07040131 0.022166956
000330 8d 72 1f c0 b8 4a 55 3e a5 83 b1 3f ae da 35 be
       -2.4913666 0.20829284 1.38683 -0.17759201
000340 c3 8c 3c 3f 34 a3 da bb c3 52 66 3f 3f e6 13 be
       0.73652285 -0.0066722874 0.89970034 -0.144433
000350 60 ab ca bf 77 11 a2 3e 8d e6 8c bf 26 ef 2a 3f
       -1.583355 0.3165395 -1.1007859 0.6677116
000360 80 bf 1d bf 29 69 a6 be 69 b1 81 be 58 78 cf be
       -0.6162033 -0.32502106 -0.25330666 -0.40521502
000370 d1 df a7 bf 61 5d fc be 4d 7d 16 bf 94 97 e3 bd
       -1.3115178 -0.49289992 -0.58784944 -0.111128956
000380 47 c9 b4 3e d2 40 ec 3f 05 0d 91 bd 03 60 60 3f
       0.35309812 1.8457282 -0.070825614 0.876465
000390 99 18 3a 3d 13 1b 00 3f 9a 95 9c be 51 a3 9b bd
       0.045433614 0.5004131 -0.30582887 -0.075995095
0003a0 32 c2 91 be 13 7f a1 be d9 7e 73 3f 6b fd ab 3f
       -0.28468472 -0.31542262 0.9511543 1.3436712
0003b0 76 23 b5 3e 49 ce a9 3d 1d b4 d3 be a8 08 9d be
       0.35378617 0.08291299 -0.41348353 -0.30670667
0003c0 7c 69 c3 3e dd 71 02 40 b6 33 16 bf 64 13 89 be
       0.38166416 2.0381997 -0.58672655 -0.26772606
0003d0 81 4c fc 3e 5a e5 85 3f 67 28 d6 3f 7a ca ed bf
       0.49277118 1.0460618 1.673108 -1.8577416
0003e0 8e a8 13 3f f3 89 19 3f b7 13 2c 3f b9 68 55 bf
       0.5767907 0.5997612 0.6721758 -0.8336292
0003f0 6c 8a 7b be a2 02 05 bf 30 4a 3e 3f 88 7d e9 3e
       -0.24564523 -0.5195714 0.7433195 0.45603585

w_group.0.weight f4 [64, 8]
000000 0c a2 cd bd a7 a9 32 bc a4 3a 91 3f 1a df 75 bf
       -0.100406736 -0.010904706 1.1346021 -0.9604355
000010 6b 67 aa be 72 2a dd be 26 71 25 be 90 4b de be
       -0.33282027 -0.43196446 -0.16156444 -0.43417025
000020 f6 bd 48 be 7a de 10 be 35 43 28 bf de 41 85 bf
       -0.19603714 -0.14147368 -0.6572755 -1.0410726
000030 6a 59 55 be 6f 03 18 bf 51 bb 79 bf 2c 61 13 bf
       -0.2083489 -0.5938024 -0.9755145 -0.5757015
000040 ff c9 90 be c8 33 72 be 58 26 98 3f 4b 3f 64 bd
       -0.2827911 -0.23652565 1.1886702 -0.055724423
000050 e6 a9 92 be 92 74 3f bf 60 f0 29 3d db b5 4c bf
       -0.28645247 -0.7478725 0.041489005 -0.7996499
000060 9c dc 89 bc de 67 c3 3d 3e 42 57 3f db 8c 89 bf
       -0.016828828 0.095412955 0.8408545 -1.0746111
000070 c8 cb 8e be 49 2b fc 3e eb 13 70 bf fe 5f fa 3e
       -0.27889848 0.49251774 -0.9378039 0.4890136
000080 04 1a 4b 3e 76 33 36 3e 35 f8 e0 3e a7 fc ea be
       0.19834143 0.17793068 0.43939367 -0.45895883
000090 96 26 4d 3e bb 81 8e 3e 79 76 43 3e de e5 0e bd
       0.2003425 0.27833351 0.19088162 -0.034887187
0000a0 12 b2 1d bd 6b e0 55 bc c8 5c 5f bd 0d 56 df bd
       -0.0384999 -0.013053994 -0.054531842 -0.10905085
0000b0 b8 fb a1 bd 97 ee 42 3d b6 7a b0 be 64 3e da be
       -0.0790934 0.04759082 -0.3446862 -0.42625725
0000c0 07 a8 81 be d7 98 bb bc 86 76 9b 3f 35 97 87 3f
       -0.25323507 -0.022900028 1.2145545 1.059302
0000d0 60 52 bf 3d dd 0c 21 bf 68 c4 36 bf 37 76 ec be
       0.09341884 -0.6291025 -0.7139344 -0.4618394
0000e0 a6 dc 38 3e 7b 48 8b bd 37 6c ac 3e 7f dd 84 bf
       0.1805292 -0.06800934 0.3367631 -1.0380095
0000f0 9b c9 8b 3e fc b7 2e bf f3 48 65 be dd 4d 31 bf
       0.2730225 -0.6824949 -0.22391109 -0.69259435
000100 85 2b e5 bd 29 0c 63 bd 95 cb 21 bf 29 fb 38 3f
       -0.11189941 -0.05543152 -0.63201267 0.7225824
000110 60 79 63 3c 84 cb 1e bf fa 87 8a be 02 9a 9c be
       0.0138839185 -0.6202929 -0.27056867 -0.3058625
000120 b0 b7 7e bd 95 22 2f bc be 5f f7 be 13 ee 7a 3c
       -0.062186897 -0.010689397 -0.48315233 0.01531555
000130 01 b1 97 3e c5 a4 37 be 27 b5 b0 be e1 3a 24 bf
       0.2962723 -0.17933948 -0.34513208 -0.6415234
000140 76 98 4b bf 5b 78 d1 3e 35 2f de bd 42 78 ad 3e
       -0.7952951 0.40912136 -0.10848848 0.33880812
000150 ef 23 a7 3e 5a 29 0f bf 69 47 cc 3f 49 fb 7e be
       0.32644603 -0.5592247 1.5959293 -0.24900545
000160 0c ab 95 be b2 1d 02 3e 89 81 39 3e 43 fe c2 3e
       -0.2923206 0.1270664 0.1811582 0.3808461
000170 64 69 2d be b2 d3 ed be d8 2a 48 bf d5 69 0c bf
       -0.16934735 -0.46450573 -0.78190374 -0.54848987
000180 35 b3 3f 3e f9 9e 9f bd 47 97 ce be 12 95 4b 3f
       0.18720706 -0.077939935 -0.4034979 0.7952434
000190 2b 5a 0f be 09 71 30 bf a3 49 6e 3e 3a dc 56 bf
       -0.1399924 -0.6892248 0.23270278 -0.8392979
0001a0 de 81 8a 3e b9 6c 8d 3e 47 ee 72 be 1d cf 74 3d
       0.27052206 0.2762201 -0.23723708 0.05976783
0001b0 4a 6e 1d be c5 ed f2 be 2a 8a 9c bf 84 61 3f bf
       -0.15374103 -0.4744703 -1.2229664 -0.7475817
0001c0 68 4c 87 be 9e 96 31 be d9 24 c6 bf 7e 4b 31 3e
       -0.2642548 -0.17342612 -1.5479995 0.17313954
0001d0 72 8e 67 3e eb 12 aa be 7c d9 cb bf 4c 0e 01 bf
       0.22612932 -0.33217558 -1.5925746 -0.5041244
0001e0 19 91 99 be 8d 9a 52 ba d0 f0 a4 bf e3 81 02 bf
       -0.29993513 -0.0008033894 -1.288599 -0.5097944
0001f0 40 17 04 3d ed 7b c2 bd 5b ee 13 c0 7e 28 15 bf
       0.032248735 -0.09496293 -2.311423 -0.5826491
000200 0f fb ce bd e8 7f 80 bd cf 00 ad be bb 72 4e bf
       -0.101064794 -0.06274396 -0.3378968 -0.80643815
000210 f4 69 f9 3d 6b 17 4e bf 8b 71 2d 3f 2d 75 e4 be
       0.12178412 -0.80504483 0.6775138 -0.44620648
000220 6b 93 45 bf 55 9e 0e 3f 94 ec e7 3f 01 ff c4 bf
       -0.77178067 0.55710346 1.8119073 -1.5390321
000230 0c 33 92 be cf 32 8e be ef e7 9f bf e3 18 a9 bd
       -0.2855457 -0.2777314 -1.2492656 -0.082567
000240 d5 a5 e4 3e a1 08 3d 3f af d6 00 3d 33 f9 da 3d
       0.4465777 0.7384129 0.03145474 0.10692062
000250 6d 7f 67 be b5 5a b7 3c f8 b9 fa 3e db b5 58 3e
       -0.22607203 0.02238212 0.48970008 0.21163122
000260 44 c8 4b be 82 b5 8d 3e 33 20 c5 bf 21 cd 07 3f
       -0.19900614 0.27677542 -1.5400451 0.53047377
000270 55 4b ae 3e b7 41 8c bd fc 88 99 be 40 89 93 be
       0.3404185 -0.068484716 -0.29987323 -0.2881565
000280 a3 1e 25 3e d1 eb 20 be 21 64 42 3f d1 0a 7e 3f
       0.16124968 -0.15714957 0.75934035 0.99235255
000290 bc 79 4c be c1 1e a1 bd 23 6c b5 bf 77 4e 12 bf
       -0.19968313 -0.07867194 -1.4173626 -0.5715098
0002a0 6e 41 d7 bd de 55 77 bd 81 db 79 3f f0 ff 81 be
       -0.105105266 -0.060384624 0.9760056 -0.25390577
0002b0 4d dd 9d be 87 c3 e4 be 5c c0 35 bf 80 48 2b bf
       -0.30832902 -0.44680426 -0.7099664 -0.669075
0002c0 68 1a ab 3d 18 2b 74 bd a4 e0 33 3f 97 2d 47 bf
       0.08354646 -0.05961141 0.7026465 -0.7780394
0002d0 3d de af be 9c 59 3e bf ec 05 09 3f fa 59 df be
       -0.34349242 -0.74355483 0.5352466 -0.43623334
0002e0 df 84 ba 3e 24 3b 6b 3e 94 49 ec be 80 83 41 bf
       0.36429498 0.22971779 -0.46149886 -0.7559128
0002f0 d0 8f 8f 3c 38 3f 85 3d d6 8e 5e 3f e6 2c 02 3e
       0.01752463 0.06506199 0.869367 0.1271244
000300 e8 f7 73 3e 03 83 19 3e 65 b2 56 3e 26 e6 42 bd
       0.23825037 0.14991383 0.2096649 -0.047582768
000310 d8 b8 65 bd ca 4f cd be 4a 96 81 be c2 2c 11 bf
       -0.056084484 -0.40099937 -0.25309974 -0.5670892
000320 2e 68 94 3e 02 06 6d be 43 48 e0 3e af f2 bd 3f
       0.28985733 -0.23146823 0.4380513 1.4839686
000330 e2 90 3f 3e 6c de b3 3d 82 c9 c8 bf c0 6f 98 3e
       0.18707612 0.08782658 -1.5686495 0.29772758
000340 82 cd d1 3f 16 6d be 3d 12 ff 5d bf 8d 10 7f bf
       1.6390841 0.0929815 -0.8671733 -0.9963463
000350 50 3a 36 3d 28 0e 23 3e 8a 8e 47 bf 56 f9 41 3e
       0.044489205 0.15923369 -0.7795187 0.1894277
000360 5f aa 9d bc 28 82 a6 3f 00 7b 00 3d 94 d2 18 3d
       -0.019246278 1.300847 0.031367302 0.037310198
000370 cc 75 40 be f1 15 33 be 05 f4 90 bf 1f 86 fd b8
       -0.18794936 -0.17488839 -1.1324469 -0.00012088962
000380 7d 99 87 3e 8a 09 65 be bd fe bf bf 05 fb 52 3f
       0.2648429 -0.2236692 -1.4999615 0.82414275
000390 74 b6 f3 3d 6e 38 5d bf 96 ef 3c 3d ea 57 48 bf
       0.119000345 -0.8641423 0.046126924 -0.78259146
0003a0 b1 fa 4c bd c3 28 92 bd 33 ff 97 3f 18 6b 89 be
       -0.050043765 -0.07136681 1.1874756 -0.2683952
0003b0 e8 0a 95 be 79 f5 33 be 32 ac 9c bf 73 e2 d7 be
       -0.29109883 -0.17574109 -1.224005 -0.42164955
0003c0 03 18 67 be de b2 02 3f 14 4b a5 bf 99 4e 25 bf
       -0.22567753 0.5105418 -1.2913537 -0.64573056
0003d0 0d 2e 9f be 49 eb 12 bf e1 1b 50 3f d3 75 db bd
       -0.3108982 -0.57390267 0.8129254 -0.107158326
0003e0 ca d3 cd bd 25 48 c0 bd f1 95 7c bf 60 a1 8f 3f
       -0.10050161 -0.093887605 -0.9866629 1.1221123
0003f0 02 11 21 be ae 8b e2 be d7 52 69 bf 80 b0 e1 be
       -0.15729144 -0.44247192 -0.9114203 -0.4407997

w_group.0.bias f4 [64]
000000 2f 1a 43 bf bd 6c 23 bf 13 9e 4e bf f6 a3 7e bd
       -0.7621183 -0.63837796 -0.8070995 -0.062168084
000010 d0 02 1d be 57 68 13 bf a5 6f f4 be 6f c2 4b bf
       -0.15333104 -0.57581085 -0.47741428 -0.7959356
000020 4d cd 04 bf 1c 60 c4 be e5 3d 10 bf 22 5f 4a bf
       -0.51875764 -0.38354576 -0.56344444 -0.7905141
000030 56 0f 4d bf c0 c4 02 bf 5f 8b 87 be 7e 57 0b bd
       -0.80101526 -0.51081467 -0.2647352 -0.034018986
000040 a1 8d fc be 57 f4 0d 3e 3f 3c 3a be 14 43 4b 3d
       -0.49326804 0.1386274 -0.18187045 0.049624518
000050 e0 b5 0f bf b0 74 2e bf 54 ab 44 bf 09 6c 68 be
       -0.56136894 -0.681468 -0.76823926 -0.22697462
000060 5e 53 47 bf 03 a4 14 bd 99 40 f4 bd 06 3b 31 bd
       -0.77861583 -0.036289226 -0.119263835 -0.04326918
000070 b1 7c 6d be 11 a8 82 be 05 24 15 be cc 97 fa be
       -0.23192097 -0.2551885 -0.14564522 -0.48943937
000080 03 44 35 3e 15 2a 13 be f3 ef c2 bd f6 92 ae be
       0.17701726 -0.14371522 -0.09518423 -0.34096497
000090 f8 55 22 bf c3 48 18 3e cd 2c 52 be c6 f1 31 bf
       -0.6341243 0.14871506 -0.20524903 -0.6950954
0000a0 24 36 53 be 5d e6 13 be ae 02 ce be 0e 25 06 bc
       -0.20626122 -0.14443345 -0.4023642 -0.008187545
0000b0 b4 c2 4b be 41 94 b0 be fe 02 a6 be 3b 96 41 be
       -0.19898492 -0.3448811 -0.32424158 -0.18904965
0000c0 93 8f 38 bf 8c 49 d5 3d 5c 21 5b be 2b 2f 29 bf
       -0.72094077 0.104144186 -0.21399444 -0.660876
0000d0 db e4 56 bf 03 aa f9 be 6e 55 22 3d b8 41 f8 be
       -0.83942956 -0.4876252 0.039632253 -0.4848764
0000e0 29 62 53 be 36 a0 13 bf 72 2b 8d be e1 1a 49 3e
       -0.20642914 -0.5766634 -0.2757221 0.1963916
0000f0 2c 98 80 bc 72 ed 0f bf 79 86 97 be 27 14 bc be
       -0.015697561 -0.5622169 -0.29594782 -0.36734125

w_group.2.weight f4 [32, 64]
000000 ab 87 8a 3d 58 18 9e be 91 a2 ba bd 3d ea ec be
       0.06764158 -0.30877948 -0.09113038 -0.4627246
000010 13 dd c1 bd e4 9f 8d 3d 0a 64 b2 bd 17 e0 e1 3d
       -0.09465995 0.06915262 -0.08710487 0.1102907
000020 cf d1 14 be 00 2d ff bc fb ee 2b 3e 31 a9 ce 3d
       -0.1453316 -0.031149387 0.16790383 0.100908644
000030 07 4e 1e be 63 36 be 3e c9 6d b6 3e 99 02 76 bb
       -0.15459453 0.3715087 0.35630634 -0.003753817
000040 5c 34 5c 3d aa ac 4c be ec c4 cd 3e ef 52 03 be
       0.05376087 -0.19987741 0.40189302 -0.12824605
000050 5d f4 e1 be 0c 0b 79 be 2b 16 39 be 30 33 60 be
       -0.44131747 -0.2432062 -0.18074863 -0.21894526
000060 af 27 ad 3e bd f3 07 bd d7 0e 24 3e 9d 49 11 3f
       0.3381934 -0.03319143 0.16021286 0.5675295
000070 af e0 07 3f 5d 50 01 bf 95 da 21 3f b5 f0 81 3c
       0.53077215 -0.5051325 0.63224155 0.015861848
000080 ed 9f 98 be 61 29 4f bf be 7b d6 bd 68 0a 17 bf
       -0.29809514 -0.80922514 -0.10472821 -0.59000254
000090 2b 60 eb 3d 1b c1 3f bd b2 d6 3a 3c 88 b1 eb 3c
       0.11492952 -0.04681502 0.011403726 0.028771177
0000a0 53 9d 65 be 95 a8 4c be e0 2d ef ba ed 21 40 bf
       -0.22423296 -0.19986184 -0.0018247925 -0.75051767
0000b0 8b 9e 4c 3e ec c3 2d be b1 cc a3 3e 30 15 5a 3e
       0.19982354 -0.1696927 0.31992105 0.21297145
0000c0 7b c3 3a 3f 6e 34 5b be 89 7d 1f bd 16 d9 bd 3e
       0.7295453 -0.21406719 -0.03893808 0.37079686
0000d0 7a 33 72 bf 19 a7 88 3f 7f 17 93 bd 3f 16 1e 3c
       -0.94609797 1.0675994 -0.07182216 0.009648859
0000e0 f0 1a 60 3e 20 0e 9f 3e 1a 05 cd bd bf 30 b2 bd
       0.21885276 0.31065464 -0.10010739 -0.08700704
0000f0 97 6b 20 be c5 23 20 be de 68 dc bd 07 06 fc bd
       -0.15666042 -0.15638645 -0.10762189 -0.12305837
000100 49 6a 15 3f cc 5b eb 3e 4d d9 87 3e 2a 5f 73 be
       0.58365303 0.45968473 0.26532975 -0.23766771
000110 3f 66 7c be 1e a9 01 3e fd 2a f3 bd 73 15 aa 3e
       -0.24648379 0.1266217 -0.11873434 0.3321949
000120 3c 84 08 3d e0 2c 48 bc b7 d2 56 3e f0 fe 22 3e
       0.033329234 -0.01221773 0.20978819 0.15917563
000130 69 d1 16 be c7 ac a9 3c 11 29 59 3e f3 be 2b 3e
       -0.14728321 0.02071227 0.21207072 0.1677206
000140 0b 91 c1 3e 2c c8 84 3e a1 b2 00 be 8d 95 05 bf
       0.37805972 0.2593397 -0.12568142 -0.5218132
000150 74 37 93 be d2 f2 82 3e e6 a3 96 3e be 00 e5 be
       -0.28753245 0.25575882 0.2942192 -0.4472713
000160 84 aa 06 bc 8d d2 c9 3d 6d c2 34 3d 6d 9d a2 3d
       -0.008219365 0.098546125 0.04413073 0.07940183
000170 0e 2a 3d be 37 9b a9 3e 8e 06 12 bf 3f 31 43 bc
       -0.18473074 0.33126232 -0.5704125 -0.011913597
000180 80 6e c0 be 94 45 2b bf 8d 3b 6c be 24 3f b4 3d
       -0.37584305 -0.6690304 -0.23069592 0.088011056
000190 c5 4b 55 be 42 ef b8 3e 87 a4 00 3b 9a c1 f4 3c
       -0.20829685 0.3612004 0.0019629316 0.029877473
0001a0 5d 18 48 3d ad 56 52 3e fc 90 a4 bd 92 8f c5 be
       0.04885136 0.20540877 -0.08035466 -0.38586098
0001b0 35 7d f8 be 71 de ae bd 6b 60 63 3c 6f 4f 14 bf
       -0.48533025 -0.08538521 0.013877968 -0.57933706
0001c0 c2 02 98 3e 47 60 b0 bd 8d 03 aa ba 6b 1d 2b 3e
       0.29689604 -0.086121134 -0.0012971029 0.16710441
0001d0 94 c5 40 bf 2e 0c c9 3e 19 55 26 3d fc 1b 02 be
       -0.7530148 0.39267105 0.0406085 -0.12705988
0001e0 b1 76 2c bd be a6 23 bf 15 ab 6a 3d a0 e5 ab 3d
       -0.04210538 -0.63926303 0.057292063 0.08393407
0001f0 2b f7 b6 bd 42 b0 36 3d 80 29 69 3d 08 21 05 be
       -0.08933862 0.044601686 0.056924343 -0.13000882
000200 9e 5f df bd 67 c7 d6 3d b1 0e 7b bd c5 bb d5 be
       -0.109069094 0.10487252 -0.061293308 -0.4174482
000210 b7 c3 d1 bd 2f a6 98 3d dd 7e ef 3c 23 c6 4c 3d
       -0.10242408 0.07453572 0.029235298 0.049993645
000220 da 8a e7 3d af bf f1 bd bd a8 13 3d 41 f7 31 be
       0.11305781 -0.11804139 0.036049593 -0.17379476
000230 4f ee ec bd 8f 59 e7 bd ba c6 1c 3e 78 a5 6d be
       -0.11568891 -0.11296379 0.15310183 -0.23207653
000240 c1 6b c8 bc 79 19 c2 bd a4 2d ce 3b 5e 82 55 bd
       -0.024465444 -0.09477515 0.006292062 -0.05212628
000250 92 4c 22 be 1b 74 0a 3e 0e d2 f3 3d 9c b3 94 ba
       -0.15849522 0.13520853 0.11905299 -0.0011345032
000260 df 98 2a be 04 a0 ed bd 49 73 c9 3d 99 f7 43 be
       -0.16659878 -0.11602786 0.09836442 -0.1913742
000270 69 a8 23 bd 85 00 c7 bd 41 64 f1 3c 34 5f 0a be
       -0.03995553 -0.09716896 0.02946675 -0.1351288
000280 fd e0 a0 bd 4f 08 86 bd de 9d 3a 3c 6e 20 d9 bd
       -0.07855413 -0.065445535 0.0113901775 -0.106018886
000290 f5 d4 bf bd 19 2a 6e be 3e 2a 23 be 93 54 32 be
       -0.0936679 -0.23258246 -0.15934083 -0.17415075
0002a0 fa 51 17 be 5d 0e a0 bb 26 c7 e2 3d a9 8f 20 3d
       -0.14777365 -0.0048845247 0.11073141 0.039199505
0002b0 95 6e 45 be b8 60 84 3d 26 3a cc bd ee 67 3e 3e
       -0.19280465 0.0646376 -0.099720284 0.18594334
0002c0 92 d5 9d bc f9 b9 2e bb 2a 6b ee bc 24 ad 67 be
       -0.019266877 -0.0026661141 -0.029103834 -0.22624642
0002d0 bb 64 45 3d 3c dc 93 3c 07 6a c8 be a8 bd 9f 3d
       0.048191767 0.018049352 -0.39143392 0.07799846
0002e0 1c 91 2d 3d 7d 43 6a bd a9 c4 04 3d 98 ff 90 be
       0.042374715 -0.057193268 0.032414112 -0.28320003
0002f0 f1 ba ab 3d b0 8c 5c bd 70 ed a1 bd 28 ed 20 bd
       0.083852656 -0.053845108 -0.07906616 -0.03928867
000300 ec 95 6c 3d c8 fa 53 be 7c 9c 98 3d 55 7d be be
       0.057760164 -0.20701134 0.07451722 -0.37204996
000310 72 7b a3 bd 6e f3 98 bd 70 05 e2 bd 15 58 22 be
       -0.0798253 -0.074683055 -0.11036193 -0.15853913
000320 97 5f d6 bd b8 d8 02 be 28 dc 9b bd be 21 99 3b
       -0.10467451 -0.12777984 -0.07610351 0.004673212
000330 58 95 92 3d 66 b8 52 be 58 04 a0 be 43 4c 62 be
       0.07157391 -0.20578155 -0.31253314 -0.22099404
000340 08 22 92 bd aa 2c f7 3c bb c8 2f be 74 e6 38 be
       -0.07135397 0.030172665 -0.17166416 -0.18056661
000350 43 47 28 bc f6 e9 54 3c de 50 6b bd 90 88 53 be
       -0.010270896 0.012995234 -0.057450168 -0.20657563
000360 c4 87 89 bc 5b f9 24 bd aa 52 86 be ef 6a a8 be
       -0.01678837 -0.040276866 -0.26234943 -0.32894084
000370 ef 5d 9d 3d 31 75 59 be 20 74 85 bd 21 93 8e 3d
       0.07683932 -0.21236111 -0.0651629 0.06961656
000380 b9 d7 4f bd e1 27 6b 3c 88 8d ac 3a ee c3 20 bd
       -0.05074284 0.01435277 0.0013164738 -0.039249353
000390 db bc d1 3d 47 67 e3 bd 8a 69 ae 3c a4 7d c0 3d
       0.102410994 -0.11103683 0.02129056 0.09398964
0003a0 64 2b 4e be 28 04 a3 bd b4 b5 4d 3d 9d 0b 6d 3d
       -0.2013374 -0.07959777 0.050222114 0.057872403
0003b0 2a 6b 07 be ed 14 bf 3d f5 9b 9b be 14 f3 9b 3d
       -0.13224474 0.09330163 -0.30392423 0.07614723
0003c0 c7 4d 2d 3e ac ba df 3d e3 e9 c5 3d d7 c4 f3 3d
       0.16924201 0.10924277 0.09663751 0.119027786
0003d0 61 7b 15 3d b0 38 92 3e cb 69 2c be f0 66 aa 3c
       0.036494616 0.28558874 -0.16837232 0.020801038
0003e0 0d d2 69 3d ba 16 63 3d 66 01 d3 3a 79 c7 44 be
       0.057085086 0.055441596 0.0016098439 -0.19216718
0003f0 83 50 6e 3d e5 ea 1e be 20 a2 a2 3d ed 57 c7 bd
       0.05818225 -0.15519293 0.07941079 -0.097335674

w_group.2.bias f4 [32]
000000 9e 49 3e bf 43 9e 05 bf 3d 03 f8 bc 05 ec b1 be
       -0.7433108 -0.52194613 -0.030274982 -0.3475038
000010 55 6d b6 3e 1f cc a4 be 8b 55 74 be 74 9c fc be
       0.3563029 -0.32186982 -0.23860757 -0.49338114
000020 87 50 81 3d 99 58 ec bd ea 7b 16 be af ec 3e bd
       0.063141875 -0.11540336 -0.14695707 -0.046612438
000030 e4 41 56 bd 7f 30 f4 bd b2 88 79 bc 83 3e 62 be
       -0.052308932 -0.119233124 -0.015230345 -0.22094159
000040 59 9f e7 be ca 26 c3 be 65 7f 97 bf 7f af e0 3e
       -0.4523876 -0.3811553 -1.1835753 0.43883893
000050 8c 4c 19 be 5d e1 2b bc 01 90 1d 3e 79 fd 89 bc
       -0.14970607 -0.0104907425 0.15386964 -0.016844498
000060 b9 a8 c6 bd 5c 0f 63 be e8 cb 04 bf ba 5a f9 bd
       -0.0970015 -0.22173828 -0.51873636 -0.12175508
000070 2b c7 1e bd 53 8c 96 be 03 f7 72 be 97 d0 2d 3e
       -0.03876416 -0.29403934 -0.2372704 0.16974102

w_agents.0.weight f4 [64, 5]
000000 f6 60 a2 3d 06 d1 34 bd ef 9a c8 3d 06 d6 b1 3d
       0.0792865 -0.044144653 0.09795176 0.086834
000010 cf 45 a1 3d 75 14 f6 3b 51 66 b4 bc 5d ac c1 be
       0.07874643 0.007509763 -0.022021445 -0.37826815
000020 4d 36 2d be cf 17 e4 be dc b9 81 bb 1f d4 c3 3d
       -0.16915245 -0.44549415 -0.0039589237 0.09561943
000030 6f 00 b4 3d 67 c5 07 3e 3b db 67 be f0 94 54 bd
       0.08789145 0.13258897 -0.22642224 -0.05189985
000040 72 ef 9a 3d a1 9f 49 3e 62 1f ea 3d 98 aa 38 bf
       0.07565202 0.196898 0.11431767 -0.72135305
000050 4b e8 14 3e 2b df 94 3d a7 ff 0f 3f 6a e1 a0 bf
       0.14541738 0.072691284 0.5624947 -1.2568791
000060 83 f3 43 be f0 57 b6 be 36 09 a7 be 8c cc 9f 3e
       -0.19135861 -0.35613966 -0.32624215 0.31210744
000070 68 35 91 3f 38 b0 da be dc 3e c7 3b f7 21 8c 3e
       1.1344423 -0.4271257 0.0060804915 0.27369663
000080 ff 55 4d be ca 58 0d 3f 33 22 36 bf f1 e9 12 3d
       -0.20052336 0.55213606 -0.71145934 0.035867635
000090 14 87 a5 bd b5 5f 86 bd f8 50 24 3e 6a b5 34 bf
       -0.08082405 -0.065612234 0.16046512 -0.70589316
0000a0 ed 7a 66 be a7 0b 20 3c b9 93 11 be d7 72 7a bf
       -0.2250783 0.009768403 -0.14216508 -0.9783148
0000b0 42 81 f2 be 30 0d a2 be 99 c8 7d bd 3b 52 da be
       -0.4736424 -0.31650686 -0.061958883 -0.42640862
0000c0 0e 40 12 be 96 0b d4 bf e2 0f e0 be 21 05 23 3f
       -0.14282247 -1.6566036 -0.43762118 0.636797
0000d0 cb de 90 3f 7c 0a e6 be 0b 9e 17 bf d8 b0 85 3d
       1.1317991 -0.44929874 -0.5922553 0.06527871
0000e0 4b 6a f9 bd 98 10 94 3f 20 bd 48 3f fa ee 6b bf
       -0.12178477 1.1567564 0.7841358 -0.92161524
0000f0 28 61 2c be fa 18 33 be 48 19 2a bf c1 74 ed 3f
       -0.16833937 -0.17489997 -0.66444826 1.8551255
000100 97 1f 65 bf d0 00 02 bc 92 c1 cb 3c 24 69 8f bc
       -0.8950133 -0.007934764 0.024872575 -0.01750619
000110 c3 dd 6f 3e 32 96 02 3d f9 6e 42 3d cf 72 1f 3f
       0.23424439 0.03188152 0.047469113 0.6228456
000120 0b a4 1b 3e de 57 a4 3f 31 3d a9 bf 18 78 81 bd
       0.15199296 1.2839315 -1.3221799 -0.06321734
000130 5e 51 92 3e 94 6c e7 3e 8d 46 23 3f 4f 2f 5c bf
       0.28577703 0.45200026 0.63779527 -0.8600969
000140 0c 00 da 3e d9 0e c3 3e f4 6c a2 bf b8 e3 0e 3e
       0.4257816 0.38097265 -1.26895 0.13954055
000150 ff 10 20 bf 43 50 8a be 63 b4 91 3e 46 1c 80 3f
       -0.62525934 -0.2701436 0.28457937 1.0008628
000160 73 82 c4 3f ee 1d 63 bf 42 3f 10 bf f2 dc d2 bd
       1.535231 -0.88717544 -0.56346524 -0.10296048
000170 48 6e 68 3f b6 ca 89 3f 89 a0 d9 bf 31 9f 36 bc
       0.90793276 1.0764987 -1.7002116 -0.011146353
000180 d6 2b a1 3d 1b 1f ab bc 1a 0c 9d 3e 65 c7 2c bf
       0.07869689 -0.020888856 0.30673295 -0.6749175
000190 6f 39 2e 3c b9 a8 62 bc e5 1b 11 be c8 90 d7 3e
       0.01063381 -0.013834172 -0.14170797 0.42102647
0001a0 61 70 69 bf 77 85 2b bd 78 2e 23 3f 27 8d 86 3e
       -0.911871 -0.04187533 0.6374278 0.26279566
0001b0 85 95 2f 40 08 0e f2 be 6e 04 73 bb 1a 7d 0f 3e
       2.743501 -0.4727633 -0.0037081498 0.14012566
0001c0 64 72 ae bd e0 90 2b 3f fe 57 27 be ae a6 99 3e
       -0.08517912 0.67017937 -0.1634216 0.3000998
0001d0 55 e7 84 3f 87 2a 21 3f c6 b1 e3 3f 94 d7 ae bf
       1.0383097 0.62955517 1.7788627 -1.3659539
0001e0 65 b3 5d be ba 53 ff 3e f9 26 fd be dd 45 e4 3f
       -0.21650465 0.49868566 -0.49443796 1.783382
0001f0 1d 7e 74 bf 8e b3 b7 3d 79 6a 1b 3e 5c e7 a8 bc
       -0.95504934 0.08969794 0.15177335 -0.020618133
000200 3d f1 89 3e c5 4a 02 bf 75 27 45 3d c5 ac 71 3e
       0.26941863 -0.5089534 0.048133332 0.23601063
000210 ee bc 8b bd df 48 a9 3e 0f 96 0d bf 21 e7 08 be
       -0.06823145 0.3306341 -0.55307096 -0.13369419
000220 cb eb 94 3e 8c b4 14 3f 11 f9 65 3f a8 33 95 bf
       0.29086146 0.5808799 0.8983317 -1.1656389
000230 9b be e8 be a9 1f 6e 3f 64 af 4d 3e 5f 66 42 3f
       -0.4545792 0.9301706 0.20086437 0.75937456
000240 6a 7d 75 bf 95 a2 da 3e a8 c8 c4 3d dd 4c 21 3d
       -0.9589449 0.42702165 0.09608585 0.039379943
000250 29 b4 45 3f a8 57 57 bf 52 d0 bf be 1f a1 d9 bd
       0.7722803 -0.8411813 -0.37463623 -0.106264345
000260 3b fd 6a bf 0c 00 bb 3f 61 10 85 bf 18 27 a4 3d
       -0.9179265 1.4609389 -1.0395623 0.08015269
000270 ff 2e 97 3d 50 0b 4b 3e 31 c9 07 3c 36 52 14 bf
       0.07382011 0.19828534 0.008287714 -0.57937944
000280 99 2a 15 3e 48 41 76 3b ba 3a 6f bf d1 42 af 3f
       0.14567031 0.0037575532 -0.93448985 1.3692266
000290 77 3d 1a bf 30 b1 64 3e 5e 5c 8c 3f ce 69 4a 3f
       -0.6025004 0.22333217 1.0965688 0.79067695
0002a0 25 a6 12 40 19 c8 e0 be fb 57 49 3e db 58 96 3f
       2.2913907 -0.43902662 0.19662468 1.1745867
0002b0 10 46 ca bd 4e 86 bd 3f 5c d9 69 3e cc 8a d2 3d
       -0.098766446 1.4806612 0.22836822 0.1028038
0002c0 58 8d 3c be 5c 40 75 bf cc c1 5d 3f 26 e3 87 bf
       -0.18413293 -0.9580133 0.86623836 -1.0616195
0002d0 0f 6e 40 bf 89 5a e7 3f 19 70 17 3f e3 2f 35 bf
       -0.75167936 1.8074504 0.5915542 -0.70776194
0002e0 b1 e5 92 be 8e 32 d1 be bd d4 96 3f a6 0d 00 be
       -0.28690866 -0.40858883 1.1783673 -0.12505206
0002f0 09 78 a5 3f 74 ae d6 be d6 25 3b bd ba 06 a7 3e
       1.2927257 -0.41929972 -0.04569038 0.3262232
000300 21 f8 1a 3e 0b 6d 7b bf 31 48 c6 be d9 e9 6a 3d
       0.15133716 -0.9821326 -0.38726953 0.05735192
000310 24 97 92 3e fa 5a 29 3f f0 ea b6 bb 72 0d b3 bf
       0.28630936 0.66154444 -0.005582206 -1.3988478
000320 a6 67 7c bd e7 d1 24 3e 49 f5 26 3e 34 ee 08 3f
       -0.061622284 0.16095696 0.16304506 0.5348847
000330 67 da 0a bf 2d 82 82 3d 94 6b 05 40 27 91 21 bc
       -0.54239506 0.06372485 2.084691 -0.009861267
000340 95 fb 3c bf d3 fa 82 be e0 d5 3d bd 1c ed 9f 3f
       -0.73821384 -0.2558199 -0.046346545 1.2494235
000350 de 9c 9f be 58 cc 9c bf 7e fc b6 be a0 e0 07 3f
       -0.31174368 -1.2249861 -0.3573951 0.53077126
000360 54 22 ea be a6 a9 ab be b1 c1 a0 3d c1 00 3f bf
       -0.45729315 -0.3352787 0.07849444 -0.74610525
000370 80 86 ff 3e e0 68 35 3f cf 08 2a bf b0 d8 f8 3f
       0.49907303 0.7086315 -0.6641969 1.9441128
000380 b1 e1 2a be 49 1a 29 3d 0f 16 be 3f d7 8c fe be
       -0.16687657 0.041284833 1.4850482 -0.49716827
000390 19 04 91 3f 3f ee f9 bc 19 f6 b6 be 71 0a 9f 3f
       1.1329376 -0.030509112 -0.35734633 1.2425061
0003a0 a6 a2 6b bf 46 46 e1 3f 29 4a a9 bf 8b 73 0e be
       -0.92045057 1.7599571 -1.3225757 -0.13911264
0003b0 1e 83 97 3e c1 1b 3f bf 25 24 a0 3e f8 e7 64 bf
       0.29592222 -0.74651724 0.31277576 -0.89416456
0003c0 35 07 1a 3f d0 a0 31 3f f3 77 d8 3e 1d a8 9c 3f
       0.6016725 0.69386005 0.42279014 1.2238804
0003d0 1a c0 c8 bf 7a 82 93 3e b2 3e 07 bf 6a df 8c bf
       -1.5683625 0.28810483 -0.5283004 -1.100568
0003e0 9b d0 3d 3f d6 1d 69 bf 34 1b 02 be c6 d3 8b 3d
       0.7414643 -0.9106115 -0.1270569 0.06827502
0003f0 6d 73 c4 3e d2 ed bd bf 17 71 c4 bd 1f 34 37 be
       0.38369313 -1.4838202 -0.09591883 -0.17890976

w_agents.0.bias f4 [64]
000000 a3 6e 40 bf 3b 63 c0 be 53 f1 b1 be 7e 50 8f be
       -0.7516882 -0.37575707 -0.34754428 -0.27991098
000010 56 86 3f bf 76 b3 27 bf 9c ec 43 bf 35 26 b7 be
       -0.74814355 -0.6550821 -0.7653291 -0.35771337
000020 71 68 49 be 97 77 b6 bf 2c 8f 1e bf 5f 68 9d bf
       -0.19668747 -1.4255246 -0.6193721 -1.2297477
000030 b5 af 97 bf 7b aa a6 be cd 54 83 bf f4 95 6d bf
       -1.1850497 -0.3255194 -1.0260254 -0.92806935
000040 39 63 59 bf af 3b 53 bf 90 bf bb bf e2 b9 26 be
       -0.84917027 -0.82512945 -1.4667835 -0.16281846
000050 4a 0a b6 be 79 0e c3 be 8c 2e 1f bf e1 84 52 bf
       -0.35554725 -0.3809698 -0.621804 -0.8223401
000060 a8 2f 8c bf 83 3c 01 bf 9f 37 28 bf 9c cb 7f bf
       -1.0952044 -0.5048296 -0.6570987 -0.9992006
000070 73 2f 79 bf a1 5c 0d bf cf 47 ad bf 10 7e 10 bf
       -0.97338027 -0.55219465 -1.3537539 -0.56442356
000080 01 64 c4 be 8e ae 1f bf b4 75 84 bd d9 c4 9e bf
       -0.38357547 -0.62375724 -0.064677626 -1.2403823
000090 bd 03 df be 26 89 37 bf 46 87 c0 3d bf 42 8e bf
       -0.4355754 -0.71693647 0.09400801 -1.1114119
0000a0 44 bd 01 bf d3 41 96 3d 14 22 4e bf f0 60 90 bf
       -0.5067942 0.07336774 -0.8052075 -1.1279583
0000b0 a3 63 f8 be 65 de 1f bf 57 59 52 bf 7a 52 83 be
       -0.48513517 -0.6244872 -0.8216757 -0.25648862
0000c0 5d 7b 71 bf 3d 4e 8a bf 3a ec 62 bf 10 55 79 bf
       -0.9432886 -1.0805126 -0.88641703 -0.9739542
0000d0 97 29 3e be 8a d3 18 bf fa 4f 1a bf e9 34 e4 be
       -0.18570553 -0.59697783 -0.60278285 -0.44571617
0000e0 59 2c fa be 27 ac 06 bf 41 fa da be 2e ae a5 bc
       -0.4886196 -0.52606434 -0.42769054 -0.020224657
0000f0 67 a4 90 3d 3d 16 24 bf 52 91 9b bf 79 4e d0 be
       0.07062607 -0.6409643 -1.2153723 -0.4068487

w_agents.2.weight f4 [32, 64]
000000 16 48 23 3d 1a b3 01 be f7 33 d9 bc cf 1f 0b bd
       0.03986367 -0.12665978 -0.026514037 -0.033965882
000010 56 1b 04 be 87 f4 29 3d 49 66 97 bd 75 b2 df 3c
       -0.12901053 0.041492965 -0.07392556 0.027306775
000020 bb ca 2f 3c 8a b6 17 be cc 42 c5 3c c5 15 20 3e
       0.010729487 -0.14815727 0.024079703 0.15633304
000030 2d bd b1 bc 6f bc ec 3c bb 82 40 3c 44 dd 76 bd
       -0.021696651 0.028898446 0.011749919 -0.06026961
000040 23 84 b2 bd 93 36 47 bd 18 ba 08 be a7 01 90 bd
       -0.08716609 -0.04863603 -0.13352239 -0.07031565
000050 55 55 fd bd 41 fd da bd ae b0 6f be a1 a4 36 be
       -0.123697914 -0.106928356 -0.23407242 -0.17836238
000060 2f 16 a5 bd 1c 34 87 3d 4e ee 68 3b cc 61 f2 bd
       -0.08060872 0.06601736 0.0035542431 -0.118350595
000070 da 35 49 be 5e 5c 85 3c 4b 1e 54 3d c0 47 e9 bb
       -0.19649449 0.016279396 0.051786702 -0.007119149
000080 a5 9a 4a 3d 81 a1 d1 bd 74 9d f3 bc 72 3b c8 bd
       0.049463887 -0.102358826 -0.029738165 -0.09776963
000090 5e 8d 56 be 25 b3 08 be c2 0c e9 bd e6 56 27 be
       -0.20952365 -0.13349588 -0.113793865 -0.16341743
0000a0 88 b8 8d bd fb ee 0b be 2c 22 85 bc 1a c8 a4 3d
       -0.06919962 -0.13665383 -0.016251646 0.08045979
0000b0 ce 1d 88 3c d9 eb 85 bd cd 30 54 be f3 29 8e bc
       0.016615774 -0.06539125 -0.20721741 -0.017353987
0000c0 8d f2 5a bc 0e dd 90 3b 04 d2 09 be 94 ad 6f be
       -0.013363493 0.004420883 -0.13459021 -0.23406059
0000d0 6f c4 8c bc e2 1d 24 3c 81 ca 5e 3c 1e 0d 29 be
       -0.01718351 0.01001689 0.013598085 -0.1650891
0000e0 8a 9f 8c 3c 54 2f 9b bd dd 46 50 be 56 23 94 3d
       0.017165918 -0.075773865 -0.20339532 0.07233302
0000f0 4f 3a 99 bc bf af 73 3c 34 eb 3e bd e5 a6 1b be
       -0.018704562 0.014873444 -0.046611026 -0.15200384
000100 67 18 5c 3d 2e 66 65 be 03 7b 02 bf 8f c2 44 be
       0.05373421 -0.2240226 -0.5096895 -0.19214843
000110 31 d8 01 c0 89 0b 2f 3e d8 bf bd 3e ec 74 09 3d
       -2.0288203 0.17094244 0.37060428 0.03355877
000120 7d 98 02 3f a4 e0 38 bf db a7 e7 bb 75 37 66 bf
       0.5101393 -0.72217774 -0.0070695705 -0.8992837
000130 8e f8 db bf 66 d4 ac 3c 19 f0 b5 be 07 47 80 be
       -1.7185228 0.021097373 -0.35534742 -0.2505419
000140 8f e3 a5 3f bf d6 f5 3e 49 b5 16 3f e4 a7 1b 3e
       1.296007 0.480154 0.5887037 0.15200764
000150 0c 9d 55 bd 05 69 1c bf 54 05 91 bd ca 2a 2a bf
       -0.052151725 -0.6109775 -0.070810944 -0.6647154
000160 4a 69 8a 3f 12 22 dc bd 33 48 0b 3b c8 45 b3 bf
       1.0813382 -0.10748686 0.002125275 -1.400567
000170 ab 61 2a 3f 29 ea 90 be 5d 91 a8 bf 9b 68 9b bd
       0.6655528 -0.2830365 -1.3169361 -0.07588311
000180 29 c9 b8 bf 10 94 c4 be b4 d7 a9 bf 7f 17 a4 3e
       -1.4436389 -0.38394213 -1.3268952 0.32049176
000190 6d 64 97 3e 79 02 f4 3e d8 fa 26 c0 ca f9 bd be
       0.29568806 0.47658136 -2.6090603 -0.37104636
0001a0 51 3f db bd ea 16 ad bc f0 01 1b c0 78 26 96 3d
       -0.10705436 -0.02112909 -2.4219933 0.07331556
0001b0 83 13 18 be 61 fc a9 be eb d6 6c bf 79 a5 63 bf
       -0.14851193 -0.33200362 -0.9251544 -0.88924366
0001c0 25 78 43 be 5e ab 13 3f 7e 5b e1 bf 02 ce 28 bf
       -0.190888 0.5768336 -1.7606046 -0.6593934
0001d0 ac f1 0f 3a bb bb bd 3d e2 a7 e0 3e 4e ca 3e bd
       0.0005491029 0.09264322 0.43878084 -0.04657965
0001e0 0e e1 b4 be 25 98 8a be 4a e8 aa be 57 c9 c6 bf
       -0.35327953 -0.27069202 -0.33380347 -1.5530194
0001f0 55 6b 45 3c 2a 64 07 c0 d1 19 c9 be a0 2e 33 3d
       0.012049516 -2.1154885 -0.3927751 0.043745637
000200 8b d4 a5 bd 71 06 94 be 7b 04 ab bc 17 df ce 3e
       -0.0809718 -0.28911164 -0.02087616 0.4040458
000210 61 49 55 be 90 dc 73 bc a2 fc 69 bc 7a 4d 11 bf
       -0.20828773 -0.014884129 -0.014281424 -0.56758845
000220 27 13 88 bd d0 bc 2a 3e 6c eb 06 bd cf c1 83 bd
       -0.06644278 0.16673589 -0.03293936 -0.064334504
000230 50 15 85 3e d5 31 a3 be 6b c2 92 bd 4d 1b 7f 3e
       0.25992823 -0.31873956 -0.071659885 0.24912758
000240 35 bc 08 be b3 63 10 bf 07 c2 39 bd ee 17 5d 3e
       -0.13353045 -0.5640213 -0.045351055 0.2159116
000250 e7 b0 b3 be fe 98 94 be e7 81 13 be a9 ae cf bd
       -0.35095903 -0.29022974 -0.14405023 -0.10140736
000260 53 14 88 3d e2 96 d6 be c9 43 81 bd 85 88 c0 3c
       0.066445015 -0.4191199 -0.06311757 0.023502598
000270 96 f2 58 3d af c6 d4 be fd 79 89 be d1 14 ad 3d
       0.052965723 -0.41557834 -0.26850882 0.08451236
000280 0c 27 10 3d 50 35 ab be 29 9d a9 bc 2f 05 32 3c
       0.035193488 -0.33439112 -0.020704823 0.010865494
000290 e4 b4 47 bc cb 3b 57 be b5 74 48 be 87 37 0e 3b
       -0.012189124 -0.21018903 -0.1957577 0.0021700577
0002a0 44 d3 38 3e 7f 22 b9 ba 5a 05 2d be 2e 16 08 bf
       0.18049341 -0.001412466 -0.16896573 -0.53158844
0002b0 95 39 ab be 8c 03 89 be f2 b1 dd be 9c 8d 24 be
       -0.3344237 -0.2676052 -0.43299824 -0.16069645
0002c0 57 24 ad 3c a0 22 20 bd 3f 37 0e be ea c6 2e bd
       0.021135492 -0.03909552 -0.13888262 -0.042670168
0002d0 14 7e ff bd f4 c5 5b 3d 35 6e 02 be f8 79 5e 3d
       -0.12475219 0.05365558 -0.12737353 0.054315537
0002e0 78 25 24 bd bb 53 47 3d f9 eb 6c bd be 0b 3c 3e
       -0.040074795 0.048663836 -0.05784223 0.18363854
0002f0 6a 37 40 3d 9e 6a 46 3e c2 3b 58 be cb 34 26 be
       0.046927847 0.19376609 -0.21116546 -0.16231076
000300 87 36 40 bd 30 f3 75 bb 27 ec 3a bc bf f5 71 3e
       -0.046927 -0.0037528984 -0.011408842 0.23628901
000310 3e 21 93 bd ca 6b 7e be d4 6a 69 3e 74 f0 f2 3c
       -0.07184075 -0.24845806 0.22794658 0.029655673
000320 75 35 22 3d e5 30 01 bf f1 4e 3c 3f 00 40 e6 3e
       0.03960176 -0.5046523 0.73557955 0.44970703
000330 bd f4 f8 3e 20 bc 2a bd 6c 3d 8c bf 33 36 2c 3e
       0.4862422 -0.041683316 -1.0956244 0.1681755
000340 96 58 38 3d 43 61 e7 3e 2f c1 1b 3e 0e 88 f6 3c
       0.045006357 0.45191392 0.15210412 0.030094173
000350 82 f6 74 3d b9 82 e4 be 65 5f 93 3c ac d5 bd 3e
       0.0598054 -0.44630983 0.017989824 0.3707708
000360 94 e4 61 be bc e2 02 3d 2b 14 94 3e 55 19 2a 3d
       -0.22059852 0.031954512 0.28921637 0.041528065
000370 cb 59 3e 3e dd 65 6a bd 71 44 55 3e 6a 55 05 3d
       0.18588941 -0.05722605 0.2082689 0.03255216
000380 f7 74 a4 3e e6 e3 3e bd 59 8a cb bd f1 81 c4 be
       0.32120487 -0.04660406 -0.09938497 -0.38380387
000390 a4 4a 9e be 9e 04 33 3d 26 bb 97 be 00 1b 60 bf
       -0.3091632 0.043705575 -0.2963497 -0.875412
0003a0 cc 4e 7c 3c fd ce 36 3d b5 9a 10 bd dd f7 ec 3d
       0.015399646 0.044630993 -0.03530379 0.11570714
0003b0 01 ef 0f be ff 75 d9 be 26 51 52 3e 62 96 01 3f
       -0.14056017 -0.42472836 0.20538768 0.5062009
0003c0 88 3b c7 3e 30 49 cf bd 3f b7 e0 be b3 7b 05 3f
       0.38912606 -0.10121381 -0.43889806 0.52141875
0003d0 1d 3f be 3d a3 5f 58 3e 35 b2 41 3e 7d fb 87 bd
       0.09289382 0.21130233 0.18915637 -0.066397645
0003e0 be 04 d0 bd 42 fe 85 3d 38 50 5d be 94 95 d8 bc
       -0.101571545 0.065426365 -0.21612632 -0.026438512
0003f0 6d cc 4a 3c e7 fb 4e 3e ce 26 da be d6 fc 91 bd
       0.0123778405 0.2021328 -0.4260773 -0.07128303

w_agents.2.bias f4 [32]
000000 be 7a 61 be a9 0e 78 3d 99 ce 06 bf 50 cd f0 3e
       -0.22019479 0.060560856 -0.52658993 0.4703164
000010 28 a1 da be 32 a2 17 be 50 01 8a bc c7 c6 45 3d
       -0.42701077 -0.14807966 -0.016846329 0.048285272
000020 ad bb a2 bd ca a8 44 be 73 79 2f be 8d 64 35 be
       -0.079459526 -0.19205013 -0.17136173 -0.17714138
000030 89 5b 9d bb ee 77 ed bc 60 0d 2c bd ec 10 4d 3e
       -0.0048021716 -0.028987851 -0.042004943 0.20025986
000040 4c a8 c5 3e be e3 f7 bd b9 e5 0d be 92 41 11 be
       0.38604963 -0.12103985 -0.13857163 -0.1418517
000050 65 35 2c 3d 37 95 88 3e 75 11 55 be bd 96 02 bd
       0.04204311 0.26676342 -0.2080744 -0.031882036
000060 0c 19 0b be 66 65 7e be 57 aa c7 be d9 58 60 be
       -0.13583773 -0.24843368 -0.38997146 -0.21908893
000070 e3 28 eb bd ec 9d 6d bd 56 b0 c6 3e 4b 21 4a be
       -0.11482408 -0.058011934 0.3880641 -0.19739263

Ws.0 f4 [32, 32]
000000 72 17 66 bf 36 84 8b 3e 8c 8d 28 3e 6c 82 33 3f
       -0.89879525 0.27249306 0.16460246 0.70120883
000010 a4 0c 24 bf 94 d6 5d 3f 3c 58 67 bf af 3f 85 bf
       -0.6408179 0.86655545 -0.9036901 -1.041006
000020 cb 01 dc bf 65 ea ca 3f 0b 4c 9b 3f 77 2d 1b bf
       -1.7188047 1.5852782 1.2132581 -0.6061625
000030 e6 69 92 3f 8e 6d 0b 3f 9f 28 19 3f 1c f4 42 3e
       1.1438568 0.5446404 0.5982761 0.19038433
000040 e4 ae 2c 3f c3 be e7 3e a7 a6 bf be 23 c0 76 3f
       0.6745436 0.45262727 -0.37431833 0.9638693
000050 b8 c6 78 be 04 25 4f bf 3b 4d f6 bf 64 d0 89 3f
       -0.24294555 -0.80915856 -1.9242319 1.0766721
000060 92 8c 97 bf 6b 06 c9 bf b7 ce 4d bf 12 70 24 3f
       -1.1839774 -1.5705084 -0.80393547 0.64233506
000070 5b 5d 33 3f 2a 7f d9 3f 66 87 3b 3e 7a 8a 78 be
       0.70064324 1.6991932 0.18313369 -0.24271575
000080 6a c7 95 3c 42 99 02 bf 95 c1 93 bf 2b 78 b4 c0
       0.018283565 -0.510151 -1.1543452 -5.639669
000090 03 8d d3 bf 58 4b 3e bf 29 cd 37 be 2a c3 6a 3f
       -1.6527408 -0.74333715 -0.17949356 0.91704047
0000a0 7e 83 3a bf 3e 96 a5 3e c7 cd 9b be 9e b8 a5 be
       -0.7285689 0.32341188 -0.30430433 -0.32367414
0000b0 01 45 63 3d d2 25 c9 3e de 51 06 3f 8a 21 ac 3c
       0.05548573 0.39286667 0.5246867 0.021012086
0000c0 e3 bd b0 be ec ea ed be a5 7e a7 bf d9 dc 67 be
       -0.34519872 -0.46468294 -1.3085524 -0.2264284
0000d0 fa 61 b0 3f 11 a1 e1 3e ec 9a 6f 3e c9 ed 76 3e
       1.37799 0.44068196 0.23398942 0.24114145
0000e0 f2 8a f1 3f d5 26 0a bf f5 cc 35 3e ca 38 31 3f
       1.8870528 -0.539655 0.17753966 0.6922728
0000f0 1f e8 57 3e c1 1f 2a c0 19 db c4 bf 85 58 76 bf
       0.21084641 -2.658188 -1.5379363 -0.9622882
000100 58 cb 18 3f d7 cf d3 3e 48 ec 42 3c 23 66 2f 3f
       0.5968528 0.41369507 0.011897154 0.68515223
000110 77 db a4 3f 16 9f 41 3e 05 69 bc bf 99 2c 29 40
       1.2879475 0.18908343 -1.471955 2.643347
000120 7a 09 49 be ee 67 ed 3f 79 fd 3e bf 5f ce 10 bd
       -0.19632521 1.8547342 -0.7460552 -0.03535306
000130 b0 5b d3 bd 7d f2 6c 3f ce a3 55 be 22 f9 f3 bf
       -0.103202224 0.9255751 -0.20863268 -1.9060404
000140 89 ea e7 be 17 17 dd 3e a5 d3 22 3d 1a 42 20 40
       -0.45296124 0.4318168 0.03975262 2.5040345
000150 09 a2 8c bf 4f 11 0d bf 1d 70 8e bf 61 6a 91 3f
       -1.0986949 -0.55104536 -1.1127964 1.1360589
000160 bd ab fb 3d 3d 73 af 3e 5e 0c 7e be cd 48 8b 3f
       0.12288616 0.34267607 -0.24809405 1.0881592
000170 e5 65 a3 3d 2f bf 2e c0 5e 9f 85 bf c3 2d 02 bf
       0.07978419 -2.730419 -1.043926 -0.50851077
000180 10 f6 8e bf 17 d5 92 3f eb 27 d9 3e 87 a1 70 bf
       -1.1168842 1.147128 0.42413267 -0.9399647
000190 82 5f 06 c0 a7 29 e4 3e e6 ec 11 3f e6 4a be 3e
       -2.0995793 0.44563028 0.57002103 0.37166518
0001a0 5d 28 17 3e 3b b9 86 bf 37 60 ec 3e 3f 74 2b 3e
       0.14761491 -1.0525278 0.46167156 0.16743563
0001b0 ac ea c1 3e 50 a7 0c c0 e8 28 35 3c c2 d5 0a c0
       0.37874353 -2.197712 0.011057116 -2.1692967
0001c0 12 64 5a bf 63 dd 94 3f de 2f 4a bf 9b e3 0c 3f
       -0.85308945 1.1630062 -0.7897929 0.550348
0001d0 f6 a4 cb bf ac 2c 54 bf 50 7b d7 3e 24 ca c8 be
       -1.5909717 -0.82880664 0.42086267 -0.3921672
0001e0 67 ec 53 3e 75 0a 84 3f 21 94 0e 3f 61 db 3d 3f
       0.20695649 1.0315691 0.55694777 0.7416287
0001f0 b4 52 7c 3f 29 b6 c5 bf cd f5 62 3f c7 9f 5f 3f
       0.98563695 -1.5446216 0.8865631 0.87353176
000200 75 ee 87 3f 47 d4 66 c0 ae c0 1d c0 4c 10 b7 3e
       1.0619646 -3.6067064 -2.4648852 0.3575462
000210 61 40 24 bf 29 f9 ca 3f 94 89 4e bf bc f6 19 bf
       -0.64160734 1.5857288 -0.8067868 -0.6014211
000220 74 da 1a c0 50 65 41 3f 0d 4e f4 3f 01 31 9d 3e
       -2.4195833 0.75545216 1.9086319 0.3070145
000230 44 a4 74 bf f1 12 9d be 47 17 f4 be 32 3d 63 3f
       -0.9556315 -0.30678514 -0.4767401 0.8876525
000240 3f 45 90 3f b6 bf ff 3e a6 38 15 3f ca 4e b7 3f
       1.1271132 0.4995095 0.58289564 1.432092
000250 10 8f 60 3f 0e 69 c1 bf ad cc dc bf 94 12 f2 bd
       0.87718296 -1.5110185 -1.7249962 -0.1181995
000260 30 48 a5 3f 79 00 ce 3e 92 c7 f9 bd 1b 0c a6 bf
       1.2912655 0.40234736 -0.12196268 -1.2972444
000270 fa 34 97 3d 77 81 bd 3f 81 74 11 3f 51 08 04 3f
       0.07383151 1.4805135 0.56818396 0.5157519
000280 94 7d 15 c0 36 9d 9c bf eb 60 60 bf c9 ab e1 bf
       -2.3357897 -1.2235477 -0.87647885 -1.763055
000290 f5 6b c4 3f 02 6a 91 3f 13 02 66 3f 9e da ea bd
       1.5345446 1.1360476 0.89846915 -0.11467479
0002a0 5b b9 8b 3f e4 ca 1f 3f f6 46 9e bf 4d c8 ba be
       1.0915941 0.6241896 -1.2365406 -0.36480942
0002b0 37 16 c2 3f a6 cb 3e 3f 7f bd bf be 03 d6 da be
       1.516303 0.7452949 -0.37449262 -0.42741403
0002c0 bc d7 fd bf 35 bb 23 bd 40 ca a3 bd 9c 26 8a 3f
       -1.9831462 -0.039973456 -0.079975605 1.0793033
0002d0 a4 71 8d bf a6 30 73 bd 9a 47 fb bf 52 f8 91 bf
       -1.1050305 -0.059372567 -1.9631226 -1.1403906
0002e0 73 39 3f 3e 9a 61 c3 be 93 38 fc bd 67 7a 27 c0
       0.18674259 -0.38160402 -0.12315478 -2.6168458
0002f0 49 44 11 c0 cc 60 1e c0 27 02 94 3f 2a 2f a7 3e
       -2.2697928 -2.474658 1.1563157 0.3265317
000300 65 1f 1f 3f c6 1b 81 3f bd 75 52 3e 6e b9 93 c0
       0.6215728 1.0086601 0.20552726 -4.6163855
000310 cc 12 96 c0 4e 2c 12 bf 53 32 83 bf 97 3f 0d bb
       -4.6897945 -0.57098854 -1.0249733 -0.0021552795
000320 00 ad 56 3f 12 ac 81 bf eb 7c 02 40 ff b7 24 bd
       0.8385773 -1.0130637 2.0388744 -0.040214535
000330 6b a4 17 3f c9 f4 d7 bf a6 78 0a 40 3b 49 bd c0
       0.59235257 -1.6871578 2.1636138 -5.9151893
000340 9a c5 2b 3e b4 a0 f8 be 2f 04 cf 3d 8b 5a 05 c0
       0.16774598 -0.48560107 0.1010822 -2.0836513
000350 25 f3 a0 bf 4c 23 e9 bf c6 8b 8f 3f 14 c4 85 3f
       -1.2574202 -1.8213897 1.121453 1.0450463
000360 b4 86 02 40 24 24 a2 bf a1 4a d5 bd ae 36 de bf
       2.0394716 -1.2667279 -0.10414625 -1.7360437
000370 53 32 e0 3f 36 25 63 3f ab 27 f5 bb fe 85 a5 bf
       1.7515358 0.88728654 -0.0074815354 -1.2931516
000380 7d 3f 32 3f 02 cb 58 3e e7 c1 a3 bf 84 b6 54 bf
       0.69628125 0.21171191 -1.2793549 -0.83090997
000390 24 05 a8 3e 38 be af bf 11 b8 57 3d 0e 09 64 3f
       0.32816422 -1.3729925 0.052665774 0.89076316
0003a0 c1 d9 4c 3f d7 fa ff 3e 3a 3f 43 be 0a e5 42 3f
       0.80019766 0.49996063 -0.19067088 0.76130736
0003b0 5b d7 15 c0 ff 24 46 3f 68 ed ad 3f 3a 9f ea 3d
       -2.3412693 0.774002 1.3588076 0.11456151
0003c0 4a f1 20 c0 c2 e7 7f be a4 39 a6 bf ab b6 67 c0
       -2.514727 -0.24990752 -1.298634 -3.6205242
0003d0 6e ed 62 bf cf 12 df be dd 04 8d 3f 7b a4 57 bf
       -0.8864354 -0.43569037 1.1017109 -0.8423535
0003e0 ca e3 08 bf 59 a9 80 3f 9d eb 7f 3e 38 91 b8 39
       -0.5347258 1.0051681 0.24992223 0.0003520341
0003f0 e6 75 8c 3f 00 30 e0 bf 67 c6 11 c0 33 f9 8d bf
       1.097348 -1.7514648 -2.2777345 -1.1091675
