crowd_nav/data/rl_model_7.pth (torch_old, 93650 bytes, 18 tensors)

w_a f4 [32, 32]
0	0xc03ac43a	-2.9182267
1	0xc019433a	-2.3947282
2	0x3f621a29	0.8832117
3	0xbf68d2ea	-0.9094683
4	0x3ff514a1	1.914692
5	0xbfe51052	-1.7895606
6	0xbf48aa49	-0.78384835
7	0xbf6729ba	-0.90298045
8	0xbf66b795	-0.90123874
9	0xbed66072	-0.41870457
10	0xbf372d89	-0.71553856
11	0x3f2e2a7a	0.68033564
12	0x3e96302e	0.29333633
13	0x3ec33b74	0.38131297
14	0x3fc43a71	1.5330335
15	0xbfba3cec	-1.4549842
16	0x3fb07013	1.3784202
17	0x3f4f67dd	0.8101786
18	0xbf39cf8e	-0.7258233
19	0x3e799621	0.24373676
20	0xbe309af1	-0.17246605
21	0xc03f135f	-2.9855573
22	0xbd045778	-0.03230998
23	0x3fa6c624	1.3029218
24	0x3ff99858	1.9499617
25	0x3fb69223	1.4263347
26	0xbe4a0cff	-0.1973152
27	0x3f94f364	1.1636777
28	0x3fbcebcc	1.475946
29	0x3f6ede5f	0.9330806
30	0xbf3cc2df	-0.7373485
31	0xbc8ee724	-0.0174442
32	0xbf96876c	-1.1760077
33	0x3ec10d58	0.37705493
34	0xbfdabe1c	-1.7089267
35	0x3f4a5f77	0.7905192
36	0xbd9fd459	-0.07804174
37	0x3f932e3a	1.1498482
38	0xbf0d41d3	-0.55178565
39	0xbfaf02ed	-1.3672768
40	0xbcc247f0	-0.023715943
41	0x3ee52226	0.44752616
42	0x3eea970c	0.45818365
43	0x3da110f6	0.07864563
44	0xbf11e777	-0.5699381
45	0x3f519276	0.81864107
46	0xbd519814	-0.051170424
47	0x3ffad805	1.9597174
48	0x400fdeed	2.2479813
49	0x4008d0be	2.1377406
50	0xbef2864b	-0.47368082
51	0x3ea0ba43	0.31392106
52	0x3e38dfcb	0.1805412
53	0xbf2bcdd6	-0.67110956
54	0x3fa804e6	1.3126495
55	0x3fce71de	1.61285
56	0x3f707018	0.9392104
57	0xbf1e783e	-0.61902225
58	0x3f8f0b88	1.1175394
59	0x3e06810e	0.13135168
60	0xbe73be8a	-0.23803154
61	0xbcc585ca	-0.024111647
62	0x3e5e4502	0.21706012
63	0x3f2f9aa2	0.68595326
64	0xbd807844	-0.06272939
65	0xbfa82e9d	-1.3139225
66	0x3eac234f	0.33620688
67	0xbf9c30ae	-1.2202356
68	0x40385489	2.8801596
69	0xbfe9dfbf	-1.8271407
70	0x4061ca79	3.527983
71	0xbe6254b5	-0.22102626
72	0xbf9c6aba	-1.222007
73	0x3fb96d1b	1.4486421
74	0x3fa8a7ad	1.317617
75	0x3fb241b7	1.3926305
76	0xc08c050a	-4.375615
77	0xbe89f5ad	-0.26945248
78	0x400d4a25	2.2076504
79	0x3f91ba79	1.1385032
80	0xbfe876b0	-1.816122
81	0xbf50ce79	-0.8156505
82	0x3e348958	0.17630517
83	0x3e593126	0.21210155
84	0x3f96ecf4	1.1791062
85	0x3f1e1b25	0.6176017
86	0x3f895b43	1.0730976
87	0x3e4b74b4	0.19868737
88	0x3f0beb0f	0.54655546
89	0x400940df	2.1445844
90	0x3f93344c	1.1500335
91	0xbf933e34	-1.1503358
92	0xbeb5e000	-0.3552246
93	0x3f80a616	1.0050685
94	0x3e609d06	0.219349
95	0x4018f1d2	2.3897595
96	0xbdad579c	-0.08463976
97	0x3e1389fc	0.14408106
98	0xc05c9968	-3.4468632
99	0xbf2e85b2	-0.6817275
100	0xbde04197	-0.1095001
101	0x3f745f4e	0.95457923
102	0xbfbf9946	-1.496865
103	0xbd11df38	-0.03561327
104	0x3f819e30	1.01264
105	0xc0299ebc	-2.6503134
106	0xbebb42c2	-0.3657437
107	0x3ffe7d35	1.988196
108	0x3f37613a	0.7163273
109	0xbf1a47cc	-0.60265803
110	0xbede071c	-0.433648
111	0xbf9274c3	-1.1441883
112	0x3f0b317b	0.54372376
113	0xbe9e9e74	-0.30980265
114	0xbed86edc	-0.4227208
115	0xbdd4fb77	-0.103995256
116	0x3f67cdcd	0.905484
117	0xbf70fb07	-0.9413304
118	0xbf78c9ee	-0.9718312
119	0xbf7a60a1	-0.97803694
120	0x3f5fc4ca	0.8740965
121	0xbed66f1b	-0.41881642
122	0xbf70f561	-0.9412442
123	0x3f03b20b	0.51443547
124	0x3f05b4ce	0.5222901
125	0x3dcc8162	0.09985615
126	0x3e9919f4	0.29902613
127	0xbe365b0b	-0.17808168
128	0x3f87a2dc	1.0596576
129	0xbc53fc0b	-0.01293851
130	0xc0944f6d	-4.6346955
131	0x3edfe08e	0.4372601
132	0xbf041ff2	-0.51611245
133	0x3ee1414b	0.43995127
134	0xbf159ee2	-0.5844556
135	0xbf0df4ad	-0.5545147
136	0xbf125f4a	-0.5717665
137	0xbf0cfaf8	-0.5507045
138	0x3e161038	0.14654624
139	0xbf2f699f	-0.6852054
140	0xbd393ae4	-0.045222178
141	0x3e995fbc	0.29955852
142	0xbf0984b9	-0.53718144
143	0x3f0739da	0.5282265
144	0xbf37f09a	-0.71851504
145	0xbf88300b	-1.0639662
146	0xbf8c37df	-1.095455
147	0x3ee48e67	0.44639894
148	0xbee038e8	-0.43793416
149	0x3d75010f	0.059815463
150	0x3f956c2d	1.1673638
151	0xbd219b53	-0.03945477
152	0xbf29d9fe	-0.66348255
153	0xbec836da	-0.39104348
154	0x3f597e7b	0.8495862
155	0x3f198dd7	0.59982055
156	0x3e3f05c9	0.1865455
157	0x3d5555f1	0.052083913
158	0x3fa7d4e8	1.3111849
159	0xbf5ff4a5	-0.8748267
160	0xbf9eac97	-1.239642
161	0xbe10e72c	-0.14150685
162	0xc00f5f4e	-2.240192
163	0x3f7ceb31	0.98796374
164	0xbf9bb33f	-1.2164077
165	0x3d8b4747	0.068007044
166	0x3e856dd1	0.26060346
167	0xbf302ed5	-0.6882146
168	0x3ec93ca7	0.39304087
169	0x3eca5978	0.39521384
170	0xbe1e2b73	-0.15446262
171	0xbf4e3150	-0.80543995
172	0x3feef871	1.8669568
173	0xbdf5742a	-0.11985047
174	0x3ef823b3	0.48464736
175	0xbf8b317b	-1.0874475
176	0x3f5fe904	0.8746493
177	0x3f2bd1ae	0.6711682
178	0xbf740954	-0.95326734
179	0x3e7c8703	0.24660878
180	0x3e4e112c	0.20123738
181	0x3ebfbb3c	0.37447536
182	0xc0570668	-3.359766
183	0x3fc1f8cd	1.5154053
184	0xbf807029	-1.0034229
185	0xbf82c4d1	-1.0216314
186	0xbf977480	-1.1832428
187	0xbfa7f0dc	-1.312038
188	0xbfa4a029	-1.2861377
189	0x3fa837b3	1.3141998
190	0x3ea1ec64	0.31625664
191	0x3f0a93b6	0.5413164
192	0x3fb7ca98	1.4358702
193	0xbfa01f5c	-1.250957
194	0xbfa4eb4b	-1.2884306
195	0xbf0c593f	-0.5482368
196	0xbf3d8654	-0.74033093
197	0xbf78e4e7	-0.9722428
198	0xbde7f051	-0.113251336
199	0xbe7bea04	-0.24600989
200	0xbfcdf456	-1.609019
201	0x3f563357	0.8367209
202	0x3d928426	0.071541116
203	0xbe9cf043	-0.30652055
204	0xbfc0bb88	-1.505723
205	0x3eb45c01	0.35226443
206	0x3fb695b4	1.4264436
207	0x3e932be0	0.2874441
208	0x3f95e0f9	1.1709281
209	0x3df6c553	0.12049355
210	0x3f1997c4	0.599972
211	0xbdca15bc	-0.09867427
212	0xbf9e3486	-1.2359779
213	0x3e8deb4e	0.27718586
214	0xbfa83d96	-1.3143795
215	0x3ee5128a	0.44740707
216	0xbf094314	-0.5361798
217	0xbeee6eec	-0.46569002
218	0x3d1876c8	0.037222654
219	0xbea682b8	-0.32521605
220	0xbfd22d01	-1.6419984
221	0xbf2a2c54	-0.6647389
222	0xbef23718	-0.47307658
223	0xbd8d0220	-0.06885171
224	0x3f14f605	0.58187896
225	0x3fb30548	1.3985987
226	0xbd6208e4	-0.05518426
227	0x3f726507	0.94685405
228	0xbe1377be	-0.14401147
229	0x3e852ed7	0.26012298
230	0xbe9dfd78	-0.30857444
231	0xbe3b1886	-0.18271074
232	0xbef5a953	-0.47980747
233	0xbea16ecc	-0.31529844
234	0x3f9b7925	1.2146345
235	0x3fba18c3	1.4538807
236	0x3f8a8d83	1.0824436
237	0x3e7d50e9	0.24737896
238	0xbee31847	-0.4435446
239	0xbe0060db	-0.12536947
240	0xbf2e6991	-0.6812983
241	0x3ff8e06e	1.944349
242	0xbe647f58	-0.22314203
243	0xbe30baa6	-0.172587
244	0x3d4b1579	0.049581025
245	0x3f030cfd	0.51191694
246	0x4005c0b9	2.0898879
247	0xbff50e23	-1.9144939
248	0x3e822eda	0.2542637
249	0x3f28c04f	0.6591844
250	0x3f75dda7	0.9604134
251	0xbf531e4b	-0.824681
252	0x3e0b2e3d	0.13591857
253	0xbedc4d10	-0.43027544
254	0x3f459ea2	0.7719518
255	0x3d0a1b1e	0.033717267

w_group.0.weight f4 [64, 8]
0	0xbdcda20c	-0.100406736
1	0xbc32a9a7	-0.010904706
2	0x3f913aa4	1.1346021
3	0xbf75df1a	-0.9604355
4	0xbeaa676b	-0.33282027
5	0xbedd2a72	-0.43196446
6	0xbe257126	-0.16156444
7	0xbede4b90	-0.43417025
8	0xbe48bdf6	-0.19603714
9	0xbe10de7a	-0.14147368
10	0xbf284335	-0.6572755
11	0xbf8541de	-1.0410726
12	0xbe55596a	-0.2083489
13	0xbf18036f	-0.5938024
14	0xbf79bb51	-0.9755145
15	0xbf13612c	-0.5757015
16	0xbe90c9ff	-0.2827911
17	0xbe7233c8	-0.23652565
18	0x3f982658	1.1886702
19	0xbd643f4b	-0.055724423
20	0xbe92a9e6	-0.28645247
21	0xbf3f7492	-0.7478725
22	0x3d29f060	0.041489005
23	0xbf4cb5db	-0.7996499
24	0xbd4a127f	-0.049334045
25	0x3df141fb	0.11780163
26	0x3f4f9e8f	0.81101316
27	0xbf89d131	-1.0766965
28	0xbe8ecbc8	-0.27889848
29	0x3f0a245b	0.53961724
30	0xbf83ec2e	-1.0306451
31	0x3f093e14	0.5361035
32	0x3e4c5660	0.19954824
33	0x3da886a9	0.082288094
34	0x3f4b5fc8	0.79443026
35	0xbecefdc8	-0.40427995
36	0x3e4d2696	0.2003425
37	0x3e6f3775	0.23360999
38	0x3edddf92	0.43334633
39	0xbda30bc3	-0.07961228
40	0xbd1db212	-0.0384999
41	0xbc55e06b	-0.013053994
42	0xbd5f5cc8	-0.054531842
43	0xbddf560d	-0.10905085
44	0xbda1fbb8	-0.0790934
45	0x3d42ee97	0.04759082
46	0xbeb07ab6	-0.3446862
47	0xbeda3e64	-0.42625725
48	0xbe81a807	-0.25323507
49	0xbcbb98d7	-0.022900028
50	0x3f9b7686	1.2145545
51	0x3f879735	1.059302
52	0x3dbf5260	0.09341884
53	0xbf210cdd	-0.6291025
54	0xbf36c468	-0.7139344
55	0xbeec7637	-0.4618394
56	0x3e38dca6	0.1805292
57	0xbd8b487b	-0.06800934
58	0x3eac6c37	0.3367631
59	0xbf84dd7f	-1.0380095
60	0x3e8bc99b	0.2730225
61	0xbf2eb7fc	-0.6824949
62	0xbe6548f3	-0.22391109
63	0xbf314ddd	-0.69259435
64	0xbde52b85	-0.11189941
65	0xbd630c29	-0.05543152
66	0xbf21cb95	-0.63201267
67	0x3f38fb29	0.7225824
68	0x3c637960	0.0138839185
69	0xbf1ecb84	-0.6202929
70	0xbe8a87fa	-0.27056867
71	0xbe9c9a02	-0.3058625
72	0xbd7eb7b0	-0.062186897
73	0xbc2f2295	-0.010689397
74	0xbef75fbe	-0.48315233
75	0x3c7aee13	0.01531555
76	0x3e97b101	0.2962723
77	0xbe37a4c5	-0.17933948
78	0xbeb0b527	-0.34513208
79	0xbf243ae1	-0.6415234
80	0xbf4b71c3	-0.7947046
81	0x3eb9a7e4	0.36260903
82	0xbe15dc55	-0.14634831
83	0x3e909e0d	0.28245583
84	0x3ea723ef	0.32644603
85	0xbf12e4a5	-0.57380134
86	0x3fe156f4	1.7604661
87	0xbe86f4dc	-0.26358688
88	0xbe95ab0c	-0.2923206
89	0x3e021db2	0.1270664
90	0x3e398189	0.1811582
91	0x3ec2fe43	0.3808461
92	0xbe2d6964	-0.16934735
93	0xbeedd3b2	-0.46450573
94	0xbf482ad8	-0.78190374
95	0xbf0c69d5	-0.54848987
96	0x3e3fb335	0.18720706
97	0xbd9f9ef9	-0.077939935
98	0xbece9747	-0.4034979
99	0x3f4b9512	0.7952434
100	0xbe0f5a2b	-0.1399924
101	0xbf307109	-0.6892248
102	0x3e6e49a3	0.23270278
103	0xbf56dc3a	-0.8392979
104	0x3e8a81de	0.27052206
105	0x3e8d6cb9	0.2762201
106	0xbe72ee47	-0.23723708
107	0x3d74cf1d	0.05976783
108	0xbe1d6e4a	-0.15374103
109	0xbef2edc5	-0.4744703
110	0xbf9c8a2a	-1.2229664
111	0xbf3f6184	-0.7475817
112	0xbe874c68	-0.2642548
113	0xbe31969e	-0.17342612
114	0xbfc624d9	-1.5479995
115	0x3e314b7e	0.17313954
116	0x3e678e72	0.22612932
117	0xbeaa12eb	-0.33217558
118	0xbfcbd97c	-1.5925746
119	0xbf010e4c	-0.5041244
120	0xbf19c366	-0.6006378
121	0x3ea29b47	0.31759092
122	0xbe4980fc	-0.1967811
123	0x3cece58b	0.028918048
124	0x3d041740	0.032248735
125	0xbe38f8ce	-0.18063661
126	0xc01209ae	-2.2818408
127	0xbf35f902	-0.7108308
128	0xbdcefb0f	-0.101064794
129	0xbd807fe8	-0.06274396
130	0xbead00cf	-0.3378968
131	0xbf4e72bb	-0.80643815
132	0x3df969f4	0.12178412
133	0xbf4e176b	-0.80504483
134	0x3f2d718b	0.6775138
135	0xbee4752d	-0.44620648
136	0xbf597ca2	-0.849558
137	0x3f1b8a0b	0.6075751
138	0x3fe5c570	1.7950878
139	0xbfabc3a0	-1.3419075
140	0xbe92330c	-0.2855457
141	0xbe9e5579	-0.30924585
142	0xbf975565	-1.1822935
143	0xbde9a049	-0.11407525
144	0x3ecbe2ec	0.39821565
145	0x3f42a460	0.76032066
146	0x3d5365e5	0.051610846
147	0x3d946c72	0.07247247
148	0xbe677f6d	-0.22607203
149	0x3d282634	0.04105206
150	0x3f04d43f	0.5188636
151	0x3e6bd379	0.23029889
152	0xbe5cdf10	-0.21569467
153	0x3e912e87	0.2835581
154	0xbfdb6ec0	-1.7143173
155	0x3f37efcf	0.71850294
156	0x3eae4b55	0.3404185
157	0xbdde20ec	-0.10846123
158	0xbea95b43	-0.3307744
159	0xbea801f5	-0.32813993
160	0x3e251ea3	0.16124968
161	0xbe20ebd1	-0.15714957
162	0x3f426421	0.75934035
163	0x3f7e0ad1	0.99235255
164	0xbe4c79bc	-0.19968313
165	0xbda11ec1	-0.07867194
166	0xbfb56c23	-1.4173626
167	0xbf124e77	-0.5715098
168	0xbdd7416e	-0.105105266
169	0xbd7755de	-0.060384624
170	0x3f79db81	0.9760056
171	0xbe81fff0	-0.25390577
172	0xbe9ddd4d	-0.30832902
173	0xbee4c387	-0.44680426
174	0xbf35c05c	-0.7099664
175	0xbf2b4880	-0.669075
176	0x3dab1a68	0.08354646
177	0xbd742b18	-0.05961141
178	0x3f33e0a4	0.7026465
179	0xbf472d97	-0.7780394
180	0xbeafde3d	-0.34349242
181	0xbf3e599c	-0.74355483
182	0x3f0905ec	0.5352466
183	0xbedf59fa	-0.43623334
184	0x3e91011c	0.2832116
185	0x3e87f8d9	0.26557043
186	0xbf115d14	-0.5678265
187	0xbf75eb73	-0.9606239
188	0x3c8f8fd0	0.01752463
189	0x3d977dbe	0.0739703
190	0x3f706b37	0.93913597
191	0x3e0b4ba7	0.13603078
192	0x3e73f7e8	0.23825037
193	0x3e198303	0.14991383
194	0x3e56b265	0.2096649
195	0xbd42e626	-0.047582768
196	0xbd65b8d8	-0.056084484
197	0xbecd4fca	-0.40099937
198	0xbe81964a	-0.25309974
199	0xbf112cc2	-0.5670892
200	0x3ea498f9	0.3214796
201	0xbe832574	-0.25614512
202	0x3eddfba8	0.4335606
203	0x3fca8703	1.5822452
204	0x3e3f90e2	0.18707612
205	0x3dbf89f9	0.09352488
206	0xbfd75fe5	-1.682614
207	0x3e9b5a90	0.3034253
208	0x3fff0cc7	1.9925774
209	0x3dab094e	0.08351384
210	0xbee59af8	-0.44844794
211	0xbfb15804	-1.3854985
212	0x3d363a50	0.044489205
213	0x3e3c00ab	0.1835963
214	0xbf54ecb1	-0.8317366
215	0x3e5ae7a4	0.21377426
216	0xbe515112	-0.20441082
217	0x3fab9c98	1.3407164
218	0xbe1fb283	-0.1559544
219	0x3da07a24	0.078357965
220	0xbe4075cc	-0.18794936
221	0xbe65d12c	-0.22443074
222	0xbf950b40	-1.1644058
223	0xbd4b6704	-0.04965879
224	0x3e87997d	0.2648429
225	0xbe65098a	-0.2236692
226	0xbfbffebd	-1.4999615
227	0x3f52fb05	0.82414275
228	0x3df3b674	0.119000345
229	0xbf5d386e	-0.8641423
230	0x3d3cef96	0.046126924
231	0xbf4857ea	-0.78259146
232	0xbd4cfab1	-0.050043765
233	0xbd9228c3	-0.07136681
234	0x3f97ff33	1.1874756
235	0xbe896b18	-0.2683952
236	0xbe950ae8	-0.29109883
237	0xbe33f579	-0.17574109
238	0xbf9cac32	-1.224005
239	0xbed7e273	-0.42164955
240	0xbe003b02	-0.1252251
241	0x3f01944a	0.50616896
242	0xbfa57d64	-1.2928891
243	0xbf836404	-1.0264897
244	0xbe9f2e0d	-0.3108982
245	0xbf2ea6eb	-0.68223447
246	0x3f3e1fea	0.74267447
247	0xbe5ceb3e	-0.21574113
248	0xbdcdd3ca	-0.10050161
249	0xbdc04825	-0.093887605
250	0xbf7c95f1	-0.9866629
251	0x3f8fa160	1.1221123
252	0xbe211102	-0.15729144
253	0xbee28bae	-0.44247192
254	0xbf6952d7	-0.9114203
255	0xbee1b080	-0.4407997

w_group.0.bias f4 [64]
0	0xbf431a2f	-0.7621183
1	0xbf236cbd	-0.63837796
2	0xbf4e9e13	-0.8070995
3	0xbc76eebb	-0.015071566
4	0xbe4ace8f	-0.19805358
5	0xbf136857	-0.57581085
6	0xbef46fa5	-0.47741428
7	0xbf4bc26f	-0.7959356
8	0xbf04cd4d	-0.51875764
9	0xbec4601c	-0.38354576
10	0xbf13f8ed	-0.57801706
11	0xbf4a5f22	-0.7905141
12	0xbf4d0f56	-0.80101526
13	0xbf02c4c0	-0.51081467
14	0xbe878b5f	-0.2647352
15	0xbe26151e	-0.16218993
16	0xbefc8da1	-0.49326804
17	0x3ddb6162	0.10711934
18	0xbe271e76	-0.16320214
19	0x3c1df8e8	0.009641863
20	0xbf0fb5e0	-0.56136894
21	0xbf2e74b0	-0.681468
22	0xbf44ab54	-0.76823926
23	0xbe5f4d40	-0.21806812
24	0xbf47535e	-0.77861583
25	0xbcfa9be1	-0.030591907
26	0xbdc263f2	-0.09491719
27	0xbdbe11e2	-0.092807546
28	0xbe6d7cb1	-0.23192097
29	0xbe82a811	-0.2551885
30	0xbe822a5f	-0.25422952
31	0xbefa97cc	-0.48943937
32	0x3de912b5	0.11380521
33	0xbe19eeb0	-0.15032458
34	0xbe2a914e	-0.16656992
35	0xbe99c7ca	-0.3003524
36	0xbf2255f8	-0.6341243
37	0x3e02f503	0.12788777
38	0xbe522ccd	-0.20524903
39	0xbf31f1c6	-0.6950954
40	0xbe81677e	-0.2527427
41	0xbe62b20a	-0.22138229
42	0xbece02ae	-0.4023642
43	0x3d013a73	0.031549882
44	0xbe4c3671	-0.19942643
45	0xbeb09441	-0.3448811
46	0xbe6defc8	-0.23236
47	0xbe41963b	-0.18904965
48	0xbf388f93	-0.72094077
49	0x3dd5498c	0.104144186
50	0xbe5b215c	-0.21399444
51	0xbf292f2b	-0.660876
52	0xbf65bb0a	-0.89738524
53	0xbef9aa03	-0.4876252
54	0x3d4b7f03	0.049681675
55	0xbf04f28a	-0.51932585
56	0xbe536229	-0.20642914
57	0xbf13a036	-0.5766634
58	0xbe8d2b72	-0.2757221
59	0x3e6ab0d7	0.22919022
60	0xbc80982c	-0.015697561
61	0xbf0fed72	-0.5622169
62	0xbe978679	-0.29594782
63	0xbebc1427	-0.36734125

w_group.2.weight f4 [32, 64]
0	0x3d8a87ab	0.06764158
1	0xbe9e1858	-0.30877948
2	0xbdbaa291	-0.09113038
3	0xbeecea3d	-0.4627246
4	0xbdc1dd13	-0.09465995
5	0x3d8d9fe4	0.06915262
6	0xbdb2640a	-0.08710487
7	0x3de1e017	0.1102907
8	0xbe14d1cf	-0.1453316
9	0xbcff2d00	-0.031149387
10	0x3e2beefb	0.16790383
11	0x3dcea931	0.100908644
12	0xbe1e4e07	-0.15459453
13	0x3ebe3663	0.3715087
14	0x3eb66dc9	0.35630634
15	0xbb760299	-0.003753817
16	0x3d5c345c	0.05376087
17	0xbe4cacaa	-0.19987741
18	0x3ecdc4ec	0.40189302
19	0xbe0352ef	-0.12824605
20	0xbee1f45d	-0.44131747
21	0xbe790b0c	-0.2432062
22	0xbe39162b	-0.18074863
23	0xbe603330	-0.21894526
24	0x3ead27af	0.3381934
25	0xbd07f3bd	-0.03319143
26	0x3e240ed7	0.16021286
27	0x3f11499d	0.5675295
28	0x3f07e0af	0.53077215
29	0xbf01505d	-0.5051325
30	0x3f21da95	0.63224155
31	0x3c81f0b5	0.015861848
32	0xbe989fed	-0.29809514
33	0xbf4f2961	-0.80922514
34	0xbdd67bbe	-0.10472821
35	0xbf170a68	-0.59000254
36	0x3deb602b	0.11492952
37	0xbd3fc11b	-0.04681502
38	0x3c3ad6b2	0.011403726
39	0x3cebb188	0.028771177
40	0xbe659d53	-0.22423296
41	0xbe4ca895	-0.19986184
42	0xbaef2de0	-0.0018247925
43	0xbf4021ed	-0.75051767
44	0x3e4c9e8b	0.19982354
45	0xbe2dc3ec	-0.1696927
46	0x3ea3ccb1	0.31992105
47	0x3e5a1530	0.21297145
48	0x3f3ac37b	0.7295453
49	0xbe5b346e	-0.21406719
50	0xbd1f7d89	-0.03893808
51	0x3ebdd916	0.37079686
52	0xbf72337a	-0.94609797
53	0x3f88a719	1.0675994
54	0xbd93177f	-0.07182216
55	0x3c1e163f	0.009648859
56	0x3e601af0	0.21885276
57	0x3e9f0e20	0.31065464
58	0xbdcd051a	-0.10010739
59	0xbdb230bf	-0.08700704
60	0xbe206b97	-0.15666042
61	0xbe2023c5	-0.15638645
62	0xbddc68de	-0.10762189
63	0xbdfc0607	-0.12305837
64	0x3f156a49	0.58365303
65	0x3eeb5bcc	0.45968473
66	0x3e87d94d	0.26532975
67	0xbe85bc8c	-0.26120412
68	0xbeb96d58	-0.36216235
69	0x3e01a91e	0.1266217
70	0xbdf32afd	-0.11873434
71	0x3eaa1573	0.3321949
72	0x3d08843c	0.033329234
73	0xbc482ce0	-0.01221773
74	0x3ec3b1c5	0.38221565
75	0x3e22fef0	0.15917563
76	0xbe16d169	-0.14728321
77	0x3ca9acc7	0.02071227
78	0x3e592911	0.21207072
79	0x3e94eb0d	0.2908558
80	0x3ec1910b	0.37805972
81	0x3ecb5d7b	0.39719757
82	0xbe29996d	-0.16562434
83	0xbed2103d	-0.41028014
84	0xbe933774	-0.28753245
85	0x3e82f2d2	0.25575882
86	0x3e96a3e6	0.2942192
87	0xbf635fc1	-0.88817984
88	0xbc06aa84	-0.008219365
89	0x3e92974d	0.28631058
90	0x3d34c26d	0.04413073
91	0x3e656869	0.2240311
92	0xbe3d2a0e	-0.18473074
93	0x3ea99b37	0.33126232
94	0xbec38a5c	-0.38191497
95	0xbc43313f	-0.011913597
96	0xbeec4b2f	-0.4615111
97	0xbf25698f	-0.64614195
98	0xbe6c3b8d	-0.23069592
99	0x3e445935	0.19174655
100	0xbe554bc5	-0.20829685
101	0x3f0297d6	0.51012933
102	0x3b00a487	0.0019629316
103	0x3cf4c19a	0.029877473
104	0x3e4ef766	0.20211563
105	0x3ee41973	0.44550666
106	0xbda490fc	-0.08035466
107	0xbf8273ae	-1.0191553
108	0xbe9b5d86	-0.3034479
109	0xbdaede71	-0.08538521
110	0x3c63606b	0.013877968
111	0xbf144f6f	-0.57933706
112	0x3e9802c2	0.29689604
113	0xbdb06047	-0.086121134
114	0xbaaa038d	-0.0012971029
115	0x3e2b1d6b	0.16710441
116	0xbf014e8b	-0.5051047
117	0x3ec90c2e	0.39267105
118	0x3e0261c6	0.1273261
119	0xbd8b1374	-0.0679082
120	0xbd2c76b1	-0.04210538
121	0xbf23a6be	-0.63926303
122	0x3d6aab15	0.057292063
123	0xbd0e5e06	-0.034757636
124	0xbdb6f72b	-0.08933862
125	0x3d36b042	0.044601686
126	0x3d692980	0.056924343
127	0xbe052108	-0.13000882
128	0xbddf5f9e	-0.109069094
129	0x3dd6c767	0.10487252
130	0xbd7b0eb1	-0.061293308
131	0xbed5bbc5	-0.4174482
132	0xbdd1c3b7	-0.10242408
133	0x3d98a62f	0.07453572
134	0x3cef7edd	0.029235298
135	0x3d4cc623	0.049993645
136	0x3de78ada	0.11305781
137	0xbdf1bfaf	-0.11804139
138	0x3d13a8bd	0.036049593
139	0xbe31f741	-0.17379476
140	0xbdecee4f	-0.11568891
141	0xbde7598f	-0.11296379
142	0x3e1cc6ba	0.15310183
143	0xbe6da578	-0.23207653
144	0xbcc86bc1	-0.024465444
145	0xbdc21979	-0.09477515
146	0x3bce2da4	0.006292062
147	0xbd55825e	-0.05212628
148	0xbe224c92	-0.15849522
149	0x3e0a741b	0.13520853
150	0x3df3d20e	0.11905299
151	0xba94b39c	-0.0011345032
152	0xbe2a98df	-0.16659878
153	0xbdeda004	-0.11602786
154	0x3dc97349	0.09836442
155	0xbe43f799	-0.1913742
156	0xbd23a869	-0.03995553
157	0xbdc70085	-0.09716896
158	0x3cf16441	0.02946675
159	0xbe0a5f34	-0.1351288
160	0xbda0e0fd	-0.07855413
161	0xbd86084f	-0.065445535
162	0x3c3a9dde	0.0113901775
163	0xbdd9206e	-0.106018886
164	0xbdbfd4f5	-0.0936679
165	0xbe6e2a19	-0.23258246
166	0xbe232a3e	-0.15934083
167	0xbe325493	-0.17415075
168	0xbe1751fa	-0.14777365
169	0xbba00e5d	-0.0048845247
170	0x3de2c726	0.11073141
171	0x3d208fa9	0.039199505
172	0xbe456e95	-0.19280465
173	0x3d8460b8	0.0646376
174	0xbdcc3a26	-0.099720284
175	0x3e3e67ee	0.18594334
176	0xbc9dd592	-0.019266877
177	0xbb2eb9f9	-0.0026661141
178	0xbcee6b2a	-0.029103834
179	0xbe67ad24	-0.22624642
180	0x3d4564bb	0.048191767
181	0x3c93dc3c	0.018049352
182	0xbec86a07	-0.39143392
183	0x3d9fbda8	0.07799846
184	0x3d2d911c	0.042374715
185	0xbd6a437d	-0.057193268
186	0x3d04c4a9	0.032414112
187	0xbe90ff98	-0.28320003
188	0x3dabbaf1	0.083852656
189	0xbd5c8cb0	-0.053845108
190	0xbda1ed70	-0.07906616
191	0xbd20ed28	-0.03928867
192	0x3d6c95ec	0.057760164
193	0xbe53fac8	-0.20701134
194	0x3d989c7c	0.07451722
195	0xbebe7d55	-0.37204996
196	0xbda37b72	-0.0798253
197	0xbd98f36e	-0.074683055
198	0xbde20570	-0.11036193
199	0xbe225815	-0.15853913
200	0xbdd65f97	-0.10467451
201	0xbe02d8b8	-0.12777984
202	0xbd9bdc28	-0.07610351
203	0x3b9921be	0.004673212
204	0x3d929558	0.07157391
205	0xbe52b866	-0.20578155
206	0xbea00458	-0.31253314
207	0xbe624c43	-0.22099404
208	0xbd922208	-0.07135397
209	0x3cf72caa	0.030172665
210	0xbe2fc8bb	-0.17166416
211	0xbe38e674	-0.18056661
212	0xbc284743	-0.010270896
213	0x3c54e9f6	0.012995234
214	0xbd6b50de	-0.057450168
215	0xbe538890	-0.20657563
216	0xbc8987c4	-0.01678837
217	0xbd24f95b	-0.040276866
218	0xbe8652aa	-0.26234943
219	0xbea86aef	-0.32894084
220	0x3d9d5def	0.07683932
221	0xbe597531	-0.21236111
222	0xbd857420	-0.0651629
223	0x3d8e9321	0.06961656
224	0xbd4fd7b9	-0.05074284
225	0x3c6b27e1	0.01435277
226	0x3aac8d88	0.0013164738
227	0xbd20c3ee	-0.039249353
228	0x3dd1bcdb	0.102410994
229	0xbde36747	-0.11103683
230	0x3cae698a	0.02129056
231	0x3dc07da4	0.09398964
232	0xbe4e2b64	-0.2013374
233	0xbda30428	-0.07959777
234	0x3d4db5b4	0.050222114
235	0x3d6d0b9d	0.057872403
236	0xbe076b2a	-0.13224474
237	0x3dbf14ed	0.09330163
238	0xbe9b9bf5	-0.30392423
239	0x3d9bf314	0.07614723
240	0x3e2d4dc7	0.16924201
241	0x3ddfbaac	0.10924277
242	0x3dc5e9e3	0.09663751
243	0x3df3c4d7	0.119027786
244	0x3d157b61	0.036494616
245	0x3e9238b0	0.28558874
246	0xbe2c69cb	-0.16837232
247	0x3caa66f0	0.020801038
248	0x3d69d20d	0.057085086
249	0x3d6316ba	0.055441596
250	0x3ad30166	0.0016098439
251	0xbe44c779	-0.19216718
252	0x3d6e5083	0.05818225
253	0xbe1eeae5	-0.15519293
254	0x3da2a220	0.07941079
255	0xbdc757ed	-0.097335674

w_group.2.bias f4 [32]
0	0xbf3e499e	-0.7433108
1	0xbf160226	-0.5859703
2	0xbcf8033d	-0.030274982
3	0xbeb1ec05	-0.3475038
4	0x3ead7823	0.3388072
5	0xbed3e46a	-0.41385204
6	0xbe8a2a6b	-0.26985487
7	0xbf1faf8a	-0.62377226
8	0x3d815087	0.063141875
9	0xbdec5899	-0.11540336
10	0xbe167bea	-0.14695707
11	0xbd3eecaf	-0.046612438
12	0xbd5641e4	-0.052308932
13	0xbdf4307f	-0.119233124
14	0x3d338a82	0.043833263
15	0xbe623e83	-0.22094159
16	0xbee79f59	-0.4523876
17	0xbec326ca	-0.3811553
18	0xbf9c757d	-1.2223355
19	0x3efb4e1c	0.4908303
20	0xbe194c8c	-0.14970607
21	0xbc2be15d	-0.0104907425
22	0x3e5bc016	0.21459994
23	0xbc89fd79	-0.016844498
24	0xbdc6a8b9	-0.0970015
25	0xbe630f5c	-0.22173828
26	0xbf04cbe8	-0.51873636
27	0xbdf95aba	-0.12175508
28	0xbd1ec72b	-0.03876416
29	0xbef1ac3c	-0.47201717
30	0xbe8c2df6	-0.27378815
31	0x3da7267d	0.08161638

w_agents.0.weight f4 [64, 5]
0	0x3da260f6	0.0792865
1	0xbd34d106	-0.044144653
2	0x3dc89aef	0.09795176
3	0x3db1d606	0.086834
4	0x3da145cf	0.07874643
5	0x3bf61475	0.007509763
6	0xbcb46651	-0.022021445
7	0xbec1ac5d	-0.37826815
8	0xbe2d364d	-0.16915245
9	0xbee417cf	-0.44549415
10	0xbb81b9dc	-0.0039589237
11	0x3dc3d41f	0.09561943
12	0x3db4006f	0.08789145
13	0x3e07c567	0.13258897
14	0xbe67db3b	-0.22642224
15	0xbd5494f0	-0.05189985
16	0x3d9aef72	0.07565202
17	0x3e499fa1	0.196898
18	0x3dea1f62	0.11431767
19	0xbf38aa98	-0.72135305
20	0xb9e3427c	-0.0004334635
21	0x3dc76ff9	0.09738154
22	0x3f3853c8	0.7200284
23	0xbf9d6fa0	-1.229969
24	0xbe518c7e	-0.2046375
25	0xbe960687	-0.29301855
26	0xbef67729	-0.48137787
27	0x3ebc8523	0.36820325
28	0x3f5d6d5f	0.8649501
29	0xbf0157cf	-0.5052461
30	0x3bc73edc	0.0060804915
31	0x3e8c21f7	0.27369663
32	0xbe4d55ff	-0.20052336
33	0x3f0d58ca	0.55213606
34	0xbf362233	-0.71145934
35	0x3d12e9f1	0.035867635
36	0xbda58714	-0.08082405
37	0xbd865fb5	-0.065612234
38	0x3e2450f8	0.16046512
39	0xbf34b56a	-0.70589316
40	0xbe8c38aa	-0.2738698
41	0x3d604da2	0.054761536
42	0xbdd7a326	-0.10529165
43	0xbf6cbc7d	-0.9247511
44	0xbef51e2a	-0.47874576
45	0xbea20d30	-0.31650686
46	0xbd7dc899	-0.061958883
47	0xbeda523b	-0.42640862
48	0xbe12400e	-0.14282247
49	0xbfd40b96	-1.6566036
50	0xbeb1e615	-0.3474585
51	0x3f4277af	0.7596387
52	0x3f967843	1.1755451
53	0xbee5f9bd	-0.44917098
54	0xbf193384	-0.5984423
55	0x3d85b0d8	0.06527871
56	0xbdf96a4b	-0.12178477
57	0x3f941098	1.1567564
58	0x3f48bd20	0.7841358
59	0xbf6beefa	-0.92161524
60	0xbe0307e1	-0.12795974
61	0xbe1b83b5	-0.15186961
62	0xbf1f71cc	-0.62283015
63	0x3fd6e6aa	1.6789143
64	0xbf831037	-1.0239323
65	0xbc0200d0	-0.007934764
66	0x3ccbc192	0.024872575
67	0xbc8f6924	-0.01750619
68	0x3e6fddc3	0.23424439
69	0x3d029632	0.03188152
70	0x3d426ef9	0.047469113
71	0x3f1f72cf	0.6228456
72	0x3e1ba40b	0.15199296
73	0x3fa457de	1.2839315
74	0xbfa93d31	-1.3221799
75	0xbd817818	-0.06321734
76	0x3e92515e	0.28577703
77	0x3ee76c94	0.45200026
78	0x3f23468d	0.63779527
79	0xbf5c2f4f	-0.8600969
80	0x3ee2cef7	0.44298527
81	0x3e80d6db	0.25163922
82	0xbf9750b1	-1.18215
83	0x3e64560e	0.22298452
84	0xbf4d99a6	-0.80312574
85	0xbe9f5dee	-0.3112635
86	0x3eb20f3b	0.34777245
87	0x3f7849a3	0.9698736
88	0x3fcc6cec	1.597074
89	0xbf7e4110	-0.9931803
90	0xbe9aa3b7	-0.3020303
91	0x3c442342	0.011971297
92	0x3f2d497d	0.6769026
93	0x3f943bf1	1.1580793
94	0xbffd13fb	-1.9771723
95	0xbc369f31	-0.011146353
96	0x3da12bd6	0.07869689
97	0xbcab1f1b	-0.020888856
98	0x3e9d0c1a	0.30673295
99	0xbf2cc765	-0.6749175
100	0x3c2e396f	0.01063381
101	0xbc62a8b9	-0.013834172
102	0xbe111be5	-0.14170797
103	0x3ed790c8	0.42102647
104	0xbf697061	-0.911871
105	0xbd16c2d8	-0.03680691
106	0x3f8a1928	1.0788927
107	0x3ecddf91	0.4020963
108	0x403bd782	2.9350286
109	0xbf03eb03	-0.51530474
110	0xbb73046e	-0.0037081498
111	0x3e0f7d1a	0.14012566
112	0xbdae7264	-0.08517912
113	0x3f2b90e0	0.67017937
114	0xbe2757fe	-0.1634216
115	0x3eb6d608	0.35710168
116	0x3fa0b494	1.2555108
117	0x3f18592a	0.59511054
118	0x3fcec93c	1.6155162
119	0xbfc28b95	-1.5198847
120	0xbe95c824	-0.29254258
121	0x3f6207d6	0.88293207
122	0xbeaa01ea	-0.33204585
123	0x3ffd303b	1.9780344
124	0xbf8a9937	-1.0828007
125	0x3db7b38e	0.08969794
126	0x3e1b6a79	0.15177335
127	0xbca8e75c	-0.020618133
128	0x3e89f13d	0.26941863
129	0xbf024ac5	-0.5089534
130	0x3d452775	0.048133332
131	0x3e71acc5	0.23601063
132	0xbd8bbcee	-0.06823145
133	0x3ea948df	0.3306341
134	0xbf0d960f	-0.55307096
135	0xbe08e721	-0.13369419
136	0x3e94ebcb	0.29086146
137	0x3f14b48c	0.5808799
138	0x3f65f911	0.8983317
139	0xbf9533a8	-1.1656389
140	0xbf0651b3	-0.52468413
141	0x3f8d6743	1.1047138
142	0x3e826f5c	0.25475585
143	0x3f50ec63	0.816107
144	0xbf82663c	-1.018745
145	0x3ee14eb7	0.44005367
146	0xbd6d08f1	-0.057869855
147	0xbe289be7	-0.16465722
148	0x3f42e439	0.7612949
149	0xbf7dbb97	-0.99114364
150	0xbecbdb17	-0.3981559
151	0x3d17e707	0.03708556
152	0xbf5191ad	-0.8186291
153	0x3fadff56	1.3593547
154	0xbf8fdc0c	-1.1239028
155	0x3da42718	0.08015269
156	0x3d972eff	0.07382011
157	0x3e4b0b50	0.19828534
158	0x3c07c931	0.008287714
159	0xbf145236	-0.57937944
160	0x3e1849f7	0.14871965
161	0x3e24a16b	0.16077201
162	0xbf81aab3	-1.0130218
163	0x3fd0f66b	1.6325201
164	0xbf1d204c	-0.61377406
165	0x3e5b5fe5	0.214233
166	0x3fb8d9b9	1.4441444
167	0x3f4f9ece	0.8110169
168	0x40165e94	2.3495226
169	0xbedfe1ea	-0.43727046
170	0xbcf992ca	-0.030465502
171	0x3f88b2d4	1.0679574
172	0xbde03d00	-0.10949135
173	0x40307cfd	2.7576287
174	0x3e68d078	0.22735775
175	0x3dd28acc	0.1028038
176	0xbe3c8d58	-0.18413293
177	0xbf75405c	-0.9580133
178	0x3f5dc1cc	0.86623836
179	0xbf87e326	-1.0616195
180	0xbf3c113d	-0.73463804
181	0x3ff30ac7	1.8987664
182	0x3f28e668	0.6597657
183	0xbf31b8c4	-0.69422555
184	0xbe9bfddd	-0.3046712
185	0xbeebb6dd	-0.4603795
186	0x3f95f95a	1.1716721
187	0x3e5d47f2	0.21609476
188	0x3fb6cdd5	1.4281565
189	0xbf1129e5	-0.5670455
190	0xbcb157c8	-0.021648303
191	0x3e9ef65f	0.3104734
192	0x3e1baec6	0.1520339
193	0xbf7b485e	-0.981573
194	0xbebfd332	-0.37465817
195	0x3d6ae9d9	0.05735192
196	0x3e929724	0.28630936
197	0x3f295afa	0.66154444
198	0xbbb6eaf0	-0.005582206
199	0xbfb30d72	-1.3988478
200	0xbd7c67a6	-0.061622284
201	0x3e24d1e7	0.16095696
202	0x3e26f549	0.16304506
203	0x3f08ee34	0.5348847
204	0xbf0ada67	-0.54239506
205	0x3e202c7b	0.15641968
206	0x400ff364	2.2492304
207	0xbcf27a1f	-0.029599248
208	0xbf49541b	-0.7864396
209	0xbe8c7fd8	-0.27441287
210	0x3d365207	0.04451182
211	0x3f9178e2	1.1365016
212	0xbee1f8ef	-0.44135234
213	0xbfaa85dc	-1.3322101
214	0xbec7e22a	-0.39039737
215	0x3f27597b	0.6537091
216	0xbea2d1af	-0.318006
217	0xbd74d72d	-0.05977552
218	0xbe1acf22	-0.15118077
219	0xbf3c1fdf	-0.7348613
220	0x3f0715ee	0.5276784
221	0x3f421eff	0.75828546
222	0xbf2bb0ce	-0.6706666
223	0x3ff9bf71	1.9511548
224	0xbe9eed1a	-0.3104027
225	0xbd3f5d93	-0.0467201
226	0x3fd05c57	1.627818
227	0xbee04779	-0.4380453
228	0x3f8f0afd	1.1175228
229	0xbe4557b8	-0.19271743
230	0xbe9efbe9	-0.31051567
231	0x3fb3bb60	1.4041557
232	0xbf66029e	-0.89847744
233	0x3fe1fe1a	1.7655671
234	0xbfa0c443	-1.2559894
235	0xbe734653	-0.23757295
236	0x3eef6a22	0.4676066
237	0xbf33c8fa	-0.7022854
238	0x3e60fde0	0.21971846
239	0xbf70842c	-0.9395168
240	0x3f22371a	0.6336533
241	0x3f92cb7b	1.1468347
242	0x3e853e1f	0.26023957
243	0x3fae88d4	1.3635507
244	0xbfbb3ed7	-1.4628552
245	0x3eade74f	0.33965537
246	0xbf124223	-0.57132167
247	0xbfaa5cfd	-1.3309628
248	0x3f262f30	0.6491575
249	0xbf7e67e2	-0.9937726
250	0xbdb96716	-0.09052865
251	0x3dba9144	0.091097385
252	0x3ea708eb	0.3262399
253	0xbfc9a2ae	-1.5752771
254	0xbdbfb998	-0.09361571
255	0xbe959d51	-0.29221585

w_agents.0.bias f4 [64]
0	0xbf406ea3	-0.7516882
1	0xbec0633b	-0.37575707
2	0xbeb1f153	-0.34754428
3	0xbe8f507e	-0.27991098
4	0xbf42ed22	-0.76143086
5	0xbf3bb654	-0.73325086
6	0xbf43ec9c	-0.7653291
7	0xbeb72635	-0.35771337
8	0xbe4ea08b	-0.2017843
9	0xbfb67797	-1.4255246
10	0xbf202513	-0.6255657
11	0xbf9d685f	-1.2297477
12	0xbfaa246b	-1.3292364
13	0xbea6aa7b	-0.3255194
14	0xbf8354cd	-1.0260254
15	0xbf6d95f4	-0.92806935
16	0xbf837b42	-1.027199
17	0xbf6e63eb	-0.9312121
18	0xbfdf98a6	-1.746846
19	0xbe26b9e2	-0.16281846
20	0xbeb60a4a	-0.35554725
21	0xbed8c077	-0.4233434
22	0xbf1f2e8c	-0.621804
23	0xbf7a025a	-0.9765984
24	0xbf9be172	-1.2178175
25	0xbf013c83	-0.5048296
26	0xbf28379f	-0.6570987
27	0xbf7fcb9c	-0.9992006
28	0xbf843c02	-1.0330813
29	0xbf33cf5a	-0.7023827
30	0xbfb7e5b5	-1.4366976
31	0xbf107e10	-0.56442356
32	0xbeca29dc	-0.3948506
33	0xbf1f3b87	-0.62200207
34	0xbd8679c8	-0.06566197
35	0xbf9ec4d9	-1.2403823
36	0xbee80c7f	-0.45322034
37	0xbf5d62d6	-0.86478937
38	0x3dda68e2	0.10664536
39	0xbf8e42bf	-1.1114119
40	0xbf01bd44	-0.5067942
41	0x3d604b94	0.054759577
42	0xbf56954d	-0.83821565
43	0xbf8eee5c	-1.1166492
44	0xbf20f5d7	-0.6287512
45	0xbf496d1a	-0.786821
46	0xbf414682	-0.7549821
47	0xbe9a8da6	-0.30186194
48	0xbf56746c	-0.83771396
49	0xbf94f21c	-1.1636386
50	0xbf6254a2	-0.8841039
51	0xbf5b9ee3	-0.85789317
52	0xbe3e2997	-0.18570553
53	0xbf071275	-0.5276254
54	0xbf294201	-0.6611634
55	0xbee434e9	-0.44571617
56	0xbf049dde	-0.51803386
57	0xbf00a20a	-0.5024725
58	0xbedb378a	-0.4281581
59	0xbc8dbb85	-0.01730133
60	0x3d90a467	0.07062607
61	0xbf2374ca	-0.6385008
62	0xbf99b3da	-1.2008011
63	0xbee1bdbf	-0.44090077

w_agents.2.weight f4 [32, 64]
0	0x3d234816	0.03986367
1	0xbe01b31a	-0.12665978
2	0xbcd933f7	-0.026514037
3	0xbd0b1fcf	-0.033965882
4	0xbe041b56	-0.12901053
5	0x3d29f487	0.041492965
6	0xbd976649	-0.07392556
7	0x3cdfb275	0.027306775
8	0x3c2fcabb	0.010729487
9	0xbe17b68a	-0.14815727
10	0x3cc542cc	0.024079703
11	0x3e2015c5	0.15633304
12	0xbcb1bd2d	-0.021696651
13	0x3cecbc6f	0.028898446
14	0x3c4082bb	0.011749919
15	0xbd76dd44	-0.06026961
16	0xbdb28423	-0.08716609
17	0xbd473693	-0.04863603
18	0xbe08ba18	-0.13352239
19	0xbd9001a7	-0.07031565
20	0xbdfd5555	-0.123697914
21	0xbddafd41	-0.106928356
22	0xbe6fb0ae	-0.23407242
23	0xbe36a4a1	-0.17836238
24	0xbda5162f	-0.08060872
25	0x3d87341c	0.06601736
26	0x3b68ee4e	0.0035542431
27	0xbdf261cc	-0.118350595
28	0xbe4935da	-0.19649449
29	0x3c855c5e	0.016279396
30	0x3d541e4b	0.051786702
31	0xbbe947c0	-0.007119149
32	0x3d4a9aa5	0.049463887
33	0xbdd1a181	-0.102358826
34	0xbcf39d74	-0.029738165
35	0xbdc83b72	-0.09776963
36	0xbe568d5e	-0.20952365
37	0xbe08b325	-0.13349588
38	0xbde90cc2	-0.113793865
39	0xbe2756e6	-0.16341743
40	0xbd8db888	-0.06919962
41	0xbe0beefb	-0.13665383
42	0xbc85222c	-0.016251646
43	0x3da4c81a	0.08045979
44	0x3c881dce	0.016615774
45	0xbd85ebd9	-0.06539125
46	0xbe5430cd	-0.20721741
47	0xbc8e29f3	-0.017353987
48	0xbc5af28d	-0.013363493
49	0x3b90dd0e	0.004420883
50	0xbe09d204	-0.13459021
51	0xbe6fad94	-0.23406059
52	0xbc8cc46f	-0.01718351
53	0x3c241de2	0.01001689
54	0x3c5eca81	0.013598085
55	0xbe290d1e	-0.1650891
56	0x3c8c9f8a	0.017165918
57	0xbd9b2f54	-0.075773865
58	0xbe5046dd	-0.20339532
59	0x3d942356	0.07233302
60	0xbc993a4f	-0.018704562
61	0x3c73afbf	0.014873444
62	0xbd3eeb34	-0.046611026
63	0xbe1ba6e5	-0.15200384
64	0x3d5c1867	0.05373421
65	0xbe65662e	-0.2240226
66	0xbf027b03	-0.5096895
67	0xbe44c28f	-0.19214843
68	0xc010fe3a	-2.2655168
69	0x3e62b476	0.22139153
70	0x3ebdbfd8	0.37060428
71	0x3d0974ec	0.03355877
72	0x3eb8ca49	0.3609183
73	0xbf38e0a4	-0.72217774
74	0x3e38ffed	0.18066378
75	0xbf663775	-0.8992837
76	0xbfd66643	-1.6749958
77	0x3cacd466	0.021097373
78	0xbeb5f019	-0.35534742
79	0xbe804707	-0.2505419
80	0x3fd09837	1.6296452
81	0x3f306b86	0.6891407
82	0x3f091661	0.5354977
83	0x3e1ba7e4	0.15200764
84	0xbd559d0c	-0.052151725
85	0xbf481d5d	-0.78169805
86	0xbd910554	-0.070810944
87	0xbf2a2aca	-0.6647154
88	0x3f648449	0.8926435
89	0xbddc2212	-0.10748686
90	0x3b0b4833	0.002125275
91	0xbfb345c8	-1.400567
92	0x3e85032b	0.2597898
93	0xbf03ecd7	-0.51533264
94	0xbf986ba1	-1.1907846
95	0xbd9b689b	-0.07588311
96	0xbf7d351f	-0.9890918
97	0xbec49410	-0.38394213
98	0xc0019c08	-2.0251484
99	0x3ea4177f	0.32049176
100	0x3ea1af6a	0.31579143
101	0x3e89edf8	0.26939368
102	0xc03c261e	-2.9398265
103	0xbebdf9ca	-0.37104636
104	0xbddb3f51	-0.10705436
105	0xbf321b14	-0.6957257
106	0xc01bb76f	-2.433071
107	0xbe71bb8a	-0.23606697
108	0xbe45a998	-0.19302976
109	0xbea578c0	-0.32318687
110	0xbfa5eaea	-1.2962315
111	0xbf7f17b2	-0.9964553
112	0x3e2d2dbf	0.16911982
113	0x3f1554e9	0.5833269
114	0xbfd3222e	-1.6494806
115	0xbf43ce17	-0.76486343
116	0x3a0ff1ac	0.0005491029
117	0xbf17d125	-0.59303504
118	0x3eda7f97	0.42675468
119	0xbd3eca4e	-0.04657965
120	0xbe9dc67b	-0.3081549
121	0xbd91ac1c	-0.071129054
122	0xbe87d466	-0.26529235
123	0xbfc60dfc	-1.5473018
124	0x3c456b55	0.012049516
125	0xbfb926af	-1.446493
126	0x3e28109d	0.16412587
127	0x3a242236	0.00062612013
128	0xbda5d48b	-0.0809718
129	0xbe940671	-0.28911164
130	0xbcab047b	-0.02087616
131	0x3ecedf17	0.4040458
132	0xbe554961	-0.20828773
133	0xbc73dc90	-0.014884129
134	0xbc69fca2	-0.014281424
135	0xbf114d7a	-0.56758845
136	0xbd881327	-0.06644278
137	0x3e2abcd0	0.16673589
138	0xbd06eb6c	-0.03293936
139	0xbd83c1cf	-0.064334504
140	0x3e851550	0.25992823
141	0xbea331d5	-0.31873956
142	0xbd92c26b	-0.071659885
143	0x3e7f1b4d	0.24912758
144	0xbe08bc35	-0.13353045
145	0xbf1063b3	-0.5640213
146	0xbd39c207	-0.045351055
147	0x3e5d17ee	0.2159116
148	0xbeb3b0e7	-0.35095903
149	0xbe9498fe	-0.29022974
150	0xbe1381e7	-0.14405023
151	0xbdcfaea9	-0.10140736
152	0x3d881453	0.066445015
153	0xbed696e2	-0.4191199
154	0xbd8143c9	-0.06311757
155	0x3cc08885	0.023502598
156	0x3d58f296	0.052965723
157	0xbed4c6af	-0.41557834
158	0xbe8979fd	-0.26850882
159	0x3dad14d1	0.08451236
160	0x3d10270c	0.035193488
161	0xbeab3550	-0.33439112
162	0xbca99d29	-0.020704823
163	0x3c32052f	0.010865494
164	0xbc47b4e4	-0.012189124
165	0xbe573bcb	-0.21018903
166	0xbe4874b5	-0.1957577
167	0x3b0e3787	0.0021700577
168	0x3e38d344	0.18049341
169	0xbab9227f	-0.001412466
170	0xbe2d055a	-0.16896573
171	0xbf08162e	-0.53158844
172	0xbeab3995	-0.3344237
173	0xbe89038c	-0.2676052
174	0xbeddb1f2	-0.43299824
175	0xbe248d9c	-0.16069645
176	0x3cad2457	0.021135492
177	0xbd2022a0	-0.03909552
178	0xbe0e373f	-0.13888262
179	0xbd2ec6ea	-0.042670168
180	0xbdff7e14	-0.12475219
181	0x3d5bc5f4	0.05365558
182	0xbe026e35	-0.12737353
183	0x3d5e79f8	0.054315537
184	0xbd242578	-0.040074795
185	0x3d4753bb	0.048663836
186	0xbd6cebf9	-0.05784223
187	0x3e3c0bbe	0.18363854
188	0x3d40376a	0.046927847
189	0x3e466a9e	0.19376609
190	0xbe583bc2	-0.21116546
191	0xbe2634cb	-0.16231076
192	0xbd403687	-0.046927
193	0xbb75f330	-0.0037528984
194	0xbc3aec27	-0.011408842
195	0x3e71f5bf	0.23628901
196	0xbe8bd346	-0.27309626
197	0xbecf112f	-0.40442798
198	0x3e696ad4	0.22794658
199	0x3cf2f074	0.029655673
200	0xbc68bd1c	-0.014205243
201	0xbf0130e5	-0.5046523
202	0x3f4099bd	0.75234586
203	0x3ee64000	0.44970703
204	0x3eed108e	0.46301693
205	0xbd2abc20	-0.041683316
206	0xbf8c3d6c	-1.0956244
207	0x3e2c3633	0.1681755
208	0x3b4cf30b	0.0031272795
209	0x3f1b537e	0.60674274
210	0x3e7b02da	0.24512807
211	0x3cf6880e	0.030094173
212	0x3d74f682	0.0598054
213	0xbea222d5	-0.316672
214	0x3c935f65	0.017989824
215	0x3f456d57	0.77119964
216	0xbf8161e4	-1.0107999
217	0x3d02e2bc	0.031954512
218	0x3e94142b	0.28921637
219	0x3d2a1955	0.041528065
220	0x3d7e9aa1	0.062159184
221	0xbe13edb2	-0.14446142
222	0xbe7cc77f	-0.24685477
223	0x3d05556a	0.03255216
224	0x3dc40074	0.09570399
225	0xbe293e43	-0.16527657
226	0xbedbb7d3	-0.42913684
227	0xbec481f1	-0.38380387
228	0xbeca2614	-0.39482176
229	0xbd77acca	-0.06046752
230	0xbe7f0a74	-0.24906331
231	0xbf601b00	-0.875412
232	0x3c7c4ecc	0.015399646
233	0x3dd3ad9f	0.1033585
234	0x3ead3148	0.3382666
235	0x3e2af560	0.16695166
236	0x3e90a187	0.28248236
237	0xbf80882b	-1.0041555
238	0x3e165248	0.14679825
239	0x3eb1969e	0.34685224
240	0x3dec03d8	0.11524171
241	0xbe2c0ab2	-0.16800955
242	0xbf0ea948	-0.5572705
243	0x3f141014	0.57837033
244	0x3dbe3f1d	0.09289382
245	0x3ebd8a93	0.37019786
246	0x3dab71f9	0.08371348
247	0xbd87fb7d	-0.066397645
248	0xbe169f1b	-0.14709131
249	0x3e097641	0.13424017
250	0xbe47afbe	-0.19500634
251	0xbdadb9e7	-0.08482724
252	0x3c4acc6d	0.0123778405
253	0x3e978947	0.29596922
254	0x3f005601	0.5013123
255	0xbe3f0373	-0.1865366

w_agents.2.bias f4 [32]
0	0xbe617abe	-0.22019479
1	0x3dc9e6df	0.09858488
2	0xbf06ce99	-0.52658993
3	0x3f086263	0.53275126
4	0xbf084499	-0.5322967
5	0xbe17a232	-0.14807966
6	0xbd1986df	-0.03748214
7	0xbd5d27d7	-0.053993072
8	0xbda2bbad	-0.079459526
9	0xbe612296	-0.2198585
10	0xbe2f7973	-0.17136173
11	0xbe35648d	-0.17714138
12	0xbd294001	-0.041320805
13	0xbd961d0e	-0.073297605
14	0xbd2c0d60	-0.042004943
15	0x3e41a778	0.1891154
16	0x3ea36839	0.31915453
17	0xbdf7e3be	-0.12103985
18	0xbe0de5b9	-0.13857163
19	0xbe114192	-0.1418517
20	0x3d41ca8f	0.047312316
21	0x3e85e0ba	0.26148015
22	0xbe551175	-0.2080744
23	0xbd053df3	-0.032529783
24	0xbe19fc6b	-0.15037696
25	0xbe730113	-0.23730879
26	0xbf3668de	-0.71253765
27	0xbe19d104	-0.1502114
28	0xbcfdb132	-0.030968282
29	0xbcef2cd6	-0.029196184
30	0x3ea391f5	0.31947294
31	0xbe55d1be	-0.20880792

Ws.0 f4 [32, 32]
0	0xbf661772	-0.89879525
1	0x3e8b8436	0.27249306
2	0x3e288d8c	0.16460246
3	0x3f33826c	0.70120883
4	0xbf240ca4	-0.6408179
5	0x3f5dd694	0.86655545
6	0xbf67583c	-0.9036901
7	0xbf853faf	-1.041006
8	0xbfdc01cb	-1.7188047
9	0x3fcaea65	1.5852782
10	0x3f9b4c0b	1.2132581
11	0xbf1b2d77	-0.6061625
12	0x3f9269e6	1.1438568
13	0x3f0b6d8e	0.5446404
14	0x3f19289f	0.5982761
15	0x3e42f41c	0.19038433
16	0x3f2caee4	0.6745436
17	0x3ee7bec3	0.45262727
18	0xbebfa6a7	-0.37431833
19	0x3f76c023	0.9638693
20	0xbe78c6b8	-0.24294555
21	0xbf4f2504	-0.80915856
22	0xbff64d3b	-1.9242319
23	0x3f89d064	1.0766721
24	0xbf978c92	-1.1839774
25	0xbfc9066b	-1.5705084
26	0xbf4dceb7	-0.80393547
27	0x3f247012	0.64233506
28	0x3f335d5b	0.70064324
29	0x3fd97f2a	1.6991932
30	0x3e3b8766	0.18313369
31	0xbe788a7a	-0.24271575
32	0xbe4b7aee	-0.19871113
33	0xbf06b9a1	-0.52627
34	0xbf77797e	-0.9666976
35	0xc0c9b0bc	-6.302824
36	0xbfee4c28	-1.8616991
37	0xbf041cad	-0.51606256
38	0x3e5b5514	0.21419173
39	0x3f95a217	1.1690091
40	0xbfb2b9e1	-1.3962976
41	0x3e302670	0.17202163
42	0x3de6a491	0.11261857
43	0x3cb6e11e	0.022324141
44	0x3c7e5d2a	0.015525142
45	0xbd363132	-0.04448051
46	0x3e7f6081	0.24939157
47	0xbf19eac0	-0.60123825
48	0x3e1ef771	0.15524079
49	0xbf062dd8	-0.524137
50	0xbf6ac123	-0.91700953
51	0xbf4103cb	-0.7539641
52	0x3f08d02b	0.5344264
53	0x3fb20564	1.3907895
54	0x3e3b8fc9	0.18316568
55	0x3ebff56c	0.3749193
56	0x3f89aaeb	1.0755285
57	0xbf127356	-0.5720724
58	0x3ea7bc53	0.32760867
59	0x3ef63bd4	0.4809252
60	0x3efa70fa	0.4891432
61	0xc00eece4	-2.2332087
62	0xbf9a2e04	-1.2045293
63	0xbea57f2c	-0.32323587
64	0x3f18cb58	0.5968528
65	0x3ed3cfd7	0.41369507
66	0x3c42ec48	0.011897154
67	0x3f2f6623	0.68515223
68	0x3fa4db77	1.2879475
69	0x3e419f16	0.18908343
70	0xbfbc6905	-1.471955
71	0x40292c99	2.643347
72	0xbe49097a	-0.19632521
73	0x3fed67ee	1.8547342
74	0xbf3efd79	-0.7460552
75	0xbd10ce5f	-0.03535306
76	0xbdd35bb0	-0.103202224
77	0x3f6cf27d	0.9255751
78	0xbe55a3ce	-0.20863268
79	0xbff3f922	-1.9060404
80	0xbee7ea89	-0.45296124
81	0x3edd1717	0.4318168
82	0x3d22d3a5	0.03975262
83	0x4020421a	2.5040345
84	0xbf8ca209	-1.0986949
85	0xbf0d114f	-0.55104536
86	0xbf8e701d	-1.1127964
87	0x3f916a61	1.1360589
88	0x3dfbabbd	0.12288616
89	0x3eaf733d	0.34267607
90	0xbe7e0c5e	-0.24809405
91	0x3f8b48cd	1.0881592
92	0x3da365e5	0.07978419
93	0xc02ebf2f	-2.730419
94	0xbf859f5e	-1.043926
95	0xbf022dc3	-0.50851077
96	0xbf66f339	-0.9021488
97	0x3f8bf284	1.0933385
98	0x3f02d1a9	0.51101166
99	0xbf9ddd93	-1.2333244
100	0xc0111d44	-2.2674112
101	0x3f1f2a33	0.62173766
102	0x3f0c3fd8	0.5478492
103	0x3f1fb728	0.6238885
104	0x3e01832b	0.12647693
105	0xbf8c8089	-1.0976726
106	0xbcc000b1	-0.02343783
107	0xbdd81239	-0.10550351
108	0x3f10d76b	0.565787
109	0xc01b96cd	-2.4310791
110	0x3e1533b1	0.145705
111	0xbff36aee	-1.9017007
112	0xbf08f768	-0.5350251
113	0x3facef06	1.3510444
114	0xbf58fa5f	-0.84757036
115	0x3f2df8dc	0.67957854
116	0xbff87e0f	-1.941347
117	0xbf43ccf4	-0.7648461
118	0xbf366578	-0.7124858
119	0xbe958128	-0.292001
120	0x3ea76ca9	0.3270009
121	0x3f859d48	1.0438623
122	0x3eef442d	0.46731701
123	0x3f7152a8	0.9426675
124	0x3f9fefa9	1.2495013
125	0xbfa6ac34	-1.3021302
126	0x3f49729a	0.78690493
127	0x3f8cbaf4	1.0994554
128	0x3f861c41	1.0477372
129	0xc058929b	-3.383948
130	0xc02d57d0	-2.7084846
131	0x3ed1ea71	0.40999177
132	0xbed30b74	-0.41219676
133	0x3fd22a7d	1.6419216
134	0xbf5a9d6a	-0.85396445
135	0xbf3a6266	-0.72806394
136	0xc009a37b	-2.150603
137	0x3f4c6b85	0.7985156
138	0x3fecccec	1.8500037
139	0x3e86ddd1	0.26341107
140	0xbf5eb5f2	-0.86996377
141	0xbe34c6f6	-0.17654023
142	0xbf01ed2a	-0.5075251
143	0x3f8b76c3	1.0895618
144	0x3fa49286	1.2857215
145	0x3f0a9929	0.54139954
146	0x3f70367e	0.9383315
147	0x3fae4368	1.3614321
148	0x3f5bc79e	0.85851467
149	0xbfc44016	-1.5332057
150	0xc0185492	-2.3801618
151	0xbb544376	-0.0032388843
152	0x3f9dc7dc	1.2326617
153	0x3ec83edc	0.39110458
154	0xbe225e7e	-0.15856358
155	0xbfe4cac4	-1.7874379
156	0xbd08fcff	-0.0334444
157	0x3fa07ada	1.2537491
158	0x3f068339	0.5254398
159	0x3e889337	0.26674816
160	0xc05a2731	-3.408642
161	0xbf498b85	-0.78728515
162	0xbf6a7d38	-0.9159732
163	0xc004420a	-2.0665307
164	0x3fa17e2d	1.2616631
165	0x3f7d6e4b	0.9899642
166	0x3f430eb0	0.76194286
167	0xbe126570	-0.14296508
168	0x3f33ddbd	0.7026022
169	0x3ea25852	0.31708008
170	0xbf9bdb31	-1.2176267
171	0xbe86f2bd	-0.2635707
172	0x3fea5cf8	1.8309622
173	0x3f21633e	0.63042057
174	0xbe110a90	-0.14164186
175	0xbf10d85a	-0.56580126
176	0xc00c4d36	-2.1922126
177	0xbe9f7649	-0.31144932
178	0x3b2260c7	0.0024776922
179	0x3fa78d89	1.3090068
180	0x3ef1a877	0.4719884
181	0x3d9fe29e	0.07806896
182	0xc0392d03	-2.8933723
183	0xbfb6c61c	-1.4279208
184	0x3de13e8c	0.10998258
185	0xbeefcd93	-0.46836528
186	0xbd6ce13b	-0.057831984
187	0xc020ae47	-2.510637
188	0xbfe8458b	-1.8146223
189	0xc01008d6	-2.2505393
190	0x3fb4c0a2	1.4121287
191	0x3e998551	0.29984525
192	0x3ebb267c	0.365528
193	0x3fa79e16	1.3095119
194	0x3ea8dfac	0.32983148
195	0xc09c5ef3	-4.8865905
196	0xc0aa394a	-5.3194933
197	0xbf878fb7	-1.0590733
198	0xbee39322	-0.4444819
199	0x3e125826	0.14291438
200	0x3fdebe76	1.7401874
201	0xbfaddc17	-1.3582791
202	0x4008087f	2.1255186
203	0xbe1e7693	-0.1547492
204	0x3f81bae3	1.0135158
205	0xbfd52db6	-1.6654575
206	0x3ffeca9c	1.9905581
207	0xc0a5f58a	-5.186223
208	0xbf039f19	-0.5141464
209	0xbf2c55c1	-0.6731835
210	0x3f3d51e2	0.7395307
211	0xbfed52a7	-1.8540848
212	0xbf8c4859	-1.0959579
213	0xbfee10ae	-1.859884
214	0x3f71f7f9	0.94519
215	0x3f92e47d	1.1475979
216	0x40070f6b	2.110316
217	0xbfa4f1fb	-1.2886347
218	0x3e9e4713	0.309136
219	0xbfb23c0b	-1.3924574
220	0x3f84c09f	1.0371283
221	0x3f633b19	0.8876205
222	0x3e8846ed	0.26616612
223	0xbfdb23f3	-1.7120346
224	0x3f3fb43d	0.74884397
225	0x3e52c833	0.20584182
226	0xbf5b0bb9	-0.8556476
227	0xbf472e80	-0.7780533
228	0x3ed57640	0.4169178
229	0xbf95ae76	-1.1693866
230	0xbabfd58b	-0.0014635784
231	0x3f887677	1.0661153
232	0x3f54b226	0.8308433
233	0x3e83c207	0.2573397
234	0xbe252e1f	-0.16130875
235	0x3f272cc2	0.6530267
236	0xc0182fe8	-2.377924
237	0x3f34c2f3	0.7060997
238	0x3fb7499f	1.4319342
239	0xbec78f30	-0.3897643
240	0xc005b6de	-2.0892863
241	0xbea95903	-0.33075723
242	0xbf87ed62	-1.0619318
243	0xc0983362	-4.7562723
244	0xc0043407	-2.0656755
245	0x3e6f1d74	0.23351079
246	0x3f9b979b	1.2155641
247	0xbecbcf5d	-0.39806643
248	0xbf07be08	-0.5302434
249	0x3f84aa01	1.0364381
250	0x3ec9d6df	0.39421746
251	0x3ead2409	0.33816555
252	0x3fd28722	1.6447489
253	0xc01ba00c	-2.4316435
254	0xc0171c41	-2.3610995
255	0xbf838df3	-1.0277694
